models/1000PEPEUSDT_lstm_20250822_023011.pth (torch, 267885 bytes, 11 tensors)

lstm.weight_ih_l0 f4 [256, 53]
-0.08845988 -0.120052055 -0.11733423 0.09246582 0.080522045 -0.07320449 0.06818056 -0.11143009
-0.075762495 0.03576933 -0.10511319 -0.06677577 -0.10208981 0.00337857 -0.107887775 0.10705304
0.053141907 0.013006821 -0.099127695 0.10343191 0.089712456 -0.07332063 -0.002602592 0.123833224
0.10149956 -0.07041764 -0.0982452 -0.07184532 -0.036918506 0.06152436 -0.118909806 -0.029498711
-0.0755319 0.09193753 -0.056102216 -0.03604935 -0.07660858 -0.108217746 -0.08056663 -0.05016476
0.122694016 0.079184994 0.11416033 0.04986088 0.08443326 -0.07643883 0.05653055 -0.030415505
-0.04990101 -0.06268977 0.1140673 -0.063713714 -0.011195347 0.10662623 -0.08363673 -0.123126
-0.11011073 -0.021032944 -0.032797903 -0.019446656 0.10196526 0.044366166 0.10687466 -0.04350947
-0.07955797 0.11116475 0.054046616 0.03626439 -0.007270053 -0.03738469 -0.00092563033 -0.0049736947
0.09640437 -0.059040368 -0.037850782 -0.036663115 0.07737833 -0.04648754 -0.019746691 0.04671544
0.06175305 0.05808051 -0.08463341 -0.088819936 0.033469304 -0.10484931 -0.081453264 0.0432913
-0.091826215 0.09193322 0.078792125 -0.06249991 -0.07457638 0.022837594 0.07753371 0.0007251203
0.0945552 -0.08871095 -0.047093272 -0.09811583 0.05413209 0.08512646 0.09761821 0.1077908
-0.031611934 -0.07461396 0.11434746 -0.015689045 -0.02787231 0.08837563 -0.010301545 0.10228154
-0.04054892 -0.10403256 0.11811502 -0.049372286 0.107279256 0.09905599 -0.12201396 0.019628897
0.11375736 0.1014837 -0.018940508 0.02851145 0.010920525 0.09398848 -0.032096952 0.095926106
0.04327996 -0.06756161 0.06484006 0.118576795 -0.10852216 0.010831326 -0.052704543 0.040592223
-0.10305597 0.075595915 -0.07272597 0.0012725443 0.12175332 0.008751228 -0.08363913 0.03522107
-0.11321384 -0.010283425 -0.096053556 -0.09241553 0.06931065 -0.019601658 -0.07032998 -0.064082265
-0.025651515 -0.07573117 0.07427411 0.067378536 0.032031953 0.096968204 0.11250749 -0.048126414
0.097182944 0.0552949 -0.09622796 -0.03160347 0.11381243 -0.06649195 0.024457559 -0.09540744
-0.05687709 -0.11919004 -0.111747384 -0.07139152 0.06082374 -0.101864636 -0.09104042 -0.07041973
0.08965798 -0.024712667 0.07091284 -0.09184581 0.10493937 -0.08049087 0.09634474 -0.046455756
0.12317091 0.0887572 -0.040478542 0.10432142 0.08964111 -0.097146094 0.077054456 0.0010283589
-0.09294993 -0.067925036 -0.014645815 0.014648393 -0.0039699376 -0.09594126 0.02669847 -0.09597212
-0.114671856 0.053641334 0.06905526 0.024563313 0.07934184 0.0034460127 0.08838855 -0.055999234
0.06652747 0.028385922 -0.1103559 0.019230649 0.11603448 -0.11332694 -0.0747333 -0.02654612
-0.07739623 0.01999329 -0.014999017 0.08484392 0.062414616 -0.062312946 0.0906744 -0.10583463
0.095377475 0.06680015 0.06814626 0.09039794 -0.06456193 0.01779078 -0.02010554 -0.10195412
-0.106361225 0.058290213 -0.022914067 -0.056605726 -0.10667178 -0.08789538 0.057459384 -0.083999455
0.08051409 -0.085976765 0.10221246 -0.07086353 -0.037633747 0.0063007474 0.035389677 0.03487128
-0.02085881 -0.12128432 -0.012416989 0.017076552 0.026072115 0.11881645 -0.0029996186 0.10547349
00000000: 742a b5bd dadd f5bd ee4c f0bd b85e bd3d
00000010: bee8 a43d 3cec 95bd 40a2 8b3d 7635 e4bd
00000020: 5e29 9bbd dc82 123d 9645 d7bd bcc1 88bd
00000030: 7614 d1bd 006b 5d3b 44f4 dcbd a03e db3d
00000040: 54ab 593d 901a 553c 7603 cbbd 1cd4 d33d
00000050: 2abb b73d 2029 96bd 4090 2abb 469c fd3d
00000060: 00df cf3d 2037 90bd c834 c9bd a423 93bd
00000070: dc37 17bd f800 7c3d fc86 f3bd 48a7 f1bc
00000080: 78b0 9abd be49 bc3d 70cb 65bd 7ca8 13bd
00000090: f6e4 9cbd 44a1 ddbd 1e00 a5bd 9079 4dbd
000000a0: 0047 fb3d be2b a23d e4cc e93d ec3a 4c3d
000000b0: 58eb ac3d f68b 9cbd 948c 673d f029 f9bc
000000c0: 0065 4cbd 7e63 80bd 1e9c e93d 567c 82bd
000000d0: b06c 37bc da5e da3d bc49 abbd 7c29 fcbd
000000e0: bc81 e1bd 484d acbc 1857 06bd 984e 9fbc
000000f0: 2ad3 d03d 4cb9 353d 1ae1 da3d fc36 32bd
00000100: 4aef a2bd 58aa e33d fc5f 5d3d f889 143d
00000110: a039 eebb b020 19bd 00a6 72ba 60fa a2bb
00000120: a86f c53d 50d4 71bd 6c09 1bbd 102c 16bd
00000130: 8878 9e3d b869 3ebd d0c3 a1bc b058 3f3d
00000140: c4f0 7c3d d4e5 6d3d 4854 adbd 3ae7 b5bd
00000150: 1c17 093d 3cbb d6bd f8d0 a6bd 3852 313d
00000160: 620f bcbd 7c47 bc3d c45d a13d e8ff 7fbd
00000170: 80bb 98bd e815 bb3c fec9 9e3d 0016 3e3a
00000180: 28a6 c13d 16ae b5bd e0e4 40bd f4f0 c8bd
00000190: 9cb9 5d3d c856 ae3d 0eec c73d 6cc1 dc3d
000001a0: 847b 01bd 34cf 98bd 002f ea3d 5086 80bc
000001b0: 7854 e4bc 48fe b43d d0c7 28bc fc78 d13d
000001c0: a016 26bd 060f d5bd 4ae6 f13d 983a 4abd
000001d0: 3ab5 db3d dedd ca3d 74e2 f9bd c8cc a03c
000001e0: 9ef9 e83d b0d6 cf3d 2029 9bbc d890 e93c
000001f0: 00ec 323c 087d c03d 1878 03bd e874 c43d
00000200: 5446 313d be5d 8abd deca 843d 64d8 f23d
00000210: de40 debd e075 313c b8e0 57bd 0844 263d
00000220: 020f d3bd 08d2 9a3d 5af1 94bd 80cb a63a
00000230: ce59 f93d 5061 0f3c fe4a abbd f843 103d
00000240: a8dc e7bd d07b 28bc bab7 c4bd 5a44 bdbd
00000250: bef2 8d3d a893 a0bc 2a09 90bd 903d 83bd
00000260: 2023 d2bc f218 9bbd 061d 983d c2fd 893d
00000270: f033 033d 4497 c63d 546a e63d 3420 45bd
00000280: da07 c73d e87c 623d 2a13 c5bd a472 01bd
00000290: 7e16 e93d ee2c 88bd 385b c83c fa64 c3bd
000002a0: f4f7 68bd e819 f4bd d0db e4bd b835 92bd
000002b0: 5022 793d 689e d0bd 6673 babd 3838 90bd
000002c0: 9a9e b73d 3872 cabc c03a 913d a819 bcbd
000002d0: 74ea d63d 66d8 a4bd 6450 c53d 6448 3ebd
000002e0: 0841 fc3d 56c6 b53d d4cc 25bd 78a6 d53d
000002f0: c295 b73d 88f4 c6bd bace 9d3d 00ca 863a
00000300: 885c bebd 481c 8bbd 00f5 6fbc d0ff 6f3c
00000310: 4016 82bb da7c c4bd c0b6 da3c 088d c4bd
00000320: 14d9 eabd 04b7 5b3d d86c 8d3d 0039 c93c
00000330: fa7d a23d 80d6 613b 0e05 b53d 745f 65bd
00000340: 8e3f 883d 9889 e83c 4602 e2bd 9889 9d3c
00000350: 7ca3 ed3d f417 e8bd c60d 99bd 4077 d9bc
00000360: ea81 9ebd f8c8 a33c 70be 75bc a6c2 ad3d
00000370: 78a6 7f3d dc3b 7fbd 80b3 b93d d4bf d8bd
00000380: 4455 c33d 84ce 883d 4490 8b3d 8e22 b93d
00000390: 0c39 84bd f8bd 913c 60b4 a4bc 52cd d0bd
000003a0: ead3 d9bd b8c1 6e3d 48b6 bbbc 68db 67bd
000003b0: bc76 dabd 7e02 b4bd 885a 6b3d e807 acbd
000003c0: 92e4 a43d 9614 b0bd c454 d13d e620 91bd
000003d0: d825 1abd 8076 ce3b c4f4 103d 30d5 0e3d
000003e0: 18e0 aabc ea63 f8bd a070 4bbc 20e4 8b3c
000003f0: 3095 d53c 0a56 f33d 4095 44bb 7c02 d83d

lstm.weight_hh_l0 f4 [256, 64]
-0.06537476 0.11213313 0.022533208 0.04510443 0.058199793 -0.051624224 -0.009727374 -0.06425302
-0.046402216 0.113781095 -0.011417538 -0.101311624 0.10407287 -0.067245334 -0.030960381 -0.040138558
0.0053390563 0.04528117 0.017537773 -0.07820894 -0.06599975 -0.029034376 -0.046268597 0.0031352043
0.08853491 0.06916574 0.080200896 -0.11816855 -0.03506519 0.062235445 -0.09453006 -0.08045767
-0.033025578 -0.09907085 -0.0032390356 0.012825772 -0.09387195 0.051007986 -0.07984136 -0.08363935
-0.009665832 -0.09221853 0.06122735 -0.013291791 0.047194958 -0.010446474 -0.038118973 -0.07110299
-0.02221334 0.040722594 0.11785595 0.08723679 0.07435733 0.06303482 0.11331171 -0.038753256
-0.009591237 0.11941244 0.07063733 -0.03359069 -0.11282265 0.116701886 0.036250666 -0.0416622
-0.018168986 0.11035417 0.10190879 0.11844927 -0.118636996 -0.03791283 0.017210692 0.017643005
0.018245652 0.10207495 0.025240734 -0.10697162 -0.009016141 0.022580892 0.015802369 0.0972828
0.05460581 -0.08133134 0.045882255 -0.03989899 0.0010573119 0.11845723 0.073663756 -0.028065398
-0.082212105 -0.066490725 -0.053636074 -0.02807106 -0.11549559 0.08393523 -0.09348862 0.011231765
0.09246302 0.07681346 -0.05430743 0.08457561 -0.047609106 0.10265978 0.07425667 0.013431355
0.023594812 -0.021630421 -0.11343631 -0.113807455 -0.11650188 0.06543854 0.12494187 0.023614109
0.10943262 -0.087219626 -0.059166104 0.118711844 -0.016957775 -0.04260795 0.0759754 -0.09421894
-0.02764815 0.093930915 0.112662256 0.066774994 -0.09690051 0.09777786 0.03007099 0.06271532
0.0922316 -0.11585261 0.019157946 -0.06814815 0.08684775 0.122670695 0.01190643 0.0071245134
0.021921486 -0.02847153 0.11527629 -0.070873186 0.11730811 0.06204614 0.09909409 0.064618856
-0.017581776 -0.0480738 -0.10286799 -0.0380971 0.11766699 0.0829619 -0.072975814 -0.077307105
0.11066142 -0.07183491 -0.08322123 0.044550836 0.11065321 -0.10021676 0.0060448796 -0.018508762
0.033126935 -0.119206205 0.11487736 -0.0826547 -0.11792691 0.075128704 0.013405651 0.034392357
-0.093441695 0.11802818 -0.04375486 -0.038394004 0.0040110797 0.022961214 -0.02201043 0.005153239
-0.04589723 0.045010313 0.06746243 0.06836629 0.08229573 0.0867829 -0.08736634 -0.044691727
-0.11280772 -0.042876393 -0.11638141 -0.03489773 -0.04567696 -0.058796495 0.053517 0.0886848
0.019601718 -0.029603377 0.054087147 0.10414441 0.026769117 0.09589706 0.04940641 -0.029916838
0.036280006 -0.025385812 -0.002724424 0.00023828447 -0.11409201 0.106512934 -0.045599356 0.04818733
-0.096961066 -0.034335792 -0.12384878 0.018380925 -0.034147993 0.10374884 -0.07612719 -0.08210854
-0.05983904 0.12038915 0.07423478 -0.056685045 0.11307734 -0.032245636 -0.0129381865 0.11610378
0.030246913 -0.0006554574 -0.10617517 -0.004432395 0.12186995 -0.026674345 0.042475462 0.056085646
0.031333834 -0.12183957 0.057113126 -0.010378644 -0.0839013 0.0721121 0.023840249 0.09164713
-0.0004336536 0.041876897 0.08129467 -0.028977081 -0.035103843 -0.07549639 0.0708431 0.0781427
0.120349005 0.08293307 -0.11281054 0.050601527 -0.04866086 -0.120731235 0.007019043 -0.048299447
00000000: 34e3 85bd 0ea6 e53d 9097 b83c 6cbf 383d
00000010: e862 6e3d ec73 53bd 905f 1fbc 1697 83bd
00000020: 4010 3ebd 1006 e93d a010 3bbc 787c cfbd
00000030: 2824 d53d ecb7 89bd a0a0 fdbc 5468 24bd
00000040: 40f3 ae3b c078 393d 60ab 8f3c 022c a0bd
00000050: e02a 87bd 80d9 edbc 2484 3dbd 0078 4d3b
00000060: ca51 b53d c4a6 8d3d 5e40 a43d 5a02 f2bd
00000070: 84a0 0fbd 98ea 7e3d fa98 c1bd fec6 a4bd
00000080: d445 07bd a8e5 cabd 0046 54bb 3023 523c
00000090: f03f c0bd c0ed 503d de83 a3bd 1c4b abbd
000000a0: 705d 1ebc 12dd bcbd 88c9 7a3d d0c5 59bc
000000b0: 804f 413d b027 2bbc a422 1cbd 729e 91bd
000000c0: c0f8 b5bc bccc 263d 765e f13d 34a9 b23d
000000d0: a848 983d 6618 813d f80f e83d bcbb 1ebd
000000e0: 9024 1dbc 828e f43d 4eaa 903d 6496 09bd
000000f0: 900f e7bd 6601 ef3d 947b 143d fca5 2abd
00000100: 20d7 94bc 5e01 e23d 8eb5 d03d 8895 f23d
00000110: f4f7 f2bd 7c4a 1bbd 70fd 8c3c 1088 903c
00000120: e877 953c ac0c d13d a8c5 ce3c f013 dbbd
00000130: 70b8 13bc 90fb b83c f873 813c 343c c73d
00000140: 58aa 5f3d 0c91 a6bd 08ef 3b3d 206d 23bd
00000150: 8095 8a3a b499 f23d 06dd 963d 68e9 e5bc
00000160: d25e a8bd 4a2c 88bd 80b1 5bbd 48f5 e5bc
00000170: f488 ecbd 3ce6 ab3d f676 bfbd 7005 383c
00000180: 405d bd3d 6050 9d3d 7871 5ebd fa35 ad3d
00000190: c401 43bd 4a3f d23d e213 983d 300f 5c3c
000001a0: e849 c13c 4832 b1bc 4c51 e8bd e213 e9bd
000001b0: 8a98 eebd a404 863d 86e1 ff3d 6072 c13c
000001c0: 361e e03d 34a0 b2bd 2858 72bd 321f f33d
000001d0: 08eb 8abc ac85 2ebd fe98 9b3d dcf5 c0bd
000001e0: 607e e2bc da5e c03d 78bb e63d 54c1 883d
000001f0: c673 c6bd c23f c83d 7057 f63c e470 803d
00000200: ece3 bc3d 2244 edbd 20f1 9c3c 4291 8bbd
00000210: 3cdd b13d c63a fb3d 3013 433c c074 e93b
00000220: b094 b33c 203d e9bc fa15 ec3d f625 91bd
00000230: 3c3f f03d 1824 7e3d d8f1 ca3d e456 843d
00000240: a807 90bc 08e9 44bd 74ac d2bd b40b 1cbd
00000250: 64fb f03d eee7 a93d 5874 95bd 3053 9ebd
00000260: 74a2 e23d 2e1e 93bd e46f aabd f07a 363d
00000270: 269e e23d 723e cdbd 2014 c63b b09f 97bc
00000280: 1cb0 073d 6222 f4bd d244 eb3d de46 a9bd
00000290: aa83 f1bd 14dd 993d 60a3 5b3c 00df 0c3d
000002a0: 5c5e bfbd c2b8 f13d 4c38 33bd 0843 1dbd
000002b0: 606f 833b 2819 bc3c 384f b4bc 80dc a83b
000002c0: bcfe 3bbd bc5c 383d be29 8a3d a003 8c3d
000002d0: aa8a a83d 3cbb b13d 20ed b2bd ac0e 37bd
000002e0: bc07 e7bd 289f 2fbd 6059 eebd ecf0 0ebd
000002f0: c417 3bbd 98d4 70bd a434 5b3d 60a0 b53d
00000300: c893 a03c c882 f2bc 7c8a 5d3d aa49 d53d
00000310: e84a db3c ae65 c43d 605e 4a3d 2814 f5bc
00000320: 589a 143d e8f5 cfbc 408c 32bb 00dc 7939
00000330: 12a9 e9bd 7423 da3d 64c6 3abd 1460 453d
00000340: 8693 c6bd b0a3 0cbd 6ea4 fdbd 9893 963c
00000350: c4de 0bbd 467a d43d 92e8 9bbd 8628 a8bd
00000360: c819 75bd 968e f63d 6808 983d 942e 68bd
00000370: 1895 e73d 0014 04bd b0fa 53bc d2c7 ed3d
00000380: 60c8 f73c 00d3 2bba 5e72 d9bd a03d 91bb
00000390: f496 f93d 2884 dabc c0fa 2d3d 10ba 653d
000003a0: e857 003d 0687 f9bd 74ef 693d 300b 2abc
000003b0: 72d4 abbd 82af 933d a04c c33c 7eb1 bb3d
000003c0: 005c e3b9 1c87 2b3d d27d a63d 5861 edbc
000003d0: 0cc9 0fbd da9d 9abd 3016 913d 4809 a03d
000003e0: 8a79 f63d d0d8 a93d 3609 e7bd 8c43 4f3d
000003f0: 9c50 47bd f041 f7bd 0000 e63b a4d5 45bd

lstm.bias_ih_l0 f4 [256]
0.08592059 -0.09717959 -0.079604805 0.12031387 -0.07548757 0.09657796 -0.08502416 -0.11120449
-0.10408524 -0.038968742 0.005531326 -0.040626556 -0.013148308 0.023122191 0.11756323 0.0035979003
0.066722736 0.088481575 -0.05707799 0.06655902 0.11710659 -0.11362867 -0.07839674 -0.042935282
-0.059096098 0.10478288 -0.11211413 -0.018199801 -0.060643837 0.035801813 -0.011784598 0.0031592697
-0.08094159 0.04334876 -0.037543207 0.10706435 -0.05159907 0.035221905 0.12039639 -0.116643384
0.009567499 0.07220429 0.11765568 0.065798566 0.119617015 -0.01501292 -0.024764672 0.056376725
-0.043060705 0.08497599 0.028461844 0.08919416 0.026907548 0.037810475 -0.039258137 -0.09243791
-0.056761146 -0.03908038 -0.010565504 0.11615467 -0.0056844354 0.07404417 -0.066138625 0.084355876
0.0895479 -0.082225144 -0.09317474 -0.07660639 0.109472886 0.08282788 -0.024024546 0.12310366
-0.0010729581 -0.08567859 0.06645666 0.08027032 -0.014452666 -0.12456885 0.020136401 -0.10249443
0.04134299 -0.055866778 -0.09374958 -0.06898156 0.0022479743 -0.013614178 0.029737443 0.10885027
0.025255412 -0.092097506 -0.0021113008 -0.11113976 -0.038548544 0.079167604 0.11928408 0.04895088
0.07855001 -0.013894588 -0.021844715 0.041630283 -0.05507183 -0.08491175 -0.102939576 0.06732355
-0.076117024 0.057210878 -0.03098382 -0.05919501 0.048798725 -0.012773126 0.0666862 -0.04283981
0.06225027 -0.12039928 -0.099743575 -0.013574839 -0.031134099 -0.0047085583 0.040444613 -0.019419163
0.09902789 -0.101553544 0.0881297 -0.09614174 -0.014858022 0.08178787 0.0020408481 -0.10251176
0.12295134 0.009596378 -0.08820787 -0.06267297 0.0742273 -0.030780628 0.036030218 -0.073186114
-0.0069197416 0.10889794 -0.0633443 0.039143384 0.085202396 0.09474182 0.06389761 -0.059705436
-0.0212553 -0.11371119 0.07336962 -0.008360431 -0.06723529 -0.09876396 -0.03478621 -0.021044806
-0.051778108 0.014427468 -0.015544862 -0.09558673 -0.026183888 0.077347994 -0.097902745 -0.0034812987
0.06927845 -0.090844706 0.086518854 -0.022172153 0.07844964 -0.017885685 0.1079914 0.09701525
0.09173459 0.092954874 -0.095755935 0.045231894 0.06724428 0.027520105 -0.10180415 0.062313154
0.051612124 -0.11631225 -0.10894118 0.070135295 0.119924664 -0.086432666 0.038520753 -0.060480088
0.10509813 0.06430976 0.0980538 -0.020805776 -0.090292364 -0.041276544 0.042212218 -0.09294683
0.069934785 -0.06698331 -0.01106976 0.078866765 -0.033411667 0.12268697 -0.056645885 -0.0992486
-0.033042908 0.001513645 0.029724255 0.10002777 0.11937153 0.065208614 -0.09171629 -0.0325139
0.06127794 0.05874224 -0.02172795 -0.06946848 0.11876537 0.12366067 0.124313846 -0.11601788
0.073611036 0.015454054 0.028769985 0.023085296 0.02820547 -0.09512581 0.10697308 -0.09572972
-0.0069621205 0.012389198 -0.031508267 0.04937388 0.0037624985 -0.042204186 -0.09456056 -0.06710279
0.119991615 -0.007381633 -0.020859718 0.066972956 -0.10950641 -0.09407668 0.10661161 0.08260293
0.002899021 -0.047295436 0.004920721 -0.015292332 0.060883865 0.09777905 0.10913293 0.067016914
0.10813843 0.0365033 -0.04712087 -0.10107359 0.08278689 -0.10537432 0.066601515 0.0292885
00000000: 22f7 af3d 1806 c7bd d807 a3bd 1e67 f63d
00000010: 3a99 9abd aaca c53d 2621 aebd 2ebf e3bd
00000020: a42a d5bd b09d 1fbd 2040 b53b 0868 26bd
00000030: 006c 57bc c06a bd3c fec4 f03d c0ca 6b3b
00000040: eea5 883d d435 b53d 9cca 69bd 1850 883d
00000050: 94d5 ef3d 26b6 e8bd 788e a0bd e8dc 2fbd
00000060: c00e 72bd 6898 d63d 189c e5bd c017 95bc
00000070: ac65 78bd eca4 123d 3014 41bc c00b 4f3b
00000080: b4c4 a5bd 788e 313d e8c6 19bd 8e44 db3d
00000090: 8c59 53bd d844 103d 6292 f63d bae2 eebd
000000a0: 00c1 1c3c d8df 933d 76f5 f03d 66c1 863d
000000b0: c4f9 f43d c0f8 75bc 48df cabc 48eb 663d
000000c0: 6c60 30bd e407 ae3d d028 e93c 6eab b63d
000000d0: 386d dc3c 28df 1a3d 24cd 20bd 1650 bdbd
000000e0: 607e 68bd c012 20bd f01a 2dbc 80e2 ed3d
000000f0: 8044 babb 78a4 973d b073 87bd c6c2 ac3d
00000100: e464 b73d a865 a8bd 66d2 bebd d0e3 9cbd
00000110: 5233 e03d aaa1 a93d 20cf c4bc c61d fc3d
00000120: 80a2 8cba 4278 afbd 6e1a 883d c464 a43d
00000130: e0ca 6cbc f41d ffbd 18f5 a43c 9ae8 d1bd
00000140: 4457 293d 90d4 64bd c8ff bfbd 3446 8dbd
00000150: c052 133b 000e 5fbc f09b f33c e4ec de3d
00000160: 70e4 ce3c 9e9d bcbd c05d 0abb 3e9d e3bd
00000170: 14e5 1dbd a022 a23d 364b f43d b880 483d
00000180: d4de a03d 20a6 63bc b0f3 b2bc 8484 2a3d
00000190: 0093 61bd 36e6 adbd fcd1 d2bd eee0 893d
000001a0: 3ee3 9bbd f455 6a3d c8d1 fdbc 7876 72bd
000001b0: 2ce1 473d 6046 51bc c692 883d cc78 2fbd
000001c0: 24fa 7e3d e693 f6bd 5c46 ccbd 0069 5ebc
000001d0: f00c ffbc 404a 9abb 40a9 253d f014 9fbc
000001e0: 22cf ca3d 4efb cfbd 587d b43d f6e5 c4bd
000001f0: 106f 73bc 6680 a73d c0bf 053b b0f1 d1bd
00000200: eacd fb3d 203a 1d3c 54a6 b4bd b05a 80bd
00000210: 7c04 983d a827 fcbc 6c94 133d 9ae2 95bd
00000220: 00bf e2bb e205 df3d a8ba 81bd d054 203d
00000230: 987e ae3d 0008 c23d c0dc 823d b08d 74bd
00000240: 981f aebc 6ae1 e8bd d042 963d 30fa 08bc
00000250: a8b2 89bd c244 cabd fc7b 0ebd 2866 acbc
00000260: 4815 54bd 3061 6c3c e0af 7ebc fac2 c3bd
00000270: 987f d6bc a068 9e3d 3c81 c8bd 8026 64bb
00000280: dce1 8d3d ca0c babd cc30 b13d 60a2 b5bc
00000290: 34aa a03d 0085 92bc 982a dd3d eeaf c63d
000002a0: 58df bb3d 205f be3d b01b c4bd 1445 393d
000002b0: 5eb7 893d d871 e13c b27e d0bd 143c 7f3d
000002c0: 3c67 533d 1e35 eebd 8e1c dfbd 18a3 8f3d
000002d0: 109b f53d 9c03 b1bd f0c7 1d3d f8b9 77bd
000002e0: b03d d73d d6b4 833d 6ed0 c83d e070 aabc
000002f0: 34eb b8bd 9811 29bd b8e6 2c3d e85a bebd
00000300: f839 8f3d 8c2e 89bd f05d 35bc e684 a13d
00000310: acda 08bd 4e43 fb3d 8405 68bd da42 cbbd
00000320: 0058 07bd 8065 c63a 4880 f33c 5cdb cc3d
00000330: 1079 f43d 188c 853d c0d5 bbbd 4c2d 05bd
00000340: 94fe 7a3d b49b 703d d0fe b1bc 7e45 8ebd
00000350: 423b f33d ce41 fd3d 4298 fe3d c89a edbd
00000360: 62c1 963d 0033 7d3c 08af eb3c 601d bd3c
00000370: 280f e73c 52d1 c2bd b414 db3d f20d c4bd
00000380: 8022 e4bb 10fc 4a3c d00e 01bd 443c 4a3d
00000390: 4094 763b 4cde 2cbd f8a8 c1bd 306d 89bd
000003a0: 2abe f53d a0e1 f1bb 00e2 aabc 1e29 893d
000003b0: e644 e0bd 46ab c0bd 3057 da3d ba2b a93d
000003c0: 80fd 3d3b dcb8 41bd 003e a13b b08c 7abc
000003d0: 5c61 793d 6240 c83d 1681 df3d 2a40 893d
000003e0: ae77 dd3d 7c84 153d d001 41bd acff cebd
000003f0: 2c8c a93d 7ece d7bd 6066 883d 70ee ef3c

lstm.bias_hh_l0 f4 [256]
0.109626144 0.051230714 0.061362267 -0.0933246 0.09994398 0.08382763 -0.06537132 0.061863646
0.02402033 -0.09813942 0.11774629 0.124896914 -0.11314958 0.10980928 0.02148144 0.019014627
-0.09888294 -0.016205877 0.026785687 0.029888108 -0.052108884 0.055426717 -0.053673446 0.025034338
-0.1061421 0.08542845 0.11324613 0.08025856 -0.09717296 0.05840534 -0.024603695 0.06763573
0.123187095 0.106088564 -0.1157475 0.10511866 0.036089838 0.07154493 -0.0932356 -0.07744606
-0.11725415 -0.023855135 0.053168535 -0.015123174 0.07795416 0.025632337 0.11558537 -0.03919612
-0.051677763 0.048922107 0.006697133 -0.059702247 -0.10541476 -0.013875231 0.021490306 -0.12435661
0.114815146 0.032493487 -0.09002009 -0.040553555 -0.06816524 0.04075077 0.03759724 0.09002249
0.12021044 0.106022775 -0.03224656 -0.051616684 -0.06595704 -0.057682082 -0.089605495 0.12035376
0.11637202 0.12226045 -0.040144265 -0.08908245 0.0106624365 -0.07484195 -0.033655986 0.023745432
-0.019583806 -0.00037409365 -0.101569265 -0.09240472 -0.12402499 -0.114001706 0.07280618 -0.049814105
-0.00090043247 -0.112029135 -0.0029646456 0.10495354 -0.00019530952 -0.083665565 -0.028375268 0.05297631
-0.02766861 0.030007958 -0.10257745 0.048013613 0.097740695 -0.029676512 -0.015191093 0.020281106
-0.08516827 -0.030637711 0.1075179 0.059075654 0.027560905 0.049732417 -0.057997942 -0.08226855
-0.115220815 0.050606787 0.05456002 0.09711689 0.10817297 0.006520584 0.020730153 0.04431887
0.03232181 -0.024746448 -0.07450387 -0.027499855 -0.1064944 -0.05086343 -0.07977566 -0.03702201
0.024698585 0.046483755 0.0044400394 -0.0975562 -0.068754405 -0.030814782 0.00904125 0.101756826
0.11888483 0.07809614 0.051330343 0.09575173 0.050746545 0.09338221 0.11519517 -0.07372448
0.04819928 0.09832539 -0.117750645 0.010339662 0.0993014 -0.036379546 -0.06189598 0.048921794
-0.06598616 -0.097757995 0.058448568 0.008649752 0.040903673 0.1207778 0.074407324 -0.08492166
-0.03298244 -0.050076798 0.03608547 -0.0049359053 0.05807489 0.0436216 -0.006108299 0.11076471
0.12034714 -0.09148559 -0.052192673 -0.0033641458 -0.07601656 0.08829956 -0.062424928 0.11062463
0.04383026 -0.015371174 -0.005611986 0.069867566 0.07650083 0.023257434 -0.0763329 -0.054001555
0.005726084 0.06623973 0.017332971 -0.06836122 0.1175686 -0.065299645 0.051084325 0.00010420382
-6.508827e-05 0.082829356 -0.015649393 -0.09826261 -0.043008953 0.078423634 -0.041958466 0.021774814
-0.10754274 -0.047020644 0.09021388 -0.119676456 0.005338758 -0.051809862 -0.00879854 0.07758075
0.005154118 -0.037330315 -0.078353256 -0.04301527 -0.06269492 -0.05638954 -0.044796154 0.057673737
-0.039652944 -0.069599465 0.01161018 0.10793847 -0.120226905 -0.03217107 0.032544553 0.0655978
-0.047727317 0.07846579 0.005600214 -0.099353135 0.012239158 0.0017326325 0.0068932623 0.10078895
-0.093403056 0.08992058 0.07557748 -0.053707898 -0.0345148 -0.112483576 0.017706275 -0.10586621
0.092923686 -0.03754203 0.12362254 -0.11811726 0.09066084 -0.047540173 0.06822646 0.02088213
-0.012596607 -0.115869954 -0.06211759 -0.031563863 0.12279704 -0.0060614645 0.108067214 -0.016058385
00000000: ac83 e03d 4cd7 513d 0057 7b3d f820 bfbd
00000010: 6eaf cc3d d2ad ab3d 66e1 85bd bc64 7d3d
00000020: 48c6 c43c 52fd c8bd f824 f13d f4c9 ff3d
00000030: f8ba e7bd b0e3 e03d d8f9 af3c 90c4 9b3c
00000040: 2483 cabd 30c2 84bc a86d db3c e8d7 f43c
00000050: 2070 55bd 2007 633d b0d8 5bbd d014 cd3c
00000060: 0861 d9bd 1cf5 ae3d 96ed e73d 9a5e a43d
00000070: 9e02 c7bd 703a 6f3d b08d c9bc 9a84 8a3d
00000080: 8449 fc3d f644 d93d 060d edbd 7448 d73d
00000090: f0d2 133d 2686 923d 4ef2 bebd 0a9c 9ebd
000000a0: f222 f0bd d86b c3bc 40c7 593d 30c7 77bc
000000b0: 6ea6 9f3d e8fa d13c 06b8 ec3d 1c8c 20bd
000000c0: 10ac 53bd 8c62 483d a073 db3b 588a 74bd
000000d0: b2e3 d7bd f054 63bc 700c b03c aeae febd
000000e0: 3424 eb3d e417 053d 745c b8bd 7c1b 26bd
000000f0: 389a 8bbd 48ea 263d 90ff 193d b65d b83d
00000100: e430 f63d 7822 d93d f814 04bd 046c 53bd
00000110: 7c14 87bd 0c44 6cbd 1683 b7bd 087c f63d
00000120: 7454 ee3d b063 fa3d 506e 24bd dc70 b6bd
00000130: 80b1 2e3c bc46 99bd dcda 09bd c885 c23c
00000140: 386e a0bc 0022 c4b9 8c03 d0bd b03e bdbd
00000150: d000 febd ba79 e9bd 681b 953d e009 4cbd
00000160: 000b 6cba 886f e5bd 804a 42bb e2f1 d63d
00000170: 00cc 4cb9 da58 abbd 4073 e8bc b0fd 583d
00000180: 48a9 e2bc 40d3 f53c 2014 d2bd eca9 443d
00000190: 462c c83d 281c f3bc 10e4 78bc 9024 a63c
000001a0: b46c aebd f0fb fabc 5832 dc3d 50f9 713d
000001b0: 68c7 e13c 38b4 4b3d 408f 6dbd 6a7c a8bd
000001c0: e4f8 ebbd 1049 4f3d 547a 5f3d 38e5 c63d
000001d0: ca89 dd3d a0aa d53b 48d2 a93c b487 353d
000001e0: e063 043d 10b9 cabc 7c95 98bd 6047 e1bc
000001f0: bc19 dabd 2c56 50bd 6c61 a3bd 64a4 17bd
00000200: b054 ca3c c065 3e3d c07d 913b 8ccb c7bd
00000210: 1ccf 8cbd 486f fcbc c021 143c e265 d03d
00000220: e479 f33d def0 9f3d c43f 523d 7c19 c43d
00000230: 9cdb 4f3d 2c3f bf3d 72eb eb3d dcfc 96bd
00000240: 9c6c 453d d25e c93d 4027 f1bd b067 293c
00000250: 885e cb3d b802 15bd a486 7dbd 3862 483d
00000260: c023 87bd 5835 c8bd c467 6f3d b0b7 0d3c
00000270: 9c8a 273d 5a5a f73d de62 983d 68eb adbd
00000280: 9818 07bd 541d 4dbd 5cce 133d 60bd a1bb
00000290: f0df 6d3d 90ac 323d 2028 c8bb 9cd8 e23d
000002a0: 9078 f63d cc5c bbbd fcc7 55bd 0079 5cbb
000002b0: 92ae 9bbd 66d6 b43d 48b1 7fbd 2a8f e23d
000002c0: 5c87 333d 60d7 7bbc c0e4 b7bb ba16 8f3d
000002d0: 78ac 9c3d 6086 be3c 6c54 9cbd bc30 5dbd
000002e0: e0a1 bb3b b2a8 873d e0fd 8d3c f800 8cbd
000002f0: cec7 f03d d2bb 85bd cc3d 513d 0088 da38
00000300: 0080 88b8 70a2 a93d 2833 80bc e83d c9bd
00000310: 282a 30bd 929c a03d a4dc 2bbd 1861 b23c
00000320: 5e3f dcbd b898 40bd 0ec2 b83d ee18 f5bd
00000330: c0f0 ae3b 9436 54bd c027 10bc a8e2 9e3d
00000340: e0e3 a83b ace7 18bd ac77 a0bd c830 30bd
00000350: 3266 80bd b8f8 66bd 2c7c 37bd 4c3b 6c3d
00000360: 206b 22bd 2a8a 8ebd a038 3e3c d80e dd3d
00000370: 8639 f6bd d0c5 03bd 704d 053d 2458 863d
00000380: b87d 43bd acb2 a03d 0082 b73b a879 cbbd
00000390: c086 483c 8019 e33a e0e0 e13b 706a ce3d
000003a0: 1a4a bfbd 4828 b83d 5ec8 9a3d d0fc 5bbd
000003b0: 645f 0dbd ca5d e6bd c00c 913c 62d0 d8bd
000003c0: c64e be3d acc5 19bd d02d fd3d 76e7 f1bd
000003d0: 64ac b93d 7cb9 42bd 50ba 8b3d 0011 ab3c
000003e0: 0062 4ebc 3a4d edbd 046f 7ebd 1c49 01bd
000003f0: 047d fb3d 409f c6bb 5852 dd3d e08c 83bc

lstm.weight_ih_l1 f4 [256, 64]
0.12262274 -0.010748923 0.10965429 0.08259146 0.04108244 -0.060341865 -0.05565816 0.09730588
-0.10652171 -0.13723886 0.020448253 -0.035642594 -0.03116998 -0.018278243 -0.11479892 0.029869141
-0.05351594 0.120569974 0.060413927 0.10663645 0.005681902 -0.05151695 -0.14449489 -0.06710869
0.08732189 -0.08105336 0.103687555 0.07808922 0.101618335 -0.09733355 -0.04221899 0.11296879
0.031496555 -0.014775813 0.027593434 0.02795592 0.06910797 -0.012519622 -0.047017068 -0.060364723
-0.0040062815 -0.045562863 0.1105282 -0.10900058 0.023369014 0.07211606 -0.033203516 0.06697276
-0.11412686 0.12005586 0.070887476 0.11813845 -0.014285192 0.082226455 0.05076526 0.11319356
0.09061684 -0.0877264 0.101466954 -0.048576623 -0.0074640065 -0.10932678 0.014926925 0.013598666
-0.093092814 0.09523459 0.06885846 -0.08741231 -0.036896273 -0.045696512 -0.10113974 -0.018404052
-0.05026284 0.04712205 -0.06442356 -0.08640796 -0.09048274 0.04867206 0.023836017 0.02883521
-0.014351815 0.04086122 0.03091833 -0.0019536167 -0.006178379 0.12288676 0.024375007 -0.11541777
0.08242574 -0.012551993 0.09626444 0.014833137 -0.11168846 -0.024373382 0.029013613 -0.054287627
-0.048954457 0.08502096 0.09786135 0.015742555 -0.0954357 -0.041905433 -0.007956967 -0.089462504
-0.09899962 -0.09429357 -0.08360478 -0.078177586 -0.058254242 -0.11369553 0.09900353 0.079394534
0.010132119 -0.0988483 -0.01630789 -0.035976738 -0.06546436 0.08546135 -0.022735959 0.030276522
-0.107920155 -0.11155324 0.074892715 0.054361418 -0.061705753 0.08026746 -0.08707529 -0.091171175
-0.0955884 0.09692158 0.09784414 0.11995232 0.056887165 -0.06245123 -0.100199506 0.008494139
0.044597298 0.005055817 0.003688261 0.11965099 0.019870251 0.10787571 -0.017562881 0.019524923
0.043633893 0.085014015 0.026192442 0.06823735 0.069743276 0.07682967 0.09624924 -0.07088087
-0.06408726 -0.009248361 0.10260379 -0.005689755 0.07559734 0.120906845 0.08246195 0.10201958
0.060184777 0.09956159 -0.007466227 0.00030730665 -0.0088007385 -0.08517022 -0.071542844 -0.033861026
0.10240562 0.07904837 0.11156517 0.09060292 0.12361932 0.028045371 -0.100707695 0.09804614
0.0015185326 0.08464902 0.112103716 -0.030786335 0.050690636 -0.10432044 -0.057817444 0.058460534
-0.024637403 -0.0044746995 -0.09653638 -0.11404656 0.10332483 -0.07318427 0.025612026 0.037072778
0.071270555 0.0061707348 -0.009880379 -0.019685164 0.107663736 0.11607075 0.0648769 -0.03143494
0.0573169 0.081695706 0.031463504 -0.11802703 0.023466796 0.03917577 -0.007942036 -0.03984476
-0.029707313 -0.07550299 -0.09259583 0.06300324 -0.1136985 -0.09242265 -0.09619225 0.05248289
0.09810689 0.055306792 0.09621769 -0.012979224 -0.047212467 0.113726065 0.016431775 -0.026648074
0.088573575 0.09301296 0.07064369 0.056502298 -0.0024565486 0.08675178 -0.028022721 0.10649264
0.061182603 -0.061537597 0.054165646 0.069216326 0.060158253 0.030352697 0.09363332 0.09826228
0.08046898 0.08278885 -0.056347847 0.034961388 0.039684385 0.040656 -0.05488637 0.121669516
0.078369886 -0.02888599 0.11902806 0.045891404 0.10341865 -0.087371215 0.062815055 0.013878316
00000000: a221 fb3d 401c 30bc 6e92 e03d b625 a93d
00000010: 1046 283d 0829 77bd d0f9 63bd 4e48 c73d
00000020: 0e28 dabd 5888 0cbe 1883 a73c f8fd 11bd
00000030: 3058 ffbc 41bc 95bc b21b ebbd 21b0 f43c
00000040: 8833 5bbd 64ed f63d 9874 773d 3664 da3d
00000050: 402f ba3b 7003 53bd 78f6 13be 4870 89bd
00000060: d2d5 b23d 4eff a5bd 245a d43d 3eed 9f3d
00000070: 461d d03d d056 c7bd d2ed 2cbd 2e5c e73d
00000080: 8802 013d 4016 72bc a00b e23c d003 e53c
00000090: 7b88 8d3d 1a1f 4dbc f894 40bd 0041 77bd
000000a0: 2047 83bb 20a0 3abd 9c5c e23d b23b dfbd
000000b0: 6070 bf3c 96b1 933d 6900 08bd 0429 893d
000000c0: 58bb e9bd d9df f53d 742d 913d 92f2 f13d
000000d0: 700c 6abc 5866 a83d 3cef 4f3d 06d2 e73d
000000e0: 5295 b93d e6a9 b3bd e8cd cf3d 48f8 46bd
000000f0: a094 f4bb b8e6 dfbd 1090 743c f0cc 5e3c
00000100: 72a7 bebd 5a0a c33d aa05 8d3d 3a05 b3bd
00000110: 8c20 17bd 442c 3bbd 5a22 cfbd 18c4 96bc
00000120: 68e0 4dbd 0d03 413d 80f0 83bd a8f6 b0bd
00000130: 044f b9bd 5b5c 473d c043 c33c d137 ec3c
00000140: e023 6bbc 185e 273d 7048 fd3c 4008 00bb
00000150: 0074 cabb 0eac fb3d 18ae c73c 2760 ecbd
00000160: d4ce a83d e0a6 4dbc 4a26 c53d b006 733c
00000170: ebbc e4bd b0aa c7bc f5ad ed3c b45c 5ebd
00000180: 7884 48bd 781f ae3d 886b c83d 88f6 803c
00000190: cb73 c3bd 08a5 2bbd f05d 02bc 1e38 b7bd
000001a0: 50c0 cabd fd1c c1bd fc38 abbd 921b a0bd
000001b0: 009c 6ebd 34d9 e8bd 5dc2 ca3d 9a99 a23d
000001c0: 3001 263c fa70 cabd 2098 85bc 585c 13bd
000001d0: 2e12 86bd 5c06 af3d c340 babc 7806 f83c
000001e0: 3e05 ddbd 0676 e4bd 5a61 993d 14aa 5e3d
000001f0: 2cbf 7cbd 4463 a43d 8854 b2bd f4b7 babd
00000200: dac3 c3bd d27e c63d 8262 c83d 90a9 f53d
00000210: 8402 693d dccc 7fbd 6635 cdbd 002b 0b3c
00000220: a8ab 363d 44ab a53b c0b6 713b 940b f53d
00000230: f0c6 a23c f1ed dc3d 08e0 8fbc bbf2 9f3c
00000240: 74b9 323d d41b ae3d 8891 d63c 06c0 8b3d
00000250: 90d5 8e3d e058 9d3d 521e c53d fd29 91bd
00000260: 2e40 83bd 7086 17bc f021 d23d 2071 babb
00000270: c7d2 9a3d 029e f73d d0e1 a83d a4ef d03d
00000280: 5084 763d f2e6 cb3d 40a7 f4bb 001e a139
00000290: f930 10bc b96d aebd 0e85 92bd dcb1 0abd
000002a0: 0aba d13d 1de4 a13d 487c e43d 068e b93d
000002b0: 202c fd3d 68bf e53c d63f cebd 6acc c83d
000002c0: 8009 c73a 775c ad3d a296 e53d a033 fcbc
000002d0: fca0 4f3d f4a5 d5bd fcd1 6cbd 5074 6f3d
000002e0: 61d4 c9bc 80a0 92bb deb4 c5bd 3e91 e9bd
000002f0: f89b d33d a2e1 95bd 50d0 d13c a0d9 173d
00000300: 4cf6 913d e033 ca3b 50e1 21bc c842 a1bc
00000310: ce7e dc3d 80b6 ed3d 2ede 843d ecc1 00bd
00000320: 20c5 6a3d 1450 a73d e0df 003d 28b8 f1bd
00000330: 703d c03c c676 203d 501f 02bc 4234 23bd
00000340: c05c f3bc 50a1 9abd e2a2 bdbd d807 813d
00000350: c2da e8bd 1648 bdbd 7100 c5bd 4df8 563d
00000360: 44ec c83d 6089 623d c80d c53d d0a6 54bc
00000370: dc61 41bd 36e9 e83d ee9b 863c 104d dabc
00000380: 1066 b53d 947d be3d a4ad 903d f46e 673d
00000390: 0cfe 20bb ebaa b13d e88f e5bc d018 da3d
000003a0: 9c9a 7a3d d90e 7cbd ccdc 5d3d 4ac1 8d3d
000003b0: 8068 763d 38a6 f83c d3c2 bf3d bc3d c93d
000003c0: eccc a43d 338d a93d 00cd 66bd ac33 0f3d
000003d0: 188c 223d e886 263d 88d0 60bd de2d f93d
000003e0: 6480 a03d 50a2 ecbc fcc4 f33d a0f8 3b3d
000003f0: 28cd d33d aeef b2bd 2ea5 803d e061 633c

lstm.weight_hh_l1 f4 [256, 64]
-0.055037286 -0.06444573 0.020743232 -0.0711955 -0.09075148 0.11658847 0.052532226 0.041090533
-0.014563324 0.040474337 0.041384216 0.100055166 -0.08485118 0.0320661 0.11312281 0.08918592
0.03070984 -0.0071473056 0.033792455 -0.03291032 0.032985784 0.0036968347 0.028208613 -0.12739506
-0.13277131 -0.045845844 -0.14821085 0.042805567 -0.06399692 0.13807477 0.06364121 0.14744009
0.04529973 -0.11369649 -0.00021457663 0.1004897 0.04057927 -0.07200314 0.093632236 -0.071824245
0.13333687 -0.071945764 0.06489074 -0.08766966 -0.12746593 0.03615751 0.069880374 0.027934382
-0.012376446 0.055382743 0.06124593 -0.11685274 0.017571852 0.1111461 -0.029149473 0.026910273
-0.040908627 -0.10997051 -0.097481266 0.07844278 -0.02761232 -0.14153427 -0.029678319 -0.0072057284
0.05859347 -0.07134845 -0.13236229 0.13759181 0.06978324 0.10323743 0.031654593 -0.14107199
-0.14310682 -0.07066374 0.08947528 0.035961196 -0.056024294 0.07270867 -0.059424903 -0.0008370816
0.06308553 0.0025701898 -0.006752182 -0.05359341 -0.053815525 -0.059802886 0.0539004 -0.017315771
0.07854474 0.04792799 -0.05372725 0.024471888 0.096687734 -0.013146358 0.0079319 -0.004433027
0.08092284 -0.10153283 -0.04863211 0.10599847 0.06747336 -0.028556805 -0.02423685 -0.029657725
0.1334315 -0.00522583 -0.016512332 0.103292175 -0.12873238 0.071403615 -0.051946297 0.04268362
-0.007574839 0.1309627 0.05928854 -0.022804093 0.10740603 0.07901199 0.0031128628 0.09880517
-0.13122979 0.092637114 -0.051351096 -0.11800055 0.022023084 -0.1420889 0.057602555 -0.071733035
0.05344933 -0.12603316 0.05671771 -0.036245726 -0.113153435 0.08505236 0.009738339 0.058492947
-0.09013773 -0.09723263 0.12403383 0.13878253 0.0044661746 0.12939726 0.10414232 -0.117061265
-0.019878203 0.03917379 -0.022538368 0.04300435 0.12969951 -0.1358051 -0.029684773 0.042795345
-0.03595396 0.11404473 0.07807763 0.10117888 0.03716637 -0.00046772682 0.05968838 0.068259425
0.1403342 0.021347957 0.08017097 -0.060235143 0.08207635 0.018558761 0.11151236 -0.029161777
0.001372015 0.0952535 0.035105698 0.03442116 0.08797405 0.020765534 0.114540696 0.07095094
-0.0786494 0.12769301 -0.01947789 0.080159806 0.052344464 -0.07022241 0.059836216 0.09636591
0.08307743 -0.12155315 -0.003022494 -0.1312005 -0.054139063 -0.09982337 -0.034170065 -0.0132223
-0.033793475 -0.0533876 0.03227648 -0.0727143 -0.052175626 0.09204979 -0.061293542 -0.06430152
-0.14101855 -0.08059838 0.0037691528 -0.046722177 -0.009489355 0.019465128 0.13617489 -0.059251577
-0.13038892 0.09420602 0.024765566 -0.072882354 0.0636087 -0.119060755 0.02006973 0.050623577
0.07305825 0.078387335 0.07123169 0.009102134 -0.051015664 -0.0255789 -0.09965158 -0.019805672
-0.05064505 -0.041010953 -0.07681952 -0.050959483 -0.08269606 0.032572005 0.0046771215 -0.09964286
-0.0075174323 0.052406836 0.12049245 -0.016789371 0.07254125 0.049510963 0.06539393 -0.14724173
-0.015257089 0.13796256 0.07730975 0.07670433 0.025118751 -0.007141253 -0.09101488 -0.06809885
-0.10833358 -0.074995615 -0.04064763 -0.013203816 -0.06428203 -0.010045255 -0.13547133 -0.14544462
00000000: c76e 61bd 1ffc 83bd b6ed a93c f2ce 91bd
00000010: e9db b9bd f0c5 ee3d 082c 573d 8c4e 283d
00000020: 029b 6ebc 6bc8 253d 7f82 293d b9e9 cc3d
00000030: 75c6 adbd be57 033d efac e73d 1ca7 b63d
00000040: 3493 fb3c f233 eabb f569 0a3d f9cc 06bd
00000050: 1a1c 073d 9846 723b c015 e73c da73 02be
00000060: 34f5 07be dac8 3bbd 96c4 17be e454 2f3d
00000070: d110 83bd 7963 0d3e 5356 823d 89fa 163e
00000080: 368c 393d b5d9 e8bd faff 60b9 8bcd cd3d
00000090: 7336 263d 6276 93bd 42c2 bf3d 9718 93bd
000000a0: 7689 083e 4d58 93bd 70e5 843d 278c b3bd
000000b0: 6e86 02be e619 143d 711d 8f3d a5d6 e43c
000000c0: 94c6 4abc 04d9 623d 03dd 7a3d 7d50 efbd
000000d0: d8f2 8f3c 91a0 e33d e0ca eebc ef72 dc3c
000000e0: ce8f 27bd 3838 e1bd 42a4 c7bd 9ca6 a03d
000000f0: 3b33 e2bc 5cee 10be f21f f3bc 081e ecbb
00000100: b5ff 6f3d 231f 92bd fb89 07be dee4 0c3e
00000110: 84ea 8e3d 256e d33d 3fa8 013d 2d75 10be
00000120: 988a 12be 27b8 90bd d13e b73d 0c4c 133d
00000130: bb79 65bd 48e8 943d 8767 73bd 986f 5bba
00000140: fd32 813d a170 283b 6841 ddbb c384 5bbd
00000150: ab6d 5cbd dff3 74bd aac6 5c3d ced9 8dbc
00000160: 11dc a03d 2450 443d 1b11 5cbd 4579 c83c
00000170: 3804 c63d d263 57bc cdf4 013c ed42 91bb
00000180: e0ba a53d 72f0 cfbd 7732 47bd ba15 d93d
00000190: 792f 8a3d f6ef e9bc 5c8c c6bc c2f4 f2bc
000001a0: 44a2 083e 703d abbb df44 87bc d98a d33d
000001b0: 6cd2 03be 0f3c 923d a4c5 54bd 05d5 2e3d
000001c0: 5b36 f8bb 161b 063e 8ad8 723d a6cf babc
000001d0: b1f7 db3d 0ad1 a13d 2c01 4c3b 5d5a ca3d
000001e0: 1a61 06be 87b8 bd3d 8755 52bd 46aa f1bd
000001f0: c169 b43c c17f 11be a8f0 6b3d c5e8 92bd
00000200: afed 5a3d d60e 01be d450 683d 6676 14bd
00000210: fdbc e7bd ef2f ae3d 8e8d 1f3c 4d96 6f3d
00000220: 219a b8bd e721 c7bd 7305 fe3d 021d 0e3e
00000230: fd58 923b b780 043e 9248 d53d d1bd efbd
00000240: 9dd7 a2bc b274 203d 62a2 b8bc 5425 303d
00000250: f3cf 043e 7e10 0bbe 7b2d f3bc 2c4a 2f3d
00000260: 7644 13bd 4990 e93d 2ae7 9f3d df36 cf3d
00000270: c33b 183d 3b39 f5b9 ce7b 743d 99cb 8b3d
00000280: c5b3 0f3e e9e1 ae3c ad30 a43d 20b9 76bd
00000290: a517 a83d 8b08 983c 9860 e43d aee4 eebc
000002a0: 2fd5 b33a 4414 c33d feca 0f3d 34fd 0c3d
000002b0: bd2b b43d 7b1c aa3c 5094 ea3d ba4e 913d
000002c0: f012 a1bd f5c1 023e 1990 9fbc d32a a43d
000002d0: 2667 563d c4d0 8fbd d216 753d 7d5b c53d
000002e0: 8024 aa3d dcf0 f8bd 0915 46bb 6d59 06be
000002f0: ecc0 5dbd 3270 ccbd e9f5 0bbd 59a2 58bc
00000300: 076b 0abd f5ac 5abd 5834 043d 3ceb 94bd
00000310: 1cb6 55bd 9a84 bc3d f00e 7bbd 84b0 83bd
00000320: 2b67 10be c310 a5bd e403 773b c15f 3fbd
00000330: 3d79 1bbc 5575 9f3c 6e71 0b3e c8b1 72bd
00000340: ac84 05be 16ef c03d 28e1 ca3c 5843 95bd
00000350: 4745 823d 20d6 f3bd 4669 a43c ab5a 4f3d
00000360: 909f 953d 8a89 a03d ece1 913d 1e21 153c
00000370: cdf5 50bd d78a d1bc 2116 ccbd 813f a2bc
00000380: 2f71 4fbd 1afb 27bd 8d53 9dbd e4ba 50bd
00000390: 8d5c a9bd 396a 053d 8a42 993b 8e11 ccbd
000003a0: cb54 f6bb 8da8 563d bfc4 f63d dd89 89bc
000003b0: 8290 943d 02cc 4a3d 41ed 853d 89c6 16be
000003c0: dff8 79bc 0f46 0d3e 9354 9e3d 2917 9d3d
000003d0: d7c5 cd3c 2c01 eabb 0266 babd 6977 8bbd
000003e0: ffdd ddbd 4d97 99bd 217e 26bd d154 58bc
000003f0: 4ca6 83bd da94 24bc ffb8 0abe 6fef 14be

lstm.bias_ih_l1 f4 [256]
0.11657606 0.013072513 0.05985105 0.026742151 0.11408316 -0.062187925 0.08697119 -0.0024496492
-0.03271207 -0.06995989 0.08152006 -0.07116628 0.13348311 0.0057532424 0.09089599 0.012723431
-0.07184664 0.05879459 -0.048539057 0.06855881 0.014588516 -0.084901564 0.033168294 -0.073912874
0.14055079 -0.012212161 -0.041987106 0.1218971 -0.07244774 0.014843641 0.03266141 -0.09120643
-0.09196435 0.13790338 0.030694114 0.05369274 0.1307704 -0.015536044 0.06914253 0.070555836
0.09760455 0.10630546 0.11612154 0.13186958 0.08974944 -0.044031534 0.0060391934 -0.10038141
-0.05797909 0.12696584 -0.021488765 0.028476592 0.0064420877 0.057770394 -0.091591775 0.070437655
-0.029745787 -0.017231679 -0.08578466 0.023703435 -0.08048684 -0.03544133 -0.048537686 -0.023796601
-0.060967717 -0.08238789 -0.10141223 -0.08432059 0.13495702 -0.12852654 -0.06898538 0.064094745
0.016210133 0.07013575 0.029078472 0.008868736 0.07763097 0.055595372 0.02051242 0.07864442
-0.03983798 -0.023442263 0.1040515 0.080750376 0.14716251 -0.049671333 0.08186118 0.05245395
0.083681755 0.10934903 -0.018723108 -0.027430898 0.052518684 0.11918935 -0.025812186 0.008357447
0.024711018 0.12695998 -0.012158903 0.11138736 0.040935986 -0.0035120684 0.020291923 -0.0913357
-0.05972012 -0.08379692 -0.0055162315 0.14098181 0.12625447 0.021711368 0.081472605 0.03236861
-0.061076324 0.11784189 0.08504787 -0.089410484 0.119672604 -0.024546662 0.1335961 -0.017488088
-0.051140998 -0.007321733 -0.012496196 -0.021113848 0.061521214 0.100886114 -0.08948103 0.08068306
-0.05580789 -0.030060312 0.03592898 0.053227283 -0.12549593 -0.084538974 0.03504729 0.080572784
-0.10648296 -0.09258493 0.051373877 0.012617932 0.010653392 -0.066177405 -0.05707068 0.050930925
0.074862815 -0.046353318 -0.0845409 -0.06400883 0.1253438 0.063510954 -0.04251947 0.057565305
0.006094385 0.09614593 -0.005615583 -0.051844217 0.13409384 -0.03727704 -0.074914105 -0.012327183
-0.08131417 -0.06034858 0.06505216 0.102425404 -0.014764402 0.024910728 0.055582024 -0.11150591
0.12116621 -0.030343795 0.1348326 0.062949985 0.08134489 0.024290543 0.0063364287 -0.13996671
0.023038223 0.011643602 -0.10165293 0.031412177 -0.08638459 0.025927734 0.032381102 -0.03112681
-0.03492258 -0.0014657631 -0.06518814 -0.12602249 -0.1384825 0.09361155 0.0005167332 0.039989736
-0.033554744 0.07505361 0.046152867 0.10879801 0.07501992 0.028202329 -0.096233726 0.11070147
-0.052545644 0.113103926 -0.061384685 0.019330846 0.14065905 0.01869643 0.13885957 0.04423158
0.12070684 0.10227571 0.010884431 -0.010921613 0.0025431742 -0.10520294 -0.102326885 -0.04897714
-0.026802396 -0.093772784 0.06662483 -0.009819552 0.029980468 0.085529335 0.028329687 -0.07948963
0.09048346 0.046868484 0.032939002 0.10103886 0.13489798 0.07344245 -0.020424854 0.10209053
0.07844273 -0.045597773 -0.0463666 0.14334092 -0.027650785 -0.035382375 0.10498011 0.062310334
-0.06680853 0.09984101 -0.00062716746 0.11716522 0.048183583 0.012487248 -0.002106772 -0.017678328
-0.0793502 0.093166694 -0.046279162 0.012645798 -0.0796016 0.13696411 -0.08910919 0.05285721
00000000: 6ebf ee3d 182e 563c 6026 753d 5b12 db3c
00000010: 6fa4 e93d c4b8 7ebd f41d b23d 4b8a 20bb
00000020: 17fd 05bd 2147 8fbd fdf3 a63d a0bf 91bd
00000030: ccaf 083e b285 bc3b ad27 ba3d f075 503c
00000040: 5524 93bd 99d2 703d e4d0 46bd 9068 8c3d
00000050: ac04 6f3c dfe0 adbd 7adb 073d a25f 97bd
00000060: 8cec 0f3e 8415 48bc acfa 2bbd 30a5 f93d
00000070: 7b5f 94bd be32 733c f8c7 053d 70ca babd
00000080: ce57 bcbd 8b36 0d3e 3972 fb3c ebec 5b3d
00000090: ade8 053e e48a 7ebc 999a 8d3d 947f 903d
000000a0: e5e4 c73d adb6 d93d 21d1 ed3d d208 073e
000000b0: 8ece b73d 695a 34bd 6de4 c53b c594 cdbd
000000c0: 7b7b 6dbd 5503 023e 3509 b0bc be47 e93c
000000d0: 2618 d33b a6a0 6c3d 7894 bbbd 9e41 903d
000000e0: 70ad f3bc 7329 8dbc deaf afbd b52d c23c
000000f0: 49d6 a4bd ee2a 11bd 74cf 46bd 17f1 c2bc
00000100: 49b9 79bd fbba a8bd 37b1 cfbd 46b0 acbd
00000110: 2c32 0a3e 769c 03be 3548 8dbd 1b44 833d
00000120: 1dcb 843c 55a3 8f3d fa35 ee3c 2d4e 113c
00000130: fcfc 9e3d f9b7 633d aa09 a83c 5310 a13d
00000140: 262d 23bd fd09 c0bc f418 d53d 7460 a53d
00000150: c5b1 163e 2b74 4bbd d6a6 a73d f4d9 563d
00000160: 5761 ab3d 62f2 df3d 3461 99bc c3b6 e0bc
00000170: d51d 573d 8c19 f43d 1474 d3bc aced 083c
00000180: c36e ca3c cc01 023e 2336 47bc 0e1f e43d
00000190: 7eac 273d bb2a 66bb 3f3b a63c 360e bbbd
000001a0: 169d 74bd b89d abbd 81c1 b4bb 895d 103e
000001b0: da48 013e 0adc b13c 1cdb a63d f394 043d
000001c0: 2b2b 7abd 1757 f13d 942d ae3d d81c b7bd
000001d0: e916 f53d 1516 c9bc 6bcd 083e 2e43 8fbc
000001e0: 3979 51bd 26eb efbb d8bc 4cbc f3f6 acbc
000001f0: abfd 7b3d 619d ce3d d541 b7bd 293d a53d
00000200: d096 64bd 0b41 f6bc 442a 133d da04 5a3d
00000210: 0182 00be c522 adbd bf8d 0f3d 5803 a53d
00000220: bd13 dabd 2b9d bdbd 6a6d 523d 71bb 4e3c
00000230: 918b 2e3c 0588 87bd f2c2 69bd f29c 503d
00000240: ad51 993d fadc 3dbd c823 adbd 1017 83bd
00000250: 205a 003e 0812 823d e528 2ebd 99c9 6b3d
00000260: 68b3 c73b 28e8 c43d ed02 b8bb 9a5a 54bd
00000270: e54f 093e cfaf 18bd 916c 99bd f4f7 49bc
00000280: 0b88 a6bd 1330 77bd 113a 853d 69c4 d13d
00000290: 64e6 71bc 9511 cc3c faa9 633d 365d e4bd
000002a0: fd25 f83d 8d93 f8bc 8f11 0a3e eceb 803d
000002b0: 2698 a63d f6fc c63c d1a1 cf3b 6f53 0fbe
000002c0: a8ba bc3c cec4 3e3c 692f d0bd 0eaa 003d
000002d0: 67ea b0bd 6666 d43c 0ca2 043d a7fd febc
000002e0: fb0a 0fbd d91e c0ba 5c81 85bd 0a0c 01be
000002f0: 5bce 0dbe 6ab7 bf3d 6175 073a 47cc 233d
00000300: b370 09bd b5b5 993d ca0a 3d3d 7ed1 de3d
00000310: 0ba4 993d 9208 e73c 3016 c5bd 74b7 e23d
00000320: 1a3a 57bd 08a3 e73d 826e 7bbd b95b 9e3c
00000330: ed08 103e 4129 993c 3431 0e3e 2c2c 353d
00000340: 2635 f73d ed75 d13d 9d54 323c 91f0 32bc
00000350: 62ab 263b a474 d7bd c290 d1bd 419c 48bd
00000360: b390 dbbc f20b c0bd 9972 883d 30e2 20bc
00000370: 9999 f53c 012a af3d a913 e83c 76cb a2bd
00000380: 644f b93d 2bf9 3f3d 0ceb 063d 76ed ce3d
00000390: b222 0a3e ff68 963d 0652 a7bc d714 d13d
000003a0: 95a6 a03d bbc4 3abd e7ea 3dbd f6c7 123e
000003b0: e683 e2bc 1ced 10bd d0ff d63d 1f39 7f3d
000003c0: e9d2 88bd 7279 cc3d 7f68 24ba 52f4 ef3d
000003d0: 265c 453d 5097 4c3c c511 0abb 24d2 90bc
000003e0: 5c82 a2bd 2ece be3d 388f 3dbd 5230 4f3c
000003f0: 2a06 a3bd 5240 0c3e e17e b6bd cd80 583d
