models/ADAUSDT_lstm_20250822_041552.pth (torch, 244263 bytes, 11 tensors)

lstm.weight_ih_l0 f4 [256, 30]
000000 b8 00 e0 bc 58 8b e4 bc a4 86 a9 bd 40 04 7f 3b
       -0.027344093 -0.027898476 -0.08277634 0.0038912445
000010 8a bb a8 3d cc 2a a6 bd e0 e8 0e 3c ac a9 d3 3d
       0.08238895 -0.081136316 0.008722514 0.10335097
000020 d2 d8 a0 bd 00 3e 2a bc 30 36 14 3c b6 de f4 bd
       -0.07853855 -0.0103907585 0.009046122 -0.11956541
000030 2e 0c e5 3d 5a ed fe 3d 82 26 c6 bd 80 a7 ca 3a
       0.11183964 0.12447615 -0.096753135 0.0015461296
000040 0c 13 1d 3d e4 72 15 bd 98 2a 0a bd 24 16 57 3d
       0.038348243 -0.03648652 -0.033732027 0.05251135
000050 c4 e6 b9 bd 64 9e 67 bd be 82 e9 3d 42 55 fb bd
       -0.09077218 -0.056547537 0.1140189 -0.12272121
000060 7c 34 09 3d 10 92 0f 3c f2 7f e9 bd 28 e6 40 3d
       0.03349732 0.008762851 -0.11401357 0.047094494
000070 e0 94 d9 3b a0 1a e2 3c 88 96 d3 bd 20 0b dd bc
       0.0066400617 0.027600586 -0.10331446 -0.026982844
000080 c2 6c bc bd 90 dd ec bc a4 51 7d bd 6c e0 6d 3d
       -0.092004314 -0.028914243 -0.061845437 0.058075354
000090 82 d2 bf bd f2 ea fc 3d 18 ef 58 3d f0 17 b7 3d
       -0.09366323 0.123495 0.052962393 0.089401126
0000a0 34 cc 2d 3d 08 d9 16 bd 52 82 ea 3d 3c 5c c1 3d
       0.04243107 -0.03682807 0.11450638 0.094414204
0000b0 ca ff c0 3d cc e7 ba bd 10 c3 ac 3c f0 fd b1 bd
       0.09423788 -0.09126243 0.021089107 -0.08691013
0000c0 98 f3 83 bc 90 87 c4 bd 44 0d 89 3d 8c b0 5e bd
       -0.016107365 -0.09596169 0.06691983 -0.054367587
0000d0 80 bf a5 3c 38 9d 32 bd 14 99 86 bd da 90 e0 3d
       0.020232916 -0.043606967 -0.06572166 0.10965128
0000e0 32 70 ab bd e0 bd be 3c 42 2e 98 bd 00 78 0f bb
       -0.08371009 0.023283899 -0.07430698 -0.0021891594
0000f0 10 bc ff bc 38 bc 92 3c e0 ee 75 bc e0 cd c4 3d
       -0.031217605 0.017912015 -0.0150105655 0.0960958
000100 44 eb 24 bd a0 07 8e bc 08 43 d3 3d 3c 51 08 bd
       -0.04026343 -0.01733762 0.103155196 -0.033280596
000110 d0 56 83 bc 40 8f 7e bd 30 c0 8f 3c 0a d4 b8 bd
       -0.016032606 -0.062148333 0.017547697 -0.09024818
000120 20 63 29 bd 20 5c 5d 3d f4 be ce 3d 0c b0 3c bd
       -0.0413543 0.054042935 0.10095015 -0.04606633
000130 68 1b 77 bd c4 df b0 bd fa f8 f7 bd 50 7a b6 bd
       -0.06032887 -0.0863643 -0.121080354 -0.08910048
000140 44 d6 48 bd 20 58 bb 3c 08 f7 58 3d f2 d7 d4 3d
       -0.049032465 0.02286917 0.052969962 0.10392751
000150 e2 90 b1 3d 80 03 49 bd 48 bf 90 3d 9c da 49 bd
       0.08670212 -0.049075603 0.07067734 -0.049280748
000160 94 a2 ed bd b4 83 3d 3d be d4 ba 3d 88 a3 8c bd
       -0.11603275 0.04626818 0.091226086 -0.068671286
000170 20 54 38 3d 80 8e 93 3a 40 22 8a bd d0 71 20 bd
       0.045002103 0.0011257678 -0.06744814 -0.03917104
000180 70 ca 78 3c d0 f7 ea 3d 20 62 72 bc 56 ee 91 bd
       0.015184984 0.11473048 -0.014793903 -0.07125537
000190 0c e9 ee 3d a4 6d 0f 3d 6e 48 d2 bd 40 7e 54 3c
       0.11665544 0.03501667 -0.10267721 0.0129695535
0001a0 14 2d ec 3d 10 8f 8f bc fa 69 c4 bd 30 b4 ea bc
       0.115320355 -0.017524272 -0.09590526 -0.028650373
0001b0 e2 ec b8 3d 58 c8 de bc b8 f7 e0 3d 26 46 ed 3d
       0.09029557 -0.02719514 0.109847486 0.115856454
0001c0 a2 94 c7 bd b8 f9 ca bd 72 19 dc bd f0 19 e6 bc
       -0.09745146 -0.09910911 -0.10747041 -0.02808854
0001d0 5a a1 d7 3d 74 d1 c7 3d 40 93 a2 3b 4c f4 41 bd
       0.10528822 0.09756747 0.004961401 -0.04735212
0001e0 42 c6 f4 bd 60 cf e9 3c 5a 16 e2 bd 70 f2 29 3d
       -0.11951877 0.028541267 -0.110394195 0.041490972
0001f0 fc 40 09 bd 90 ca 11 3c 78 87 7b bd 40 fa ad 3d
       -0.03350924 0.008898392 -0.06140849 0.08494997
000200 4a 6a cf bd c0 80 f6 3d 4c 72 cb bd 62 ab e1 bd
       -0.10127695 0.12036276 -0.0993391 -0.11019017
000210 04 9c 7b bd 08 7e d5 3d 54 04 de 3d 50 6f 24 bd
       -0.061428085 0.10424429 0.10840669 -0.04014522
000220 80 15 d1 bd 34 70 01 3d e4 50 c7 3d 86 36 e1 3d
       -0.10209179 0.031601146 0.097322255 0.10996728
000230 6c 88 4b bd 64 13 3e bd 20 52 dd bd 1e 0b a2 bd
       -0.04969065 -0.04640521 -0.1080668 -0.07912277
000240 24 fb 85 bd d8 67 0e 3d 8e 23 b8 3d 08 83 96 bd
       -0.06542042 0.034767002 0.089911565 -0.07349211
000250 04 9c c5 bd c8 43 71 bd ac 0c 10 3d 3c 8a 34 3d
       -0.09648898 -0.05890253 0.035168335 0.044077143
000260 a6 3b 8c 3d 6c a4 69 bd b2 dc f7 3d 9e 80 d1 bd
       0.068473145 -0.05704157 0.12102641 -0.1022961
000270 a8 af a2 bd 70 aa 81 bd 04 2f 9c bd e0 0b fc bc
       -0.0794366 -0.063313365 -0.07626155 -0.030767381
000280 24 a7 fd bd 14 72 f2 bd 18 a5 3e 3d 74 a6 f0 3d
       -0.12385395 -0.11838165 0.046544164 0.117504984
000290 38 63 5e 3d e0 a1 63 bd d4 a7 4f bd 5e 83 f4 bd
       0.05429384 -0.055574298 -0.050697163 -0.11939119
0002a0 38 24 dc 3d f4 97 7a 3d d0 85 3e 3c 3c db 71 3d
       0.10749096 0.06118007 0.011628583 0.05904697
0002b0 00 3b 1f 3c bc 24 02 3d 60 01 9e 3d 94 f6 f5 bd
       0.009718657 0.031773314 0.07715106 -0.12009922
0002c0 0e af b8 bd da 4c dc bd 32 72 af bd f8 78 f7 3d
       -0.09017764 -0.10756846 -0.08566703 0.1208362
0002d0 c0 d4 3e bc 0c 51 40 bd 1a 9d c0 3d 10 07 16 3c
       -0.011647403 -0.046952292 0.09404965 0.009156957
0002e0 94 af 8e bd ca 90 d5 3d e4 d6 31 bd 08 79 73 3d
       -0.069670826 0.10428007 -0.043417826 0.059441596
0002f0 a8 bc fb bd 70 93 71 3c 38 48 cd 3c 30 3d 0c bc
       -0.12291843 0.0147446245 0.02505885 -0.00855951
000300 7c 29 7e 3d 20 84 a1 bd 3a 30 c3 bd 8c ee 23 bd
       0.06205128 -0.07886529 -0.09530683 -0.040022418
000310 3c f8 f6 bd 90 76 b4 bc 12 35 e8 bd c0 83 18 3b
       -0.12059066 -0.022029191 -0.11338247 0.0023271888
000320 40 12 03 3c 80 f0 ad bd e0 12 62 bd 10 ba ed bc
       0.007999957 -0.08493137 -0.05519378 -0.029019386
000330 d0 5d 6d bd a8 1e ff 3d 14 f1 28 3d 88 b4 e2 bc
       -0.057950795 0.12457019 0.041245535 -0.027673975
000340 90 81 78 bc f8 86 9e 3d 92 16 cc 3d f0 fd 7e bd
       -0.015167609 0.07740587 0.099652424 -0.062253892
000350 48 ed e7 bc 90 e4 1f 3d c2 0f ad bd 0e f9 d6 bd
       -0.028311387 0.039036334 -0.08450271 -0.10496722
000360 18 ec 89 3c 8c 39 75 bd dc 86 1b 3d a0 48 eb 3b
       0.016836211 -0.059869334 0.03797041 0.0071802884
000370 40 1d fb 3d 00 7c 0b b9 20 ca c7 3c c2 92 ed bd
       0.12261438 -0.00013302267 0.024388373 -0.116002575
000380 28 7d 39 bd 18 0b aa bc 6a df 98 3d 80 18 ec 3c
       -0.045285374 -0.020757243 0.07464488 0.028820276
000390 fe 6b cf 3d da 64 f0 bd e4 ad 5c bd 60 64 b8 bb
       0.1012802 -0.11737986 -0.053876773 -0.0056272
0003a0 86 b1 d7 3d b8 da 86 bd 7c cc 69 bd 14 55 79 3d
       0.10531907 -0.06584686 -0.057079777 0.060872152
0003b0 48 6f e6 bd 04 30 d7 bd ac 6b e5 3d f8 c5 e9 3d
       -0.11251694 -0.10507205 0.112021774 0.11414713
0003c0 40 ec 3a 3c c4 2b 7c bd 0c ba 37 bd d8 13 0f 3d
       0.011408865 -0.061565176 -0.044855163 0.034931034
0003d0 fa 1d fb 3d 6c 65 34 3d c4 b5 b7 bd e0 58 e5 3c
       0.12261577 0.044042036 -0.08970216 0.02799648
0003e0 24 06 bc 3d 3e 75 bc 3d c0 0e b8 3b f8 4d ea bd
       0.09180859 0.0920205 0.0056169927 -0.114406526
0003f0 a2 34 ea 3d dc 9d 94 bd 8a 8d f5 bd b0 2d f4 bc
       0.1143582 -0.07256672 -0.11989887 -0.029806942

lstm.weight_hh_l0 f4 [256, 64]
000000 54 ef 41 bd 40 d0 2e 3d e0 16 e7 bc 54 f6 9e 3d
       -0.04734738 0.04267907 -0.02820915 0.07761827
000010 40 d0 95 3b 40 e1 4b bd 40 45 15 3c bc e3 b0 3d
       0.0045719445 -0.049775362 0.009110749 0.08637187
000020 34 71 44 bd c0 c8 20 3b 10 96 6c 3d 68 44 83 bd
       -0.04795952 0.0024533719 0.0577603 -0.06409532
000030 12 e4 d1 3d b0 e3 41 bd 18 67 96 bd 9c cb 78 bd
       0.10248579 -0.04733628 -0.07343882 -0.060741052
000040 e8 f3 b5 bd d4 e7 e4 bd 68 5f 97 3d de 2d bf bd
       -0.08884412 -0.1117703 0.07391244 -0.0933492
000050 50 2f 8e bd 8e f0 94 3d f2 79 eb bd d0 33 22 bd
       -0.06942618 0.07272445 -0.114978686 -0.039600194
000060 b0 cf eb 3c 54 6a 9d 3d 56 bd af bd c4 34 3a bd
       0.028785557 0.07686296 -0.08581035 -0.045460477
000070 c2 b8 e4 bd 46 b2 a8 bd 90 20 d2 bc a0 71 7e 3d
       -0.11168052 -0.08237128 -0.025650293 0.06212008
000080 5a 28 bb 3d b0 19 16 3d d6 f2 c7 3d 20 2d 66 bd
       0.09138556 0.03664559 0.09763114 -0.05619538
000090 10 b0 8b bc 40 a7 a4 3d 44 c9 cf bd 48 f1 90 3c
       -0.017051727 0.08039713 -0.1014581 0.017693177
0000a0 18 66 8b bc 84 da 69 3d c4 50 da 3d 08 41 eb 3c
       -0.017016456 0.05709316 0.10659936 0.028717533
0000b0 ee 5e c6 3d ac 65 f5 bd 5e 65 b0 3d 2a 2c a1 3d
       0.09686075 -0.11982283 0.08613084 0.07869752
0000c0 40 8c f3 bc 24 1f 38 3d a0 39 25 3c 04 d0 be 3d
       -0.029729962 0.044951573 0.01008454 0.093170196
0000d0 80 b6 d6 bd 94 a3 3f 3d d0 3b 30 3c 0e 49 f8 3d
       -0.10484028 0.04678686 0.010756448 0.12123309
0000e0 f6 02 e1 3d 5c 6f 00 bd 46 9c f2 3d 4c 1d 5f 3d
       0.10986893 -0.0313562 0.11846213 0.0544713
0000f0 e0 0f 24 3d 08 bf c7 3c e4 8e 27 3d 36 38 c2 bd
       0.040054202 0.024383083 0.040907755 -0.09483378
000100 5c df 58 3d fe a4 a7 3d a0 de 6e 3c 84 64 28 3d
       0.052947387 0.08185767 0.014579445 0.041111484
000110 f6 71 9e bd 7c e2 82 3d 80 92 e0 3a b2 26 9a bd
       -0.0773658 0.06390855 0.0017133504 -0.07526912
000120 b0 51 fc 3d 6c b5 a9 bd c8 93 70 3d 58 11 d5 3c
       0.12320268 -0.082865566 0.058734685 0.026009247
000130 54 b3 dd 3d a8 27 c8 bd 04 27 2f 3d 40 c1 69 3b
       0.1082522 -0.09773189 0.042761818 0.0035668164
000140 00 71 63 3b e0 9a fe bd 90 a3 0a 3c 70 2b 7c 3c
       0.0034704804 -0.12431884 0.008461848 0.015391216
000150 b4 a9 8b bd 10 21 aa bd 12 45 91 bd e8 10 a8 3c
       -0.06819478 -0.083070874 -0.07093252 0.020515874
000160 b2 e3 8a bd 54 3f dd bd 3c 05 1d 3d 9c 44 87 bd
       -0.06781711 -0.108030945 0.03833507 -0.06604883
000170 a4 ea b9 3d c0 a1 df 3c 90 4a 6d bc e0 7a 51 bd
       0.09077957 0.027298808 -0.014483109 -0.051142573
000180 a2 55 cf 3d 00 da b5 bc e0 9e 78 bd 0e c3 ad 3d
       0.10123755 -0.022198677 -0.06069839 0.08484469
000190 08 06 62 bd 26 d9 95 bd e0 15 05 3d 7c ab df 3d
       -0.055181533 -0.073168084 0.032491565 0.1092138
0001a0 78 44 a7 bd 00 5e 22 3a c0 7a d5 3d c8 1c 6c 3d
       -0.08167356 0.00061938167 0.10423803 0.057644635
0001b0 00 95 b0 3c ac 76 cf bd d8 a9 c5 3c 14 26 4b 3d
       0.021555424 -0.10130057 0.02412884 0.04959686
0001c0 b0 59 4f 3d 68 f9 85 bc 00 a4 01 b9 b8 84 88 3d
       0.050622642 -0.016354278 -0.00012363493 0.06665939
0001d0 c0 8c e2 bb f0 f5 49 3d b4 0c 0d bd 5e f7 c8 bd
       -0.0069137514 0.04930681 -0.034435943 -0.098128065
0001e0 7c 88 9b bd da 9e c5 3d d8 15 27 bd 9c 90 d7 3d
       -0.07594392 0.09649439 -0.040792316 0.10525629
0001f0 58 a5 1d bd 38 fa 89 3c ec 0c b9 bd 38 51 a5 bc
       -0.038487762 0.016842946 -0.09035668 -0.02018033
000200 88 66 e6 3c a4 5b 98 3d ba a7 e6 3d 92 01 ee bd
       0.028125063 0.07439354 0.1126246 -0.11621393
000210 aa d8 eb bd cc 68 04 3d ac d2 65 3d 78 a5 d2 3d
       -0.11515935 0.032326505 0.056109115 0.10285467
000220 40 bf 4d 3d 64 33 23 bd 54 c3 c9 3d 68 cf 59 bd
       0.05023122 -0.03984393 0.09851709 -0.053176314
000230 de 38 c7 bd 98 02 ed bc ac ad 0d bd cc d4 2e bd
       -0.097276434 -0.0289319 -0.034589455 -0.042683408
000240 24 38 ab 3d a0 0b 8f 3d 40 88 06 bd 16 6c aa 3d
       0.08360317 0.06984639 -0.032844782 0.08321397
000250 22 3d d1 bd d0 76 67 3d 00 91 a7 bd e0 f4 20 bd
       -0.10216738 0.056509793 -0.081819534 -0.03929603
000260 fc 67 3c bd 8e 87 cf 3d cc 33 b4 3d 4c e0 4f 3d
       -0.045997605 0.10133277 0.08798942 0.050751016
000270 5e 09 fd 3d 64 9c 89 bd 88 87 08 3d 98 45 d4 bd
       0.12355302 -0.06719282 0.033332378 -0.103648365
000280 18 e4 a3 bc 58 2a fe 3d e8 11 ff 3c b4 8a 87 3d
       -0.020006225 0.1241042 0.031136468 0.066182524
000290 b6 f3 e9 3d e0 9a 4c 3d 5a f8 c7 bd 7c f5 b0 bd
       0.11423437 0.049952388 -0.09764166 -0.086405724
0002a0 f0 d9 91 3c 7c 6c c4 3d 68 e4 68 3d e8 fd 90 bc
       0.017804116 0.09591004 0.05685845 -0.017699197
0002b0 8c 67 01 bd d6 8e ac 3d 5c 23 46 bd f8 08 f2 bd
       -0.03159289 0.08425681 -0.048373565 -0.11818117
0002c0 70 b5 f1 3c 20 50 9e bd 84 97 69 bd 00 7a e8 3d
       0.029505461 -0.077301264 -0.057029262 0.11351395
0002d0 d0 35 14 3c 20 b7 0f 3c 38 14 6e 3d f8 1f 4d 3d
       0.009046033 0.008771688 0.05812475 0.050079316
0002e0 a0 d6 fa bc 6a 9d f3 bd 1a e8 ee 3d b4 64 cd 3d
       -0.03061992 -0.11895259 0.116653636 0.10028973
0002f0 78 50 d1 bc 98 5a 2a 3d e8 7f e9 3d 14 b5 97 3d
       -0.025551066 0.041590303 0.11401349 0.07407585
000300 30 2b 93 bd 70 cb 06 3d f6 5d f5 3d 80 89 4f 3d
       -0.07185972 0.032908857 0.11980812 0.05066824
000310 7e 81 e8 3d 26 26 b6 3d 8c 34 cc 3d a0 93 fd bd
       0.11352824 0.08893995 0.0997096 -0.12381673
000320 e2 84 91 3d 18 45 db 3d f4 e3 77 bd 4e 2e fb bd
       0.071054235 0.10706538 -0.060520127 -0.12264691
000330 38 13 dd bd 90 71 cf bc 88 b7 ca bc ea 9d 8e bd
       -0.10794681 -0.025322706 -0.024745718 -0.069637135
000340 ba e0 86 bd 40 0b d8 3d 54 50 3a 3d 76 31 bb bd
       -0.06585832 0.10549021 0.045486763 -0.09140293
000350 dc eb 39 3d be 4d ad 3d 14 a2 3b bd 68 39 ea 3c
       0.04539095 0.08462094 -0.045808867 0.028591827
000360 96 a6 81 3d d0 a7 a7 bd 18 26 e6 3d f8 49 39 3d
       0.06330602 -0.081863046 0.112377346 0.045236558
000370 80 33 0f bb 4a 0c f9 3d ae 73 c3 bd 80 18 8f 3d
       -0.0021850765 0.12160547 -0.095435485 0.06987095
000380 60 87 d0 bc ac ca ef 3d dc bf 0d bd 4c 57 ec bd
       -0.025455177 0.117085785 -0.0346068 -0.11540088
000390 02 4b fe bd c0 9e 51 3b 18 09 f6 3c 82 95 dc bd
       -0.1241665 0.0031985492 0.030033633 -0.10770704
0003a0 06 30 9a bd 48 4a 04 3d 12 93 d4 3d 3a 95 e0 3d
       -0.07528691 0.032297403 0.10379614 0.10965963
0003b0 52 12 8e 3d 40 33 1f 3c 40 e0 25 bd 58 51 39 bd
       0.06937088 0.009716809 -0.040497065 -0.04524359
0003c0 80 b0 d6 3d f0 0a 2f bc 82 18 d5 3d ba e5 d3 bd
       0.104828835 -0.01068376 0.10405065 -0.10346551
0003d0 d8 7e 17 bd 90 7a a3 3d 80 42 0b 3b 04 70 f9 bd
       -0.036986202 0.07982361 0.0021249354 -0.121795684
0003e0 32 d1 ff 3d c0 60 cb bc 3e ec d8 3d f0 78 6d bd
       0.12491073 -0.024826407 0.105919346 -0.057976663
0003f0 b8 28 e6 bd a8 d1 26 3d b0 79 c9 3d 2e 6a c7 bd
       -0.11238235 0.040727288 0.09837663 -0.09737049

lstm.bias_ih_l0 f4 [256]
000000 24 8a d2 bd ee cf f1 bd 90 67 c9 bd 48 6d bd 3c
       -0.102802545 -0.118072376 -0.09834206 0.023123398
000010 70 43 c3 3c c8 75 c9 3d 08 a0 c7 bc 40 fe 34 bd
       0.023835868 0.09836918 -0.024368301 -0.044187784
000020 58 b2 0c bd c0 16 73 bb e4 e7 22 bd e8 e3 c6 bc
       -0.03434977 -0.0037092417 -0.03977193 -0.024278596
000030 f8 f0 c9 3c c0 33 6e 3c 80 ef 4e bb 88 9e c7 bc
       0.024651036 0.014538705 -0.0031575859 -0.024367586
000040 4a 64 b1 3d 04 e4 dc 3d 50 af 06 3d 96 c1 bb bd
       0.08661707 0.10785678 0.032882035 -0.09167783
000050 cc a4 32 3d 8e 82 aa 3d 0c 7d 21 bd 06 7b c6 3d
       0.043614194 0.083256826 -0.039425895 0.096914336
000060 c8 54 59 bd 38 ce 48 3d f0 c6 10 bc c0 24 63 3d
       -0.05305937 0.04902479 -0.008836493 0.05545497
000070 78 03 d3 bd cc 26 b1 bd 98 1f f3 3d bc 8c 9e 3d
       -0.10303396 -0.08649978 0.118712604 0.07741687
000080 d0 f9 a8 3c 96 53 cd bd 60 f1 67 3c c4 b8 e9 bd
       0.020626932 -0.100257084 0.014156669 -0.11412194
000090 1c 58 48 bd 38 2d 0e 3d ae 24 ee bd 6e f4 a3 bd
       -0.048912153 0.034711093 -0.1162809 -0.08005606
0000a0 80 a2 ce 3b 04 f9 88 bd 00 a2 fe 3a fc 0f 9c bd
       0.0063059926 -0.06688121 0.0019426942 -0.07620236
0000b0 8c 22 0b bd 3c 37 0a 3d 3e 3d d2 bd 88 af 48 bd
       -0.033968493 0.03374408 -0.10265587 -0.048995525
0000c0 28 18 81 3d 88 aa 28 bd ae 09 f1 3d 64 0f 76 bd
       0.063034356 -0.041178256 0.117694244 -0.06007327
0000d0 a0 50 e3 3b 1c 48 27 3d 3a a3 9a bd d0 2e d8 3c
       0.0069371015 0.040840253 -0.07550664 0.02638951
0000e0 c0 53 a9 3c 00 ab 8f 3c 2e 9a d0 3d 04 4e 8b 3d
       0.020669818 0.017537594 0.101856574 0.0680199
0000f0 f6 89 f3 3d fe 4c 97 bd 68 d8 98 3d 00 be 4e 3b
       0.11891548 -0.07387732 0.07463151 0.0031546354
000100 94 f6 65 3d 36 21 c1 3d 70 c9 9e 3c 38 53 e2 3c
       0.05614336 0.094301626 0.019383162 0.027627572
000110 2c 47 03 bd 00 b0 1d ba 60 c9 b7 3b 4e d7 a4 bd
       -0.032050297 -0.0006015301 0.0056087226 -0.080488786
000120 ea 04 d7 3d 90 8f 70 bc 4c 46 ba bd 00 a4 46 ba
       0.10498984 -0.0146826655 -0.09095439 -0.00075775385
000130 e6 70 8d bd f8 90 f9 3c 5c 05 68 bd c0 7c 1f bd
       -0.06906299 0.030464634 -0.056645736 -0.03893733
000140 d0 33 25 3d a2 93 f3 3d 40 b6 6b bb 20 cd e8 bb
       0.040332615 0.11893393 -0.0035966784 -0.007104531
000150 9e 78 83 3d e8 09 ca bd 40 e5 a2 3c a0 e5 85 3c
       0.0641949 -0.09865171 0.019884706 0.016344845
000160 20 ad 66 3d d0 a9 61 3d b2 cb f0 bd 00 e1 e4 3c
       0.05631745 0.055093586 -0.11757602 0.02793932
000170 72 cd fe bd a0 c7 a5 bc 28 c7 92 bc 40 e7 95 bc
       -0.12441529 -0.02023679 -0.01791723 -0.018298745
000180 70 e0 91 bd 32 ab a4 3d d0 ae fb bd 88 c9 79 bd
       -0.07122886 0.080404654 -0.12289202 -0.06098321
000190 40 3d 67 3b c0 c3 b9 3b 12 60 cc bd b8 36 6d 3d
       0.003528431 0.005669087 -0.099792615 0.057913512
0001a0 04 0d 47 bd ba 33 fa 3d c4 ff 25 bd d8 02 fb bd
       -0.048596397 0.12216897 -0.04052712 -0.12256402
0001b0 76 69 f2 3d 18 7c 88 bc 1c 58 c4 bd c8 53 d7 3d
       0.11836521 -0.016660735 -0.09587118 0.10514027
0001c0 44 4c 71 3d 06 81 b3 bd fa 83 e2 bd cc 47 fc 3d
       0.058910623 -0.08764844 -0.11060329 0.12318382
0001d0 78 eb 16 3d 9a 3e c0 3d 58 00 b7 bc e0 70 bb bb
       0.036845654 0.0938694 -0.022339031 -0.005720243
0001e0 ba 01 e7 bd 06 b1 9e bd 00 f8 2a 3a a0 ef 7f 3d
       -0.11279626 -0.07748608 0.000652194 0.062484384
0001f0 28 4b b4 3c 96 8c bd bd 6a f2 df bd b4 0e 97 bd
       0.022008494 -0.0925533 -0.10934909 -0.07375851
000200 a0 53 6e 3c 2e 6f eb 3d 80 f4 a2 3b fa 78 bb bd
       0.014546305 0.11495815 0.0049729943 -0.09153934
000210 30 a8 06 bd 30 09 1a bc f0 b4 c2 3d 08 27 97 3d
       -0.03287524 -0.0094016045 0.09507167 0.073804915
000220 34 92 c0 3d 5c bc 1b bd 5e 9c ea 3d c8 8a b5 bc
       0.09402886 -0.03802143 0.11455606 -0.022160903
000230 f2 f3 b0 bd 98 b1 90 bd 90 15 6e 3d 00 44 88 3a
       -0.08640279 -0.07065123 0.058126032 0.0010396242
000240 b8 c2 b1 3c da 4e e2 bd 34 ae f5 3d ec fc 0d bd
       0.021699294 -0.11050196 0.11996117 -0.034665033
000250 c4 59 f6 bd d8 63 64 3d 24 39 5f 3d 40 0c 1d 3c
       -0.1202884 0.05575928 0.054497853 0.00958544
000260 d0 b3 54 3d d6 5e c5 3d 48 09 e8 3c cc e8 83 3d
       0.051929295 0.09637229 0.028324738 0.06440887
000270 18 6c 0c bd 52 79 9e 3d 84 8d 8d bd c0 3b c0 3b
       -0.034282774 0.07737984 -0.069117576 0.0058664978
000280 d2 5c 8d 3d 40 53 99 3c 9c 3b 6c 3d 20 28 1d bd
       0.0690247 0.018716455 0.057674035 -0.038368344
000290 a4 04 c0 3d 46 f8 cf bd 74 26 48 3d ae 7a e8 3d
       0.09375885 -0.10154776 0.048864797 0.11351524
0002a0 ec 5a 75 3d 04 cb e1 3d b6 f6 90 3d d0 0b 20 3d
       0.059901163 0.1102505 0.070783064 0.039073765
0002b0 c0 8b b4 3b 74 a7 d1 3d e0 58 5c 3d 38 6c 4b 3d
       0.0055098236 0.10237017 0.053795695 0.049663752
0002c0 6e d4 9b 3d 18 80 79 bd 40 c6 92 bb c2 62 c3 3d
       0.07608877 -0.060913175 -0.0044791996 0.09540321
0002d0 20 e3 cd bc 8a 53 f6 bd cc 79 f3 3d 24 0e b4 bd
       -0.025132716 -0.120276526 0.11888465 -0.087917596
0002e0 18 30 fd 3d 40 bc 04 3d f8 93 ef 3d 50 c0 e7 3c
       0.12362689 0.03240609 0.11698145 0.028289944
0002f0 4c f5 42 3d a8 dc ff 3d 48 58 89 bc 7c 8f 4f bd
       0.047597215 0.12493259 -0.016765729 -0.050673947
000300 a8 34 a7 bd 40 fb 94 bd c8 2f 50 bd b8 07 59 bd
       -0.0816434 -0.07274485 -0.050826818 -0.052985877
000310 80 3f 4f 3b 20 2e ca 3c f0 f2 2e 3c 9c fb 90 bd
       0.0031623542 0.024680197 0.010678038 -0.07079241
000320 70 37 e5 3c 6a 92 fb 3d 40 33 5a 3c 1e b8 f3 3d
       0.027980536 0.12283786 0.013317883 0.11900352
000330 9c e2 a8 bd 00 6c 1c 3b d4 3c a6 bd 80 77 f8 bb
       -0.08246347 0.0023868084 -0.08117071 -0.007582605
000340 84 ea 06 bd 70 a7 2e 3c c4 89 fb 3d 1c c0 7b bd
       -0.032938495 0.010660037 0.12282136 -0.061462507
000350 48 c6 71 3d b8 d2 d0 3c 9a e5 e3 3d b8 53 de 3c
       0.059026986 0.025491104 0.111277774 0.02713953
000360 00 7a b1 3d fc 5e f8 bd ca 8c b2 bd 78 df c7 3d
       0.08665848 -0.12127492 -0.0871826 0.0975942
000370 ca 36 fb 3d 82 17 8a bd 9a 8a 97 3d 70 89 1f bd
       0.122663096 -0.06742765 0.07399483 -0.03894943
000380 3c a5 45 bd c8 1b d2 3d 3c 44 11 bd d2 49 ba bd
       -0.048253283 0.10259205 -0.035465464 -0.09096111
000390 a8 f6 b3 bc a4 76 14 3d be 71 fd 3d 00 fb 2b bd
       -0.0219682 0.036245957 0.1237521 -0.04198742
0003a0 c4 1c 88 bd 10 69 ed 3d 40 c9 ee bd 6c 3a b0 3d
       -0.066461116 0.11592305 -0.11659479 0.08604893
0003b0 48 2d 90 bd 68 2b 1f bd 48 31 cd bc d4 10 02 3d
       -0.07039887 -0.038859755 -0.025047913 0.03175433
0003c0 ec 9a 4a 3d 9c f2 1b 3d 8c 68 66 bd e6 b4 ac 3d
       0.04946415 0.038073167 -0.056252047 0.08432941
0003d0 9c 86 e0 3d d0 11 ee 3d 80 82 61 bb 84 c3 ba 3d
       0.10963175 0.11624491 -0.003441006 0.09119323
0003e0 68 86 77 3d c0 c0 e6 bb c0 08 24 3b b6 47 91 bd
       0.060430914 -0.0070420206 0.002502963 -0.07093756
0003f0 f0 74 a8 bc 14 9b ec 3d 12 15 d5 3d 5a 39 c4 3d
       -0.020563573 0.11553016 0.104044095 0.095812514

lstm.bias_hh_l0 f4 [256]
000000 b0 fd b9 3d c0 7a 36 3c 90 8d 09 3d b2 84 a7 bd
       0.0908159 0.011137664 0.03358227 -0.081796065
000010 00 67 40 bd aa 65 df 3d 0a 22 cb bd 00 3c d1 ba
       -0.04697323 0.10908063 -0.09918602 -0.0015963316
000020 0c 73 00 bd 48 ac 8a 3c 00 bb 21 ba 70 92 e7 bd
       -0.031359717 0.016927853 -0.0006169528 -0.113072276
000030 ee d4 85 bd 80 71 c6 3a b8 12 eb bd 54 2e 48 3d
       -0.06534754 0.0015140027 -0.1147818 0.048872307
000040 16 f5 c7 3d b0 4f 0e bc 96 b2 d0 bd b0 97 3d 3c
       0.09763543 -0.008685991 -0.101903126 0.01157181
000050 d4 ba 41 3d 48 f9 ef 3c e0 49 91 bb 66 69 d2 3d
       0.047297314 0.029293671 -0.0044338554 0.102740094
000060 02 34 fd 3d a4 04 35 3d 3e e8 ac 3d 32 15 b9 bd
       0.12363435 0.04419388 0.08442734 -0.09037246
000070 00 6d 9c 3c 30 13 eb bd b6 09 d8 3d 30 5c 66 bd
       0.019094944 -0.11478269 0.10548727 -0.05624026
000080 60 1e e2 bc 38 6b 94 bc 00 f4 54 bb c0 2a e0 bd
       -0.027602375 -0.018117532 -0.0032494068 -0.10945654
000090 d6 c1 ae bd 9c 9c c4 3d 28 b2 9d bd 78 38 d9 bd
       -0.08533065 0.09600183 -0.07699996 -0.10606474
0000a0 28 42 19 bd ca b3 86 bd 3e 08 8a bd 78 ea 41 3d
       -0.037416607 -0.06577261 -0.06739853 0.047342747
0000b0 32 15 de bd 6a cb a6 3d 32 f3 a3 3d c6 98 b3 3d
       -0.108438864 0.08144267 0.0800537 0.087693736
0000c0 10 b4 df bc b4 47 d5 bd ac 7c 1d bd ea 59 dd bd
       -0.02730754 -0.10414067 -0.038448974 -0.10808165
0000d0 26 c9 82 3d 92 fb f8 bd 04 2a 05 bd e0 76 4a bd
       0.06386022 -0.12157358 -0.032510772 -0.049429774
0000e0 e8 e5 f7 3c f8 b2 a2 bd d8 89 91 bd 96 d4 b0 bd
       0.030260995 -0.07944292 -0.0710637 -0.086342975
0000f0 0a cb e3 bd b6 2a 9b 3d ea a0 fb 3d 24 9c ba bd
       -0.11122711 0.07576506 0.12286551 -0.09111813
000100 ce 2f cb bd 0e 91 d5 3d 74 0c 09 bd 28 6f 90 3c
       -0.099212274 0.104280576 -0.03345914 0.017631128
000110 86 dc b4 3d 20 96 84 3c bc 64 54 3d 10 74 df bd
       0.08831124 0.016184866 0.05185388 -0.10910809
000120 0a d8 84 bd 56 d7 f1 bd 16 4c ad 3d 60 8c 8c bd
       -0.06486519 -0.1180865 0.08461778 -0.06862712
000130 cc f4 5a bd 38 61 82 bc b4 93 8f 3d d0 d6 d7 3d
       -0.053456113 -0.015915498 0.07010594 0.10539019
000140 7c bf 86 bd 3c a3 f7 3d 94 fd 51 3d 98 9b 8d 3c
       -0.065794915 0.12091681 0.05126722 0.017286107
000150 80 b8 34 bc 70 75 7b 3c 60 41 4b 3d 8e 3f b1 3d
       -0.011030316 0.0153478235 0.049622893 0.086547
000160 e8 d6 a5 bd 6c 3d 2a bd 3c 3b d0 bd c0 94 70 bc
       -0.08097631 -0.041562483 -0.10167548 -0.014683902
000170 e0 d9 45 bc 80 02 d6 3c d4 ad 3d 3d b0 c9 4b 3c
       -0.012075871 0.026124239 0.046308354 0.012438223
000180 10 02 45 3c bc e1 29 bd f0 08 6c bd 44 59 e6 bd
       0.0120244175 -0.041475043 -0.05762571 -0.11247495
000190 66 66 e7 3d b0 87 23 3c 52 3f 8e 3d 88 d8 8c 3d
       0.11298828 0.009981081 0.06945671 0.068772376
0001a0 b0 01 13 3c 1e dc f1 bd 30 a4 a1 bd e0 dd cd 3d
       0.00897257 -0.11809562 -0.078926444 0.10052085
0001b0 e8 59 ce 3d f0 ab 07 bd 2a 56 8e 3d d0 ad 32 3c
       0.10075742 -0.033122957 0.06950028 0.010905698
0001c0 88 37 c0 bc 7e d6 8b bd dc a2 ea 3d b8 19 d2 3d
       -0.02346398 -0.068280205 0.11456844 0.10258812
0001d0 fe c2 d4 3d 20 04 2c bc 3c aa 31 bd d8 a9 77 bd
       0.10388754 -0.01049903 -0.04337524 -0.06046471
0001e0 40 71 25 bd 64 63 9c 3d 28 3a 7c bd 2c fc 06 bd
       -0.040391207 0.07636145 -0.0615789 -0.032955334
0001f0 f0 44 43 3d c0 b6 88 3c c8 c3 93 3d 1c a7 7b bd
       0.047673166 0.016688704 0.07215077 -0.061438665
000200 98 20 0c 3d 70 ff ff 3d 90 7c 15 bc d0 e5 55 bc
       0.03421077 0.12499893 -0.009123936 -0.01305528
000210 00 88 bc bc 14 af f8 bd c0 c4 15 3c 4c c5 39 bd
       -0.023014069 -0.121427685 0.009141147 -0.045354173
000220 90 6e 41 3d 38 52 75 3d fe 1a 92 3d 60 a8 62 3c
       0.04722458 0.059892863 0.071340546 0.013834089
000230 20 02 ff bb 90 27 48 3c c8 3d 52 bd 70 9e 77 3c
       -0.0077822357 0.012216464 -0.05132845 0.015113458
000240 56 6c 85 3d 14 71 90 3d 40 06 0b bc 20 fe ea 3b
       0.06514804 0.07052818 -0.008485377 0.0071714073
000250 54 2f 06 bd 22 60 da bd 80 14 9f ba 80 70 b6 bb
       -0.03275998 -0.10662867 -0.0012136847 -0.0055676103
000260 80 13 a4 bd dc 96 d7 bd 50 86 e0 bd 14 d1 5b bd
       -0.08011532 -0.10526821 -0.10963118 -0.05366619
000270 24 2d 76 3d a6 ef 9a 3d e4 30 97 bd 30 f0 c3 3c
       0.060101643 0.075652406 -0.07382372 0.023918241
000280 84 a9 95 bd e6 3b 96 bd 58 77 b1 3c d0 91 15 3d
       -0.07307723 -0.073356435 0.021663353 0.03651601
000290 32 ef 90 bd 50 99 c7 bd 00 a5 84 3d 00 78 ae bd
       -0.07076873 -0.09746039 0.06476784 -0.08518982
0002a0 a2 53 db bd 20 27 ab 3d 74 20 83 3d 82 25 ac 3d
       -0.10709311 0.08357072 0.06402674 0.084055915
0002b0 a0 b5 c2 3b 82 22 f9 bd c0 b7 ec bb 78 fd dc 3d
       0.0059420615 -0.12164785 -0.007224053 0.10790533
0002c0 80 2c e4 bc 18 b8 d8 bd ca 0a bd 3d 8a 89 89 bd
       -0.02785325 -0.10581988 0.092305735 -0.067156866
0002d0 50 4d ac bc d0 de 3b bd a0 ed c3 3b d4 e2 c0 3d
       -0.02103296 -0.045866787 0.005979255 0.09418264
0002e0 e0 3c 5b bd 9a 53 d3 bd 00 0e cb 3a 04 d6 ec 3d
       -0.05352485 -0.1031868 0.0015491843 0.11564258
0002f0 74 ef 64 bd e8 32 ad 3d 30 b0 8a 3d 30 7e 4e bc
       -0.055892423 0.08456975 0.06771886 -0.012603328
000300 fe e7 b6 3d 58 75 fc bc 68 8d 34 bd c0 7c de 3c
       0.08930968 -0.030817673 -0.044080168 0.027159095
000310 e4 e8 75 bd b2 9e d2 3d a0 83 bb 3c 76 22 8e bd
       -0.060036555 0.10284175 0.022889912 -0.06940167
000320 48 56 87 3d 2e ee ed bd a8 d2 fc 3c 96 cf e3 bd
       0.06608254 -0.11617695 0.030862167 -0.11123578
000330 a8 3b d9 3d 58 e1 b4 3d f6 3c eb bd a0 73 0e bd
       0.10607082 0.088320434 -0.11486237 -0.034778237
000340 60 ad 4f 3c 5c 29 da bd da 7d c8 3d 90 f4 96 bd
       0.012675613 -0.1065242 0.09789629 -0.07370865
000350 30 9d 0a 3c 58 36 33 bd 00 20 89 3d 00 94 e5 bc
       0.008460328 -0.043752998 0.06695557 -0.028024673
000360 18 75 3a 3d d0 34 7a 3c 04 22 50 3d fe dc 97 bd
       0.045521826 0.015271381 0.05081369 -0.07415198
000370 fc 40 00 3d a8 1c 19 3d e0 b3 b2 bb d8 58 86 3d
       0.031311974 0.037380844 -0.0054535717 0.06559914
000380 80 9c 79 3c 50 fb 2e bd 06 20 c8 3d 44 f0 a5 bd
       0.015235066 -0.04272014 0.09771733 -0.08102468
000390 f0 50 15 bc 36 25 9b 3d 00 99 9d ba cc 07 2a 3d
       -0.009113535 0.07575457 -0.0012023747 0.041511342
0003a0 28 68 73 3d 74 1e d2 3d d0 14 d3 3c 4e 51 90 bd
       0.059425503 0.10259715 0.02576676 -0.07046758
0003b0 50 70 89 3d d8 4a db 3d 14 97 00 bd 42 44 a1 bd
       0.06710875 0.10707635 -0.03139408 -0.07874347
0003c0 a0 fa 63 bd 00 10 99 b8 c6 9a b4 3d bc 5f e4 3d
       -0.055658937 -7.298589e-05 0.08818583 0.111510724
0003d0 22 43 ab 3d 50 ae c1 bd 14 7c 80 bd 66 e0 cd bd
       0.08362414 -0.094570756 -0.06273666 -0.10052566
0003e0 40 b1 65 3c 8c ef 42 3d ae 18 9b 3d 10 07 43 bc
       0.0140193105 0.04759173 0.07573067 -0.011903539
0003f0 92 c1 8a 3d 50 0f ea bd c0 6a 23 3b 3a 83 88 bd
       0.06775202 -0.11428702 0.0024935454 -0.066656545

lstm.weight_ih_l1 f4 [256, 64]
000000 a0 27 b8 3d 30 8d 05 bd 40 b3 4f 3d 58 3e 00 be
       0.08991933 -0.03260535 0.050708055 -0.12523782
000010 80 0b 4d 3b 30 93 7d bc 26 18 97 bd 42 39 b6 3d
       0.0031287372 -0.015476987 -0.07377653 0.0889764
000020 7b 48 89 3d 80 b2 a8 3d 25 1b 4e bd 54 f6 d7 bd
       0.06703278 0.08237171 -0.050318856 -0.1054503
000030 d1 4a f9 bd c6 37 32 3d 4c 66 2e bd 18 27 7e bd
       -0.12172473 0.04351022 -0.042578027 -0.062049
000040 83 21 a0 bd 30 7a 12 3d db 48 41 3d b0 f5 6d 3c
       -0.07818892 0.03576106 0.04718862 0.0145239085
000050 bd f3 a3 bd c0 7e 6c bd ea 48 a8 3d e8 1a 40 3d
       -0.08005474 -0.057738066 0.08217032 0.04690066
000060 86 48 eb 3d 55 96 99 bd 22 fd 2f 3d ec e6 88 bd
       0.11488442 -0.07499377 0.042966016 -0.0668467
000070 82 10 9c 3d a4 f2 14 3d 06 a2 e6 bd 34 6d dd bd
       0.07620336 0.036364213 -0.11261372 -0.108118445
000080 00 83 9e bc 5c 6a a4 3d b4 be 0d 3d 33 59 b1 3d
       -0.019349575 0.08028099 0.034605697 0.086595915
000090 ac 15 30 bd 5c e8 04 3d 00 5e 6e 3b 7e e6 b9 bd
       -0.042989418 0.032448158 0.0036371946 -0.09077166
0000a0 aa ef b6 3d 54 07 91 3d de 13 ec 3d ac bf 02 3d
       0.08932431 0.07081476 0.11527227 0.031921074
0000b0 16 71 c2 bd fd 95 83 3d 96 20 84 3d 86 82 dc bd
       -0.09494226 0.06425092 0.06451528 -0.10767083
0000c0 8f 14 9e 3d 30 4c 72 3d fc f2 df bd cc 09 e5 bd
       0.07718765 0.05915469 -0.109350175 -0.11183509
0000d0 d8 85 cd 3c 40 a4 eb bb d7 db f1 3b 44 51 10 bd
       0.025088236 -0.007191211 0.0073809433 -0.03523375
0000e0 20 7b 4a bc c0 76 36 bc 60 28 a3 bb 50 5e 8d 3c
       -0.012358457 -0.011136711 -0.0049791783 0.017256886
0000f0 40 72 07 3b c8 cc 3b bd 4a 45 09 be 16 a3 a0 bd
       0.0020667464 -0.04584959 -0.13405338 -0.07843606
000100 2c 07 e8 3d 00 f4 14 39 e8 b7 95 3d cb d8 a7 3a
       0.11329493 0.00014205277 0.07310468 0.0012805698
000110 ca f8 86 bd b8 8d 20 bd 40 c7 5d 3d 80 c1 3d 3c
       -0.065904215 -0.039197654 0.054145098 0.0115817785
000120 5b 60 ff 3d 96 c1 a5 3d e7 10 13 bd 34 b6 b8 3d
       0.1246955 0.08093564 -0.03590479 0.090191275
000130 58 df 9a bd a5 1d d9 bd ac b2 2c bd 30 76 19 3c
       -0.07562131 -0.10601357 -0.042162582 0.009366557
000140 f1 76 09 bd a8 2a 31 bd 5a 86 72 3d 50 7e e5 3c
       -0.033560697 -0.04325357 0.05921016 0.028014332
000150 97 74 18 3d 58 0e d9 3c 0e f3 f7 bd 76 86 ef bd
       0.037220564 0.026496097 -0.12106906 -0.11695568
000160 d0 ba ed 3c c9 20 d3 bd 82 a6 b3 bd 38 6e 53 3d
       0.029019743 -0.10308988 -0.08771993 0.051618785
000170 1c 65 d3 bd 5c 20 20 bd e1 5d aa bc c0 7f 4c 3d
       -0.103220195 -0.03909336 -0.020796718 0.04992652
000180 40 02 16 3b 38 9b a9 3d b0 e0 ad 3c fc 4b 36 bd
       0.0022889525 0.08281559 0.021225303 -0.044506058
000190 00 cd ba bd 20 02 a0 bd b0 0a 37 bc c0 17 bc 3c
       -0.09121132 -0.07812905 -0.011171982 0.022960544
0001a0 98 a4 68 3d e4 20 a0 3c f4 4f 3f bd ce 02 ce 3d
       0.056797594 0.019546933 -0.04670711 0.10059129
0001b0 b8 db 08 3d 18 9c e3 3d f8 4d ae 3c f0 5e d6 bd
       0.033412665 0.11113757 0.021277413 -0.10467327
0001c0 14 af 85 bd aa 49 bc bd 6e 7e e0 3d 14 91 f9 bd
       -0.06527534 -0.09193738 0.109616145 -0.121858746
0001d0 52 5b be bd 9a 5d bf bd d0 91 fe bd 36 db ce 3d
       -0.09294762 -0.09344025 -0.12430155 0.10100405
0001e0 e0 1b 0b bc 68 72 b4 3c 08 8c 56 3d e8 fc 6a bd
       -0.008490533 0.02202721 0.052379638 -0.057370096
0001f0 20 6f c8 3b 80 19 a5 3c cc 11 bf bd 10 4e 37 3d
       0.0061167628 0.02015376 -0.09329566 0.04475218
000200 c2 cf a8 bd f0 49 45 bc d8 ef b2 3c c8 57 95 3d
       -0.08242752 -0.012041554 0.021842882 0.072921336
000210 12 2d 8b bd 44 36 36 3d 80 57 1d 3d 24 bc 51 3d
       -0.06795706 0.044485345 0.038413525 0.051204816
000220 de 96 46 3d d0 5f f0 3d e9 27 d4 bd 22 97 d9 bd
       0.048483722 0.11737025 -0.10359175 -0.106245294
000230 de d4 e5 bd 4d 3b ad bc 80 70 3d 3b ea 17 f3 bd
       -0.11222242 -0.02114644 0.0028906167 -0.118697956
000240 b8 99 45 3d 34 8b fa bd d2 52 1b bd 5c 20 80 bd
       0.0482423 -0.12233582 -0.03792078 -0.06256172
000250 71 ea 3c bd 76 66 a5 bd 5a 84 c8 3d 44 f0 6e 3d
       -0.04612202 -0.080761835 0.09790869 0.058334604
000260 2c 53 b5 3d d2 dc 6f 3d 79 62 0d be 40 15 26 3c
       0.088537544 0.0585602 -0.13807096 0.010136902
000270 b8 71 f3 bd 28 6f a3 bd 8f 2f ab 3d fa 88 ab bd
       -0.118869245 -0.07980186 0.083586805 -0.083757356
000280 18 d0 e1 3c c4 cc 4c 3d 5e 5d ea bd dd 57 c7 bd
       0.027565047 0.049999967 -0.1144359 -0.097335555
000290 40 83 36 3d 48 a0 b8 3c e8 1d e9 3d 78 86 62 3d
       0.044558764 0.022537366 0.11382657 0.05530402
0002a0 f2 02 81 bd b9 fa f6 3d 16 40 88 bd c4 77 67 3d
       -0.0629939 0.1205954 -0.066528484 0.0565107
0002b0 3e f4 9f bd 5e f2 f1 3b 80 43 c9 bb a0 9a 5c bc
       -0.078102574 0.0073836287 -0.00614208 -0.0134646
0002c0 0e d7 3e bc 08 87 19 3d 7e 7d c0 bd 88 eb 44 bd
       -0.011647953 0.03748229 -0.09398936 -0.048076183
0002d0 d4 0c 97 3d c0 9c 64 bd 86 5b 93 3d ca 0b 93 bd
       0.07375494 -0.05581355 0.07195191 -0.07179983
0002e0 40 de e0 3b f0 5c df 3c 54 3b 82 bd 20 7a d1 bc
       0.0068624318 0.027265996 -0.06358972 -0.025570929
0002f0 02 41 d7 3d 98 68 95 bd e5 a7 b3 3d dc f5 ac bd
       0.10510446 -0.0729534 0.08772258 -0.084453315
000300 d0 03 19 3d f2 61 d0 3d ca c4 ea 3d 05 c3 03 bb
       0.03735715 0.101749316 0.11463316 -0.0020105254
000310 98 30 f2 bd 56 1f b5 bd c4 81 5a bd 74 e2 24 bd
       -0.11825675 -0.088438675 -0.05334641 -0.040255025
000320 8c 54 dd bc 2a 65 b3 bd c8 d8 09 be f6 f6 eb 3d
       -0.027017854 -0.0875953 -0.13461602 0.115217134
000330 80 90 ce bd ef a0 77 3d 70 d7 48 bc a0 d1 18 bc
       -0.10086155 0.060456213 -0.012258396 -0.009327322
000340 3a 9d 2d 3d 2c 02 b5 3d 45 c4 0c 3e 10 64 38 3c
       0.04238627 0.08838305 0.13746746 0.0112543255
000350 72 3d 12 3e 3c ac 23 bd a2 50 90 bd 00 b0 d8 3d
       0.14281252 -0.039959177 -0.070466295 0.10580444
000360 2c c7 dc bd 09 62 51 3d e1 9f 6e 3c 98 0f e2 bc
       -0.107801765 0.051118884 0.014564485 -0.027595326
000370 c6 d2 f9 3d d8 c0 9e bc 56 7f 2b bd 60 1a b3 bc
       0.12198405 -0.019379064 -0.041869484 -0.021863163
000380 6e 04 b2 bd 24 cc 9f bd 72 a4 c5 3d 4e ea 4f bc
       -0.08692251 -0.078026086 0.09650506 -0.01269014
000390 0a 7b a3 bd 10 2b 07 bd 3a 5c 9b 3d d8 b3 a9 3c
       -0.07982452 -0.033000052 0.0758595 0.020715639
0003a0 a4 f1 97 3d 37 c4 db bc a0 0f b3 bb d8 57 b6 3d
       0.07419136 -0.026826961 -0.005464509 0.089034736
0003b0 3c d8 46 bd 85 2a 30 bc 2e 9b 88 3d 36 37 b3 3d
       -0.04854606 -0.010752325 0.06670223 0.08750765
0003c0 cd 01 ee 3c 0a 61 f4 bd b6 58 e2 bd 78 56 32 3d
       0.029053593 -0.11932571 -0.110520765 0.043539494
0003d0 4c 0d 6f 3d ec d5 d7 3d e2 52 bc bd 50 79 bf 3c
       0.05836229 0.10538849 -0.09195496 0.023373276
0003e0 5a 10 da bd 72 23 85 3d 28 2e 38 3d 98 7a 95 bd
       -0.1064765 0.06500901 0.044965893 -0.072987735
0003f0 c2 94 c5 3d 00 b3 be 3c 83 0a a6 bd 28 00 ca bc
       0.09647514 0.023278713 -0.08107474 -0.024658278

lstm.weight_hh_l1 f4 [256, 64]
000000 54 59 16 bc 8d 0b b8 3d db a9 e2 bd fe d1 55 bd
       -0.009176571 0.08986578 -0.110675536 -0.052202217
000010 c5 04 72 3c 99 b5 e5 bd 05 66 30 bb 61 b6 7e 3d
       0.014771645 -0.11216278 -0.0026916277 0.06218565
000020 2f ba 65 bd 37 1a 11 bd 73 f4 7a bc e8 74 7b 3d
       -0.05608576 -0.03542539 -0.01531707 0.061390787
000030 81 c2 3a 3d 5e 8f 73 3d 43 11 78 bd 25 24 dc 3c
       0.04559565 0.059462897 -0.060563337 0.026872704
000040 20 54 8b bd 2a 1a d0 bd 53 13 7f bd 49 52 41 3d
       -0.06803155 -0.101612404 -0.06227429 0.047197614
000050 bf 3f 83 3d 6d 94 54 3d d6 14 b2 3d fe 57 d3 bd
       0.06408643 0.051899362 0.086953804 -0.103195176
000060 59 86 28 bb 34 bd 0d 3d 94 91 aa bd 60 08 ee bc
       -0.0025714843 0.034604266 -0.08328548 -0.029056728
000070 30 e6 87 bd 7f bb 91 3d 57 09 93 3d 6a f6 b7 3d
       -0.06635702 0.0711584 0.07179516 0.08982547
000080 9c 7c 40 3d ce 3b c0 bd 1e 8f 79 3d ee 6f d4 bd
       0.046993837 -0.09386407 0.060927503 -0.103729114
000090 50 ae 44 3c 15 5f 87 3d d4 35 2d 3d b3 72 d5 3b
       0.01200445 0.06609932 0.042287663 0.0065139174
0000a0 cc d2 73 3d eb f8 85 3d b4 0a f3 bd 21 94 ed 3d
       0.059527203 0.06541618 -0.11867276 0.11600519
0000b0 03 72 10 3c a7 cb b2 3d 3f 6f a8 bc b5 df b6 bd
       0.008816245 0.0873025 -0.020560859 -0.089293875
0000c0 8d 21 10 3e 8f 59 0f 3d d5 ee be 3d 64 12 e0 bc
       0.14075299 0.03499752 0.09322897 -0.02735252
0000d0 07 30 18 be ab db 68 3d e0 65 15 be d6 a7 93 3d
       -0.14862071 0.056850117 -0.14589643 0.072097465
0000e0 bc aa b7 bd 47 63 01 be ad 72 d5 3d 68 01 ae bb
       -0.08968112 -0.12635528 0.10422263 -0.005310226
0000f0 af d2 1c bd 6d 72 c2 3c 46 42 a5 bd 0b ef e5 3d
       -0.03828686 0.023736203 -0.08069281 0.112272345
000100 1f fe bc 3c ad cf 9c 3c 33 8f c6 bd 2a bf 09 3e
       0.023070393 0.019141996 -0.09695282 0.1345183
000110 32 07 ad 3d c7 3c 07 be 13 70 1b 3d 1d 3d 29 3d
       0.08448638 -0.13206778 0.03794868 0.041318048
000120 bd ea 7b 3b d0 d9 3f 3d 41 9a 05 3e 43 01 d2 bd
       0.0038439475 0.04683858 0.13047124 -0.10254147
000130 49 bf f2 bc b5 e6 7d bd d2 88 2d bd b8 01 8e 3d
       -0.029632227 -0.061987597 -0.04236681 0.069339216
000140 33 47 82 3d 7c 98 c8 bd 60 a2 08 bd 8d 07 3d bd
       0.063612364 -0.09794709 -0.033357978 -0.04614978
000150 97 09 28 bd 25 7c db bc bf 67 98 bd bf 92 01 be
       -0.04102477 -0.026792595 -0.07441663 -0.12653635
000160 87 65 35 3d 4a b2 31 bd 51 36 63 bd e9 15 7e bd
       0.044286277 -0.04338292 -0.055471722 -0.062032614
000170 cc 21 bd bd b6 54 0d 3e 26 ac c3 bd 16 6e 0f 3e
       -0.09234962 0.13801846 -0.09554319 0.14006838
000180 6a 48 8d 3d 97 77 12 be ad 8a 2f bd c7 56 6b bd
       0.068985775 -0.14303432 -0.04285686 -0.057455804
000190 7d 56 ae bd 1f 69 2a bc 69 39 8e 3b 97 1d 95 3d
       -0.0851259 -0.010401039 0.00434034 0.072810344
0001a0 af f0 6a bd be 79 43 bd ba 1f c0 3d 1f 37 0c bd
       -0.05735844 -0.047723524 0.09381051 -0.034232255
0001b0 66 a1 1d 3c 70 02 b3 3d a1 82 47 bd 89 cc d0 3b
       0.009621 0.08740699 -0.04870856 0.0063720387
0001c0 a8 21 95 3d 08 0f 9e bd 51 ab dc bd c7 0c 99 3c
       0.0728181 -0.07717711 -0.107748635 0.01868285
0001d0 91 01 f7 bc bb ea 87 3c 54 00 f1 3c 9d dd 82 3d
       -0.030152114 0.01659142 0.029419102 0.06389926
0001e0 54 22 af bd e2 3e 4c 3c c2 f6 03 3e a5 cc 5a bd
       -0.085514694 0.012466164 0.128871 -0.05341782
0001f0 2c f9 ba 3d 9b 2f 9d bd cf 71 ac 3d 28 88 83 3d
       0.09129557 -0.07675096 0.08420145 0.06422454
000200 c8 fd de 3d c9 ae 9d bd e5 df a0 bd ff c6 0a 3e
       0.10888249 -0.07699353 -0.078552045 0.13552473
000210 0d 22 d3 3d f2 92 a8 3d 10 11 c6 3d 9b 39 8f 3d
       0.10309229 0.082311526 0.09671223 0.06993409
000220 c5 30 6d bd 25 c1 70 bd ea 5f dd 3c 59 84 64 3d
       -0.05790784 -0.058777947 0.027023274 0.05579028
000230 ac 80 1a 3d 9f 3e ab 3d cd 39 d4 bd ff 12 b9 bd
       0.037720367 0.083615534 -0.10362587 -0.09036826
000240 96 59 10 bd 16 4a 42 3d 59 19 fb 3c fb 3c 83 3c
       -0.035241686 0.047433935 0.030651735 0.016020289
000250 4e cd df 3c de 68 52 3d 6f b0 ad bd b2 d8 8f 3d
       0.027319577 0.05136954 -0.08480918 0.07023753
000260 5c c7 31 bd 2e bf 3b 3d da 2c 7a 3d ba 65 c8 bc
       -0.043403015 0.04583662 0.06107793 -0.02446257
000270 26 bb a3 3d 25 44 97 bd ea c1 b7 3d 02 d0 a4 3d
       0.0799468 -0.073860444 0.08972533 0.08047487
000280 00 02 a9 3d 49 ed 0d 3c 55 88 98 3d b8 52 55 bd
       0.082523346 0.00866253 0.07447878 -0.05208084
000290 94 5c c3 bd 6a c2 35 3d 37 47 e0 3d 23 4a 71 3c
       -0.09539142 0.04437486 0.10951083 0.014727148
0002a0 9b 40 b4 3d 86 07 f6 bd 25 7a 42 bc ca ee bd bd
       0.08801385 -0.12013154 -0.011869942 -0.09274061
0002b0 64 c4 42 3d aa f5 9a 3d 93 5e 3d bd ff 2e 1c bd
       0.047550574 0.07566388 -0.04623277 -0.038130756
0002c0 8b d9 b7 bc 59 72 cc 3d 26 24 65 bd 86 74 c9 3d
       -0.0224426 0.099827476 -0.055942677 0.09836678
0002d0 a8 0a 32 3d cd 12 d2 bc 84 ac b7 3d e8 04 8c 3b
       0.043467194 -0.02564373 0.089684516 0.004273046
0002e0 66 ea e5 bd 2c f5 b8 bd 17 f8 b7 bc 4c 17 4f 3c
       -0.112263486 -0.09031138 -0.022457166 0.012639832
0002f0 34 a9 2d bc f6 4c 49 3d 73 30 89 3d 7b bd 98 3d
       -0.010599423 0.04914566 0.06698694 0.074580155
000300 cd 4e c8 bd d8 59 f7 bb 95 be 53 bd 80 f3 02 3e
       -0.09780655 -0.007548552 -0.051695425 0.127882
000310 80 d5 9c bb d5 be 04 3c 28 e5 22 3c f9 65 9c 3d
       -0.0047861934 0.0081021385 0.00994233 0.07636637
000320 f2 74 c2 bc bf 80 d0 3d 0e e7 1d bd 58 87 f7 3d
       -0.023737404 0.10180806 -0.03855043 0.12086362
000330 b4 26 5e bd 4c 2d 8c 3d 4d c7 b8 bd a6 4a 91 3d
       -0.05423613 0.06844577 -0.090223886 0.07094316
000340 54 99 61 3d a8 0e 73 3d b1 a4 4f 3d 38 14 6a bd
       0.055077866 0.05934015 0.05069417 -0.05714819
000350 26 a3 22 3d 59 2b 78 3d 96 08 83 3d 54 88 9d 3d
       0.03970637 0.060588215 0.06398122 0.07692018
000360 26 4a 1b 3d 06 d6 e4 3d 0b 82 89 3d b1 5b 86 3c
       0.03791251 0.11173634 0.06714257 0.016401144
000370 c8 99 84 3d 3e 32 79 bd 59 24 19 be a3 63 78 3d
       0.06474644 -0.06083893 -0.14955272 0.060641896
000380 4c a9 b4 3d ee 58 47 bd 08 4d b5 bd 37 d1 c4 bd
       0.08821353 -0.048668794 -0.08852583 -0.09610217
000390 c2 0b 81 bc d0 46 96 3d cf f0 f2 3a bc 95 ca 3d
       -0.015752677 0.07337725 0.0018534901 0.09891841
0003a0 3a 83 ff bd d4 81 d7 bd 68 54 e7 3c 28 05 09 bd
       -0.12476201 -0.105228096 0.02823849 -0.033452183
0003b0 b9 9e 39 bc e8 25 bb 3d a1 f0 99 bc 5f 90 99 3c
       -0.011329346 0.091380894 -0.018791499 0.0187456
0003c0 f8 25 b2 3d aa 87 b2 bd 4f 9d 03 3e 09 34 8c bc
       0.08698648 -0.08717282 0.12852977 -0.017114656
0003d0 a9 17 80 bd 2a d8 62 3d 9c f6 d1 3c b1 ff 0e 3e
       -0.06254513 0.05538193 0.025630288 0.13964726
0003e0 9e df 69 3d d1 77 cf 3d 22 cc 09 3e 94 0b b8 3d
       0.057098024 0.10130275 0.13456777 0.08986583
0003f0 ad 36 ca bd 2f 9c 2c bd 2c 50 50 3d a7 18 53 3c
       -0.0987371 -0.042141136 0.050857708 0.012884296

lstm.bias_ih_l1 f4 [256]
000000 97 b7 4f bc f9 78 0d 3c e8 76 14 3d 50 45 0c 3c
       -0.012678049 0.008634799 0.03624621 0.008561447
000010 a5 54 48 bc 5d a4 a1 bd b6 3c 8e bc 8b c4 86 39
       -0.012227212 -0.07892678 -0.017362934 0.00025704908
000020 e5 50 cf 3d 17 fc 96 bd 47 c3 d1 bd c8 de 0d 3e
       0.10122851 -0.07372301 -0.10242324 0.13854516
000030 05 5d cd bd c6 54 d4 bd 65 ab 17 3c 91 f8 85 3d
       -0.10027508 -0.10367732 0.009257172 0.06541551
000040 9e b4 ce bc 4e 4a aa bb 26 7d 75 bd 0d 3c 09 bd
       -0.02523261 -0.005196846 -0.059933804 -0.033504535
000050 1f 44 ab 3d c5 6b 41 3c 4e a4 13 3d 5b af 12 bd
       0.083626024 0.011805479 0.036045365 -0.035811763
000060 9e 4e 72 bd fe 24 f3 b9 55 28 6f 3d 43 c0 41 3c
       -0.059157006 -0.00046376133 0.058388073 0.011825624
000070 26 58 d4 3d 0d 6a 9f bd 24 60 2d 3d 48 81 7d bd
       0.103683755 -0.077838995 0.042328015 -0.06189087
000080 f9 b4 3c 3d 86 6e 2f bd c0 16 ba 3b 25 4f cd 3b
       0.046071026 -0.042830013 0.0056789815 0.0062655383
000090 aa 75 0b 3e e1 a4 51 bd 12 5b a7 3d 0f b9 af 3d
       0.13619104 -0.05118263 0.08171667 0.08580219
0000a0 e3 5a 1b bc 9e 97 e6 3d 42 c8 15 3d 52 cb 68 bd
       -0.009482118 0.112593874 0.036567934 -0.056834526
0000b0 69 60 95 3d a6 62 ca bd d9 cb 46 3d 8c d8 9f 3d
       0.072937794 -0.09882097 0.048534248 0.07804975
0000c0 6a 7d 65 3d fa 1a 02 3e df b0 01 bc 40 f1 a3 bd
       0.056027807 0.12705603 -0.0079157045 -0.08004999
0000d0 82 b9 51 bd dc 0c 4e bd dc 27 f1 3d 28 60 c4 bd
       -0.051202305 -0.050305232 0.11775181 -0.09588653
0000e0 5d 2e 1f bd ec d9 30 3d d5 a2 d4 bd ef a9 bf bd
       -0.038862575 0.043176576 -0.1038262 -0.09358584
0000f0 2e 04 a8 3d 87 51 d4 3d 5b c3 39 bd 12 bd 08 bd
       0.08203922 0.103671126 -0.04535232 -0.033383437
000100 05 7b 64 3d bc 4e d7 bc be f8 08 3d 55 cb cd bb
       0.055781383 -0.02628266 0.033440344 -0.0062803426
000110 a9 ef 82 3d 3a 8c 9f bb fa c4 70 3d b4 d9 9e bd
       0.06393368 -0.004869011 0.0587816 -0.07756367
000120 0a 95 84 bd c2 60 0f bd b7 16 62 3d a1 5a 57 3d
       -0.064737394 -0.035004385 0.055197444 0.052576665
000130 22 7f 85 bc f8 73 d8 3a ee 12 9a 3d a4 a1 49 3d
       -0.016295973 0.0016514054 0.07523142 0.04922642
000140 60 a7 c5 3b 51 9a f9 3d 21 fb 09 3e 03 0b c5 3d
       0.0060319155 0.12187637 0.13474704 0.09621241
000150 ee c8 fc 3d db 60 02 3d e7 38 83 bd 05 fc bc bd
       0.12343012 0.03183065 -0.06407338 -0.092277564
000160 72 f9 02 3d 31 3b 8c 3c 70 f0 b0 bd 7c 47 21 3d
       0.03197617 0.017118068 -0.0863961 0.039374813
000170 4e 9c 0c 3d 84 6d ab 3d 06 b6 fd 3d da a1 50 bc
       0.03432875 0.08370498 0.12388234 -0.012733901
000180 e1 01 bc 3d 6b 71 33 bd 72 3e d3 3d 18 78 bd 3d
       0.09180046 -0.043809336 0.10314645 0.09251422
000190 da 59 35 3d 9a f2 f5 bb e8 48 ab bd 9c a2 83 bc
       0.044275142 -0.007505727 -0.08363515 -0.01606875
0001a0 85 5d 91 bd a4 1a b2 3d 32 c5 c0 3c 3a 55 0b 3e
       -0.070979156 0.086964875 0.02353153 0.1360673
0001b0 99 7c 8b 3d f1 73 62 bd ab 3a 0e 3d 62 6c 15 3d
       0.068108745 -0.05528635 0.03472392 0.036480315
0001c0 cd db b2 3d da 92 c4 3c 6c 4d dc 3d c6 ce e8 3d
       0.0873333 0.023995806 0.107569546 0.11367564
0001d0 62 4e da 3d 3c 79 fb 3d e5 d9 a8 3d 34 42 b1 3c
       0.106594816 0.12278983 0.08244685 0.021638013
0001e0 5d b9 0b 3e 84 40 26 3d 99 07 aa bd 92 42 28 3d
       0.13644929 0.04058887 -0.083022304 0.04107911
0001f0 30 41 ba 3d aa dc 48 bd ca 77 bd 3d db 7d 40 3d
       0.09094465 -0.049038567 0.092513636 0.046995025
000200 c7 bc 17 3d 73 eb cd 3d 16 0a 05 be f3 45 fa 3d
       0.037045266 0.10054674 -0.12992129 0.12220373
000210 63 c0 d3 bd e7 55 37 3d 4b 69 b2 bd 1f 33 18 3d
       -0.10339429 0.044759657 -0.08711489 0.037158128
000220 51 70 99 3d 90 9a 8c bc 43 ce ad bd b8 95 8e 3c
       0.07492126 -0.017163545 -0.08486607 0.017405376
000230 f6 15 ab bd d4 22 b7 3d ff 55 bd 3d 1b 8b 3c 3d
       -0.08353798 0.0894219 0.09244918 0.0460311
000240 32 b3 84 3d 9a 49 e7 bc d2 7c c9 3c 22 4f 94 bd
       0.06479491 -0.028233338 0.024595652 -0.07241656
000250 6b 50 4a 3d 84 f5 09 3e d3 c5 db bc 9e 30 9d 3d
       0.0493931 0.13472563 -0.026827728 0.076752886
000260 f8 fe 03 bc ee f3 ef 3d c8 1b ed bb 8b 2d 77 bc
       -0.008056395 0.11716448 -0.007235978 -0.015086542
000270 2c 80 41 bc c8 ce a9 3d 36 0a b7 3d 40 65 95 bd
       -0.011810344 0.082913935 0.089374945 -0.072947025
000280 ba e8 a9 3c 3f bc 0a be c0 71 46 bc 24 5b 33 3d
       0.020740855 -0.13548373 -0.012112081 0.04378809
000290 34 37 19 bd b3 df 89 bd f0 a8 84 3b 79 8c 73 bd
       -0.03740616 -0.0673212 0.004048459 -0.059460137
0002a0 42 75 1a 3d 65 9d 7d 3d 0f 4c 0d 3b 5a 91 18 bd
       0.037709482 0.06191768 0.0021560227 -0.037247993
0002b0 db 91 be bd 06 01 22 bc 92 15 dc bd 5d fd c4 bd
       -0.093051635 -0.009887939 -0.10746302 -0.09618638
0002c0 b2 d4 b2 3d 2e 70 db bc 9d 72 12 3d 1d 6d dc 3d
       0.08731975 -0.02678689 0.035753835 0.10762999
0002d0 f3 f0 d6 3d 5c 45 62 bc 68 5f 41 bd 08 d8 f4 3b
       0.10495176 -0.013810482 -0.047210127 0.007472042
0002e0 e8 14 cb 3c cb e2 5d bd b7 43 cf bd d2 2f 08 3e
       0.024790242 -0.054171365 -0.101203375 0.13299492
0002f0 d9 b4 f6 3d 12 8f 0a 3c 7e 17 99 3d ec 91 04 3d
       0.12046213 0.008456962 0.07475184 0.032365724
000300 d6 dd 40 3d 85 dc f9 3d 89 ae 08 3d 06 9d c5 3d
       0.04708656 0.12200264 0.033369575 0.096490905
000310 12 f0 8f bd 72 6a 67 bd 5f ea 62 3c 1e 89 23 bd
       -0.07028212 -0.056498 0.013849824 -0.039925687
000320 ee 74 11 3e 60 ec 94 3d a8 71 e8 3d 68 06 05 3e
       0.14204761 0.072716475 0.11349803 0.12990725
000330 ba 57 9d bd f2 14 53 3d 26 20 a0 3d 51 bf 64 3d
       -0.07682748 0.051533647 0.07818632 0.055846516
000340 99 5d a0 bd c2 86 72 bd 17 d1 c8 bc 5e ea 84 3d
       -0.07830352 -0.059210546 -0.024513764 0.064900145
000350 ed 60 a7 bd fa 5f ad bd 81 de 0b 3d ce 2f b0 3d
       -0.08172784 -0.08465572 0.034147743 0.08602868
000360 4c 20 82 3c 9f a9 f6 3d 16 2f 81 3d 2a 9d 0c bd
       0.015884541 0.120440714 0.06307809 -0.03432957
000370 6d c7 82 3d e9 1d 9a 3c 92 11 c7 bc 59 a6 da 3d
       0.06385694 0.01881309 -0.02430037 0.106762595
000380 5f 44 0b bc 7e f9 d9 3d 4e f3 c0 bc 8b 1d 06 3e
       -0.008500188 0.1064329 -0.023553517 0.13097207
000390 77 95 62 3d f5 74 e8 3d 9a 68 e8 3d 48 72 54 3b
       0.055318322 0.11350433 0.11348076 0.003241675
0003a0 a3 d8 bb bb 3a 99 cf 3d c3 e1 82 bd f7 8d 33 3c
       -0.005732612 0.101366475 -0.06390717 0.01095914
0003b0 09 64 d8 3c 11 da 54 3d 2e cb 08 3e 8f ef 2a bb
       0.026414888 0.051965777 0.13358757 -0.002608273
0003c0 fc 3e 7b bd 60 2e 31 bc 04 8a 04 bd 5e e8 ee 3d
       -0.061339363 -0.010814279 -0.032358184 0.11665414
0003d0 5f 3e 13 3c 54 ea 31 bd 09 29 15 3e 83 bb e3 3d
       0.008987038 -0.043436363 0.14566435 0.111197494
0003e0 72 f5 88 3a 6d 3e 8a bd e5 c6 66 bd c4 d7 02 3e
       0.0010449125 -0.06750188 -0.056342024 0.1277762
0003f0 5c 45 3b bd 51 b6 30 3c d8 ae 09 bd ce 81 c3 3c
       -0.045720443 0.010785655 -0.03361401 0.023865607
