models/ADAUSDT_lstm_20250822_021906.pth (torch, 267815 bytes, 11 tensors)

lstm.weight_ih_l0 f4 [256, 53]
0.09527296 -0.10922669 0.0065852553 0.11504997 0.0017447323 -0.011369839 -0.04046713 -0.0540832
0.035186127 0.08005178 -0.03239271 -0.09585656 -0.067855746 -0.0032234043 -0.10255323 0.030070767
-0.06157446 -0.11739369 0.119909346 -0.11154133 -0.045275047 -0.0908061 0.07726407 -0.016017392
-0.1238046 0.017812237 0.0755627 -0.0042901635 -0.08123627 0.09910686 -0.074535966 0.064224675
-0.048189893 -0.07009712 0.052131742 0.10032095 0.056179926 0.060758322 0.114716366 0.051020816
0.021211997 -0.05843316 -0.050402284 0.028923064 -0.083041996 0.003223136 0.089771986 0.044187084
0.045055076 -0.015399411 -0.0048068166 0.06422499 0.0742418 -0.11075322 0.014710635 0.046842635
-0.043890968 -0.118736744 -0.09853548 0.11182089 -0.07518548 -0.022651374 0.091231614 -0.025018051
0.016787454 0.100248516 0.12415396 0.102972016 0.12397738 -0.104823425 -0.08383134 -0.09572525
0.046636894 0.08401179 0.11993255 -0.07646024 0.0293919 -0.024042666 -0.0063972324 -0.024453476
-0.0032105595 -0.12226026 0.030870289 0.087018386 0.095905304 0.05730906 -0.12361783 0.06043005
-0.03837599 0.014935628 0.11695552 0.014102414 0.000107467175 -0.10671158 0.118305564 0.09613724
0.0038878769 0.019640654 -0.11497572 0.1084896 -0.030936375 0.095482886 0.011725515 -0.05350797
-0.054611355 -0.016469792 -0.04303825 -0.005608663 0.02426301 0.033644423 0.013067126 0.0062292516
0.07060218 0.013886929 0.04944761 0.038303822 -0.036279485 0.12314154 0.11216311 -0.06728035
0.034325853 0.02037707 -0.10086772 -0.10676235 0.048848227 -0.08146158 0.09398748 -0.022429079
-0.074306056 -0.045945346 -0.018489614 0.09539211 -0.015256643 0.1111189 0.0551562 0.088207275
0.034442782 -0.082541436 0.117351234 -0.022824734 0.078635246 -0.106235296 0.054601476 -0.1198083
-0.0080984235 0.0073653013 0.015200168 -0.063974604 -0.005498603 -0.015320599 -0.07429886 0.12319246
-0.09985882 0.02020368 -0.018349648 0.11101307 -0.097960874 0.036793083 0.0968947 -0.029641673
-0.11449334 0.049353555 0.06958142 -0.07866593 -0.07470234 0.004235059 0.054469213 0.0347476
0.041331604 0.0128634125 0.10886145 -0.06885381 0.068588525 0.10741469 -0.10494821 -0.055716366
0.05764191 0.119107515 -0.06796999 0.08472927 -0.075582504 0.028109387 0.06960674 -0.0026920289
0.0044562668 -0.01916857 0.026243553 -0.07714747 0.073961854 -0.045334324 -0.0114798695 -0.096261114
-0.08327593 -0.03357798 0.032736808 0.015197426 -0.047869667 -0.060115725 0.034424767 0.054721594
0.0785636 -0.063783094 0.04320611 0.013884112 0.10069713 0.0522846 -0.10931674 0.02457203
-0.1043701 0.06905343 -0.007886544 0.10939081 0.03281267 -0.113791406 0.0362058 0.0551019
0.043726444 0.06857623 0.023120224 0.042514622 0.074071184 -0.06324631 0.03312345 -0.0036699176
0.08643198 -0.058936775 0.05387321 -0.11587584 -0.00422813 0.02070275 0.0681092 -0.028750613
-0.03001006 -0.06884363 -0.03692788 0.0040324777 0.016475871 -0.00413619 -0.0956181 0.0488348
-0.023197353 -0.058655605 -0.040824518 -0.099509716 0.029094815 -0.045808956 0.10403806 -0.005850464
-0.024294779 0.0846698 -0.010850757 -0.043840855 -0.06911552 -0.023202375 -0.037886977 -0.038236484
00000000: 781e c33d 3eb2 dfbd 20c9 d73b 529f eb3d
00000010: 80af e43a 9048 3abc dcc0 25bd 5886 5dbd
00000020: 541f 103d 30f2 a33d 38ae 04bd 7250 c4bd
00000030: f4f7 8abd c03f 53bb 6e07 d2bd f856 f63c
00000040: 8035 7cbd 1a6c f0bd 0893 f53d c86f e4bd
00000050: 5472 39bd 8cf8 b9bd a03c 9e3d e836 83bc
00000060: 448d fdbd f8ea 913c 9ec0 9a3d 8094 8cbb
00000070: 345f a6bd 8af8 ca3d 50a6 98bd 3a88 833d
00000080: c462 45bd 148f 8fbd 1888 553d 1275 cd3d
00000090: ec1c 663d b8dd 783d 6af0 ea3d 34fb 503d
000000a0: c8c4 ad3c 9c57 6fbd a072 4ebd 10f0 ec3c
000000b0: ec11 aabd 403b 533b 60da b73d 84fd 343d
000000c0: ac8b 383d d04d 7cbc 8082 9dbb 6488 833d
000000d0: 160c 983d 96d2 e2bd e004 713c 10de 3f3d
000000e0: 04c7 33bd 402c f3bd f8cc c9bd 5a02 e53d
000000f0: d8fa 99bd 608f b9bc a4d7 ba3d a8f2 ccbc
00000100: d885 893c 184f cd3d 6e44 fe3d fee2 d23d
00000110: dae7 fd3d aaad d6bd c4af abbd 9a0b c4bd
00000120: 5406 3f3d 600e ac3d 329f f53d 3097 9cbd
00000130: 48c7 f03c 20f5 c4bc e09f d1bb a852 c8bc
00000140: 4068 52bb 9663 fabd b0e3 fc3c b236 b23d
00000150: 006a c43d e8bc 6a3d 582b fdbd 8085 773d
00000160: 2430 1dbd 90b4 743c 6086 ef3d d00d 673c
00000170: 0060 e138 9a8b dabd 304a f23d 9ae3 c43d
00000180: c0cb 7e3b 70e5 a03c 6478 ebbd cc2f de3d
00000190: 486e fdbc 888c c33d 601c 403c 2c2b 5bbd
000001a0: 28b0 5fbd a8eb 86bc e048 30bd e0c8 b7bb
000001b0: 38c3 c63c bcce 093d 8017 563c c01e cc3b
000001c0: e097 903d 0086 633c 9489 4a3d 78e4 1c3d
000001d0: cc99 14bd a231 fc3d c6b5 e53d 48ca 89bd
000001e0: 4499 0c3d d0ed a63c bc93 cebd 38a6 dabd
000001f0: 1415 483d 54d5 a6bd 827c c03d 30bd b7bc
00000200: c62d 98bd 3031 3cbd 8877 97bc f05c c33d
00000210: 00f7 79bc 4e92 e33d 78eb 613d 04a6 b43d
00000220: e013 0d3d 7c0b a9bd d855 f03d f0fa babc
00000230: 840b a13d e491 d9bd cca5 5f3d 0e5e f5bd
00000240: 40af 04bc a058 f13b 200a 793c 1e05 83bd
00000250: a02d b4bb 4003 7bbc 002a 98bd 544c fc3d
00000260: c882 ccbd 3082 a53c 0052 96bc d25a e33d
00000270: b69f c8bd 58b4 163d ba70 c63d 18d3 f2bc
00000280: 7c7b eabd f426 4a3d b480 8e3d 9a1b a1bd
00000290: 8afd 98bd 40c6 8a3b 1c1b 5f3d 8053 0e3d
000002a0: 544b 293d 10c1 523c c0f2 de3d 3a03 8dbd
000002b0: 2478 8c3d 3cfc db3d 16ef d6bd d836 64bd
000002c0: ec19 6c3d a4ee f33d da33 8bbd 8a86 ad3d
000002d0: 00cb 9abd a845 e63c fa8d 8e3d c06c 30bb
000002e0: e005 923b 6807 9dbc b8fc d63c 7eff 9dbd
000002f0: 5079 973d 7cb0 39bd 1016 3cbc 8c24 c5bd
00000300: 928c aabd 1089 09bd 0817 063d a0fe 783c
00000310: fc12 44bd e83b 76bd fc00 0d3d c023 603d
00000320: f4e5 a03d b6a0 82bd e4f8 303d 307a 633c
00000330: 4c3a ce3d 6028 563d 74e1 dfbd 484b c93c
00000340: febf d5bd e26b 8d3d 9036 01bc 4a08 e03d
00000350: 9466 063d 780b e9bd 884c 143d 88b2 613d
00000360: 801a 333d b271 8c3d a066 bd3c d023 2e3d
00000370: a2b2 973d 4887 81bd 74ac 073d 0083 70bb
00000380: 4003 b13d b067 71bd 28aa 5c3d 5050 edbd
00000390: 208c 8abb d098 a93c d67c 8b3d 6886 ebbc
000003a0: a8d7 f5bc e4fd 8cbd b041 17bd e022 843b
000003b0: 68f8 863c e088 87bb 6cd3 c3bd 0007 483d
000003c0: 6008 bebc dc40 70bd 9c37 27bd c0cb cbbd
000003d0: 4058 ee3c 2ca2 3bbd e811 d53d 40b5 bfbb
000003e0: d805 c7bc 5c67 ad3d 60c7 31bc 7892 33bd
000003f0: 708c 8dbd e812 bebc 602f 1bbd dc9d 1cbd

lstm.weight_hh_l0 f4 [256, 64]
0.045113653 -0.0016767681 0.05373563 0.12494789 -0.10969809 -0.10600904 -0.003603831 0.040279537
0.021967039 0.10346775 -0.05997306 0.1105649 -0.11130485 0.116015494 0.011508927 0.023520976
0.060538605 -0.0055682063 -0.081518754 -0.06771085 0.1130068 -0.08701056 0.007388845 0.0100836605
-0.0850396 0.05895531 0.090456545 0.07292606 0.11867376 0.10931915 -0.033320352 -0.07776584
-0.082015574 -0.094135985 -0.04715216 -0.1065014 0.055301175 -0.016005933 -0.08507596 -0.057362616
-0.036795244 -0.07592386 -0.018168584 0.10591774 -0.0055363774 0.08371325 0.053193107 -0.034800738
0.12390037 -0.029400244 -0.118488 0.07416022 0.057658926 0.09939329 -0.020904213 -0.097957894
0.11441061 -0.11459559 0.09650785 0.11611532 0.11699706 -0.026860848 0.104939595 -0.010554135
0.10300915 0.036476 0.09637831 -0.11040132 -0.008528098 0.07277936 0.076295674 0.05355963
-0.039308712 0.01199612 0.06659381 -0.095460385 -0.10363403 0.11384173 -0.08511995 0.0009852499
-0.008223608 -0.10758887 -0.0586776 -0.0856968 0.052268997 -0.028062314 -0.022340402 0.055517122
-0.044352993 -0.043637946 -0.023418665 0.059379965 0.10684502 -0.10383339 -0.03038995 -0.03204395
0.12264305 0.054613516 0.10206188 -0.08607975 0.05504012 -0.07686262 -0.11662586 0.09925552
0.11914672 0.068535164 -0.086591035 0.019389078 -0.087512895 -0.11164747 0.079612345 0.014466733
0.0052521825 0.07399918 -0.03993176 -0.123163536 0.032906145 -0.081824005 -0.000955835 0.004588783
0.07270849 -0.12194596 0.10927574 -0.06054029 -0.06978747 0.059307083 -0.10926002 -0.104311064
0.029404297 0.108725086 -0.07605027 0.018797025 0.10731912 0.11811055 0.105109856 -0.05112675
0.05951099 -0.057395488 -0.037553415 -0.09515153 -0.040444642 0.1232633 -0.06345704 0.012729302
-0.048858777 -0.020936385 0.045194775 0.086737156 -0.12211332 0.07993317 -0.10687345 0.07706337
-0.06326674 -0.09871952 0.07106641 0.07750891 -0.06676677 -0.04838255 0.053915888 -0.10278216
-0.03355086 -0.10644506 -0.10321279 0.071952045 0.040489957 0.10458048 -0.012139976 -0.050130174
0.049788043 0.07605624 -0.056931242 -0.10075399 0.087834 -0.042796165 0.05981362 -0.041273907
0.06244263 -0.038414806 0.04918821 0.035994247 0.008297324 -0.10162461 0.037374794 -0.1117508
0.024641037 -0.09398387 -0.038663924 0.03847137 -0.07038039 -0.07824801 -0.01968205 -0.022217095
-0.02358611 -0.083507776 0.013181627 -0.09015116 -0.058654994 0.074948266 0.07249491 0.113721
0.10269499 0.06608264 0.020087436 0.056429908 -0.038826168 -0.07013735 0.0013320148 0.019897074
-0.059275717 -0.034612507 -0.061008513 0.058196887 0.08009401 0.040214136 0.029810742 -0.09650223
-0.017997697 0.074900776 0.07147464 0.071256235 -0.05363372 0.08131339 0.07205331 0.018729225
-0.0023164898 -0.059705555 0.03522627 -0.081103295 -0.008074492 0.04781702 0.035851806 -0.084291175
0.017393976 -0.005729422 -0.1060366 -0.021522224 -0.078997955 0.091857955 -0.041015163 0.035074532
0.10918976 -0.11214681 -0.0862758 0.04362513 0.042921856 -0.025385007 -0.100963384 -0.015008837
-0.100443214 0.04056616 -0.0920492 -0.012314305 0.09547947 -0.048270926 0.0051005334 0.115221605
00000000: 18c9 383d 00c7 dbba e419 5c3d aee4 ff3d
00000010: 64a9 e0bd 441b d9bd 402e 6cbb 28fc 243d
00000020: 38f4 b33c e6e6 d33d 50a6 75bd da6f e23d
00000030: ccf3 e3bd 8899 ed3d f08f 3c3c 10af c03c
00000040: 54f7 773d 8075 b6bb 4ef3 a6bd fcab 8abd
00000050: 1c70 e73d 9832 b2bd 201e f23b f035 253c
00000060: 3e29 aebd 207b 713d 4841 b93d 425a 953d
00000070: 3a0b f33d b8e2 df3d ec7a 08bd b243 9fbd
00000080: c8f7 a7bd 5eca c0bd a022 41bd 681d dabd
00000090: 7c83 623d e01e 83bc 4e3c aebd 10f5 6abd
000000a0: 9cb6 16bd f87d 9bbd 48d6 94bc 66eb d83d
000000b0: 806a b5bb da71 ab3d 04e1 593d 388b 0ebd
000000c0: 7abf fd3d c8d8 f0bc d6a9 f2bd 50e1 973d
000000d0: c42b 6c3d b68e cb3d 503f abbc 269e c8bd
000000e0: 1c50 ea3d 18b1 eabd e8a5 c53d decd ed3d
000000f0: 289c ef3d 480b dcbc 92ea d63d 40eb 2cbc
00000100: 76f6 d23d dc67 153d fe61 c53d 161a e2bd
00000110: 70b9 0bbc 580d 953d e840 9c3d 5861 5b3d
00000120: 2c02 21bd 608b 443c 5662 883d bc80 c3bd
00000130: 143e d4bd da25 e93d 5e53 aebd 8023 813a
00000140: 50bc 06bc 8e57 dcbd ec57 70bd ce81 afbd
00000150: 0418 563d f0e2 e5bc 3803 b7bc ec65 633d
00000160: 7cab 35bd b4bd 32bd 80d8 bfbc 6838 733d
00000170: 90d1 da3d 9aa6 d4bd 58f4 f8bc 8440 03bd
00000180: 482c fb3d 6cb2 5f3d d205 d13d 944a b0bd
00000190: c071 613d 266a 9dbd 8ad9 eebd 7a46 cb3d
000001a0: 3203 f43d 2a5c 8c3d a456 b1bd d8d5 9e3c
000001b0: f639 b3bd 6ea7 e4bd cc0b a33d e005 6d3c
000001c0: 801a ac3b e28c 973d 7c8f 23bd 2a3d fcbd
000001d0: 98c8 063d 5893 a7bd 0091 7aba 805d 963b
000001e0: 30e8 943d cebe f9bd f6cb df3d 18f9 77bd
000001f0: bcec 8ebd fceb 723d b8c3 dfbd 0aa1 d5bd
00000200: 48e1 f03c 42ab de3d 3ec0 9bbd 38fc 993c
00000210: 20ca db3d f2e3 f13d d643 d73d 486a 51bd
00000220: ccc1 733d 8817 6bbd 9cd1 19bd cede c2bd
00000230: 48a9 25bd 7871 fc3d c4f5 81bd 908e 503c
00000240: 2420 48bd c882 abbc 281e 393d 40a3 b13d
00000250: 8c16 fabd 00b4 a33d 78e0 dabd 66d3 9d3d
00000260: fe91 81bd 762d cabd 448b 913d febc 9e3d
00000270: 04bd 88bd c82c 46bd e8d6 5c3d 747f d2bd
00000280: a06c 09bd deff d9bd 3a61 d3bd 985b 933d
00000290: ccd8 253d 4a2e d63d c0e6 46bc 4c55 4dbd
000002a0: 8cee 4b3d 60c3 9b3d bc30 69bd 1c58 cebd
000002b0: 50e2 b33d 084b 2fbd 20ff 743d d40e 29bd
000002c0: d8c3 7f3d d858 1dbd 9479 493d b46e 133d
000002d0: 80f1 073c 9020 d0bd 5016 193d 9add e4bd
000002e0: 00dc c93c 9e7a c0bd 105e 1ebd 2894 1d3d
000002f0: 9823 90bd 7e40 a0bd 403c a1bc a000 b6bc
00000300: a837 c1bc 2006 abbd c0f7 573c 2ca1 b8bd
00000310: 3840 70bd 7a7e 993d 3678 943d 8ee6 e83d
00000320: c051 d23d 5656 873d 688e a43c 0c23 673d
00000330: 3008 1fbd 2ca4 8fbd 0097 ae3a 30ff a23c
00000340: 18cb 72bd d8c5 0dbd 10e4 79bd dc5f 6e3d
00000350: 5408 a43d 94b7 243d a835 f43c f6a2 c5bd
00000360: e86f 93bc 9465 993d 4c61 923d caee 913d
00000370: 08af 5bbd a287 a63d b090 933d 086e 993c
00000380: 40d0 17bb d08d 74bd 6c49 103d 7c19 a6bd
00000390: e04a 04bc c8db 433d 58d9 123d daa0 acbd
000003a0: d07d 8e3c e0bd bbbb b829 d9bd 604f b0bc
000003b0: aec9 a1bd 0620 bc3d 84ff 27bd 50aa 0f3d
000003c0: e29e df3d 3aad e5bd 5eb1 b0bd 44b0 323d
000003d0: d4ce 2f3d 38f4 cfbc e4c5 cebd a0e7 75bc
000003e0: 2cb5 cdbd b428 263d 4a84 bcbd f0c1 49bc
000003f0: be8a c33d bcb7 45bd 6022 a73b 4ef9 eb3d

lstm.bias_ih_l0 f4 [256]
-0.0638521 -0.0872532 0.010527149 -0.09273189 -0.050566033 -0.06280075 0.017198294 -0.061109394
-0.090682775 -0.039996788 -0.097748995 -0.0784885 -0.03347853 -0.099075675 0.11717661 -0.01089628
0.041976035 0.04936132 0.09511557 -0.05339761 0.0014981776 -0.091396466 0.02611716 -0.026904494
0.031736225 -0.05063419 -0.03479445 0.094670296 0.06803337 0.086184666 0.09194875 0.095114514
0.08958137 -0.10834865 0.1160672 -0.1210583 0.11713664 0.11271404 0.0028871298 0.045902207
0.10505836 0.008685201 0.00616394 -0.08210428 0.018780813 0.04881473 -0.11711481 -0.005078912
0.026529565 -0.099850476 0.049835026 0.045605347 -0.09662239 0.113291174 -0.10802202 -0.039555773
0.10646437 0.11233638 -0.0061915666 -0.040992945 -0.12044817 -0.011648715 0.01589945 -0.11495663
0.025106728 0.013643175 0.018403813 -0.029982612 0.08288926 -0.025385216 0.07881139 -0.05427721
0.11931147 0.0564833 -0.07319541 -0.058707654 -0.07076776 -0.0039857626 -0.07075907 0.07176633
0.017547354 0.0058051944 0.063664794 -0.038256094 -0.086174324 0.11654371 0.03844531 0.08121042
-0.110593945 0.121962234 0.11396341 -0.10957253 0.117141575 0.11764075 0.086791754 -0.05336055
-0.11388603 0.08514705 0.093545765 0.022224784 0.023629174 0.115630776 0.109491274 -0.004621327
0.0947032 0.10028124 -0.019151643 0.06032908 -0.026170507 -0.09524873 -0.09911868 -0.10978432
-0.106489286 0.11867772 -0.10580906 0.11159699 -0.12408079 0.029528901 0.054777294 0.03466244
-0.12223157 0.08338454 0.041119337 0.09599729 0.072127625 -0.050989553 -0.042320356 -0.074715495
-0.09810056 -0.12167072 0.026165187 -0.06752041 0.067915514 0.030748278 0.11615525 -0.101683915
0.10263154 0.046047628 0.08086026 -0.08610627 0.09238841 0.012593836 0.08973719 0.046862572
0.11148599 0.11942653 0.1073664 -0.0560001 -0.11358489 0.114301085 -0.0060551614 0.09517369
-0.104229406 0.06661908 -0.009698749 0.1040571 0.053172678 0.07871358 -0.057662293 0.08549751
-0.093911454 -0.10642612 0.119516075 0.00043584406 -0.079601586 -0.02648741 0.12161526 -0.001051709
0.09721181 -0.09738734 -0.08183415 0.09442136 0.05314201 -0.046901718 0.11083348 0.10976502
-0.05439824 -0.10159752 -0.11769569 0.012262329 -0.06216152 -0.050632104 -0.0931167 0.018999577
0.018579632 -0.019215837 0.12004213 0.021993011 -0.10502344 -0.066661164 0.032970086 -0.042884618
-0.080472186 -0.008849636 -0.056397095 0.026851863 0.051030397 -0.0054364204 0.09258273 0.07525392
0.059694633 -0.112646475 0.036690086 0.0029759854 -0.01645054 -0.0807614 0.10129514 0.0059179366
0.07646544 -0.04806757 0.019142613 -0.08736642 0.027915671 0.03786865 0.059779212 -0.06457411
0.023045361 0.026197895 0.0566317 0.056432948 0.10037197 0.030246407 0.09321806 0.018453315
-0.06796993 -0.09613219 0.06085013 -0.015563086 -0.08676836 -0.106883764 0.02795063 0.08342719
-0.025279582 -0.061848477 0.107650325 -0.07967389 -0.08569422 0.040949807 0.08505447 0.106010735
0.0458017 0.11258921 0.103523135 0.052704573 -0.01999423 0.11777279 0.12064493 0.06714484
-0.08815278 -0.092957124 0.117423624 0.09456396 0.020634532 0.0058934093 -0.0022932738 0.0851116
00000000: e4c4 82bd ceb1 b2bd 107a 2c3c 38ea bdbd
00000010: 541e 4fbd ae9d 80bd 70e3 8c3c d84d 7abd
00000020: e4b7 b9bd acd3 23bd a030 c8bd 94be a0bd
00000030: c820 09bd 30e8 cabd 4afa ef3d 5086 32bc
00000040: 10ef 2b3d 182f 4a3d f4cb c23d 74b7 5abd
00000050: 805e c43a 122e bbbd a8f3 d53c d066 dcbc
00000060: d8fd 013d cc65 4fbd a084 0ebd 80e2 c13d
00000070: 1455 8b3d 9681 b03d a04f bc3d 66cb c23d
00000080: 7076 b73d e6e5 ddbd a4b4 ed3d 6aed f7bd
00000090: 56e5 ef3d 9ed6 e63d 0036 3d3b f403 3c3d
000000a0: d628 d73d 604c 0e3c e0fa c93b 4a26 a8bd
000000b0: 38da 993c f4f1 473d e4d9 efbd 006d a6bb
000000c0: 8854 d93c 687e ccbd d01f 4c3d accc 3a3d
000000d0: f6e1 c5bd 3405 e83d a63a ddbd 3c05 22bd
000000e0: fe09 da3d 9e10 e63d a0e2 cabb 38e8 27bd
000000f0: 88ad f6bd 40da 3ebc 903f 823c 626e ebbd
00000100: a0ac cd3c a087 5f3c 98c3 963c 189e f5bc
00000110: d8c1 a93d a8f4 cfbc de67 a13d c851 5ebd
00000120: 9259 f43d 085b 673d 7ae7 95bd 7077 70bd
00000130: b0ee 90bd 009b 82bb 22ea 90bd 3afa 923d
00000140: 78bf 8f3c 8039 be3b b062 823d 6cb2 1cbd
00000150: 2a7c b0bd 78ae ee3d d478 1d3d a651 a63d
00000160: 147f e2bd 56c7 f93d a665 e93d 9067 e0bd
00000170: ece7 ef3d a2ed f03d e0bf b13d 9890 5abd
00000180: 143d e9bd 9461 ae3d ec94 bf3d c010 b63c
00000190: f891 c13c d4cf ec3d f63c e03d 806e 97bb
000001a0: c0f3 c13d 4060 cd3d e8e3 9cbc a01b 773d
000001b0: 8863 d6bc c411 c3bd bcfe cabd 9ad6 e0bd
000001c0: 0e17 dabd 4e0d f33d 6cb2 d8bd f68c e43d
000001d0: 121e febd 98e6 f13c 285e 603d 34fa 0d3d
000001e0: 8c54 fabd 84c5 aa3d c06c 283d 3a9a c43d
000001f0: a6b7 933d 6cda 50bd 1c58 2dbd 7004 99bd
00000200: f2e8 c8bd 802e f9bd 6058 d63c 2448 8abd
00000210: 4a17 8b3d d0e3 fb3c cee2 ed3d a83f d0bd
00000220: 7c30 d23d 709c 3c3d 109a a53d 7c58 b0bd
00000230: 2236 bd3d 6056 4e3c 22c8 b73d f8f2 3f3d
00000240: c452 e43d e695 f43d eae2 db3d 5c60 65bd
00000250: 329f e8bd b016 ea3d 606a c6bb 6cea c23d
00000260: 3a76 d5bd 966f 883d 80e7 1ebc e41b d53d
00000270: 98cb 593d 9634 a13d 4c2f 6cbd 5219 af3d
00000280: a654 c0bd f0f5 d9bd d8c4 f43d 0082 e439
00000290: 2806 a3bd 20fc d8bc 6c11 f93d 80d9 89ba
000002a0: fc16 c73d 0473 c7bd aa98 a7bd fc5f c13d
000002b0: 70ab 593d 041c 40bd aafc e23d 7ccc e03d
000002c0: b0d0 5ebd 5c12 d0bd 700a f1bd f0e7 483c
000002d0: 149d 7ebd 9c63 4fbd f8b3 bebd 00a5 9b3c
000002e0: 5034 983c 886a 9dbc a6d8 f53d b02a b43c
000002f0: 8816 d7bd a685 88bd a40b 073d c8a7 2fbd
00000300: 9ace a4bd 10fe 10bc a400 67bd 70f8 db3c
00000310: 4005 513d 0024 b2bb 049c bd3d ba1e 9a3d
00000320: 5c82 743d 32b3 e6bd 5848 163d c008 433b
00000330: 48c3 86bc 3c66 a5bd d473 cf3d 40eb c13b
00000340: ea99 9c3d 80e2 44bd f8d0 9c3c 2aed b2bd
00000350: 68af e43c 281c 1b3d 0cdb 743d 6e3f 84bd
00000360: a0c9 bc3c f89c d63c a4f6 673d 3c26 673d
00000370: d28f cd3d 50c7 f73c 1ce9 be3d 682b 973c
00000380: d233 8bbd f4e0 c4bd fc3d 793d 50fc 7ebc
00000390: 9cb3 b1bd e0e5 dabd b8f8 e43c e0db aa3d
000003a0: 2017 cfbc d454 7dbd c677 dc3d 102c a3bd
000003b0: 7480 afbd fcba 273d 0a31 ae3d 281c d93d
000003c0: 909a 3b3d 2c95 e63d f003 d43d c0e0 573d
000003d0: f0ca a3bc dc32 f13d b014 f73d 3c83 893d
000003e0: 7289 b4bd 4e60 bebd cc7b f03d c0aa c13d
000003f0: c009 a93c 801d c13b c04a 16bb fe4e ae3d

lstm.bias_hh_l0 f4 [256]
-0.067506224 0.03192377 0.054817706 -0.108285025 -0.01935175 0.014168352 0.09410043 -0.070396215
0.012748003 -0.09528348 0.1235363 -0.11098012 0.0928731 -0.06553349 -0.02903901 -0.014475003
0.06322357 -0.09971221 -0.09934433 -0.111237004 0.11740315 -0.056904495 -0.05840777 0.01745738
0.018378213 0.053374827 0.048391625 -0.09915084 0.056117356 -0.021815494 -0.094929755 0.100650325
0.09582028 0.03154768 0.013737023 0.035014957 0.03885293 -0.104870155 0.10423337 0.10060957
-0.07699083 -0.028793946 0.08327843 -0.017354205 -0.053594813 0.06683546 0.08865169 0.06874305
-0.08876786 -0.032479435 -0.020681143 -0.013866335 -0.10356818 0.11432761 -0.12245464 0.09702167
-0.04528916 0.010574713 0.057274178 -0.04216245 0.10423137 0.10227616 0.070115626 -0.026907712
-0.053448066 0.003422752 0.12490024 0.06336492 -0.1027547 0.013319328 0.060095727 -0.10824072
0.083982095 -0.03451188 -0.013905674 0.041169137 -0.11602372 -0.05320333 -0.1062229 -0.034006655
0.051887333 0.0029765218 0.02666621 -0.06724104 -0.11165714 -0.10636075 -0.04232505 -0.07113892
-0.044360578 -0.03458996 0.012557492 -0.025802433 -0.053152233 0.052346617 -0.057639226 -0.01630722
-0.023482874 0.07957797 0.05044152 -0.044318974 0.07432462 -0.11454442 -0.06430869 0.037517935
-0.088081256 0.04049979 0.0059528053 0.092851475 0.111257836 -0.12331171 0.107851446 0.1069219
0.04627663 -0.08117792 0.08537544 0.123579845 0.09862892 -0.07052587 -0.034815475 0.033028916
-0.08783506 0.08965024 0.11344051 -0.12342614 0.07879813 -0.04916075 -0.060142174 0.0011520535
-0.02948001 -0.09472899 -0.105073676 0.0015534312 -0.016116068 -0.0014794469 -0.103577346 -0.047879696
-0.10477866 -0.039465383 0.0285943 -0.005973935 0.09788062 -0.034398124 0.045455486 0.10700661
0.03256978 0.04915543 -0.05957128 0.043284744 -0.09288338 -0.04408878 0.025339738 0.11379163
-0.08314909 -0.06695479 -0.0815175 0.014012232 -0.07083683 0.102748096 -0.00433816 -0.0047068745
0.013898984 -0.07669346 0.11651565 -0.023930535 -0.118622616 0.054473624 -0.0023571104 0.106105536
0.11888024 0.11994183 0.07024601 0.09724586 0.06677151 0.094406694 -0.018315226 0.123647764
-0.011174962 0.06416775 -0.013984486 -0.08789572 0.057228714 0.10323195 0.070922956 0.023542002
-0.09876178 -0.06387828 -0.067962125 0.0013540089 0.057805523 -0.0051579475 0.084170505 0.07207461
0.093743235 0.1120324 -0.111754924 0.05950597 0.084483206 -0.06575909 3.0174851e-05 -0.03536214
0.1123696 0.016837552 -0.09627725 0.08903292 -0.0007646978 0.09263241 -0.07095167 -0.11208171
0.09257954 -0.10431276 0.0038107634 -0.062516555 -0.10365355 -0.110780254 0.032046437 0.08071822
-0.11718579 -0.09278001 -0.015089542 0.030881435 0.10326888 0.031962827 -0.05697736 0.017247736
0.02129358 0.09408392 -0.04181181 0.0061519295 -0.037321687 -0.08979121 0.01892607 -0.051956654
0.04064028 -0.122618645 0.07144995 0.018061206 0.07682891 0.0686969 -0.08572124 -0.08480027
0.043714687 -0.104989365 -0.040860444 -0.10585244 0.06924395 0.09277582 0.10253379 0.07152741
0.04655014 -0.08176321 -0.0470652 -0.09997474 0.060502812 -0.11046262 0.12460296 -0.007516682
00000000: b440 8abd 80c2 023d 8888 603d 8ac4 ddbd
00000010: 9087 9ebc 6022 683c bab7 c03d e42b 90bd
00000020: 00dd 503c fc23 c3bd 9a00 fd3d 8c49 e3bd
00000030: 4034 be3d 6c36 86bd 38e3 edbc 9028 6dbc
00000040: 5c7b 813d ea35 ccbd 0a75 cbbd 3ad0 e3bd
00000050: 1071 f03d b014 69bd fc3c 6fbd c802 8f3c
00000060: e88d 963c 909f 5a3d 4c36 463d 980f cbbd
00000070: 50db 653d 68b6 b2bc 886a c2bd c221 ce3d
00000080: 6c3d c43d 2438 013d 4011 613c d86b 0f3d
00000090: 4024 1f3d 2ac6 d6bd 4e78 d53d 640c ce3d
000000a0: 5ead 9dbd 48e1 ebbc e28d aa3d 682a 8ebc
000000b0: 3c86 5bbd 08e1 883d 048f b53d 28c9 8c3d
000000c0: eccb b5bd 2809 05bd 806b a9bc a02f 63bc
000000d0: 8e1b d4bd 9824 ea3d 80c9 fabd 4cb3 c63d
000000e0: 2081 39bd 9041 2d3c 5498 6a3d 88b2 2cbd
000000f0: 4277 d53d 2a76 d13d c898 8f3d 906d dcbc
00000100: 5cec 5abd 4050 603b b2cb ff3d 78c5 813d
00000110: 0e71 d2bd 5039 5a3c f026 763d 50ad ddbd
00000120: cefe ab3d 545c 0dbd a0d4 63bc f8a0 283d
00000130: d89d edbd bceb 59bd 648b d9bd 904a 0bbd
00000140: d087 543d c011 433b 1873 da3c acb5 89bd
00000150: 80ac e4bd aad3 d9bd 085d 2dbd 48b1 91bd
00000160: 70b3 35bd 34ae 0dbd f0bd 4d3c a05f d3bc
00000170: 28b6 59bd 6869 563d 1c17 6cbd b896 85bc
00000180: 285f c0bc c6f9 a23d c49b 4e3d d087 35bd
00000190: 8237 983d 4496 eabd 46b4 83bd 68ac 193d
000001a0: f263 b4bd 1ce3 253d c00f c33b ea28 be3d
000001b0: 26db e33d da8a fcbd 38e1 dc3d def9 da3d
000001c0: 908c 3d3d 9c40 a6bd 52d9 ae3d 6e17 fd3d
000001d0: f6fd c93d de6f 90bd ac9a 0ebd 5449 073d
000001e0: dee2 b3bd 8c9a b73d 8053 e83d d8c6 fcbd
000001f0: ea60 a13d c85c 49bd a457 76bd 8000 973a
00000200: 1080 f1bc 4601 c2bd de30 d7bd 809c cb3a
00000210: d805 84bc 00ea c1ba 5c20 d4bd 801d 44bd
00000220: 3296 d6bd 74a6 21bd 983e ea3c 00c1 c3bb
00000230: a275 c83d 0ce5 0cbd 882f 3a3d 4826 db3d
00000240: e467 053d 3457 493d 0401 74bd 584b 313d
00000250: a439 bebd 7096 34bd 4895 cf3c 960b e93d
00000260: 124a aabd 981f 89bd a6f2 a6bd 9093 653c
00000270: e612 91bd 986d d23d 2027 8ebb 203c 9abb
00000280: 90b8 633c 7611 9dbd c29f ee3d f809 c4bc
00000290: 6af0 f2bd bc1f 5f3d c079 1abb dc4d d93d
000002a0: 7c77 f33d 10a4 f53d 24dd 8f3d d628 c73d
000002b0: 80bf 883d 4c58 c13d d009 96bc 0a3b fd3d
000002c0: 3017 37bc 626a 833d 301f 65bc ac02 b4bd
000002d0: a868 6a3d 466b d33d 0e40 913d 28db c03c
000002e0: 9e43 cabd 9ed2 82bd ba2f 8bbd 0079 b13a
000002f0: 7cc5 6c3d 0004 a9bb 9661 ac3d da9b 933d
00000300: 74fc bf3d 3e71 e53d c4df e4bd 88bc 733d
00000310: 8805 ad3d b4ac 86bd 0020 fd37 e4d7 10bd
00000320: 0822 e63d e8ee 893c 022d c5bd e456 b63d
00000330: 0076 48ba 10b6 bd3d 1c4f 91bd 188b e5bd
00000340: 589a bd3d eea1 d5bd 00be 793b ae08 80bd
00000350: 5048 d4bd c2e0 e2bd 2043 033d 984f a53d
00000360: 1aff efbd 7203 bebd 203a 77bc 10fb fc3c
00000370: a27e d33d 74eb 023d 1861 69bd 204b 8d3c
00000380: e06f ae3c 12af c03d dc42 2bbd 2096 c93b
00000390: a0de 18bd 74e4 b7bd d80a 9b3c 80d0 54bd
000003a0: 6c76 263d 7c1f fbbd 5a54 923d 18f5 933c
000003b0: 7a58 9d3d f6b0 8c3d 9e8e afbd c4ab adbd
000003c0: 2c0e 333d aa04 d7bd 485d 27bd 2ac9 d8bd
000003d0: c6cf 8d3d 4001 be3d 3cfd d13d f67c 923d
000003e0: 5cab 3e3d 7873 a7bd 70c7 40bd 8ebf ccbd
000003f0: ccd1 773d 3a3a e2bd d62f ff3d 804e f6bb

lstm.weight_ih_l1 f4 [256, 64]
-0.11096997 0.06221515 0.010532558 0.035843864 -0.075747356 -0.0437428 -0.09597319 -0.09378873
-0.059896737 0.10530788 -0.08977257 0.00041356683 0.06808424 0.019036442 0.09043287 0.0014720261
0.12498985 0.066842765 0.033777744 0.07877 0.03708209 -0.071402475 -0.018717468 0.036933675
0.034588683 -0.114622556 0.11085275 0.09791372 0.01900056 -0.02413173 -0.10002744 0.0953289
-0.042661645 -0.026260778 0.087625764 0.06462547 -0.07699546 0.07403619 0.09584989 -0.009713948
-0.08730118 -0.0011071116 -0.022055656 0.089510575 0.040743344 0.07216704 0.08255303 -0.072308496
0.010728359 -0.05690816 0.02292259 0.060706466 0.12411985 0.035201028 0.027210787 -0.0036442578
0.013431311 0.060815558 0.08418809 0.030034482 0.086804226 0.025566041 -0.016641255 0.04607448
0.026147204 0.08323616 -0.0748149 -0.027853057 -0.10913764 0.052714467 -0.095922515 0.09633811
-0.10925655 0.04429604 -0.046596885 -0.030315578 -0.11399259 -0.06886497 0.08439818 0.119172946
0.028150886 0.06806144 0.098248556 0.099059224 -0.05052851 0.09956026 -0.079108566 -0.065238684
-0.014154745 0.03827538 -0.028205305 -0.026183596 0.0023752004 0.112862915 0.05290766 -0.07771623
-0.004723587 -0.056551456 -0.12312365 -0.0017216504 -0.044767305 0.044266205 0.088078156 -0.015572071
0.10605198 -0.0609722 -0.122408524 -0.1202267 -0.055060465 0.1060552 -0.05723287 0.09056792
0.07464111 -0.07424253 0.089582294 -0.099445924 -0.0010569543 -0.0004749894 0.11449391 -0.015187845
0.07150081 -0.043554306 -0.06339469 0.044904515 -0.059735127 -0.011146575 -0.03099953 -0.09833501
0.13808233 -0.05023858 0.0897858 -0.006223291 -0.016196057 0.11896535 -0.11153726 -0.08170022
-0.04019177 -0.092813835 0.019812731 0.0710288 -0.11935974 -0.027180195 0.07668704 0.06496963
-0.033246934 -0.046081677 0.014482439 -0.004357281 -0.0034488589 -0.06388947 -0.083370045 -0.016926318
-0.005278044 0.09850091 -0.09024759 -0.099903874 0.10115394 -0.108652025 0.0944314 0.036761697
0.01936575 0.035164624 -0.085704386 -0.12032789 0.09757626 0.039424356 0.0043120086 -0.0827056
-0.10055938 0.001813218 0.027082503 0.075728565 0.033582695 -0.11678861 -0.04182829 -0.02563636
0.025308073 0.042330712 -0.09855732 -0.104568996 0.070285514 0.031214029 0.053362444 -0.085546896
-0.02813074 -0.04231794 -0.033286665 0.014656678 0.11032247 0.055988744 -0.08140202 -0.059474975
0.12762019 -0.11633891 -0.0019457489 0.115705326 0.04059975 0.038987443 -0.06391078 -0.0061529577
0.07311818 0.044504315 0.01601154 -0.06791648 -0.12695196 -0.014004096 -0.07693139 0.07386993
-0.018544093 0.11180326 -0.04629101 0.08683118 0.015652195 0.10401313 -0.018018901 -0.07564041
-0.09002579 0.120475955 -0.030199125 -0.042474985 -0.10234204 -0.0015356094 -0.11675541 0.008957783
-0.052656543 -0.094486415 0.09029783 -0.010787442 0.10164812 0.0028392747 0.06686942 -0.0025628954
0.12383719 -0.11260085 0.09133713 -0.12300868 0.036504872 -0.094276085 -0.09634963 -0.08636357
-0.080860436 -0.003600195 0.030052021 0.0023811727 0.042274743 -0.086141855 -0.021628484 -0.030917019
-0.06409556 -0.09629966 -0.078337 0.01739657 0.1025168 -0.055370867 -0.12415734 0.010702163
00000000: 3944 e3bd 50d5 7e3d c090 2c3c 04d1 123d
00000010: 6e21 9bbd a62b 33bd 988d c4bd 4e14 c0bd
00000020: 4856 75bd a8ab d73d aeda b7bd 00d4 d839
00000030: c06f 8b3d 50f2 9b3c de34 b93d 00f1 c03a
00000040: aefa ff3d dce4 883d 885a 0a3d 2a52 a13d
00000050: 64e3 173d 763b 92bd 6055 99bc c447 173d
00000060: ddac 0d3d 3bbf eabd c406 e33d fd86 c83d
00000070: 10a7 9b3c e8af c5bc 30db ccbd cc3b c33d
00000080: fabd 2ebd d820 d7bc 2375 b33d 5c5a 843d
00000090: ccaf 9dbd 49a0 973d f24c c43d 4027 1fbc
000000a0: f6ca b2bd 801c 91ba 10ae b4bc 5251 b73d
000000b0: 7ee2 263d 50cc 933d 9011 a93d 7a16 94bd
000000c0: 00c6 2f3c 8818 69bd 28c8 bb3c 58a7 783d
000000d0: 8c32 fe3d f42e 103d 28e9 de3c 80d4 6ebb
000000e0: 000f 5c3c bc19 793d ce6a ac3d e00a f63c
000000f0: 6ac6 b13d e06f d13c 3e53 88bc 98b8 3c3d
00000100: a932 d63c b877 aa3d 8e38 99bd 182c e4bc
00000110: 8e83 dfbd 20eb 573d 0673 c4bd ea4c c53d
00000120: e6c1 dfbd c46f 353d 60dc 3ebd 6058 f8bc
00000130: f274 e9bd 1409 8dbd f4d8 ac3d f210 f43d
00000140: b09c e63c cc63 8b3d 8a36 c93d 90df ca3d
00000150: fcf6 4ebd 40e6 cb3d ac03 a2bd dc9b 85bd
00000160: 4ee9 67bc a5c6 1c3d d00e e7bc fb7e d6bc
00000170: 40a9 1b3b ac24 e73d b4b5 583d b029 9fbd
00000180: 52c8 9abb 80a2 67bd 4128 fcbd 00a9 e1ba
00000190: ec5d 37bd 7b50 353d 5262 b43d 0022 7fbc
000001a0: c831 d93d fcbd 79bd 52b1 fabd 6b39 f6bd
000001b0: 1587 61bd 7833 d93d 046d 6abd ac7b b93d
000001c0: 70dd 983d 780c 98bd ec76 b73d 4eaa cbbd
000001d0: 8089 8aba 0008 f9b9 c87b ea3d 70d6 78bc
000001e0: 046f 923d 0066 32bd 13d5 81bd cced 373d
000001f0: d2ac 74bd 20a0 36bc baf2 fdbc de63 c9bd
00000200: 7465 0d3e f8c6 4dbd 9ee1 b73d c0ec cbbb
00000210: 98ad 84bc 1ba4 f33d a66d e4bd 7252 a7bd
00000220: 20a0 24bd 2e15 bebd 4f4e a23c 8c77 913d
00000230: e172 f4bd 00a9 debc 180e 9d3d cc0e 853d
00000240: f02d 08bd 24c0 3cbd c047 6d3c 86c7 8ebb
00000250: 4006 62bb 7cd8 82bd eabd aabd 10a9 8abc
00000260: 71f3 acbb d8ba c93d bad3 b8bd 679a ccbd
00000270: cc29 cf3d f484 debd 4065 c13d 6f93 163d
00000280: eca4 9e3c c808 103d c885 afbd 786e f6bd
00000290: 10d6 c73d 6f7b 213d c04b 8d3b 8e61 a9bd
000002a0: 14f2 cdbd 80a9 ed3a 20dc dd3c 9417 9b3d
000002b0: 028e 093d de2e efbd 2454 2bbd 5803 d2bc
000002c0: e052 cf3c f862 2d3d 6cd8 c9bd 4528 d6bd
000002d0: daf1 8f3d 90b4 ff3c 9492 5a3d 3633 afbd
000002e0: 7072 e6bc 9455 2dbd 9957 08bd 9022 703c
000002f0: bff0 e13d 7454 653d 1ab6 a6bd 089c 73bd
00000300: deae 023e 1843 eebd 8008 ffba eaf6 ec3d
00000310: ec4b 263d 4cb1 1f3d a8e3 82bd c09e c9bb
00000320: fcbe 953d 284a 363d a22a 833c cc17 8bbd
00000330: b2ff 01be 7071 65bc 348e 9dbd 1e49 973d
00000340: c8e9 97bc 1cf9 e43d a49b 3dbd 8cd4 b13d
00000350: 0839 803c d604 d53d 609c 93bc 5ce9 9abd
00000360: 715f b8bd 19bc f63d 2864 f7bc 40fa 2dbd
00000370: b498 d1bd 8046 c9ba 761d efbd aac3 123c
00000380: 63ae 57bd 1882 c1bd 12ee b83d d0bd 30bc
00000390: e42c d03d 2013 3a3b d6f2 883d 40f6 27bb
000003a0: 5a9e fd3d 469b e6bd f60e bb3d faeb fbbd
000003b0: 2286 153d d213 c1bd f452 c5bd 62df b0bd
000003c0: 289a a5bd 40f1 6bbb a82f f63c 730d 1c3b
000003d0: 4828 2d3d 246b b0bd 382e b1bc b045 fdbc
000003e0: 8844 83bd c238 c5bd 266f a0bd 4083 8e3c
000003f0: 54f4 d13d 90cc 62bd 3446 febd 2058 2f3c

lstm.weight_hh_l1 f4 [256, 64]
-0.059980437 -0.038537677 -0.08220394 0.119160175 0.08035797 0.06801852 0.0438442 -0.06612443
0.07827593 0.0052071013 -0.1068801 -0.01332862 0.12667897 -0.08778276 -0.09107251 -0.060335364
0.005063169 0.014834181 0.001005776 -0.11156833 0.040137902 0.095404625 -0.06729397 0.031450704
-0.14667694 -0.08371091 -0.029828383 -0.10327991 -0.0044134506 -0.023828734 -0.031023165 0.008212165
-0.105350934 -0.015471258 -0.085597076 0.12086562 -0.051920917 0.08785914 -0.014108647 -0.12193268
-0.054846328 -0.003457933 -0.05701088 0.019929139 -0.0033162034 -0.004354644 0.010208092 0.059785757
0.0974954 -0.036715034 0.0879056 0.022911238 -0.025196651 0.038591884 -0.024037093 0.08026522
0.025868375 -0.06309956 0.12041101 -0.01615667 -0.009097206 -0.08870269 0.07556773 0.02895405
0.047505464 0.061477162 0.0025231664 0.09751875 0.00999417 -0.03398407 -0.03588718 0.10112771
0.09064913 -0.034915768 -0.033965573 -0.017800057 -0.0321644 -0.12529358 0.054336492 -0.072218746
0.10782802 0.05934724 0.011238373 0.013590483 -0.082117945 -0.014625421 -0.095947064 -0.06751078
-0.022402463 -0.0058898656 0.083525695 0.09419289 0.14586797 0.044984616 -0.07340624 -0.079334624
0.101711765 0.045751926 -0.14617175 0.060015023 0.14196779 0.1256344 0.06184665 -0.11837982
0.1275048 -0.048221074 -0.14733334 0.025873715 -0.024062041 -0.09953745 -0.0080534965 0.06756175
-0.035269246 0.062644064 -0.013908838 -0.09587154 0.105160676 -0.122880794 0.09927682 0.00692195
0.03727016 -0.062579475 -0.053555075 -0.10930405 0.02067681 -0.019672949 0.083388865 -0.054989014
0.08599476 0.09502927 -0.063932896 0.022419764 -0.037880525 0.07140945 0.05211454 0.002079099
-0.088106915 0.07909427 0.1292395 0.05922569 -0.09515628 -0.015106452 -0.09023396 -0.00020939652
0.073253594 0.017715838 0.08611943 0.095519975 0.13786256 0.01520949 0.02694574 -0.10001834
0.0793662 0.07156048 0.04145876 -0.09701971 0.07538267 -0.09876818 0.101924144 0.13388436
-0.06728244 -0.0623182 0.09092288 -0.07778784 0.13528055 0.016419198 0.008527699 0.090700135
0.02631757 -0.06819808 -0.07194342 -0.08299832 -0.12227974 0.09898041 0.07222075 -0.08797268
-0.074747145 0.11703963 -0.08747118 -0.06121106 0.055221427 0.0077387197 0.0052146907 -0.032850876
0.10488438 -0.10652831 0.039534666 0.030611347 0.093367174 0.0020800934 -0.02852178 0.094088666
0.036043927 0.123296574 0.09420777 -0.076872654 -0.010970076 0.13067675 -0.10846329 -0.031944625
-0.0066593243 -0.025810499 0.035326906 -0.044956274 0.03369262 0.013697133 0.012688661 -0.07885637
0.1310887 0.0011869709 0.012145953 0.030725721 0.108897105 -0.12085176 0.11315871 0.13147748
-0.06585994 -0.03979088 0.060579862 -0.071124166 -0.08653723 -0.0689261 -0.06700811 -0.00826481
0.072354026 0.040305335 -0.06647466 -0.10186033 0.0053019794 -0.08753119 -0.075419016 0.080793016
0.0063320408 -0.09951198 0.09167809 0.029495386 0.076600835 -0.094090804 0.00041810155 0.06635484
-0.080572814 0.02384864 -0.0031363643 -0.0245494 0.1284037 -0.033959754 -0.119900875 0.135613
0.11393688 -0.05473992 0.010739473 0.08567223 -0.058728773 -0.010565926 -0.029676573 -0.016822457
00000000: 0cae 75bd afd9 1dbd 8a5a a8bd 400a f43d
00000010: b892 a43d 4b4d 8b3d fa95 333d 3f6c 87bd
00000020: 214f a03d 55a0 aa3b f4e3 dabd 4960 5abc
00000030: 22b8 013e 73c7 b3bd 3984 babd 3722 77bd
00000040: f1e8 a53b 110b 733c 3ed4 833a f07d e4bd
00000050: a467 243d 8063 c33d 6cd1 89bd 74d2 003d
00000060: 7b32 16be a070 abbd a75a f4bc 6b84 d3bd
00000070: b59e 90bb 7a34 c3bc 4b24 febc 518c 063c
00000080: 3bc2 d7bd 297b 7dbc 854d afbd 6588 f73d
00000090: 07ab 54bd 7eef b33d f427 67bc d7b7 f9bd
000000a0: 8ba6 60bd 7d9e 62bb 3e84 69bd 6f42 a33c
000000b0: a954 59bb 67b1 8ebb d73f 273c e9e1 743d
000000c0: abab c73d 8162 16bd da07 b43d 59b0 bb3c
000000d0: 3569 cebc 8612 1e3d 70e9 c4bc 1762 a43d
000000e0: eae9 d33c 583a 81bd 0c9a f63d fe5a 84bc
000000f0: 730c 15bc c2a9 b5bd 41c3 9a3d 0b31 ed3c
00000100: 1795 423d 7acf 7b3d b55b 253b e9b7 c73d
00000110: 96be 233c e132 0bbd 70fe 12bd 0b1c cf3d
00000120: 40a6 b93d d603 0fbd 7c1f 0bbd 6dd1 91bc
00000130: d1be 03bd f64c 00be f18f 5e3d 6ce7 93bd
00000140: f0d4 dc3d 1716 733d 2721 383c 9eaa 5e3c
00000150: 742d a8bd 769f 6fbc e57f c4bd 1843 8abd
00000160: 5f85 b7bc c6ff c0bb 850f ab3d 34e8 c03d
00000170: 6a5e 153e ca41 383d 0356 96bd 317a a2bd
00000180: 424e d03d 5f66 3b3d 0cae 15be 50d2 753d
00000190: 0160 113e 4ea6 003e ea52 7d3d 1e71 f2bd
000001a0: 9e90 023e 7683 45bd 8dde 16be 1df5 d33c
000001b0: c21d c5bc 4ada cbbd d0f2 03bc d15d 8a3d
000001c0: 7c76 10bd 884b 803d e5e1 63bc 4c58 c4bd
000001d0: 7b5e d73d eda8 fbbd a551 cb3d 86d1 e23b
000001e0: 98a8 183d ab29 80bd 915c 5bbd cdda dfbd
000001f0: 6a62 a93c 2a29 a1bc c8c7 aa3d 293c 61bd
00000200: 051e b03d b59e c23d 40ef 82bd a7a9 b73c
00000210: 9c28 1bbd 1e3f 923d 0e76 553d 7e41 083b
00000220: 6671 b4bd 2dfc a13d 5c57 043e a396 723d
00000230: 4ce1 c2bd 0d81 77bc 95cc b8bd 7391 5bb9
00000240: fb05 963d ce20 913c 625f b03d fa9f c33d
00000250: d82b 0d3e 3a31 793c 50bd dc3c 6ad6 ccbd
00000260: bf8a a23d 4d8e 923d a9d0 293d 45b2 c6bd
00000270: 3b62 9a3d f946 cabd 9bbd d03d fb18 093e
00000280: 60cb 89bd 5e41 7fbd c635 ba3d 3b4f 9fbd
00000290: fc86 0a3e 8e81 863c c3b7 0b3c fec0 b93d
000002a0: f297 d73c 6fab 8bbd 1257 93bd 06fb a9bd
000002b0: cd6d fabd 3eb6 ca3d 79e8 933d 052b b4bd
000002c0: 0815 99bd 79b2 ef3d 1724 b3bd 73b8 7abd
000002d0: dd2f 623d 1695 fd3b ffdf aa3b a48e 06bd
000002e0: 9fcd d63d 842b dabd 1aef 213d a6c4 fa3c
000002f0: 4a37 bf3d 2d52 083b 82a6 e9bc 8fb1 c03d
00000300: cca2 133d ea82 fc3d 01f0 c03d 696f 9dbd
00000310: d5bb 33bc 20d0 053e 0022 debd 5ed8 02bd
00000320: 7636 dabb 8a70 d3bc f2b2 103d 1224 38bd
00000330: 4601 0a3d f169 603c 1ae4 4f3c 737f a1bd
00000340: 1e3c 063e 2294 9b3a d2ff 463c 82b4 fb3c
00000350: 7205 df3d 2181 f7bd c1bf e73d 08a2 063e
00000360: 94e1 86bd c3fb 22bd 9722 783d 8ca9 91bd
00000370: 6e3a b1bd 2129 8dbd 8c3b 89bd 2069 07bc
00000380: 592e 943d 3517 253d de23 88bd 269c d0bd
00000390: 3abc ad3b 8d43 b3bd 4975 9abd cf76 a53d
000003a0: 027d cf3b f0cc cbbd b9c1 bb3d 4fa0 f13c
000003b0: e6e0 9c3d aeb2 c0bd a434 db39 0ce5 873d
000003c0: 5c03 a5bd 395e c33c 768b 4dbb d31b c9bc
000003d0: 427c 033e 6219 0bbd 978e f5bd 22de 0a3e
000003e0: bd57 e93d f736 60bd 9df4 2f3c ec74 af3d
000003f0: 958d 70bd b51c 2dbc 491c f3bc 40cf 89bc

lstm.bias_ih_l1 f4 [256]
0.10808137 0.056681894 0.040697183 -0.06839044 -0.032154042 -0.016494988 -0.07382521 0.092796594
0.07997278 0.08472262 -0.1034578 0.043516442 -0.033782944 0.013038555 0.059279382 -0.10041724
0.11753192 0.015643356 0.10960743 0.02209064 -0.09887736 0.016805077 -0.052683037 0.0037447358
0.010815243 -0.024681762 -0.088217445 -0.0041440404 -0.07417213 0.05148939 -0.09156406 -0.024397384
-0.07102101 -0.0983601 0.07288429 0.10722692 -0.0044202213 -0.06662468 0.03581908 0.02682477
0.020949889 0.11105825 -0.051649693 0.016733954 0.0398395 0.043252587 0.01672796 0.07349768
0.0877161 -0.030903535 -0.017906869 0.0770426 0.028105631 0.04304776 -0.09629333 -0.080100015
0.031787544 -0.065929666 -0.09610449 0.11205914 0.096616134 -0.009848617 0.09513707 -0.05189961
-0.07162751 -0.053316142 0.029990196 0.14574707 0.106402576 -0.092936054 0.111140646 -0.11099588
0.1403412 0.117375664 -0.009505271 0.0005057825 -0.0036304507 0.005825855 0.011712855 0.1322241
0.020296434 -0.03272062 0.07409857 0.10547106 0.009651717 0.024219232 -0.0692889 0.007719341
0.087431505 0.08315538 0.017780874 -0.10198617 0.012280679 -0.08262286 -0.011406875 0.0754358
0.11041741 -0.047093324 0.10128365 0.123840965 0.06893469 0.06104082 -0.03149903 0.042143863
0.030940969 0.11283577 -0.014096126 -0.005175089 0.06813588 -0.08329651 0.10397026 -0.073450804
-0.102827795 -0.03092208 0.096929125 -0.049763683 -0.008749411 0.07837425 0.11644221 -0.078285314
0.039053462 0.056702 0.13377713 0.070388384 -0.04071794 -0.054216288 0.13818194 0.118873805
-0.012812742 0.01927375 0.07864853 0.13540912 -0.007912389 -0.005589873 -0.093149066 0.07994661
-0.10446768 -0.014115552 -0.051390182 0.13285017 -0.075213924 -0.0013316341 -0.08175785 -0.039692026
-0.0014313026 -0.080731176 -0.048524756 -0.064477235 0.014834282 -0.10459721 0.008597019 -0.04439244
-0.115282185 -0.04256831 -0.08228849 -0.08278616 0.103135034 0.0131740635 0.06696694 0.023715788
0.05065395 -0.07118118 0.060654942 0.024618557 0.06534096 -0.039373398 0.087408185 -0.11355736
0.024205398 -0.079573736 0.040128384 0.111141615 -0.11498674 -0.047510467 0.0960072 0.14210682
-0.07852187 -0.108928174 0.10404938 -0.11653291 0.07657777 -0.13639084 -0.003981974 0.04633485
0.06701566 -0.004332878 -0.029287508 -0.037867326 0.0044753044 0.005549247 -0.029584913 0.08723467
-0.032355588 -0.024995584 0.012768352 0.10398949 0.1242229 0.10218811 -0.004592194 0.02685877
-0.04637281 0.09512221 -0.039430276 -0.06736619 -0.045083985 -0.028713772 -0.10368166 0.12653188
0.14785346 0.12491401 -0.02803562 0.08291619 -0.06341449 0.11141771 -0.03451616 -0.02289237
-0.09758116 0.044158813 0.02309996 0.10169553 0.1057583 0.008699332 0.051528726 -0.007803232
0.12444629 -0.013247713 0.037770804 0.06833048 0.04237713 -0.08822598 0.10596643 0.0434089
-0.070308015 0.10049326 -0.011367063 0.108858876 -0.005172896 0.06768367 -0.024698202 -0.043322094
0.053218253 -0.04371609 -0.08185004 0.009849836 0.0035498282 0.11641945 -0.043580014 0.070178434
-0.021889806 0.09918293 0.004006158 0.0015363649 0.048490282 0.054240987 0.025591368 -0.031029291
00000000: c459 dd3d 462b 683d 17b2 263d 4910 8cbd
00000010: f5b3 03bd 7f20 87bc ac31 97bd 240c be3d
00000020: c5c8 a33d 0e83 ad3d afe1 d3bd 4c3e 323d
00000030: fc5f 0abd aa9f 553c f0ce 723d 8ea7 cdbd
00000040: 93b4 f03d 7f26 803c dc79 e03d 6ef7 b43c
00000050: 3780 cabd cdaa 893c 2bca 57bd 3e6a 753b
00000060: 6b32 313c 6831 cabc 59ab b4bd bbca 87bb
00000070: 8fe7 97bd 8ae6 523d f085 bbbd 06dd c7bc
00000080: 7773 91bd 0571 c9bd 5c44 953d ca99 db3d
00000090: 81d7 90bb 8572 88bd 07b7 123d 9fbf db3c
000000a0: 1a9f ab3c 8272 e33d a18e 53bd a515 893c
000000b0: be2e 233d a029 313d 1309 893c f485 963d
000000c0: 80a4 b33d 6929 fdbc 6db1 92bc 83c8 9d3d
000000d0: c83d e63c d952 303d 7035 c5bd 7a0b a4bd
000000e0: a833 023d 2206 87bd 6ed2 c4bd 437f e53d
000000f0: aede c53d 185c 21bc 39d7 c23d af94 54bd
00000100: 72b1 92bd 0762 5abd 00ae f53c b83e 153e
00000110: 98e9 d93d 4255 bebd b59d e33d cf51 e3bd
00000120: 9bb5 0f3e a762 f03d ffbb 1bbc 7d96 043a
00000130: dbec 6dbb d0e6 be3b 46e7 3f3c c165 073e
00000140: b544 a63c 0f06 06bd fec0 973d 3601 d83d
00000150: 3c22 1e3c 6967 c63c 57e7 8dbd 87f2 fc3b
00000160: 4a0f b33d 5e4d aa3d 32a9 913c 20de d0bd
00000170: e734 493c 2d36 a9bd e7e3 3abc 167e 9a3d
00000180: 8622 e23d eee4 40bd cd6d cf3d 55a0 fd3d
00000190: a12d 8d3d f005 7a3d 2005 01bd 0b9f 2c3d
000001a0: ea77 fd3c 7116 e73d 70f3 66bc cb93 a9bb
000001b0: d38a 8b3d 5c97 aabd 5cee d43d 606d 96bd
000001c0: 6197 d2bd 4d50 fdbc c782 c63d 01d5 4bbd
000001d0: b159 0fbc ae82 a03d 4179 ee3d 0d54 a0bd
000001e0: 86f6 1f3d 5b40 683d dffc 083e c927 903d
000001f0: dbc7 26bd e611 5ebd 917f 0d3e 1c74 f33d
00000200: 89ec 51bc fce3 9d3c 7b12 a13d b0a8 0a3e
00000210: f7a2 01bc 412b b7bb f0c4 bebd 0cbb a33d
00000220: 27f3 d5bd eb44 67bc 837e 52bd e009 083e
00000230: c209 9abd 3a8a aeba a970 a7bd 1b94 22bd
00000240: 8c9a bbba 6356 a5bd e5c1 46bd a40c 84bd
00000250: 7d0b 733c 1037 d6bd 83da 0c3c d9d4 35bd
00000260: 1119 ecbd 1c5c 2ebd de86 a8bd ca8b a9bd
00000270: 7638 d33d 07d8 573c f725 893d 9d47 c23c
00000280: 847a 4f3d 70c7 91bd 5171 783d dbac c93c
00000290: 7bd1 853d 0046 21bd 1003 b33d c390 e8bd
000002a0: 664a c63c 8ef7 a2bd a95d 243d 379e e33d
000002b0: 2b7e ebbd 569a 42bd 6c9f c43d 7384 113e
000002c0: 13d0 a0bd bc15 dfbd d717 d53d cea8 eebd
000002d0: ced4 9c3d 0aaa 0bbe 387b 82bb 9dc9 3d3d
000002e0: 823f 893d d1fa 8dbb 5bec efbc c51a 1bbd
000002f0: 93a5 923b 75d6 b53b 0f5c f2bc 17a8 b23d
00000300: 4b87 04bd 8ac3 ccbc 5a32 513c 71f8 d43d
00000310: 9368 fe3d 0048 d13d 1e7a 96bb ec06 dc3c
00000320: 6af1 3dbd 6fcf c23d a481 21bd 49f7 89bd
00000330: fca9 38bd 2539 ebbc 0d57 d4bd 9391 013e
00000340: e666 173e ebd2 ff3d f5aa e5bc f7cf a93d
00000350: 75df 81bd f82e e43d d160 0dbd c888 bbbc
00000360: a2d8 c7bd dfdf 343d 213c bd3c bf45 d03d
00000370: cf97 d83d a587 0e3c c90f 533d 41b2 ffbb
00000380: b2dd fe3d f00c 59bc 8fb5 1a3d daf0 8b3d
00000390: a493 2d3d d3af b4bd ed04 d93d 88cd 313d
000003a0: a6fd 8fbd 69cf cd3d eb3c 3abc 67f1 de3d
000003b0: 6681 a9bb bc9d 8a3d e253 cabc 8272 31bd
000003c0: 62fb 593d a50f 33bd fea0 a7bd 3561 213c
000003d0: 3ca4 683b 526d ee3d f580 32bd b6b9 8f3d
000003e0: 4052 b3bc 6c20 cb3d 1746 833b da5f c93a
000003f0: bf9d 463d cc2b 5e3d fda4 d13c 2431 febc
