models/ADAUSDT_lstm_20250822_211555.pth (torch, 257575 bytes, 11 tensors)

lstm.weight_ih_l0 f4 [256, 43]
0	0xb641319a	-2.8788113e-06
1	0x3756e6ff	1.2809177e-05
2	0x36f548ab	7.3100286e-06
3	0xb70c8f0d	-8.377957e-06
4	0xb7654120	-1.3664627e-05
5	0xb7833868	-1.5642683e-05
6	0x35df96ca	1.665868e-06
7	0x36f288d4	7.228091e-06
8	0xb81ef2d0	-3.7896272e-05
9	0x35a000d2	1.1921168e-06
10	0xb910e6e9	-0.00013818931
11	0x360f6c62	2.1371748e-06
12	0xb7b7ef00	-2.1926593e-05
13	0x35ba48c6	1.387926e-06
14	0x39331e39	0.00017082029
15	0xb6820703	-3.875118e-06
16	0xb7634834	-1.35470655e-05
17	0xb70c3adf	-8.358357e-06
18	0x34de86cc	4.14488e-07
19	0x3931d6fd	0.00016960125
20	0xb932152a	-0.00016983287
21	0xb8207471	-3.8255417e-05
22	0x386548e8	5.4665754e-05
23	0x36c771bb	5.943902e-06
24	0xb6e7b02e	-6.9048465e-06
25	0xb89eb4ec	-7.5677264e-05
26	0x34ac3d30	3.2082016e-07
27	0x339f357c	7.413743e-08
28	0xb930cd0a	-0.00016861051
29	0x37389d9a	1.1003949e-05
30	0xb7b160d7	-2.1145139e-05
31	0x3703abe7	7.848233e-06
32	0x3730c6e9	1.053673e-05
33	0xb5b6c1c6	-1.3616452e-06
34	0x35bc78b4	1.4042221e-06
35	0x374f2338	1.23463615e-05
36	0xb7d6617d	-2.5556184e-05
37	0xb6c86fc0	-5.973474e-06
38	0x37384038	1.0982207e-05
39	0x363d864b	2.8241363e-06
40	0xb7b76730	-2.186335e-05
41	0x38510ebd	4.984321e-05
42	0x35a51174	1.2298538e-06
43	0x36e1246e	6.7097635e-06
44	0xb9222a16	-0.00015465202
45	0x3711c8a9	8.689393e-06
46	0xb5e968c3	-1.7390342e-06
47	0x36b8189c	5.4864922e-06
48	0xb6bf4b32	-5.7009975e-06
49	0x36cb714c	6.063061e-06
50	0x37657734	1.3677218e-05
51	0xb71f116e	-9.481197e-06
52	0xb7f31a10	-2.8979994e-05
53	0x36652e0a	3.4150457e-06
54	0x386a90e3	5.5924884e-05
55	0xb7644306	-1.3605464e-05
56	0xb85f91bd	-5.3303072e-05
57	0xb7e123c6	-2.6838748e-05
58	0xb7747e63	-1.457296e-05
59	0xb7ff4dd7	-3.0434616e-05
60	0xb6306401	-2.6284254e-06
61	0xb7134d67	-8.779904e-06
62	0x35bfad46	1.4281038e-06
63	0x352713f8	6.2241406e-07
64	0x385332a4	5.0353483e-05
65	0xb858ecbd	-5.1718893e-05
66	0x3930c53a	0.0001685814
67	0x392c3dc0	0.00016426202
68	0x3769c79d	1.3934358e-05
69	0xb5edc7ae	-1.771599e-06
70	0x366b6778	3.5077956e-06
71	0xb7343bc3	-1.074275e-05
72	0xb7dd868b	-2.6407904e-05
73	0x37b50399	2.1578557e-05
74	0xb85d9665	-5.283057e-05
75	0x386393fc	5.425884e-05
76	0xb91213fa	-0.00013931087
77	0x35e00d07	1.6693092e-06
78	0xb868a770	-5.546905e-05
79	0xb7995e48	-1.8282924e-05
80	0xb845b1dc	-4.7134105e-05
81	0xb7dd19bf	-2.6357242e-05
82	0x390797c4	0.0001293114
83	0xb719a269	-9.157325e-06
84	0xb79bdb27	-1.857949e-05
85	0x37ce0a3f	2.4561885e-05
86	0x37f73f6e	2.9474231e-05
87	0x36a99602	5.0540557e-06
88	0xb5475cc6	-7.426828e-07
89	0xb59c88b4	-1.1662692e-06
90	0xb649ea84	-3.008784e-06
91	0x352c7621	6.4246893e-07
92	0x38df8bbc	0.00010659496
93	0xb83725c1	-4.366576e-05
94	0x369f2fd8	4.744139e-06
95	0x37dd16fb	2.6355954e-05
96	0x36900dd2	4.2931433e-06
97	0x36942639	4.4151934e-06
98	0xb92dfa5e	-0.00016591835
99	0xb5b398dd	-1.3381028e-06
100	0xb519270f	-5.705378e-07
101	0xb71c9a1a	-9.334204e-06
102	0xb8534ea4	-5.037956e-05
103	0x3910399a	0.00013754368
104	0x3868e1af	5.5523295e-05
105	0xb7046ed1	-7.893615e-06
106	0x36e88339	6.929415e-06
107	0x36ef20ff	7.1265963e-06
108	0xb49aa660	-2.880579e-07
109	0xb820946e	-3.828521e-05
110	0xb7d1c455	-2.5006166e-05
111	0xb85f4a12	-5.3236326e-05
112	0x376f8a96	1.4277777e-05
113	0xb459dbf4	-2.0289718e-07
114	0x379877cf	1.8175602e-05
115	0xb4c32b36	-3.635302e-07
116	0xb714eb5a	-8.8762845e-06
117	0xb6613873	-3.356047e-06
118	0x391fe9d0	0.00015250524
119	0x3926230c	0.0001584405
120	0xb85e6651	-5.3024214e-05
121	0xb688b58a	-4.07425e-06
122	0x37d5d6a2	2.5491525e-05
123	0x37f1054e	2.8731909e-05
124	0xb812a887	-3.4966066e-05
125	0x37f282b5	2.8909513e-05
126	0x391dc81c	0.00015047233
127	0x379f3e0a	1.8983166e-05
128	0x34d335e8	3.9341035e-07
129	0xb70f4d7a	-8.541503e-06
130	0x37b8065f	2.1937476e-05
131	0x3769992f	1.3923548e-05
132	0xb84ba739	-4.855471e-05
133	0x362fda8a	2.6204239e-06
134	0x3710e063	8.635313e-06
135	0xb6fd1e27	-7.5434978e-06
136	0xb852e7b1	-5.028368e-05
137	0x38480074	4.7684138e-05
138	0xb48c3bcc	-2.612054e-07
139	0xb77e9079	-1.5173217e-05
140	0x37f10f6a	2.8736617e-05
141	0x375b7d6c	1.3082619e-05
142	0x384dcfce	4.9069342e-05
143	0x3676bdc4	3.6767315e-06
144	0xb621c0e8	-2.4103156e-06
145	0x3863c934	5.4308402e-05
146	0xb8481841	-4.7706304e-05
147	0xb8a5b6e3	-7.9018784e-05
148	0x386bcb4c	5.62177e-05
149	0xb9330d58	-0.00017075741
150	0x3797458f	1.8032993e-05
151	0x341f6288	1.4843874e-07
152	0x392de608	0.00016584259
153	0x37fbfccb	3.0039248e-05
154	0x36cb6006	6.06105e-06
155	0x36bfddd3	5.7180673e-06
156	0xb7b79d1c	-2.188846e-05
157	0x36bdcdcc	5.656597e-06
158	0x38bab90a	8.903637e-05
159	0x36849da4	3.9522583e-06
160	0xb6c18722	-5.7675798e-06
161	0x3623b63c	2.4394967e-06
162	0x3857d0d7	5.145449e-05
163	0xb7798372	-1.4872161e-05
164	0xb927c18c	-0.00015998463
165	0x3606c421	2.0081718e-06
166	0xb77220e0	-1.4431978e-05
167	0xb7c43a39	-2.3392133e-05
168	0x36f12a20	7.1872637e-06
169	0x37847165	1.578843e-05
170	0xb711d76e	-8.692832e-06
171	0x381bd0ce	3.7149344e-05
172	0x370f8bd6	8.556022e-06
173	0x363e230a	2.8332602e-06
174	0x391d353a	0.00014992515
175	0xb68029dc	-3.8195703e-06
176	0xb9333534	-0.0001709059
177	0xb70949ce	-8.18302e-06
178	0x367206e2	3.6064816e-06
179	0xb592b42c	-1.0930285e-06
180	0xb563e3a1	-8.4895333e-07
181	0xb86858ec	-5.5395925e-05
182	0x392e8299	0.00016642585
183	0xb76b5a02	-1.4028048e-05
184	0xb63b9364	-2.7950964e-06
185	0x3725e741	9.888609e-06
186	0xb34c31c0	-4.75427e-08
187	0x36650c3a	3.4130776e-06
188	0xb857b65d	-5.1429834e-05
189	0x393425ae	0.00017180174
190	0xb6f091ba	-7.169522e-06
191	0xb7f8824d	-2.962458e-05
192	0xb75cbcc5	-1.3156973e-05
193	0x379a382d	1.838439e-05
194	0xb7356b8a	-1.0813479e-05
195	0xb585fc40	-9.982687e-07
196	0xb4b065e2	-3.2856684e-07
197	0xb5aac480	-1.2723176e-06
198	0xb8512755	-4.9866114e-05
199	0x36a461f4	4.898984e-06
200	0xb7a23d96	-1.9340583e-05
201	0x3688e494	4.079726e-06
202	0x37484236	1.1936345e-05
203	0xb6e9242e	-6.948153e-06
204	0x376e561b	1.4205953e-05
205	0xb73f2bef	-1.1394716e-05
206	0xb65970ce	-3.240118e-06
207	0xb7e89848	-2.7727467e-05
208	0xb83600c2	-4.3392887e-05
209	0xb92a45e7	-0.00016238504
210	0x38f3a04e	0.00011617002
211	0xb733efc2	-1.0725054e-05
212	0x3868e685	5.55278e-05
213	0x3726b2f3	9.936036e-06
214	0x38a4a6c3	7.851191e-05
215	0xb7947683	-1.7698161e-05
216	0x39253077	0.00015753681
217	0x3931a7b8	0.00016942516
218	0xb6bbfcda	-5.60247e-06
219	0x388f0a40	6.8206806e-05
220	0x3528f83f	6.294612e-07
221	0x39341e0c	0.00017177331
222	0x37560108	1.2755634e-05
223	0x37106142	8.605713e-06
224	0x3797b74d	1.8085959e-05
225	0x37821dae	1.5511028e-05
226	0xb868e68c	-5.5527824e-05
227	0xb6b1cf4b	-5.299143e-06
228	0xb59f8412	-1.1884861e-06
229	0x366cf8cb	3.5311557e-06
230	0xb8468df3	-4.733908e-05
231	0x392dfaad	0.0001659195
232	0xb6117c4b	-2.1679032e-06
233	0xb5437464	-7.281253e-07
234	0x3772b3f8	1.4466226e-05
235	0x392e9cc1	0.00016652328
236	0x36352dcc	2.699776e-06
237	0xb6cb6208	-6.061284e-06
238	0xb5c26e1e	-1.4486175e-06
239	0x39082725	0.00012984553
240	0xb8609eaa	-5.355353e-05
241	0xb6319d36	-2.6466564e-06
242	0x3652123c	3.1303052e-06
243	0x3729a2ee	1.011112e-05
244	0xb4e1b9cc	-4.20447e-07
245	0xb933b45e	-0.00017137962
246	0xb8503641	-4.9641592e-05
247	0x38519b21	4.9973958e-05
248	0x37351722	1.0793827e-05
249	0x36e8f106	6.9421976e-06
250	0x3659fc75	3.248247e-06
251	0x37952f24	1.7784136e-05
252	0xb8647d2b	-5.4476008e-05
253	0xb7f567c2	-2.9254592e-05
254	0x37462b21	1.1811761e-05
255	0x38ff4214	0.000121716555

lstm.weight_hh_l0 f4 [256, 64]
0	0x362bf854	2.5625532e-06
1	0xb7e344c1	-2.7092525e-05
2	0x3779f6a6	1.4898984e-05
3	0xb43ec3d0	-1.7766365e-07
4	0x3748ffe8	1.1980512e-05
5	0xb752dbcc	-1.2568151e-05
6	0xb75c455a	-1.3129169e-05
7	0x36e3da3a	6.790532e-06
8	0xb85bc07c	-5.2392934e-05
9	0x37e5858d	2.7361117e-05
10	0xb933d3dc	-0.00017149694
11	0x3713ef6f	8.81763e-06
12	0xb7fa3938	-2.9828967e-05
13	0xb9093847	-0.00013086303
14	0xb74495c8	-1.1717384e-05
15	0xb7c43598	-2.3389977e-05
16	0x35c1b7a6	1.4433069e-06
17	0xb809b715	-3.2833854e-05
18	0x366f39cc	3.5647417e-06
19	0x385c8d4e	5.2583688e-05
20	0xb619f37a	-2.2940499e-06
21	0x392dea13	0.00016585765
22	0x35db2a88	1.632915e-06
23	0xb8b5351b	-8.640644e-05
24	0xb6e21792	-6.738069e-06
25	0x333750a0	4.2681336e-08
26	0xb5af7e16	-1.3075212e-06
27	0xb6b9b93e	-5.5349947e-06
28	0xb7ea5902	-2.7936421e-05
29	0x37f4e9ec	2.9195995e-05
30	0xb6c909c1	-5.9914023e-06
31	0x353e7c26	7.0961175e-07
32	0xb56ca27e	-8.815331e-07
33	0x37f1f883	2.8845161e-05
34	0x37d397ed	2.5223906e-05
35	0xb8c7aaa6	-9.520845e-05
36	0x38619b06	5.3788557e-05
37	0xb7dfee20	-2.6694557e-05
38	0xb88940ce	-6.54474e-05
39	0xb9340912	-0.00017169517
40	0xb4eaf3e4	-4.376335e-07
41	0xb7f0cf55	-2.8706776e-05
42	0xb9198feb	-0.0001464483
43	0x371d9d3a	9.394536e-06
44	0x373f8c48	1.1417149e-05
45	0xb70a3643	-8.238075e-06
46	0x37a6bf7b	1.9877907e-05
47	0xb7f920b2	-2.9698338e-05
48	0x356ffdac	8.940358e-07
49	0xb73b535a	-1.1165475e-05
50	0xb7f398fc	-2.9039096e-05
51	0x3607b68f	2.022283e-06
52	0xb7a17546	-1.9247305e-05
53	0x3866eef4	5.5058816e-05
54	0x35a953dc	1.2615887e-06
55	0xb86336f8	-5.417221e-05
56	0x3923d25e	0.00015623259
57	0xb71b4f6a	-9.25721e-06
58	0xb905c4ce	-0.00012757184
59	0xb5329d9a	-6.653951e-07
60	0xb711153a	-8.647616e-06
61	0xb72d3cc8	-1.0325755e-05
62	0xb83647a6	-4.345891e-05
63	0x388fff87	6.866367e-05
64	0x35ae1b3a	1.2971934e-06
65	0x35531f52	7.86492e-07
66	0xb929a97c	-0.00016180234
67	0x391cc1cc	0.00014949514
68	0xb718f136	-9.116067e-06
69	0xb7cdd82d	-2.4538569e-05
70	0xb7803135	-1.5281703e-05
71	0xb7ccbd3d	-2.4406816e-05
72	0x37e2c49b	2.7032851e-05
73	0x37bdb760	2.2615946e-05
74	0x361575d0	2.2271306e-06
75	0x3929c0da	0.00016188939
76	0xb5fe241a	-1.8934982e-06
77	0x37cbc087	2.4289138e-05
78	0x3823d4b7	3.9060335e-05
79	0xb9214624	-0.00015380286
80	0x391a2d05	0.00014703356
81	0x376dd693	1.417626e-05
82	0xb7f8d041	-2.966088e-05
83	0xb74428ef	-1.1692041e-05
84	0x37bfb86e	2.2854856e-05
85	0xb84c0427	-4.8641257e-05
86	0xb4bcfd40	-3.5201992e-07
87	0xb4c5ee7e	-3.6867635e-07
88	0xb9334b4a	-0.00017098818
89	0xb777abac	-1.4762318e-05
90	0xb7bb9ed6	-2.23661e-05
91	0xb89c8d27	-7.464951e-05
92	0xb7a5fb12	-1.9786447e-05
93	0x39340679	0.00017168549
94	0x36dd3026	6.5919185e-06
95	0xb7fb9ef5	-2.9995552e-05
96	0x385776b3	5.137054e-05
97	0xb84d33ca	-4.892404e-05
98	0xb6a02888	-4.77309e-06
99	0xb3845730	-6.162588e-08
100	0x37f99db5	2.9756551e-05
101	0x36ea1882	6.9765965e-06
102	0x37c6a097	2.367822e-05
103	0xb8dd0e9c	-0.000105408224
104	0xb8a30ced	-7.774853e-05
105	0x36a538c4	4.9239916e-06
106	0xb6c2317d	-5.7874117e-06
107	0x35af0e31	1.3042646e-06
108	0x32794980	1.45104195e-08
109	0x375735f0	1.2827557e-05
110	0x393420c6	0.00017178347
111	0xb5c86858	-1.4931529e-06
112	0xb7b5f300	-2.1690037e-05
113	0xb4ccd042	-3.8149489e-07
114	0xb7bed5d6	-2.274934e-05
115	0xb6f14f4a	-7.19159e-06
116	0xb6f64f9e	-7.34064e-06
117	0xb8678c51	-5.520537e-05
118	0xb69f6676	-4.7504973e-06
119	0xb398ca56	-7.114856e-08
120	0xb930741d	-0.00016827924
121	0xb8bc1b76	-8.9696536e-05
122	0xb85d72a4	-5.2797273e-05
123	0xb593ecad	-1.1021235e-06
124	0xb79e1dbe	-1.8848918e-05
125	0x3699c23b	4.5823667e-06
126	0x346b5ba0	2.1919413e-07
127	0xb71d34b0	-9.3701965e-06
128	0x3770291e	1.4314688e-05
129	0x37f569cf	2.9255547e-05
130	0x371722bf	9.008391e-06
131	0xb896a100	-7.182546e-05
132	0x36c052c3	5.7316806e-06
133	0x38513a39	4.9883707e-05
134	0x3840a8a0	4.593341e-05
135	0xb6989380	-4.5471243e-06
136	0x3730c2fc	1.0535816e-05
137	0x37b18f2c	2.1166714e-05
138	0x37934438	1.7555532e-05
139	0x34a318c6	3.037914e-07
140	0x3773df19	1.4535873e-05
141	0x35d9ca1c	1.6226581e-06
142	0x37f31eb9	2.8982164e-05
143	0xb7b8375f	-2.1960293e-05
144	0xb6e6a6a6	-6.8739346e-06
145	0x386862d5	5.5405155e-05
146	0xb7895e3a	-1.637555e-05
147	0xb5e507a3	-1.7064052e-06
148	0x35f96648	1.8581713e-06
149	0xb6d0bed8	-6.2211e-06
150	0xb745a111	-1.1779616e-05
151	0xb6bfd097	-5.7165266e-06
152	0xb67425e9	-3.63809e-06
153	0x360886d6	2.0344064e-06
154	0x3731c32f	1.0595467e-05
155	0xb6b55f28	-5.405298e-06
156	0x36b0dcf9	5.2709333e-06
157	0xb8703121	-5.7266214e-05
158	0xb72fb0b2	-1.0471953e-05
159	0xb903b0e9	-0.00012559038
160	0x371dc974	9.404834e-06
161	0x36547f8a	3.16647e-06
162	0xb6b2b378	-5.3257063e-06
163	0x3612eecf	2.18947e-06
164	0xb74871ac	-1.1947395e-05
165	0x35305fbf	6.570444e-07
166	0x38864239	6.401953e-05
167	0xb537f619	-6.853093e-07
168	0x3816698a	3.5861078e-05
169	0xb63d32a6	-2.8192676e-06
170	0xb8655fc9	-5.468706e-05
171	0x377e24a0	1.5148107e-05
172	0x37464044	1.1816683e-05
173	0xb4ed8a70	-4.4245417e-07
174	0xb6d6b858	-6.3991574e-06
175	0xb4ce4222	-3.8418608e-07
176	0xb7e1ed55	-2.6932606e-05
177	0xb69f03f8	-4.7390313e-06
178	0x385d4802	5.275757e-05
179	0xb83d2e74	-4.5104374e-05
180	0xb67eb0e2	-3.7951909e-06
181	0xb93080b7	-0.00016832618
182	0x37fbaac1	3.0001045e-05
183	0x3804248b	3.1505286e-05
184	0xb8297434	-4.0400962e-05
185	0x373678f3	1.0876206e-05
186	0x370f735f	8.550326e-06
187	0x36d3ff12	6.317984e-06
188	0xb8efc032	-0.00011432207
189	0x37a68fbc	1.9855674e-05
190	0xb79d4ab6	-1.8750648e-05
191	0x373957b8	1.1047283e-05
192	0x36451c26	2.9371672e-06
193	0x379c4d3c	1.8632614e-05
194	0xb7895429	-1.6370863e-05
195	0x36be8047	5.6773747e-06
196	0xb83b7081	-4.468905e-05
197	0xb62888f4	-2.5113668e-06
198	0x38622e17	5.3925523e-05
199	0xb731b967	-1.05931895e-05
200	0xb86c3d5e	-5.6323937e-05
201	0xb7a58a4d	-1.9733934e-05
202	0xb4de8c20	-4.1452677e-07
203	0x38a8038f	8.011527e-05
204	0xb846194f	-4.723045e-05
205	0x36975e2e	4.5111146e-06
206	0x369e138f	4.711044e-06
207	0xb6934e50	-4.390058e-06
208	0x37fa03f6	2.9804167e-05
209	0xb600e908	-1.9209128e-06
210	0x37e0b97a	2.678925e-05
211	0x37b0adfb	2.1061851e-05
212	0xb5b66c64	-1.3591603e-06
213	0xb69da0e8	-4.6976966e-06
214	0xb8a72f03	-7.971937e-05
215	0x3887be9c	6.4728054e-05
216	0xb74fbf94	-1.2382767e-05
217	0x3749f118	1.2036668e-05
218	0x3567be3a	8.633102e-07
219	0xb7abd151	-2.0482259e-05
220	0xb5706fc8	-8.956963e-07
221	0x384e86fb	4.9239938e-05
222	0x3824e626	3.931499e-05
223	0xb72c7a09	-1.0280412e-05
224	0x3918d442	0.00014574922
225	0x38313cd6	4.2256746e-05
226	0xb7723b95	-1.4438197e-05
227	0xb7966a64	-1.7930935e-05
228	0xb7585ef2	-1.2896709e-05
229	0x3933f943	0.00017163627
230	0xb7149300	-8.8557135e-06
231	0xb5b46c67	-1.3442594e-06
232	0x35cd5d46	1.5300836e-06
233	0xb485088e	-2.4779405e-07
234	0xb76275c7	-1.3498072e-05
235	0x373b5451	1.11657e-05
236	0xb40b34c0	-1.2964574e-07
237	0x37469ea6	1.1838658e-05
238	0xb7177b83	-9.029059e-06
239	0xb7726ffc	-1.4450397e-05
240	0x37501328	1.2402226e-05
241	0xb77b2d2d	-1.4971284e-05
242	0xb92d54c5	-0.00016530145
243	0xb69dbe22	-4.701099e-06
244	0x37051f20	7.934665e-06
245	0xb6f2c6a0	-7.235285e-06
246	0x3611e1c9	2.1738108e-06
247	0xb789fed3	-1.6450334e-05
248	0x35f04229	1.7900649e-06
249	0x360e4c55	2.120408e-06
250	0xb6eb49e6	-7.0121487e-06
251	0x391bffa2	0.00014877183
252	0x38053703	3.1760905e-05
253	0xb7f4793c	-2.914352e-05
254	0xb49b2370	-2.8896784e-07
255	0x384c36b1	4.8688325e-05

lstm.bias_ih_l0 f4 [256]
0	0xb58ae246	-1.0347655e-06
1	0x38a5da44	7.908468e-05
2	0xb41df3f0	-1.4710508e-07
3	0x38d4de24	0.00010150325
4	0xb72b37dd	-1.0205401e-05
5	0xb71d0fd8	-9.361618e-06
6	0x37321c28	1.0616182e-05
7	0xb85fd967	-5.3369815e-05
8	0xb4a7fa70	-3.128839e-07
9	0xb79d56c9	-1.8756271e-05
10	0x39102fe8	0.00013750757
11	0x3796deb9	1.7985107e-05
12	0xb72a1600	-1.0137912e-05
13	0x3765ed43	1.3704705e-05
14	0x35daf207	1.6312705e-06
15	0xb44dfff0	-1.9185222e-07
16	0xb73b2f75	-1.1157118e-05
17	0xb6ee210a	-7.096799e-06
18	0x37a0536e	1.9112336e-05
19	0xb62290a1	-2.4224066e-06
20	0xb54247d4	-7.2375155e-07
21	0x3724fc4c	9.833904e-06
22	0xb74f81c3	-1.2368374e-05
23	0xb7eea8a8	-2.8450348e-05
24	0x37092b36	8.175897e-06
25	0xb76f21b8	-1.4253361e-05
26	0xb6b99ef1	-5.531933e-06
27	0x37eed074	2.846888e-05
28	0x36d209fa	6.259649e-06
29	0xb786b024	-1.6056067e-05
30	0xb7d5c5ac	-2.5483627e-05
31	0x37d89d2a	2.5822392e-05
32	0x369eb882	4.7302465e-06
33	0x34eefe8c	4.4516162e-07
34	0xb7da528e	-2.6026068e-05
35	0xb571be66	-9.005656e-07
36	0x378da4ec	1.6885308e-05
37	0xb6897ff7	-4.0978152e-06
38	0x37c091b6	2.2956036e-05
39	0xb61cd743	-2.337111e-06
40	0xb7301ec5	-1.0497582e-05
41	0x361b7d72	2.3169819e-06
42	0x36e17bb2	6.7199226e-06
43	0xb66ab4a4	-3.4973864e-06
44	0x37b724be	2.183241e-05
45	0xb8687604	-5.542302e-05
46	0x36acb781	5.147362e-06
47	0xb8252a6b	-3.937857e-05
48	0xb786246e	-1.5991009e-05
49	0xb81eb407	-3.78378e-05
50	0xb67fd4bb	-3.8121786e-06
51	0x37699832	1.3923318e-05
52	0x36928f0a	4.367791e-06
53	0xb6233450	-2.4319343e-06
54	0x37d9d058	2.5965433e-05
55	0xb6005d81	-1.9127913e-06
56	0xb511a877	-5.426186e-07
57	0xb70e0792	-8.465622e-06
58	0x3813e52a	3.5260957e-05
59	0xb7d0da2c	-2.4897126e-05
60	0x3845a9f5	4.7126745e-05
61	0xb8f13b63	-0.00011502837
62	0xb6c60418	-5.9013364e-06
63	0xb78bd322	-1.6668408e-05
64	0x349439f7	2.7609323e-07
65	0xb9338f7d	-0.00017124224
66	0xb5045b1b	-4.930641e-07
67	0xb5d3bbd5	-1.5775391e-06
68	0xb9094b15	-0.00013093308
69	0x379db6b2	1.8800933e-05
70	0x385a7984	5.208842e-05
71	0x3672f6fc	3.6204574e-06
72	0x36f6b082	7.3519195e-06
73	0xb61e1f40	-2.3562025e-06
74	0xb6bf96a0	-5.7097786e-06
75	0xb735a934	-1.0827836e-05
76	0x3846e4f1	4.7420097e-05
77	0xb6f44cd9	-7.280713e-06
78	0xb6a8a450	-5.0259187e-06
79	0xb74b3afc	-1.2113476e-05
80	0xb45ac296	-2.0373622e-07
81	0xb7dd43aa	-2.6376762e-05
82	0xb815d3d2	-3.572164e-05
83	0xb60d56a8	-2.1061078e-06
84	0x38d66e64	0.00010224877
85	0x380344f0	3.1297037e-05
86	0xb7914edb	-1.7322067e-05
87	0x366a9682	3.4956324e-06
88	0xb66abc36	-3.497827e-06
89	0xb40c0090	-1.303872e-07
90	0x38e96703	0.00011129493
91	0xb7cdd741	-2.453814e-05
92	0x36af945e	5.2326786e-06
93	0x36948d6f	4.4272088e-06
94	0xb8b93a45	-8.832341e-05
95	0x37f7f950	2.956079e-05
96	0x3766057e	1.3710347e-05
97	0xb72fb7a8	-1.0473574e-05
98	0x391838a6	0.00014516953
99	0xb7c9e589	-2.4067953e-05
100	0x3656c83d	3.200504e-06
101	0xb7148316	-8.852008e-06
102	0x3821612c	3.847589e-05
103	0xb68ab344	-4.1335898e-06
104	0x330538c0	3.101809e-08
105	0x385c3ff0	5.2511634e-05
106	0x363a493b	2.7758786e-06
107	0xb71e1122	-9.421523e-06
108	0x3443c608	1.8232834e-07
109	0xb83b71f5	-4.4690405e-05
110	0xb6db70fa	-6.539861e-06
111	0xb6b73af2	-5.460687e-06
112	0x376b065e	1.4008574e-05
113	0x37fc1861	3.0052093e-05
114	0xb55f0f60	-8.309635e-07
115	0x3767635f	1.379181e-05
116	0xb6eef4b8	-7.1214417e-06
117	0x3919293f	0.00014606582
118	0xb8605a1d	-5.3489686e-05
119	0xb72f6c21	-1.0455989e-05
120	0x35cd43ca	1.529342e-06
121	0xb8615720	-5.372532e-05
122	0x3736a808	1.0887168e-05
123	0x3915a87f	0.00014272517
124	0x36c6c96f	5.92431e-06
125	0x34bfd38c	3.5730443e-07
126	0xb92f047c	-0.00016690971
127	0xb7bb9909	-2.23634e-05
128	0xb79ac8a9	-1.845167e-05
129	0x35a9bee5	1.2647039e-06
130	0x374725a7	1.1870091e-05
131	0x3569497a	8.6906186e-07
132	0x3861dbd4	5.384891e-05
133	0xb7849742	-1.5806061e-05
134	0x37149355	8.855791e-06
135	0x37807e0e	1.5317488e-05
136	0x361f6ad4	2.3755028e-06
137	0xb77222b7	-1.4432407e-05
138	0x3728f2eb	1.0070139e-05
139	0x37a6fa86	1.9905401e-05
140	0xb5232ac8	-6.0784487e-07
141	0x37fa3d51	2.9830875e-05
142	0x351230ec	5.446043e-07
143	0xb92ce1c5	-0.00016487304
144	0x37f78d36	2.9510451e-05
145	0x37576d6c	1.2840475e-05
146	0x34172db0	1.4079592e-07
147	0xb868e34e	-5.5524804e-05
148	0x3914f88c	0.00014206971
149	0xb59c849e	-1.1661502e-06
150	0x37f1053f	2.8731882e-05
151	0x37dbb8ec	2.6192945e-05
152	0xb66bf934	-3.5162784e-06
153	0xb85a6494	-5.206892e-05
154	0xb661c522	-3.364236e-06
155	0xb93424c7	-0.00017179838
156	0x37853f83	1.588441e-05
157	0xb5e9ae18	-1.7410521e-06
158	0xb7e37bf7	-2.7118234e-05
159	0x379930bc	1.8261715e-05
160	0x3868da5a	5.5516466e-05
161	0xb7c9447f	-2.3992963e-05
162	0xb6baa7a0	-5.562746e-06
163	0x36c2d318	5.806225e-06
164	0xb72a1842	-1.0138438e-05
165	0x37885134	1.6250277e-05
166	0x371d9788	9.39321e-06
167	0x36321448	2.6535872e-06
168	0xb6ba5452	-5.553048e-06
169	0xb7bb030d	-2.2293558e-05
170	0xb934015d	-0.00017166646
171	0x37ac812e	2.0564152e-05
172	0x383c3962	4.4876135e-05
173	0xb67b6a36	-3.7463737e-06
174	0xb661b693	-3.3633885e-06
175	0xb6bb7f0b	-5.587824e-06
176	0x36e550b3	6.8341265e-06
177	0xb62dc4d8	-2.5893587e-06
178	0x38ed04a6	0.000113019065
179	0x3746c9ab	1.1848674e-05
180	0xb8666480	-5.492987e-05
181	0xb5c582be	-1.4715695e-06
182	0xb712e9ed	-8.756743e-06
183	0x372d76c0	1.0339252e-05
184	0xb66878df	-3.464105e-06
185	0xb6b19146	-5.291923e-06
186	0x392f99a0	0.0001674653
187	0xb9262b4d	-0.00015847124
188	0x38327792	4.2549866e-05
189	0x3933f995	0.00017163747
190	0x3610a1e3	2.1551903e-06
191	0x37980d33	1.8125958e-05
192	0xb6fc8f52	-7.52687e-06
193	0x3820a0a9	3.82966e-05
194	0x3538e490	6.8877944e-07
195	0xb5a471f0	-1.2252112e-06
196	0xb6cc615c	-6.091008e-06
197	0xb7144643	-8.8378465e-06
198	0x37b28be0	2.1284388e-05
199	0xb68929ac	-4.0877694e-06
200	0xb7d93dcd	-2.5897194e-05
201	0x37035c7b	7.829741e-06
202	0xb593b5e8	-1.1005295e-06
203	0xb9309ca4	-0.00016843021
204	0xb6fb86d1	-7.4960776e-06
205	0xb848351f	-4.773319e-05
206	0x389359e6	7.026251e-05
207	0xb7fc11b6	-3.0048988e-05
208	0x35558d23	7.9554064e-07
209	0x3638bad3	2.7526883e-06
210	0xb85b016a	-5.2214986e-05
211	0xb764a287	-1.36277e-05
212	0xb70ba606	-8.323701e-06
213	0x34b4ff08	3.3713172e-07
214	0x37cf0ab4	2.4681307e-05
215	0xb712f3a1	-8.759002e-06
216	0xb8057c3a	-3.1825366e-05
217	0x37c6b598	2.3688e-05
218	0x36e81f4a	6.9177813e-06
219	0x384b52c8	4.8476068e-05
220	0xb9140749	-0.00014117094
221	0xb71be897	-9.292874e-06
222	0xb7931724	-1.7534541e-05
223	0x377cdd80	1.50719425e-05
224	0xb6c8862f	-5.9760855e-06
225	0xb8186be6	-3.6340112e-05
226	0x36276e88	2.4949277e-06
227	0xb7507320	-1.2424571e-05
228	0x370d519f	8.423259e-06
229	0xb4f02802	-4.4732593e-07
230	0x38520fbc	5.0082555e-05
231	0x37170703	9.001934e-06
232	0x35e51d6d	1.7070394e-06
233	0x37db21f2	2.6122641e-05
234	0xb5a9681f	-1.2621784e-06
235	0x378196a6	1.544815e-05
236	0x374b8068	1.212964e-05
237	0x3914766d	0.00014158497
238	0x364a0f81	3.010937e-06
239	0xb62cedd6	-2.5768436e-06
240	0xb600f244	-1.9214503e-06
241	0xb6115206	-2.1654428e-06
242	0xb72cd697	-1.0301962e-05
243	0x38557750	5.0894276e-05
244	0x3624178a	2.4451606e-06
245	0xb69e48e0	-4.7172507e-06
246	0xb7f4293e	-2.9106272e-05
247	0xb9287f64	-0.00016069185
248	0x36c66dc6	5.913639e-06
249	0xb6382432	-2.7439205e-06
250	0x360b744b	2.0780305e-06
251	0x373a65ae	1.1110138e-05
252	0xb91ced1d	-0.00014965651
253	0xb6e81ca6	-6.917474e-06
254	0x3864613c	5.4449993e-05
255	0x39078f0c	0.00012927892

lstm.bias_hh_l0 f4 [256]
0	0x376e9efc	1.4222922e-05
1	0x3424fd99	1.5365949e-07
2	0x378d4b83	1.6843673e-05
3	0x3782ed0c	1.5607591e-05
4	0xb9303050	-0.00016802666
5	0x36bbee9e	5.600813e-06
6	0x36b881b6	5.4987277e-06
7	0x35adcc30	1.2948931e-06
8	0x37b48ec0	2.1524145e-05
9	0x379eb6b7	1.8920151e-05
10	0xb64fdec1	-3.0975064e-06
11	0xb7a1776d	-1.9248308e-05
12	0x35161207	5.590559e-07
13	0xb858ca3c	-5.168676e-05
14	0xb6873638	-4.0296254e-06
15	0x37da6449	2.6034324e-05
16	0xb764a970	-1.3629309e-05
17	0xb758069d	-1.2876143e-05
18	0x3637aec8	2.737086e-06
19	0xb58952f0	-1.0231433e-06
20	0x3585ba00	9.963405e-07
21	0xb6201bac	-2.3857965e-06
22	0xb818dddd	-3.644625e-05
23	0xb70530c1	-7.938769e-06
24	0xb6b7f854	-5.482734e-06
25	0xb80b9f54	-3.328857e-05
26	0xb6b2c6cc	-5.3279564e-06
27	0x3838fd4f	4.410493e-05
28	0xb59bfb50	-1.1621541e-06
29	0xb70a1034	-8.229214e-06
30	0xb7506a90	-1.2422577e-05
31	0xb6970820	-4.5010966e-06
32	0xb7fc24e8	-3.0057927e-05
33	0xb5e04669	-1.6709793e-06
34	0x35921b4e	1.0885794e-06
35	0xb7b3b198	-2.1421161e-05
36	0x3832b077	4.2602853e-05
37	0xb6b5499a	-5.4027887e-06
38	0x38676817	5.5171633e-05
39	0x385c7e9d	5.2570005e-05
40	0xb772bb99	-1.44680025e-05
41	0xb739a826	-1.1066009e-05
42	0xb76828d0	-1.383778e-05
43	0x385dbf07	5.2868414e-05
44	0xb7168738	-8.97218e-06
45	0x35968dba	1.1217119e-06
46	0x3860f5b3	5.3634587e-05
47	0x3714cee0	8.869654e-06
48	0x3861a620	5.3798896e-05
49	0x3798bcfc	1.8207815e-05
50	0xb8196e87	-3.658098e-05
51	0xb806475a	-3.201454e-05
52	0xb709d1fc	-8.214727e-06
53	0xb668b788	-3.4677523e-06
54	0x334c5884	4.7577956e-08
55	0x38ac9f1d	8.231236e-05
56	0xb4f07b0e	-4.4793018e-07
57	0x37aa4716	2.0298681e-05
58	0x350536f2	4.9626317e-07
59	0x3790ac95	1.7246502e-05
60	0x37564bfa	1.2773084e-05
61	0xb752e1a1	-1.2569509e-05
62	0xb4828b96	-2.431595e-07
63	0x378f955d	1.7116481e-05
64	0xb7f44b10	-2.912202e-05
65	0xb736b96d	-1.0891218e-05
66	0xb6a935b1	-5.042843e-06
67	0x35ea17f4	1.744133e-06
68	0x38d5ea40	0.00010200264
69	0x382439dd	3.9154536e-05
70	0xb781acb3	-1.5458418e-05
71	0xb48e5786	-2.6513243e-07
72	0x37867265	1.6027314e-05
73	0xb8f8fe76	-0.000118729586
74	0xb70b4417	-8.300899e-06
75	0x37730c31	1.4486767e-05
76	0x37a39f8c	1.9505409e-05
77	0xb66ee9a4	-3.560076e-06
78	0x3862441c	5.394603e-05
79	0xb6a5c6fa	-4.940547e-06
80	0x37ad25e7	2.0640857e-05
81	0xb793f657	-1.7638476e-05
82	0xb59259ca	-1.090398e-06
83	0xb6f954ef	-7.430666e-06
84	0x3741261a	1.1512568e-05
85	0x386367b3	5.4217595e-05
86	0xb7a64ef4	-1.9825507e-05
87	0xb481d9c6	-2.4186573e-07
88	0xb5cd9bfe	-1.531909e-06
89	0x393426f1	0.00017180644
90	0xb70b9e88	-8.321957e-06
91	0xb8e0b2e1	-0.00010714471
92	0xb7a686df	-1.9851546e-05
93	0x38352b31	4.3193988e-05
94	0xb727ce6e	-1.0002039e-05
95	0x3867f318	5.530109e-05
96	0xb7151750	-8.88652e-06
97	0x37a572d9	1.9723013e-05
98	0xb6750adc	-3.6514166e-06
99	0x359c2918	1.1634866e-06
100	0xb5e09cfa	-1.6734987e-06
101	0x355a7b1c	8.1390476e-07
102	0xb240f900	-1.1232487e-08
103	0x3897976e	7.228447e-05
104	0x37e014fa	2.6712649e-05
105	0xb753a33d	-1.2614587e-05
106	0xb7bbb042	-2.2374214e-05
107	0xb77bc134	-1.5005749e-05
108	0xb71516cd	-8.886401e-06
109	0x37e96c40	2.7826172e-05
110	0x377fba04	1.5242495e-05
111	0xb630b54e	-2.6331577e-06
112	0x38aba05b	8.183784e-05
113	0x38e8d504	0.00011102299
114	0xb5f7c1ac	-1.84593e-06
115	0xb5963fa6	-1.1194395e-06
116	0x36be378b	5.6689073e-06
117	0x36a1d74f	4.823239e-06
118	0xb5ad75e2	-1.2923813e-06
119	0xb5b60458	-1.3561321e-06
120	0x37da43c8	2.6019188e-05
121	0xb5967f30	-1.1212887e-06
122	0xb923868e	-0.00015595017
123	0xb8e1792f	-0.00010751408
124	0x35b2fb94	1.3335252e-06
125	0x36b5ced1	5.418297e-06
126	0x3934260d	0.00017180313
127	0x3495903a	2.785835e-07
128	0xb827efe4	-4.003932e-05
129	0x37f4232e	2.9103448e-05
130	0xb5ff26c1	-1.9010259e-06
131	0xb861ef06	-5.386679e-05
132	0xb5e23564	-1.6853851e-06
133	0xb860f94d	-5.363794e-05
134	0xb87f649e	-6.0890445e-05
135	0xb85adb26	-5.2179348e-05
136	0xb900692a	-0.00012246208
137	0x36c5c7ca	5.894316e-06
138	0x31342600	2.6215048e-09
139	0xb8102dd3	-3.4374953e-05
140	0x36eed387	7.1175778e-06
141	0x3620ee1a	2.3980451e-06
142	0xb79e77d4	-1.8890867e-05
143	0x3769a317	1.3925855e-05
144	0xb7a4abeb	-1.9630379e-05
145	0xb83fd9f8	-4.5740948e-05
146	0xb55e837a	-8.289277e-07
147	0x3786b514	1.6058366e-05
148	0x3707888f	8.078422e-06
149	0xb6f1ad9e	-7.2025714e-06
150	0x3751b054	1.2498425e-05
151	0xb792b258	-1.7487604e-05
152	0xb8c44058	-9.357993e-05
153	0xb713add6	-8.802357e-06
154	0x37702cfe	1.431559e-05
155	0xb8098d80	-3.2795127e-05
156	0x384dc642	4.906045e-05
157	0xb792c550	-1.7496437e-05
158	0xb634dab4	-2.6949392e-06
159	0x3914ff04	0.0001420938
160	0x37682e91	1.383912e-05
161	0x3712159e	8.707311e-06
162	0x36cf9d04	6.1873598e-06
163	0xb7b80edf	-2.1941434e-05
164	0xb6c4dd6c	-5.867032e-06
165	0xb5436e56	-7.280372e-07
166	0xb8ce41b2	-9.835082e-05
167	0x36a06ccb	4.7810368e-06
168	0x36f13488	7.188475e-06
169	0xb67f8657	-3.8076157e-06
170	0xb76358da	-1.3550942e-05
171	0xb6a65db6	-4.958095e-06
172	0xb543d754	-7.2956504e-07
173	0x389ada5c	7.383965e-05
174	0x376f137c	1.4250047e-05
175	0x37d98c02	2.5933612e-05
176	0x350353c0	4.8923175e-07
177	0x376bcbb2	1.4054518e-05
178	0xb7a67b21	-1.9846078e-05
179	0x34c7d5f4	3.722231e-07
180	0xb520f8b1	-5.996654e-07
181	0x37eec6d7	2.8464403e-05
182	0xb832637e	-4.2531166e-05
183	0xb8bf54fc	-9.123419e-05
184	0xb868453e	-5.5377597e-05
185	0xb7a79dcd	-1.9981433e-05
186	0xb88ddfa0	-6.765057e-05
187	0xb8642fed	-5.440407e-05
188	0xb4f00724	-4.470868e-07
189	0x37752de8	1.4613826e-05
190	0x36625a74	3.3729275e-06
191	0xb8648823	-5.4486223e-05
192	0xb8a4bc66	-7.855221e-05
193	0xb8322a23	-4.247775e-05
194	0x37a33693	1.9456527e-05
195	0xb6c29f3c	-5.800188e-06
196	0x36ed0409	7.06362e-06
197	0x36b0a078	5.2638898e-06
198	0xb67cfb57	-3.7697225e-06
199	0x3750efac	1.2453569e-05
200	0x3933c050	0.00017142412
201	0xb6262bfb	-2.4761528e-06
202	0xb9255a05	-0.00015769161
203	0xb6118640	-2.1684828e-06
204	0x35f5ccf5	1.8313573e-06
205	0x38e84070	0.000110746245
206	0x3620d674	2.3966686e-06
207	0x369ebb5b	4.730578e-06
208	0xb50c67b8	-5.2304995e-07
209	0xb7dd9f18	-2.6419337e-05
210	0xb7d65cb6	-2.555396e-05
211	0x3785cae5	1.5949316e-05
212	0xb8a93bf8	-8.069718e-05
213	0x385f7fab	5.3286243e-05
214	0x3561ec54	8.4162934e-07
215	0xb5843e4c	-9.852897e-07
216	0xb8e63d18	-0.00010978634
217	0x36df36e4	6.652308e-06
218	0xb6c55165	-5.880533e-06
219	0xb7ec68d0	-2.81822e-05
220	0xb80a1f21	-3.2930755e-05
221	0xb8cc26df	-9.734718e-05
222	0x38659018	5.4732052e-05
223	0x381a793a	3.6829362e-05
224	0xb30616a8	-3.1219912e-08
225	0xb590e6c3	-1.0795997e-06
226	0x344cec5e	1.908497e-07
227	0xb5b15513	-1.3212288e-06
228	0xb74ae92b	-1.2094427e-05
229	0x37dcc5e7	2.63182e-05
230	0x37cfaae2	2.4755896e-05
231	0x36bb62da	5.584542e-06
232	0xb8404b73	-4.5846635e-05
233	0xb8625328	-5.3960044e-05
234	0x368ca24e	4.19122e-06
235	0x363577ac	2.704076e-06
236	0x3702372d	7.76145e-06
237	0xb64e86e3	-3.0774906e-06
238	0xb79bb31d	-1.8560846e-05
239	0x37fade52	2.9905848e-05
240	0xb8e2351d	-0.00010786413
241	0x363693c6	2.7206129e-06
242	0x3778818a	1.4812113e-05
243	0x37abf19c	2.0497297e-05
244	0x379de789	1.8823675e-05
245	0x38674e61	5.5147688e-05
246	0xb6cfad4c	-6.189255e-06
247	0xb83a4d5f	-4.4417913e-05
248	0x37fb35d6	2.9946601e-05
249	0x37f5a7c4	2.9284398e-05
250	0x37047dac	7.897073e-06
251	0xb77cb7b0	-1.5063139e-05
252	0xb36d7f80	-5.5296823e-08
253	0xb78b65ac	-1.6617436e-05
254	0xb6fb6a0c	-7.4927284e-06
255	0xb7d14e2b	-2.4951141e-05

lstm.weight_ih_l1 f4 [256, 64]
0	0x3abb038e	0.0014268027
1	0x3dbf55f7	0.09342568
2	0xbc4e7be4	-0.01260278
3	0xb8783d80	-5.9185084e-05
4	0x3d94fb21	0.072744615
5	0xba7c22e9	-0.0009618239
6	0x3c15e0e7	0.009147859
7	0x3bc15523	0.0059000417
8	0x3d94dcf7	0.07268708
9	0xbc66f39a	-0.014096165
10	0xbd5bc972	-0.05365891
11	0x3da1cd60	0.079005
12	0xbb4cc3e1	-0.0031244683
13	0x3d9a0708	0.07520872
14	0xbc3c1f8e	-0.011482133
15	0xbc9d1260	-0.019173801
16	0xbd8ec8eb	-0.06971916
17	0xbdc21417	-0.09476488
18	0xbc6827cf	-0.014169647
19	0x3b4887bb	0.003059848
20	0x359bfe2c	1.1622374e-06
21	0x3d94f45b	0.072731696
22	0x3d2a8ffe	0.041641228
23	0xbd559d4f	-0.052151974
24	0x3d9c3ad6	0.076284096
25	0x3d95cffb	0.0731506
26	0x3dc17b24	0.09447315
27	0xbdd65d18	-0.10466975
28	0x3df7d207	0.121006064
29	0xbcb2fb2e	-0.021848287
30	0x3d32552e	0.043538265
31	0x3d8e37b8	0.06944221
32	0x3cf5311c	0.029930644
33	0xbb94d10a	-0.004541521
34	0x3a9d1e3e	0.0011987162
35	0xbd3ed6f4	-0.046591714
36	0x3ca842d0	0.020539671
37	0xbcabbdac	-0.020964466
38	0xbb21d317	-0.002469247
39	0xbc1a6c3a	-0.009425217
40	0xbd11bb7a	-0.035579182
41	0xbcc2e5fe	-0.02379131
42	0xbd4a8526	-0.049443386
43	0xbc1d6ab1	-0.009607957
44	0xbb8e10f3	-0.0043355166
45	0x3ca14370	0.019685477
46	0x3b90fd7e	0.00442475
47	0xbd041ab2	-0.03225202
48	0xbd337b84	-0.043818966
49	0xbdca57be	-0.09880017
50	0xbcffa53c	-0.03120672
51	0xbc84bb05	-0.01620246
52	0x3cfb8d0a	0.030706901
53	0x3c2f88d3	0.010713774
54	0xbda1fe8c	-0.07909879
55	0xbb9a786b	-0.004714062
56	0xbcf54f5b	-0.029945066
57	0x3ba2f00f	0.004972465
58	0x3d117a37	0.035516944
59	0xbd34d6de	-0.044150226
60	0xbc700c9a	-0.014651442
61	0x3d974bd8	0.07387513
62	0xbc961e86	-0.018325102
63	0xbc7987d8	-0.015230142
64	0xbc99edbf	-0.018790124
65	0xbd8888e9	-0.066667385
66	0xbc930c6e	-0.017950263
67	0xbd0c3a1d	-0.03423511
68	0x3d7e9287	0.062151458
69	0xba77aa01	-0.0009447635
70	0x3aedcfa6	0.0018143549
71	0xbb786fb4	-0.0037908377
72	0xbc88a6b5	-0.016681055
73	0x3cf6861a	0.030093241
74	0x3d1bcf95	0.038039763
75	0xbda60a8e	-0.08107482
76	0x3c95cae6	0.018285226
77	0xbc14c068	-0.009079076
78	0x3c995d65	0.018721292
79	0xbab48c28	-0.001377468
80	0x3cb85fae	0.022506561
81	0xbd2e5d9a	-0.042569734
82	0x3bf095b7	0.007342066
83	0xbc1a1c14	-0.009406108
84	0xbc7d5723	-0.01546267
85	0xbd824156	-0.06360118
86	0xbc2efbe7	-0.010680175
87	0x3b9dad42	0.0048119137
88	0x3d1b2b2a	0.03788296
89	0x3d80aa02	0.062824264
90	0xbd1a8a68	-0.03772965
91	0x3c872dfc	0.01650142
92	0xbd01399f	-0.031549092
93	0x3ce72606	0.028216373
94	0x3d22fa1d	0.039789308
95	0x3c1a7133	0.009426403
96	0x3cbdaa12	0.023152385
97	0xbda89a9f	-0.08232617
98	0x3c8a7e35	0.016905883
99	0x3d225bb9	0.039638255
100	0xbac28e68	-0.0014843466
101	0x3dac039d	0.08399127
102	0xbb2192d5	-0.002465417
103	0xbc66dd27	-0.014090813
104	0x3cad11c5	0.021126637
105	0xbac9f62c	-0.0015408448
106	0xbd01471a	-0.03156195
107	0xbcb4d9f4	-0.022076584
108	0xbd88b52f	-0.06675183
109	0x3d4f8f91	0.050674025
110	0xbbd4d95b	-0.0064956374
111	0x3d1ae818	0.037818998
112	0x3ace8489	0.0015756051
113	0x3d541ee2	0.051787265
114	0xbd910d66	-0.07082634
115	0xbca2acc7	-0.019857777
116	0xbc480aac	-0.012209576
117	0x3b189ff9	0.002328871
118	0xbca6648d	-0.020311618
119	0x3b29d839	0.0025916232
120	0x3cb8a4d3	0.022539532
121	0xbc2f0797	-0.010682962
122	0x3c6c5d9c	0.014426615
123	0x3d62aa47	0.05533817
124	0xbaeb3638	-0.0017945236
125	0xbc8f0f7a	-0.017463434
126	0x3ccf35b3	0.02529416
127	0x3d11f574	0.035634473
128	0xbc9a327c	-0.018822901
129	0xbda7944d	-0.08182583
130	0x3cc8c3af	0.024507372
131	0xbbd801ab	-0.0065919957
132	0xbc0f9a5b	-0.008764829
133	0x3c589cd0	0.013220981
134	0x3c318f32	0.010837363
135	0xbcba135a	-0.022714306
136	0x3d1404fc	0.036137566
137	0xbcb9abb3	-0.02266488
138	0xbd488722	-0.048956998
139	0x39b59765	0.00034635808
140	0x3d241424	0.04005827
141	0xbc4d9020	-0.012546569
142	0x3ba9a050	0.0051765814
143	0x3a04c765	0.00050651125
144	0xbabfd74d	-0.0014636308
145	0xbd3f482e	-0.046699695
146	0xbc9e5e25	-0.019332001
147	0xbc019cb4	-0.007910896
148	0x3c273e6a	0.010207752
149	0xbd95bf97	-0.073119335
150	0x3b0e570d	0.0021719367
151	0xbcd7754c	-0.026301049
152	0x3d0ad578	0.033894986
153	0xbd5c31a0	-0.053758264
154	0xbd91e8ce	-0.07124482
155	0x3bdee04c	0.0068016406
156	0xbda404b0	-0.080087066
157	0x3ca5f705	0.02025939
158	0xbd77452e	-0.06036871
159	0x3cf0c89e	0.029392537
160	0xbb9459af	-0.0045272927
161	0x3d916385	0.0709906
162	0x3baeedb6	0.005338396
163	0x3d4fe9c3	0.050760042
164	0x3b94d8a6	0.004542428
165	0x3d805afd	0.06267355
166	0xbc4d1c53	-0.01251896
167	0x3c39acff	0.011332749
168	0x3cd56c40	0.026052594
169	0xbaff7466	-0.0019489645
170	0x3a33b686	0.0006855506
171	0x3bcdf1f1	0.006284945
172	0xbcbec372	-0.023286555
173	0xbb8a2d46	-0.004216823
174	0x3c690678	0.014222734
175	0xbd0febd8	-0.035137028
176	0x3ca2fb29	0.019895153
177	0xbcb426e8	-0.021991208
178	0xbd4633e3	-0.048389327
179	0x3c1da4b3	0.009621787
180	0xbd45e2b7	-0.048311915
181	0xbcbd7f15	-0.023131886
182	0xbd597698	-0.053091615
183	0xbbf621f1	-0.0075113703
184	0x3ceb75a2	0.028742615
185	0x3c4adcd1	0.012381748
186	0xbd806e34	-0.062710196
187	0x3d27cd63	0.040967356
188	0x3c48406e	0.0122223925
189	0x3bbc947d	0.005755006
190	0xbaf13ee6	-0.0018405586
191	0xbcc7851e	-0.024355467
192	0x3cb3b0b5	0.021934846
193	0xbd87d52b	-0.066324554
194	0xbc958abe	-0.018254634
195	0xbc71ec78	-0.014765851
196	0xbadd1439	-0.0016866989
197	0xb8ae02d2	-8.297492e-05
198	0x3b3916fc	0.002824246
199	0xbccf0ea0	-0.025275528
200	0xbd66c249	-0.05633763
201	0xbdc8de60	-0.0980804
202	0xbd326fea	-0.04356376
203	0x3d062c0c	0.03275685
204	0xbbee423f	-0.0072710807
205	0x3d94cf46	0.07266097
206	0x3b27a66d	0.0025581375
207	0x3cc35bc1	0.023847463
208	0x3d54d2bb	0.05195878
209	0x3bd1a1a9	0.006397445
210	0xbc88e862	-0.016712371
211	0x3c08df4c	0.008354019
212	0xbbde5e62	-0.0067861537
213	0x3d808d55	0.06276957
214	0xbb897734	-0.0041951183
215	0xbc0afcc1	-0.008483113
216	0xbd8e7a64	-0.06956938
217	0x3d4524ef	0.048130926
218	0x3cf80de9	0.03028007
219	0xbd7a2796	-0.06107291
220	0xbdaac81d	-0.0833895
221	0xbc83d2ad	-0.016091669
222	0x3d61ea8c	0.055155322
223	0xbd11569c	-0.035482988
224	0xbcca9ef6	-0.024734002
225	0x3da0db17	0.07854288
226	0xbd22d89b	-0.039757352
227	0x3d735dca	0.059415616
228	0x3b9a15a6	0.0047022877
229	0x3c915ef2	0.017745469
230	0x3c4189a1	0.011812598
231	0x3c8112a3	0.015755957
232	0xbd0db54c	-0.034596726
233	0xbb47b783	-0.0030474372
234	0xbcc363f2	-0.023851369
235	0x3d2713cf	0.040790375
236	0x3d811945	0.06303648
237	0xbc60da3e	-0.013723908
238	0xbc13606b	-0.008995156
239	0x3c985407	0.018594755
240	0xbd3b34d9	-0.045704696
241	0xbbb5ab8d	-0.005544132
242	0xbd0691cc	-0.032853886
243	0x3cb670e9	0.022270637
244	0x3cb43faa	0.022003014
245	0xbcaef50d	-0.021357084
246	0xb9bd4ef4	-0.00036107714
247	0x3b7c9538	0.003854109
248	0x3b0c1b0e	0.002137843
249	0x3c3bc11b	0.011459614
250	0x3c9b3f4c	0.01895108
251	0xbb77b536	-0.003779722
252	0x3bcc4efd	0.006235002
253	0xbc3303b9	-0.0109261805
254	0xbaa26e00	-0.0012392402
255	0x3d145596	0.036214434

lstm.weight_hh_l1 f4 [256, 64]
0	0xbd55892f	-0.05213278
1	0xbd2d22c8	-0.042269498
2	0x3c829f89	0.015945213
3	0xbc65ab78	-0.014017932
4	0xbcd4aac0	-0.025960326
5	0xbd47be06	-0.048765205
6	0x3c13b2bc	0.009014782
7	0xbc392005	-0.011299138
8	0x3d14ca33	0.036325645
9	0xbb4fcc57	-0.003170749
10	0xbc11bae3	-0.008894655
11	0xbd1d68a9	-0.03842989
12	0xbc80bd40	-0.015715241
13	0x3bf19c03	0.0073733344
14	0x3cc29239	0.023751365
15	0x3cfffdf4	0.031249024
16	0x3c90e708	0.01768829
17	0xbca73a10	-0.020413429
18	0x3bd01c30	0.0063510165
19	0xbc4e022e	-0.012573762
20	0x3bdae073	0.0066795885
21	0x3cdd0ab5	0.026982645
22	0xbc0f5c94	-0.0087501
23	0x3c1c71b4	0.009548593
24	0x3ca2716e	0.019829478
25	0x3d043386	0.0322757
26	0xbd34dd3c	-0.044156298
27	0xbcf01252	-0.02930561
28	0x3c6b53c7	0.014363236
29	0xbcefb376	-0.029260378
30	0x3cfeec0f	0.03111842
31	0xbc7603b0	-0.015015528
32	0x3c05bc02	0.0081625
33	0x3caaf574	0.020868994
34	0x3b3f0b0f	0.0029150879
35	0x3d247f1f	0.040160295
36	0xbd50c0bf	-0.050965067
37	0x3c00fe94	0.007873196
38	0xbc76170b	-0.015020142
39	0x3cb344a5	0.021883318
40	0x3c9bb562	0.019007389
41	0xbcf089aa	-0.029362518
42	0x3cfffdcf	0.031248955
43	0x3bcfefd8	0.0063457303
44	0x3d491384	0.049090877
45	0xbd3cf286	-0.046129726
46	0xbbd1081d	-0.006379141
47	0xbafd316a	-0.0019317095
48	0xbc93c72c	-0.018039308
49	0x3d0ed90a	0.034874953
50	0x3cf860fe	0.030319687
51	0x3cb228cb	0.021747967
52	0x3c99f845	0.018795142
53	0x3cf8f138	0.03038846
54	0x3cf31397	0.029672427
55	0xbcbf6e92	-0.023368154
56	0x3b99c74c	0.0046929475
57	0x3c9a5534	0.018839456
58	0xbc6448c3	-0.013933363
59	0x3bc3998e	0.005969233
60	0xbb36e7ac	-0.0027909083
61	0xbad1cb93	-0.0016006104
62	0x3d373a04	0.044733062
63	0x3aef0d74	0.0018238262
64	0x39c71022	0.00037968258
65	0xbc547292	-0.012966769
66	0xbc0f2fa9	-0.00873939
67	0xbb88d903	-0.0041762604
68	0xbc41211d	-0.01178768
69	0x3cd91e95	0.02650384
70	0x3c17a6b0	0.00925605
71	0x3c242419	0.010018372
72	0xbcb49a72	-0.022046302
73	0x3bf1ab3f	0.0073751505
74	0x3a25fe58	0.00063321507
75	0x3b4e9aaa	0.0031525292
76	0x3a0435e1	0.0005043429
77	0x3bb6bbce	0.0055765873
78	0x3c22c32f	0.009934231
79	0x3bc1be65	0.0059125894
80	0xbbea569c	-0.007151438
81	0x3bdceda7	0.0067421976
82	0x3c0a42ff	0.008438825
83	0xbb88ce51	-0.0041749855
84	0xbbaee4ee	-0.005337349
85	0xbc7606aa	-0.015016237
86	0xbbd9cfd5	-0.00664709
87	0x3bc7252d	0.0060774297
88	0x3a44be69	0.000750518
89	0x3ba9ea17	0.0051853764
90	0x3c559a75	0.013037314
91	0xbbab9340	-0.0052360594
92	0x3c1baf60	0.009502262
93	0x3bcb6c9e	0.0062080165
94	0xbc64a467	-0.013955212
95	0xbb1cd5b8	-0.0023931097
96	0xbce504ae	-0.027956333
97	0xbb2d08ca	-0.0026402944
98	0xbc4e9300	-0.01260829
99	0xbc12677d	-0.008935806
100	0x3a484f7e	0.000764124
101	0xbc2b1a5c	-0.010443296
102	0xbc0d6348	-0.0086296275
103	0x3a0035fe	0.0004890858
104	0x3c7ea2b8	0.015541725
105	0x3c943f2b	0.018096527
106	0x3cbced54	0.023062386
107	0xbaab07f2	-0.0013048633
108	0xbb0837f7	-0.002078531
109	0xbc74e02b	-0.014946024
110	0x3ba42f81	0.0050105457
111	0x37a83cfe	2.0055562e-05
112	0xbc05dc4c	-0.008170199
113	0x398bdaa1	0.00026675037
114	0xbb512722	-0.0031914194
115	0x3c77bf12	0.015121238
116	0x3ae87ef9	0.0017738036
117	0xbcce223d	-0.02516281
118	0xbbf14b29	-0.007363696
119	0x39074d6c	0.00012903445
120	0xbc1677bf	-0.009183823
121	0x3c9c1e1c	0.019057326
122	0xbb47c8d0	-0.0030484684
123	0xb9e4368c	-0.0004352819
124	0xbb9ee20a	-0.0048487233
125	0x3b5b385f	0.0033450348
126	0x3ba62940	0.0050708354
127	0xbc35f4eb	-0.011105756
128	0x3b131bb0	0.0022446923
129	0xbcac4921	-0.021030964
130	0xbbb3d780	-0.005488336
131	0x3ac48978	0.0014994582
132	0x3ba6c7bb	0.0050897277
133	0xbbe77ceb	-0.007064452
134	0x3b8c5cd4	0.004283527
135	0xbb0ebeb7	-0.0021781155
136	0x3b9937d8	0.0046758465
137	0x3b332d11	0.0027340094
138	0x3c773164	0.015087459
139	0xb9d0ec6c	-0.00039849
140	0xb9c6b540	-0.00037900545
141	0x3aa609dc	0.0012667733
142	0xba394df3	-0.0007068805
143	0xbc150cec	-0.009097319
144	0xbb2d50ac	-0.002644579
145	0x3b43db61	0.0029885399
146	0x39170fa0	0.00014406303
147	0x3bed4cc5	0.0072418177
148	0x3bd5b799	0.0065221307
149	0xbc51b157	-0.012798629
150	0xba52c0ce	-0.00080395944
151	0xbc096008	-0.008384712
152	0x3c70bd83	0.014693621
153	0xbb4d3b85	-0.0031315994
154	0x3c279dad	0.010230464
155	0x3c00d113	0.007862347
156	0xbb8d5eed	-0.0043142946
157	0x3bc4e68b	0.006008928
158	0xbc873fc8	-0.016509905
159	0xbb00d546	-0.001965837
160	0xbc1ee103	-0.009697202
161	0xbc427309	-0.011868247
162	0xbb9f9e6a	-0.0048711793
163	0xbb4c6cf4	-0.003119287
164	0x3b7226f7	0.0036949494
165	0xbbe1c3e4	-0.006889807
166	0xbb84e916	-0.0040561063
167	0xbae1647d	-0.0017196086
168	0xbbd87a5b	-0.006606383
169	0x3b2dfa82	0.002654702
170	0xba8a76df	-0.0010563991
171	0xbaba8eb2	-0.00142332
172	0xba17db3b	-0.0005792861
173	0x3c2da19b	0.010597612
174	0x3b1c35d2	0.002383579
175	0xbbb620cd	-0.0055581094
176	0x3bcfdf14	0.0063437317
177	0x3a889fe5	0.0010423629
178	0x3b1c58b5	0.0023856584
179	0x39cb331a	0.0003875725
180	0xbba66fbd	-0.005079238
181	0x3b7bc106	0.0038414611
182	0x3ac936de	0.0015351435
183	0x3bfee33e	0.007778554
184	0xbb7e3ecc	-0.0038794754
185	0xbbba4baa	-0.0056852894
186	0x3beb523c	0.007181434
187	0xbb33c1fa	-0.0027428851
188	0x39b37be9	0.0003423386
189	0xbc374eb9	-0.011188203
190	0x3aead980	0.0017917603
191	0x3ae35db8	0.0017346656
192	0x3b7bbfac	0.0038413806
193	0xbcb56f78	-0.022147879
194	0x3bb01f76	0.005374844
195	0xbc53450e	-0.012894882
196	0x3a550e70	0.00081274565
197	0xbc1cbecd	-0.009566975
198	0xbbb8bd2a	-0.0056377845
199	0x3af74669	0.0018865588
200	0x3c093f07	0.008376843
201	0xbc080c3a	-0.008303696
202	0xbb6f672a	-0.0036529996
203	0xbba70588	-0.005097095
204	0x3bbd18f2	0.005770796
205	0x3a0ae5c0	0.00052985176
206	0x3bd539e2	0.0065071443
207	0xbc1508b4	-0.009096313
208	0x3b64c840	0.0034909397
209	0xbbf2450c	-0.007393485
210	0xbb8940ac	-0.0041886177
211	0xbc943895	-0.018093387
212	0x3c801add	0.01563781
213	0x3b9cae00	0.0047814846
214	0xbc17d490	-0.009266987
215	0xbc8d2290	-0.017228395
216	0x3c29a2b4	0.010353733
217	0x3c560a8b	0.013064037
218	0xbc98251d	-0.018572384
219	0xbbe0a93a	-0.006856111
220	0xbc3ed33e	-0.011647044
221	0x3c4ce666	0.012506103
222	0x3b92b4ad	0.0044771046
223	0xba31a56b	-0.00067766634
224	0x3bcde6d3	0.00628362
225	0xbd1158bb	-0.03548501
226	0x3b434d1b	0.0029800597
227	0xbc9c6165	-0.01908941
228	0xbcaeb904	-0.021328457
229	0x3cbe7fdd	0.02325433
230	0x3c2304df	0.009949892
231	0xbb10a54a	-0.0022071176
232	0xbbfa80e4	-0.0076447595
233	0xba92f44c	-0.0011211722
234	0x3ba43517	0.0050112116
235	0xbb748010	-0.0037307777
236	0x3c8d85a5	0.01727564
237	0x3ad42ab4	0.0016187043
238	0x3b825250	0.0039770976
239	0xbb993916	-0.0046759946
240	0x3bdd1014	0.0067463014
241	0x38ed3190	0.000113102724
242	0xbc9d3d23	-0.019194191
243	0xbc58af3f	-0.013225376
244	0xbadb55b5	-0.0016733917
245	0xbbb2fb31	-0.0054620733
246	0x3afef228	0.001945083
247	0x3c4b256f	0.012399062
248	0xba36a650	-0.00069675315
249	0x3a6683bd	0.0008793434
250	0xbc1a0d3a	-0.0094025675
251	0xbbb9d991	-0.005671688
252	0x3c251453	0.010075646
253	0xbb96adca	-0.004598354
254	0xbc603099	-0.013683462
255	0xbb1f50c2	-0.002430961
