models/AIOTUSDT_lstm_20250822_020320.pth (torch, 267829 bytes, 11 tensors)

lstm.weight_ih_l0 f4 [256, 53]
000000 a8 76 a7 3c 50 7a c9 3d 00 df 2c 3b 7a f3 c3 3d
       0.020442322 0.098377824 0.0026378036 0.09567924
000010 8a a5 e9 bd e2 d5 95 3d 96 ec dc 3d 00 d6 05 3d
       -0.11408527 0.073161855 0.10787313 0.03267479
000020 34 1d e8 3d 80 6e c3 bb b4 71 83 bd f8 51 b0 3c
       0.11333695 -0.0059641004 -0.064181715 0.02152346
000030 f8 a9 d0 3d a4 10 b2 3d e0 1a b0 bc 6c c6 e8 bd
       0.10188669 0.0869458 -0.02149719 -0.11365971
000040 30 2c e9 bd 60 15 21 bc a6 8f f2 3d 60 58 c3 3c
       -0.11385381 -0.009831756 0.11843805 0.023845851
000050 60 5e dc bb 0e 73 e9 bd 88 f5 89 3d b8 34 bc bd
       -0.0067251176 -0.11398898 0.067362845 -0.09189743
000060 9e e3 b2 bd 4c 0e b1 3d 7e 90 ed bd 68 03 cd 3d
       -0.08734821 0.08645305 -0.11599825 0.10010415
000070 40 c6 9f 3b 78 2f ba bc 2a 37 b8 3d 60 a9 10 bc
       0.004875928 -0.022727713 0.08994897 -0.008829445
000080 d4 62 73 3d e0 b6 46 3c c8 23 b0 bd 74 55 86 3d
       0.05942042 0.012128562 -0.08600575 0.06559268
000090 90 89 27 3c 00 ef 6e bb c0 16 47 3b 60 21 b4 3b
       0.010225669 -0.0036458373 0.003037855 0.0054971427
0000a0 66 9a bb 3d 22 ee 8b 3d 00 51 d6 3b 00 c9 7e 3d
       0.091603085 0.068325296 0.0065404177 0.062203407
0000b0 a8 6d 9e bc 86 d5 8b 3d 30 86 aa bc bc 84 77 bd
       -0.019339398 0.06827836 -0.020815939 -0.06042932
0000c0 c0 c0 cf 3d ae 9d a1 3d b0 3b 38 bd 88 15 ab bc
       0.10144186 0.07891403 -0.044978797 -0.02088429
0000d0 4e 1e ea bd 24 1c 23 bd 50 dc 2d bd e2 1e f2 3d
       -0.114315614 -0.03982176 -0.042446434 0.11822297
0000e0 a8 a2 eb bd 60 66 29 3d 6e 51 bd 3d 9c f5 fb 3d
       -0.115056336 0.041357398 0.09244047 0.12302706
0000f0 d2 ec 95 3d 34 10 f3 bd d0 14 8a 3c 68 33 bf bd
       0.073205605 -0.11868325 0.016855627 -0.09335977
000100 bc 65 24 bd 54 fc f9 3d a8 d7 c5 bd 7a 70 aa 3d
       -0.040136084 0.12206331 -0.09660274 0.083222345
000110 30 ea c0 bc bc f7 f6 bd ca 16 df 3d ee 5e fe 3d
       -0.02354917 -0.1205897 0.108930185 0.1242045
000120 f8 d6 c1 3d b0 d8 ef 3c 46 e0 df bd 30 0f 29 bd
       0.0946483 0.02927813 -0.10931449 -0.04127425
000130 54 35 9f 3d d0 21 8f bc f8 fa 71 3d 24 53 6c 3d
       0.077738434 -0.017472178 0.059077233 0.057696477
000140 30 47 59 bd d8 c3 f5 3d 8c aa 01 3d 00 51 16 3a
       -0.053046405 0.12000245 0.031656787 0.0005734116
000150 0a 2f eb bd 48 f5 e3 3c 60 c5 fd bc ce ae c1 bd
       -0.11483581 0.02782692 -0.030977905 -0.094571695
000160 fa 7a e6 3d 84 e6 f9 3d e8 f1 f6 3c b8 37 72 3d
       0.11253925 0.122021705 0.030144647 0.05913517
000170 38 74 ff 3c fc a9 1b bd b0 3d 0b 3d 10 f0 9b bd
       0.031183347 -0.038003907 0.033994377 -0.07614148
000180 54 8f a4 3d 62 fb 8e bd 6c 99 ba bd 92 87 eb bd
       0.0803515 -0.06981541 -0.09111294 -0.11500467
000190 9a 6f a1 3d a4 e2 d7 bd 88 af 37 3d 78 d9 ed bc
       0.078826144 -0.10541275 0.044845134 -0.029034361
0001a0 30 1c 4b bc 8c 51 34 3d c0 7b bb bc 08 1e 25 bd
       -0.012396857 0.04402308 -0.022886157 -0.040311843
0001b0 68 36 94 bc 04 5b 0a 3d 16 75 86 bd cc 30 41 bd
       -0.01809235 0.033778206 -0.06565301 -0.047165677
0001c0 3a 71 fd bd c0 c7 98 bb 00 8c bb 3b 80 71 d4 3b
       -0.12375112 -0.004662484 0.0057234764 0.006483257
0001d0 e0 de aa bd 0e d2 89 3d e4 4c 4f 3d 1a 3d b3 bd
       -0.08343291 0.06729518 0.050610438 -0.087518886
0001e0 80 b8 a3 bb 8e 5e 92 bd b8 3d 84 3c fc 6d 70 bd
       -0.0049963593 -0.07146941 0.016142711 -0.05869864
0001f0 80 fc 4b bc b8 72 40 bd a4 6d 5c 3d c0 0e 33 bc
       -0.012450337 -0.046984404 0.0538155 -0.01092881
000200 5c 25 da 3d 6a 91 8f bd 5e ff db bd 0c c1 c5 3d
       0.10651657 -0.070101574 -0.10742067 0.096559614
000210 8c cf 45 3d 3c 59 93 bd 12 a3 c1 bd 2c 28 db bd
       0.048293635 -0.071947545 -0.09454931 -0.107010216
000220 20 63 fb 3c 40 a3 c3 3d c8 46 fe bd 10 2c 52 bc
       0.030686915 0.09552622 -0.12415844 -0.012827888
000230 6c 2c 48 3d 34 fd 6e 3d 0c 46 62 3d 06 cf 92 3d
       0.04887049 0.058346942 0.055242583 0.07168393
000240 e0 b1 b9 3c 70 09 04 bc 8c 2b 56 3d 24 3f 49 bd
       0.022667825 -0.008058891 0.052287623 -0.04913248
000250 6c e1 72 bd cc b9 9e 3d 70 05 45 bd c8 d6 36 3d
       -0.05929701 0.07750282 -0.04810089 0.044638425
000260 0e d1 f9 3d d4 48 48 bd 68 ed e1 bc b8 78 56 bd
       0.12198077 -0.04889758 -0.027579024 -0.05236122
000270 48 ea 4a 3d 30 f6 da 3c 72 ca b3 3d d8 b0 f4 bd
       0.049539834 0.02672872 0.08778848 -0.11947793
000280 c0 b6 e0 3c 20 04 3e 3c 7e a1 d1 3d ee 69 cd bd
       0.027430892 0.011597663 0.1023588 -0.1002997
000290 74 0a 54 3d 6e c3 a2 3d 64 43 a6 3d 1a b8 b5 bd
       0.05176778 0.079474315 0.081183225 -0.08873005
0002a0 b0 ab 3c 3d e8 80 d0 bd da 9c a7 3d 6e f0 88 3d
       0.04606217 -0.10180837 0.08184214 0.06686483
0002b0 3e 34 a4 3d 1c c7 e7 3d ae 3a cf 3d f2 2c b8 3d
       0.08017777 0.11317274 0.10118614 0.08992948
0002c0 fe cc 92 bd ec 69 c7 bd c4 ef 21 bd bc 65 d3 bd
       -0.071680054 -0.09737 -0.0395353 -0.10322139
0002d0 10 c1 b9 bc b8 e4 92 3d 00 fd 96 bb 00 69 2a 3d
       -0.022675067 0.07172531 -0.0046077967 0.041604042
0002e0 20 19 4c bc 40 70 bf bb 44 ea 9d 3d 1c 85 90 bd
       -0.012457162 -0.0058422387 0.07710698 -0.070566386
0002f0 fe 94 bc 3d ca f5 c3 bd 9c 62 85 3d 00 67 3e 3c
       0.092081055 -0.09568365 0.06512949 0.011621237
000300 6e ff a0 3d b6 bb 91 3d 04 0d 22 3d 00 63 d1 3c
       0.07861219 0.07115881 0.039563194 0.025559902
000310 b4 c2 c2 3d 70 03 7c bd 0a 6d b0 3d b0 62 ce 3d
       0.09509793 -0.061526716 0.086145476 0.10077417
000320 b0 cd 4b 3d 38 68 3c 3d 06 1d a5 3d 40 44 72 bb
       0.049756706 0.04599783 0.080621764 -0.003696695
000330 18 85 2e bd 9a 65 aa bd ec b2 dc bd 40 14 08 bb
       -0.042607397 -0.0832016 -0.10776314 -0.0020764023
000340 b6 e4 da bd bc 6f a5 3d 7c 14 e8 3d f4 e2 70 bd
       -0.106881544 0.08077952 0.11332032 -0.05881019
000350 c2 f0 e9 bd 76 b4 e0 3d 40 37 ee bd 2a 12 fc 3d
       -0.11422874 0.1097192 -0.11631632 0.12308152
000360 f0 6a 32 bc 20 1c de 3d a4 05 41 bd 84 dc 37 3d
       -0.010889754 0.10845208 -0.04712452 0.044888034
000370 40 e4 4c bb ac 71 33 3d 6a e3 f7 3d 22 9d 82 3d
       -0.0031263977 0.043809578 0.12103923 0.06377627
000380 b2 a8 e0 3d 3a 5d fa 3d 76 b6 c3 bd f4 0f 05 3d
       0.10969676 0.12224813 -0.09556286 0.032485917
000390 9e f5 d0 3d d0 65 73 bc 20 24 e6 bc 28 78 93 3d
       0.10203098 -0.014855817 -0.028093398 0.07200652
0003a0 52 c9 b1 3d 70 45 9a bc 9c 16 91 bd f0 fb 9e bc
       0.08680977 -0.018831939 -0.070843905 -0.019407243
0003b0 00 2c 60 3c 5c 47 65 3d 26 c4 a8 bd ce c9 b9 bd
       0.013682365 0.055976257 -0.08240537 -0.09071694
0003c0 d0 86 bf bd 48 55 e7 3d 48 9d 62 3d 58 3a 64 bd
       -0.09351885 0.11295563 0.055325776 -0.055719703
0003d0 fc 95 02 3d a0 3c d5 3c 58 9f 61 bd 3e 38 9f 3d
       0.031881317 0.026029885 -0.055083603 0.07774399
0003e0 c4 4e 30 bd 40 e1 2e bd d4 c1 e9 bd 24 1d 08 3d
       -0.043043867 -0.042695284 -0.11413923 0.033230916
0003f0 7e dc d8 3d 40 80 fd 3d d0 bd f3 bd d0 f5 01 bd
       0.105889305 0.12377977 -0.11901438 -0.031728566

lstm.weight_hh_l0 f4 [256, 64]
000000 c4 ea 66 3d f2 b9 f3 bd 74 cd 03 bd 7e f9 d8 3d
       0.056376234 -0.11900701 -0.032178357 0.10594462
000010 54 60 1b bd 52 00 d8 3d 80 8a 66 3d 86 d9 f3 3d
       -0.037933663 0.10546936 0.056284428 0.11906724
000020 cc 50 91 bd 30 a2 5f bc a0 86 c6 bb b4 63 f0 3d
       -0.07095489 -0.013649508 -0.006058529 0.11737767
000030 30 96 ed bd 98 76 e4 3d f0 a0 22 bd aa d7 d1 3d
       -0.116009116 0.111554325 -0.039704263 0.10246213
000040 3c 2e 35 bd 28 05 c0 bc e0 ad af bc ee c6 d8 3d
       -0.044233546 -0.023439959 -0.021445215 0.10584818
000050 ec 08 61 3d da e2 f8 bd 78 8c 56 3d 66 30 80 bd
       0.05494015 -0.121526435 0.052380055 -0.06259231
000060 80 0c ef 3d de 87 d9 bd c0 79 48 bd 3c c7 48 3d
       0.11672306 -0.10621618 -0.048944235 0.04901813
000070 50 02 48 bc 18 89 83 3c f6 20 b5 bd 78 82 0d bd
       -0.012207583 0.016056582 -0.088441774 -0.034548253
000080 b8 32 82 bc 88 b4 ff 3c 7e 8b 92 3d b0 8b ef bd
       -0.015893325 0.031214014 0.07155512 -0.11696565
000090 d0 08 70 bd 28 df a5 3c 00 7e 70 bb 9c 75 88 3d
       -0.058602154 0.02024801 -0.0036696196 0.06663057
0000a0 54 f5 4b bd 84 22 c4 3d b0 c5 f9 bc 88 c8 d3 3c
       -0.04979451 0.09576896 -0.030489773 0.025852457
0000b0 8e fd b8 3d 20 77 55 3c d0 63 7b 3d fc b6 d9 bd
       0.09032737 0.01302889 0.061374485 -0.106306046
0000c0 e6 c9 91 3d 50 a0 a3 bc bc 33 58 3d a0 97 84 bb
       0.07118587 -0.019973904 0.052783713 -0.0040463954
0000d0 4c 0d 31 bd 0a 15 9d bd 3e 7b c4 3d 24 6e 1e bd
       -0.04322557 -0.076700285 0.09593819 -0.038679257
0000e0 30 0a d0 bc 3c 95 38 bd 00 c8 b8 39 f0 8a fb bd
       -0.025395483 -0.045064196 0.00035244226 -0.122823596
0000f0 c2 fb d3 bd c0 2f ef 3b 7c 13 3f 3d de 94 93 bd
       -0.10350753 0.0072993934 0.04664944 -0.072061285
000100 70 7e d0 3c 88 39 5d bd 10 2d 52 bd b0 3f 27 3d
       0.025450915 -0.054009944 -0.051312506 0.04083222
000110 ba 14 c1 bd ec 5a 5b 3d f0 50 63 bd e0 c1 ac 3d
       -0.094277814 0.053553507 -0.05549711 0.08435416
000120 a0 9d 2a 3d 3c 51 5d bd 84 64 81 bd 28 26 ef 3c
       0.04165423 -0.05403255 -0.06318 0.029192999
000130 60 da 27 bd a8 06 a4 bc 5a c8 af 3d d8 69 9a 3c
       -0.040979743 -0.020022705 0.08583136 0.018849298
000140 7a 50 c7 bd 50 74 0a bc b0 a5 b6 bd 94 ef 3b bd
       -0.097321466 -0.008450583 -0.08918321 -0.045882776
000150 c6 e4 b0 3d 60 f7 8f bb ea 55 e6 bd 44 4e 0f 3d
       0.08637385 -0.004393503 -0.112468556 0.03498675
000160 50 3d 25 3d 1e f7 d4 bd ae c5 d3 3d c8 b8 ce 3d
       0.040341675 -0.10398696 0.10340439 0.10093838
000170 d8 4f e4 bd e8 db 11 3d 10 15 29 bd 4c af b7 bd
       -0.111480415 0.03561011 -0.041279852 -0.08968982
000180 00 7e c6 3b 78 c1 81 3c 18 2f 98 bd a0 a2 ac 3b
       0.006057501 0.015839323 -0.074308574 0.00526841
000190 20 c6 e1 bb 80 d4 a8 3d e0 74 09 3d a0 7f e9 bb
       -0.0068900734 0.08243656 0.033558726 -0.00712581
0001a0 b8 e2 cf bc f4 df 8c 3d 86 4d ba 3d 50 a7 fb 3d
       -0.025376663 0.06878653 0.09096818 0.12287772
0001b0 40 3d a2 3c d2 08 83 bd 68 e1 d3 bc ac 01 0c bd
       0.019804597 -0.06398167 -0.025864318 -0.034181282
0001c0 92 af 84 bd e4 8e 12 bd 10 ef 09 3d b0 9f c7 bd
       -0.064788 -0.035780802 0.033675253 -0.09747255
0001d0 da 24 a9 bd 00 21 79 ba e6 5a d9 bd 60 3c b0 bc
       -0.08258982 -0.00095035136 -0.106130406 -0.021513164
0001e0 30 6c 11 bd 14 f4 55 bd 66 8b d2 bd f4 fc 13 3d
       -0.035503566 -0.052234724 -0.102804944 0.036129907
0001f0 60 fc aa 3c ba 0b 91 3d 40 7d ff 3c e4 4e 7d bd
       0.020872295 0.07082315 0.031187654 -0.061842814
000200 f0 51 ac 3c f4 c8 4d bd 28 70 cd bd 3e 81 ba 3d
       0.021035165 -0.050240472 -0.10031158 0.09106682
000210 4c 01 c0 bd ee 2f 98 bd 32 2f ab 3d e6 a4 a1 bd
       -0.09375247 -0.07431017 0.08358611 -0.0789278
000220 8c 77 ed 3d 00 c1 6b 3b 56 a1 bc bd d8 a9 e3 3c
       0.115950674 0.0035973191 -0.0921046 0.027790949
000230 08 a0 92 3c f6 5b e3 3d 06 ec de 3d 48 26 4a bd
       0.017898574 0.111015245 0.10884862 -0.049352914
000240 48 e0 00 3d e2 ff d2 3d 3c 86 53 3d 2a dd f4 bd
       0.03146389 0.10302712 0.051641688 -0.11956246
000250 b8 bd 8d 3d f8 2d 8e bc bc 4f e8 bd a8 1a 25 bd
       0.069209516 -0.017355904 -0.11343333 -0.040308625
000260 28 de a2 bc 80 0c 82 3a d4 ac 2d 3d 90 e2 f3 bc
       -0.019881323 0.0009921938 0.04240115 -0.02977112
000270 56 79 ea bd 88 3a b3 3d 02 9d 81 3d 7a 06 f0 bd
       -0.11448924 0.08751398 0.06328775 -0.11719985
000280 3a 00 af bd 38 7a b6 bd 80 24 3f bd c8 2a 76 3d
       -0.08544965 -0.0891003 -0.04666567 0.060099393
000290 84 ee 04 3d 00 50 33 b8 70 4b af 3d c8 0f f5 3d
       0.03245403 -4.275143e-05 0.085593104 0.11965901
0002a0 1e 6f f8 3d 80 91 a4 3a f0 06 09 3d 10 99 4f 3d
       0.12130569 0.0012555569 0.03345388 0.05068308
0002b0 54 07 d9 3d 70 2f 51 3d 60 72 96 bd 3a 68 86 bd
       0.10597101 0.05107063 -0.07346034 -0.065628484
0002c0 de 3f e2 bd 8a 29 99 3d 10 ca 8a 3c ec f4 cf bd
       -0.11047338 0.07478626 0.016942054 -0.10154137
0002d0 b8 a9 80 3d 60 ea b2 3c 64 09 ec bd 80 a1 e9 bd
       0.06282371 0.021840274 -0.115252286 -0.11407757
0002e0 b8 18 b7 bd 84 16 ae 3d 52 ca 90 3d 6c dc 73 bd
       -0.089402616 0.08500388 0.070698395 -0.059536383
0002f0 26 78 c7 bd c6 e5 ba bd 60 f9 94 bc f0 f8 88 bc
       -0.09739713 -0.09125857 -0.018185318 -0.016720265
000300 10 c1 97 bc 20 24 2d bc 2c 8c f3 bd 14 b0 51 bd
       -0.018524677 -0.010567695 -0.1189197 -0.05119331
000310 b0 39 8d bd 92 25 e1 3d a0 6f 36 3d 84 48 ca bd
       -0.06895769 0.10993494 0.044540048 -0.098771125
000320 c8 4a e7 bd d4 2f fc bd 64 75 18 3d 1c f0 1e 3d
       -0.1129356 -0.1231381 0.037221327 0.038803205
000330 c4 d1 46 3d a8 a0 5d bd da db 81 bd a0 be fd bc
       0.04853989 -0.054108292 -0.063407615 -0.030974686
000340 70 3e 6e bd 86 16 8f bd 24 43 0b bd 1c 36 7f 3d
       -0.058165014 -0.06986718 -0.033999577 0.062307462
000350 a0 63 67 3c 66 ae dd 3d 62 a1 cb 3d 4e 14 dc 3d
       0.014122874 0.108242795 0.09942891 0.1074606
000360 c0 68 b5 3c a0 4b 2d 3c a0 04 1f 3c dc 7a f5 bd
       0.022144675 0.010577112 0.0097056925 -0.11986324
000370 80 1e a3 3a 90 2d 9e bd 36 17 e0 3d f6 fc cf bd
       0.0012445003 -0.07723534 0.10941927 -0.1015567
000380 30 03 94 3c ac 14 52 3d 20 a1 80 3b 78 0e 98 3d
       0.018067926 0.051289245 0.0039254576 0.07424635
000390 66 8b 94 bd f0 73 b9 3c d0 25 86 bc 92 b8 f7 bd
       -0.07253151 0.022638291 -0.016375452 -0.12095751
0003a0 68 7b 20 3d 24 60 63 bd 40 63 41 3c 30 41 5f bd
       0.03918019 -0.05551161 0.011803448 -0.054505527
0003b0 60 3e 33 3d 08 2c eb bd b8 f8 ec 3d 48 ea aa bd
       0.043760657 -0.11483008 0.11570877 -0.08345467
0003c0 48 7b 72 bd b0 95 27 bd d8 00 8c 3c 10 62 c1 3c
       -0.0591996 -0.040914237 0.017090246 0.02360633
0003d0 00 e4 a7 bb a2 0e e8 bd fc f6 d9 3d 90 20 41 3d
       -0.0051236153 -0.11330916 0.10642812 0.047150195
0003e0 94 72 4e bd a0 c2 7c 3d a6 a6 b1 bd 7c cc 0d 3d
       -0.05040224 0.061709046 -0.08674364 0.03461884
0003f0 c0 a2 4a 3b c4 8c 0f 3d 70 d7 53 3d 1a e6 e9 3d
       0.003091976 0.035046354 0.05171913 0.114208415

lstm.bias_ih_l0 f4 [256]
000000 90 15 8e 3c 30 29 68 bc 18 09 d6 3d 28 21 66 bd
       0.017344266 -0.014169976 0.10450953 -0.056183964
000010 2e e9 d4 3d 2c 8e 81 bd b0 c1 f7 bd 10 90 13 3c
       0.10396038 -0.06325945 -0.1209749 0.009006515
000020 be 22 86 bd b0 2e a2 bd 00 9a 62 3c 80 bd 0b 3d
       -0.06549595 -0.07919061 0.013830662 0.03411627
000030 7c 68 e7 bd d0 50 ed 3c 58 0b 5f bd c0 34 e6 3b
       -0.11299226 0.028969198 -0.054454178 0.0070253313
000040 64 9b e3 3d 18 d5 1c 3d c8 e1 19 bd 00 d0 a2 b8
       0.11113623 0.03828916 -0.037568837 -7.763505e-05
000050 00 07 bf 3a 72 36 be 3d 40 a3 2a bd a8 94 e9 3c
       0.001457423 0.09287728 -0.041659594 0.028513268
000060 1a 28 c4 bd d0 28 f7 bc 72 32 88 3d 6e 88 d8 3d
       -0.09577961 -0.030170828 0.06650247 0.10572897
000070 e4 2c 3f 3d b2 1d ad bd f8 ad 65 bd 88 a1 05 bd
       0.04667367 -0.084529296 -0.056074113 -0.03262475
000080 64 4c 68 3d d6 0b c3 bd 70 be 8d bc 50 f6 a8 3d
       0.056713477 -0.09523742 -0.017302722 0.082501054
000090 32 45 c7 3d 08 e2 56 bd 84 3e 7f bd 80 2d 92 3c
       0.09729995 -0.052461654 -0.06231548 0.017843962
0000a0 54 97 da 3d 08 f0 6d bd 14 e1 31 3d b2 57 b4 bd
       0.10673395 -0.05809024 0.04342754 -0.08805789
0000b0 70 25 b4 3d f0 82 40 3d 60 56 9e 3c 1c 4a b2 bd
       0.08796203 0.04699987 0.019328296 -0.087055415
0000c0 a0 e7 87 bb ec fb 4f 3d 00 30 dd 3c 50 0a 53 3d
       -0.004147485 0.05077736 0.027000427 0.051523507
0000d0 e6 ac 81 bd 44 13 ef bd ee 3e c2 3d 00 ac 17 bd
       -0.06331806 -0.116735965 0.09484659 -0.037029266
0000e0 70 9c d1 3c 20 5d 0e bd 96 1f a9 bd 0a 21 e0 3d
       0.02558729 -0.03475678 -0.08257978 0.10943802
0000f0 e0 d2 20 3c a0 15 1e bd 00 8f a4 ba 68 ce d1 3c
       0.0098159015 -0.038594842 -0.0012554824 0.025611117
000100 68 2e 99 bd 28 0f 8e bc 5e 28 f3 3d d0 ca 69 3d
       -0.074795544 -0.017341211 0.11872934 0.057078183
000110 70 7f d5 bd 70 b6 2b 3c 2c 90 96 bd 84 76 a7 3d
       -0.104246974 0.010480508 -0.07351717 0.08176902
000120 ba 6d b0 3d 30 78 1b 3c 00 06 76 3a e8 64 ee 3c
       0.08614679 0.009489104 0.00093850493 0.02910085
000130 26 f0 ea 3d 62 c0 c5 bd 44 81 01 bd 80 6b d3 ba
       0.11471586 -0.09655835 -0.031617418 -0.001613006
000140 dc de ae 3d d4 4e 33 3d 0a 8a e8 bd 98 3b 1f 3d
       0.08538601 0.04377635 -0.11354454 0.038875192
000150 88 1c 05 bd c4 1a 47 bd e4 da 84 bd 18 7f ec 3c
       -0.032497913 -0.04860951 -0.064870626 0.028869197
000160 00 50 91 bd 12 73 91 bd 4e b9 c8 bd 20 a8 06 3d
       -0.07095337 -0.07102026 -0.09800969 0.03287518
000170 3c 11 e0 3d fc 30 a2 3d fe 1f bb bd 68 7a cf 3d
       0.10940787 0.07919499 -0.091369614 0.10130769
000180 78 51 1d 3d c4 8f be 3d 28 37 fe bc 74 19 23 3d
       0.038407773 0.09304765 -0.03103216 0.039819196
000190 78 89 f0 3c 7e aa 84 3d a0 a5 5a 3c 00 93 96 bd
       0.029362425 0.06477831 0.013345152 -0.07352257
0001a0 76 47 9b 3d f0 28 45 bc f8 df 98 3d a0 43 8e 3d
       0.075819895 -0.012033686 0.07464594 0.06946492
0001b0 2a 16 9a 3d c0 ea a9 3b 68 87 ad bc 3c 29 63 bd
       0.07523759 0.005185455 -0.02118273 -0.055459246
0001c0 f4 19 81 bd e8 fc 84 bc 2c 36 ce 3d 8e d7 f6 bd
       -0.06303778 -0.016233876 0.10068926 -0.120528325
0001d0 3c db 76 3d 3a dd 96 3d a0 07 17 bc c8 16 c8 3d
       0.060267672 0.07366414 -0.009218127 0.0976997
0001e0 68 27 ef 3c 00 e5 c9 3a 54 00 af bd b2 84 f9 3d
       0.029193595 0.001540333 -0.085449845 0.12183513
0001f0 ba 1c cc bd 6c 9f 10 3d 50 aa 5f bd 4c 2f 77 3d
       -0.09966417 0.035308287 -0.054605782 0.06034784
000200 48 89 51 bd 46 99 92 3d 00 f9 6f 3a 80 7f c0 3a
       -0.051156312 0.07158141 0.00091542304 0.0014686435
000210 9a 70 a6 3d 8c 31 a1 bd b8 00 58 3d 10 b7 c5 bd
       0.08126946 -0.078707784 0.05273506 -0.09654057
000220 90 22 aa bc 6c 44 30 3d f4 25 b6 3d 70 ab 48 3d
       -0.020768434 0.043034002 0.08893958 0.04899162
000230 c8 57 bf 3c f8 03 9e bc 60 cd c0 3c d6 a3 b5 3d
       0.023357287 -0.019289002 0.02353543 0.0886914
000240 fc db 02 bd 8e b6 ef bd c0 e7 e4 bb 56 32 a5 3d
       -0.031948075 -0.117047414 -0.0069856346 0.080662414
000250 b6 f1 c2 3d 1c ec 9f 3d 80 fa 04 bd 52 96 d0 3d
       0.09518759 0.07808706 -0.032465458 0.10184921
000260 00 38 07 ba cc 24 9e bd b0 81 15 bc e0 e0 3e bc
       -0.0005158186 -0.07721862 -0.009125158 -0.011650294
000270 fc 75 e6 3d b4 ad 04 bd 92 82 fb bd 38 ea 0b 3d
       0.112529725 -0.03239222 -0.12280764 0.034158915
000280 4e 9d f4 bd 4a 43 fd 3d 2c d1 a9 3d ac d7 56 3d
       -0.11944066 0.1236635 0.082918495 0.052451774
000290 e0 85 76 3d 08 39 1c bd ec 77 c4 3d 08 8d 1f 3d
       0.060186267 -0.038140327 0.09593186 0.038952857
0002a0 a4 bc 61 bd a0 43 0b 3c 52 5a 81 3d 6e 02 91 bd
       -0.055111542 0.00850001 0.06316055 -0.070805416
0002b0 d8 c0 54 3d 50 c5 50 3c d8 42 9c bc bc d2 9b bd
       0.051941723 0.0127423555 -0.019074842 -0.07608554
0002c0 7c fb 53 bd 62 a1 de bd b8 15 e0 bd 50 b9 72 3d
       -0.051753506 -0.10870625 -0.109416425 0.05925876
0002d0 c6 4f fc 3d b0 4c e9 3d 28 3b 5d bd 3a c1 8f bd
       0.12319903 0.1139158 -0.054011494 -0.07019277
0002e0 c8 96 9a bd f6 fe fc bd 80 28 75 bc 38 d8 ee bd
       -0.075482905 -0.123533174 -0.014963269 -0.11662334
0002f0 c6 64 98 3d 60 4b 31 bc e4 df 15 3d ee 36 85 bd
       0.07441096 -0.010821193 0.036590472 -0.06504618
000300 1a 01 ed bd 70 64 8f 3c 22 f3 fa 3d 5c 96 73 bd
       -0.11572476 0.017503947 0.12253405 -0.059469566
000310 30 8c c5 bd 38 1a fe bc 80 57 54 bb 78 2a 34 3d
       -0.09645879 -0.031018361 -0.0032400787 0.043985814
000320 40 be 22 bd 6c 5a 08 bd cc 5f 41 bd 08 e8 eb bc
       -0.039732218 -0.033289358 -0.0472105 -0.028797165
000330 94 58 ea 3d da 8c f0 bd 00 95 07 bd fa b4 b0 3d
       0.11442676 -0.11745615 -0.03310108 0.086282685
000340 20 ed db bd 78 60 40 3d 68 07 d6 3c 4c 3c 1f 3d
       -0.107385874 0.046967 0.026126578 0.038875863
000350 2a 7e af bd 30 12 b7 3c b0 08 de 3c 5e 64 dd 3d
       -0.08568986 0.02234754 0.027103752 0.10810159
000360 14 90 84 3d 64 14 ab bd 08 d1 41 bd 70 a9 89 3c
       0.06472793 -0.083534986 -0.04731849 0.016804427
000370 2c 81 8d 3d 96 d6 9d 3d 30 e9 69 bd a0 0c 22 3d
       0.06909403 0.07706945 -0.05710715 0.03956282
000380 f0 e1 1e bc c4 cd 52 bd 68 68 ec bd 38 37 6b 3d
       -0.009697422 -0.051465765 -0.115433514 0.057425708
000390 40 0d 5a 3c 08 72 62 bd 54 45 90 3d ea 45 c9 3d
       0.013308823 -0.05528453 0.07044473 0.09827788
0003a0 40 f5 c2 3c 40 90 8c 3d 18 fa cc bd 74 fc 59 bd
       0.023798585 0.06863451 -0.10008639 -0.053219274
0003b0 c0 d0 a3 3b b0 85 5e 3c 7c 2e 45 bd 4c 93 fb 3d
       0.00499925 0.013581678 -0.048140034 0.12283954
0003c0 b6 ea c7 3d 40 91 65 3c 82 cd da 3d fe 54 b2 3d
       0.097615644 0.014011681 0.10683729 0.08707617
0003d0 22 15 d8 3d 00 e0 8f 3c f8 ed 80 bd 40 38 10 bc
       0.10550906 0.017562866 -0.06295389 -0.008802474
0003e0 84 20 8c bd 42 30 81 bd fc 5f 6c bd f0 6c f0 bc
       -0.06842139 -0.063080326 -0.057708725 -0.02934882
0003f0 02 ac b9 bd 80 6c 15 bb c0 5c 96 3d 18 c8 37 3d
       -0.09066011 -0.0022800267 0.073419094 0.04486856

lstm.bias_hh_l0 f4 [256]
000000 c4 4d d2 3d d6 0b ff 3d a0 3d 92 3d 32 f1 f3 3d
       0.10268739 0.124534294 0.0714066 0.11911239
000010 d0 9d 5c bd c0 74 f7 bb 04 e9 90 3d 92 2d d7 3d
       -0.05386144 -0.0075517595 0.07075694 0.10506739
000020 64 83 cf bd 86 86 8d bd 18 3c 5b 3d 34 e2 ac bd
       -0.10132483 -0.06910424 0.053524107 -0.08441582
000030 e8 be f3 bc 3c 2d e5 3d bc 49 c0 bd 74 f6 43 bd
       -0.029754117 0.111902684 -0.09389064 -0.047842458
000040 80 ad df bc 1a d5 b2 3d a8 f3 66 bd 96 cd b4 3d
       -0.027304411 0.08732052 -0.056384712 0.08828275
000050 70 d9 1f 3c 50 aa f5 3c 56 b2 94 3d f2 0b e4 bd
       0.009756431 0.029988438 0.072605774 -0.11135091
000060 fe 3d df bd f8 c1 94 3c 2a 9a f6 3d 04 e6 9a 3d
       -0.10900496 0.018158898 0.12041123 0.07563403
000070 c4 1c b7 3d 08 19 ff bc b4 df 3b 3d 10 d5 27 3c
       0.089410335 -0.031139866 0.045867637 0.010243669
000080 fa 02 b4 3d 46 1d 92 3d e0 96 e9 bd 80 f2 6d 3c
       0.0878963 0.0713449 -0.1140573 0.014523149
000090 7e 7a ba 3d ba ca b9 3d a4 71 90 bd a0 76 bd 3c
       0.09105395 0.0907187 -0.07052925 0.023127854
0000a0 c0 7a 42 3d f4 55 e9 bd 80 73 25 3b e4 ef de bd
       0.047480345 -0.113933474 0.0025245845 -0.10885599
0000b0 7a 1f f4 bd 54 17 be 3d f8 a9 0a bd 80 ea 82 3b
       -0.11920066 0.09281793 -0.0338535 0.0039952397
0000c0 d2 61 dc 3d a0 03 af 3b e2 4b a5 3d 68 94 35 3d
       0.10760845 0.0053410083 0.08071114 0.044330984
0000d0 40 32 af bb e0 39 cb 3d 90 a6 a5 bc 30 a9 92 3d
       -0.0053465664 0.09923148 -0.020221025 0.07161176
0000e0 f0 0b ee 3d 08 ba bd bd b6 22 e2 3d c0 bc f2 bd
       0.11623371 -0.09263998 0.11041777 -0.118524075
0000f0 74 61 31 bd ea 47 82 3d ee 07 9a 3d f8 56 ed bd
       -0.04330583 0.06361373 0.07521044 -0.115888536
000100 b8 a8 dc bc 32 92 b7 bd 54 c0 e1 3d fa 2a 9f bd
       -0.02693592 -0.089634314 0.11023012 -0.07771869
000110 32 c6 e1 bd c8 c4 f6 3d ae 0a ff 3d b8 c0 66 3d
       -0.11024131 0.12049252 0.12453209 0.056336135
000120 58 da 00 bd 88 44 ee bc 40 9b 62 3d 5c de fb 3d
       -0.03145823 -0.029085413 0.05532384 0.12298271
000130 d8 78 78 bd c4 d9 5e bd a0 17 71 bc 98 a5 a7 3d
       -0.06066212 -0.054406896 -0.014715105 0.081858814
000140 00 94 3e ba a0 6c cf 3c 80 0e 99 3d 80 96 fd bd
       -0.00072699785 0.025320351 0.07473469 -0.12382221
000150 a0 36 8b 3b 6c 3d f5 3d e0 83 57 bc ac 0d 17 3d
       0.004248455 0.11974606 -0.013154 0.036878273
000160 bc ff b3 3d 80 5f 2c 3d c0 6f 52 3d 18 7b f0 bd
       0.08789012 0.042083263 0.051376104 -0.11742228
000170 b4 8f 34 3d 72 7b 92 3d 38 a8 14 3d 6a ce 8d 3d
       0.04408236 0.071524516 0.03629324 0.06924136
000180 8c af 88 bd c8 f2 a7 3c 42 07 bb 3d 50 97 0b bd
       -0.06674108 0.02050151 0.09132244 -0.03407985
000190 a0 6f ac 3b 84 9e 43 bd 2a 78 bb 3d 18 bc fb bc
       0.00526233 -0.047758594 0.09153779 -0.030729339
0001a0 3c 6f 21 3d c0 8a 78 3c bc fd 46 bd 90 21 3e bd
       0.039412722 0.015169799 -0.048581824 -0.046418726
0001b0 00 e3 4e ba 68 ce 98 3c 64 6e 53 bd 28 61 40 bd
       -0.0007892102 0.01865311 -0.05161895 -0.046967655
0001c0 46 88 fc 3d 90 ba 56 bc 2a 73 f2 bd e8 43 21 bd
       0.123306796 -0.013106003 -0.11838372 -0.0393714
0001d0 ac 74 bb bd 68 a8 8a bc 80 d9 af bd 08 05 eb bd
       -0.09153113 -0.016926005 -0.08586407 -0.11475569
0001e0 12 97 d1 3d a0 70 6f bd ec a5 27 bd a4 d6 0b bd
       0.102338925 -0.058457017 -0.04092972 -0.034140244
0001f0 c8 14 ad 3c c4 cd eb 3d 44 c7 1c 3d 48 51 97 bd
       0.021128073 0.11513856 0.038275972 -0.0738855
000200 36 3c da 3d ca b9 c6 3d 16 f1 84 bd aa d9 d9 3d
       0.106560156 0.09703405 -0.06491296 0.10637219
000210 00 e6 de 3c 34 47 5a 3d f8 8d d1 3c a0 0b b6 3b
       0.027209282 0.05329056 0.025580391 0.005555585
000220 b0 ab 03 bd c0 a8 25 bb e4 6e f6 bd 52 39 86 3d
       -0.032146156 -0.0025277585 -0.120328695 0.06553902
000230 fa cd b3 bd a0 9b bf bd 38 f9 b6 bc 20 f0 94 bd
       -0.08779521 -0.09355855 -0.022335634 -0.07272363
000240 98 08 70 3d c0 59 29 bb 70 19 0a 3d 6c 0a 13 3d
       0.058601946 -0.0025840849 0.033715665 0.03589861
000250 30 22 b3 bd 44 ef 18 bd 9c fc 13 bd 80 36 52 3d
       -0.08746755 -0.037337556 -0.03612958 0.051321507
000260 32 0c c2 3d ac 12 99 3d 44 91 8a 3d f8 2c 10 3d
       0.09474982 0.074742645 0.067659885 0.035199136
000270 18 9b f6 3c 92 e8 ed 3d 28 c1 93 bc 58 21 07 3d
       0.030103251 0.11616625 -0.01803644 0.032990783
000280 b8 b6 20 bd 58 6a fe 3c 56 dd ea bd 12 02 a1 bd
       -0.039236754 0.031056568 -0.11467998 -0.07861723
000290 50 a7 4b bd 10 34 6e bc d8 2e f9 bd 48 c0 ce 3d
       -0.04972011 -0.01453878 -0.12167138 0.100952685
0002a0 80 4b 7e bc b8 5b f8 bc a8 28 1b bd 78 0b f3 3d
       -0.01552093 -0.030317172 -0.03788057 0.11867422
0002b0 d4 ef 70 3d 76 42 8a 3d 80 71 e3 3d 20 19 14 bd
       0.058822468 0.06750958 0.11105633 -0.036156774
0002c0 1e e6 8c 3d 80 71 93 bc 40 90 dc bc 3e 85 bf 3d
       0.06879829 -0.017998457 -0.026924253 0.09351586
0002d0 16 e7 b8 bd 9e e7 9f 3d 0e f7 f7 3d 48 9d ae 3d
       -0.09028451 0.07807849 0.12107669 0.08526093
0002e0 00 2f be 3d b0 d9 26 bc 2e 08 f5 3d f6 89 9d bd
       0.09286308 -0.010183737 0.11964451 -0.076923296
0002f0 74 a2 e5 3d 74 f0 f3 bd 54 26 07 3d 36 55 e7 3d
       0.11212626 -0.11911097 0.032995537 0.112955496
000300 ac e2 1b 3d c0 92 6a bd 96 c7 e2 3d 4e 80 83 bd
       0.038057968 -0.057268858 0.11073224 -0.064209566
000310 20 17 0a 3d 3e ce 8a bd e0 76 bd bc 00 02 53 3a
       0.03371346 -0.06777619 -0.023127973 0.0008049309
000320 dc c0 4a 3d 7e 30 87 bd b8 8b 6c 3d 50 9d 8f bc
       0.04950033 -0.06601046 0.057750434 -0.017531067
000330 18 78 8f 3c ee 7f c2 3d 6a f6 e6 3d 90 e3 f0 bc
       0.01751332 0.09497057 0.112774685 -0.029405385
000340 c4 f4 40 bd fa cd ca 3d 50 ba 8e 3c ac 29 36 3d
       -0.047108427 0.09902568 0.017422825 0.044473335
000350 d0 2f e9 3d 74 cd e5 bd fe 21 f7 bd c0 4a 94 bb
       0.11386073 -0.11220828 -0.1206703 -0.0045255125
000360 bc f0 16 bd 90 4b 25 bd 60 b1 fb 3b ca 38 a7 3d
       -0.036850676 -0.040355265 0.007681057 0.081651285
000370 2c 7c ab 3d 40 93 70 bb c0 b3 73 3b 46 08 9d 3d
       0.08373293 -0.0036708862 0.0037185997 0.07667594
000380 80 ee 6c 3b 88 15 c6 3d 40 53 b5 bc a0 ec 54 3c
       0.00361529 0.096720755 -0.022134423 0.012995869
000390 08 8b 36 bd 34 f9 41 3d 5c 34 c4 bd 76 5a 9b 3d
       -0.044566184 0.0473568 -0.09580299 0.075856134
0003a0 32 c8 c6 3d ae 6e cb 3d 7a db a3 bd 20 20 84 bd
       0.09706153 0.0993322 -0.08000846 -0.0645144
0003b0 d8 62 e7 bc 88 93 b4 bd cc 87 22 3d dc 02 8b bd
       -0.028245375 -0.08817202 0.039680287 -0.06787655
0003c0 ec c8 a7 3d a0 bc d0 3b c0 13 6a bc d0 2a 0f bc
       0.0819262 0.006370142 -0.014286935 -0.008738235
0003d0 a4 24 14 3d 08 09 9c 3d 32 47 dd bd 56 49 9b bd
       0.036167756 0.0761891 -0.10804595 -0.07582347
0003e0 58 45 9f bc 10 fe 41 bd 3e a3 bb 3d a0 7b a1 bc
       -0.019442245 -0.047361434 0.09161995 -0.01971227
0003f0 98 3b 78 bd 84 79 c7 bd c4 06 07 3d b8 d9 e9 bd
       -0.060603708 -0.09739974 0.032965437 -0.1141848

lstm.weight_ih_l1 f4 [256, 64]
000000 06 e6 9a bd e4 72 1b bd 50 b3 29 bd 00 31 0a bc
       -0.07563405 -0.037951365 -0.04143077 -0.008434534
000010 68 5e b7 bd 7e a8 d1 bd 78 65 aa 3c 94 43 d7 3d
       -0.089535534 -0.102372155 0.020800337 0.105109364
000020 74 36 30 bd f9 ca 8c 3d 3b 3b 66 3c 10 d6 51 bd
       -0.04302068 0.068746515 0.014052208 -0.051229537
000030 54 32 f6 bd 74 98 76 3d e6 e3 f1 bd 10 80 ef bc
       -0.12021318 0.060203984 -0.11811046 -0.02923587
000040 42 64 fa 3d e0 c2 85 bd 10 3f 64 bd d6 4f 8c bd
       0.12226154 -0.0653131 -0.055724204 -0.06851165
000050 d3 c7 db 3d b4 c2 d9 bc 00 f5 77 3c 56 5c 80 bd
       0.10731473 -0.0265821 0.015134096 -0.06267612
000060 60 8b 7d 3c e4 25 0c ba 80 f0 6c bb 6c 5b ca 3d
       0.015475124 -0.00053462223 -0.0036154091 0.098807186
000070 dc 11 bc 3d 6c c8 71 bd 76 aa 8e bd 7c 29 84 3d
       0.09183094 -0.059029028 -0.069661066 0.06453225
000080 fa 47 e9 3d 2c 96 f1 bd 00 6f d3 bd ad 81 54 bc
       0.113906816 -0.11796221 -0.10323906 -0.01297037
000090 07 64 e3 bd d0 d5 48 3c ea c5 a6 3d 5b 48 b7 bc
       -0.11103063 0.012258008 0.08143218 -0.022373369
0000a0 77 2d 1e bd ca 2c 87 3d 1f 3b be 3d 82 9e 02 bc
       -0.038617577 0.0660034 0.0928862 -0.0079723615
0000b0 dc 3d 7f 3d 44 be 23 bd a8 36 c2 3d 8e ce c1 3d
       0.062314853 -0.039976373 0.09483081 0.09463225
0000c0 f4 c1 b5 bd c8 b4 ee 3d 82 d6 df 3d 08 39 b6 3d
       -0.08874884 0.11655575 0.10929586 0.088975966
0000d0 b0 0f 24 3d b2 3f 03 be b1 a8 19 bd 6a 4c 8d bd
       0.040054023 -0.12817267 -0.037514392 -0.068993405
0000e0 7b 63 d4 3c f6 4c f0 bd 2e bd 8e 3d c6 69 c0 3d
       0.025926342 -0.11733429 0.06969677 0.09395175
0000f0 f4 1b 8f bd 29 25 91 3d de b0 82 3d 2a e2 da 3d
       -0.069877535 0.07087166 0.06381391 0.106876686
000100 14 59 e3 3d 90 2b d2 3d 88 21 52 3d 76 57 d8 bd
       0.11100975 0.10262215 0.05130151 -0.10563557
000110 80 b4 90 bc d8 4d c1 bc 80 5b 9c bd 8c 08 df 3d
       -0.017664194 -0.02359669 -0.0763464 0.10890302
000120 ca 56 c8 bd 63 34 01 3e 97 38 00 3e 92 4a c2 bc
       -0.09782179 0.1261764 0.12521587 -0.023717199
000130 54 9e 94 bd 50 4e a2 bd c0 2d 09 3b 52 f7 cc bd
       -0.07256761 -0.07925093 0.002093181 -0.1000811
000140 10 81 a3 bd 36 ad f9 3d f0 7e dd bd 7c 29 34 3d
       -0.07983601 0.121912405 -0.10815227 0.043984875
000150 fb af 4f bd 7f bc de bc b8 91 47 3d e0 a3 55 3c
       -0.050704937 -0.027189491 0.048722953 0.013039559
000160 60 3f db 3b a0 3a a6 3d e8 79 77 bd 09 e9 32 bc
       0.0066909045 0.081166506 -0.060418993 -0.010919818
000170 97 17 b1 3d fa 73 f7 3d 10 1f 0e 3d 17 89 15 bc
       0.086470775 0.12082668 0.034697592 -0.009126923
000180 7c 9b 79 3d 60 ab 03 3d 5c 6c 12 3d 31 56 aa 3d
       0.060939297 0.032145858 0.03574787 0.08317221
000190 2c ca d1 3d 39 5e 0a bd 94 7f a1 3d a8 5b b8 3d
       0.10243639 -0.033781264 0.07885662 0.09001857
0001a0 9e 2b ae bd 46 b3 f2 3d c0 a6 df 3d 02 92 8b bd
       -0.08504413 0.118506 0.10920477 -0.06814958
0001b0 30 38 c7 3c 5e 4d 9b bd 9c 3c ab 3d ea 43 ac bd
       0.024318784 -0.07583116 0.0836117 -0.08411391
0001c0 37 a5 21 3d 6f a6 bf bc 48 ad d1 bc 88 d2 c3 bc
       0.0394642 -0.023394791 -0.025595322 -0.0239041
0001d0 e0 d6 df bc c6 28 bd bd 08 24 8b 3d 88 40 dd 3d
       -0.02732414 -0.092362925 0.06793982 0.10803324
0001e0 be ac c1 3c a6 ba a7 3d f8 6d ab 3d a0 52 74 bd
       0.02364194 0.08189897 0.08370584 -0.05964911
0001f0 d0 51 e1 bd 12 7b 92 3d dc 2a 25 3d b8 40 c5 bd
       -0.110019326 0.0715238 0.040324077 -0.09631485
000200 e4 eb c7 3d b2 c5 aa 3d e8 f6 c4 bd 5a c6 a7 3d
       0.097617894 0.08338489 -0.09617406 0.081921294
000210 24 b4 3a 3d a0 f5 d2 3b 08 e5 61 3d 68 01 c6 3d
       0.04558195 0.006437972 0.05515006 0.09668237
000220 1e ef d9 bd 56 2b 3d bd 23 de d2 bd 07 52 c3 bc
       -0.10641311 -0.046183906 -0.102962755 -0.023842825
000230 74 ec a1 3d 28 a3 27 3d 08 af c9 bc a4 e8 cc bd
       0.07906428 0.040927082 -0.024619594 -0.1000531
000240 30 3a b3 3c b2 b6 c2 3d 04 ed 00 3d 18 b4 92 3c
       0.021878332 0.095075026 0.031476036 0.017908141
000250 cb 65 ff bc 10 79 45 3c 00 14 31 3d 42 88 a2 3d
       -0.031176468 0.012052789 0.043231964 0.07936145
000260 38 a8 4c 3d e1 e6 d1 3d aa 5c 96 bd 9d 52 a8 bc
       0.049965113 0.10249115 -0.07341893 -0.020547206
000270 2c b4 fb bd 5e 6a 9d bd 5c 42 38 bd 56 45 ec 3d
       -0.122902244 -0.076863036 -0.04498516 0.11536662
000280 00 9a 9e bd 3f 3c 3c 3d 50 f8 76 3d 5b 19 f1 3d
       -0.07744217 0.045955893 0.060295403 0.11772414
000290 95 d7 c4 bc e3 98 da bc 08 2e 83 3d 89 cf 82 bb
       -0.024028579 -0.02668423 0.06405264 -0.0039920253
0002a0 dd a6 70 3d 3a 5e a1 bd b8 93 95 bc 8e 4f 0b 3e
       0.058752883 -0.078793004 -0.018258914 0.13604566
0002b0 f6 fe d9 3d 88 e5 e9 bd d0 16 c9 3d 3c 6a 09 3d
       0.10644333 -0.11420733 0.09818804 0.03354858
0002c0 2e 6e ba bb af e5 09 be 4c 00 14 bd c0 36 79 bb
       -0.005689404 -0.13466524 -0.036133096 -0.0038027018
0002d0 68 3c e2 bd 79 a9 e2 bc 6b ac 56 bd c0 93 7c bd
       -0.11046678 -0.027668701 -0.052410524 -0.061664343
0002e0 0c e7 94 bd 08 75 ca bd 38 d7 ce bc 84 56 93 3d
       -0.07270631 -0.09885603 -0.025249109 0.07194236
0002f0 48 1e ad bc dc 3d fb bd b4 1b d7 bd f8 1d df 3d
       -0.021132603 -0.12267658 -0.10503331 0.10894388
000300 98 2e 74 bd 82 a9 d0 bd d8 fb 38 bd d6 dc ed bd
       -0.059614748 -0.10188581 -0.045162052 -0.11614387
000310 00 f9 9b bc be 55 ef 3d e2 77 d5 3d f8 85 ca 3d
       -0.01903963 0.11686276 0.104232565 0.09888834
000320 82 8a ef 3d ae e0 c8 3d 51 53 4b bd a4 cc 2f bd
       0.1169634 0.09808479 -0.049640004 -0.04291977
000330 f0 3d 9e 3d 3c f4 22 3d 08 2d ee 3d 6e 4f 8b 3d
       0.077266574 0.0397837 0.11629683 0.068022594
000340 00 33 15 bd 94 7a de 3d ac c1 4c 3d e6 29 a2 bd
       -0.03642559 0.10863224 0.049989387 -0.07918148
000350 db ed 89 3c 0d 62 86 3d fa 17 e3 3d 10 9a b1 bc
       0.016837051 0.065616705 0.110885575 -0.021679908
000360 80 fc f7 bc 50 c7 02 be 94 cd 59 bd aa c5 3d bd
       -0.030271769 -0.12771344 -0.05317457 -0.046331085
000370 27 a2 9b bd 80 b9 34 bb 70 71 f0 3d 50 fd 1d bd
       -0.075992875 -0.0027576387 0.117403865 -0.038571656
000380 10 17 00 3d fb d2 12 3d c2 82 9e bd cb ab b8 bc
       0.031271994 0.035845738 -0.07739784 -0.022542855
000390 f1 8f 66 3d cf a3 4a bd 90 a2 5f 3c e2 cc 91 bd
       0.056289617 -0.049472626 0.013649598 -0.071191564
0003a0 2f 8c 1f 3d f0 92 19 3c be 35 e2 bc 13 0f c4 3d
       0.03895205 0.009373412 -0.027613517 0.09573188
0003b0 5c 11 f0 3d 82 b0 bc 3d 84 7f 2b 3d f4 f9 c8 bd
       0.11722061 0.09213354 0.041869655 -0.098133
0003c0 5e 32 c2 b9 3c d3 7f 3d 20 db cf 3d 60 74 ea 3c
       -0.0003704009 0.06245731 0.10149217 0.028619945
0003d0 10 4d b7 3c 43 ab 1f bd c1 67 a8 bc 48 93 3e bd
       0.022375613 -0.038981687 -0.020557286 -0.046527177
0003e0 59 81 74 3c de 1a 9c 3d 30 22 d5 3d b8 1d 9a bc
       0.014923417 0.07622312 0.104069114 -0.018813
0003f0 f8 3d 93 bd 5b c8 66 3d 60 f9 f1 3b 90 67 81 bd
       -0.07189554 0.056343418 0.007384464 -0.06318581

lstm.weight_hh_l1 f4 [256, 64]
000000 0b 47 eb bb ce a9 34 3d 75 8e ad bc 32 42 e7 3d
       -0.0071801 0.04410725 -0.021186093 0.11291923
000010 de 10 7d bc b1 9a 71 3d 6a a5 7e 3c 40 5f 54 3c
       -0.015445916 0.058985416 0.0155423675 0.0129621625
000020 59 da 82 bb 46 0a bf 3d 03 4b b7 bd a5 9c af 3d
       -0.003993314 0.093281314 -0.08949854 0.085747994
000030 57 40 40 3d ad 8e 8b 3d 6f d5 a3 bc 55 17 df bc
       0.04693636 0.068143226 -0.019999234 -0.027232805
000040 92 02 94 bd 9d b5 de bd 7e 59 eb 3d 27 4f 01 be
       -0.07227053 -0.10874484 0.11491679 -0.1262785
000050 4d 4a 10 3d 12 1d 8d bd 81 9b 52 3d 54 25 10 bd
       0.03522711 -0.0689031 0.05141783 -0.03519185
000060 ef af b1 bd dd 5e 4e bc 28 82 1a bd 20 19 ab bc
       -0.08676135 -0.012595859 -0.037721783 -0.020886004
000070 e9 14 e3 bd 24 e0 8c 3d c3 fe ab 3c 4c ff e0 3d
       -0.11087973 0.06878689 0.020995503 0.10986194
000080 21 38 42 bd c0 12 db 3d fa 7f 66 3c 64 00 97 bd
       -0.04741681 0.10696936 0.014068598 -0.073731214
000090 b2 89 c3 bd fe 02 d2 bc a2 bb 30 bd 7b 47 ff 3d
       -0.09547748 -0.025636192 -0.04314769 0.12464806
0000a0 94 42 7a 3d 27 a0 94 bd f1 59 c7 3d 64 6a 33 bd
       0.06109865 -0.07257109 0.09733952 -0.043802634
0000b0 01 0f a5 3d a6 67 8a 3d e0 a9 e3 bd a1 7d b0 3d
       0.080595024 0.067580506 -0.111163855 0.08617712
0000c0 50 bf 8f bd e2 6f eb bd aa 77 e9 3d f7 a5 cc bd
       -0.07018912 -0.11495949 0.11399777 -0.09992593
0000d0 47 b2 20 3d 9c 26 06 3e bd 26 e8 3c 3b c5 99 3d
       0.03923252 0.13100666 0.028338784 0.07508322
0000e0 ae 51 99 bd ba 76 83 3d 4d e7 96 3d 9a 70 f7 bc
       -0.07486282 0.0641913 0.07368336 -0.03020506
0000f0 c4 06 a6 39 b2 7d 05 3d c9 32 ee bd 0f df 66 bd
       0.00031667028 0.032590576 -0.1163078 -0.05636507
000100 b1 5d 99 bd 02 3d 13 3d cd 36 f1 3d 91 c6 f9 3d
       -0.07488573 0.035946853 0.117780305 0.12196077
000110 90 09 fd bd 06 f2 31 bd 97 36 a8 bd 3c ab 85 3b
       -0.123553395 -0.043443702 -0.08213537 0.0040792506
000120 05 12 19 3d 1e 50 98 bd 0c 6c 8b 3b c7 3e c8 bd
       0.0373707 -0.07437156 0.0042548236 -0.09777599
000130 b4 f9 c7 3d 33 4c 00 be 92 68 ad bc 8e 7e 3b bd
       0.09764424 -0.12529068 -0.021168027 -0.04577499
000140 36 63 1f bd 4f 93 48 bd a3 aa 15 bd 5d 7e d6 3d
       -0.038912974 -0.04896861 -0.036539685 0.10473321
000150 4e e5 c4 bd 68 ab 84 3d 85 f6 0b 3c f1 5e 98 bd
       -0.09614049 0.06478006 0.008542662 -0.07439984
000160 f2 89 91 3d 1b 0d dd bb 20 ac c4 bd d6 db 9c bc
       0.07106389 -0.006745947 -0.09603143 -0.019147795
000170 80 59 58 bd fe bf b3 3d 66 f6 22 3c 59 f8 b6 3d
       -0.05281973 0.08776854 0.009946441 0.08934087
000180 9c 03 86 3d 7f fa 91 bd 66 f6 4c 3d 4f ae 15 bd
       0.06543657 -0.071278565 0.05003967 -0.036543187
000190 b1 f1 76 bd 9a dc 81 bd ed 2f ff 3d 54 45 1d bd
       -0.06028909 -0.063409045 0.12460313 -0.038396195
0001a0 e7 e2 ce bd b0 a7 da 3d 43 bf 94 bd ba b0 45 3d
       -0.10101872 0.10676515 -0.07263043 0.048264243
0001b0 58 ee 32 bc bf b8 1e 3c 08 36 91 3b 70 03 c8 bd
       -0.010921083 0.009687602 0.00443149 -0.09766281
0001c0 13 fe 10 be 4b 4d a5 3c 73 46 be 3d 01 fd 09 be
       -0.14159422 0.020178458 0.09290781 -0.1347542
0001d0 36 56 e7 3b ce f2 4d bd 2c 4e 68 bd 2d b2 1f bd
       0.0070598377 -0.050280385 -0.056715176 -0.03898828
0001e0 84 1c b3 3d f2 26 05 3d 95 12 c6 3d 6f 01 d0 bd
       0.08745673 0.032507844 0.09671513 -0.101565234
0001f0 ab 1a c6 bd 3f 55 7f 3d 5d 52 d7 bd e1 41 57 bd
       -0.09673055 0.062337156 -0.105137564 -0.05255306
000200 1c 67 43 bd aa 6b 03 3e b7 fd 62 bd d3 9b 3e 3d
       -0.047705755 0.1283404 -0.055417743 0.046535324
000210 49 f3 0e be 3a 9b c2 bd a6 4b 02 3e 2b 26 10 bd
       -0.13959993 -0.09502263 0.1272417 -0.03519265
000220 5a 59 09 be e9 5e b6 bb 22 be 73 bd 20 0a fb ba
       -0.13412991 -0.0055655134 -0.059507497 -0.0019152798
000230 1d d9 c9 3d 9e c1 dc bd a8 ac cf 3c 02 7a 03 bd
       0.09855864 -0.10779117 0.025350884 -0.032098778
000240 00 2f 00 be 10 5d 75 bd 37 29 e5 bc 01 56 85 3d
       -0.12517929 -0.059903204 -0.027973754 0.065105446
000250 3a ca 84 3d 13 a8 bc bd ed 00 30 3c 79 13 de bd
       0.06483884 -0.09211745 0.010742408 -0.10843558
000260 c0 2f e5 bd b0 2b cc 3d 4c 75 dc 3d 5b 7d cc 3d
       -0.11190748 0.0996927 0.1076456 0.09984847
000270 a1 a6 1d 3d 93 02 8b 3d 8b 97 2d b9 84 3b a5 bd
       0.038488988 0.067876 -0.0001655502 -0.08067992
000280 fb 56 bd bb c0 88 b8 3c 62 83 15 bd 5b 12 a2 3c
       -0.005778191 0.022526145 -0.03650225 0.019784143
000290 7b 37 8f bc 18 93 80 3d 24 bd 9e bd 4b ed 68 bd
       -0.01748251 0.06278056 -0.077509195 -0.056866925
0002a0 88 c6 c8 bd d8 98 01 3e 73 dc 05 be 20 16 91 3d
       -0.09803492 0.12655962 -0.13072376 0.07084298
0002b0 db 11 aa bb 8c ae c7 bd 4d 3b 72 bc 7a 6a 31 bd
       -0.005190117 -0.09750089 -0.014784646 -0.043314435
0002c0 79 12 48 bd e1 86 d4 3d 85 b4 18 bd 2a c3 e7 bd
       -0.048845742 0.103772886 -0.03728153 -0.113165215
0002d0 ef 59 29 3d e9 2a c0 bd d3 f2 2c 3c 7d 50 a4 3d
       0.041345533 -0.093831845 0.010555941 0.080231644
0002e0 1b 53 b8 bd b2 a7 c6 bc 0d ae c6 3d 11 44 82 3d
       -0.09000226 -0.024249885 0.09701166 0.06360639
0002f0 24 e2 81 bd 89 ae 70 bd 8d 0f c3 3d 5d ee f3 3c
       -0.06341961 -0.0587602 0.095244505 0.029776746
000300 a3 b1 26 bd 5b e6 7c bd 09 82 28 bd 41 80 f4 3d
       -0.04069675 -0.06174312 -0.041139636 0.11938525
000310 9e 07 f6 bd fb af 84 3d 11 43 29 3c ac 54 d8 bd
       -0.120131716 0.06478878 0.010330931 -0.10563025
000320 6c 6f 11 be d5 2f 6b bd 19 87 c5 3d 32 e6 9f bd
       -0.1420266 -0.057418663 0.096449085 -0.07807578
000330 f7 ad 24 bd 01 e0 a1 bd d8 4b ae 3d 40 d4 c5 bd
       -0.04020497 -0.079040535 0.0851056 -0.09659624
000340 20 ef 8b 3d 89 d5 54 bd 17 17 c5 bd f8 79 df bc
       0.06832719 -0.051961455 -0.09623545 -0.027279839
000350 1b f6 92 bd 9a c6 4f 3d 79 4a 06 3d 47 21 ed 3c
       -0.07175847 0.05072651 0.032785866 0.028946532
000360 b5 cc 19 3d 11 89 1f 3b 29 26 04 be a2 6d 76 bb
       0.03754874 0.0024343173 -0.12905182 -0.0037601967
000370 95 5a 8a 3d a2 19 f5 3b 18 9a b7 3d 22 c7 67 3c
       0.067555584 0.0074798623 0.08964938 0.014146598
000380 2e 53 d8 bc bb 2b ae bd ae c4 35 bc 56 44 88 3d
       -0.02640685 -0.08504435 -0.011094255 0.06653659
000390 8e 8b 04 3e 45 a6 dd 3d 21 e0 29 3d db 19 43 3d
       0.12943861 0.10822729 0.04147351 0.04763208
0003a0 85 15 09 be 44 0b e7 3d bb 39 92 3b ca 94 2f bd
       -0.13387115 0.112814456 0.0044624484 -0.042866506
0003b0 86 df 07 be 6c 5e 8c 3d 91 43 07 bd a3 f4 17 bd
       -0.13268861 0.06853947 -0.03302342 -0.037098538
0003c0 3f 6e 95 3d c0 29 dd 3d 9a eb ca bb cb 52 a1 3d
       0.072964184 0.10798979 -0.0061926367 0.0787712
0003d0 63 d0 08 3e b5 61 f0 3c 18 8f 80 3d a5 ae e5 bc
       0.13360743 0.029343465 0.06277293 -0.028037379
0003e0 2f c3 2c bb c8 bf 8d 3d b4 f5 d6 bc 56 c7 22 bd
       -0.0026361456 0.06921345 -0.026240207 -0.039740883
0003f0 5a 01 d2 3d 5d 2e cf 3c 06 23 60 3a c4 24 ed bb
       0.10254164 0.025290662 0.0008550141 -0.007237049

lstm.bias_ih_l1 f4 [256]
000000 7e 2e bc 3d 32 6e e1 3d ec b7 f9 3c e1 88 58 3d
       0.09188555 0.11007346 0.030483209 0.052864913
000010 c3 4c c0 3d a3 71 76 bd 41 72 f4 3d 58 d0 0b 3e
       0.09389641 -0.060166966 0.11935855 0.13653696
000020 53 85 cb bd 03 0f f9 3d b7 d0 0a 3e 25 5d 9a bd
       -0.09937539 0.121610664 0.13556181 -0.07537297
000030 d5 53 82 3d fe 7e 98 bd bf 86 bd bd ee a3 b3 3d
       0.06363646 -0.07446097 -0.092542164 0.087715015
000040 70 ac 58 3d db f2 9d 3d 94 cb 97 bd cf 55 07 3e
       0.052898824 0.07712337 -0.07411876 0.13216327
000050 22 df d5 3d 64 99 88 3d cd 11 b5 3c 88 a5 e7 3d
       0.1044295 0.06669882 0.022103215 0.113108695
000060 b0 f4 92 bd 4f e8 09 3d 5a cb a8 3d 4b bf b9 bd
       -0.07175577 0.033668812 0.08241911 -0.09069689
000070 a7 00 09 3d aa 0c b4 bd fa fc 5e bd d1 9d 95 bd
       0.033447888 -0.08791478 -0.054440476 -0.07305492
000080 16 af a8 bd 8b 77 7c bd 0a 5b 0e 3e 90 cb 8d 3c
       -0.0823652 -0.061637443 0.13901916 0.01730898
000090 95 90 84 3b fd a3 94 3d 46 5d ec 3d 83 15 20 3d
       0.004045556 0.07257841 0.11541228 0.039083015
0000a0 eb 4c 18 3d b2 78 3e bd f4 85 c8 bd 3a 00 ed 3c
       0.03718273 -0.046501823 -0.097911745 0.028930772
0000b0 4c 1f af 3d 39 59 98 bd b3 71 c0 3d 19 06 a2 bd
       0.08550891 -0.07438893 0.093966864 -0.07911319
0000c0 b7 64 0b 3e 46 33 2f 3d 5b ee 64 bd c2 c7 2d bd
       0.13612638 0.042773508 -0.055891376 -0.042426832
0000d0 b5 5a c6 3d 58 46 87 3c 47 4b 56 bd 4d b2 b0 bb
       0.0968527 0.016513035 -0.052317884 -0.005392349
0000e0 09 25 b1 3d 97 6a b8 bd ec c4 07 3e c8 0d 76 bd
       0.08649642 -0.090047054 0.13258713 -0.060071737
0000f0 51 47 b9 3d 18 ba 9e bd 35 2c 9f 3d 7f 71 e5 3d
       0.09046806 -0.07750338 0.07772104 0.11203288
000100 4c fc 78 3d c2 29 bb bd 9f 31 45 bc 01 0c a1 3d
       0.060787484 -0.09138824 -0.012035756 0.07863618
000110 01 77 34 bd 78 af 14 bd d0 bb ae 3d dc 84 d1 3d
       -0.044058803 -0.036300153 0.08531916 0.10230419
000120 cd 23 ab bd 05 41 4d bc e3 b9 48 3d 80 35 81 3c
       -0.08356438 -0.012527709 0.0490054 0.015772581
000130 da e9 00 3e 83 69 f4 3c 1d 0f ee bd c4 55 cb bd
       0.12589207 0.029835468 -0.116239764 -0.09928468
000140 b4 11 c5 3d 9a 09 e4 3d fd 01 e8 3b 43 e7 a8 3d
       0.09622517 0.11134644 0.007080315 0.08247235
000150 ae 6e 29 bd 07 ca d3 3d c9 c2 b6 3d 21 3b 0a 3e
       -0.041365318 0.10341268 0.08923871 0.13499118
000160 b6 59 b6 3d cf 1d c5 bd 23 2e d3 3c db 2a 8c 3d
       0.0890383 -0.09624826 0.025778836 0.068441115
000170 08 a6 9d bd 16 fc 8d 3d ca ba 0d 3e 07 94 f4 3d
       -0.076976836 0.06932847 0.13840786 0.119422965
000180 7a 76 c6 3d b6 02 a6 bc 6e 56 d1 3d 1b a8 94 3c
       0.09690566 -0.020264965 0.10221563 0.018146565
000190 01 24 b9 3c e3 a6 3a 3d d5 b8 a4 3c 27 28 bb 3d
       0.022600176 0.04556931 0.020107666 0.09138518
0001a0 7c 00 f8 3c e3 49 90 3d 49 d5 05 3e 1c 7a 6d bc
       0.030273668 0.07045343 0.13069643 -0.014494445
0001b0 ae fb 76 bd 47 b4 81 3d 01 5a 78 bd cf 3b d0 3d
       -0.060298614 0.06333213 -0.06063271 0.101676576
0001c0 54 b3 3d bc 4d 56 06 3e e1 cb ea 3c cb bf a1 3b
       -0.0115784 0.13118859 0.02866167 0.0049361936
0001d0 e0 57 80 bc 05 4f db 3d 5c df f1 3c 02 1a 8b 3d
       -0.015666902 0.10708431 0.029525451 0.0679207
0001e0 4f 50 37 bd 87 cd 6e bd a1 c0 0c 3e 2d 8c 7f bb
       -0.044754323 -0.058301475 0.13745357 -0.0038993463
0001f0 80 44 fb bc 3b 55 7f 3b a2 b6 a9 3d db ee dd 3c
       -0.030672312 0.0038960713 0.082867876 0.027091434
000200 5d 65 4a 3c 59 d4 c1 bd 10 e0 da 3d a8 a4 c1 bc
       0.012353268 -0.0946433 0.10687268 -0.023638085
000210 dc 88 07 be 24 d3 dd bc 0b 58 d5 3a 20 25 b7 bc
       -0.13235801 -0.027078219 0.0016276849 -0.02235657
000220 b9 eb ba 3b 5d 53 e0 3c 14 8c ec 3c 96 2f 88 3d
       0.00570437 0.0273835 0.028875388 0.06649701
000230 06 90 ad bd be 31 af 3d e9 38 6c 3d 72 1c ab 3d
       -0.08474736 0.085544094 0.05767146 0.08355035
000240 21 5f 3a 3d 3e 6f a6 bc 0d 37 c8 bd 80 b6 af 3d
       0.04550088 -0.020316716 -0.09776125 0.08579731
000250 3e b6 43 bd e2 db af 3d f5 29 c6 3c e4 e6 60 3d
       -0.04778122 0.08586861 0.024189929 0.054907694
000260 9b e5 27 3d b4 eb bf 3d 65 4a 28 3d aa 38 d1 bd
       0.040990453 0.09371129 0.041086573 -0.10215886
000270 bd 39 97 3d 56 4e b5 bd 79 2d de bc 2b 8c 09 3d
       0.073840596 -0.08852832 -0.027121292 0.03358094
000280 5d 0b d5 bc 20 bc f1 3d 2c e7 86 bd 3c f5 bb bd
       -0.026006395 0.1180346 -0.06587061 -0.09177634
000290 11 89 cd bd 1b 4d 04 bb f1 fe e2 bc 15 7b 79 3d
       -0.10035909 -0.002018756 -0.027709456 0.060908396
0002a0 25 1f dc 3c 90 6b c6 bb b0 3e 82 3d 70 36 ff 3d
       0.02687032 -0.006055303 0.06359613 0.12461555
0002b0 16 46 5f 3d 91 fb d4 bd 85 f7 90 3d 9f 8e 4d 3d
       0.0545102 -0.10399545 0.070784606 0.050184842
0002c0 9a 4e 5b 3c 5d 50 e0 3d 7a 95 a4 3d b4 c7 f4 bd
       0.013385439 0.10952828 0.08036323 -0.11952153
0002d0 f9 77 21 3d dc 50 2b 3c 07 90 cb bd 11 c4 9a 3d
       0.039421055 0.01045629 -0.099395804 0.07556928
0002e0 7c 46 6e bd 4a 7a eb bd d2 99 4b 39 dc 50 ce 3c
       -0.058172688 -0.11497934 0.00019416891 0.025185041
0002f0 5b df 69 3d 11 7c c6 bc 8f dd dd bd 50 3a 68 bc
       0.057097774 -0.024229081 -0.108332746 -0.014174059
000300 f6 c7 30 bc 46 95 3e bc 66 5d af bd d2 fb 45 3b
       -0.010789862 -0.011632269 -0.08562736 0.003020991
000310 ba 43 9c 3d 72 9d 32 bd 8d 2b a3 bd 99 d7 43 bd
       0.07630105 -0.043607183 -0.07967291 -0.04781303
000320 12 f9 7c 3d 4b 63 f3 3d 05 71 27 3d 8d 1f a4 bd
       0.06176097 0.11884173 0.04087927 -0.0801383
000330 88 69 ca 3d 07 ac 30 bd e9 56 d9 3d 63 7e 50 bb
       0.0988341 -0.043132808 0.1061228 -0.0031813614
000340 20 ba 10 3d 9a ac ff 3d 4f a8 0a bc 90 b4 b7 bd
       0.035333753 0.12484093 -0.008462979 -0.089699864
000350 3d 06 dd bc 56 1f bd bd a0 75 1c 3b c3 0b 13 bd
       -0.026980514 -0.092344925 0.002387382 -0.03589989
000360 a1 0e 03 3e 7e 02 2a 3d b2 8f aa bd 02 d2 f2 bb
       0.12798549 0.041506283 -0.08328189 -0.007410289
000370 ad 2c e3 bc 9a fe a3 bd f2 0e ea 3d 08 a3 82 3d
       -0.027731264 -0.08007546 0.11428632 0.06378752
000380 2d 2a a6 3d a1 33 a9 bb 41 8c 1d bd 34 d2 0d 3e
       0.08113513 -0.0051636253 -0.038463835 0.13849717
000390 ef 39 ee 3b f0 8a fc 3d 45 b1 b4 bd fc 53 00 3d
       0.00727009 0.12331188 -0.08822874 0.031330094
0003a0 c7 48 60 bd cb 27 74 bd 8c c6 82 bd fe 62 b3 bd
       -0.054756906 -0.059608262 -0.06385526 -0.08759116
0003b0 ea 8e a0 bc c3 e3 b4 3d c3 30 10 bc 36 af c2 3d
       -0.019599397 0.088325046 -0.008800688 0.09506075
0003c0 db 0c 42 3d 95 35 71 bd 45 83 5d 3c c9 7d a7 3c
       0.04737554 -0.05888899 0.013520067 0.020445721
0003d0 38 8e b5 bd 08 42 83 bd 23 1f 29 bd 89 9b 7c 3d
       -0.08865017 -0.06409079 -0.04128946 0.061671767
0003e0 82 9d b4 bd fb bf c7 3d dd 97 97 bd 2e 1c d4 3d
       -0.08819105 0.09753414 -0.074020125 0.10356937
0003f0 1e 61 92 3d 1b 44 c7 bd 62 2e 5a bd a1 c1 8e bd
       0.0714743 -0.09729787 -0.05326689 -0.069705255
