models/AIOTUSDT_lstm_20250822_024704.pth (torch, 267829 bytes, 11 tensors)

lstm.weight_ih_l0 f4 [256, 53]
00000000: 8cef ad3d 48f2 dabd d2fd e5bd e015 383d
00000010: 880b 1abd 74ed edbd ca7c d23d 40e4 c9bb
00000020: 50ad e4bc b442 343d a4c8 ecbd 069d f5bd
00000030: 82fd adbd fa63 813d a84c 7cbd b09a 9f3d
00000040: 1ec4 9bbd f003 84bd 10b6 84bd b616 833d
00000050: 0012 f13b 1090 963d 3e98 e53d ba4b 8c3d
00000060: 4296 b43d 205f 0a3d cc73 4d3d a02a 683d
00000070: f430 503d 5a3a e73d 38ed b0bd 3e50 d1bd
00000080: ecda fbbd 7850 bcbc 7cd5 d8bd 74f8 2d3d
00000090: fadc c4bd 4016 cbbb 78e6 943c 3a85 f3bd
000000a0: 00c0 dbbb 1c91 543d 406e ffbd a4e6 193d
000000b0: 6806 953d cc47 bbbd a033 19bc a050 9fbc
000000c0: eaa9 f2bd 4c5a 8e3d 44b5 5bbd 9494 ccbd
000000d0: 7cd4 94bd 90b5 f13d 509e 633c fa05 82bd
000000e0: 748f 383d 52a1 9b3d 6414 6fbd e8ba 7e3d
000000f0: 98b6 92bc 9e2d f5bd 2a1b 863d c8a8 f4bd
00000100: 1e00 f03d 82ed d53d b0a8 193d e0a3 d43b
00000110: c2ab b13d 4037 003b 82e1 d03d 1c7b 94bd
00000120: 8eed ba3d 18cd 9a3d 54aa 0ebd ae86 d63d
00000130: ee5b b0bd 3ecd 8dbd e059 a4bc 10a9 ccbd
00000140: 6eac debd 5867 eebc b65b 9cbd 12a3 aabd
00000150: 3e65 b83d 90f8 9fbd c8e3 9fbc b0a4 d5bd
00000160: 7af9 8cbd 6487 22bd 4044 e3bd 3085 fc3d
00000170: 00b9 c03a 1ca1 a03d b4d1 7f3d 38f3 8b3d
00000180: b8c5 9b3d 68de 30bd 4a6b e53d 0871 dbbc
00000190: 1445 13bd d4e6 16bd 5455 20bd 1c9f 113d
000001a0: a0d2 543d f484 5c3d a2d2 9d3d c414 ef3d
000001b0: 7828 b93d 9a21 fc3d 682c 823c d07f 103d
000001c0: acd2 133d 40bd 96bd 0024 6cba 7689 fdbd
000001d0: 24b5 143d 3202 cd3d 60ec 0dbc 50c3 3c3c
000001e0: 30ac 13bd aa9f a63d 442a 403d aed4 dfbd
000001f0: fa0d aa3d 90d5 a9bc dcd8 49bd 08a8 d1bc
00000200: c02d c83b 1802 0f3d 5400 0e3d de6f b8bd
00000210: caf5 e63d 94d6 e23d be38 d23d dc08 6f3d
00000220: fa49 a1bd 3ec6 afbd 06f3 f7bd cc1f 72bd
00000230: 1058 3cbd 0ce2 e03d 402a c1bb 2884 97bc
00000240: 5012 60bc cca4 05bd 2888 943c 98a6 8e3d
00000250: bcb5 ebbd b61b 893d 9ad6 9c3d 48a6 e2bd
00000260: 0022 7d3b 22a1 85bd 40ee 793b 4afc c23d
00000270: 76a0 febd 3204 803d 6c0d 3b3d dc96 903d
00000280: ecf3 1b3d 24ce dbbd b8c4 d63c 08c9 6e3d
00000290: b299 9abd 804b 063d daa9 e43d 60cf 9b3c
000002a0: 36bf e5bd 3661 99bd 503a e1bc 30d5 63bc
000002b0: 38b1 50bd 805d 923c bca5 e9bd b086 81bc
000002c0: 16a1 b2bd 94cb 423d 0859 a0bd 82f8 e5bd
000002d0: 2ea8 dabd 9890 a93d cc38 e73d 5013 8a3c
000002e0: 8059 ca3d fc58 4a3d c05d 583d 603c dd3d
000002f0: f2d2 bb3d 7aa9 b73d aef6 96bd 12e5 f53d
00000300: a046 973d 4a12 af3d b86f a13d 5a24 dd3d
00000310: c07a 5d3c 6e56 ea3d 98f9 fcbd a05c 2a3c
00000320: 30ba a0bc 6ed1 e0bd 9ce0 efbd 0003 23bc
00000330: a0da ba3d 38fb 2e3d 7c66 c9bd d055 11bd
00000340: 783e b8bc 7047 25bd d4b8 eb3d 202b f3bb
00000350: b82e 5a3d 184a d0bc 92ce 85bd f6c6 ca3d
00000360: 4a15 b43d 9438 4d3d 080a ca3d 9e37 e3bd
00000370: d0eb a13c 68aa 213d 5871 453d b488 ae3d
00000380: d02f 123c 007e cf3d 802f cbba 5889 9abd
00000390: 209d a73b 7672 e9bd b40d e4bd 1275 aabd
000003a0: 083b e4bc 0420 32bd a8f7 9c3d 8899 ccbc
000003b0: 80a1 553b 4c75 d7bd 8038 dabb 2ca4 3b3d
000003c0: 8850 863c 86dc dd3d 080a eebc c6d0 bd3d
000003d0: 18b9 11bd 00cd e1bb 504e 1fbc 28b6 bf3c
000003e0: 3228 c93d 3054 2d3c 4089 7e3c d0fa 453d
000003f0: 0ad4 f63d 7299 af3d 12af ac3d 70ea 3fbd
0.084929556 -0.10690743 -0.11230053 0.044942737 -0.037608653 -0.11617556 0.10277708 -0.0061612427
-0.027914673 0.044008926 -0.11561707 -0.119928405 -0.084956184 0.06317897 -0.061596543 0.07793176
-0.07605766 -0.064460635 -0.06480038 0.06400816 0.007356882 0.073516965 0.112106785 0.06850381
0.08817722 0.033782125 0.05015926 0.056681275 0.050827935 0.112904266 -0.08638996 -0.10220383
-0.122976154 -0.02298759 -0.10587594 0.04247327 -0.096124604 -0.0061977208 0.018176302 -0.11890645
-0.006706238 0.0518962 -0.124722004 0.03757347 0.072766125 -0.091445535 -0.009350687 -0.019447625
-0.11848815 0.069508165 -0.053639665 -0.099892765 -0.07267091 0.118022084 0.013892725 -0.06348796
0.045058683 0.07599129 -0.058369055 0.062189966 -0.017909333 -0.119715914 0.0654815 -0.11946255
0.11718772 0.10445692 0.03751439 0.006489262 0.08675338 0.0019564182 0.10199262 -0.07250044
0.09127341 0.0755865 -0.034830406 0.10474907 -0.08611284 -0.069239125 -0.020062387 -0.099931836
-0.10872732 -0.029102013 -0.0763468 -0.083318844 0.090036854 -0.078110814 -0.019517794 -0.10431802
-0.068835214 -0.0396799 -0.11097002 0.12330091 0.0014703572 0.07843229 0.062455848 0.068335
0.07606071 -0.043180853 0.112021044 -0.026787296 -0.03595455 -0.03684123 -0.039143875 0.03555213
0.05195868 0.05383773 0.07706191 0.116738826 0.09040922 0.123110965 0.015890315 0.03527814
0.036089584 -0.07360315 -0.000900805 -0.12379734 0.03630556 0.10010184 -0.008662313 0.0115211755
-0.036052883 0.08135922 0.046915308 -0.10929237 0.08303447 -0.020731717 -0.04927908 -0.025592819
0.0061089694 0.034914106 0.03466828 -0.09005712 0.11277349 0.11076084 0.10264729 0.05835806
-0.07875438 -0.085827336 -0.121069 -0.059112355 -0.04598242 0.10980615 -0.005894929 -0.018495634
-0.013676241 -0.032627866 0.01813133 0.06965369 -0.115092725 0.066947386 0.076581195 -0.11066872
0.0038625002 -0.06524874 0.0038136393 0.095207766 -0.12432949 0.062508 0.045667097 0.07060024
0.03807442 -0.107326776 0.02621685 0.058297187 -0.07548846 0.032786846 0.11165209 0.019019783
-0.11218111 -0.07489245 -0.027493626 -0.013905808 -0.05095026 0.01786685 -0.114085644 -0.015811294
-0.08722131 0.04755743 -0.07829481 -0.1122904 -0.10676609 0.08279532 0.1129013 0.016854912
0.09880352 0.04940127 0.052823782 0.10802531 0.09171094 0.08967872 -0.07371269 0.12006582
0.073865175 0.0854841 0.07882637 0.10797949 0.013518035 0.114422664 -0.12352294 0.01039806
-0.019620031 -0.109774455 -0.11712763 -0.009949446 0.09123731 0.04272005 -0.098340005 -0.035482228
-0.022490725 -0.04035133 0.115098625 -0.0074209124 0.05326721 -0.025425956 -0.06533541 0.0990123
0.08793123 0.050102785 0.098651946 -0.110945925 0.019765764 0.039469153 0.048203796 0.08522168
0.008922532 0.101314545 -0.0015501827 -0.075457275 0.0051151663 -0.11398785 -0.11135426 -0.08323111
-0.02786018 -0.043487564 0.07664424 -0.024975553 0.0032597482 -0.105204195 -0.0066595674 0.045810863
0.016395822 0.10833077 -0.029057518 0.09268336 -0.03557691 -0.006890893 -0.009723261 0.023402289
0.0982212 0.010579154 0.015535653 0.048334897 0.12052162 0.08574189 0.084318295 -0.046854436

lstm.weight_hh_l0 f4 [256, 64]
00000000: f492 b4bd 6cfa 263d 56de dcbd 5ca4 5ebd
00000010: dc34 983d f4ee 293d f068 07bc b85a e13d
00000020: 8032 96bd c07a 123b 50ff 65bd 1a72 aa3d
00000030: fe4a dc3d c6dc 8c3d e89d 13bd cab3 89bd
00000040: 00c0 83bb 1ca2 be3d b8ce a8bd f28e 993d
00000050: 96b6 913d 5a62 ec3d cc53 f8bd e232 8a3d
00000060: 0c3d febd c05b 2dbd b8d5 523d f062 7e3d
00000070: 9824 debc fa9f fb3d f477 b63d c05a 19bb
00000080: 00fb d4bd 6a74 f93d ec29 cc3d d89e 49bd
00000090: 28fe 9c3c c07e bbbc 548b 5abd e8cb e0bd
000000a0: 380e f93d 0433 efbd 685a 85bd 485f d63c
000000b0: e6f7 f9bd 405f e5bc c0d3 e13c 203d 5dbc
000000c0: 18ad cebd 5425 5cbd f059 fbbc bcdd 75bd
000000d0: 12a4 98bd 5885 fdbc 08cc 31bd 02b9 e6bd
000000e0: 7491 72bd ce06 a13d 5007 fdbd 5e84 ac3d
000000f0: c0a1 323d 1ade d53d b8f9 a5bd 3c98 5f3d
00000100: 8076 1b3b 9402 67bd 20ce bbbd 4090 c53c
00000110: 70f7 0abd f891 953d b044 d4bd 52b1 9fbd
00000120: c089 ac3b 804e d5bc 4636 d0bd c066 86bb
00000130: d4c5 19bd 00e8 ef39 168c 963d d83f 8f3c
00000140: de25 c8bd 9a42 9f3d fc8a d1bd 70ad 6f3c
00000150: 80f4 9cbc a068 c03b c04d 583b 48f8 9e3d
00000160: 44c7 01bd ee46 8bbd 80b4 7d3c b0a6 3ebc
00000170: 306f de3d 6872 703d a6a4 c9bd ae16 bebd
00000180: 16e4 e73d 548a 18bd 08eb 14bd 6468 4bbd
00000190: b46d 3a3d c010 c93b e0a6 07bc e0f4 0b3d
000001a0: 7c90 5b3d 78f2 6d3d ec0f 743d 582a ebbd
000001b0: b014 4cbd b4b9 e3bd 50c5 eebd 3a72 86bd
000001c0: 4257 b9bd 00e5 fe3b f27b abbd 8cad 973d
000001d0: 8485 c23d 8098 6a3d 1c93 c4bd 7a94 c4bd
000001e0: 60ee 1d3d 900d d23d 3013 523c 9c0f f3bd
000001f0: 20db 33bc c809 55bd b04a 8a3c 56b3 eb3d
00000200: 3081 db3c 7036 793c c0d4 5c3b e0aa d53d
00000210: 80d6 5ebb 20cb f1bb f863 cb3d 80d7 dd3d
00000220: c8b0 af3d 5648 aabd 20d7 41bd f6a2 a43d
00000230: b868 9f3c c60b c7bd a0a2 2a3c ee38 b0bd
00000240: 28a3 ef3c 5a3c d8bd 9479 25bd 50a1 d03c
00000250: 9cac 0e3d 3806 9d3c 8012 9e3d 8002 2ebc
00000260: 88bd 6bbd a0b3 8d3c c280 b3bd d656 85bd
00000270: 8c34 41bd 9ca3 753d 0081 ea3b e67c 86bd
00000280: 4c88 2fbd 5430 bf3d 6204 fb3d 1412 ff3d
00000290: c0cf 1a3b 4042 a43d c85b d43c c0d9 ea3d
000002a0: 201e 9abc 6662 93bd 3e16 8f3d 9cb3 e0bd
000002b0: f485 08bd f0e1 f1bc 1c8e 323d 387f 06bd
000002c0: 965f d2bd 4284 a2bd d016 03bd e4a8 09bd
000002d0: 84c6 47bd 34f8 f63d 8040 d6bc a2a3 88bd
000002e0: b06b 8fbc 0429 00bd 38ef 54bd e04c 583c
000002f0: e02c a13b 3ea9 a73d 88bc a0bd ecd2 503d
00000300: 00eb 3b3b 2443 dd3d 103e 75bc 1272 a63d
00000310: 1259 fcbd c836 57bd c0db d03c 6431 5ebd
00000320: 72e0 efbd d24d c4bd 70c4 e6bc 14df 09bd
00000330: 1e6c a03d 78a0 fd3d 5028 373d 003d 943c
00000340: 5202 ddbd d878 b43c 0cd1 82bd 84e6 fabd
00000350: d45d 913d 40ad c73c 4074 8ebc 28c7 cdbc
00000360: e0d4 6dbc 5c01 5abd 8a17 913d d6db cbbd
00000370: dec8 9b3d 40e4 883d 323d ea3d 90f9 c33d
00000380: 7cc2 b5bd 2cfb f23d 3063 dabc bc6b e23d
00000390: 00d0 ab3c c052 46bc 2820 42bd f463 483d
000003a0: a80f c33c dcc7 cfbd baa6 f33d 4690 fb3d
000003b0: f084 f5bd 00ed 703a e8a9 293d 88ea 8d3c
000003c0: 3402 3a3d bc1b 183d b0f7 c13c e8ed 413d
000003d0: 38e2 f1bd 80e1 59bb 4ec3 d53d e82c 8fbc
000003e0: c0b8 8e3b b2aa f8bd 28ab f43d c892 95bd
000003f0: c26f e0bd b4f8 143d e4a9 66bd b47c 573d
-0.088170916 0.040766165 -0.10784595 -0.054355964 0.07431957 0.04148765 -0.008264765 0.11003631
-0.07333851 0.0022350997 -0.056151688 0.083225444 0.10756491 0.06878047 -0.036039263 -0.06723745
-0.004020691 0.09308264 -0.082425535 0.07497968 0.07114904 0.115421966 -0.12125358 0.067479864
-0.124139875 -0.042323828 0.05147335 0.062106073 -0.027117059 0.122863725 0.08909598 -0.0023400038
-0.10399437 0.12180407 0.099689335 -0.04922375 0.01916416 -0.022887588 -0.05335553 -0.10976392
0.12160915 -0.11679652 -0.06511384 0.02616848 -0.12205486 -0.02799952 0.02756679 -0.013503343
-0.10091609 -0.053746536 -0.030682534 -0.060025916 -0.07453169 -0.030947372 -0.04340747 -0.11265756
-0.059220746 0.07862626 -0.123549104 0.084236845 0.043611288 0.10442753 -0.08104271 0.05458854
0.0023721755 -0.056398943 -0.091701746 0.024116635 -0.03392738 0.07303232 -0.103646636 -0.07797493
0.0052654445 -0.026038408 -0.10166602 -0.004101604 -0.03754218 0.00045758486 0.07350938 0.017486498
-0.097728476 0.07776375 -0.10231587 0.014628753 -0.019159555 0.0058718473 0.0033005327 0.077622
-0.031684175 -0.06800638 0.015484929 -0.011636421 0.10861051 0.058702856 -0.09845857 -0.092816696
0.11322801 -0.037241295 -0.036356956 -0.0496601 0.045514777 0.00613603 -0.008279532 0.034169078
0.053604588 0.058092564 0.059585497 -0.11482686 -0.049824417 -0.111194044 -0.11658728 -0.06564756
-0.09049846 0.007778764 -0.0837325 0.07406148 0.09498122 0.05727434 -0.095983714 -0.09598632
0.03855741 0.10256493 0.0128219575 -0.118682116 -0.010977536 -0.05201128 0.016881317 0.11508815
0.026795 0.015210733 0.0033696145 0.104329824 -0.0034002364 -0.0073789507 0.09931177 0.10832119
0.0857864 -0.08314578 -0.0473243 0.08038895 0.019459113 -0.097190425 0.010414749 -0.086046085
0.029252604 -0.10558386 -0.04039915 0.025467545 0.034832582 0.019168004 0.07718372 -0.010620713
-0.057553798 0.017297566 -0.08764793 -0.06510703 -0.047169253 0.059970483 0.0071564913 -0.06566791
-0.042854592 0.0933539 0.12256695 0.1245462 0.0023622364 0.08020449 0.025922671 0.11467314
-0.018813193 -0.071965024 0.06986664 -0.10971758 -0.033330873 -0.02952668 0.043592557 -0.03283617
-0.10272138 -0.079353824 -0.032004178 -0.033608332 -0.048773304 0.1205906 -0.026153803 -0.066718355
-0.017507404 -0.031289116 -0.05198595 0.013201922 0.0049186796 0.08186577 -0.078484595 0.0509824
0.0028674006 0.10803822 -0.01496841 0.08127226 -0.12321676 -0.052542478 0.02549541 -0.05424632
-0.117127314 -0.095851555 -0.02816984 -0.03366001 0.07833122 0.123841226 0.04471618 0.018095493
-0.10791458 0.022030279 -0.06387529 -0.122509986 0.070979744 0.024374604 -0.017389417 -0.02511938
-0.014516085 -0.053223953 0.07084568 -0.0995404 0.07606672 0.0668416 0.11437453 0.09569085
-0.088749856 0.118643135 -0.026658624 0.11055705 0.020973206 -0.01210469 -0.047393948 0.048923448
0.023811176 -0.10145542 0.11897035 0.12283377 -0.119882464 0.0009190589 0.0414218 0.017323747
0.045412257 0.037135825 0.023677677 0.047346026 -0.11810726 -0.003324598 0.10437642 -0.017477468
0.00435552 -0.121419325 0.11946708 -0.07303387 -0.10958816 0.036369994 -0.056314364 0.05260916

lstm.bias_ih_l0 f4 [256]
00000000: 34ea 6dbd 9c39 8bbd 00ae b73a 3ee9 c23d
00000010: dcfa 64bd e05d 3b3d 347d c33d 603c edbc
00000020: 1877 f33c bae9 ee3d c05f afbc 6e88 ddbd
00000030: 62de ee3d 9651 be3d 88c1 efbd 20b9 1ebd
00000040: 72a8 cfbd 48e8 33bd 10e0 173c 200a 8d3d
00000050: 005e af3c 8211 de3d 96b9 9b3d 8458 0c3d
00000060: 98eb eabd 2ec4 e2bd c0e5 303b cab9 e6bd
00000070: b8e6 cabd 6074 eebb 2c65 c6bd e0b7 fd3c
00000080: b8fc 0cbd eebe d73d b2fb 9c3d d0ae 43bd
00000090: 245f 593d 2a2b ed3d be69 92bd 5c92 1abd
000000a0: 6015 683c 4a91 96bd 7626 f1bd 24ee 1d3d
000000b0: e88b a63d f837 9b3d 70fc 2e3c 3204 983d
000000c0: 82bc d7bd f0db c43c d614 f7bd 98b4 23bd
000000d0: 54e0 febd 00d6 833c 5012 f2bc 344e 9c3d
000000e0: 50c6 55bc 44c5 363d 10d3 dcbd c8f3 26bd
000000f0: 4a40 963d c0af abbb 4add d9bd 8e91 d53d
00000100: aa2b 833d 708d 8cbc 408d d73d 5a1c 9d3d
00000110: 2460 923d 7007 45bd 202d 163c 6e00 f7bd
00000120: 3c16 9c3d 4c04 503d b0f0 4cbc e00d 063d
00000130: 8419 3dbd 1897 4f3d f0a4 0fbc cef6 da3d
00000140: 6804 75bd ec93 233d 30bb ddbc 1490 febd
00000150: 1099 6abc e435 823d 047b 453d 8009 afbc
00000160: 18ce b8bd 9856 dbbc dab1 e0bd 6061 783d
00000170: 7c5f 973d 7660 8cbd 50bd 6bbc 8c2e eb3d
00000180: f0f9 513c 1cc1 753d 04e4 9d3d 804c c73c
00000190: a025 973c 80de e5ba 3030 afbc 0609 963d
000001a0: 683e b5bd 8672 f1bd eec2 bc3d 20f4 afbb
000001b0: a0bf c4bb 88b0 95bd c6b9 e5bd ae94 abbd
000001c0: d04b 14bd 28da 113d b0dc fc3c 428e 9c3d
000001d0: de31 c43d 4875 9ebd bca6 da3d 6e90 d9bd
000001e0: 28a1 cabc 26de 953d 8cba 003d 4018 253b
000001f0: 640d 383d b8f7 9dbc 001d 84ba 3e77 f3bd
00000200: 187d 25bd f883 7fbd 38ce b23d 288c 40bd
00000210: 18cd f7bc 2c4a ed3d 88d0 e9bd 7cd5 9abd
00000220: 8ed2 903d 5a54 833d de85 b03d 7472 1fbd
00000230: d43a ea3d a04e ed3c 900f f8bd a854 50bd
00000240: dc7a 56bd d4ec 603d 6078 52bc 06ba d03d
00000250: be9a abbd 1259 ca3d 36a8 8c3d 9006 f23c
00000260: 5400 2cbd 1e9b eebd 5a50 cb3d 3826 4bbd
00000270: 1cc2 96bd 4c98 53bd 3848 a6bd 14b8 a63d
00000280: cc4c 713d 4850 343d 7cc0 773d fa76 813d
00000290: 10b1 59bd 6cc3 8cbd ca93 883d 7058 3c3c
000002a0: 0e25 93bd 00dc 20ba c014 2a3d d0c0 52bc
000002b0: 72a8 f23d d802 443d 1ca1 0cbd e050 1bbc
000002c0: 04b4 203d 5cc5 aabd 9017 b53c 74ce a83d
000002d0: 884d cebc 186c 87bc e07a 2bbd e0e1 2c3d
000002e0: 8612 a63d 2034 6fbc 981c ff3d 98ad 323d
000002f0: 3c68 8ebd 1e2f f23d 5ade b83d b053 f2bd
00000300: 8c45 3abd 4ed0 d3bd 5400 51bd e89a 1f3d
00000310: 0006 b83a 5465 a33d e05b b73d 102e a73d
00000320: 44a8 4c3d 7474 293d 16b0 b43d 0030 5cb9
00000330: 5297 f4bd 4cda 8a3d a47e 91bd 2eff 84bd
00000340: 44bb 9cbd f8ae fe3d c683 c63d 40e7 003d
00000350: 2097 493c 90c5 28bc 1069 8cbc f0d2 d9bc
00000360: 58d2 0b3d 2040 b7bc c047 cebc b410 f3bd
00000370: 3ebe 98bd 7c8d a03d 889e d03c 2014 cebb
00000380: 6c21 ef3d b0ca fbbd 0a37 d8bd f8f7 b63c
00000390: 1cdc 7fbd 9813 8ebc 9efe c8bd 60cb 2a3d
000003a0: e857 d1bc e07d 78bd dcfa e6bd f4ba f6bd
000003b0: 340c b63d 50a1 ddbc c09b 27bc 48f7 c3bd
000003c0: 5221 e83d 2091 be3d ecf4 dc3d a63f d5bd
000003d0: 7668 8dbd 32a3 f43d 88de b73c 4048 e1bd
000003e0: b020 2ebc ccdd 333d 9a4a b43d 8020 603c
000003f0: 1089 04bc ca8f cf3d 6437 8f3d 042a 5f3d
-0.05808468 -0.067980975 0.0014013648 0.09517144 -0.0559033 0.045743823 0.09545365 -0.028959453
0.029719874 0.116656736 -0.021407962 -0.108170375 0.1166351 0.09292905 -0.11706835 -0.038750768
-0.1013955 -0.043922693 0.009269729 0.06886697 0.021407127 0.10843183 0.07603757 0.034264103
-0.11470717 -0.110725746 0.002699241 -0.11265905 -0.09907287 -0.0072770566 -0.09687266 0.030971467
-0.0344207 0.10534464 0.076651946 -0.047774136 0.05306925 0.115804985 -0.07149075 -0.037737235
0.014165252 -0.073519304 -0.11774914 0.038557187 0.08132154 0.075790346 0.010680303 0.07422675
-0.10534002 0.024030656 -0.12064521 -0.03996715 -0.12445131 0.016093254 -0.029549748 0.076321036
-0.01304777 0.04462172 -0.107824445 -0.04075983 0.07336481 -0.005239457 -0.10637911 0.10428153
0.06404813 -0.017157286 0.10524988 0.07671423 0.071472436 -0.048102796 0.009166032 -0.12060629
0.07621428 0.050785348 -0.012508556 0.032728076 -0.04616691 0.050681204 -0.0087673515 0.106916055
-0.059818655 0.03993599 -0.027066797 -0.124298245 -0.0143187195 0.06357935 0.04821302 -0.021366835
-0.09023684 -0.02677469 -0.109714225 0.06063974 0.07391259 -0.06854336 -0.014388397 0.114834875
0.012815937 0.059998617 0.07709506 0.02432847 0.018450558 -0.0017537624 -0.021385282 0.0732594
-0.08849794 -0.11789422 0.092168674 -0.005369678 -0.006004289 -0.07309061 -0.11217074 -0.08377968
-0.036205113 0.03560844 0.03086695 0.07644321 0.09579824 -0.077372134 0.10676333 -0.10623251
-0.024735048 0.07317762 0.031427905 0.0025191456 0.044934645 -0.01928316 -0.0010079443 -0.11887978
-0.0404025 -0.062381715 0.08730739 -0.047008663 -0.030249164 0.11586413 -0.11416727 -0.0756025
0.0707141 0.06412573 0.08619283 -0.03892751 0.11437002 0.028968155 -0.12112343 -0.050861984
-0.05236326 0.054913357 -0.012846082 0.10191731 -0.08379124 0.0988027 0.06868021 0.029544145
-0.0419925 -0.1165068 0.09927435 -0.049596995 -0.07361242 -0.051658913 -0.081192434 0.08140579
0.05891113 0.044021875 0.0604863 0.06321521 -0.053147376 -0.06873211 0.066688135 0.0114956945
-0.07184802 -0.0006136298 0.041523695 -0.012863353 0.11848535 0.047854275 -0.034333333 -0.009479731
0.039234176 -0.083384246 0.022105962 0.08242503 -0.025183454 -0.016531035 -0.04186523 0.0422076
0.08109002 -0.01459983 0.12456626 0.043622583 -0.06953475 0.11825393 0.09026785 -0.118323684
-0.04547648 -0.10342465 -0.051025704 0.03896609 0.0014039874 0.07978311 0.08953071 0.081630826
0.049965158 0.041370824 0.08822648 -0.00020998716 -0.119429246 0.06779918 -0.07104233 -0.06493984
-0.076529056 0.124357164 0.096931025 0.031470537 0.012304097 -0.010301009 -0.017139941 -0.02658984
0.034136146 -0.022369444 -0.025180697 -0.1186842 -0.07458161 0.07839486 0.025466219 -0.00628902
0.116762966 -0.12294519 -0.10557373 0.022335038 -0.062465772 -0.017343327 -0.098141894 0.04169786
-0.025554612 -0.06066692 -0.112783164 -0.12047377 0.08889046 -0.027054459 -0.010230005 -0.095686495
0.1133448 0.09305024 0.10788903 -0.104125306 -0.0690469 0.119451895 0.022444978 -0.11000109
-0.0106279105 0.043912694 0.088032916 0.013679624 -0.008089319 0.101348475 0.06992987 0.05448343

lstm.bias_hh_l0 f4 [256]
00000000: 36e6 a83d e0fc 1a3d 3634 dc3d 50b2 90bc
00000010: b476 393d 024c 953d 3487 dcbd 3872 883d
00000020: 80d4 e73c 404e d43c 26cb dabd 5891 9c3d
00000030: 7002 dbbd 88d0 af3d 60fd 973c 6855 bd3d
00000040: 104b b3bc 100b ce3c 7c95 083d 8c1c 443d
00000050: 8050 f83b 5043 fdbc 008c 5f3b 8056 313d
00000060: 0842 bbbc b0a6 b83d 4008 d13b e059 0f3c
00000070: 4442 2d3d 4ae4 b13d 101c 7bbd 60b5 7dbc
00000080: 0ad2 99bd 0c91 803d 90a8 273d ecd0 65bd
00000090: 5c80 7ebd bc7d 0d3d 02ee 90bd 32ea ffbd
000000a0: 0c09 00bd 7695 803d 0cfb d2bd 5c20 ef3d
000000b0: 0c21 47bd 9e7a ab3d 1a25 b4bd 90c2 803d
000000c0: fc4d 463d d4c7 a8bd 58c1 b43c 0057 41bb
000000d0: 4039 6bbd dcff 163d b8f9 53bd 2c3f 3dbd
000000e0: 3cdc f9bd 8e04 b7bd 3c9e 843d 5018 693c
000000f0: e08e a83b a056 8bbd 200a c93c 7050 80bc
00000100: d8ff acbc d0a6 543d 4089 7f3b e849 efbc
00000110: 1000 4c3c 28c6 913c 5013 7dbc 26d9 9ebd
00000120: 3046 19bd 90ee 413d b4be a13d 2c5d 433d
00000130: c097 703b f836 263d c08e b73d b040 9e3d
00000140: f0e5 5ebd 3a44 a13d 38e7 ddbc 38c7 bc3c
00000150: eece c33d 8a11 f73d ae30 c73d 5487 d03d
00000160: b098 6ebd 303a 67bc 4e26 dbbd 0e90 ba3d
00000170: 7046 56bc 2045 693c ba76 be3d 1cd8 ff3d
00000180: e406 6dbd 048f 3fbd 88c3 19bd 607d b5bd
00000190: 500d 2abd 2047 a03c 4e9c bcbd 3826 2bbd
000001a0: 5c43 213d 7e50 e93d f87e bb3c 2a89 98bd
000001b0: 1046 9cbc b8ff f8bc c083 e4bc c6bf e1bd
000001c0: 30ac af3d 86dd bb3d 623e ba3d 2811 25bd
000001d0: 0e10 c3bd f6cb 86bd 1ad7 e13d d4c4 7b3d
000001e0: ecc6 afbd e406 74bd 7093 79bc 5097 673c
000001f0: aae9 91bd f87a cf3d 4a2e bbbd cae8 ad3d
00000200: 409a 04bd c4de 82bd f2bb d43d 60a2 f9bb
00000210: 00d6 0cbd 62f1 94bd d432 533d 800c 853a
00000220: 1cc8 5abd 808c d7bc f48c a43d 70e9 b73d
00000230: c089 d7bb 104d 533d a285 a6bd 42cd c73d
00000240: 0054 61bc b800 e4bc 882b fcbd a4d5 6ebd
00000250: d417 03bd f8b5 ac3d a2e9 a9bd 80f4 0fbc
00000260: 589b c5bd c8de d13d 00ea 86bb 3052 e6bc
00000270: e0a3 fc3b d454 ec3d 9863 903c 50ae 40bc
00000280: 64ed f73d d405 9fbd 6a94 8b3d 7cb6 2c3d
00000290: e857 e1bd bc27 04bd 8cbb 05bd a4d3 0dbd
000002a0: d862 ddbc c4b3 8abd 28d7 cd3c 0420 eb3d
000002b0: faa9 de3d 80af f53a 02bd a4bd 3025 1b3d
000002c0: c04b de3b 7c4b ab3d 4a6e e93d 9a9a d9bd
000002d0: f82a eebd 74a3 cabd 74fb e3bd e0bf 88bd
000002e0: acbd 803d 0098 493c f0f0 fdbc 3801 fabc
000002f0: d0df 96bd 789a 3a3d d8ce e1bd f865 8c3c
00000300: e03a febd d00c 45bc 205c 43bd 1c3a fdbd
00000310: 6825 f5bc 964a dcbd 2070 283d 665c 90bd
00000320: c412 3dbd c0d3 6abd 702e 8d3c 48bc be3c
00000330: a8d3 b83d 5673 c93d 40e2 833b 724f dcbd
00000340: bc1a 24bd 2486 163d 3e80 c3bd 4a49 d9bd
00000350: 80a8 ef3d e0be 3fbc 6850 ff3d 48d7 ef3d
00000360: 229b d13d c6d6 b73d 0060 1eb8 2edc e03d
00000370: 66ff eb3d 686b 6cbd a03e b1bb e4a8 47bd
00000380: ec5d 24bd 24b7 b43d d49b fabd 884f 1dbd
00000390: a0fb 89bd b240 bb3d 9096 acbc 3852 62bd
000003a0: 5ef1 e6bd 5066 00bd d200 fabd 3867 d7bc
000003b0: 4688 973d be07 eb3d 702c 38bd 300c 12bc
000003c0: 4228 a53d e833 ab3c 90fc 5c3d caa1 82bd
000003d0: c6f1 923d f4c6 68bd d0cd 9abd 78a2 9abd
000003e0: d433 a7bd a807 ec3d e04f abbd e8d9 adbc
000003f0: f4bc 073d 1cca 48bd 4834 b8bd 7cb0 893d
0.08247034 0.037838817 0.10752146 -0.017663151 0.04527922 0.07289888 -0.107679754 0.066624105
0.02829957 0.025916219 -0.10683279 0.076449096 -0.10693824 0.08584696 0.018553436 0.092448056
-0.021886379 0.02515176 0.033345684 0.047878787 0.0075779557 -0.030915886 0.0034110546 0.043295383
-0.022858635 0.09016168 0.0063791573 0.008749455 0.042299524 0.08686121 -0.06130606 -0.015485138
-0.07510765 0.062776655 0.040932238 -0.056107447 -0.06213413 0.034543738 -0.070766464 -0.12495841
-0.031258628 0.062785074 -0.1030179 0.11676094 -0.0486155 0.08372997 -0.08796139 0.0628711
0.048414215 -0.08241239 0.02206485 -0.002950132 -0.057427645 0.0368651 -0.051751822 -0.046202824
-0.122002095 -0.089364156 0.06475493 0.014226988 0.005143985 -0.06803632 0.02454096 -0.015663356
-0.02111809 0.051916897 0.003899172 -0.029210046 0.012451187 0.017794684 -0.015446499 -0.077562615
-0.03742045 0.04734665 0.07897702 0.047696277 0.0036711544 0.040579766 0.08962774 0.07727182
-0.054418504 0.07874341 -0.027087793 0.023044214 0.09560953 0.12063892 0.09726082 0.10182062
-0.058251083 -0.014112994 -0.107006654 0.091095075 -0.013078317 0.014237672 0.09299989 0.124923915
-0.0578679 -0.04676725 -0.03753999 -0.08861804 -0.041516602 0.019565165 -0.092095 -0.041784495
0.03937088 0.11392306 0.022887692 -0.07448037 -0.019076377 -0.030395374 -0.027894855 -0.11022906
0.08577764 0.091731116 0.0909393 -0.040299565 -0.095245466 -0.06581871 0.110273555 0.061467007
-0.08582863 -0.059576884 -0.015232906 0.014135197 -0.07124646 0.10130876 -0.09139688 0.084916666
-0.032373667 -0.063901454 0.1038741 -0.0076182336 -0.034383774 -0.072726026 0.051562145 0.001015082
-0.053413495 -0.026312113 0.08034697 0.089800715 -0.0065777004 0.051587164 -0.08130957 0.09755947
-0.013752937 -0.027832374 -0.123129904 -0.058309212 -0.032005146 0.08433145 -0.08296515 -0.008786321
-0.0964877 0.1024757 -0.0041172504 -0.028115362 0.007709965 0.11539617 0.017625615 -0.011760309
0.121058255 -0.077647835 0.06815417 0.04216622 -0.11003095 -0.032264456 -0.03264956 -0.034625664
-0.027024671 -0.06772569 0.025127009 0.11480716 0.10872264 0.001874432 -0.08043863 0.03787726
0.0067839324 0.08364007 0.11397989 -0.10625191 -0.116292894 -0.098944575 -0.11131945 -0.06677222
0.06286177 0.012304306 -0.030998677 -0.03051816 -0.073669076 0.04555747 -0.110257804 0.017138466
-0.12413573 -0.0120269805 -0.04769528 -0.12364599 -0.029925063 -0.10756414 0.041122556 -0.070488736
-0.046160474 -0.057330847 0.017234057 0.023283139 0.09024745 0.09836452 0.004024774 -0.107573405
-0.04006456 0.03674902 -0.09545945 -0.10609682 0.11702061 -0.011703223 0.12466508 0.117109835
0.10234667 0.08976512 -3.7759542e-05 0.10979496 0.11523323 -0.057719618 -0.005409077 -0.04874505
-0.040128633 0.08823994 -0.12236753 -0.038405925 -0.06737447 0.09143199 -0.021067888 -0.05525419
-0.11276506 -0.031347573 -0.12207188 -0.026294336 0.07399039 0.11476086 -0.044964254 -0.008914039
0.08064319 0.020898774 0.0539518 -0.06378515 0.07175021 -0.05683036 -0.07558787 -0.0755052
-0.08164182 0.11524898 -0.08364844 -0.02122207 0.033139184 -0.04902087 -0.08994347 0.06723115

lstm.weight_ih_l1 f4 [256, 64]
00000000: b7c8 943d d32c 603d 0e5c f13d 5572 a6bd
00000010: 3823 dcbc 9d03 f3bd 4e06 d9bd 18f1 c63c
00000020: 181a 5e3d d0d6 313c 80e5 903b 1815 913c
00000030: bb99 b2bd 804a b63b 9d7d 5cbd a037 483c
00000040: 78f0 51bd a851 ff3d 10b2 ae3d 80c8 c23d
00000050: 92e9 1cbd fc9b 2d3d 7813 823c 28cf abbd
00000060: fc57 66bd 3c90 fabd 723a c13d bc08 2fbd
00000070: a689 273d 8134 d9bc 5824 9a3c d028 d43c
00000080: 0e9a ac3d c441 f13d 7044 b43c 24fc 353d
00000090: b88f e53d 0d39 57bc aa0d d4bd 80e6 c7bc
000000a0: 60d9 f03c 2e63 b43d 9c07 94bd f2f8 d2bd
000000b0: fc5f 57bd 0a8a ebbd 0083 ca3d 01f6 083e
000000c0: 105c 7a3c 5838 f4bc 58b5 603d 4014 54bc
000000d0: 4c54 983d fcce d6bc 1c0b 673d ca62 fe3d
000000e0: e016 d63c 2039 913c b87a 953d 4855 063d
000000f0: 2486 11bd 9061 24bd c101 d3bd 8096 28bb
00000100: 2e0a 75bd 91c3 39bd 5058 96bd e0c1 e83d
00000110: d40e 40bd 9034 9c3d 582b 37bd 54ea 373d
00000120: c046 593d 90ec 0abd 5c04 653d 0c14 803d
00000130: 29aa 473d 5c66 393d 29e1 37bd cc00 033d
00000140: 4aeb 9e3d 5a53 f0bd e4ee 5abd b2f7 893d
00000150: bde3 c43d a850 fdbc 205e 86bc 04b7 80bd
00000160: a867 b2bc 2639 a83d c0dc b8bb 0c58 d8bd
00000170: 332b ef3d 91e7 b8bc 405e 90bc e048 663d
00000180: 90ef db3d 00e6 2f3a 71e9 af3d 409f 663b
00000190: 5c1a bbbd a17d a43d d0dc f73c 78c8 dfbd
000001a0: 38ef 653d 0af5 9c3d fe67 d1bb 401c 633c
000001b0: 22bb ccbd e881 fe3d b85e 993c b7b1 503d
000001c0: 900b 86bd b0b0 d8bc 08cb 37bd 8a17 ad3d
000001d0: 04b9 9f3d 0f1b b9bd b095 47bc a0ea c6bd
000001e0: b0f2 c33c a05a 3ebd f010 963d 50d8 eb3d
000001f0: 3c19 efbd 02de 8abd 99cb 553d d078 2e3d
00000200: 7fd9 09be c524 96bd 1aa6 dabd bb9c 92bd
00000210: 24b1 6e3d f78b e1bd a8d0 bbbc 5a7e ce3d
00000220: 1e9c a7bd 86d6 da3d 229d ed3d 0cc2 6d3d
00000230: 3b62 5e3c 680d 733d 1034 2bbd 80d3 12bb
00000240: 0407 de3d 387b c73c 6885 cebc 888c 4dbd
00000250: 9892 3d3d f625 e23d 3072 86bc c037 edbb
00000260: a0cb 943d 0037 bd3a 10a4 57bd 20f3 6f3d
00000270: b75c 613d 40a2 913b 96df fd3d 78e1 9e3d
00000280: 80b6 41bb 92f8 e4bd 6fdc bf3d 008e 56bd
00000290: 5c19 2b3d d403 f3bd ac90 4ebd a8a9 d9bd
000002a0: 60ae 483c 7cdc 203d ef54 0ebd 807e 1dbb
000002b0: f011 be3d b438 fa3d 10df 22bc c9fa d7bd
000002c0: e077 3ebc 5edd cbbd 341d a8bd 100f d0bd
000002d0: 6052 49bd 472e 603b 4e77 a2bd 244b 383d
000002e0: c0af e7bc e02a 9fbc e879 b43c 28b5 a5bd
000002f0: 40f9 7fbd 00c6 bbbc a0ab cabd ec2a 6e3d
00000300: 8b80 d0bd 3bb2 9e3c 50e4 4b3c 4dbe 123d
00000310: 24c8 55bd 2d98 d73d 0090 4239 e6a8 dbbd
00000320: d0e1 aa3d 0098 43bc 962b d13d e075 d0bc
00000330: 6128 b9bd 00ad 2eba 7b06 793d e27f b0bd
00000340: 982c edbd a406 85bd 14ff c03d 5057 1f3d
00000350: e427 3d3c 6487 1f3d 18b9 f8bc b86f abbc
00000360: 80f2 32bc ca8b c03d 1cae 7f3d c016 213d
00000370: f096 9ebb d4cc 89bd 8c1c 353d 9143 a93d
00000380: d804 bb3d 6cf4 d03d eef5 083e 22c1 d33d
00000390: d020 983c 22ce 063d 28ea 5e3d 8081 033d
000003a0: b491 fd3d 20b7 4e3c 736f 9f3d 16cd 8dbd
000003b0: fc86 c63d 309d fd3c d23e b2bd bede 05bd
000003c0: 508a ec3d da99 ea3d 286c fd3c d426 8b3d
000003d0: de32 8d3d 3416 4d3d 568b a9bd dc33 773d
000003e0: c0bd a4bc f214 bf3d cc2a c9bd 4688 c33d
000003f0: 9021 003c 5429 f53d 2835 d53d a819 62bd
0.07264846 0.054730248 0.11785136 -0.08127276 -0.026872262 -0.118659236 -0.10596906 0.024284884
0.054224104 0.010854438 0.00442189 0.017710254 -0.08720728 0.0055630803 -0.05383073 0.012220293
-0.05125472 0.124667466 0.085300565 0.095108986 -0.038308688 0.042385086 0.015878424 -0.08389121
-0.056236252 -0.12234542 0.09434976 -0.04273294 0.040902756 -0.026514294 0.018816158 0.025898367
0.08427821 0.11780122 0.02200529 0.044429913 0.11209053 -0.013136161 -0.10354169 -0.024401903
0.029400527 0.088079795 -0.07228014 -0.10301389 -0.052581772 -0.11500938 0.098882675 0.13375093
0.0152807385 -0.029812023 0.054860443 -0.012944281 0.07437953 -0.026221745 0.05640708 0.12421186
0.026133955 0.017727435 0.07298797 0.032796174 -0.035528317 -0.040132105 -0.10303069 -0.002572447
-0.05982416 -0.045352522 -0.07341063 0.11365104 -0.04688914 0.07627213 -0.04471907 0.044901207
0.053045988 -0.03391701 0.05591236 0.06253824 0.04874626 0.045263633 -0.044892464 0.03198318
0.077597216 -0.11734648 -0.05345048 0.06736697 0.0961375 -0.030922249 -0.016402304 -0.062849075
-0.021777943 0.08214025 -0.00564155 -0.105636686 0.116781615 -0.022571357 -0.017623067 0.056221843
0.10739052 0.0006709993 0.08589447 0.0035190135 -0.09135887 0.08031774 0.030256659 -0.10926908
0.05613634 0.07663925 -0.0063905707 0.013861716 -0.0999663 0.124271214 0.018721923 0.050950732
-0.06545174 -0.026451439 -0.04487136 0.08451755 0.07798961 -0.09038364 -0.012181684 -0.0971272
0.023919433 -0.046473145 0.07327449 0.11515868 -0.11674735 -0.06780626 0.05219612 0.042595685
-0.13461874 -0.07331232 -0.106762126 -0.071588 0.058274403 -0.11013024 -0.022926643 0.100826934
-0.08184074 0.10685448 0.11602236 0.058046386 0.013573225 0.059338957 -0.041797698 -0.0022403896
0.10841182 0.024350747 -0.025210097 -0.05018285 0.04628238 0.11042397 -0.01641187 -0.007239312
0.07265401 0.0014435947 -0.052646697 0.05858147 0.05502006 0.0044443905 0.12396161 0.077578485
-0.0029558241 -0.111802235 0.09368216 -0.052381516 0.04177223 -0.118659645 -0.05043094 -0.106280625
0.0122486055 0.03927277 -0.034748968 -0.0024031699 0.09280765 0.122178465 -0.009940878 -0.1054588
-0.01162526 -0.09954332 -0.08208695 -0.10159123 -0.049150825 0.003420727 -0.07932912 0.044993535
-0.028282046 -0.019429624 0.022030786 -0.080911934 -0.062493563 -0.022921562 -0.09896016 0.058146402
-0.101807676 0.019372096 0.012444571 0.035826016 -0.052192822 0.10527072 0.00018554926 -0.10725574
0.083438516 -0.011938095 0.102133915 -0.025446832 -0.09040905 -0.0006663352 0.060797196 -0.08618142
-0.11580771 -0.06495407 0.09423652 0.038901627 0.011545155 0.038947478 -0.030361697 -0.020927295
-0.010922074 0.09401663 0.062421903 0.039328337 -0.0048397705 -0.06728521 0.044216678 0.082648404
0.09131783 0.1020287 0.13375065 0.103395715 0.018570334 0.032911427 0.054422528 0.032105923
0.12381306 0.012616903 0.07784929 -0.06923883 0.09693715 0.030958742 -0.08703388 -0.032683127
0.115498185 0.11455126 0.030935362 0.06794515 0.06894468 0.050070003 -0.08278529 0.06035219
-0.020110011 0.09330167 -0.09822616 0.095474765 0.007820502 0.11970773 0.104105294 -0.05520025

lstm.weight_hh_l1 f4 [256, 64]
00000000: 2ce9 44bc 326a b73c 4994 c4bd c956 bcbd
00000010: c832 ee3c 1283 01bb f1e4 f3bd d85a 533d
00000020: d722 b93d b28c 9abd 8149 533d 6abd 6c3d
00000030: 358f 6c3d 3855 cb3d a844 8bbc dba5 86bd
00000040: 658a f23d b004 8e3d 1779 713d e0b1 f8bd
00000050: 5eec 753d c87d 643d c32d d0bc 3c64 06bd
00000060: c731 6f3d 1492 d8bb 252d 4fbd 2cc9 c1bd
00000070: c820 053d 1e60 7dbd 4896 523d d25b 823d
00000080: b6b9 713d 4aea 1fbd 7dfb 76bd 409a d03b
00000090: 08cc 52bd a3ca dd3d 4a4b 07be 5c46 97bd
000000a0: 12ff 013d 15f5 e83c 16d7 a2bd 80ef e0bd
000000b0: 37ce 4ebb 4bb9 9e3c 3f3e 0b3c 0ff7 99bc
000000c0: 871b 9dbd 69e4 a4bc c066 8ebd a817 b5bd
000000d0: bcee 69bd c9a8 85bd 30e7 aa3d 4e56 94bd
000000e0: 4581 383d 418f 77bd 2fb2 5a3d 4193 21bd
000000f0: 280e 6cbc 7acb 41bd b7b4 e0bd e0d6 cebd
00000100: c1f0 e83d 94ae e1bd 594a e2bd f732 983d
00000110: 736c af3b f6ff bd3d 9723 1b3c 484c d2bc
00000120: e8bb 39bd 1edf 993d d3bf 0cbd fd4c 40bd
00000130: 3fb6 f4b9 c004 eb3d c523 acbd 9ec3 823d
00000140: f911 023e 04fe d3bd bd2f 663d af2b f4bb
00000150: ab75 ba3c 548f 003e cf1b 48bd b35e 2ebd
00000160: 9e4b 793d 8897 ba39 3f15 dfbc bc22 d13d
00000170: ca74 ddbd 980f 243d 4a4b b9bd 9616 88bb
00000180: 0bc8 0fbc ecb3 643d 7f48 343d f623 8c3d
00000190: fc18 c93d 0648 073e 2b68 50bd 45a4 123d
000001a0: b8e5 fdbc c330 0d3e 02c9 363c 8809 76bd
000001b0: 8591 213c 0919 b03d 31e4 c5bd 63b4 b7bd
000001c0: 4c68 813d 8a3e 8e3d 5cac d43c 68c2 6abd
000001d0: abf7 b73d eb13 a8bd 3481 9f3c 970d eb3d
000001e0: ff65 2abd dcfb dc3d b03b 483c a6a9 903d
000001f0: fa33 3d3b 7eca 9fbd b406 233d a84b 93bc
00000200: 5dd5 0cbd cf56 c43d b58f a1bd 8c8d 0a3c
00000210: fc43 c0bd d0d6 e2bc 7507 9a3d fc02 043e
00000220: c0ab 01ba 7423 19bd ae33 123d ad8e cdbd
00000230: 1aca 813c 1e16 b43d 44bb 55bc 02b9 e6bd
00000240: 537a 963c 41c8 b83c cd8b 14bd 063d ffbd
00000250: e618 92bd cfcf 75bd d2d8 7d3d 38a0 a83d
00000260: 54b1 15bc b288 f53d da37 093e 548a 18bd
00000270: 1751 ec3d 3f8c e5bd 938e 21bd 4806 823d
00000280: c0cf 6abd 668b 61bd 3a9e 61bd 7481 653d
00000290: 9dfa 153e 6747 513d dbae f23c 24d0 eebd
000002a0: 2173 313d 3d46 abbd 879d cabb a2b8 bc3d
000002b0: 524f 54bd e81e 6fbc cf88 1f3c ccf6 8cbd
000002c0: e584 50bd 8d69 06bd 810b 693d 89d5 cf3d
000002d0: f5a3 863d 734c c9bd 589d 733c f2f0 56bc
000002e0: f1f6 9d3d 7a90 3f3d 3c58 76bd 21c5 8e3d
000002f0: 71e1 3b3d db03 6f3d a490 04be 6895 46bd
00000300: 2204 b9bc 1e9f cdbc 1a4b 3d3c f3a1 fabc
00000310: bae1 86bb 0628 0d3e 9872 52bd 1593 6e3d
00000320: 365a b8bd 6789 83bc 9a2d 0d3e 4e57 07be
00000330: 210f cfbd 2b7a d63d c5e3 0b3d a87a 893d
00000340: 281d bcbc 84a4 a9b9 9b92 c4bd 94dc 36bd
00000350: 4d24 033d 2ce4 c73c 8394 35bc bdd0 ccbd
00000360: 2b7e 48bd 9315 0a3e a3ad b9bd a6fd 123c
00000370: 7c39 73bd 5176 9dbd e2d5 1bbd 4a1c f0bd
00000380: 4a56 413d 4702 97bd 3e8b 003d 1a1f fd3d
00000390: af6f 123c 7b59 0e3d 455a 093c c522 8f3d
000003a0: 5743 6fbd f07e 313d a2d5 b13c fed7 24bb
000003b0: 87a2 d5bc 07d9 85bd 271e fb3c e254 07be
000003c0: 1568 b5bd b0b1 a9bd ddee 43bc 79d5 8e3d
000003d0: fa83 48bd 2816 5abd 9fa4 903d 9f1f 203d
000003e0: 52f1 f0bc 56a1 103e 1677 96bd 5fab 813d
000003f0: b1de a53c bc35 3ebd 4265 153d 1455 86bd
-0.012018483 0.022389505 -0.09598596 -0.091962405 0.029076949 -0.0019761962 -0.119089015 0.051600307
0.09039848 -0.07546367 0.05158377 0.057797827 0.05775376 0.099283636 -0.017000511 -0.06574603
0.11842803 0.06934488 0.05895337 -0.12143302 0.06003987 0.055784017 -0.025412446 -0.032810435
0.05839708 -0.0066092107 -0.050580163 -0.094621986 0.032501966 -0.061859243 0.05141285 0.063651696
0.059015 -0.039041795 -0.06029843 0.0063660443 -0.05146411 0.108296655 -0.13212314 -0.07386467
0.031737395 0.028437177 -0.07951181 -0.10983181 -0.003155602 0.019375464 0.008498727 -0.018794565
-0.07671266 -0.020128446 -0.06953192 -0.08842403 -0.05711244 -0.06526334 0.08344877 -0.07243024
0.045045156 -0.060439352 0.053392585 -0.039447073 -0.014407672 -0.04731319 -0.109719686 -0.10099578
0.11374045 -0.11019626 -0.11049337 0.07431596 0.0053535043 0.09277336 0.0094689345 -0.02567114
-0.045345217 0.07513259 -0.034362625 -0.04694842 -0.0004667509 0.11475515 -0.0840526 0.06384967
0.12702169 -0.10351184 0.05619787 -0.0074514966 0.022761187 0.12554675 -0.048854645 -0.04257078
0.06086313 0.00035589584 -0.02723181 0.10211703 -0.10813291 0.040053934 -0.090475634 -0.004153083
-0.008775721 0.05583565 0.04401445 0.068427965 0.098192185 0.13211069 -0.050880592 0.03580119
-0.030993327 0.13788132 0.011156322 -0.060067683 0.009861355 0.08598525 -0.09662665 -0.08969953
0.06318721 0.06945522 0.025961094 -0.057314306 0.08982786 -0.08206924 0.019470789 0.114772014
-0.041601177 0.10790226 0.012221262 0.07063608 0.0028870092 -0.07802294 0.039801314 -0.017980412
-0.034383167 0.0958687 -0.07888738 0.008456599 -0.09387967 -0.027690321 0.075209536 0.12891763
-0.0004946552 -0.037387326 0.035693817 -0.10036979 0.01584344 0.08793281 -0.013045136 -0.11265756
0.018368876 0.022556426 -0.036266137 -0.12462811 -0.07133655 -0.060012635 0.061974354 0.08233684
-0.009136517 0.11988963 0.13400212 -0.037241295 0.11538904 -0.112083904 -0.03944261 0.06348854
-0.057327032 -0.05506458 -0.055082537 0.05603166 0.14646383 0.051093485 0.029624393 -0.116607934
0.043322686 -0.08363006 -0.0061833295 0.092149034 -0.05183346 -0.014594771 0.009737208 -0.0688301
-0.050907988 -0.032815505 0.056895737 0.101481505 0.06574241 -0.09829035 0.014869057 -0.013118969
0.07713116 0.046768643 -0.06014274 0.06971193 0.045869295 0.058353286 -0.12945801 -0.04848233
-0.022584978 -0.025100287 0.01155355 -0.030594802 -0.004116264 0.13784799 -0.051378816 0.058245737
-0.09001581 -0.01605673 0.13786927 -0.13216898 -0.101103075 0.104725204 0.034152765 0.06712848
-0.022963122 -0.00032356766 -0.09598275 -0.044643953 0.03201704 0.024400793 -0.011082771 -0.10000751
-0.04894845 0.13484792 -0.09066322 0.008971607 -0.059380993 -0.07688583 -0.03804577 -0.11724146
0.047201432 -0.07373481 0.03138279 0.12359448 0.00893776 0.034753304 0.008383338 0.06989054
-0.05841383 0.043333948 0.021708313 -0.0025153155 -0.026078476 -0.06535535 0.030654026 -0.13215974
-0.08857743 -0.08285844 -0.011958805 0.069743104 -0.048953988 -0.053243786 0.07062649 0.039092656
-0.029411945 0.14124045 -0.073469326 0.063315146 0.02024779 -0.046437964 0.03647352 -0.06559196

lstm.bias_ih_l1 f4 [256]
00000000: 33ee 66bc 9d69 6ebd 071f 523d 3595 ef3c
00000010: 25c4 b8bd 8f48 44bd 541b 29bc 0198 93bd
00000020: 14ec a8bd 48e5 ea3d ed13 063d a03b b13d
00000030: 150b e1bd 42df 20bd d44f 99bd 5282 033e
00000040: 2f7a b1bd 3146 c83d b4f1 c3bd 1145 473c
00000050: 6449 8c3d 42ef a7bd 4cfd 3abd e1ab ad3d
00000060: 71c8 a03d 6fa0 9f3d 05c7 a03d 5019 083e
00000070: a354 fc3d 3664 8e3b 6420 81bd acbf 6fbb
00000080: 378e 063e 379e 30bd ceae 0f3d eee4 3c3d
00000090: 523a c1bc d7b3 0abd cf00 d7bd 33a4 7c3d
000000a0: 597b 5cbb d524 2a3d aab2 9b3d 3c32 873d
000000b0: 1f62 4a3d 432e 363d 82e7 ddbc 637f 713c
000000c0: 5702 b4bc dcbd 8c3d b83b 02bd ef78 053e
000000d0: 991c a1bd b014 19bd f800 a33d b7b6 113d
000000e0: c5e8 2abd c12e 053e 5c1b d23d 7623 1cbc
000000f0: 69e0 dcbd c369 503d 8081 873d 889f a73d
00000100: 63bf e33d ecf5 c1bd fcd8 8b3d 2f4d 343d
00000110: b458 e4bd 77cb cc3c 4392 0d3c c15e c63d
00000120: 5e2f abbc 536f b7bd 505d 59bc 2dc2 1d3d
00000130: a4dd ec3d 2e28 713d 1a02 c6bd a717 98bd
00000140: 44ab 053e dd1c 9c3d a337 16bd 8dd4 a7ba
00000150: 84d0 c33d b443 c43d 7314 a4bb acf6 133d
00000160: 62a6 243d 403e e63d bd26 50bd a44c c1bd
00000170: 647e 503d edc1 81bd 2afc 103d 41c9 dc3c
00000180: e001 f43d f51e a03c e024 8b3c 9bb5 673d
00000190: 3d81 c3bd 3ade af3d b4fe bcbd 8e3d b5bd
000001a0: 06d8 babb 1e64 86bd f834 c6bc 6f8c db3d
000001b0: 1cd7 5cbd 6a40 c53d 802e 2b3d 783c 8ebd
000001c0: 3b0d c93d 92c4 f5bc 48d1 0e3e 738c d63d
000001d0: 547a 55bd 6ec1 2f3d bff1 a43d 99f2 b4bd
000001e0: d040 c83d 6f3f b33d 3085 143d 4cc0 00be
000001f0: 5d81 10bd 1416 cdbd 0691 9abc 0953 813c
00000200: 4ed9 15bd 5005 83bd add7 07be fdde 0d3e
00000210: a172 d73d 932c 083e aacb 5c3d 2e2a a8bd
00000220: 0e15 b9bd 0b68 85bc c6a1 78bc 8862 f4bc
00000230: 2a26 013c 2546 943d ebba f6bd ee31 43bd
00000240: 8922 4c3d 86fa e53d 3ff0 133c 597a 56bd
00000250: 04c1 d0bd 8b58 99bd 2e1d 763d 0d6e 8cbd
00000260: 1ef5 6cbc b108 f93d 8e1b 4ebd 8749 b23d
00000270: ee58 ca3c f7fe f4bd 0e8e 0e3d 4512 f1bd
00000280: 49be fcbb 318c cf3d 5f84 ae3c 591c ac3d
00000290: 3413 033e 58a3 bc3d 1229 e1bd a932 5239
000002a0: 72ca b03d 32f8 a7bd d77d 7fbd a8fc e63d
000002b0: c658 a83c 8216 533d 634a e4bd f4dc f43c
000002c0: 4642 a0bc 250f d13d f397 9fbd 4e2c 1a3d
000002d0: 1233 d33d 437b b73d 2820 da3d ce91 a73c
000002e0: 9388 963d 97eb 943d 24d6 f73b 89e7 debd
000002f0: 1e00 4abd 40c0 bcbb a9e1 91bc bfcd 943d
00000300: c2b8 aebc 586d ee3d 7622 d63d 78b4 ffbc
00000310: 729e a7bd 744e 833c 4343 5dbd 5357 1f3c
00000320: 4ea2 b43c 9842 f0bd b83b 0f3e 7f8d 08bd
00000330: 5389 7ebc a049 133d 6586 c03d 1c46 c63d
00000340: ca9c 15bd c5bc 9cbd 6e5e 4abd 6aa1 b03d
00000350: e29a 143d 5b08 cfbd ff9e 053e cc1c 143d
00000360: 3374 f13d f455 1c3c b098 80bd 4fb0 d6bd
00000370: 8fb3 9cbd 09a4 053e 47c9 f43d 7107 0d3e
00000380: 84b5 c43d f3eb ed3d 27c3 a6bd d30b 20bd
00000390: 17bd ed3d 8d84 91bd 103b 9c3b 5e7d ec3d
000003a0: 8b05 2e3d e1fd f0bc abb8 b4bd 7a08 8c3d
000003b0: 4531 003e 6dbf 963d 6f1f d7bd e974 4cbd
000003c0: 90f1 f6bc 2b2b 31bd d826 1dbc a297 0dbd
000003d0: edd8 d13c 20cb ca3c 7ebe 613c 661f cd3b
000003e0: ab21 c53c a929 4dbd 81bf 043e bd41 45bd
000003f0: 86c3 0d3e 5843 8e3d 79ad febc 5b16 45bd
-0.014094877 -0.05820619 0.05129912 0.029245952 -0.090217866 -0.04792076 -0.010321457 -0.07206727
-0.08248153 0.11469513 0.032733846 0.08653951 -0.10988442 -0.039275415 -0.07485929 0.12842682
-0.08665883 0.09779013 -0.095675856 0.012162463 0.06849936 -0.08199932 -0.04565172 0.08480049
0.07850731 0.07794272 0.0785046 0.13290906 0.12320831 0.004345442 -0.06305006 -0.0036582751
0.13140188 -0.043119635 0.035078816 0.046116762 -0.02358738 -0.033862915 -0.10498201 0.06168003
-0.0033642857 0.041539032 0.07602437 0.06601378 0.04940998 0.044477712 -0.02708793 0.014739844
-0.021973772 0.0687215 -0.031795233 0.13034414 -0.07866783 -0.037373245 0.07959169 0.03557464
-0.041725893 0.13006116 0.10259125 -0.009529939 -0.1078499 0.050882112 0.06616497 0.08184725
0.111204885 -0.09470734 0.06828496 0.04401892 -0.11149731 0.024999363 0.008640829 0.096860416
-0.02089661 -0.0895678 -0.013266876 0.03851526 0.11565712 0.05887621 -0.096683696 -0.07426386
0.13053614 0.07622693 -0.036674153 -0.0012804434 0.095612556 0.09583226 -0.0050073205 0.036123917
0.040197738 0.11242342 -0.050818194 -0.09438446 0.050901785 -0.063358165 0.035396732 0.026951434
0.1191442 0.019546011 0.016985357 0.056569677 -0.095461346 0.08587308 -0.09228268 -0.08849631
-0.0057020215 -0.065620646 -0.02419518 0.10720145 -0.05391608 0.09631427 0.041792393 -0.06945127
0.09816977 -0.030000959 0.13947022 0.10476007 -0.052118614 0.04290908 0.08053922 -0.08835334
0.09777987 0.087523334 0.03625983 -0.12573355 -0.03527962 -0.10013977 -0.01886798 0.015786665
-0.03658419 -0.06397498 -0.13265868 0.13854595 0.105199106 0.13298254 0.053905167 -0.0821117
-0.09037219 -0.016284963 -0.015175289 -0.02983214 0.007882634 0.072399415 -0.120473705 -0.04765504
0.049837623 0.11229424 0.009029447 -0.052362774 -0.10193065 -0.07487591 0.06008642 -0.06856928
-0.014462737 0.12159861 -0.050319247 0.087054305 0.024700608 -0.11962693 0.034803443 -0.11771063
-0.0077131134 0.10134161 0.021303354 0.084038444 0.12800294 0.09210843 -0.10994162 0.00020046033
0.086323634 -0.082016364 -0.06237587 0.11278659 0.020550143 0.051535137 -0.11147001 0.029890515
-0.019562852 0.10207967 -0.07792654 0.03763991 0.10312475 0.08959057 0.106506646 0.020455267
0.07350268 0.07271498 0.0075633693 -0.108840056 -0.049316518 -0.0057602227 -0.017807798 0.072658055
-0.021328334 0.116419494 0.10455792 -0.031213984 -0.08184518 0.01602862 -0.054019224 0.00972541
0.02205005 -0.11731452 0.13987625 -0.033338066 -0.01553567 0.035958886 0.09400634 0.09681341
-0.03652648 -0.076531924 -0.04940646 0.08624537 0.03628052 -0.101090156 0.13048933 0.036160275
0.11789741 0.009541977 -0.06279123 -0.10482847 -0.076514356 0.13050856 0.11952453 0.1377237
0.09604934 0.11617269 -0.08142691 -0.039073776 0.11608332 -0.0710536 0.004767783 0.115473494
0.042485755 -0.029417934 -0.08824285 0.06837554 0.12518795 0.0736073 -0.10504042 -0.04991618
-0.030144483 -0.04325406 -0.009591781 -0.034568436 0.025616134 0.02475506 0.013778327 0.0062598465
0.024063906 -0.05008856 0.12963678 -0.048158396 0.13844118 0.069464386 -0.031088578 -0.048117023
