models/AIOTUSDT_lstm_20250822_041711.pth (torch, 244277 bytes, 11 tensors)

lstm.weight_ih_l0 f4 [256, 30]
000000 90 74 e0 bd 7c 07 6f 3d 7e 3f af 3d 9a 11 8e bd
       -0.109597325 0.058356747 0.08557032 -0.06936951
000010 64 83 f2 3d 8c 25 fb bd 22 34 83 3d f2 40 d9 3d
       0.11841467 -0.12263021 0.06406428 0.106080905
000020 62 7c c3 bd 70 1e 26 3c a2 04 f2 3d 84 12 dc 3d
       -0.095452085 0.010139093 0.1181729 0.10745719
000030 a8 a5 c8 3d c0 55 cf 3c 78 79 5b bd 80 ad de 3c
       0.097972214 0.025309443 -0.05358264 0.02718234
000040 58 2d 8b bd 58 c4 c7 bc 60 22 9d 3d 52 4c d3 3d
       -0.06795758 -0.024385616 0.07672572 0.10317291
000050 f4 b5 75 bd c4 26 10 3d 9c 8a 3c bd 9c fe 57 3d
       -0.059987977 0.03519322 -0.046030626 0.05273305
000060 1e 8b b8 3d 6a dd f0 bd e0 b8 32 bd 80 f2 7c 3d
       0.090109095 -0.117609814 -0.04363334 0.061754704
000070 bc 3c a2 bd a0 65 ff 3b 00 5d 16 bb a0 19 5c 3d
       -0.079217404 0.007794097 -0.0022943616 0.053735375
000080 b0 5f ec 3d c4 94 be 3d 5c 99 b6 bd ae 52 f3 3d
       0.115416884 0.093057185 -0.0891597 0.11881004
000090 c0 8f b6 bc 94 99 d3 3d b0 e9 f6 bc 6a 3b 98 3d
       -0.022285342 0.10332027 -0.030140728 0.07433207
0000a0 80 7b b4 3b 2e 0b ca bd 52 f9 a2 bd c0 6f 05 bc
       0.0055078864 -0.098654136 -0.0795771 -0.008144319
0000b0 30 66 a3 3d ea 41 95 bd 48 37 7e 3d 20 1a 45 bd
       0.07978475 -0.07287963 0.06206444 -0.048120618
0000c0 d0 0f 9b bd 40 69 da bd 00 af f7 bd 4c 8a f4 bd
       -0.07571375 -0.10664606 -0.120939255 -0.119404405
0000d0 c8 4a a7 bd 58 aa bb bd d8 7c 21 bd 78 0d c2 3d
       -0.0816856 -0.0916335 -0.0394257 0.09475225
0000e0 fe df a0 3d 3c ad 33 bd ca 1f 90 3d 20 7b ee bd
       0.07855223 -0.04386638 0.07037313 -0.11644578
0000f0 2c 8e 94 bd 44 1b 52 3d 34 a7 26 bd 08 97 f3 bc
       -0.0725368 0.051295534 -0.0406868 -0.029735103
000100 c6 6c d9 bd 0e 5c d2 3d a6 a0 c9 bd d2 e4 c4 3d
       -0.1061645 0.10271464 -0.098450944 0.096139565
000110 6c 99 da 3d 5c 43 1b 3d cc 98 f3 bd c0 f4 3e bb
       0.10673794 0.037906036 -0.11894378 -0.0029137582
000120 60 f5 a5 bd ec 8c 84 bd 8c 98 e1 3d a0 6b 4c bd
       -0.08103442 -0.06472191 0.11015424 -0.049907327
000130 a4 47 78 bd 58 92 4d bd cc 2e d2 bd e6 6e df bd
       -0.060615197 -0.050188392 -0.10262832 -0.10909824
000140 4e 88 9a bd 28 3f 1c bd 56 eb b5 3d 94 90 c1 bd
       -0.07545529 -0.038146168 0.088827774 -0.09451404
000150 04 ef fa 3d e4 bd 61 3d d2 0c d6 bd 78 b0 60 bd
       0.1225262 0.055112734 -0.10451664 -0.054855794
000160 80 17 fb bc 58 9d 2a bd 00 b5 eb 3a 74 7b ac 3d
       -0.030650854 -0.04165396 0.0017983019 0.08421984
000170 84 08 f6 bd 30 d4 50 3d 1e 34 be bd 0c 7c 29 3d
       -0.12013343 0.050983608 -0.09287284 0.041378066
000180 28 67 08 bd 7c 1c 88 3d f8 7d 74 bd 3c df e7 3d
       -0.033301502 0.06646058 -0.059690446 0.113218755
000190 64 0b 39 3d 2c fb 7e bd 00 61 bc ba 18 04 72 3d
       0.04517688 -0.062251255 -0.001437217 0.059085935
0001a0 42 74 9f 3d 98 71 cf bc 38 0b b2 3c a4 9f 96 bd
       0.07785846 -0.02532272 0.021733865 -0.07354668
0001b0 fe c0 bc 3d 98 db f6 3c f0 37 fa 3d 10 4e 45 bc
       0.09216498 0.030134007 0.122177005 -0.012042537
0001c0 c8 83 a6 3c 1e d0 ab bd 00 c0 47 37 10 95 07 3d
       0.02032651 -0.083893046 1.1906028e-05 0.03310114
0001d0 98 2a bf bd 80 cc 20 bc 9c 41 31 bd 82 88 c7 bd
       -0.09334296 -0.009814382 -0.04327546 -0.09742834
0001e0 80 7e a7 bc 90 0f e1 3c a4 92 2f 3d 60 2d fe bd
       -0.020446062 0.027473241 0.042864457 -0.12410998
0001f0 fa 38 d7 3d bc 87 ad bd c0 fe 01 bd 14 1f fb bd
       0.10508914 -0.08473155 -0.03173709 -0.12261787
000200 14 c2 8d 3d fe d6 c7 3d 66 6c 98 3d 50 ea 29 3d
       0.06921783 0.097578034 0.0744255 0.041483223
000210 5c 71 91 bd 60 d1 d8 3b bc 20 a8 3d 3c 31 d6 bd
       -0.071017 0.0066167563 0.082093686 -0.104586095
000220 20 1d c2 bb b4 f6 63 3d 54 95 da 3d 96 c2 b8 bd
       -0.005923882 0.055655196 0.10673013 -0.09021489
000230 5a 8d ba 3d d8 52 b9 bd 10 f6 ef 3d 28 80 15 3d
       0.09108992 -0.09049004 0.117168546 0.036499172
000240 2c 2d ca bd 76 5a a8 bd fc 47 a1 bd 58 8a f4 bd
       -0.09871897 -0.08220379 -0.07875058 -0.119404495
000250 46 3b 91 3d 5e 22 e8 3d 92 e2 bf bd f4 c0 db 3d
       0.07091384 0.1133468 -0.09369387 0.10730162
000260 f2 6c d3 3d 02 98 b8 bd d4 39 d4 3d d6 ed 99 bd
       0.10323514 -0.09013368 0.10362592 -0.07516067
000270 70 6f 79 bc 0c 6d 1a bd 70 de 32 3c 40 74 40 3d
       -0.015224323 -0.03770165 0.010917291 0.046985865
000280 e0 86 26 3c 80 a3 7f 3c ca 4b 85 3d c6 f1 8d bd
       0.010163993 0.015602946 0.06508596 -0.0693088
000290 d0 6c 78 3d 92 45 e8 3d 98 8d 93 3d 68 d4 b7 3c
       0.060650647 0.113413945 0.07204741 0.02244015
0002a0 48 fb 6d bd c0 ed 48 bc 38 70 07 3d 16 1a c7 3d
       -0.05810097 -0.012263715 0.033066005 0.097217724
0002b0 f4 f2 97 bd c4 52 bc 3d 7c a5 04 bd ba f4 db bd
       -0.074193865 0.09195474 -0.03238438 -0.10740037
0002c0 20 f3 b5 3d 3c 83 ca bd 08 04 a8 bc ac 48 8b bd
       0.08884263 -0.09888312 -0.020509735 -0.068009704
0002d0 88 cc bc bd 80 d6 c4 bc fc dd ca 3d 7c d0 0f 3d
       -0.09218699 -0.024028063 0.099056214 0.035110936
0002e0 86 24 a8 3d d4 55 dd 3d 0c cc 28 bd d2 23 80 bd
       0.08210091 0.10807386 -0.04121022 -0.06256832
0002f0 ac 18 66 bd ac 87 62 bd b8 26 7e bd 98 31 08 3d
       -0.056175873 -0.055305168 -0.062048644 0.03325042
000300 08 1d b8 bc e6 2e 97 3d 54 41 b9 3d 80 15 0e bb
       -0.02247478 0.07381992 0.090456635 -0.0021680295
000310 68 c1 ae bc 64 93 33 bd 1c 6a 33 3d 2a c0 91 bd
       -0.021332458 -0.043841735 0.043802366 -0.071167305
000320 ac 42 d6 3d d4 b9 0e 3d 30 7b 02 3c 00 de 36 ba
       0.104619354 0.03484519 0.0079639405 -0.00069758296
000330 78 a1 5c bd fe 31 e5 bd d0 ae d7 3d 6e 13 92 bd
       -0.053864926 -0.11191176 0.1053139 -0.07132612
000340 e8 87 2b bd 4a 25 ee 3d 58 8f 20 3d 3c 2b 18 bd
       -0.041877657 0.11628206 0.039199203 -0.037150607
000350 1e d4 8d 3d e4 fb 03 3d a0 bc de 3c b0 96 aa 3c
       0.06925224 0.032222643 0.027189553 0.020823807
000360 26 81 8c 3d 40 d7 e3 3b 72 0d e0 bd e4 f7 6c 3d
       0.068605706 0.00695315 -0.109400645 0.057853594
000370 c0 43 bb 3c c0 c3 52 3b 2c 27 da 3d 20 d2 a8 3b
       0.022859454 0.0032160133 0.10652003 0.005152002
000380 20 a9 bd 3b c0 0c 97 bb 9a fe b1 bd 86 a9 d3 bd
       0.0057879835 -0.004609674 -0.086911395 -0.103350684
000390 b0 e7 81 bc b8 68 d6 3d 8c 17 9b 3d 48 47 ef 3c
       -0.015857548 0.10469192 0.075728506 0.029208794
0003a0 d2 ae bc 3d 3a a9 f6 bd 3e 97 ba bd 88 d8 e0 bc
       0.09213032 -0.12043996 -0.091108784 -0.027447
0003b0 18 26 74 bd f8 7a 53 bd e0 fa e2 bc f4 43 d9 3d
       -0.05960664 -0.051630944 -0.027707517 0.10608664
0003c0 78 ce f2 3d 2c 30 4e 3d 82 96 af bd 3c 07 e4 bd
       0.11855787 0.05033891 -0.08573629 -0.11134192
0003d0 6c 5b 74 3d c0 a9 7a 3c 66 23 96 bd 56 eb f9 bd
       0.0596575 0.015299261 -0.073309705 -0.1220309
0003e0 6c 74 7e bd 32 cc d4 bd 38 47 cb 3d ec 5b cc bd
       -0.062122747 -0.1039051 0.09925693 -0.0997847
0003f0 46 44 fa 3d 7c b7 95 3d dc c0 b2 bd 6a 6c 9e 3d
       0.122200534 0.073103875 -0.08728191 0.07735522

lstm.weight_hh_l0 f4 [256, 64]
000000 de e8 8c 3d 80 e4 62 3b 58 39 fa bd ce 3e d2 3d
       0.068803534 0.003462106 -0.12217969 0.10265885
000010 1e 55 a6 bd 10 05 09 bd 10 26 7e bd 7e 32 93 3d
       -0.081217036 -0.033452094 -0.062048018 0.07187365
000020 80 5c 6b bd f2 37 e2 bd fc 84 83 3d 44 81 59 3d
       -0.05746126 -0.11045827 0.06421849 0.053101793
000030 d2 fd b1 3d 02 63 f2 3d 9e 1c fb 3d c8 43 2e bd
       0.086909905 0.118352905 0.12261318 -0.04254511
000040 fa ad aa bd 34 2c 86 3d dc ef 69 bd 68 cf ee bd
       -0.08333965 0.065514 -0.057113513 -0.11660653
000050 da d4 bc bd 78 bf a7 bd 7a c8 8d bd d8 a8 ad 3c
       -0.09220286 -0.08190817 -0.069230035 0.021198675
000060 60 2a ae bd a0 38 2e bc f4 30 10 bd 66 77 e0 bd
       -0.08504176 -0.010633618 -0.035202935 -0.109602734
000070 4e 48 9f bd e8 f1 45 3d b8 e1 e0 bd 00 37 09 ba
       -0.07777463 0.048326403 -0.109805524 -0.0005234331
000080 e0 9f b6 bd 00 3a d0 bb 60 a0 1a 3c e4 75 9f 3d
       -0.089172125 -0.0063545704 0.00943765 0.07786158
000090 00 a6 56 ba 34 b4 a4 bd 88 2a 10 bd b4 86 ab bd
       -0.0008188188 -0.080421835 -0.03519681 -0.08375302
0000a0 a8 55 9c bd d4 56 b3 bd e0 ee f1 bd c0 fc 0a 3b
       -0.07633525 -0.087567955 -0.1181314 0.002120778
0000b0 50 9b 44 bc be c7 d1 3d c4 25 57 3d c0 27 05 3c
       -0.01199992 0.10243176 0.05252625 0.008127153
0000c0 48 33 f1 bd 18 45 c4 bd 78 42 91 3c 6c ab 1f bd
       -0.11777359 -0.09583491 0.01773189 -0.03898184
0000d0 c0 68 b7 3c ca 0f 93 bd 5c b2 48 bd 50 57 79 bc
       0.022388816 -0.07180746 -0.04899822 -0.015218571
0000e0 a2 79 93 3d 20 f9 f0 bd e4 df 90 bd 50 64 af bc
       0.07200934 -0.11766267 -0.07073954 -0.021410137
0000f0 96 6f e3 bd e0 4a a1 3d 40 a4 9d 3b 0e ee c3 3d
       -0.11105268 0.078756094 0.00481084 0.0956689
000100 02 d8 8a 3d 66 86 9c bd d6 70 86 bd e0 ad aa 3b
       0.067794815 -0.07642822 -0.065644905 0.005208716
000110 d0 1c 7a 3c e0 04 3c 3d 7c 63 39 3d 00 81 82 bc
       0.0152656585 0.045903087 0.04526089 -0.015930653
000120 ea 36 df bd 90 45 a0 3d c8 c0 50 bd 20 54 f3 bc
       -0.10899146 0.07825768 -0.0509651 -0.0297032
000130 c0 72 e4 bd 5c 75 60 3d d6 e3 ff bd ce e0 86 bd
       -0.11154699 0.054799423 -0.12494628 -0.06585847
000140 34 05 d0 3d 34 ef cb bd 74 91 30 bd 4a 1d bc 3d
       0.101572424 -0.09957734 -0.043107465 0.09185274
000150 8e 78 c2 bd 5c 71 03 3d e0 61 28 3d 98 f2 fc bc
       -0.0949565 0.03209053 0.041108966 -0.030877396
000160 72 4b e8 bd 78 9c 6d 3d 14 e0 40 3d 24 8d fb bd
       -0.11342515 0.05801055 0.047088698 -0.1228278
000170 9c 06 34 3d 42 5b dc 3d 10 c3 66 3d 8e e3 c9 bd
       0.043951616 0.107595935 0.05633837 -0.09857856
000180 00 f0 b8 b9 f8 57 a3 bc c0 35 b7 bb fe f3 8c 3d
       -0.0003527403 -0.019939408 -0.0055911243 0.06882475
000190 40 9f e8 bb 64 33 6f 3d c2 0b de bd 80 97 e8 bb
       -0.007099062 0.05839862 -0.108420864 -0.0070981383
0001a0 50 fe d0 bc 14 75 42 bd d6 c3 81 bd 50 1c 7c bc
       -0.02551189 -0.047474936 -0.06336181 -0.01538761
0001b0 50 4e d8 bc f8 28 95 3d 34 83 dd 3d ac 9b c1 3d
       -0.02640453 0.07283205 0.10816041 0.0945352
0001c0 f0 65 1c 3c 30 eb c4 3c a8 d8 8c bc c6 f4 a1 bd
       0.009545788 0.024037927 -0.017193154 -0.07908015
0001d0 98 a9 0f bd 34 f8 db 3d 48 e8 a0 3c c0 92 2b bb
       -0.035073847 0.107407 0.01964201 -0.002618
0001e0 4a a3 d1 bd 06 de 90 bd 7c 97 86 3d 2c d2 76 3d
       -0.10236223 -0.070735976 0.06571862 0.06025903
0001f0 e0 df eb bd 16 b3 d0 3d a8 d9 a7 3d 78 62 c5 3c
       -0.1151731 0.10190408 0.081958115 0.024094805
000200 80 c3 87 ba 28 64 db 3d 10 02 b0 bc 80 24 7a bc
       -0.0010357946 0.10712463 -0.021485358 -0.015267491
000210 30 7f 1a bc 28 64 3b 3d 9c f7 09 bd f0 41 2d bc
       -0.009429738 0.045749813 -0.033683404 -0.010574803
000220 48 66 b6 3d c0 29 5d 3d c0 39 fb 3b 32 19 8c 3d
       0.08906227 0.053994894 0.0076667964 0.06840743
000230 00 08 6d 3d 68 13 9c bd 94 0a 82 bd 18 f0 b8 bc
       0.057868958 -0.07620889 -0.06349674 -0.022575423
000240 48 ed cc 3c 20 20 b5 3b 70 3e c8 3c 38 88 c3 bc
       0.025015488 0.0055275112 0.024443835 -0.023868665
000250 d8 b8 ac 3c 98 9e 24 bd 60 e7 07 3d d0 df 45 3c
       0.021084234 -0.04019031 0.03317964 0.012077287
000260 20 69 4d 3c d6 3b ee 3d fc cb 97 3d 42 45 b1 bd
       0.012537271 0.116325065 0.07411954 -0.08655788
000270 30 f6 83 bd 9a 04 96 3d 38 4b 53 bd c2 9b c7 bd
       -0.06443441 0.073250964 -0.051585406 -0.09746505
000280 c8 ed db bc 30 bd e1 3d a2 a6 eb 3d 70 3f d2 bc
       -0.026846781 0.11022413 0.11506392 -0.025665015
000290 7e 81 d0 3d b0 fe 07 bc 48 47 a1 3d 64 fd 3f bd
       0.10180949 -0.008300468 0.07874924 -0.04687251
0002a0 ee 44 c3 3d b2 c3 a9 3d 04 81 e1 3d 90 fa ec 3c
       0.09534632 0.08289279 0.11010936 0.028928071
0002b0 70 bc 0f bd 56 f1 b0 bd 7c 2a a9 bd 3a 27 8c bd
       -0.035091817 -0.08639781 -0.082600564 -0.068434194
0002c0 62 ef dc bd 90 a3 1c 3d 6c bc db 3d 40 c1 99 bc
       -0.10787846 0.038241923 0.10729298 -0.018768907
0002d0 c4 ed 23 bd e8 05 bd 3c f8 bc 43 3d 4e e6 fa bd
       -0.040021673 0.023074105 0.047787637 -0.122509584
0002e0 42 df 8d bd 80 8e cb 3b 30 69 d4 3c 80 ee 53 3d
       -0.06927349 0.0062120557 0.025929064 0.051741123
0002f0 ac 3b 4a 3d e0 87 67 3d d4 17 b3 3d 70 d3 35 3d
       0.049373314 0.056526065 0.08744779 0.044391096
000300 70 7b f9 bc d8 18 ab 3c bc f2 f6 bd 7c e9 da 3d
       -0.030454367 0.02088587 -0.12058017 0.10689065
000310 ee 33 c9 3d f0 f3 f2 bc aa 16 e9 bd 18 6b f0 3d
       0.09824358 -0.029657334 -0.11381276 0.117391765
000320 16 3d d1 bd 00 36 d8 3d a0 13 b4 3c 18 2e de bc
       -0.10216729 0.10557175 0.021982014 -0.027121589
000330 a4 56 c5 bd a2 43 9b bd 00 de aa ba 40 06 48 3c
       -0.09635666 -0.07581259 -0.0013036132 0.012208521
000340 ac 6a 91 bd 34 f9 a7 3d cc 2f fd 3d 52 d7 f6 3d
       -0.07100424 0.082018286 0.12362632 0.12052788
000350 ae d3 e5 3d 82 6c bb bd e0 94 32 3c c0 b3 27 bc
       0.11222015 -0.091515556 0.010899752 -0.010235727
000360 aa 3e f6 3d f4 75 3a bd 66 a0 d9 bd e4 10 20 bd
       0.12023671 -0.045522645 -0.10626297 -0.03907861
000370 70 d4 4a 3c 20 ac b6 3c 88 91 a6 3c 00 37 3f 3c
       0.012379751 0.022298872 0.020333067 0.011670828
000380 54 62 40 3d 12 c1 86 bd d8 dc 62 3d de 9f c8 bd
       0.046968773 -0.06579794 0.055386394 -0.09796117
000390 02 e2 9a 3d b2 05 d3 bd 3c 89 df 3d 98 87 da bd
       0.07562639 -0.10303821 0.10914847 -0.10670394
0003a0 58 52 b0 bd 78 42 ab bd 88 1e 65 3d 82 e4 a3 bd
       -0.08609456 -0.08362287 0.05593732 -0.08002569
0003b0 34 5d c4 bd 78 95 ee 3d 1c 36 b5 bd 48 5d 58 3d
       -0.095880896 0.11649603 -0.08848211 0.052823335
0003c0 00 29 f1 3d 6e 93 92 3d f8 ce 03 3d e0 bd 53 3c
       0.11775398 0.07157026 0.032179803 0.012923688
0003d0 00 94 16 39 ae 4e 93 bd f8 c8 df bc ea bf ee bd
       0.00014360249 -0.07192741 -0.027317509 -0.116576985
0003e0 4c 6e fc bd 40 7f cd 3d d0 bf 53 3c d0 d9 88 3d
       -0.12325725 0.10034037 0.01292415 0.066821694
0003f0 f4 43 74 3d 10 38 ad 3d 40 4e 25 3d 04 9a 6f 3d
       0.059635118 0.08457959 0.04035783 0.05849649

lstm.bias_ih_l0 f4 [256]
000000 d4 fe dc 3d c4 08 a2 3d f8 2f 80 3c 8c dd 40 3d
       0.10790792 0.07911828 0.015647873 0.047086284
000010 40 46 c5 3c c8 f1 aa 3d 4c 59 a5 3d 6c c3 4f bd
       0.02408135 0.08346897 0.08073673 -0.05072348
000020 10 d4 fd bd 38 4a a4 bc ac 39 ed 3d 9e a0 a9 3d
       -0.12393963 -0.020054922 0.11583266 0.082825884
000030 c0 a2 92 3d ec b5 45 3d c2 3a 94 3d e8 30 ba bd
       0.07159948 0.048269197 0.0723777 -0.090913594
000040 cc c8 e1 3d 98 9a 69 3d 30 3b 0d bc 28 ae 4e bd
       0.11024627 0.057032198 -0.008620068 -0.050459057
000050 c4 17 c6 3d 7e 82 eb 3d 90 e8 56 3c 0c 9e 7a 3d
       0.09672502 0.11499499 0.013116971 0.06118588
000060 22 8c f7 bd 38 34 64 3d 2c cb f0 3d 28 8f de bc
       -0.12087275 0.055713862 0.11757502 -0.027167872
000070 f4 b5 12 3d 32 18 df 3d c8 ee 7b 3d 50 54 74 3d
       0.035818055 0.10893287 0.061507016 0.05965072
000080 08 b5 f1 3c 48 29 8d bc f0 84 c5 bc 34 db 46 3d
       0.029505268 -0.017231598 -0.024111241 0.048548892
000090 cc 0f 7d 3d 42 e7 e8 bd b0 b5 3b 3c d4 bd 1e bd
       0.061782643 -0.11372234 0.011456892 -0.038755253
0000a0 a0 53 e9 bb dc df 98 3d 20 bc 6a 3d 0c 6a 7c bd
       -0.0071205646 0.07464573 0.057308316 -0.06162457
0000b0 f0 a9 38 bc 48 f8 0e 3d 0a 7b ae 3d dc 06 85 3d
       -0.011270985 0.03490475 0.085195616 0.06495449
0000c0 30 bd 34 3d 60 08 2d 3d 00 90 bb 38 d2 6d 96 3d
       0.044125736 0.042244315 8.943677e-05 0.07345165
0000d0 30 bc 28 bd 2c 24 21 3d d4 b1 82 3d 0a 3f e5 bd
       -0.041195095 0.039341137 0.06381574 -0.11193664
0000e0 d4 5b 3c 3d 3a a5 d4 3d 40 05 8e bc 68 f2 a1 bd
       0.04598601 0.10383077 -0.017336488 -0.079075634
0000f0 d2 eb 95 3d a0 35 9c 3b de bc eb 3d 24 16 5b 3d
       0.0732037 0.004767135 0.11510633 0.05348791
000100 f4 29 0c 3d 4c db 71 bd ec d3 34 3d 70 ab 44 bc
       0.034219697 -0.05904703 0.044147417 -0.0120037645
000110 08 4d e0 3d e0 8c 87 3c 84 70 30 3d 5a 6e ed 3d
       0.109521925 0.016546667 0.043076053 0.115933135
000120 d8 e3 fe 3d 70 db 97 3d 40 a4 20 3c b0 1d 52 3c
       0.124458015 0.07414901 0.009804785 0.012824461
000130 7e 0d e2 bd e0 2b 8d 3d 60 55 a8 3d 58 a8 8f 3d
       -0.1103773 0.06893134 0.08219409 0.07014531
000140 d0 98 10 3c 98 33 3f bd 00 25 cb bd 14 6a a5 bd
       0.008825496 -0.046680063 -0.099191666 -0.080768734
000150 88 8e 41 3d 10 33 32 bc 78 8e 9c 3c ea d8 e1 bd
       0.04725507 -0.010876432 0.019110903 -0.11027701
000160 b0 b3 66 3c 58 6a 4a bd 20 6e 6e 3c d0 98 ab bc
       0.014080927 -0.049417824 0.014552623 -0.02094689
000170 00 42 1f 3a 20 c9 f8 bb 78 4f d8 bc 66 31 c2 3d
       0.00060752034 -0.0075923353 -0.026405081 0.09482078
000180 52 1a ab 3d 38 c5 35 bd 08 8d 8b bd 6c ff 91 bd
       0.083546296 -0.044377536 -0.06814009 -0.07128796
000190 9c 4e 34 3d f0 8a fe bd 2c 37 13 3d d0 74 a6 3c
       0.04402028 -0.12428844 0.035941288 0.020319372
0001a0 fc e3 f4 3d ac da 75 bd 30 0f e8 bd 8c e8 3a 3d
       0.11957547 -0.060022995 -0.11331022 0.04563193
0001b0 ba b3 d0 3d ae 67 bf 3d 00 fa 3f bd 30 89 16 bd
       0.1019053 0.09345947 -0.046869278 -0.036751926
0001c0 50 10 58 3d 26 3f f4 bd 26 92 9a bd c0 5f 6c bd
       0.05274993 -0.11926107 -0.07547407 -0.0577085
0001d0 54 b2 67 3d 50 14 69 bc 3a 7a bf bd 72 94 9e bd
       0.05656655 -0.014226034 -0.09349485 -0.077431574
0001e0 c0 83 a3 3d 30 f2 72 bd c8 fd f7 bc 48 31 06 3d
       0.07984114 -0.059313 -0.03027238 0.032761842
0001f0 de a1 ac bd e0 33 4d 3d 2c 78 41 bd 2c 2b fb 3d
       -0.08429311 0.0500983 -0.047233745 0.12264094
000200 24 50 66 bd e8 aa d6 3c 6c 3c 0d bd 80 26 49 bb
       -0.05622877 0.026204541 -0.03448145 -0.0030693114
000210 94 10 f2 3d 8e 1a b0 bd d8 89 aa bc 48 6d e9 bc
       0.11819568 -0.08598815 -0.020817682 -0.028494492
000220 ca ad e9 3d 20 c5 8f bb 28 cb 73 bd d4 a7 04 3d
       0.11410101 -0.004387513 -0.059519917 0.032386616
000230 30 bd 8d bd 00 11 be 3b 3a 22 90 3d d0 68 1d bd
       -0.0692085 0.0058003664 0.07037778 -0.038430035
000240 ce 4b de 3d 42 8a 91 3d cc fc 2e 3d 40 cd 6c 3b
       0.10854302 0.07106449 0.042721555 0.003613308
000250 90 e1 04 bd 10 56 a9 bd 90 e6 b4 3c 58 74 82 3c
       -0.032441676 -0.08268368 0.022082597 0.015924618
000260 4e d8 c0 bd e8 32 c6 3c 88 66 ba 3d 30 c6 b1 3d
       -0.09416257 0.024194196 0.091015875 0.086803794
000270 4c 14 28 bd 86 f8 b2 3d 24 19 5e bd 4c 65 e9 3d
       -0.04103498 0.08738808 -0.054223195 0.11396274
000280 e0 74 87 3b d4 f5 7a bd 6c bc 54 bd 3c 5c 9a 3d
       0.0041338056 -0.061269596 -0.051937506 0.075371236
000290 98 5c 83 bd 0e 10 fc 3d 38 f3 d2 bc c6 b1 d8 bd
       -0.06414145 0.1230775 -0.025750741 -0.105807826
0002a0 00 7d 32 3d c8 03 f4 3c 16 8d 8c 3d 08 4e 1f 3d
       0.04357624 0.02978696 0.068628475 0.038892776
0002b0 58 2e 93 bc 60 31 6c 3d 1c 68 e3 3d 18 ef a6 bd
       -0.017966434 0.057664275 0.11103842 -0.08151072
0002c0 8a e3 db 3d 20 cc 19 3d 80 d0 c0 3b 10 02 6a 3d
       0.10736759 0.037548184 0.00588423 0.057130873
0002d0 98 a3 3d 3d 68 9a 05 bd fc 2a b1 3d cc cf bb bd
       0.046298593 -0.032617956 0.08650777 -0.091704935
0002e0 84 8f a0 bd 54 f9 29 bd 40 d3 47 3b 00 64 e4 3a
       -0.078398734 -0.041497543 0.0030490905 0.0017424822
0002f0 08 b0 87 3d ae 59 dd bd 76 a8 df bd 58 25 d0 3c
       0.06625372 -0.10808121 -0.10920803 0.025408432
000300 0e 29 bf bd d0 63 5e bc 3a ae 8f 3d 7c 44 93 bd
       -0.093340024 -0.013573602 0.07015653 -0.07190797
000310 22 90 de 3d d8 40 c8 3d 40 a0 77 3b 40 c3 65 3b
       0.10867335 0.09777993 0.0037784725 0.0035059005
000320 f4 de 30 3d a8 f0 a5 3c ee 38 a7 bd 26 02 c0 3d
       0.043181375 0.020256355 -0.08165155 0.0937541
000330 14 62 20 bd 38 80 e1 3d c8 22 1d 3d d4 ff 9f bd
       -0.039156035 0.11010784 0.038363248 -0.07812467
000340 5e 9b fe 3d 38 a6 f9 bc 76 7f bb bd c0 cb f6 bb
       0.12431978 -0.030474767 -0.091551706 -0.007531613
000350 18 f3 9a bd fc 44 f6 bd f0 f6 11 3c 24 aa 04 3d
       -0.07565898 -0.120248765 0.008908972 0.03238882
000360 6c f7 7d 3d f0 00 de bd b8 2a c5 3c fc 91 71 bd
       0.062003538 -0.108400226 0.024068221 -0.058977112
000370 9a 39 8b 3d f8 66 25 bd 88 60 ee bc 40 c4 a8 bb
       0.06798096 -0.0403814 -0.029098764 -0.005150348
000380 b8 c8 ab 3d 70 10 08 3c c4 23 51 3d 80 33 23 3d
       0.083878934 0.0083047 0.0510595 0.039844036
000390 a0 75 65 bd 82 3a ff 3d 4c a4 44 3d e0 49 c5 bb
       -0.05602038 0.12462331 0.04800825 -0.0060207695
0003a0 be 70 d5 bd 9a c8 ae bd b0 62 32 bc a0 46 88 3c
       -0.104218945 -0.085343555 -0.010887787 0.01663524
0003b0 48 80 1e bd 1c 65 9f 3d ee ed bd 3d d0 0c 63 bd
       -0.038696557 0.07782957 0.09273897 -0.05543214
0003c0 80 c8 ac 3a 00 18 16 3d 20 0e 9b 3d a2 7e 9c 3d
       0.0013182312 0.036643982 0.075710535 0.07641341
0003d0 a0 00 9c bc 3a da 8d bd 50 ef e2 3c ea d3 b6 bd
       -0.019043267 -0.06926389 0.027702004 -0.08927138
0003e0 08 03 f6 bd 3c 27 95 3d 4a 08 98 3d 70 e5 ad 3c
       -0.12012297 0.07282874 0.07423456 0.021227568
0003f0 c0 97 45 bd f0 c9 01 3c 90 72 0f 3d a0 1f a0 bc
       -0.048240423 0.007921681 0.035021365 -0.01954633

lstm.bias_hh_l0 f4 [256]
000000 5e a4 f3 3d 14 89 58 bd 58 41 6a bd 50 c8 b8 bd
       0.11896585 -0.052865103 -0.057191223 -0.090225816
000010 90 19 b6 3c ec 03 af bd b8 eb a1 3d 80 91 54 3d
       0.022228986 -0.0854567 0.07906288 0.051896572
000020 90 41 95 3c 98 b1 66 3d 94 85 93 3d 06 3e a7 3d
       0.01821974 0.05632171 0.072032124 0.08166127
000030 6a a5 df 3d f6 ed e3 bd d8 0c ed 3d 70 e4 2f 3d
       0.10920222 -0.11129372 0.115747154 0.042942464
000040 9c a8 54 3d 44 43 df bd 78 19 f7 3c 08 1d d0 3d
       0.05191861 -0.10901502 0.030163512 0.10161787
000050 c6 5d cb bd 48 f4 84 3d 66 64 be 3d 36 3e ed bd
       -0.09929995 0.064919055 0.09296493 -0.115841314
000060 9c 1b 7e bd 3e c9 82 bd 90 9a 83 bd 10 75 0b 3d
       -0.06203805 -0.0638604 -0.06425965 0.034047186
000070 48 6d b7 3c b4 1a d3 3d 90 ae b6 bd 58 26 8f bc
       0.022390977 0.103078276 -0.08920014 -0.017474338
000080 12 17 c7 bd 8c 10 a7 bd de ab e7 bd f0 f7 13 3c
       -0.09721197 -0.08157453 -0.11312078 0.009031281
000090 20 f7 b7 bc ae 4e a4 3d c0 ca 2f bd 84 f6 af bd
       -0.022456706 0.080228195 -0.042917967 -0.08591941
0000a0 8c 4b 4b 3d d8 84 ce 3c c0 5f 58 3c b2 1d fd bd
       0.049632594 0.02520983 0.013206422 -0.123591796
0000b0 8e 4d dc 3d 80 5a 07 bb 70 99 21 3d 88 ea e7 3c
       0.1075698 -0.0020653307 0.03945297 0.028310075
0000c0 28 49 88 3d 6c b3 2d 3d 9a d2 e3 3d 10 ef 41 3c
       0.066545784 0.04240744 0.111241534 0.011836782
0000d0 3e ab ef bd e4 24 19 3d 78 da da bd 48 b0 98 bd
       -0.11702584 0.037388697 -0.10686201 -0.07455498
0000e0 88 85 f1 bc 40 de 2f bb e2 53 fa bd 1c d6 dd bd
       -0.029482618 -0.0026835352 -0.122230306 -0.10831854
0000f0 ea 95 b2 3d 3c 1a ee bd ee 32 ce 3d c4 c0 98 bd
       0.0872 -0.116260976 0.10068308 -0.07458642
000100 90 fb 94 3d 7e 0c b4 bd b4 18 9f bd ca 92 dc bd
       0.07274544 -0.08791445 -0.077683836 -0.10770185
000110 94 d6 56 bd f0 2a 1a 3c 90 32 75 3c 8e 1e fa bd
       -0.05245073 0.009409651 0.014965668 -0.12212859
000120 a8 53 c0 bc f0 7c 7b bd 80 eb 87 3c 58 8d 57 3d
       -0.02347739 -0.061398447 0.016591787 0.05262503
000130 78 37 c5 bd d2 f4 e7 3d d0 72 d9 3d 9c 57 4f 3d
       -0.096297204 0.11325993 0.10617602 0.05062066
000140 d4 ee 94 bd 80 93 50 3d dc 47 9b bd b0 85 33 3c
       -0.07272115 0.050921917 -0.075820655 0.010957167
000150 54 7c e5 bd a0 54 f0 3b 56 04 be bd e0 08 81 bb
       -0.11205354 0.007334307 -0.09278171 -0.0039378256
000160 10 92 b9 3c 34 4b 6d 3d 5a bb c7 bd 10 8f dc bd
       0.022652656 0.057933047 -0.09752531 -0.107694745
000170 3c 31 41 bd c8 65 82 3d 4e d1 9f bd 5c 83 8d bd
       -0.047166094 0.063670695 -0.078035936 -0.069098204
000180 8c 05 ec 3d 94 e0 48 bd f0 8e 01 3d 08 75 c1 3c
       0.115244955 -0.0490423 0.031630456 0.023615375
000190 be 34 a4 bd 98 81 bf 3c 00 58 37 3a 9c 8b 12 bd
       -0.08017872 0.023377225 0.0006994009 -0.035777673
0001a0 12 c6 f5 3d 80 0d aa 3b 86 93 f9 3d 52 4e b6 bd
       0.120006695 0.0051895976 0.12186341 -0.08901657
0001b0 00 ea 11 bc e4 c5 09 bd dc f8 d2 3d 18 9a 43 bd
       -0.008905888 -0.03363599 0.103013724 -0.047754377
0001c0 d4 fe 9c bd 8c 14 91 bd 18 48 78 3d 84 79 10 bd
       -0.07665792 -0.07083997 0.06061563 -0.035272136
0001d0 38 1e 86 bc 30 17 ba bc fc 4c b4 3d 88 08 b7 bd
       -0.016371831 -0.022716135 0.08803746 -0.08937174
0001e0 e8 12 19 3d a0 96 04 3c a0 5d ef 3c 52 3a 8e 3d
       0.037371546 0.008092552 0.029219449 0.069447175
0001f0 7c 3d 12 3d d0 1c 53 bd c4 75 51 bd 98 7d c3 bd
       0.035703167 -0.05154115 -0.0511377 -0.095454395
000200 1a b3 f1 bd 60 16 34 3c 88 60 ae 3c e4 50 04 bd
       -0.11801739 0.010991663 0.021286264 -0.032303706
000210 30 c8 19 bd 18 2b 8e 3d 40 73 ff 3b 5c 8c 38 bd
       -0.03754443 0.06941813 0.0077957213 -0.045055732
000220 00 e8 5b bd 3c f4 dd 3d 42 38 f9 3d 70 42 36 3c
       -0.05368805 0.108376 0.121689335 0.011124238
000230 10 30 11 3d 90 b3 75 bd a2 0a 9c bd 8c 81 87 3d
       0.035446227 -0.059985697 -0.076192155 0.06616506
000240 4c 64 c0 3d f0 08 4b bc 98 f1 86 bc 12 9a f7 3d
       0.0939413 -0.012392268 -0.016472623 0.120899335
000250 b4 04 e2 bd d8 4c cf bd 34 13 b0 3d 24 dc eb bd
       -0.11036053 -0.10122079 0.08597413 -0.11516598
000260 18 6d c6 3c 8c 6c 5c 3d 40 f8 f2 bd b2 70 e8 3d
       0.024221942 0.053814456 -0.11863756 0.1134962
000270 e0 64 ef bb 44 04 96 3d 1e 47 e8 3d 7e 7b d0 3d
       -0.0073057264 0.07325032 0.113416895 0.10179804
000280 28 80 99 bc 44 3d 4b 3d d0 51 77 bd 1c e1 7e 3d
       -0.018737867 0.049618974 -0.060380757 0.0622264
000290 fa 32 9a 3d 10 23 79 bd c8 90 c2 bc aa 50 81 bd
       0.07529254 -0.060824454 -0.023750678 -0.063142136
0002a0 54 57 17 bd 98 17 d8 3d 34 9f a4 bd 78 af ef bd
       -0.036948517 0.10551375 -0.08038178 -0.1170339
0002b0 cc 2e a3 3d be e7 86 bd 6e e3 94 3d fc 0d e4 bd
       0.0796791 -0.0658717 0.07269941 -0.1113548
0002c0 aa 00 b6 bd cc ba 3d bd b8 93 f3 bd 4e 19 c5 bd
       -0.088868454 -0.04632072 -0.118934095 -0.09623967
0002d0 d0 69 3c 3d d4 97 c3 bd ee e9 83 bd e2 de af bd
       0.04599935 -0.09550443 -0.06441103 -0.085874334
0002e0 f4 93 72 3d 68 f7 df 3d c4 06 93 bd 7c 34 90 3d
       0.05922313 0.10935861 -0.07179025 0.070412606
0002f0 c8 b5 ea bd b2 a7 de bd c4 f2 61 bd 9a 6f e2 3d
       -0.11460453 -0.10871829 -0.05516316 0.110564426
000300 60 7c 92 bb 50 f2 01 3d 7a 8f b7 bd ce 0d 92 3d
       -0.004470393 0.031725228 -0.08962913 0.07131539
000310 40 bb cd 3b 88 16 c5 bc 1c 78 93 3d b0 7a a3 bc
       0.0062784255 -0.024058595 0.072006434 -0.019955963
000320 94 e3 37 3d 8c 6b ab bd b2 2e 99 3d d2 ef b1 3d
       0.04489477 -0.08370122 0.074796095 0.0868832
000330 84 84 e0 3d 60 ab 11 bc ec 7a 31 3d 1c b5 c7 3d
       0.10962775 -0.008890957 0.043330118 0.09751341
000340 a0 7c dd 3b 48 5c 91 bd 54 3d 4b bd 98 cf f3 3c
       0.006759241 -0.070976794 -0.049619034 0.029762074
000350 ba e7 9c bd 46 e8 89 3d f8 42 81 3d fc 52 ea bd
       -0.07661386 0.06733756 0.063116014 -0.11441609
000360 80 3c f2 3d 30 cc 45 bc de 6f dd bd 82 1c cd bd
       0.11827946 -0.012072608 -0.108123526 -0.10015203
000370 ac 48 a3 bd 08 2f 7f bd 50 6f 4a bd 8c d1 e8 3d
       -0.079728454 -0.062300712 -0.049422562 0.11368093
000380 b0 8c bc 3d 08 8e bc 3d 7e 83 c5 3d 40 bc ed bc
       0.092065215 0.09206778 0.09644221 -0.029020429
000390 a4 9e b6 bd 80 1b 35 bb 4c 1c d8 3d 0e 96 e3 bd
       -0.08916977 -0.00276348 0.10552272 -0.11112605
0003a0 38 1e a0 3c f0 9d 79 3d 68 06 a7 3c 80 a9 78 3d
       0.01954566 0.060941637 0.020388797 0.060708523
0003b0 44 fd 17 3d 0c 79 f8 bd 4c 55 32 bd bc 50 2c bd
       0.037106767 -0.12132463 -0.043538377 -0.04206918
0003c0 0c 74 91 3d 08 01 74 bd 48 f1 a1 bc 98 20 af 3c
       0.07102212 -0.059571296 -0.019768372 0.021377847
0003d0 74 0d 0c bd 28 4e 91 bc 84 81 e9 bd ae b4 ce 3d
       -0.034192517 -0.017737463 -0.11401656 0.10093056
0003e0 72 5a c8 3d 40 bd bb 3c a0 d1 34 bc ea 14 81 3d
       0.09782876 0.02291739 -0.011036307 0.06302817
0003f0 24 1e 5f 3d 80 82 ca bc 00 1a bb bd f4 5c a1 3d
       0.054472104 -0.02472043 -0.091358185 0.078790575

lstm.weight_ih_l1 f4 [256, 64]
000000 ea 93 9a 3d 92 cd c1 3d 96 cb d9 3d 50 88 30 3c
       0.075477436 0.094630376 0.10634534 0.010774687
000010 c4 95 93 bd 88 a5 ec bc ec b4 37 3d ac 2d 74 bd
       -0.072063 -0.028887525 0.044850275 -0.05961387
000020 9e 62 98 bc c4 ec f5 bd 7a 49 33 bd 68 56 e2 3d
       -0.018601712 -0.1200805 -0.043771245 0.11051637
000030 9c 23 18 bd 30 a5 2c bd 28 6b 8a 3d a6 1e b1 bc
       -0.037143335 -0.042149723 0.0675872 -0.02162106
000040 b4 bb da bb d0 5a 19 bc 00 62 0f bb e0 c4 d7 bd
       -0.006675208 -0.00936003 -0.002187848 -0.10535598
000050 a6 24 c6 3d 74 fd b6 bd 88 55 4e bd 27 35 b7 bd
       0.09674959 -0.08935061 -0.050374538 -0.08945685
000060 48 c1 c1 3d f8 0d b0 bc e8 bb 1d 3d 8c 93 39 bd
       0.094606936 -0.021491036 0.03850928 -0.045306727
000070 4a af f5 bd e8 a9 ce bd d4 b6 fc 3d c2 b0 ae bd
       -0.11996324 -0.10091001 0.12339559 -0.085298076
000080 68 57 0f bd e0 71 5a 3c b4 a2 31 bd 2e 6c ef bd
       -0.034995466 0.013332814 -0.043368056 -0.116905555
000090 f0 45 14 bd 66 21 90 3d 68 62 db bd 28 c3 08 bd
       -0.03619951 0.0703762 -0.10712129 -0.03338924
0000a0 54 f2 7d bd a2 82 ad bd 54 c0 a2 3d d3 48 9a 3d
       -0.06199868 -0.08472182 0.0794684 0.07533421
0000b0 18 3f b6 3d e4 7e 09 3e 24 c5 fa bd 46 0d e7 bd
       0.08898753 0.13427311 -0.12244633 -0.112818286
0000c0 0c f1 73 bd 90 3c 3c 3d 38 8d c6 3c a0 90 15 3c
       -0.059556052 0.045956194 0.02423726 0.00912872
0000d0 68 a8 77 3d 58 60 ec 3c a8 b1 05 3d 00 28 c0 3d
       0.06046334 0.028854534 0.03264013 0.093826294
0000e0 2c 3e 10 ba 0a b2 a9 3d da e7 87 bd e8 18 cf bd
       -0.00055024284 0.082859114 -0.06636019 -0.10112172
0000f0 c8 21 90 bc 80 fe 76 3b 7c 79 c8 3d 50 c3 87 bc
       -0.017594233 0.0037688315 0.09788796 -0.016572624
000100 fc 7e 59 bd ae fa e9 bd 30 b8 01 bc 34 be 35 bd
       -0.053099617 -0.114247665 -0.007917449 -0.044370845
000110 40 ad ee bb a8 9d ff 3c 10 44 4e 3d ee f6 96 3d
       -0.0072838366 0.031203106 0.05035788 0.07371317
000120 10 98 c5 3c 98 14 58 bd f0 2b 0b 3e 3a 85 d6 bd
       0.02412036 -0.052754015 0.1359098 -0.1047463
000130 56 3d 52 bb 60 27 59 bc 70 a9 53 3d a3 aa 0c 3e
       -0.0032080016 -0.013254017 0.05167526 0.13736968
000140 2a ca cc 3d 3e 6d d4 3d 58 d0 d1 3c 26 cd e6 bc
       0.09999497 0.10372399 0.025612041 -0.028173994
000150 40 e1 ff 3d be ba ea 3d f0 ef e2 bd 05 52 fb bd
       0.12494135 0.114613995 -0.11080921 -0.12271503
000160 d0 ee a6 3c 12 e9 a4 bd dc 86 9d 3d 0c d2 7e bd
       0.020377547 -0.08052267 0.07691738 -0.062212035
000170 36 77 d4 bd 18 66 ea bc 00 ee d4 bb 4f 97 d9 bd
       -0.103743 -0.028613135 -0.0064980984 -0.10624563
000180 98 67 d2 3c 80 10 d7 bd ba 19 bb 3d d6 9f 8d bd
       0.025684163 -0.10501194 0.09135766 -0.06915252
000190 2b 4a ff 3d 78 c6 38 bd 00 28 b4 3b 7a 6a cb 3d
       0.12465318 -0.04511115 0.0054979324 0.09932418
0001a0 24 a8 d0 bd 6a f8 94 bd c0 d3 92 3b f4 80 5e bd
       -0.1018832 -0.07273944 0.004480809 -0.054322198
0001b0 5e a6 08 3e 34 56 c9 3c e4 cc 75 3d 92 a5 91 bd
       0.13344714 0.024577238 0.060009852 -0.07111658
0001c0 b4 72 01 bd 91 0c 6c 3d b6 a3 a7 bd d4 6c 8c bd
       -0.03160353 0.05762917 -0.08185522 -0.06856695
0001d0 74 c9 5c 3d 80 b4 f9 ba fc 4a 06 3d d0 f5 97 bc
       0.05390306 -0.0019050986 0.032786354 -0.01854983
0001e0 f0 6a a8 bd 54 93 39 bd 4c 85 16 bd 6c 38 94 3d
       -0.08223522 -0.04530652 -0.036748216 0.07237324
0001f0 68 df a1 3d fc 62 8f bd 60 79 81 3c e4 a7 17 3d
       0.079039395 -0.07001302 0.015804946 0.037025347
000200 f6 f3 c7 bd 40 4d 3e 3c 22 63 92 bd f0 cf 8c 3c
       -0.09763329 0.0116150975 -0.07147814 0.017188996
000210 e4 f5 73 3d d0 65 ce 3c bc 71 46 3d 38 c8 a9 bd
       0.05956067 0.025195032 0.04844831 -0.08290142
000220 6d 9e ae bd b0 a9 2e bc ad 24 ff 3d 48 7f 11 bd
       -0.08526311 -0.010660574 0.12458167 -0.035521775
000230 33 8b 92 3c 50 c1 61 bc 40 be 04 3c 83 a0 35 3d
       0.017888641 -0.013778999 0.008102 0.04434253
000240 e8 b3 a3 3d 1a 29 cb 3d 8e 70 c5 bd 61 06 51 3c
       0.07993299 0.09919949 -0.09640609 0.0127578685
000250 d8 88 b7 bc 62 2b 83 bd f2 ac c8 bd 4b fc f5 3c
       -0.02240412 -0.06404759 -0.09798612 0.03002753
000260 20 ac a8 bd 14 7f 7d 3d 64 cb 06 bd fc 8a 51 3d
       -0.08235955 0.06188877 -0.032908812 0.051157936
000270 ee 53 b9 3d 48 28 2c bd 9a e7 8a 3d 60 9a 98 3d
       0.090492114 -0.042030603 0.06782456 0.0745132
000280 00 ef f0 3d a0 3c d5 3b f6 ae b1 bd d4 79 14 3d
       0.11764336 0.006507471 -0.08675949 0.036248997
000290 4c b4 ef 3d 00 00 77 ba 60 3b b9 3c ea 7c b5 bd
       0.11704311 -0.0009422302 0.02261132 -0.08861716
0002a0 e6 7f f7 bd 9e 11 85 bd 78 0b ef bd fb 2e 01 3e
       -0.120849416 -0.06497501 -0.11672109 0.12615578
0002b0 5e 11 5e bd 24 64 90 bd 2e 97 ab bd 90 a8 e6 bd
       -0.05421578 -0.0705035 -0.083784446 -0.112626195
0002c0 00 ca 05 bd 73 1e 26 3d 94 53 e4 bd 7c 92 2d bd
       -0.032663345 0.040556382 -0.11148754 -0.042376027
0002d0 0e bf ed 3d f8 45 59 3d f0 4b 7b 3c b0 99 81 bd
       0.116087064 0.053045243 0.015337929 -0.06328142
0002e0 bb a3 b2 3c bc 05 c2 3d 28 6e 47 3d 8a f1 de 3d
       0.021806588 0.0947375 0.048689038 0.10885914
0002f0 58 87 8f 3d 2e 96 8b bd 30 4c 7c 3c b6 9e bd 3d
       0.07008237 -0.06815754 0.015399024 0.09258787
000300 f4 62 47 bd c0 9b 73 3b 3c 81 e6 bd c0 f6 3e 3d
       -0.048678353 0.0037171692 -0.11255118 0.046622038
000310 b8 9b 7b 3d 00 a8 5c 3a c0 21 4e bc 18 a2 66 bd
       0.0614278 0.0008417368 -0.012581289 -0.05630693
000320 ad 82 6c bd e8 a9 dd bc 33 04 b4 bd a8 d8 f6 bd
       -0.05774181 -0.027058557 -0.087898634 -0.12053043
000330 2c 0f 80 3d dc 3f 6a 3d 7c 22 bd bd 3a 0a 25 bc
       0.06252894 0.057189807 -0.09235093 -0.010073239
000340 1a bf a3 3d a4 45 12 3d 76 4f 8f bd 1a bf 8c 3d
       0.07995434 0.035710946 -0.06997578 0.06872387
000350 14 1f 4e bd dc 2d cb bd f2 08 9c bd aa 3a d4 3d
       -0.050322607 -0.09920856 -0.07618894 0.10362752
000360 a0 15 b8 3d 60 81 9e 3b 70 44 45 bc 70 37 2e bd
       0.089885 0.0048372 -0.012040243 -0.042533338
000370 e4 31 f4 3d 68 3f bf bd 10 41 63 3c 21 00 dc bd
       0.119235784 -0.09338266 0.013870493 -0.10742212
000380 b4 82 8f 3d c8 14 0b bd 86 24 b6 bd f8 e0 d8 bd
       0.070073515 -0.033955365 -0.08893685 -0.105897844
000390 79 db 14 3d 7c 38 55 bd 00 02 50 ba 56 55 90 3d
       0.036342118 -0.05205582 -0.00079348683 0.070475265
0003a0 b6 47 e8 3d 36 83 d6 bd 44 5c c3 3d 69 05 a0 3d
       0.11341803 -0.10474245 0.09539083 0.07813532
0003b0 87 92 d7 3d 4e a6 95 3d 0a 84 83 bd 70 c7 db 3d
       0.10525995 0.07307111 -0.06421669 0.10731399
0003c0 b6 82 83 bd 97 dd c1 bd 94 18 00 bd 80 e4 62 3d
       -0.064214155 -0.09466093 -0.03127344 0.055393696
0003d0 10 7b 0f bc e0 6f bc bc 4c b6 b6 3d d0 ef aa 3d
       -0.008757368 -0.023002565 0.08921489 0.08346522
0003e0 27 06 99 3d f8 9e 2f 3d b0 92 db bc 78 de a2 bd
       0.074718766 0.042876214 -0.026803344 -0.07952589
0003f0 bc e4 62 3d 5c e4 d4 bd 68 71 94 3c a8 f3 c1 3d
       0.05539392 -0.103951186 0.018120483 0.09470302

lstm.weight_hh_l1 f4 [256, 64]
000000 52 ee d4 bc 7b 6a af bd 07 fb ed bc 97 e2 ca 3d
       -0.025992546 -0.085652314 -0.029050363 0.099065
000010 ae 0b 9c bd 4d 09 0a bd 5a 90 0d be 9f 9a 95 3d
       -0.07619415 -0.033700276 -0.13824597 0.07304882
000020 f6 ca b4 bd 64 11 31 3d d0 b6 36 3c 9e 27 17 bd
       -0.08827774 0.043229476 0.011151984 -0.036903016
000030 cc f3 82 bd 9f 62 2b 3d 26 d2 d3 bc a2 2a 2a 3d
       -0.06394157 0.0418421 -0.025857043 0.041544564
000040 7b ce d5 3c a3 07 89 3d 1c 65 02 3e 1c 5d 3b 3d
       0.026099434 0.0669091 0.12733883 0.045743093
000050 e4 3e 06 bd 7e f8 da 3b 6f e7 9e 3d b7 d6 94 3d
       -0.03277482 0.0066824546 0.07758986 0.07267516
000060 78 fc e5 3c 02 d4 97 3d f3 37 dc 3d cc 69 70 bd
       0.028074488 0.07413484 0.10752859 -0.058694646
000070 c9 e0 68 bc cd 51 e7 3c ce 0e 04 3e 63 16 f6 3d
       -0.014213749 0.028237248 0.12896273 0.12015989
000080 2d 59 d9 3d ae 33 49 3c 80 6f 07 3e b2 60 b2 3b
       0.10612712 0.012280388 0.13226128 0.005443656
000090 bf 4a 03 be 24 65 01 be 3c 3d 95 3c 2e 6d c9 3c
       -0.12821482 -0.12636238 0.018217675 0.024588194
0000a0 c5 4f c8 3d fd 3d 51 bc 0b 05 70 bd 2c a2 27 3d
       0.0978084 -0.012771127 -0.05859856 0.040926144
0000b0 40 7e 32 3d db dc b3 3c f3 ba 5a 3d 81 9f 6c bd
       0.043577433 0.021955898 0.053400945 -0.057769302
0000c0 bd 1c 91 bb 04 49 23 3d 1c af d2 3d 5d b3 af bd
       -0.0044284747 0.039864555 0.10287306 -0.08579133
0000d0 cc 06 90 bd 67 76 df 3d 17 73 41 3d 94 7b 3c bd
       -0.070325464 0.10911255 0.0472289 -0.04601629
0000e0 58 ba 88 bd 39 fb 6a 3d 0b b9 c4 bd 85 d1 16 bd
       -0.06676167 0.05736849 -0.09605607 -0.036820907
0000f0 a7 a7 bb 3d 50 fd f7 bc 9d ff a5 3d c3 a5 e9 3c
       0.091628365 -0.030272156 0.08105395 0.028521424
000100 07 89 6a 3d 36 c7 bd bc bc eb 13 3e 7f 75 a6 bd
       0.057259586 -0.02316628 0.14445394 -0.08127879
000110 65 b7 e2 3d 63 94 b7 3c 8d 04 0d bd a9 fd 3a 3c
       0.11070136 0.022409623 -0.034428168 0.011413016
000120 2e 3d 44 bd 5e 7a f3 bc 23 09 ae 3b e0 11 7d ba
       -0.047909908 -0.029721435 0.005311148 -0.00096538477
000130 07 93 72 bd 79 d9 84 bd 4c 5a b3 bd eb ee 17 bc
       -0.059222247 -0.06486792 -0.08757457 -0.009273271
000140 d2 72 e7 bd 5b f8 81 bc d1 2d 91 3d f6 56 d9 3b
       -0.11301197 -0.015865495 0.07088817 0.006632681
000150 ec 28 03 be ad b2 ac bc 90 54 83 bd 99 51 b7 bc
       -0.12808579 -0.021081293 -0.064126134 -0.022377776
000160 47 da e9 bd 3e f7 b4 bd b2 ce cc 3d 36 ff 0d 3e
       -0.11418586 -0.0883622 0.100003615 0.13866886
000170 46 44 2c 3c 83 40 17 3d 9a 6e e9 3d 29 15 e7 3c
       0.0105143245 0.036926758 0.11398049 0.028208332
000180 6b 3b df bb 3e 2d d9 bd 58 5b e9 bc f8 2a 14 bd
       -0.006812503 -0.106043324 -0.028485939 -0.03617379
000190 9a ad 08 be d5 59 0a 3d c7 d5 63 bd d2 d4 be bc
       -0.13347474 0.033777077 -0.055623796 -0.02329484
0001a0 f0 83 a6 3d 2d 29 3d 3c 38 64 e9 bd 45 53 0c bc
       0.08130634 0.011545462 -0.11396068 -0.008564775
0001b0 52 d5 d5 3d 71 07 8d 3d 49 ab cc 3a 59 6c bb bd
       0.10441078 0.06886185 0.0015615012 -0.09151525
0001c0 6e e7 68 bd 8b 95 5a bb fd 8b 1f bd aa 86 c3 3c
       -0.056861334 -0.0033353295 -0.038951863 0.023867924
0001d0 9d a8 03 bd 15 9d 11 3e 60 18 76 3d 93 38 02 3e
       -0.032143224 0.14220078 0.06008184 0.12716894
0001e0 ae 0f b1 3c 68 05 8d bd 3e e7 f0 3d c2 33 2f 3d
       0.021613922 -0.06885797 0.11762856 0.04277397
0001f0 48 a0 b8 bd 9d 22 b7 bd 92 fb db bb e7 60 ff 3c
       -0.09014946 -0.08942149 -0.006713339 0.031174136
000200 91 39 84 bd e8 e3 45 bd 6d 8b 01 3e b1 dc 18 3d
       -0.064562924 -0.04831305 0.12650843 0.037319843
000210 12 7d 01 3e e0 10 0d be b9 ff a5 3d 3a 88 0f bd
       0.12645367 -0.13775969 0.08105416 -0.035042025
000220 9d af d4 3d b0 88 f4 3c 27 93 e8 bd 79 c9 87 3d
       0.10385058 0.029850334 -0.11356192 0.06630225
000230 d8 b6 10 3d a1 d4 eb 3c 3f e0 a1 bb 39 27 09 3e
       0.035330623 0.028787913 -0.0049400623 0.13393869
000240 84 85 35 3c c9 96 8c bc f1 d0 eb bd 3d ff ac 3c
       0.011079196 -0.017161744 -0.11514462 0.0211178
000250 e4 6d 4a bd 40 a4 0d 3e 4c f8 7e 3d 03 59 e5 bc
       -0.049421206 0.13832188 0.062248513 -0.027996546
000260 10 2a e0 b9 3c d9 a4 bd 96 e5 dd bd ee 0e d6 3d
       -0.00042755948 -0.08049247 -0.10834806 0.10452066
000270 ce ae 8e bc e4 27 83 3d fa 25 b5 3d 74 ea ef 3c
       -0.017417338 0.06404093 0.08845134 0.0292866
000280 1a 72 10 3e b5 fc 34 3d 8a 18 f7 bc 45 de 14 3d
       0.14106026 0.044186313 -0.030163068 0.036344785
000290 32 fc 2a bd f0 b0 00 be 12 eb 8c bd 40 e9 a4 bd
       -0.04174442 -0.12567496 -0.068807736 -0.080523014
0002a0 46 25 99 b9 d5 af 6d 3d 30 27 e9 bd d2 55 79 bb
       -0.00029210205 0.058029015 -0.113844275 -0.0038045538
0002b0 30 ef 01 3e 66 62 4f 3d 5a 39 ba bd 68 0f d1 3c
       0.12688899 0.05063095 -0.0909297 0.025520042
0002c0 6d ac a0 bd 8b 2b 0f be 03 54 2f bd 02 c3 76 bd
       -0.078453876 -0.13981454 -0.04280473 -0.060244568
0002d0 5a 1b c3 3d 1e bc b1 bd 57 58 20 bd 81 a9 02 3e
       0.09526701 -0.08678459 -0.039146747 0.12759973
0002e0 e0 67 10 3e c7 19 a0 bd 79 31 56 3d fa 8c b5 bd
       0.14102125 -0.07817417 0.052293275 -0.0886478
0002f0 be b7 b8 3c e6 98 ee 3d 3c f0 bc 3d 2a 1a c8 bd
       0.022548553 0.11650257 0.092255086 -0.097706154
000300 64 09 50 3c 97 60 2e bd 30 5d c9 3d f0 de 22 bd
       0.012697551 -0.042572584 0.09832227 -0.03976339
000310 bc 10 04 3e 83 1c 13 bd b3 c0 90 bd 32 ae 15 bd
       0.12897009 -0.035915863 -0.070680045 -0.03654308
000320 28 b7 f5 3d c8 8a bf 3d 1c 57 21 3d 91 ae 94 3c
       0.11997825 0.09352642 0.039389715 0.018149646
000330 6f e7 9f bd 68 b6 29 3d aa c4 05 be 5b bd f8 bc
       -0.07807814 0.04143372 -0.13063303 -0.03036373
000340 6b 00 cb bd ab a5 00 bd 21 c0 1b 3c 0b a9 88 bd
       -0.09912189 -0.031407993 0.009506256 -0.066728674
000350 30 9f 15 bc bc 0e 6a bd 75 5b a8 3d b6 30 b4 3d
       -0.009132192 -0.057142958 0.08220569 0.087983534
000360 3b 5a 69 3d 51 9c 14 bd f5 1d a6 3d 3e 9d b3 3d
       0.056970816 -0.036281887 0.081111826 0.08770226
000370 38 71 00 3d 6d d9 07 bd a1 df 05 3d cb 7c 84 bc
       0.031357974 -0.033166338 0.032683972 -0.016172787
000380 c8 7d b8 bc 29 ac 9b 3c 90 68 bc 3d 02 3c ae 3c
       -0.022520915 0.01900299 0.09199631 0.021268848
000390 df e8 48 3d 8f bb 91 bc 28 bf 1c 3d a2 ed 07 3d
       0.04905021 -0.01778963 0.03826824 0.03318561
0003a0 92 cf a8 3d c3 59 e4 bd d7 cc 73 3d cf 4c 7d 3b
       0.08242716 -0.11149933 0.059521522 0.0038650518
0003b0 b9 e1 9b 3d 2c 6d db bc cf fa 17 bd cb 23 22 3d
       0.076114126 -0.026785456 -0.037104424 0.039584916
0003c0 af ac 7b bd ee c7 de 3d 76 10 dd bd 4b f1 09 3c
       -0.06144398 0.10877977 -0.10794155 0.008419345
0003d0 27 10 c7 3d 00 df cf bd 19 ef 2b bd 79 21 94 bd
       0.09719878 -0.10149956 -0.04197607 -0.07232947
0003e0 41 26 52 3d ff 72 90 bc 65 37 9d 3b fe 9f 6b 3d
       0.051306013 -0.01763296 0.0047978633 0.057525627
0003f0 e1 de b5 3d 23 2f 75 bd 0b 29 fa 3c 42 42 e0 bd
       0.088804014 -0.059859406 0.030537149 -0.10950138

lstm.bias_ih_l1 f4 [256]
000000 b9 72 29 bc 3e b7 18 3c af 93 9a bd 3c 46 d5 3d
       -0.010342293 0.009321032 -0.075477 0.10413787
000010 d0 96 da 3d dd 01 a8 3b d1 b7 3a bd ac 28 8e 3b
       0.106732965 0.0051271752 -0.045585457 0.0043383446
000020 6e 62 05 3e c4 a0 8f bd a8 62 b7 3d d5 03 a5 3c
       0.13025829 -0.070130855 0.08954364 0.020143429
000030 a2 36 87 3d 3d f0 a5 3d 4e db bc bd 24 34 ac bd
       0.06602217 0.081024624 -0.092215165 -0.084083825
000040 c9 96 bc bc 80 fd dc 3d e8 8c 52 3d 9c 9c be 3d
       -0.023021119 0.10790539 0.05140391 0.093072146
000050 e4 b6 b9 3d 2a 5e bf 3d f1 cb 83 3d 54 e2 a7 bd
       0.09068087 0.09344132 0.06435383 -0.081974655
000060 1c 0b b4 bc c1 e5 f0 3c 27 4f 63 bd d1 c3 2f bd
       -0.021977954 0.02940643 -0.055495407 -0.042911354
000070 95 ae bc bd d3 34 7a bc 8c 59 a8 3d 23 27 ee 3d
       -0.092129864 -0.015271383 0.08220205 0.116285585
000080 d1 69 0a 3c b4 1b 06 ba 14 39 39 bd 76 50 db 3d
       0.00844808 -0.00051158224 -0.04522045 0.10708706
000090 a9 2a 09 3e 33 da c3 bd 96 53 3c bd 94 d2 ec 3d
       0.1339518 -0.095631026 -0.04597815 0.11563602
0000a0 89 93 ee bc 97 ca c5 3d 7a 8f 6e 3d f2 b2 af 3d
       -0.029123085 0.096577816 0.0582423 0.08579053
0000b0 d0 6d a7 bd 0c 0c b6 bd d9 38 8d 3d b6 69 c4 bd
       -0.08175242 -0.088890165 0.068956085 -0.09590475
0000c0 14 34 96 bd 7a 64 c3 bc 80 ee a8 3d f6 67 9e bd
       -0.07334152 -0.023851622 0.08248615 -0.07734673
0000d0 9d bd bc 3d d3 ff 10 3e 6a 48 ab bd bf 98 1d 3c
       0.09215853 0.14160089 -0.08363421 0.009618937
0000e0 04 3f e0 3d 24 c1 36 3d bd 4d 8d bd a3 1a 89 3d
       0.10949519 0.044617787 -0.06899593 0.06694534
0000f0 fa a3 d3 3d df 89 0c 3e b2 8a 95 3c f0 f2 e1 3d
       0.103340104 0.13724469 0.018254612 0.11032665
000100 0b ad aa 3d 68 e1 e4 3c 11 aa af 3d 10 fb b5 3d
       0.083337866 0.027939513 0.085773595 0.08885777
000110 2d 3d a6 3d 7a 29 3f bd 6c 9c f1 3c 6f 75 81 bb
       0.08117137 -0.046670415 0.029493533 -0.0039507668
000120 3e 2b 44 3d 29 59 cf bd ad 08 dc 3d 4c 1d 3b 3d
       0.0478928 -0.10124428 0.10743842 0.045682237
000130 1f f3 01 3d 1a 40 08 bd 24 20 6c 3d 00 99 a5 bd
       0.031726 -0.033264257 0.05764784 -0.08085823
000140 5d 86 3f 3d 52 00 a3 bd ca 30 b8 3d f6 9e 4c 3d
       0.046759 -0.079590455 0.08993681 0.049956284
000150 d0 ef 11 3e 2d 00 c8 3c 53 82 fb 3d 1d 38 cf 3d
       0.14251637 0.024414146 0.12280717 0.10118125
000160 0f 13 9e bd 26 1a d8 bd 13 aa f3 bd e1 25 6d bc
       -0.07718479 -0.105518624 -0.118976735 -0.014474363
000170 3b 2c c4 3d 39 36 a7 3c 2a 02 f8 3d e3 f5 85 3d
       0.09578749 0.020411598 0.12109788 0.0654104
000180 76 cb 8e 3d 26 1d b8 bd 7b 6f c1 3d 14 b6 ea 3d
       0.06972401 -0.089899346 0.09445091 0.1146051
000190 1d 37 1d 3d 11 5b ad 3d 68 24 82 3d ed cd 88 3d
       0.03838264 0.08464635 0.063546 0.06679902
0001a0 2b 93 10 bd 96 b5 08 3e 3c 7e 0f bd 78 c8 c5 3b
       -0.0352966 0.1335052 -0.035032496 0.0060358606
0001b0 9b ad 48 bc 4c 6f ee 3d bf 26 bc 3d d6 bf 78 bc
       -0.012248422 0.11642322 0.09187078 -0.015182456
0001c0 83 6d fa 3d 4f cf 65 bd 85 2b cf bd ab 13 ba 3d
       0.12227919 -0.056105908 -0.101157226 0.090857826
0001d0 1f 45 ae bd 1d 51 a8 bd b7 d7 b6 3d 5f f3 dc 3d
       -0.085092776 -0.08218596 0.08927863 0.10788607
0001e0 0b 34 db bd 0d fc 9e 3c c5 d6 d6 bb df e1 ce 3c
       -0.10703286 0.019407297 -0.0065563642 0.025254188
0001f0 33 6a 71 3d 21 70 b1 bb 99 43 06 3e 63 7e 95 bd
       0.05893917 -0.005414978 0.13111724 -0.07299497
000200 3f 37 f6 bd ac db a9 bc 7c 50 a6 bd a2 18 d9 3c
       -0.12022256 -0.02073463 -0.0812082 0.026501004
000210 92 9e bb bd 27 1e d2 bd a5 53 c7 3d 2e 84 69 bc
       -0.09161104 -0.10259657 0.09732751 -0.0142527055
000220 fe 8e 98 bd f9 24 96 bc 3c 75 b0 3d 61 5c a3 bd
       -0.074491486 -0.018328177 0.08616111 -0.07976604
000230 45 1d da 3d 92 ae cd 3a 2a 91 bb 3d 8b 53 e7 bd
       0.10650114 0.0015692285 0.09158547 -0.112952314
000240 bf 6e db 3a bc 64 ae bd a2 d4 d6 3c 83 84 97 3d
       0.0016741379 -0.08515307 0.026224438 0.073983215
000250 42 34 82 3d d8 aa 05 bd b0 52 02 be fa 01 09 3e
       0.06357624 -0.032633632 -0.12726855 0.1337966
000260 79 92 81 3a 7f 70 ba bc 8f 33 d9 bc f1 09 8d 3d
       0.0009885571 -0.02275872 -0.026513843 0.06886662
000270 5b 42 76 3d d8 60 a8 3c e8 7d 38 bd 38 d0 d8 3c
       0.060121875 0.020553991 -0.04504195 0.026466474
000280 3f 46 98 3c da c5 22 3d 9a 20 fd 3d 13 37 a7 bd
       0.018588183 0.039739467 0.12359734 -0.081648014
000290 b0 f3 66 bd 89 a1 9b bd 20 7a a8 bd 7f 1e a4 bd
       -0.056384742 -0.0759917 -0.082264185 -0.08013629
0002a0 21 5b c3 3d 7f fa e1 bd 0a 2f 62 bd b3 55 1b bd
       0.09538866 -0.110341065 -0.05522064 -0.037923526
0002b0 71 f6 97 bd ed 20 d4 bc 70 d4 de bd 6b 21 1c 3d
       -0.07420052 -0.025894606 -0.10880363 0.038117807
0002c0 57 33 ce 3c 67 76 70 bc d5 3c ad 3d 4c 74 b2 bd
       0.025170965 -0.014676667 0.084588684 -0.08713588
0002d0 3b 6c 73 bd 5d 42 db bd 00 db b8 3d ca 78 1f bd
       -0.05942939 -0.10706017 0.09026146 -0.038933553
0002e0 fe a0 df 3d a1 c0 3a 3d e8 db 02 3e 62 22 a3 3d
       0.10919379 0.04559386 0.127792 0.079655424
0002f0 d4 90 47 3d 2c 14 db bd b8 c9 f0 3d 5c cc cf 3d
       0.048722103 -0.10697207 0.11757225 0.101464
000300 9d cd f7 ba 90 65 34 3d 18 fc 00 bd 3c ad ce 3d
       -0.0018905882 0.04404217 -0.031490415 0.100916356
000310 6a 57 a2 3d c4 7e 8c 3d 5d 4b f9 bb 5c 75 88 3c
       0.07926829 0.06860116 -0.007607861 0.016657524
000320 2a c5 a7 bb de 88 f4 3b 46 23 a4 3d cb ea 20 3c
       -0.0051199393 0.007462605 0.080145404 0.009821604
000330 6f 27 b2 3d 84 80 8e bc 45 0f fb 3c 7d 0b c5 3c
       0.086989276 -0.017395265 0.03064693 0.02405333
000340 d0 dc b7 bd a9 75 5d ba 5a 8c c1 3d 52 fc 4e bd
       -0.089776635 -0.00084480137 0.09450598 -0.0505336
000350 d1 b7 0f 3e 7d b5 8e 3c f7 87 a6 bd 98 ef fb 3d
       0.14034964 0.017420525 -0.08131402 0.12301558
000360 cf db f1 3c 87 04 8e 3c fa 51 a3 bd 6b fa ce 3d
       0.029523758 0.017336143 -0.0797462 0.10106357
000370 50 49 83 3d 8c a9 b2 3d 93 2b 90 bd b9 44 da 3d
       0.064104676 0.08723745 -0.07039561 0.10657639
000380 22 33 26 bd 04 8a 91 bc be 0e 18 3e 7f d0 f5 3d
       -0.040576108 -0.017766006 0.14849374 0.12002658
000390 e7 c5 d6 3c de 38 6d 3d af 25 0b 3e 07 a1 ee 3d
       0.026217414 0.05791556 0.13588594 0.11651807
0003a0 7d 34 96 bd 82 28 47 3d ff 57 d3 bd e6 f4 04 3e
       -0.0733423 0.048622616 -0.10319518 0.12984046
0003b0 9b 43 38 3b 25 f5 d3 3d 17 e2 c1 bc a9 f2 dc bd
       0.0028116468 0.10349492 -0.023667378 -0.10788471
0003c0 77 cc 5a bd af 24 c0 bd 4f 39 ed 3d 3d 28 ce 3d
       -0.05341765 -0.09381997 0.11583196 0.100662686
0003d0 aa 0e 25 bc f1 d1 44 bd 02 8e ad ba 1c 76 cd bc
       -0.010074297 -0.04805178 -0.0013241174 -0.025080733
0003e0 94 f4 ee 3d e5 2b ae 3d 44 6e 0a 3e 96 2c e3 bd
       0.11667743 0.08504466 0.13518625 -0.110924885
0003f0 52 4e 9f bd c7 cc c3 3d 46 90 27 3d b1 86 98 bd
       -0.0777861 0.095605426 0.040909074 -0.07447565
