models/AIOTUSDT_lstm_20250822_033236.pth (torch, 244277 bytes, 11 tensors)

lstm.weight_ih_l0 f4 [256, 30]
0.11916673 0.06837216 -0.0038194656 0.014606491 0.08553465 -0.025206387 0.08302671 -0.102186546
-0.086026475 0.07221252 -0.058257967 -0.080581784 0.015419647 0.033532113 -0.098463014 -0.089875385
-0.059516847 0.10396567 -0.03262472 0.030696139 -0.11138767 0.10349946 0.06680377 -0.07862976
0.12312028 0.0042245537 0.091730475 0.02654478 -0.00016744435 -0.018980935 0.050552055 0.0020358711
0.08797981 -0.018117562 0.047173545 0.060335353 0.11697036 -0.075404316 0.108062655 0.03009972
-0.05073437 -0.024623096 -0.10395682 0.07459673 -0.035295382 0.0812463 -0.09481105 -0.09145796
0.079845265 -0.12245184 0.09133972 0.09268208 -0.0475062 -0.079592004 0.076545164 -0.0840763
-0.065056264 -0.03078425 -0.10141753 0.03411098 0.0974157 -0.08379917 -0.12276013 0.061058715
0.036138058 -0.09230971 0.03234841 -0.074033484 -0.1113964 -0.11965814 -0.030402616 -0.097474545
-0.018653959 0.07269165 0.05529131 0.07433319 0.045360416 0.09677981 0.07654707 0.0052009523
-0.058529615 0.012944549 -0.09487736 0.06088917 0.12320641 -0.003981754 -0.010274753 -0.09539549
0.103047445 -0.009112239 -0.028416872 -0.055673227 0.07075511 0.020844772 0.09280312 0.015686959
-0.006149307 0.05380833 0.05670987 0.06425963 0.029233322 -0.029065832 -0.062414676 0.106169745
0.02714254 -0.054102108 0.057015806 0.113893956 -0.050058633 0.019838512 0.097154066 0.06173113
0.08430159 -0.020926476 -0.0071837306 0.030729309 -0.025109887 -0.0012020618 0.028793499 -0.07141818
0.032326296 0.050408423 -0.058475196 -0.031572923 -0.07101719 -0.11219846 0.009520829 -0.096509606
-0.07033861 0.0014297962 0.11575472 -0.01698552 -0.010969192 0.12036325 -0.019666836 -0.07009405
0.076997966 0.05142744 0.04166901 0.07699831 0.060040623 0.09359215 0.12274031 -0.096732765
0.06050402 0.11261858 0.07822253 0.09497158 -0.09246659 -0.044553354 -0.07570127 0.106125325
-0.07728276 0.11968671 -0.104169995 0.10950999 0.11201021 0.10310911 -0.039261505 0.09183738
0.10722256 0.033303604 0.12094669 0.059242055 0.01414527 -0.073308915 0.12252246 0.034988746
-0.11261055 0.054974392 -0.111376956 0.11264542 0.05689247 0.059692055 -0.06989679 0.08574432
-0.07119587 0.09482169 -0.0034179837 -0.12488884 -0.047599837 -0.025845632 0.0776348 0.06065479
0.101633534 0.009836629 0.044124648 0.010919452 -0.016311318 -0.08632006 0.08669606 -0.09236421
-0.07687107 -0.078260675 -0.04544556 -0.105471104 -0.12333585 0.05518022 0.081771776 -0.09176649
0.0038311332 -0.10149686 -0.12046878 -0.11241934 0.06873563 0.07771784 -0.026002452 0.03931442
-0.04571238 0.033935845 0.024487302 -0.08918591 -0.070170894 0.09700456 -0.024603799 -0.0062754303
-0.10030854 -0.07774453 -0.029224694 0.042972192 -0.0005142689 0.07040657 0.037445053 0.07665451
0.11677617 -0.11933477 0.092088 0.09595697 -0.12035568 -0.040839985 -0.002711296 -0.010886744
0.023690507 0.05473441 0.09613836 0.03963822 0.032436937 0.0045588017 0.007686615 -0.12160343
0.12226373 -0.05647987 -0.10199222 -0.029639095 0.11363378 0.04086858 -0.10066855 0.10864742
-0.074879736 0.035023406 -0.11400613 -0.00029623508 0.10633695 0.092539296 0.051773757 0.019687861
00000000: b00d f43d b406 8c3d 0050 7abb 1050 6f3c
00000010: ca2c af3d a07d cebc e809 aa3d 2e47 d1bd
00000020: a62e b0bd 28e4 933d e89f 6ebd 1008 a5bd
00000030: b0a2 7c3c f858 093d faa6 c9bd 9610 b8bd
00000040: f0c7 73bd f4eb d43d 80a1 05bd 7876 fb3c
00000050: 381f e4bd 86f7 d33d 6ad0 883d a408 a1bd
00000060: 7c26 fc3d 206e 8a3b 30dd bb3d 7074 d93c
00000070: 0094 2fb9 e87d 9bbc ac0f 4f3d 406c 053b
00000080: c22e b43d 486b 94bc 0c39 413d 3422 773d
00000090: 288e ef3d 946d 9abd f44f dd3d b093 f63c
000000a0: d8ce 4fbd 60b6 c9bc 50e7 d4bd 2cc6 983d
000000b0: e491 10bd 7664 a63d 4c2c c2bd 504e bbbd
000000c0: ea85 a33d 08c8 fabd 5210 bb3d 1ad0 bd3d
000000d0: dc95 42bd 2201 a3bd b6c3 9c3d 3230 acbd
000000e0: 383c 85bd 402f fcbc feb3 cfbd f4b7 0b3d
000000f0: e281 c73d e69e abbd aa69 fbbd b418 7a3d
00000100: 8005 143d e00c bdbd c47f 043d de9e 97bd
00000110: cc23 e4bd 540f f5bd e80e f9bc bca0 c7bd
00000120: 30d0 98bc 5cdf 943d 2479 623d 003c 983d
00000130: d8cb 393d 7e34 c63d b6c4 9c3d c06c aa3b
00000140: c0bc 6fbd 6015 543c 104f c2bd ec66 793d
00000150: a453 fc3d 6079 82bb 7057 28bc b65e c3bd
00000160: 8a0a d33d 804b 15bc 80ca e8bc 9c09 64bd
00000170: 0ee8 903d a8c2 aa3c 900f be3d f081 803c
00000180: 2080 c9bb 2066 5c3d 9c48 683d 8e9a 833d
00000190: b87a ef3c 781b eebc 88a6 7fbd 866f d93d
000001a0: 085a de3c 2c9a 5dbd 6889 693d 3c41 e93d
000001b0: 480a 4dbd 6084 a23c b6f8 c63d c8d9 7c3d
000001c0: 50a6 ac3d 006e abbc 8065 ebbb 08bc fb3c
000001d0: 40b3 cdbc 808e 9dba 58e0 eb3c b243 92bd
000001e0: 9468 043d 1079 4e3d b083 6fbd 9c52 01bd
000001f0: 7671 91bd 4ec8 e5bd 40fd 1b3c d4a6 c5bd
00000200: b00d 90bd 0068 bb3a d010 ed3d 3825 8bbc
00000210: 20b8 33bc 0281 f63d 581c a1bc 788d 8fbd
00000220: 1cb1 9d3d 94a5 523d 20ad 2a3d 4ab1 9d3d
00000230: 28ed 753d 3ead bf3d 465f fb3d d41b c6bd
00000240: 10d3 773d 92a4 e63d 2233 a03d 7680 c23d
00000250: 205f bdbd 947d 36bd 4409 9bbd 3c58 d93d
00000260: 6c46 9ebd 4e1e f53d 1457 d5bd c646 e03d
00000270: 9c65 e53d de2a d33d acd0 20bd 3c15 bc3d
00000280: 8097 db3d 5c69 083d e6b2 f73d cca7 723d
00000290: 90c1 673c fc22 96bd 0eed fa3d 5c50 0f3d
000002a0: 5ca0 e6bd d42c 613d 9a19 e4bd a4b2 e63d
000002b0: 1408 693d a87f 743d 0c26 8fbd b89a af3d
000002c0: 24cf 91bd e031 c23d 4000 60bb b8c5 ffbd
000002d0: 0cf8 42bd 38ba d3bc fefe 9e3d 2871 783d
000002e0: 3e25 d03d d029 213c 0cbc 343d 80e7 323c
000002f0: 509f 85bc 92c8 b0bd b48d b13d 7229 bdbd
00000300: 946e 9dbd 2247 a0bd 2025 3abd 3c01 d8bd
00000310: 8297 fcbd a804 623d f677 a73d 12f0 bbbd
00000320: c013 7b3b 96dd cfbd 56b8 f6bd 1c3c e6bd
00000330: 44c5 8c3d 882a 9f3d 1803 d5bc 2808 213d
00000340: e83c 3bbd 5000 0b3d 9899 c83c 1aa7 b6bd
00000350: c2b5 8fbd 54aa c63d e88d c9bc 20a2 cdbb
00000360: 906e cdbd 8638 9fbd a068 efbc 9c03 303d
00000370: 00d0 06ba 5231 903d fc5f 193d 0afd 9c3d
00000380: 5828 ef3d ca65 f4bd a298 bc3d 1685 c43d
00000390: 0a7d f6bd d447 27bd 00b0 31bb 505e 32bc
000003a0: 9812 c23c 3031 603d 30e4 c43d b05b 223d
000003b0: 98dc 043d 0062 953b 00e0 fb3b 380b f9bd
000003c0: 6865 fa3d 7057 67bd 4ce1 d0bd b0cd f2bc
000003d0: d4b8 e83d d065 273d 502b cebd 8a82 de3d
000003e0: 8c5a 99bd b474 0f3d 0c7c e9bd 0050 9bb9
000003f0: 30c7 d93d 3e85 bd3d b810 543d 7048 a13c

lstm.weight_hh_l0 f4 [256, 64]
-0.06412448 -0.0480123 0.067558825 -0.1101134 0.10484482 -0.08048268 0.08059247 -0.09261213
-0.06884067 -0.09594917 0.074180484 0.10838047 -0.076674104 0.11177543 0.0040497184 -0.052778557
0.022667155 -0.05978872 -0.035435423 -0.056082353 -0.02341716 0.099481955 0.0010103434 0.026641399
-0.07558316 0.066216856 -0.1087739 0.029966056 9.217858e-05 -0.11606595 0.10532479 -0.11923799
-0.119461015 -0.0140660405 -0.053533703 0.036453277 0.10652952 -0.017427132 0.0728382 -0.048857868
0.074306086 0.016368702 -0.04680659 -0.017165124 -0.08620325 0.030213475 0.08819814 0.0052369237
-0.040746167 -0.114109024 -0.10603547 -0.053589165 0.018392503 -0.0023185015 0.027683124 0.12003961
0.09224792 0.008030489 0.10424927 -0.057868943 -0.059857413 0.061533093 -0.11460309 0.0032375157
-0.08258957 -0.11459261 0.1096382 0.050366566 -0.0010436624 0.0075619817 -0.07705714 0.0024202466
0.11461501 0.07111564 0.06641215 0.0397909 -0.03321168 -0.034493357 0.065311655 -0.08519091
0.04861653 0.07677741 0.12313369 -0.026415423 -0.059371144 -0.08124006 -0.11576542 -0.112718254
-0.056826577 0.08827159 0.016222969 -0.014261082 -0.098119035 -0.06696041 0.018031448 -0.10118565
-0.12001987 0.069905624 -0.089188546 0.10345462 -0.119570866 0.085622385 0.054774195 0.050165266
-0.08124025 0.09453437 0.005389869 0.036377013 -0.09494287 -0.104668856 -0.014184758 0.07310012
-0.037031963 0.122018114 0.07601574 0.10505733 -0.10761081 -0.007126555 -0.07961036 0.10856749
0.03661631 0.09181769 0.04227285 0.02191192 0.09596971 -0.0751359 -0.103634134 -0.009641737
0.050934523 0.11362517 0.010669902 -0.06416313 -0.03824562 0.08164735 0.030918896 0.09653647
0.03811784 -0.09859334 -0.012936205 0.11267321 0.009782419 -0.038489044 0.06377268 -0.1045548
-0.08451359 0.030357972 0.11458629 0.010558486 -0.116362095 -0.047627002 0.07224931 0.07480733
0.10856885 0.053318888 -0.0731487 -0.0999317 -0.06602153 0.05502884 0.019169569 -0.097468
-0.11538656 0.04734561 0.014571428 -0.062589824 0.0039515495 -0.114257246 -0.089426756 0.117719755
0.122143105 -0.045239165 -0.034669966 0.09474504 0.037201315 0.1192652 0.043814525 0.1130496
-0.01573944 0.026968181 0.038090914 -0.034891993 -0.06488173 0.037687495 -0.016035229 -0.07124443
-0.11153753 -0.065876916 -0.12357655 0.078036174 0.05931525 -0.048270583 -0.007975742 -0.09850088
-0.042868733 -0.079325184 0.007636547 -0.10320927 0.04518172 0.030997038 -0.04355833 0.04352556
0.081354424 -0.11557476 -0.080011174 0.05783683 0.124482036 0.07042849 -0.122565076 0.024126187
0.08313632 -0.030479074 0.11113089 0.045162544 0.053332195 -0.08512016 0.10943769 -0.10698679
-0.1248896 0.0747339 0.03147845 -0.06269707 0.030976012 -0.083379194 0.03874229 -0.019983113
-0.054593474 -0.09786631 0.070442885 -0.011152446 -0.08684187 0.07936257 -0.088527024 0.060618147
0.0054671913 0.11113906 0.06956793 0.0088106245 0.07507573 -0.12014012 1.8000603e-05 0.056556255
0.07282275 0.04834141 0.07267973 0.06623742 0.05457014 0.03895259 0.064668596 -0.05836712
0.058639303 -0.053298876 -0.07353164 0.024826512 -0.02965054 -0.09712343 0.06364182 -0.11452547
00000000: b253 83bd 8ca8 44bd 485c 8a3d 2283 e1bd
00000010: e2b8 d63d 1ad4 a4bd aa0d a53d 6eab bdbd
00000020: 56fc 8cbd 0081 c4bd f0eb 973d 94f6 dd3d
00000030: 5007 9dbd 84ea e43d 80b3 843b 542e 58bd
00000040: 78b0 b93c 04e5 74bd bc24 11bd 9cb6 65bd
00000050: 58d5 bfbc 32bd cb3d 806d 843a 103f da3c
00000060: 58cb 9abd b49c 873d dac4 debd 607b f53c
00000070: 0050 c138 fcb3 edbd 86b4 d73d 0c33 f4bd
00000080: faa7 f4bd 4075 66bc 2846 5bbd 0850 153d
00000090: 262c da3d 58c3 8ebc 322c 953d 301f 48bd
000000a0: ca2d 983d a817 863c 44b8 3fbd e09d 8cbc
000000b0: 548b b0bd 4082 f73c 3aa1 b43d 809a ab3b
000000c0: 74e5 26bd feb1 e9bd 2029 d9bd 5080 5bbd
000000d0: e0ab 963c 00f2 17bb b8c7 e23c 54d7 f53d
000000e0: 7aec bc3d 5092 033c a480 d53d fc07 6dbd
000000f0: 0c2d 75bd 200a 7c3d 06b5 eabd 802c 543b
00000100: b824 a9bd 88af eabd fe89 e03d 2c4d 4e3d
00000110: 80cb 88ba 80ca f73b 22d0 9dbd 009d 1e3b
00000120: 46bb ea3d 14a5 913d 1803 883d c8fb 223d
00000130: f808 08bd e848 0dbd 1ec2 853d 9278 aebd
00000140: 2022 473d 7a3d 9d3d 842d fc3d 2865 d8bc
00000150: 282f 73bd 3061 a6bd 6c16 edbd d4d8 e6bd
00000160: fcc2 68bd bcc7 b43d 08e6 843c 50a7 69bc
00000170: a2f2 c8bd 8a22 89bd b0b6 933c 6c3a cfbd
00000180: facc f5bd ae2a 8f3d 7ca8 b6bd 04e0 d33d
00000190: 92e1 f4bd ca5a af3d e85a 603d 187a 4d3d
000001a0: 4a61 a6bd 3c9b c13d 809d b03b 1000 153d
000001b0: 6871 c2bd a05c d6bd 3067 68bc 84b5 953d
000001c0: d4ae 17bd a2e4 f93d 24ae 9b3d 4c28 d73d
000001d0: 0e63 dcbd e085 e9bb c20a a3bd a258 de3d
000001e0: fcfa 153d ea0a bc3d 4c26 2d3d a080 b33c
000001f0: c48b c43d dae0 99bd 223e d4bd 60f8 1dbc
00000200: b8a0 503d 50b4 e83d d0d0 2e3c f667 83bd
00000210: 70a7 1cbd ba36 a73d a049 fd3c eab4 c53d
00000220: 7421 1c3d 4eeb c9bd 60f2 53bc 36c1 e63d
00000230: 7046 203c b0a6 1dbd 409b 823d d420 d6bd
00000240: 7615 adbd 48b1 f83c 38ac ea3d 80fd 2c3c
00000250: 404f eebd 8814 43bd 72f7 933d 9634 993d
00000260: 5859 de3d e864 5a3d fcce 95bd fea8 ccbd
00000270: 4c36 87bd ec65 613d 8009 9d3c 4e9d c7bd
00000280: ca4f ecbd 78ed 413d 00bd 6e3c 182f 80bd
00000290: 007c 813b b4ff e9bd 6025 b7bd 0e17 f13d
000002a0: 2a26 fa3d b44c 39bd 1802 0ebd b009 c23d
000002b0: 6860 183d 5041 f43d dc76 333d 8c86 e73d
000002c0: 00f0 80bc 60ec dc3c 3805 1c3d e8ea 0ebd
000002d0: b6e0 84bd 345e 1a3d 505c 83bc 9ae8 91bd
000002e0: ca6d e4bd 7aea 86bd b415 fdbd 6ed1 9f3d
000002f0: 8cf4 723d 60b7 45bd b0ac 02bc d4ba c9bd
00000300: 2097 2fbd 3e75 a2bd 003c fa3b 625f d3bd
00000310: 7810 393d 80ed fd3c 386a 32bd dc47 323d
00000320: 269d a63d 76b2 ecbd e6dc a3bd 50e6 6c3d
00000330: 70f0 fe3d d03c 903d 6603 fbbd 48a4 c53c
00000340: 6043 aa3d 40af f9bc 9898 e33d 5cfc 383d
00000350: dc72 5a3d 7a53 aebd de20 e03d e41b dbbd
00000360: 1ec6 ffbd 160e 993d 8cef 003d 5267 80bd
00000370: 68c1 fd3c b6c2 aabd 3cb0 1e3d a0b3 a3bc
00000380: 689d 5fbd 226e c8bd 5c44 903d c0b8 36bc
00000390: 26da b1bd d888 a23d a84d b5bd bc4a 783d
000003a0: 2026 b33b e09c e33d a279 8e3d 705a 103c
000003b0: 4ec1 993d 060c f6bd 0000 9737 88a7 673d
000003c0: 1824 953d a401 463d 1cd9 943d 7ca7 873d
000003d0: f084 5f3d c08c 1f3d f870 843d 5c12 6fbd
000003e0: c42f 703d ec4f 5abd c297 96bd f860 cb3c
000003f0: b0e5 f2bc a6e8 c6bd a456 823d 548c eabd

lstm.bias_ih_l0 f4 [256]
0.018400297 0.120406836 -0.06243156 0.025818944 0.07218672 0.0055933893 -0.07154551 0.037196457
-0.01354 -0.0382984 -0.042845175 0.035941258 0.10270551 0.121483356 -0.03493817 -0.05599332
-0.114863634 -0.07848354 -0.051591814 -0.095470995 -0.035688818 -0.0073617697 0.08030495 -0.092581436
0.027635753 -0.01550822 -0.11663644 0.09534375 -0.03665571 -0.013876781 0.12056546 -0.0943795
0.12182838 -0.08201058 0.056214496 0.019870609 -0.12483327 0.091337815 -0.11071822 -0.045441583
-0.046558335 0.07086532 0.010284349 0.10342954 0.03705789 -0.012582228 0.112654135 -0.08966981
-0.027066395 0.1054398 0.111830786 0.0639648 0.12278129 -0.052566454 0.08394264 -0.051447228
-0.096098945 -0.04863763 -0.100137085 -0.025688842 0.10673982 -0.095739126 -0.110516936 0.022894278
0.057985827 0.048326164 0.11227511 -0.08725627 -0.08049393 0.04644245 -0.04522051 -0.04450576
0.036972135 0.06408027 0.0472845 0.0027196705 -0.038001657 -0.0796638 -0.10827629 -0.11329751
0.009861872 -0.10259117 0.03396164 -0.049817204 0.10197686 0.091801465 -0.096813604 0.11225882
-0.017067984 0.082338676 -0.06663923 0.06396118 -0.10536072 0.11963321 0.089505404 0.067077786
-0.0048693717 -0.056243226 0.02974838 0.107113376 0.11257921 0.10516544 -0.07825923 0.124960765
-0.0058882833 0.101979494 -0.08599903 0.06137587 0.11937587 -0.11228694 -0.025672138 -0.053177148
-0.12310958 0.012754351 0.06575245 0.038095877 0.05136381 -0.075376794 0.07028571 0.07815336
-0.092872426 0.07827167 0.11779599 0.055948943 0.07561393 0.046489805 -0.069266364 0.027716696
0.08491281 -0.05159901 0.0002772063 -0.001283735 0.041258678 -0.043339834 0.112065256 -0.023849666
-0.00059092045 -0.08613241 0.11599101 -0.12234305 -0.04927452 0.012319759 -0.10063867 0.06763214
0.025865495 0.07578842 0.025058448 0.040447697 -0.11085419 0.08722152 0.064567044 -0.028040469
0.035966575 0.040844217 0.09883334 0.098816216 -0.037849486 -0.030484498 -0.102817446 -0.091097936
-0.018285722 -0.028581455 0.05202414 0.048766807 -0.016640708 -0.05854085 -0.0045832843 -0.033496797
-0.09582512 -0.05337873 0.118278965 0.005553618 0.12114845 -0.0058288276 0.09071714 0.0479196
-0.08588272 0.123510286 0.11934349 -0.04444155 -0.11862424 0.05640018 -0.09295015 0.033518612
0.08627333 0.11275655 -0.09371458 0.036338612 -0.08894667 0.08477409 0.12085065 0.082867265
0.0039670765 -0.04461634 0.10246049 -0.07381433 0.09067561 0.044187784 0.08432728 -0.124988705
-0.016074494 -0.09896384 0.124498114 0.111939386 -0.09065275 0.11778179 0.07208419 -0.006956488
0.0026101917 0.11238222 0.053330064 0.03141871 -0.09181577 -0.044618145 0.0059148073 -0.107626915
0.112057105 0.034706384 0.11653745 -0.00649108 0.072495446 -0.108100966 0.07763897 -0.012793258
-0.073976725 0.08530922 -0.089052856 -0.07006848 -0.10379428 -0.019059971 0.09142591 -0.007966682
-0.121203125 -0.10531618 -0.068095 0.044292256 -0.10833411 -0.0048913807 -0.12013458 0.005828604
-0.124672756 -0.06575748 -0.077194035 0.07663955 -0.03235905 -0.032672346 0.09440857 -0.05208209
-0.07443099 -0.08070859 -0.0072697997 0.029262483 0.08821827 -0.11869964 0.085842654 -0.09497887
00000000: 38bc 963c dc97 f63d 3cb8 7fbd 4082 d33c
00000010: a2d6 933d c048 b73b 7486 92bd 505b 183d
00000020: e0d6 5dbc c8de 1cbd 6c7e 2fbd 2437 133d
00000030: 4457 d23d 44cc f83d 541b 0fbd 4059 65bd
00000040: a03d ebbd fabb a0bd f051 53bd 4c86 c3bd
00000050: 702e 12bd 003b f1bb ec76 a43d 569b bdbd
00000060: 6064 e23c 3016 7ebc 16df eebd 9643 c33d
00000070: 4c24 16bd 705b 63bc 06eb f63d 0a4a c1bd
00000080: 2881 f93d 2af5 a7bd 2c41 663d b0c7 a23c
00000090: 96a8 ffbd 520f bb3d 3cc0 e2bd f420 3abd
000000a0: f4b3 3ebd d621 913d b07f 283c ded2 d33d
000000b0: 04ca 173d b025 4ebc 36b7 e63d cea4 b7bd
000000c0: 58ba ddbc d2f0 d73d 8a07 e53d faff 823d
000000d0: c274 fb3d ec4f 57bd 1eea ab3d 54ba 52bd
000000e0: 86cf c4bd 4038 47bd ac14 cdbd 6871 d2bc
000000f0: 689a da3d e012 c4bd b456 e2bd c88c bb3c
00000100: 8c82 6d3d a8f1 453d 7ef0 e53d 6ab3 b2bd
00000110: 00da a4bd 703a 3e3d 2439 39bd ac4b 36bd
00000120: 1870 173d 843c 833d 64ad 413d 803c 323b
00000130: a0a7 1bbd c626 a3bd f6bf ddbd 8608 e8bd
00000140: b093 213c 521b d2bd 5c1b 0b3d 200d 4cbd
00000150: 3ed9 d03d 6802 bc3d 3646 c6bd f4e7 e53d
00000160: 28d2 8bbc 2ea1 a83d 267a 88bd 14fe 823d
00000170: 5cc7 d7bd 4202 f53d 9c4e b73d 1460 893d
00000180: 408f 9fbb 4c5f 66bd e0b2 f33c 425e db3d
00000190: ee8f e63d fa60 d73d 6046 a0bd 6eeb ff3d
000001a0: 80f2 c0bb a0da d03d 4220 b0bd 4465 7b3d
000001b0: 567b f43d b2f6 e5bd 604e d2bc 48d0 59bd
000001c0: e020 fcbd a0f7 503c 38a9 863d 6c0a 1c3d
000001d0: dc62 523d 265f 9abd f4f1 8f3d de0e a03d
000001e0: e633 bebd e64c a03d 063f f13d b82a 653d
000001f0: 7adb 9a3d 186c 3e3d 86db 8dbd 200e e33c
00000200: c4e6 ad3d 7c59 53bd 0056 9139 0043 a8ba
00000210: dcfe 283d 1c85 31bd 7882 e53d 6060 c3bc
00000220: 00e8 1aba 3066 b0bd b28c ed3d fe8e fabd
00000230: 14d4 49bd d0d8 493c a61b cebd b882 8a3d
00000240: e0e3 d33c f636 9b3d 6047 cd3c 7cac 253d
00000250: 8607 e3bd 32a1 b23d ba3b 843d 20b5 e5bc
00000260: b051 133d 444c 273d 2269 ca3d 2860 ca3d
00000270: 1008 1bbd a0ba f9bc f491 d2bd 8e91 babd
00000280: f0cb 95bc a823 eabc 4417 553d b4bf 473d
00000290: 1852 88bc 88c8 6fbd 602f 96bb f033 09bd
000002a0: f63f c4bd a8a3 5abd 3e3c f23d 20fb b53b
000002b0: ae1c f83d c0ff bebb e8c9 b93d 5847 443d
000002c0: 48e3 afbd f6f2 fc3d 5c6a f43d 5808 36bd
000002d0: 44f1 f2bd e003 673d a65c bebd d04a 093d
000002e0: 12b0 b03d e8ec e63d 6eed bfbd ccd7 143d
000002f0: ac29 b6bd 0a9e ad3d 8c80 f73d 50b6 a93d
00000300: 40fe 813b a0bf 36bd ced6 d13d f82b 97bd
00000310: 22b4 b93d 40fe 343d c8b3 ac3d 14fa ffbd
00000320: a8ae 83bc 8ead cabd def8 fe3d 7a40 e53d
00000330: 26a8 b9bd 9437 f13d e0a0 933d 40f3 e3bb
00000340: c00f 2b3b a628 e63d a070 5a3d e8b0 003d
00000350: e809 bcbd 84c1 36bd 00d1 c13b 806b dcbd
00000360: 327e e53d 4828 0e3d 30ab ee3d 20b3 d4bb
00000370: 7e78 943d 0a64 ddbd 2e01 9f3d d09a 51bc
00000380: 1c81 97bd 9ab6 ae3d 5861 b6bd 1080 8fbd
00000390: 1892 d4bd a823 9cbc 823d bb3d b086 02bc
000003a0: 5839 f8bd 02b0 d7bd 6475 8bbd cc6b 353d
000003b0: 46de ddbd e047 a0bb 1e09 f6bd e0fd be3b
000003c0: 6e54 ffbd dcab 86bd e817 9ebd 32f5 9c3d
000003d0: ec8a 04bd 70d3 05bd 4859 c13d 0854 55bd
000003e0: 466f 98bd 8c4a a5bd 8037 eebb e0b7 ef3c
000003f0: c8ab b43d cc18 f3bd 46ce af3d 4884 c2bd

lstm.bias_hh_l0 f4 [256]
0.05894445 0.048570797 0.1146124 -0.03822291 0.019222572 -0.09328979 0.09560612 -0.058286592
0.0040991604 -0.0058594644 0.038296655 -0.04640825 -0.029318526 -0.077358946 0.011231229 -0.09104796
-0.10506162 0.035526052 0.09807876 -0.053075463 -0.10629302 0.06402218 0.12204538 0.044236004
-0.025182039 -0.07381919 0.05042444 -0.024324477 -0.123490855 -0.03910148 -0.10097417 0.01261729
0.0789323 0.073168844 -0.0715317 0.113349065 0.11489721 0.0101145655 -0.001084134 -0.033650562
0.08427526 -0.024325907 -0.09248786 0.104234114 0.022422567 0.011361867 0.07188763 0.052805856
0.016453803 0.032536983 -0.120947674 -0.08606149 0.041159227 0.08633427 -0.05938922 0.021058261
0.1023812 -0.052903637 -0.0110966265 0.0438807 -0.029285058 0.009001568 -0.043056503 0.044219106
0.108928844 -0.02189222 -0.051409498 0.043591067 -0.09476194 0.010047913 0.11305086 -0.07843296
0.09496947 0.12312332 -0.1030273 -0.12394968 -0.023235321 0.0026696026 -0.11806837 -0.0123279095
-0.010870531 0.0066007227 -0.0015912354 0.0030057132 0.029731646 -0.055572078 0.024602652 0.11464886
0.10001452 -0.058671653 -0.0055508763 -0.07089731 0.008865938 0.122550905 -0.012323588 -0.09901829
-0.11318609 -0.045582533 -0.011389017 0.06169273 0.056983605 0.009179637 -0.06008771 -0.07281597
-0.07499659 -0.03906299 0.09517115 -0.044225693 0.10152961 0.07926692 0.049507976 -0.010014281
0.014113829 0.014843211 -0.10283986 -0.029988289 0.05957727 0.0982406 -0.10400294 -0.021293208
0.115276664 0.0206739 0.042068437 0.08419028 -0.073403716 -0.002855301 0.095558375 -0.078596145
-0.041965947 -0.1146272 -0.120171204 -0.024341747 -0.11321427 -0.072896376 -0.10538347 0.11752406
0.059593737 0.062180653 0.12491955 0.07510178 -0.12195347 0.08303048 0.027698234 0.09122825
0.005902767 0.106866 0.018919826 -0.09380782 0.077963024 0.10306153 -0.096817404 -0.015228137
0.11174852 -0.019488856 0.023045003 0.09679553 -0.026436806 0.10107505 0.032499254 -0.050821677
0.015679017 0.039269313 -0.039637253 0.0011469424 -0.096855536 0.10236408 0.025684565 -0.016283557
0.06205049 0.10872677 -0.04058896 0.120416716 0.072832525 0.10069801 0.030743852 -0.0697968
-0.04601276 -0.05468224 -0.02962704 -0.04814203 -0.12168437 -0.106307 0.06520407 -0.04323636
0.023803353 0.029580101 0.12119749 -0.0028556436 -0.05487001 -0.07588516 0.0088323355 0.084764555
-0.0657303 -0.025382012 0.010948464 -0.10718876 0.0051118582 -0.05909896 0.061226293 0.012984261
0.08460945 0.022682384 -0.032508165 -0.09884705 -0.11698197 -0.0022060573 0.00036877394 0.031908765
0.109075576 -0.09692812 0.0054074824 -0.021356374 0.12085761 0.05372241 0.11322069 -0.04324001
0.047216788 -0.057312682 -0.102802664 0.10035826 -0.108091116 0.11261411 0.05592206 0.069921836
-0.015945375 -0.0444687 0.07820599 0.032360077 0.060088113 -0.07109855 0.06404391 -0.06482682
0.08755922 0.045387298 0.013065308 -0.12052682 -0.0418963 0.0992621 -0.06024809 0.11397506
-0.0052706003 -0.11813982 -0.031490713 0.081827655 0.12003113 -0.11664477 -0.01844111 0.08188121
0.11720306 0.01920712 0.018141598 0.04800509 0.10431634 -0.069715545 -0.034381703 0.0017422587
00000000: bc6f 713d 2cf2 463d e8b9 ea3d a08f 1cbd
00000010: a878 9d3c b80e bfbd 24cd c33d ecbd 6ebd
00000020: 4052 863b c000 c0bb f4dc 1c3d 9416 3ebd
00000030: 682d f0bc 5e6e 9ebd 3003 383c 5a77 babd
00000040: 8c2a d7bd c483 113d 84dd c83d a865 59bd
00000050: 28b0 d9bd 101e 833d eef2 f93d d030 353d
00000060: 904a cebc 842e 97bd dc89 4e3d 2044 c7bc
00000070: c6e8 fcbd e028 20bd 8ccb cebd c0b8 4e3c
00000080: 42a7 a13d 8cd9 953d 367f 92bd 8e23 e83d
00000090: 3a4f eb3d 90b7 253c 8019 8eba 2cd5 09bd
000000a0: 8298 ac3d 2047 c7bc 466a bdbd b278 d53d
000000b0: 88af b73c 2027 3a3c d239 933d f44a 583d
000000c0: 20ca 863c 8045 053d 6ab3 f7bd 0241 b0bd
000000d0: 9496 283d 06d0 b03d 1c42 73bd 6082 ac3c
000000e0: 3cad d13d 7cb1 58bd a0ce 35bc 40bc 333d
000000f0: 38e7 efbc 507b 133c 045c 30bd 181f 353d
00000100: 1616 df3d 5057 b3bc c492 52bd 8c8c 323d
00000110: 8c12 c2bd 00a0 243c 3687 e73d 76a1 a0bd
00000120: 5a7f c23d 1428 fc3d faff d2bd 54d9 fdbd
00000130: 0058 bebc 80f4 2e3b d4cd f1bd 00fb 49bc
00000140: 501a 32bc e04a d83b 0091 d0ba 80fb 443b
00000150: c88f f33c 8c9f 63bd 808b c93c 06cd ea3d
00000160: 6ad4 cc3d b051 70bd 20e4 b5bb 9c32 91bd
00000170: 7042 113c f8fb fa3d e0e8 49bc 1aca cabd
00000180: 1cce e7bd c0b4 3abd 0099 3abc 84b1 7c3d
00000190: a467 693d 3066 163c 881e 76bd 8a20 95bd
000001a0: d097 99bd 8400 20bd 18e9 c23d 0026 35bd
000001b0: c2ee cf3d b256 a23d e0c8 4a3d f012 24bc
000001c0: b03d 673c f030 733c b49d d2bd 00aa f5bc
000001d0: 4c07 743d 5e32 c93d 7eff d4bd 186f aebc
000001e0: 2c16 ec3d 505c a93c f44f 2c3d f46b ac3d
000001f0: b054 96bd 0020 3bbb 1cb4 c33d 04f7 a0bd
00000200: 7ce4 2bbd aac1 eabd 521c f6bd 5868 c7bc
00000210: e2dc e7bd b24a 95bd 4ad3 d7bd 74b0 f03d
00000220: 9018 743d 24b1 7e3d d2d5 ff3d f6ce 993d
00000230: bec2 f9bd e20b aa3d 68e7 e23c e0d5 ba3d
00000240: 006c c13b 90dc da3d c0fd 9a3c 501e c0bd
00000250: 14ab 9f3d ec11 d33d 3448 c6bd 707f 79bc
00000260: 68dc e43d 18a7 9fbc e0c8 bc3c bc3c c63d
00000270: 0092 d8bc 7000 cf3d f01d 053d 642a 50bd
00000280: 4871 803c dcd8 203d ac5a 22bd 0055 963a
00000290: 325c c6bd 42a4 d13d 7068 d23c 1865 85bc
000002a0: a828 7e3d 24ac de3d 9c40 26bd 0a9d f63d
000002b0: 3829 953d c23a ce3d 88da fb3c a0f1 8ebd
000002c0: e077 3cbd 7cfa 5fbd 68b4 f2bc 9430 45bd
000002d0: a835 f9bd 7cb7 d9bd b689 853d 9c18 31bd
000002e0: 40ff c23c f851 f23c 6436 f83d c025 3bbb
000002f0: 60bf 60bd ae69 9bbd 80b5 103c 0a99 ad3d
00000300: 9c9d 86bd f0ed cfbc 3061 333c c885 dbbd
00000310: 6081 a73b c011 72bd 6cc8 7a3d f0bb 543c
00000320: b847 ad3d 68d0 b93c 4827 05bd 5270 cabd
00000330: 3e94 efbd 8093 10bb 0058 c139 c4b2 023d
00000340: 0463 df3d 4082 c6bd 4031 b13b 90f3 aebc
00000350: 3284 f73d 080c 5c3d 40e0 e73d 701c 31bd
00000360: 6466 413d b4c0 6abd 348a d2bd a288 cd3d
00000370: e05e ddbd 3aa2 e63d 880e 653d 2e33 8f3d
00000380: e09f 82bc d024 36bd 762a a03d 008c 043d
00000390: f41e 763d 1e9c 91bd 7429 833d ecc3 84bd
000003a0: 4052 b33d 08e8 393d e00f 563c c4d6 f6bd
000003b0: 749b 2bbd ee49 cb3d b4c6 76bd c26b e93d
000003c0: 00b5 acbb 4af3 f1bd 68fc 00bd 4295 a73d
000003d0: e2d2 f53d 74e3 eebd d011 97bc 56b1 a73d
000003e0: 2808 f03d 4058 9d3c b09d 943c fca0 443d
000003f0: cea3 d53d 06c7 8ebd d4d3 0cbd 805c e43a

lstm.weight_ih_l1 f4 [256, 64]
-0.07080119 0.07861699 -0.045759737 0.019566506 0.031952545 0.118636325 -0.12236652 0.078057855
0.08672705 0.005160831 0.11608899 -0.09294723 0.010381054 -0.0419469 0.030852184 -0.09995909
-0.06106013 0.06676654 -0.08241144 0.081092186 -0.09587 0.07928114 -0.007238075 -0.12096657
-0.027753264 -0.07613517 0.10534583 -0.038746975 -0.06864045 -0.10053237 -0.11033068 0.103684425
0.0024081916 -0.11729732 -0.049563453 -0.07983355 -0.0076393783 -0.10918222 0.032551527 0.0958989
0.07974598 -0.11795031 -0.011378065 0.046264783 -0.0546494 0.12437759 -0.025008142 0.025913402
-0.023472145 -0.0846639 -0.00899479 -0.012494832 -0.0005992949 0.075696304 -0.023611698 -0.04563369
0.007298395 0.015193507 -0.013037115 -0.07638489 -0.080432445 0.015504345 -0.027156562 -0.005548641
0.10875751 -0.02357094 0.018638045 -0.057151616 -0.11532779 0.026882634 -0.017471641 -0.0103186155
0.040492147 -0.0143089965 0.11323634 0.06530912 -0.084779166 0.029093409 0.049782187 -0.028895706
-0.020984054 -0.09803558 0.03915721 0.081099115 0.013249457 -0.08954497 -0.03022565 0.05726838
-0.022291958 -0.05133407 -0.1094802 0.008393734 0.104725905 -0.073671326 -0.04470237 -0.090389386
0.023106053 0.029294685 0.081184864 -0.04798755 0.04445854 -0.088459656 0.007187858 -0.079366
0.02442944 0.057733584 -0.051855564 -0.020873576 -0.09915895 0.10145527 -0.004832834 -0.07261866
-0.10827635 -0.10309173 -0.033443674 0.047795713 -0.0125223845 0.08384903 0.065843396 0.01797323
0.09961486 -0.08882342 -0.08584811 0.008311838 -0.07753877 -0.09036675 -0.0076345205 0.06051229
-0.039487407 -0.01376529 0.09535174 -0.0015134513 -0.032433152 -0.0037513077 -0.073427066 -0.0014752736
-0.0050091 0.015216354 0.09733544 0.0848691 0.06563196 0.06320676 0.07665537 -0.0048773885
-0.03257957 -6.263079e-05 0.032666057 0.08352695 -0.034840554 0.09075707 -0.071453944 -0.035132647
-0.019028306 -0.11363022 -0.08829774 0.08269333 0.06257359 -0.0010976642 -0.026651759 0.12013471
0.025194794 -0.027774945 -0.1120445 0.030348137 -0.068442 -0.09386332 0.027667671 0.08384612
-0.11125347 -0.10845308 0.070673496 -0.0108138025 -0.027318109 -0.041534558 0.10513824 0.11864546
-0.011234 0.05353035 0.07645758 -0.09508821 -0.11910586 -0.013107553 0.08062414 0.06457901
-0.0896689 -0.102738336 0.10017824 -0.05249916 -0.0849646 0.02500838 -0.07184705 0.06457865
-0.07222075 -0.10683015 0.02754493 -0.106872424 -0.03205803 -0.06683837 0.05350183 0.022284517
-0.09905812 -0.103089064 -0.09515491 0.042412728 -0.09219696 -0.02591617 0.052187532 0.06353049
0.066731095 0.0829036 -0.027026534 0.09313126 -0.113765314 -0.07464753 0.04333058 -0.080405414
-0.116120905 -0.08200377 0.10579136 -0.11871542 0.05465668 0.012261599 -0.1044231 -0.013691902
0.093861684 0.045054927 0.05624543 0.047796533 -0.001894787 0.10240398 0.060427427 -0.092007026
0.06269884 -0.03685507 0.013439119 -0.040013343 -0.00631038 0.0061141998 -0.069189325 0.045404717
0.09558748 0.038642824 -0.10527678 0.05583769 0.018494248 -0.030679166 -0.037593033 0.07913472
0.122335926 -0.09458937 0.024049178 -0.061878398 -0.096322015 -0.07056324 -0.091366455 0.052535996
00000000: 3700 91bd f201 a13d 906e 3bbd f049 a03c
00000010: ace0 023d 9af7 f23d 4c9b fabd ccdc 9f3d
00000020: f49d b13d 301c a93b 10c0 ed3d 1e5b bebd
00000030: 4c15 2a3c 83d0 2bbd b8bd fc3c 5ab7 ccbd
00000040: 301a 7abd e5bc 883d 54c7 a8bd a913 a63d
00000050: 7e57 c4bd 265e a23d 602d edbb 52bd f7bd
00000060: d05a e3bc c2ec 9bbd 8ebf d73d 26b5 1ebd
00000070: 5d93 8cbd eae3 cdbd 0df5 e1bd 8058 d43d
00000080: c0d2 1d3b 9439 f0bd 0c03 4bbd c67f a3bd
00000090: c053 fabb ee9a dfbd c054 053d a466 c43d
000000a0: dc51 a33d ef8f f1bd 106b 3abc 2480 3d3d
000000b0: 0dd8 5fbd aeb9 fe3d e0dd ccbc 5848 d43c
000000c0: a848 c0bc 4464 adbd e25e 13bc 20b7 4cbc
000000d0: 001a 1dba aa06 9b3d 526d c1bc 64ea 3abd
000000e0: 6027 ef3b 30ee 783c a099 55bc ae6f 9cbd
000000f0: c4b9 a4bd f005 7e3c 7077 debc 60d1 b5bb
00000100: 42bc de3d d817 c1bc d0ae 983c d017 6abd
00000110: fa30 ecbd f838 dc3c b020 8fbc 690f 29bc
00000120: 18db 253d 4870 6abc 74e8 e73d cac0 853d
00000130: b3a0 adbd 4d55 ee3c 68e8 4b3d b0b6 ecbc
00000140: c0e6 abbc e1c6 c8bd 5063 203d 4b17 a63d
00000150: 4014 593c 5a63 b7bd c89b f7bc 4092 6a3d
00000160: a09d b6bc ac43 52bd 2837 e0bd df85 093c
00000170: 897a d63d fee0 96bd d519 37bd 121e b9bd
00000180: e848 bd3c 68fb ef3c 4044 a63d 988e 44bd
00000190: 281a 363d 562a b5bd 2088 eb3b a48a a2bd
000001a0: 4020 c83c 0d7a 6c3d 8066 54bd 10ff aabc
000001b0: d913 cbbd c8c7 cf3d c05c 9ebb 18b9 94bd
000001c0: febf ddbd c221 d3bd 3cfc 08bd 70c5 433d
000001d0: b02a 4dbc 0ab9 ab3d e7d8 863d 983c 933c
000001e0: e002 cc3d 0ee9 b5bd 22d1 afbd 602e 083c
000001f0: a6cc 9ebd 3412 b9bd 002b fabb bcdb 773d
00000200: 8cbd 21bd d087 61bc c647 c33d 005f c6ba
00000210: a0d8 04bd 80d8 75bb ee60 96bd f85d c1ba
00000220: 6023 a4bb 044e 793c ce57 c73d dacf ad3d
00000230: 0d6a 863d 8c72 813d 7efd 9c3d 80d2 9fbb
00000240: 2872 05bd a658 83b8 d8cc 053d 2d10 ab3d
00000250: f8b4 0ebd d8de b93d 7256 92bd 40e7 0fbd
00000260: 40e1 9bbc f6b6 e8bd 72d5 b4bd 1f5b a93d
00000270: 9526 803d 80df 8fba ca54 dabc 3009 f63d
00000280: 5065 ce3c 4888 e3bc 9677 e5bd a89c f83c
00000290: 522b 8cbd 6a3b c0bd 50a7 e23c 84b7 ab3d
000002a0: dcd8 e3bd a61c debd 44bd 903d 602c 31bc
000002b0: 3aca dfbc 2420 2abd b852 d73d 64fc f23d
000002c0: d00e 38bc a442 5b3d cb95 9c3d 9cbd c2bd
000002d0: c6ed f3bd 10c1 56bc 451e a53d 0042 843d
000002e0: 54a4 b7bd 7a68 d2bd 402a cd3d 5c09 57bd
000002f0: ec01 aebd 60de cc3c 8c24 93bd d041 843d
00000300: 79e8 93bd c4c9 dabd e8a5 e13c eedf dabd
00000310: 484f 03bd 8ee2 88bd bc24 5b3d 058e b63c
00000320: fcde cabd 5c20 d3bd 94e0 c2bd f8b8 2d3d
00000330: c2d1 bcbd 264e d4bc 98c2 553d 461c 823d
00000340: 50aa 883d 5dc9 a93d c066 ddbc 9abb be3d
00000350: cafd e8bd cee0 98bd 687b 313d 98ab a4bd
00000360: ccd0 edbd 98f1 a7bd 24a9 d83d 1221 f3bd
00000370: afdf 5f3d e0e4 483c c7db d5bd 0054 60bc
00000380: 8e3a c03d 848b 383d 9c61 663d 4cc6 433d
00000390: 805a f8ba 2eb9 d13d c082 773d 2e6e bcbd
000003a0: 4068 803d 58f5 16bd c02f 5c3c 08e5 23bd
000003b0: 4ec7 cebb a059 c83b 22b3 8dbd 4cfa 393d
000003c0: 5ec3 c33d f047 1e3d 5a9b d7bd 10b6 643d
000003d0: 4081 973c e052 fbbc 27fb 19bd 6211 a23d
000003e0: 428b fa3d 12b8 c1bd c802 c53c 3474 7dbd
000003f0: 7a44 c5bd 7683 90bd 561e bbbd fc2f 573d

lstm.weight_hh_l1 f4 [256, 64]
0.034501765 0.022347957 0.011519205 -0.030911919 -0.012385877 0.12747823 0.11163066 -0.039075907
-0.070194066 0.039884325 0.04576607 0.108613715 -0.14582051 0.072238535 -0.03113026 -0.13859159
-0.0077652475 -0.032396406 0.055490546 -0.11633826 -0.13435513 0.0150063485 -0.017159544 -0.03252275
0.09725631 0.077317625 0.009940951 -0.010540552 0.090128556 -0.10606031 0.008576259 0.05494212
-0.035066284 -0.015495558 -0.10651053 -0.0008900971 -0.08864523 -0.039860766 0.1490953 -0.14180017
-0.07033276 0.061020173 -0.12223728 0.14296158 -0.072242655 0.09443727 0.0108551765 0.085901886
0.10753204 -0.07784098 -0.10666459 0.042012855 -0.0779426 -0.076786034 0.07411053 -0.11357987
-0.08667045 -0.023649955 -0.09217274 -0.046534836 0.026741719 -0.0060297404 -0.04275988 0.019024298
0.113374665 -0.0927376 -0.052919716 -0.061077014 0.09234245 -0.026503695 -0.08919712 0.12383892
-0.096536815 -0.099321075 0.07433406 -0.012153786 -0.12341805 0.0704893 -0.117122814 -0.119480416
-0.020516692 -0.12838468 -0.013231989 -0.06252958 -0.048240174 -0.10532456 -0.08981881 0.036374833
0.044219084 -0.008154645 -0.028114898 0.0026233294 -0.05440898 0.058821462 -0.048867084 0.107365556
-0.03473185 -0.090772025 0.05094366 -0.119053975 0.034769326 0.080696784 -0.06191943 -0.11714394
0.012107347 -0.016796034 0.10658896 0.082464196 -0.11421404 -0.0031807846 0.052955728 0.039323863
0.12883513 0.12810427 -0.0491997 0.07674305 -0.056687698 -0.12421939 0.04563968 -0.053160485
-0.13009639 0.018688284 -0.08809132 -0.09890505 -0.014634256 0.10342499 0.014666624 0.04779372
0.13069649 -0.07268446 0.09046112 -0.02019931 -0.10813203 -0.070444465 -0.017114084 -0.051025
0.048958845 0.07497854 -0.06998443 -0.112634 -0.06664653 -0.09358516 -0.10765512 -0.0372094
-0.13582617 0.03830087 -0.08701795 0.054672595 -0.03587747 -0.04167315 0.05488137 -0.033100493
-0.017815372 0.031085392 -0.033259433 -0.051166084 -0.09046833 -0.048184536 -0.09728475 -0.014021308
-0.033473972 -0.043318465 0.071365096 -0.08626694 -0.0041482365 -0.074743755 0.04036376 -0.06458059
0.062580384 0.06582599 -0.092629656 0.14642918 0.10297942 0.03727647 -0.009436407 0.052399017
-0.009677514 -0.03229972 0.0109448 -0.052768156 -0.13684863 -0.06775943 0.099449605 -0.14533909
-0.1108708 0.00965344 -0.091915235 0.07105161 0.021126494 -0.037015326 -0.0030286536 0.083590485
-0.058798496 -0.04586075 0.13412616 -0.11073486 0.096600644 0.072578 0.13358615 0.06008282
-0.0015670902 0.07874502 -0.004838716 -0.09968821 -0.019693865 -0.012892686 0.062469043 -0.12990297
-0.10521739 -0.06071346 0.04710634 -0.11983263 -0.04528831 -0.018097084 0.10371355 -0.025678078
-0.11107156 0.042735126 0.0034697116 -0.1007281 0.011517078 -0.057058197 -0.08593195 -0.14457278
0.056006324 0.048275873 -0.058058035 -0.12532476 0.03801419 -0.035115298 -0.07966646 -0.104428254
0.010896262 -0.11420704 -0.095596686 0.118412174 -0.0384219 0.05458328 -0.091566674 0.09486306
-0.06813638 -0.007954523 0.06318734 0.0859652 -0.14744997 -0.08324146 -0.04633852 0.019157445
-0.095232576 0.040358324 0.07796949 0.12222533 -0.046562128 -0.06589196 -0.07830926 -0.026539057
00000000: b951 0d3d 1013 b73c 0cbb 3c3c fe3a fdbc
00000010: 22ee 4abc a789 023e 9e9e e43d 0f0e 20bd
00000020: e8c1 8fbd bf5d 233d 3475 3b3d de70 de3d
00000030: f951 15be ccf1 933d e304 ffbc f4ea 0dbe
00000040: 9e73 febb 18b2 04bd 0e4a 633d c142 eebd
00000050: 6494 09be 30dd 753c 2c92 8cbc 9336 05bd
00000060: 512e c73d b458 9e3d 5fdf 223c 48b2 2cbc
00000070: 5295 b83d 2636 d9bd 7083 0c3c fd0a 613d
00000080: aaa1 0fbd 15e1 7dbc 3122 dabd 6855 69ba
00000090: a18b b5bd 0b45 23bd 70ac 183e 1034 11be
000000a0: 9f0a 90bd 4af0 793d 8a57 fabd 8564 123e
000000b0: f5f3 93bd 5468 c13d e9d9 313c 54ed af3d
000000c0: c239 dc3d 176b 9fbd f772 dabd ac15 2c3d
000000d0: 5fa0 9fbd ff41 9dbd 43c7 973d 909c e8bd
000000e0: 4780 b1bd 8dbd c1bc 10c5 bcbd 509b 3ebd
000000f0: 7311 db3c 2195 c5bb fc24 2fbd d8d8 9b3c
00000100: fa30 e83d 36ed bdbd 58c2 58bd e42b 7abd
00000110: 0a1e bd3d 471e d9bc fbac b6bd 429f fd3d
00000120: 18b5 c5bd d968 cbbd 753c 983d ac20 47bc
00000130: 9ac2 fcbd b25c 903d 16de efbd 26b2 f4bd
00000140: 9f12 a8bc 4677 03be fcca 58bc 820f 80bd
00000150: 7d97 45bd 67b4 d7bd edf2 b7bd c7fd 143d
00000160: 121f 353d 0f9b 05bc 3751 e6bc 2aec 2b3b
00000170: f3db 5ebd c6ee 703d da28 48bd 79e2 db3d
00000180: fc42 0ebd afe6 b9bd 4daa 503d 92d2 f3bd
00000190: 486a 0e3d 5b44 a53d 3a9f 7dbd 29e9 efbd
000001a0: e55d 463c d697 89bc 504b da3d fde2 a83d
000001b0: 0de9 e9bd b674 50bb 1be8 583d 0f12 213d
000001c0: 5bed 033e c42d 033e a085 49bd 762b 9d3d
000001d0: 5c31 68bd bc66 febd acf0 3a3d cfbe 59bd
000001e0: fd37 05be 2c18 993c 3969 b4bd bb8e cabd
000001f0: 85c4 6fbc 7bd0 d33d 484c 703c 59c3 433d
00000200: 4dd5 053e 97db 94bd ae43 b93d 0679 a5bc
00000210: 5374 ddbd 3045 90bd d632 8cbc 97ff 50bd
00000220: 1289 483d 598e 993d ff53 8fbd a8ac e6bd
00000230: fa7d 88bd 94a9 bfbd 4a7a dcbd e268 18bd
00000240: 0416 0bbe 60e1 1c3d 7836 b2bd 5ff0 5f3d
00000250: 41f4 12bd 77b1 2abd 4acb 603d 6294 07bd
00000260: 8bf1 91bc cba6 fe3c 0b3b 08bd 8793 51bd
00000270: 7647 b9bd 265d 45bd 3a3d c7bd a1b9 65bc
00000280: 011c 09bd b46e 31bd dd27 923d b9ac b0bd
00000290: eeed 87bb 4113 99bd 7854 253d d442 84bd
000002a0: 252a 803d c7cf 863d 9eb4 bdbd 88f1 153e
000002b0: e0e6 d23d 36af 183d 299b 1abc 5aa0 563d
000002c0: 708e 1ebc b64c 04bd d251 333c 6c23 58bd
000002d0: 0c22 0cbe 75c5 8abd 3cac cb3d c5d3 14be
000002e0: 3b10 e3bd 7629 1e3c 0e3e bcbd 8283 913d
000002f0: 7811 ad3c 629d 17bd 607c 46bb 7d31 ab3d
00000300: b1d6 70bd 7bd8 3bbd 5e58 093e f5c8 e2bd
00000310: 8fd6 c53d c6a3 943d cfca 083e 6719 763d
00000320: d266 cdba 1245 a13d 178e 9ebb 5529 ccbd
00000330: 0755 a1bc d83b 53bc 8adf 7f3d 4905 05be
00000340: 377c d7bd adae 78bd 94f2 403d cf6a f5bd
00000350: 3c80 39bd 5640 94bc c567 d43d d55a d2bc
00000360: 7c79 e3bd 070b 2f3d 1a64 633b 894a cebd
00000370: 20b2 3c3c dbb5 69bd 17fd afbd e30a 14be
00000380: e366 653d ecbc 453d 43ce 6dbd 2255 00be
00000390: c4b4 1b3d 0fd5 0fbd 2b28 a3bd 7bde d5bd
000003a0: 3c86 323c 61e5 e9bd 32c8 c3bd 1582 f23d
000003b0: 4860 1dbd b892 5f3d 4f87 bbbd 9047 c23d
000003c0: 168b 8bbd b053 02bc 5d68 813d 860e b03d
000003d0: 20fd 16be 807a aabd 76cd 3dbd 13f0 9c3c
000003e0: 4c09 c3bd c54e 253d 78ae 9f3d 4651 fa3d
000003f0: eeb7 3ebd 5df2 86bd 9b60 a0bd 7068 d9bc

lstm.bias_ih_l1 f4 [256]
0.13343388 0.010836681 0.038893763 0.05847305 -0.00095782784 -0.049126986 -0.039898086 0.0021028854
0.024879105 0.09015364 0.03694874 -0.031897444 -0.010243868 0.0874279 0.007674097 0.08722058
0.12561414 -0.036143955 0.06843682 -0.033237517 0.07640054 -0.07240571 0.09301245 0.10094968
-0.03241174 0.028927727 0.076210245 -0.0706955 0.1263196 0.0492888 0.073132366 0.040156495
-0.09891063 0.10243717 0.0101731885 -0.07673594 0.13458084 -0.043973632 0.07291133 0.13313437
-0.061696056 -0.037475698 -0.05796382 -0.11193201 -0.02121305 0.03377685 0.04294444 0.11206198
0.05115169 -0.07340744 -0.07946208 0.10382182 0.12650856 0.0040516825 -0.053806625 -0.075563855
0.1237639 0.14091842 0.07688348 -0.039755892 -0.032229327 -0.0689425 -0.08021521 0.035324283
0.053608134 -0.031127768 0.09747671 0.079021856 -0.10005075 -0.08267194 -0.077316694 -0.11032074
0.10584869 -0.023360554 0.10117611 0.04460736 0.043594077 -0.046346396 0.05702416 -0.0688239
-0.09288888 0.07080473 0.040739425 -0.052815963 0.10884751 -0.018465642 0.017162265 -0.030556327
0.011949035 0.028701756 -0.07112571 -0.0038638648 0.10282237 -0.012899551 -0.07120701 -0.10106202
0.11416334 -0.104267 0.067872785 -0.075349644 0.018487463 0.11711631 0.060393546 0.005603353
0.14062205 0.06820574 0.048482068 0.062270485 -0.0962665 0.033056825 -0.09578353 0.088551015
-0.043489445 -0.015601413 -0.06393243 -0.096246846 0.12182148 -0.060109753 -0.08122142 -0.056906603
-0.029889325 -0.025455656 0.14261644 -0.10428838 -0.090025835 -0.08826618 -0.0126716355 0.0256705
0.13297588 0.100028984 0.034859415 0.0018669529 -0.011448394 -0.0034147108 0.044756006 -0.024940528
-0.03658784 -0.13042314 -0.008228996 0.031001208 -0.047359757 0.11897504 0.049944617 -0.009036667
0.09455933 0.0009980216 -0.100662954 -0.039956436 -0.11064217 -0.039918296 0.13623358 0.09508008
-0.11227135 0.12661885 0.03726295 0.06513142 0.06917509 -0.08111552 0.06500938 -0.033067025
-0.05867288 -0.0993796 -0.07263466 -0.13530876 0.04484981 -0.11193457 0.12941949 0.056530375
0.07110818 -0.028992565 0.078854926 -0.032120094 -0.02042519 -0.08461871 0.02559543 0.03378141
-0.08869999 0.014727671 0.038614348 0.02124358 -0.080056965 -0.088556595 -0.04143932 -0.014050417
0.11698605 0.027141478 0.047411162 0.07549586 -0.03465033 0.07149341 0.02625706 0.0881818
0.044045884 -0.00470213 0.04864308 0.045650903 -0.08236031 0.13016386 0.03154769 0.035884783
0.12540327 0.12270854 0.1148863 -0.008977783 -0.036688264 0.09361624 -0.04554358 0.008658857
0.03754558 -0.08323339 0.13954058 0.14899512 0.062458664 0.015734319 0.04779096 -0.034401067
0.052156895 0.114415176 0.07738298 -0.016458828 0.07989246 -0.024757644 -0.06311475 0.13346447
0.12977809 0.05464581 0.05541664 0.0040766285 -0.059637185 -0.12309289 0.023502823 0.100499384
0.046902724 -0.00987673 0.13325901 0.09094707 -0.08203304 0.040159304 0.12075251 0.06397677
-0.052842043 -0.032640018 0.0005519254 0.119343825 0.13112421 -0.0556897 0.081788085 -0.0013215281
0.015925115 -0.055846963 -0.04431129 -0.045274068 0.057931002 -0.077269636 0.026625901 -0.005404734
00000000: e4a2 083e 568c 313c 114f 1f3d 7081 6f3d
00000010: bd16 7bba 6139 49bd 2d6c 23bd 90d0 093b
00000020: 44cf cb3c 79a2 b83d 9057 173d e5a6 02bd
00000030: e6d5 27bc 660d b33d fe76 fb3b b4a0 b23d
00000040: fea0 003e af0b 14bd 9a28 8c3d 1024 08bd
00000050: e377 9c3d 7249 94bd 507d be3d b5be ce3d
00000060: 2cc2 04bd d7f9 ec3c 1e14 9c3d cdc8 90bd
00000070: ed59 013e 0ee3 493d 6cc6 953d 237b 243d
00000080: a891 cabd 94ca d13d 72ad 263c bc27 9dbd
00000090: 8fcf 093e b21d 34bd 8952 953d 6054 083e
000000a0: 01b5 7cbd 1e80 19bd 786b 6dbd 9c3c e5bd
000000b0: fdc6 adbc 9859 0a3d 82e6 2f3d c080 e53d
000000c0: 6f84 513d a456 96bd 04bd a2bd 89a0 d43d
000000d0: 768b 013e fac3 843b 5664 5cbd 39c1 9abd
000000e0: ed77 fd3d eb4c 103e 1675 9d3d 13d7 22bd
000000f0: e602 04bd ba31 8dbd df47 a4bd 32b0 103d
00000100: 3494 5b3d a9ff febc dfa1 c73d 36d6 a13d
00000110: 68e7 ccbd e84f a9bd 3758 9ebd d7ef e1bd
00000120: 33c7 d83d a25e bfbc 6c35 cf3d 35b6 363d
00000130: b48f 323d b8d5 3dbd 2a92 693d 8bf3 8cbd
00000140: 863c bebd 1202 913d 62de 263d 8d55 58bd
00000150: 71eb de3d 4245 97bc e197 8c3c 4351 fabc
00000160: e3c5 433c f21f eb3c 5baa 91bd e538 7dbb
00000170: 8994 d23d a358 53bc fbd4 91bd 9bf9 cebd
00000180: 78ce e93d f089 d5bd e300 8b3d ea50 9abd
00000190: 0573 973c adda ef3d 395f 773d 559c b73b
000001a0: 3aff 0f3e 73af 8b3d 2295 463d 560f 7f3d
000001b0: 5f27 c5bd 9866 073d 282a c4bd 3c5a b53d
000001c0: fd21 32bd 129d 7fbc 02ef 82bd 111d c5bd
000001d0: 8a7d f93d a535 76bd 6a57 a6bd e616 69bd
000001e0: 75da f4bc 6188 d0bc 0b0a 123e 2595 d5bd
000001f0: 775f b8bd e6c4 b4bd b19c 4fbc f14a d23c
00000200: d42a 083e ffdb cc3d bfc8 0e3d 8bb4 f43a
00000210: 0b92 3bbc 57c9 5fbb 1352 373d 1450 ccbc
00000220: 22dd 15bd a58d 05be e9d2 06bc 3ff6 fd3c
00000230: 4efc 41bd 30a9 f33d ba92 4c3d 870e 14bc
00000240: 52a8 c13d 0cd0 823a 6128 cebd 5ca9 23bd
00000250: 5d98 e2bd 5e81 23bd d180 0b3e 58b9 c23d
00000260: 86ee e5bd 5fa8 013e 09a1 183d 9f63 853d
00000270: abab 8d3d e51f a6bd a323 853d 4a71 07bd
00000280: f952 70bd 8887 cbbd 7bc1 94bd 618e 0abe
00000290: 6fb4 373d f43d e5bd 8b86 043e 658c 673d
000002a0: 2aa1 913d d181 edbc b17e a13d 5c90 03bd
000002b0: ba52 a7bc 934c adbd 82ad d13c 605e 0a3d
000002c0: 57a8 b5bd 544c 713c 142a 1e3d 0407 ae3c
000002d0: e8f4 a3bd 295d b5bd 47bc 29bd b833 66bc
000002e0: 6296 ef3d ce57 de3c 3532 423d 939d 9a3d
000002f0: 81ed 0dbd 236b 923d 0c19 d73c a998 b43d
00000300: 7569 343d 5314 9abb f73d 473d 71fc 3a3d
00000310: 86ac a8bd ad49 053e 2738 013d ecfb 123d
00000320: b769 003e 9d4e fb3d 8249 eb3d 8d17 13bc
00000330: 6f46 16bd dfb9 bf3d e88b 3abd e1dd 0d3c
00000340: 65c9 193d 4476 aabd bae3 0e3e 2d92 183e
00000350: a8d4 7f3d 42e5 803c 74c0 433d 22e8 0cbd
00000360: 78a2 553d 8152 ea3d f87a 9e3d aad4 86bc
00000370: a89e a33d 8bd0 cabc 4e42 81bd e9aa 083e
00000380: 8ce4 043e 49d4 5f3d 8ffc 623d 3d95 853b
00000390: 1f46 74bd 2018 fcbd fe88 c03c 9fd2 cd3d
000003a0: 121d 403d 02d2 21bc 0d75 083e 7542 ba3d
000003b0: f000 a8bd 157e 243d 184d f73d 4106 833d
000003c0: e670 58bd 8ab1 05bd 16af 103a 896a f43d
000003d0: 6d45 063e e21a 64bd 8380 a73d 2037 adba
000003e0: 6375 823c c9bf 64bd c17f 35bd 4d71 39bd
000003f0: 0f49 6d3d 8b3f 9ebd 901e da3c 321a b1bb
