models/AIOTUSDT_lstm_20250822_022123.pth (torch, 267829 bytes, 11 tensors)

lstm.weight_ih_l0 f4 [256, 53]
00000000: e419 06bd 5252 893d 0225 a1bd 4c25 63bd
00000010: 38db a23d 30a0 5cbc 6ee8 b8bd 4c45 9bbd
00000020: 4075 40bc ccf7 18bd 306d c33d 0603 ec3d
00000030: c0e1 61bb 10d0 9b3c 8ca3 0a3d 3e39 dfbd
00000040: 54da 8e3d f0cb 3abd d849 d23c 026a d1bd
00000050: 0cfc 95bd dac5 a03d 86f2 8e3d a851 573d
00000060: 7016 e7bd 88db f93c de6a f63d 2083 893c
00000070: c052 98bb 4a9d a73d ee46 fbbd 6a16 f93d
00000080: 6812 0cbd c492 783d c034 55bc 8008 39bb
00000090: 4ece c33d 663c bfbd 5cf7 023d 8829 743d
000000a0: 902e b7bd d852 173d 945d 433d bc78 b63d
000000b0: b8b6 3abd 0667 ee3d e8de 123d ec6c 8fbd
000000c0: 483d c83d 1c8c 9ebd 080a b6bc 9657 ff3d
000000d0: c01f c63d 26e7 c73d 28c8 f9bd 882c 01bd
000000e0: 7883 383d 6e6c c83d 20e5 78bc 30b9 febd
000000f0: b81b 763d c0c1 aebc 90e5 f53c c0f9 9b3d
00000100: f8f7 a33c 88ed d43c f6da b4bd 90bf 9e3d
00000110: a0d1 b03c b4fa 9a3d 7619 d3bd 7283 9cbd
00000120: a833 17bd 10ad 3d3d 70fc e33c 4e77 82bd
00000130: 38b7 253d b06d 39bc e434 c83d eee1 a03d
00000140: e026 793d 80d6 02bc fcb1 7cbd ee00 823d
00000150: d81d 70bd 78b1 3fbd f8df 8d3d 1044 e23c
00000160: b685 f73d 8418 f0bd d0a7 b6bd 0c00 5c3d
00000170: 86a2 ce3d 5488 443d 2045 f1bb 0032 42ba
00000180: 12d9 b53d 42fe 9abd b432 133d 4cb2 d1bd
00000190: f8e1 cbbc 40a9 6f3d eefb b3bd 8a13 d43d
000001a0: b06e f8bd 4893 f8bd a435 98bd 7ce5 febd
000001b0: f88b b4bd fc38 ddbd b84b fe3c b054 0e3d
000001c0: ce43 c3bd 184a 353d ccbd d33d 3854 943d
000001d0: 10d3 05bd 1098 fe3c f026 233d 208c bb3d
000001e0: c0ec 6d3b e8c3 60bd b023 1d3c ccc1 f2bd
000001f0: 7ef4 d53d c0d9 f0bb e00c 5fbd b0a6 50bd
00000200: 204a 8e3c cc95 d13d 4856 f03d 5c9f d53d
00000210: 20cd eebb d813 833c d6fa d13d ce11 d4bd
00000220: b074 e8bd d8f0 49bd 2038 3a3c 4083 ed3d
00000230: 505e 883d a042 873b 3cf9 c8bd 98aa 643d
00000240: 30fb 81bd 80ab 803b 4013 9abd f615 c1bd
00000250: 70d8 67bc 004f 913d 5055 6c3d dea0 9cbd
00000260: b860 fbbd ccc8 85bd 20f4 83bc fc1b 6cbd
00000270: c8e8 8bbc 2c27 d8bd 9043 813d 88db ed3d
00000280: c8c0 933d 00f5 b33c 645c 253d 6a75 b13d
00000290: 786d 8f3d bce7 103d 881c d13c f0f4 5b3c
000002a0: 7675 b23d 8066 faba e4a0 103d 3090 4abd
000002b0: 44e8 9d3d 42c8 d1bd ae03 db3d f0ab 27bd
000002c0: aec3 9c3d a4ba a3bd ba18 bb3d ea43 cbbd
000002d0: e062 eebb 9266 d43d 6641 ca3d 80f5 3f3c
000002e0: 3abc 843d 8ebf bdbd 4292 b63d ae7d b63d
000002f0: 485c 4fbd d873 de3c 3035 b03c ce13 953d
00000300: 3a92 9dbd 70da 703c 74e5 a23d 6034 cf3c
00000310: a478 dfbd 2081 2d3d e2e0 da3d b237 c43d
00000320: 22ff f2bd 5c11 403d 48a0 3cbd 827a de3d
00000330: 7015 bd3d fe08 89bd 7478 f1bd 2097 d13d
00000340: 468d adbd a0fb cfbd 3830 623d 4083 5abb
00000350: a486 f3bd 1802 03bd b251 923d ac24 cabd
00000360: acf5 acbd c024 863c 18d5 c93d 6e8b 99bd
00000370: f2e9 95bd e82c f0bc 78e8 b9bc c8ef d03d
00000380: ee22 a63d 749e e2bd 2865 593d bcdb 7abd
00000390: d012 473c 48a3 a93c 805c 84bd ca2c 97bd
000003a0: e040 d1bc a07d 443d 7081 bebc 1210 febd
000003b0: 68a0 353d 8836 6bbd a014 1fbd 80cb 993c
000003c0: 8c2f d0bd 7080 a0bc 488f d7bc 2a79 ff3d
000003d0: 041a dfbd 3c29 2a3d e8cc 883c a862 b7bd
000003e0: 6ca5 21bd e0ff 733c a8fa e63c c860 a6bd
000003f0: 80b0 e13d 8077 77bb a613 c43d 0859 79bd
-0.032739535 0.067051545 -0.07868387 -0.05545549 0.07951969 -0.013465926 -0.090287074 -0.07581577
-0.011746705 -0.037345693 0.0954231 0.11524014 -0.0034466833 0.01902011 0.033847377 -0.1089959
0.069752365 -0.045604646 0.025669977 -0.102252975 -0.07323465 0.07850237 0.069798514 0.052568108
-0.112835765 0.030500188 0.12032102 0.016786158 -0.0046485364 0.081842974 -0.12269388 0.12162478
-0.03419724 0.06068684 -0.013013065 -0.0028233826 0.09560834 -0.09337692 0.03197418 0.05960992
-0.08944428 0.03694424 0.047696665 0.08909747 -0.04558441 0.11640744 0.03585711 -0.07003197
0.097773135 -0.077415675 -0.02222158 0.124678776 0.096740246 0.09760885 -0.1219638 -0.03153661
0.045047253 0.09786306 -0.015191346 -0.124376655 0.06008503 -0.021332622 0.03001669 0.076159954
0.020015702 0.02599217 -0.08830826 0.077513814 0.021584332 0.07567349 -0.10307591 -0.07642259
-0.036914498 0.046307623 0.027830333 -0.06370412 0.040457934 -0.011317655 0.09775713 0.07855593
0.06082809 -0.007985711 -0.061693177 0.063478336 -0.05862221 -0.046800107 0.06927484 0.027620345
0.1208605 -0.11723426 -0.089187264 0.053710982 0.10089593 0.047981575 -0.0073629767 -0.0007407963
0.088792935 -0.07568027 0.035937026 -0.102390856 -0.024888024 0.05851102 -0.08788286 0.10355289
-0.12130487 -0.12137467 -0.07432106 -0.124461144 -0.088157594 -0.108018845 0.031041965 0.034748733
-0.09534417 0.044260114 0.10338935 0.07242626 -0.032671988 0.031078368 0.039832056 0.09157586
0.0036304444 -0.05487433 0.009591028 -0.1185337 0.10447024 -0.0073501766 -0.054455638 -0.050940216
0.01736933 0.102336496 0.11735207 0.10430786 -0.0072876364 0.016000673 0.10252921 -0.103549585
-0.113503814 -0.049301952 0.01136592 0.115972996 0.06658614 0.0041278154 -0.09813163 0.055826753
-0.06346738 0.0039266944 -0.07523203 -0.09428017 -0.014150724 0.07095146 0.057698548 -0.076478705
-0.12274307 -0.065324396 -0.016107619 -0.057643875 -0.017078772 -0.105543464 0.06311715 0.11614138
0.072145045 0.021967411 0.040371314 0.08664973 0.070033014 0.03537725 0.0255263 0.013425097
0.0871381 -0.0019104034 0.035309687 -0.049453914 0.07710317 -0.10243274 0.10694061 -0.040935457
0.076545104 -0.07994583 0.091355756 -0.09925063 -0.0072749704 0.10371126 0.09875755 0.011716247
0.06481214 -0.09265052 0.08914615 0.0891069 -0.050625116 0.027154848 0.021509737 0.07279168
-0.07693906 0.014700517 0.07953921 0.025293529 -0.10911682 0.04235947 0.10687424 0.095809355
-0.11865069 0.046891555 -0.046051294 0.1086321 0.092326045 -0.06691168 -0.11790553 0.10233903
-0.084742114 -0.101554155 0.055221766 -0.0033342391 -0.11890915 -0.03198442 0.071444884 -0.09870276
-0.08445296 0.016374946 0.098550975 -0.07497297 -0.07320012 -0.029318288 -0.022693858 0.10201985
0.08112131 -0.11065379 0.053074986 -0.06124471 0.012150481 0.020707741 -0.064629555 -0.0738159
-0.02554363 0.047971368 -0.02325508 -0.12405409 0.04434243 -0.057425052 -0.03883803 0.018773794
-0.10165319 -0.019592494 -0.026313439 0.12474282 -0.10893634 0.04154323 0.01669927 -0.08954364
-0.0394644 0.014892548 0.028195694 -0.08123928 0.11019993 -0.0037760437 0.0957406 -0.060875922

lstm.weight_hh_l0 f4 [256, 64]
00000000: e863 cabd 989c d4bc c0a9 df3c e09b 843d
00000010: 1e3e e0bd 000a 96bc 8891 7abd 8a38 993d
00000020: 780b 823c 1c24 8a3d bcfc 2b3d 847c b03d
00000030: 083e 623d 68c3 8d3d 3620 833d b025 78bc
00000040: d8cd a6bd b66b d4bd 20dc 7d3c 2056 a63b
00000050: 42f1 f9bd 30c8 883c 60b9 c73b c01e 213c
00000060: 6048 dcbd 1024 a93c 124b b3bd fc95 4bbd
00000070: 48f2 d23c 2ae8 bcbd 5830 c3bd e893 453d
00000080: b4a2 ee3d a0dd 7f3c 96d7 953d a038 173d
00000090: 60ff 34bd d0a9 c13d 1087 0b3d d891 f5bc
000000a0: 0ca8 fabd c0ee aebc a0a4 a4bb 7484 44bd
000000b0: dc10 113d 90da b4bc f84f 7d3d 0436 97bd
000000c0: 389a ebbd 2099 7abc 689c 163d d8ef 103d
000000d0: 20b6 f83c 9c8d eebd d0b4 b03c 8025 2b3c
000000e0: 9009 b2bc 78a1 a03c c85c c33d f8aa 2fbd
000000f0: 265e c9bd e2e0 883d f882 42bd 7ee2 fa3d
00000100: 4065 acbc 28a5 7abd d01c c5bc 9621 e23d
00000110: 0c2e 033d aa9d ba3d 10bf a43c cc43 1dbd
00000120: f8db cf3c 24be 4ebd e425 ebbd 6e97 86bd
00000130: f050 aabc 00c0 4db7 acce a9bd 000d 6cbb
00000140: 34e8 6dbd 00e8 8cbc d601 ebbd 8097 223c
00000150: 4034 223b 904e 91bd 82c9 d5bd 506a 67bc
00000160: 00c4 48bc 2880 5f3d 68b7 15bd 5083 03bd
00000170: c8eb 873c f04d 153c 16d8 f0bd 20f6 9c3d
00000180: c041 51bb 34d7 a23d 405d b83c cc86 a73d
00000190: 80cd 5abd 3a85 c5bd b02e 6abc a229 d2bd
000001a0: dad9 8e3d 80b0 903b e06b 2c3d 003b d7bc
000001b0: 5885 a23c 8847 913c 1038 b3bd 3e46 b7bd
000001c0: aabc 9cbd a27f c9bd b86c 803c 4895 37bd
000001d0: 985d a93d 2007 c0bb 3ae3 ca3d 5a39 843d
000001e0: c022 8e3b 5e7d 953d e43f bbbd 644b 9d3d
000001f0: 8adf e13d b061 e03c b895 92bc 922e e6bd
00000200: 7a53 c5bd 2e1b c7bd 789a 0abd 1c09 143d
00000210: 362e 843d f8da 333d b07a 0cbd 8862 f23d
00000220: cc71 dfbd 3e22 9a3d 74b5 0ebd a69a 97bd
00000230: 0010 b93a 7c90 f43d f4b4 34bd 94aa 603d
00000240: 101b 713d 5805 e23d 96c4 bb3d e432 9cbd
00000250: a8ce f3bd 3c15 c2bd a02a b33d 4c3d c1bd
00000260: 02f3 9abd c4bf 7dbd c0ba 2ebc daa3 d2bd
00000270: 002b 67bb 601e de3c 309d b0bc e8ea ee3c
00000280: c042 eabd 1cee c43d 4c46 103d 98b0 82bd
00000290: 68dd cb3c b881 503d f2da e43d cabd b4bd
000002a0: d0d0 3c3c 06b9 f7bd a8c8 e23c 48be a53c
000002b0: 2806 ef3c f0b6 e73d a225 f93d 2484 6c3d
000002c0: 1ef0 9bbd 5870 abbc f0d8 bb3c da63 b83d
000002d0: 706c 7e3c ca25 d4bd 208b 843d 9218 c33d
000002e0: 0c49 1c3d 6012 683c 00a8 c2b8 d865 b3bc
000002f0: f23c dabd 0883 8f3c e2ab cb3d 2058 633d
00000300: 00df 273b b40f fcbd d80e fd3c 04f0 0e3d
00000310: 5053 64bd aac8 ae3d 747b 80bd d404 89bd
00000320: 0031 0e3a 4e57 8b3d 4c21 3e3d d817 f13c
00000330: 1873 923c 4066 fc3c 78c0 b73c 3e3b e0bd
00000340: 0ea4 ebbd 200c 8e3b 22d1 8d3d fe3b b0bd
00000350: e846 f73c 6a1b 913d 00ba c63a d0a9 c6bd
00000360: cea6 d0bd 58f9 e43c ca7a cf3d 5c0e b93d
00000370: de9e ca3d aefe f0bd 148b c6bd d205 d53d
00000380: 78d1 55bd 5acd aebd 425f e43d 2c65 95bd
00000390: e02a 7abd 4856 e8bc 0451 1cbd 4ee4 a13d
000003a0: 92c6 fb3d c0ba 4dbd 347c 0ebd 1e86 c7bd
000003b0: 4013 b7bd 689f 033d 1898 83bc ca21 d3bd
000003c0: 5405 6c3d b20d 9c3d dcd0 223d 1a91 fcbd
000003d0: 0008 7eba 461d e5bd 96fa f63d 409a d6bc
000003e0: eaab f1bd e826 3dbd fc9c 6cbd 7ebe 863d
000003f0: 9af2 e9bd 6e54 8a3d 14dc 47bd e4e2 c63d
-0.09882337 -0.025953576 0.027302623 0.06475043 -0.10949348 -0.018315315 -0.061173946 0.07481487
0.01587461 0.067451686 0.041989073 0.086174995 0.05523494 0.069220364 0.06402628 -0.015145704
-0.0814473 -0.10372107 0.015494376 0.005076185 -0.122042194 0.01669702 0.0060950965 0.0098339915
-0.10755992 0.020647079 -0.08754553 -0.049703583 0.025750294 -0.09223969 -0.09530705 0.048236758
0.11652127 0.015616804 0.073165104 0.036919236 -0.044188857 0.09456217 0.034064353 -0.02997677
-0.12239084 -0.02135408 -0.0050245076 -0.04797788 0.03541647 -0.022076875 0.061843842 -0.073833495
-0.11504024 -0.015295297 0.036770254 0.035384983 0.030360281 -0.116481036 0.021570593 0.010445952
-0.021733075 0.019608244 0.09539181 -0.042887658 -0.098324105 0.06683518 -0.047488183 0.12250231
-0.021044374 -0.06119266 -0.02406159 0.11041562 0.032026336 0.09112103 0.020110637 -0.038394734
0.025373444 -0.0504743 -0.114818364 -0.06571852 -0.020790547 -1.2263656e-05 -0.08291373 -0.003601849
-0.058082774 -0.01720047 -0.114749596 0.009923816 0.0024750382 -0.07095063 -0.10438825 -0.014124468
-0.012253761 0.05456558 -0.036551863 -0.03210765 0.016591921 0.00911282 -0.11759965 0.07664132
-0.003193006 0.07951203 0.022505403 0.08180007 -0.053418636 -0.096445516 -0.014293358 -0.10261847
0.06975146 0.0044155717 0.042095065 -0.02627325 0.019838974 0.017734304 -0.087509274 -0.089489445
-0.07653172 -0.09838797 0.015676841 -0.0448201 0.08269805 -0.0058602244 0.09906621 0.064562514
0.0043376386 0.072993025 -0.091430455 0.07680395 0.11028965 0.027390331 -0.017893657 -0.11239351
-0.096350625 -0.09721981 -0.03383872 0.0361415 0.064541265 0.043909997 -0.03429669 0.118351996
-0.10910377 0.075260624 -0.034841016 -0.07402544 0.0014119148 0.11941621 -0.044117883 0.054850176
0.0588637 0.110361755 0.09168355 -0.07626894 -0.11904651 -0.094767064 0.087483644 -0.094355196
-0.07565881 -0.06195046 -0.010664642 -0.102851585 -0.0035273433 0.027114093 -0.021559328 0.029164746
-0.11438513 0.09615728 0.03522329 -0.06381339 0.024885848 0.05090496 0.11174573 -0.08825262
0.011524394 -0.12095837 0.027683571 0.020232335 0.02917774 0.113141894 0.12165381 0.057743207
-0.07614158 -0.020927593 0.022930592 0.0900342 0.015528783 -0.1035877 0.064718485 0.09526171
0.0381556 0.014164537 -9.281933e-05 -0.021899149 -0.10656156 0.017518535 0.099448934 0.055503964
0.0025615096 -0.12307683 0.030890867 0.034896865 -0.055743515 0.085343674 -0.06273547 -0.06690374
0.00054241717 0.068037614 0.046418473 0.029430315 0.017877147 0.030810475 0.022430643 -0.109487996
-0.115059 0.0043349415 0.069246545 -0.086051926 0.030185178 0.07085307 0.0015161633 -0.09700358
-0.101880655 0.027950928 0.10130842 0.09035942 0.09893583 -0.11767326 -0.09694496 0.10401501
-0.052201718 -0.085352615 0.111509815 -0.07294688 -0.061076045 -0.028361455 -0.0381632 0.07904874
0.12293734 -0.050226927 -0.034786418 -0.09742378 -0.089392185 0.032134444 -0.016063735 -0.10309179
0.05762227 0.076198 0.039749965 -0.123323634 -0.0009690523 -0.11187224 0.12059514 -0.026196599
-0.11800368 -0.046179682 -0.0577669 0.06579302 -0.11423226 0.06754385 -0.048793867 0.09711245

lstm.bias_ih_l0 f4 [256]
00000000: b4f0 aa3d 0866 e1bc 6859 a5bd 0c44 70bd
00000010: f87d d1bd ac7f 50bd 6ed9 a43d 40d4 663b
00000020: d82b 35bd d85d 113d 9285 f13d 8236 d93d
00000030: 1c8c 0f3d 78a1 a0bd 9c1f 53bd 8040 223b
00000040: c8eb 8c3d 2cb8 da3d 40d5 96bd bcc6 63bd
00000050: 7236 d1bd 28a8 413d 9a5b e33d f664 a13d
00000060: eafa e5bd a68f f73d 9472 22bd 94cc 923d
00000070: 7a4b f6bd a0b5 4c3c cc03 a3bd 225b 8fbd
00000080: 50c9 67bc becc e1bd 120c b43d 98d8 293d
00000090: a0ae fcbc b473 813d 200b 23bd de90 9dbd
000000a0: 92bc d13d 12e8 8cbd 886a d7bc 8ac2 e0bd
000000b0: 1a96 e33d 3c69 d73d 60b1 373d 7460 8a3d
000000c0: 3680 9c3d ba30 edbd c05a c0bc 0847 eebd
000000d0: e653 9ebd c432 363d f0ea 803c 64d3 28bd
000000e0: 8c3d edbd 28b7 04bd 00e3 593c bca0 723d
000000f0: 003e 32ba 9ea5 ddbd 866c a1bd 3c34 053d
00000100: c2dd 933d 1c71 09bd 76ad 883d f88e edbd
00000110: b801 183d c80b 6d3d 849c 26bd 1481 32bd
00000120: 80e7 17bd 407e 04bb 82ea b5bd 6c36 d4bd
00000130: 5062 e6bd 8eb9 8ebd dc8d 15bd 20ec babd
00000140: 303a a43c ac78 403d 2015 e9bc 48d9 c03d
00000150: 749d 67bd 58bc 8e3d 801a debb acc1 b53d
00000160: 22a1 e4bd 8876 e03c d092 523d a03b 7d3d
00000170: de9f a43d 10aa 933c ec41 cbbd 8c20 613d
00000180: 80e6 b0bb 3429 fc3d 980e b63d b65d cdbd
00000190: 7c69 6abd e051 33bc 104c febc 349d 7e3d
000001a0: 7486 663d 8080 8fbd 64e2 37bd 3c77 15bd
000001b0: 3a6f ae3d 3015 aebd 886e a0bd c074 fcbc
000001c0: 3ccf 6abd c87f 72bd 56e8 b4bd c8ce 013d
000001d0: 2671 95bd 849f bd3d 985a c1bc 6ace fbbd
000001e0: c0a8 67bb e017 6bbc 08a4 7ebd 7644 f53d
000001f0: 52d3 b63d 70b9 f53c 04f6 9d3d 1ca5 8ebd
00000200: b04c f2bc 0627 c03d 36d5 8abd 24ad b5bd
00000210: e052 a63d e099 2f3d 7e05 ba3d 1450 39bd
00000220: 72ee d53d 7a41 833d a0fa f7bd 189e 1e3d
00000230: 8031 ecba 4487 043d 7025 98bc d864 f8bc
00000240: 00b3 4ebb be70 bbbd d8b6 82bc a6d6 f8bd
00000250: dc23 6b3d 7c84 e2bd 80d4 6c3d 2023 cdbb
00000260: 00e3 7dbb 24bc fcbd 3057 72bc 3428 bd3d
00000270: 10b5 7abc 94d1 b1bd a426 19bd 4c7b 88bd
00000280: d030 083d f427 06bd ec00 05bd d429 813d
00000290: ecf5 983d 989e 99bc 80c0 193b 488e cc3c
000002a0: 040f 50bd 08c2 1bbd da3b cd3d f00c b9bc
000002b0: 24a3 903d 466f f83d 5090 433c d84c d9bc
000002c0: 94b9 52bd d0cb 72bc 540f 81bd 161e c9bd
000002d0: 18bd 093d 5c1b 663d a0ae ccbd 00a0 a9b7
000002e0: 8042 f43d 2893 febc 0ea4 963d 40de ea3c
000002f0: 8605 d9bd 70de 353d 4489 9fbd e66a a23d
00000300: 4052 ccbc 24cc a2bd 2aff d4bd 806b e23a
00000310: 609e 333d 301d ecbd 80df 00bd 0839 823d
00000320: d0e7 c7bc f09c 4dbc 58fc e43d 8e2d ff3d
00000330: c895 75bd c65b 813d 108b ef3d 68ae 2cbd
00000340: 6268 81bd 56ea c33d 68dd a1bd 5e6e d7bd
00000350: 784c f6bc 8081 9dbd 78c1 f5bd 3ecc 943d
00000360: d0d4 50bc cc17 44bd 50dd 583d 7e93 febd
00000370: 3286 90bd 3cf5 453d f059 f33d 9473 783d
00000380: 5407 143d 42cd d3bd 20ce fcbb 7085 2fbc
00000390: 78f0 80bd e82e 713d 4029 1c3c 00bc 69b9
000003a0: 8006 24bb bcc2 3dbd dc90 9ebd 7c67 2ebd
000003b0: 524e a9bd 12a8 f53d c052 43bd 2cc3 66bd
000003c0: 300b 383d e0c8 2e3c aa45 e33d 3ce7 a1bd
000003d0: 1440 da3d d4bd 25bd b8fc ffbc 10a9 6cbd
000003e0: 346a b23d 90a8 a8bd 8c08 643d b47d 3cbd
000003f0: 08fc 233d e45d 9ebd c00d 0b3c 7231 8fbd
0.08346692 -0.027514473 -0.080736935 -0.058658645 -0.10229105 -0.050903007 0.08049284 0.0035221726
-0.044231266 0.035489887 0.11793055 0.106061 0.035045728 -0.07843298 -0.051543817 0.0024757683
0.06880909 0.10679659 -0.07364893 -0.05560945 -0.10215463 0.047279507 0.11101456 0.07880585
-0.11229499 0.12087946 -0.03966005 0.071679264 -0.12026115 0.012494475 -0.079597086 -0.06999804
-0.014147118 -0.110253796 0.08791365 0.041466326 -0.030844986 0.06320897 -0.03980553 -0.07693647
0.10241045 -0.068802014 -0.026295915 -0.109746054 0.11112614 0.10518119 0.044846892 0.06756678
0.07641642 -0.115815595 -0.023480773 -0.11634642 -0.07730846 0.044482008 0.015737027 -0.041217223
-0.11584005 -0.032401234 0.01329875 0.05923532 -0.00067994 -0.108226046 -0.07882027 0.032520518
0.07220031 -0.033555135 0.0667371 -0.11599535 0.037111014 0.057872564 -0.04067661 -0.04358013
-0.03708601 -0.0020216852 -0.088826194 -0.10361943 -0.1124922 -0.069689855 -0.03651224 -0.091270685
0.020047277 0.04699008 -0.028452456 0.09416443 -0.056546643 0.069695175 -0.0067780614 0.088748306
-0.11163546 0.02740027 0.051409543 0.06182444 0.08038305 0.018025428 -0.09924683 0.05496268
-0.0053985715 0.12312546 0.08889502 -0.100276396 -0.057229504 -0.0109448135 -0.031042129 0.06216164
0.05628057 -0.07006931 -0.044893637 -0.036490664 0.085173085 -0.08500135 -0.07833582 -0.03081739
-0.05732654 -0.059203893 -0.08833377 0.031691343 -0.07296972 0.09258941 -0.023602769 -0.1229523
-0.0035348386 -0.014348954 -0.06216815 0.119759485 0.08927025 0.02999565 0.077129394 -0.06965086
-0.029577583 0.09382443 -0.06778948 -0.088709146 0.08121276 0.042871356 0.09083079 -0.045242384
0.104458705 0.06408973 -0.1210835 0.03872499 -0.0018020123 0.03235556 -0.01857254 -0.030321524
-0.0031539798 -0.09152363 -0.015956327 -0.12150316 0.057407245 -0.11060426 0.057819843 -0.0062602907
-0.003874004 -0.123405725 -0.014791295 0.09236184 -0.015301958 -0.08682552 -0.037390366 -0.06664142
0.033249676 -0.032752946 -0.032471582 0.06306806 0.07468781 -0.018752381 0.0023460686 0.024970189
-0.05079557 -0.03802684 0.100211814 -0.022589177 0.070623666 0.12130599 0.011936262 -0.0265259
-0.051446512 -0.0148191005 -0.06301752 -0.098201916 0.0336276 0.056178436 -0.099942446 -2.0220876e-05
0.11926746 -0.031076029 0.0735551 0.02867043 -0.10596757 0.044401586 -0.07789853 0.079305455
-0.024941564 -0.07949093 -0.10400231 0.0017274469 0.04385221 -0.115290046 -0.031463146 0.06358534
-0.024402529 -0.012549624 0.11180943 0.12459861 -0.059957296 0.063163325 0.11696446 -0.042158514
-0.063187376 0.095661804 -0.07903558 -0.10519098 -0.03006576 -0.07690716 -0.11999792 0.072655186
-0.012746051 -0.047874257 0.052945435 -0.12430476 -0.07056846 0.048329577 0.118823886 0.0606571
0.0361398 -0.10341884 -0.0077150017 -0.010712966 -0.06295866 0.058882624 0.009531319 -0.00022290647
-0.0025028288 -0.04632829 -0.077424735 -0.04257916 -0.082668915 0.119949475 -0.04768634 -0.056338474
0.044932544 0.0106680095 0.11097272 -0.079054326 0.10656753 -0.040464237 -0.031248435 -0.057778418
0.08711663 -0.08235276 0.055672213 -0.046018317 0.040035278 -0.07732752 0.008487165 -0.06991853

lstm.bias_hh_l0 f4 [256]
00000000: ec62 d4bd 1043 163d 4693 b33d 8838 653d
00000010: e040 533d 1686 87bd 98e8 0e3d 1c85 4dbd
00000020: 0094 243c 50b6 053c 063f 8dbd 6a0e abbd
00000030: 9cc8 0cbd 30d1 813d 4691 f0bd f432 f3bd
00000040: 1088 06bc de4f b0bd f6d6 cc3d e63c dfbd
00000050: ae97 e73d 5e5e bfbd f01f 33bd 7899 93bd
00000060: 60ec 00bd d0fe 61bc f45f 643d cc12 12bd
00000070: 7080 b23c 2c0c e0bd a42d bc3d 3801 9b3d
00000080: 081d d43d c8e3 ffbc ce10 a53d 8081 89ba
00000090: f20c d1bd bcf4 d2bd 60b3 34bc 4070 863b
000000a0: aee9 8dbd 28c3 00bd 20f6 c3bc 40af c23b
000000b0: aa59 bd3d 40b6 663b 2e87 bf3d e84e 963c
000000c0: 4ab0 a6bd 82b3 943d 9cc9 7e3d b26a c03d
000000d0: 5ad0 dabd 9c7c c23d 78bd 3b3d 70d6 6d3d
000000e0: a085 983c 1c0b 303d 205b 96bc 686a 973d
000000f0: 565e 973d 26be d43d e0b6 ba3c 8423 e23d
00000100: 1c7d 963d 4cb7 5c3d 9265 abbd f00d cc3c
00000110: 9622 b7bd c0ce a73c 04fd d9bd be32 cd3d
00000120: 5417 62bd d6fc be3d 101a dbbd 982d 1e3d
00000130: 48cd 78bd 80ec 24bb c2fa 9dbd 1854 1cbd
00000140: 202c 7f3d b0b0 563d 50eb 6c3d 44b8 cfbd
00000150: 08a5 023d d898 b93c 6e2f e83d 5248 b83d
00000160: fe9f 9f3d dcc1 09bd b2ca c73d 30da 963c
00000170: 8088 a03c 8847 d1bd 80c2 9dba 2e82 e83d
00000180: d055 1bbc e68b 8b3d 782a fbbd d8c5 adbc
00000190: fa98 dc3d 0875 9fbc d4f3 5a3d 2c80 febd
000001a0: 409a 6cbd e45a 5f3d 9011 863c c04b 70bb
000001b0: 18a5 413d 7c60 38bd e40e 8e3d caa3 cfbd
000001c0: 822e fd3d 980a 493d 80d1 1d3c 68c6 f83c
000001d0: 0836 673d d843 b33c 2cba ccbd 20d1 923c
000001e0: b065 a53d 68a1 fe3c 3062 15bd 3818 ca3d
000001f0: 5019 d2bd 8827 e8bc 4c8b dd3d 06fd d13d
00000200: b06d ff3c bac3 fa3d 240b 11bd 7e15 bbbd
00000210: a476 f3bd e8d8 d63c 386d ed3c 0026 40bb
00000220: 8c83 b23d 407c a93c a042 03bd 4614 aabd
00000230: 604d 00bd 2e4d a83d c297 cabd 08bc a13c
00000240: 38cf 22bd 7639 cfbd d8cc 97bc 8c5a b5bd
00000250: 30c5 f03c d09e 6d3d 5cd6 023d 3495 bb3d
00000260: 6496 2c3d 4869 f93c 52ba ef3d 201e f63c
00000270: 40af 763b 1c1a 64bd b0a9 a0bd 8840 a3bc
00000280: 80a5 8d3a 3208 a13d 14a2 023d 0893 c9bd
00000290: 7ee1 9dbd bcae 1abd 34db 85bd 4a71 fa3d
000002a0: 60b1 503c 3a49 bdbd b215 a6bd 4221 c93d
000002b0: 582a a3bd f499 073d 24ea e0bd e036 82bd
000002c0: 9045 16bd 680f 873c ba7e a53d 0096 94bc
000002d0: b097 453c e0d6 443c 909c aa3c 2014 803b
000002e0: de4f 853d 2021 c6bc f809 4e3d 4811 9a3c
000002f0: a8e2 76bd d06e b6bc c8bd e3bc 6001 c8bb
00000300: 8657 d13d f42e b83d a003 b43b f45e c2bd
00000310: 60eb 61bd e066 e1bd d0bc fd3c 8cd2 19bd
00000320: 8c49 dabd 0083 0a3d 4214 ffbd 60ac a83c
00000330: 648c 4dbd dc7f f8bd 5cba b63d b008 dabc
00000340: 9abe 803d 0079 a33c 301e d13c 4cf9 6abd
00000350: 12b8 d23d b818 f8bc 2a35 f63d f4cf 9bbd
00000360: ac11 0e3d d0ce cf3d 385b fd3c 3022 dfbc
00000370: d69f 9bbd 18e5 fabd da11 adbd d052 803d
00000380: f41e e73d e0f3 6e3d 3caf 3a3d 1066 ad3d
00000390: b6cf febd 5eac 863d 6cde 1a3d 58e4 cdbd
000003a0: 1c24 903d 403a 4c3c 2c8e cc3d 4096 75bd
000003b0: 8495 d9bd 98e9 e63c 4aae f73d 5a2a eebd
000003c0: 4276 f5bd 54d9 ba3d 0080 64ba 12c6 a0bd
000003d0: f4cd 993d 20b0 963d dc1f 69bd 5664 ee3d
000003e0: ca58 efbd 5011 703d 1e12 c6bd 70a4 76bc
000003f0: 98d0 d5bc 708d 33bc 7c58 5a3d a064 d1bb
-0.1037043 0.03668505 0.087683246 0.055962116 0.05157554 -0.06617372 0.034889787 -0.05017577
0.010045052 0.0081611425 -0.068967864 -0.08352359 -0.034371004 0.063387275 -0.11746459 -0.11874953
-0.008211151 -0.086089835 0.10001938 -0.10900287 0.113082275 -0.09344171 -0.04373163 -0.07207006
-0.031475425 -0.013793662 0.05575557 -0.035662457 0.02178976 -0.109398216 0.09188393 0.07568592
0.103571 -0.031236544 0.08059846 -0.0010490865 -0.10207547 -0.10300586 -0.011029094 0.0041027367
-0.069293365 -0.031436116 -0.023921072 0.0059413016 0.09245618 0.0035203844 0.09351955 0.018348172
-0.08139093 0.07260801 0.06220399 0.093953505 -0.10684271 0.094964236 0.04583499 0.05806583
0.018618405 0.042979345 -0.018353999 0.07393342 0.0739104 0.103878304 0.02279228 0.1104193
0.073480815 0.053885743 -0.083689824 0.02490899 -0.089421436 0.020484328 -0.10643962 0.10019444
-0.05519803 0.093255684 -0.106983304 0.0386177 -0.060742646 -0.002516538 -0.07713844 -0.038166136
0.06229794 0.052414596 0.0578416 -0.10142568 0.031895667 0.02265589 0.113371715 0.08998169
0.07794188 -0.033632144 0.09755458 0.018414587 0.019596338 -0.10218722 -0.0012036115 0.11352955
-0.0094809085 0.06813793 -0.1226396 -0.021212503 0.107713655 -0.019464985 0.05345519 -0.124267906
-0.05776429 0.05453004 0.016365796 -0.0036666244 0.047276586 -0.04501389 0.06936434 -0.10138662
0.12362386 0.04908237 0.009632468 0.030368045 0.056448013 0.021882936 -0.09996447 0.017921984
0.08076036 0.031082824 -0.036470592 0.098679006 -0.10258734 -0.028339162 0.108175844 0.102533385
0.031180233 0.12244363 -0.035411015 -0.09134959 -0.11887863 0.026226476 0.028982744 -0.0029319525
0.08716497 0.02068913 -0.03204596 -0.08304648 -0.03132379 0.08217846 -0.09892227 0.01974298
-0.0397484 -0.10118382 -0.018530294 -0.08855161 0.029390901 0.058012784 0.03194271 0.091593176
0.04213561 0.03044571 0.1170546 0.030043662 0.0037641078 -0.055688962 -0.07844865 -0.019928232
0.0010806769 0.07862891 0.03189285 -0.09842497 -0.07709025 -0.037764296 -0.0653595 0.122286394
0.012737602 -0.092424825 -0.08109607 0.098207965 -0.07967061 0.033105806 -0.10982159 -0.06358123
-0.036687434 0.016486838 0.08080812 -0.018137932 0.012060091 0.012014121 0.020826608 0.003908649
0.06509374 -0.024185717 0.050302476 0.018807068 -0.06027475 -0.022269636 -0.027800456 -0.0061036795
0.10221772 0.089933306 0.005493596 -0.09490767 -0.05515611 -0.1100595 0.030973822 -0.03755431
-0.10658559 0.033816338 -0.12455036 0.020590007 -0.050182715 -0.12133762 0.08922264 -0.02661547
0.06286354 0.019955158 0.02552709 -0.057366654 0.10289015 -0.030285224 0.12021859 -0.07608023
0.034684822 0.10146868 0.030927286 -0.027237982 -0.07598846 -0.122507274 -0.084506705 0.06265795
0.11285201 0.058338046 0.045577273 0.084667325 -0.124419615 0.06575845 0.037809774 -0.10053319
0.07038137 0.01246506 0.09988055 -0.059957743 -0.10624221 0.028187558 0.1209379 -0.11629172
-0.119854465 0.09123483 -0.0008716583 -0.07850279 0.075099856 0.07357812 -0.05691515 0.11640231
-0.11686857 0.05861026 -0.09671424 -0.015053853 -0.026100442 -0.010959014 0.05330704 -0.0063901693

lstm.weight_ih_l1 f4 [256, 64]
00000000: 58b0 bebd 3c84 fcbd 50db ebbd 0cd6 9fbd
00000010: 5c81 8bbd 243c 7ebd 5c66 573d b836 b9bd
00000020: a2aa d43d a43a 873d 0299 fcbd eea2 833d
00000030: 7af2 c03d 4224 943d 2842 d0bc c0fc 49bc
00000040: 504c de3d 9e4d c83d 12a8 bc3d 382d 96bd
00000050: e62d 9cbd 3cf5 90bd 30fc da3c 400e 8a3c
00000060: 46d8 d4bc 64af 1cbd 30ad 603c 24c0 e3bd
00000070: 04f5 b43c b40c d53d 44f4 4e3c 8aa1 fcbd
00000080: 00a4 883c a892 923c 04b9 713d 3eb8 d9bd
00000090: 7b32 a63d 3a98 02bc 77a8 80bd 0413 3a3d
000000a0: 94d9 6b3d 5485 393d 729f c33d 0943 06bc
000000b0: 7c87 1cbd b990 47bd aa88 dc3d 7048 6a3c
000000c0: 5418 2e3d 94d1 5d3d 7839 9abd 2e52 18bd
000000d0: c060 0dbc 1095 46bc 04bf a83d 8079 8f3b
000000e0: 3b4f adbd e865 31bd 98db d9bc 2826 ee3c
000000f0: e0b3 57bd f01e 6cbc 17c8 81bd 8006 a43a
00000100: 9c3d 18bd 66db b33d de53 a8bd 930b 2a3b
00000110: a6be dd3d 703d 943d f0d1 35bd 5463 a13d
00000120: 9a3e de3d 921b c23d f814 2d3d 80cc b5bd
00000130: 04b6 d9bd 9872 80bc 8d3f 783d 1666 943d
00000140: d6b9 aebd a471 99bd 5d20 ddbb 48cd 95bc
00000150: 5c95 243d fcdd 9cbd 50e7 143c 4808 57bd
00000160: 482a a93d 36e6 b73d 3c19 d6bd 7a57 c9bd
00000170: 2a7f 70bd eae1 983d bd0c 12bc 2280 c7bd
00000180: 20dc 5bbc 6041 80bb c047 a5bd d4a1 6cbd
00000190: 1235 a2bc a7d0 c53d ee2f cf3d cc2d 863d
000001a0: c298 dd3d 3c99 6b3d c8ba e13d 4800 afbd
000001b0: 30da 0cbc 4611 81bd 3080 29bc ae94 f83d
000001c0: 2010 f6bd e472 34bd dc10 4c3d 300d 80bd
000001d0: 2431 0dbd 04b9 ec3d be0e ea3d 30a6 b03d
000001e0: 44b1 dcbd 40a6 b13c 5a13 ef3d 0834 793d
000001f0: 14e4 59bd 3061 273c cf7c 3e3b 1ca2 843d
00000200: 805f 403b d87f 253d 5605 f03d d0c0 28bd
00000210: 483a 983d c81e 51bd 4097 083b 708d f4bd
00000220: 8810 dfbd e6de ef3d e0b0 fd3b 642b 4abd
00000230: 12f2 f63d 3208 afbd cd20 0fbd 00f7 e7ba
00000240: 7acb 833d cc87 083d 72f2 14bc 3013 2fbc
00000250: 603b 713c 4a88 d03d c6a7 fe3d ac89 ecbd
00000260: f5d3 dd3c 80f0 2bbc 0a1e 8bbd 809d 8cbd
00000270: 0b4b 8ebd b263 d2bd 07ff d8bd daf7 babd
00000280: 702a 5cbc 283a 67bd 0014 003a c238 8e3d
00000290: a080 673d 820a a7bb eeb2 5dbd bc7e 953d
000002a0: 223b 9bbd 86ff febd 0894 1e3d 6e1c 3a3d
000002b0: e831 d63c 876a 863d 9616 c9bd c80a 4ebd
000002c0: 1869 10bd 80fa 85ba e028 053d c2ea 22bd
000002d0: 080f 2cbd e61a fd3d b0b9 603d 20aa b63c
000002e0: ae14 b63d 52b5 c2bd a4c4 46bd e03a 66bc
000002f0: 2816 ca3c 008c 11bb 2459 883d 9834 613d
00000300: 803b e43a c6a1 cdbd 98f7 a83c ec95 81bd
00000310: 8263 ce3d d497 f73d b431 193d 547c d5bd
00000320: b0cf 7ebd 904e d5bc 0434 cfbd cc61 f13d
00000330: 442b 4c3d a4b7 09bd f040 103d cc34 00bd
00000340: 00a5 a6bb 9045 48bd 80e6 563c b80a a7bd
00000350: 3803 403d 8cee 783d 7058 5e3c 20ef 8ebb
00000360: ea6e 84bd 84c7 143d fa68 cdbd f255 a73d
00000370: d4a4 adbc 282d 50bd 354c fb3d beb3 903d
00000380: c086 0a3b 80a2 a73c 2810 b9bc 90a0 083d
00000390: a2df 433d f186 d63c 01fc bf3d d45d bc3d
000003a0: 8c2c 3e3d a090 a63d 5831 85bc 419a bc3d
000003b0: 1471 2c3d 5eef 733d ce7c be3d c233 e6bd
000003c0: 720c b83d 6cd6 86bd e437 3d3d 04bf 163d
000003d0: 9889 9b3d d003 e83c 5241 f13d 722c 8dbd
000003e0: a6bf 423d ce7e f1bd 5610 c3bd 6c3b d7bd
000003f0: 1897 303d a015 dfbd 91e5 89bc 5879 c03d
-0.09310979 -0.12329909 -0.1151644 -0.07804498 -0.06811783 -0.062069073 0.052587852 -0.0904364
0.10384108 0.06602982 -0.123338714 0.06427561 0.09421249 0.07233478 -0.02542217 -0.012328327
0.10854399 0.09780429 0.09211744 -0.073328435 -0.07625942 -0.07078025 0.02673158 0.016852498
-0.025982033 -0.038253203 0.013713166 -0.11120632 0.022089489 0.104028136 0.01263148 -0.12335499
0.016679764 0.017892197 0.059014335 -0.106308445 0.08115097 -0.007970864 -0.06282132 0.04542829
0.057580546 0.045293167 0.09551896 -0.008194693 -0.038215145 -0.048722003 0.10768254 0.014299497
0.04250367 0.054154947 -0.075304925 -0.037187748 -0.008629024 -0.0121205 0.08239558 0.0043784976
-0.08462378 -0.043310076 -0.026593968 0.029070929 -0.052661777 -0.014411673 -0.06336992 0.0012514144
-0.03716813 0.08782081 -0.082191214 0.002594684 0.10827379 0.07238281 -0.044389665 0.078802735
0.10851784 0.09477915 0.042256325 -0.08876896 -0.1063042 -0.015679643 0.06060748 0.07246034
-0.08531539 -0.07492378 -0.006748243 -0.018286362 0.040181503 -0.07659528 0.009088352 -0.052498132
0.08260018 0.08979456 -0.10454032 -0.09831138 -0.058715023 0.07464965 -0.00891417 -0.09741236
-0.013419181 -0.0039140433 -0.08070326 -0.05777152 -0.019800697 0.09658938 0.10116564 0.06551704
0.10820152 0.057519183 0.11021954 -0.085449755 -0.008596942 -0.06302123 -0.010345504 0.121377334
-0.12014794 -0.04405488 0.049820766 -0.06252515 -0.034470692 0.115587264 0.11428593 0.08625448
-0.10775998 0.02168572 0.11673613 0.060840636 -0.053196028 0.010216042 0.002906609 0.064762324
0.0029353797 0.040405124 0.11719768 -0.041199505 0.07432991 -0.051054746 0.0020842105 -0.119410396
-0.10891825 0.117124364 0.0077420324 -0.049357787 0.1205789 -0.08546485 -0.03494339 -0.0017697513
0.064352944 0.03333263 -0.009091007 -0.010685727 0.014723629 0.10182245 0.12434344 -0.11549696
0.027078608 -0.010494351 -0.06792839 -0.06865978 -0.06947907 -0.102729216 -0.105955176 -0.09129305
-0.013437852 -0.056451946 0.0004885793 0.069444194 0.05651915 -0.005097688 -0.05412572 0.07299563
-0.07579638 -0.12451081 0.038715392 0.04543727 0.026146844 0.06563287 -0.09818761 -0.05030325
-0.035256475 -0.001022175 0.032509685 -0.039774664 -0.042006522 0.12358646 0.054864585 0.022297919
0.08890663 -0.0950724 -0.048527375 -0.014052123 0.024668768 -0.002220869 0.06657627 0.054981798
0.0017412752 -0.100406215 0.020625874 -0.063274235 0.10077573 0.12089506 0.037400916 -0.10424104
-0.062209785 -0.026038438 -0.10117343 0.117862314 0.04984595 -0.0336224 0.03521818 -0.03130035
-0.0050855875 -0.048894465 0.013116479 -0.08156341 0.04687807 0.06077437 0.01357089 -0.004362002
-0.06466468 0.036323085 -0.10029788 0.0817069 -0.02119676 -0.050824314 0.12270395 0.07065533
0.0021137446 0.020463228 -0.022590712 0.03335625 0.047820695 0.026187392 0.09374238 0.09197584
0.046429202 0.08133054 -0.01625888 0.09209109 0.042100027 0.05955445 0.09301148 -0.11240341
0.08986749 -0.065838665 0.04619588 0.03680326 0.07594603 0.02832213 0.11780037 -0.06893243
0.04754605 -0.11791764 -0.095246 -0.10509381 0.043112844 -0.108927965 -0.016833099 0.093981445

lstm.weight_hh_l1 f4 [256, 64]
00000000: 4d51 513d a889 c4bd 5eae afbd 3676 143e
00000010: 3f7c 53bd a199 753d a173 d13a af55 1c3d
00000020: bb95 a33d 8dc3 33bc 3cdb 80bd 1e73 b0bd
00000030: fb64 cfbc d2a5 b93d e803 03be ec71 9dbd
00000040: 68b5 29bd 010a be3c b746 283d 7afd a9bd
00000050: 69e1 c9bc be75 c2bd 3e9e 613d 72ac b33d
00000060: 0a8e 0fbd e425 833d 2dcd 6cbd e2e1 7abd
00000070: fa8c eb3c 7f6b 54bb 6b8f 0a38 fe10 2a3d
00000080: 19d6 fb3b c40c cabd 9907 d2bc 881b 8e3d
00000090: c300 02be 1368 703d 2ff4 0d3e 642e 8e3d
000000a0: ed4c 3fbd 21fb 0cbe 53fc ab3d 6ea9 893b
000000b0: 042f 403d bdf6 f9bd fcfc 9dbd 7f0f fcbd
000000c0: 6dfd 5abd 89db b5bc fe0a 0b3d e6a6 34bd
000000d0: ccc7 94bd e003 c63d bdac e83c caa7 c7bd
000000e0: 2091 85bc dfd2 19bc 0299 f43d 54f2 afbd
000000f0: eada b23c 6c2a 74bd 00b6 1c3d 0c3a 34bd
00000100: 5f90 833d 164d 40bd 7b01 d8bc bd52 4b3d
00000110: 5071 f7bd 0291 1dbd 57af a23c ffd6 d43c
00000120: 904e 8bbd acb5 333d 4f11 e7bd 7860 53bb
00000130: 9a8e 043d 11b8 0cbe 881e 013d 381d c8bd
00000140: 8bae 593d e87e 9d3d 78da dc3c 6561 99bd
00000150: 13c0 10bc 679c b2bd 8b51 c6bd de2d d0bd
00000160: 68eb 993d 468b a5bd f8cd d9bd 56cf 843d
00000170: 165d 873d 2610 ebbd cbb3 c4bc fa1f 10bd
00000180: df3f c5bd a2d7 1abd b621 f3bd 7a78 7c39
00000190: 86ab e6bd d786 10be 1d81 e23d 182e 4d3d
000001a0: 8a75 a7bd 97ed 4dbd 517a b83a edf1 963d
000001b0: 9085 9bbc 6818 85bc 5314 763d bb6f 1dbd
000001c0: 93e8 66bd 5e6d fbbd 3bc7 abbb 6ba6 053e
000001d0: 6216 d6bd eef4 cabd 39ca ecbc 68c5 cfbd
000001e0: 924d 72bc 0ee8 53bd ba6d c0bd d0b4 a5bd
000001f0: 7a2b 6cbd 7557 103d 7c20 9c3d 9374 463d
00000200: 023f 91bd 231a d23d 7301 8dbd ecdf 3c3c
00000210: 96f1 94bd dab2 3d3d b9e3 de3d 98de dd3d
00000220: 4488 d5bd 138b aa3b 28c5 cebd 1fe1 7cbd
00000230: 72a7 5c3d c1fe 4b3d 8c30 e1bd b210 f8bc
00000240: 6b5e d4bc c675 68bd 1489 02be 96a7 2d3d
00000250: 9cee b13c b052 67bc b15d d9bd 4fd2 89bc
00000260: 6b39 c2bd 11da 373c 6a31 9dbd 98fa 933d
00000270: 6d3d 95bd 4953 13bd ce7c 94bc 135f d4bd
00000280: 4fe5 af3d f9e3 25bb 496e ba3d 5790 143d
00000290: 3638 c1bd 7558 c63d 794b 46bd 24f7 aabd
000002a0: 58eb b73d b315 0e3c 459e 22bc 9160 113d
000002b0: 6c23 cc3d c60f b03c e661 d6bd 33dd 953c
000002c0: a8c1 873d 9104 a5bd 1714 05be b524 9b3d
000002d0: e13d 9e3d ae58 d5bb b601 dd3c da0f 38bc
000002e0: a1f5 76bd 393d 543c bc48 093c e994 d1bd
000002f0: d0dd e6bd e5fc 003e 4c08 fb3c c8ef 71bd
00000300: c624 96bd ffbf abbd 6b6f 9dbd 417b 7ebd
00000310: 8644 19bd 4729 063d 5f6b c0bd e69f 153d
00000320: 2d0f a33d bca9 933d 92db 4abd 170f bbbd
00000330: f707 713d 1078 edbd d9f3 fc3b 4d24 93bd
00000340: 1972 9fbd 55d6 f4bd ccf1 6d3d 7948 61bc
00000350: 932a 313d b21b c4bd a9c6 ee3d e723 b43d
00000360: f363 a4bd 4cf3 32bd 3c01 e1bc 45d0 d23c
00000370: 56c1 31bd 2deb 59bc 96ec aebc ad9f 3abd
00000380: a98c 673d 143a b03c 2b0d 293d 2544 a83d
00000390: 29be 1abe d83b e0bc 46be d83d 68c9 613b
000003a0: f4db ebbd ed4f a63d 26a1 193d e595 02bc
000003b0: 2df1 97bd 10ea 163c 80e9 3b3d cc90 64bd
000003c0: 14f6 6d3b 2a1b 743d 5264 1e3d d9ce 8fbd
000003d0: 252c e23c 0421 793d bcd4 cb3d a481 46bc
000003e0: 5ba0 743d b972 04be 0ad1 e33c de48 c63d
000003f0: a4ac af3c 3b39 1a3e 237a ab3d 0466 5dbd
0.051102925 -0.09596568 -0.0857818 0.14498219 -0.051632162 0.059960965 0.0015979895 0.03816765
0.07987543 -0.010971916 -0.06291816 -0.08615707 -0.025316706 0.09064831 -0.12794459 -0.076877445
-0.041432768 0.02319813 0.041083064 -0.083003 -0.024643617 -0.09495114 0.055082552 0.08773126
-0.03504757 0.064037114 -0.05781286 -0.061250575 0.028753746 -0.0032412705 3.3035332e-05 0.04152011
0.0076854345 -0.09865716 -0.025638388 0.06938845 -0.12695603 0.058693003 0.1386268 0.06942442
-0.04670422 -0.13767673 0.083977364 0.004201106 0.046919838 -0.12205265 -0.077142686 -0.12307643
-0.053464342 -0.02219941 0.03394603 -0.04410448 -0.07264671 0.09668708 0.02840268 -0.097488
-0.016304553 -0.0093886545 0.119432464 -0.08591142 0.021832902 -0.05961077 0.038259506 -0.04400067
0.06424021 -0.046948515 -0.026367893 0.049639452 -0.120821595 -0.03846837 0.019859 0.025981424
-0.06802094 0.043874428 -0.11282598 -0.0032253545 0.032362558 -0.13742091 0.031523257 -0.09771198
0.053144973 0.07690221 0.026959643 -0.0748928 -0.008834857 -0.08721238 -0.09683522 -0.101649985
0.07515603 -0.08083205 -0.106349885 0.06484859 0.066095516 -0.114776894 -0.024011513 -0.035186745
-0.09631323 -0.0378033 -0.11871664 0.00024077474 -0.11263184 -0.14113937 0.11059783 0.050092787
-0.08176716 -0.05027541 0.0014074539 0.073703624 -0.018984586 -0.01624699 0.060077976 -0.038436633
-0.056374144 -0.122767195 -0.005242256 0.13051765 -0.10453488 -0.09909998 -0.028905021 -0.10145074
-0.014789002 -0.051734976 -0.09395929 -0.08091128 -0.05765865 0.035239656 0.076233834 0.048451018
-0.07092096 0.102588914 -0.06885042 0.0115279965 -0.07272641 0.046313144 0.108832784 0.10833472
-0.10426381 0.005204567 -0.10096198 -0.06173813 0.053870626 0.0498035 -0.10995588 -0.030281398
-0.025923928 -0.056752943 -0.12747604 0.04239615 0.021720223 -0.014118835 -0.10613573 -0.016823916
-0.09483608 0.011221425 -0.076754406 0.07225531 -0.07287107 -0.0359681 -0.018125918 -0.103696965
0.08588659 -0.0025312884 0.091030665 0.036270466 -0.094345495 0.096848406 -0.04841182 -0.083479196
0.08980435 0.008672166 -0.00992543 0.035492484 0.09967694 0.021491896 -0.104678914 0.018293953
0.06628734 -0.080575116 -0.12995945 0.07575361 0.07726646 -0.0065108156 0.026978355 -0.011234248
-0.060292844 0.01295405 0.008379158 -0.102334805 -0.11272776 0.12596472 0.030643605 -0.059066564
-0.07331233 -0.0838623 -0.07687267 -0.062129263 -0.037418865 0.03275421 -0.093954794 0.036529444
0.07961879 0.07210109 -0.049525805 -0.091337375 0.058845486 -0.11595166 0.0077194986 -0.07184658
-0.07785434 -0.11954943 0.058091924 -0.013750189 0.043253493 -0.09575595 0.11658985 0.0879591
-0.08026876 -0.043689057 -0.027466409 0.025734076 -0.04339727 -0.013300699 -0.021353047 -0.045562435
0.05653063 0.021512069 0.041272324 0.082161225 -0.15111603 -0.027372286 0.10583167 0.0034452323
-0.11516562 0.081207134 0.0375072 -0.007970308 -0.074190475 0.009211078 0.04587698 -0.05580215
0.0036310004 0.05959622 0.03866989 -0.07021875 0.02760894 0.0608225 0.09952685 -0.01211587
0.05972324 -0.12934388 0.027809639 0.09681867 0.021444626 0.15060894 0.08372905 -0.054052368

lstm.bias_ih_l1 f4 [256]
00000000: 3c9f d53d 592e 893a 7427 01bb fc50 f43d
00000010: 84d2 aebc f31a 043d 8e32 f3bc d716 f13d
00000020: 6324 b93d 551e bf3d d629 29bd e58a cfbd
00000030: 0b22 bf3d 5860 173b 8423 dcbd 7cf4 d6bb
00000040: 0f19 bbbc dc33 243d 1bb2 bbbd 7d39 0d3e
00000050: 6bc9 083d 1d37 bb3c e4d5 753c 3cfd 813d
00000060: c7e7 27bb 77fc eebc 52f1 c63d 4fa6 c9bd
00000070: e309 003e 6a63 5c3c a144 6d3b d546 78bd
00000080: ddcc 873d d49a 023d a3c5 0c3b b37f b53c
00000090: 7232 453d 4370 633a 72df d63c 01e9 e6bc
000000a0: 243d 123e 3d6a a3bd 9772 023e 78a2 4d3c
000000b0: a075 bf3d 316d bdbd 43e9 51bc 8f59 b73d
000000c0: 63b0 6ebd 0f9d ba3d c936 88bc a72f e23d
000000d0: 2f77 d3bd 9312 b2bc 983c 9b3d b76a 053e
000000e0: e4a6 91bd 3b7c 843d 41cb d43d 28ab 643d
000000f0: 6034 1a3d f528 34bd 8e31 59ba fcb0 d9bd
00000100: 1457 fd3c 9f00 c63c a36e c13d 2d8c f9bb
00000110: f9f1 303a c1a7 aabc d78a 5bbd d9b3 7b3c
00000120: a2ca 10bd 389c a3bd cb23 ef3d ba5b 30bd
00000130: 1f3f 4fbd ee60 23bc ead7 ccbd 4aa7 acbd
00000140: 29f4 123e a432 773c 4fa9 e23d e568 7bbd
00000150: bdf4 89bc cba6 89bb 2c52 023e 700e 5d3d
00000160: b4f8 033c cfaf 033e 5d51 fc3d 03ae 403c
00000170: 52f8 8dbd f33b 943d a823 473d f360 31bc
00000180: 6973 9ebd ea46 38bd ccb5 a73d c831 8ebd
00000190: 4c15 f13d 075a 1abb 6be6 06bd 8ce2 23bc
000001a0: f849 2e3c d113 0a3e 26f2 b53b 75c1 453d
000001b0: c073 733d e25f 11bd 0ff0 523d 33fe 783d
000001c0: c01d 9c3d 5ade 5fbd 1c45 36bd ac28 a3bd
000001d0: c13e 003e eecb 98bd 9819 c13c 96e9 be3d
000001e0: c47c 493d 961a df3d 36b3 6ebc 975e b1bd
000001f0: 71cd 95bd 11da a63d edd4 5bbd 3953 653d
00000200: c843 64bd 4587 d4bc 3581 46bd d8ab 203c
00000210: 903b 143d 7926 18bd eb6a 12bd 611b 533d
00000220: caf5 d0bc fdb2 b5bd 3486 e73d 01d5 7b3c
00000230: c533 babd 7d5a 4bbc e917 ccbd db7c f5bc
00000240: 9d0a 44bd fe19 ed3b 76f4 623c 78c8 a53c
00000250: fe35 20bd 1a22 7dbd 5c8d 9abd 48c9 c63c
00000260: 7e86 e6bd 7484 3c3d 8991 a13b cd2d f93c
00000270: f945 9b3d 4885 9f3d a9fb d33d 1a2a 9fbd
00000280: 331e b43b 22e0 fabc 5094 97bd cb78 a63d
00000290: a064 e7bd ddb2 303d 98e3 663d 55f5 c03d
000002a0: e18d 1f3d eb79 1abd 282b f23a 25bd e5bd
000002b0: 72d3 5dbb f515 b13c 716e c0bb 91b2 d6bc
000002c0: b456 d1bb a4dd eabc 49ad 96bd f5d0 ba3d
000002d0: 7f0a d93d 05fe 5abd a2ea e53d 7d52 953d
000002e0: 88c3 0d3c 9e81 08be 8ba5 a3ba d60b f83d
000002f0: 726b 0d3c a8f6 d73c d5bd 863c 6f68 a13d
00000300: bdad a53d c18c 32bd 81f3 bd3d 0d4d 9abd
00000310: 83bd c23d d226 a23d 2a59 033e 3dd5 c3bd
00000320: bdf3 25bd e3b7 f63d 1a56 8d3c 9792 8fbb
00000330: a980 813d 5455 7f3d d540 c83d 0049 86bd
00000340: 3caf 0e3e 0176 adbc 84c9 d73b fc31 3ebd
00000350: d498 99bc 4bdc bb3d 5927 0d3b fefc ccbd
00000360: edec 0f3e eb37 8f3d 7f3b 513d 401d a23d
00000370: fad3 a5bc 97ed d7bd 49c1 cb3d b06e 1a3e
00000380: 1027 ba3d 5b2a 4dbd 3e7d 783d 867b 7ebc
00000390: f2eb 463d 6f15 30bd aa6b c53c d2f8 113d
000003a0: b1eb ad3b 83b6 083e cb3e 193c fa4e f23d
000003b0: ad0b febc ab3e 08bc 0bbe b83d c355 71bd
000003c0: 0287 3ebd fa95 b23c 5757 b3bd 1d20 0cbd
000003d0: d4de f6bc 3341 98bd a294 d03d f3ff 0d3e
000003e0: 8e95 6d3d f2de 083e 2a3d a6bd 14cc 9cbd
000003f0: 02bf cd3c 8a1f 813c 80dc d63d 81e2 aabd
0.10430762 0.0010466083 -0.0019707354 0.11929509 -0.021340616 0.032252263 -0.029687192 0.117719345
0.09040143 0.09331957 -0.041299663 -0.10133914 0.09332665 0.0023098197 -0.107489616 -0.0065599065
-0.022839097 0.04008852 -0.0916483 0.13791461 0.033395212 0.022853428 0.015004609 0.06347129
-0.0025620328 -0.029173119 0.09713997 -0.09846174 0.12503771 0.013451437 0.0036204236 -0.060614426
0.066308714 0.031885937 0.0021480105 0.022155618 0.04814381 0.0008676091 0.026229594 -0.028187277
0.14281136 -0.07979248 0.12739025 0.012550943 0.09348607 -0.09249342 -0.012811962 0.08952629
-0.058273684 0.09111988 -0.016627686 0.11044245 -0.10325467 -0.021737373 0.07579917 0.1302899
-0.0711191 0.064690076 0.1039033 0.05582729 0.037647605 -0.043984372 -0.0008285277 -0.1062946
0.030925311 0.024170218 0.094449304 -0.007615587 0.0006749924 -0.020831944 -0.053599205 0.015362703
-0.035349496 -0.07988781 0.11676749 -0.043056227 -0.050597306 -0.00997184 -0.1000212 -0.08430345
0.14350952 0.015087757 0.11067449 -0.061379332 -0.016840333 -0.0042007915 0.12726659 0.053968847
0.008054901 0.12860034 0.12320206 0.011760238 -0.06932129 0.07237997 0.04861799 -0.010826337
-0.077368565 -0.044989504 0.08188972 -0.06943089 0.1177164 -0.0023552196 -0.032934587 -0.010002743
0.010637753 0.13484122 0.005552548 0.048280198 0.05943656 -0.03549183 0.05149847 0.0607893
0.07622862 -0.05465541 -0.0444995 -0.07966742 0.12523939 -0.074607715 0.023571774 0.09321897
0.04919125 0.10893743 -0.014569094 -0.0866062 -0.073145755 0.081470616 -0.05366986 0.05598757
-0.055728704 -0.025943408 -0.048463065 0.009806596 0.036189616 -0.037146065 -0.035746496 0.051539782
-0.025507826 -0.0887203 0.11304894 0.015370608 -0.090919055 -0.012411711 -0.09965498 -0.029966762
-0.047861684 0.0072357645 0.013852229 0.020237193 -0.03911399 -0.0618001 -0.075464934 0.0242659
-0.11256121 0.046024755 0.004930679 0.030417347 0.075817056 0.07789093 0.10350735 -0.07771702
0.005496764 -0.030624453 -0.07401335 0.08128508 -0.112984896 0.043139327 0.056369394 0.09421793
0.038953666 -0.037713926 0.0018475996 -0.11217717 -0.0033847955 0.021616915 -0.0058725406 -0.026208194
-0.0063885096 -0.02867014 -0.0735727 0.09121887 0.10597705 -0.05346491 0.11226393 0.07291124
0.008652575 -0.13330695 -0.0012485249 0.121116325 0.008631574 0.026362732 0.01644794 0.07881247
0.080897786 -0.043591265 0.0927496 -0.075342275 0.09508803 0.07917561 0.12826982 -0.09562156
-0.04051565 0.12046792 0.01725297 -0.0043814885 0.06323368 0.062337235 0.09777991 -0.065568924
0.13934034 -0.021174433 0.006585302 -0.046434388 -0.018749632 0.09172877 0.0021538346 -0.10009192
0.14055224 0.069930874 0.05108213 0.07915735 -0.02024268 -0.105433635 0.099489756 0.15081286
0.09089482 -0.05008922 0.060666315 -0.01553238 0.04856486 -0.04298919 0.02409919 0.035637684
0.0053076376 0.13350873 0.00935335 0.1183147 -0.031011427 -0.008315722 0.09020623 -0.05891968
-0.046515472 0.02180003 -0.08756893 -0.034210313 -0.03013555 -0.07434311 0.101845995 0.13867168
0.058003955 0.13366297 -0.08117135 -0.07656112 0.025115494 0.01576211 0.10491276 -0.083439834
