models/API3USDT_lstm_20250822_024448.pth (torch, 267829 bytes, 11 tensors)

lstm.weight_ih_l0 f4 [256, 53]
00000000: f414 fcbd 081f 38bd 0e17 c63d 0cc4 473d
00000010: a4b7 b4bd 94c0 0bbd 1870 73bd 7c78 e03d
00000020: 641c 3ebd 8639 babd d8cf b93d b855 923d
00000030: 54c3 1d3d 9a94 efbd 9874 c13c 0074 c43b
00000040: 1a04 aebd 202c 79bc 4af6 e4bd 6054 6abd
00000050: b4a6 d93d 08b2 903c d858 b03d e8f0 c5bd
00000060: da68 98bd b06b 83bc 0ef2 b9bd 6a42 e6bd
00000070: 4e64 9abd 4025 de3c 309e 1cbc 42f5 8d3d
00000080: f0fb 71bc 60a7 7bbd aa88 c53d fc33 a3bd
00000090: 3c79 18bd cc35 59bd 704b 573c d80a f6bd
000000a0: 8495 bebd b866 adbc 60b2 92bc fed1 fd3d
000000b0: 28f5 44bd 48d9 833c a451 cf3d 22af 9a3d
000000c0: fc8c 40bd f878 c53d d285 e43d 4653 8fbd
000000d0: 46de febd 600f a6bb 92ac 853d c6de 99bd
000000e0: e090 3ebd 5ca3 643d e058 753d e0bf 60bc
000000f0: 78a5 3cbd c0d5 b33b 8084 1a3d 284c 55bd
00000100: 008d e73d 08ad f63c cc2d 843d 1882 b53c
00000110: 80c8 c7bb 9861 cf3d 26a3 853d 10ec 1dbc
00000120: 40cc 9abd 6c03 d5bd e4c2 533d 5c3d 27bd
00000130: d8ab 2bbd e2bc a53d e402 3dbd b4d6 383d
00000140: 40fb 773d c873 a3bd d44c cc3d b816 dcbc
00000150: 2201 963d 4429 c3bd 00ef 833c e8e6 413d
00000160: 48ed d2bc a21d dbbd fc4b aa3d f01b f9bd
00000170: 2028 893d aee2 a8bd f8eb a63c ae56 c73d
00000180: 1886 943d 5823 ec3c fe79 f7bd 043f ba3d
00000190: 1841 903d 385b b6bc 50b5 d6bd a4cc f53d
000001a0: 1659 9fbd 408e 1b3b 905e cc3c f05f bbbd
000001b0: 54e0 283d f85e 8fbc 0095 d73b 74d5 313d
000001c0: e062 1b3c 3645 a3bd d8a3 afbc 8cd8 97bd
000001d0: 080a ff3c 945b eebd ec17 a4bd 30c6 003c
000001e0: b0f7 1c3c 58b5 a93d bc5e 4e3d 50fd 673d
000001f0: e019 a53c 3487 4bbd 66b2 b53d 0861 d2bd
00000200: e001 34bc 00dd 123a 40d7 d63b dcb6 cf3d
00000210: 8cf6 42bd 04bc 283d d0ad 013d 20ce d2bb
00000220: 5891 86bd 9e5e fc3d 36ca 9ebd bee1 8b3d
00000230: 2061 dabd 983d 87bd 2002 cbbd 9848 ee3d
00000240: 0ca2 ca3d 54dc 73bd c0f3 873b 809c 1b3d
00000250: 7082 9f3c 20ef a33c 7e86 e7bd c456 4a3d
00000260: 6083 403c 2cb5 1f3d 48de fcbd 941f 0ebd
00000270: f019 d53c c09d d2bd 8098 9c3d 18bf e63c
00000280: 6026 a8bb 004e cf3b 263d 9e3d ecf5 dc3d
00000290: b0ca 22bc e2dd b9bd 082c c9bc 1e5f ddbd
000002a0: c2a3 9c3d 7c08 b8bd de0d f63d 2caa 41bd
000002b0: 0607 c7bd ac92 4b3d dc8c 5e3d ccb8 74bd
000002c0: e8e7 243d 842a 9c3d 2ea9 f3bd 80ed bd3b
000002d0: ea3e f3bd e81f 0f3d 3000 36bc aac6 85bd
000002e0: 8877 d4bc c051 afbb e085 cabd b082 6bbc
000002f0: 84f5 5e3d dcf6 fc3d d87a e9bd 1479 e53d
00000300: a27d f3bd a819 e13c f03c e5bc 38ef 5b3d
00000310: 18c1 363d 0cf6 b33d ec34 633d fe12 afbd
00000320: 4e81 e03d c83b cbbc 50b4 eabc 8c0e f93d
00000330: b01a eb3d 9cf2 553d def1 a53d fa8c c0bd
00000340: 18a2 c53c acd8 92bd a464 5f3d 5830 2a3d
00000350: 8a34 c9bd de3d a7bd 5abc 9dbd ba46 9a3d
00000360: d8fe b53d 7e99 e93d b4e4 063d 38a2 cc3c
00000370: 782e d6bd c0aa 14bc 58e5 d13c e488 0d3d
00000380: b808 a63d 9c97 d1bd e409 cebd d652 d0bd
00000390: 8866 773d 00af e53b 8cb8 063d f006 0e3c
000003a0: 7c88 723d 00e4 673a e817 abbd acd7 69bd
000003b0: 4a9e b7bd a8d3 213d 80f0 a1ba 08f0 643d
000003c0: 9e10 80bd 74fd 9bbd 3caf 51bd 46e9 a1bd
000003d0: d0d4 163c 68af 9bbd 5278 c83d a8eb 0b3d
000003e0: 1086 d73d b624 c8bd ac99 75bd 249c 783d
000003f0: f828 813d aa1b 8dbd 0662 88bd 401e 4e3b
-0.12308684 -0.04495147 0.09672366 0.04877095 -0.08824089 -0.034119204 -0.059433073 0.109604806
-0.046413794 -0.09093003 0.09072846 0.07145256 0.038516358 -0.116982654 0.023615167 0.0059952736
-0.08496876 -0.015208274 -0.111797884 -0.057209373 0.10627499 0.017663017 0.086106956 -0.0966509
-0.07441874 -0.01604256 -0.090793714 -0.11243136 -0.07538663 0.027117372 -0.009559199 0.06931545
-0.014769539 -0.061438918 0.09645207 -0.079688996 -0.037224993 -0.05302982 0.013140544 -0.12013787
-0.093058616 -0.021167144 -0.017907321 0.123935685 -0.04808536 0.016094819 0.101229936 0.07552935
-0.047009453 0.096422136 0.11158337 -0.06998305 -0.12444739 -0.005067751 0.06527056 -0.07513194
-0.046524882 0.055819854 0.05989921 -0.013717622 -0.04605624 0.0054881275 0.037724018 -0.05207458
0.113061905 0.030111805 0.064540476 0.02215676 -0.0060968995 0.101260364 0.06525259 -0.009638801
-0.07558489 -0.10401043 0.051699534 -0.04083 -0.04191193 0.08092667 -0.046145335 0.04512663
0.060542345 -0.07981068 0.09975591 -0.026866302 0.07324435 -0.09529355 0.016105175 0.04733935
-0.02574791 -0.106990114 0.08315274 -0.12163532 0.06697106 -0.08246361 0.02037619 0.0973333
0.07252139 0.028825447 -0.12083815 0.090940505 0.07043666 -0.022260293 -0.10483801 0.12001923
-0.07780664 0.002373591 0.024947435 -0.09149158 0.04122956 -0.01750134 0.0065790415 0.043416455
0.009484023 -0.07972185 -0.021440431 -0.0741435 0.031132713 -0.11638561 -0.08012375 0.007859752
0.009580538 0.08286542 0.050383314 0.056638062 0.02015394 -0.049689487 0.088719174 -0.102724135
-0.010986775 0.00056023896 0.0065564215 0.101422995 -0.047598407 0.04119493 0.0316599 -0.0064332634
-0.06570691 0.12322734 -0.077534124 0.06830166 -0.106630564 -0.06603545 -0.09912515 0.1163494
0.09894189 -0.059536293 0.0041489303 0.037991047 0.019471377 0.020011485 -0.11304949 0.049399152
0.011750072 0.03899114 -0.12347084 -0.034698084 0.026013345 -0.10283995 0.076462746 0.028167292
-0.005131528 0.006326437 0.07726507 0.107890934 -0.00993602 -0.09075524 -0.024557129 -0.10809158
0.07648422 -0.08985993 0.12014364 -0.04728143 -0.097181365 0.049700424 0.054333553 -0.05974655
0.040260226 0.07625297 -0.11897503 0.0057961345 -0.11877234 0.034942538 -0.011108443 -0.06532033
-0.025935903 -0.0053503215 -0.09888816 -0.01437442 0.05443336 0.12351772 -0.11400384 0.112047344
-0.11889197 0.027478054 -0.027983159 0.053694934 0.044617742 0.08787164 0.055470392 -0.08548544
0.10962163 -0.02480878 -0.028650433 0.12160978 0.114796996 0.052233323 0.08102773 -0.09401889
0.024125144 -0.07170233 0.054539338 0.04155001 -0.09824474 -0.08166097 -0.07701941 0.07533021
0.08886498 0.114062294 0.032932952 0.024979696 -0.10458082 -0.009073913 0.025622055 0.034554377
0.08107132 -0.10233995 -0.1006048 -0.1017205 0.060400516 0.007009387 0.03289084 0.008668646
0.059212193 0.00088459253 -0.08354169 -0.057090446 -0.08965738 0.03950849 -0.0012355 0.055892974
-0.062531695 -0.07616702 -0.051192507 -0.079058215 0.009206012 -0.076018155 0.09788574 0.034160286
0.10523617 -0.09772627 -0.059961006 0.060695782 0.06306642 -0.06890042 -0.066593215 0.0031451136

lstm.weight_hh_l0 f4 [256, 64]
00000000: 30cd d13d cea2 a7bd 0eb9 e1bd f4b2 96bd
00000010: 9017 cd3c ac4e 0ebd 881b 8abd 9053 d4bc
00000020: 3a5e cb3d 4028 983b 5858 cb3d 0008 5a3a
00000030: e4c7 43bd b0ea 4fbc fc98 eb3d 2ebd bcbd
00000040: aaad 85bd 4edb b23d c84f 823d e624 c23d
00000050: f2f8 b03d e427 c83d d83c b83c f89c 06bd
00000060: ec0c 933d bc46 be3d 6c70 553d 0aed fcbd
00000070: 2820 793d 60b2 2fbd f0e3 fd3d dea8 cebd
00000080: 306f d5bc 1012 97bc c036 293b 1079 303d
00000090: 102d f0bc f844 f43c 4c29 0fbd 8043 babd
000000a0: 584c 823d 604b 78bd f010 7d3c 3c19 f73d
000000b0: 3818 24bd eaed da3d 8ad1 9dbd 665d aabd
000000c0: 0052 dbb9 8898 51bd 9c6a c63d b4d3 56bd
000000d0: 7065 90bc 6631 98bd 4817 fa3d 28d2 36bd
000000e0: ac58 333d 0012 b3bd 4002 a63b 5094 093c
000000f0: 88a2 17bd 0c77 fe3d b45d 47bd 0ca4 fabd
00000100: 785a 14bd 6c0a 69bd 6839 583d 84ff 423d
00000110: e66c 913d 6819 42bd 1e24 d43d 848c 16bd
00000120: 8858 88bc 18df aa3d 249b fc3d d6c4 b53d
00000130: daed 943d 6a09 b2bd a855 753d 6033 763d
00000140: 9a05 f73d 2ef2 97bd a40f eebd aedb f8bd
00000150: 0c09 2cbd 2a8b fd3d 40da dd3b 5c5a 26bd
00000160: f87e a43d 00f2 283c 0236 b83d d232 b3bd
00000170: 8cd3 e7bd 580b c6bd 50af d2bd a60b ddbd
00000180: 9a23 bdbd b8e3 debd 809e 1bbc 964a f0bd
00000190: b4c6 41bd 64ce 383d 485b 98bd 0423 773d
000001a0: 40cf 5d3c dc9a adbd f66a cebd 40eb 59bd
000001b0: d6b0 fd3d 5c27 0e3d 3c3a b5bd 78ff 79bd
000001c0: 9077 373d b0ef 12bc 2ec0 88bd 5a13 a43d
000001d0: 0834 b33c 94e0 773d fc53 123d e08e 333c
000001e0: 74a9 983d 5a48 963d 38a3 eebd 7006 0cbc
000001f0: a8bd 86bd 4400 b33d 709c 953d e015 85bb
00000200: 3e63 a0bd 1e53 c5bd 6894 e13c 70a1 29bc
00000210: 22b2 a6bd 74d6 36bd 842c c73d 3448 4fbd
00000220: 8eec be3d b246 823d b8be 9f3d a0d1 ae3d
00000230: 7829 d1bd f802 0bbd 8881 49bd 2886 79bd
00000240: 7685 ec3d f6d6 913d d8ba 293d 86b0 80bd
00000250: a0d7 d13c d4c3 573d ac8f e3bd 9829 a53c
00000260: 5c87 553d c0cc 9abd 6039 84bc d072 e73c
00000270: 5a6f fd3d 6cea 60bd f05c 293c e02c efbd
00000280: 32b2 a9bd ecf3 de3d b449 3abd 9c24 883d
00000290: 7469 c8bd d0e1 2cbd 8069 c0bd 6854 253d
000002a0: 68d4 023d 4af6 dfbd 84cd debd 32fb b83d
000002b0: 447c 73bd 6874 82bc 36c7 86bd 4c76 8b3d
000002c0: 32e4 f0bd e006 a3bb c486 2a3d 20fd e93c
000002d0: 76d5 ab3d 5068 9fbd daf9 b83d 8c8d 38bd
000002e0: 80f6 1f3c 72c7 b43d ec81 023d 12d2 b43d
000002f0: 2879 dcbc 8e97 f5bd e497 48bd 1ee8 a43d
00000300: 10a2 9d3d 00ab 5bbc 0020 dbba c05c 903d
00000310: 8822 11bd 58a1 bdbc c4d1 55bd c02d 923d
00000320: 6c71 313d 701a 03bc a021 1bbc 6464 27bd
00000330: 4c0b 4fbd 50fe 03bc 0027 d6bb 0ab2 f33d
00000340: 4856 32bd b0d5 093d 30a2 e83d 7c50 b13d
00000350: c80f e3bc 344e d1bd acde ae3d 825e d3bd
00000360: d062 2ebc 8eb2 fabd 56c7 c93d a8c6 e9bc
00000370: 402e 9ebb c023 013d f4d3 4a3d 644d a63d
00000380: 9e0e d83d 1ade f2bd 283d c93c ac25 ae3d
00000390: c8dc 24bd 321f c23d d6b8 90bd 8c5c 95bd
000003a0: a6bc b43d 02f2 b4bd 90d4 333d 008e b5bb
000003b0: d895 a63d b28f d23d f0a5 2c3d 40f7 023c
000003c0: 48bf 99bd 7240 d2bd 0c11 17bd a885 d13c
000003d0: 3067 ce3c f04d c5bc 48d6 2c3d e0bc 3d3c
000003e0: 4049 c2bb 5cc6 193d f049 c7bd 04a1 a0bd
000003f0: 0058 c438 403b d33d a0e7 743c ae77 febd
0.102442145 -0.081853494 -0.110216245 -0.07358351 0.02503565 -0.034742996 -0.067435324 -0.025918752
0.09930082 0.00464347 0.099289596 0.0008317232 -0.047798052 -0.012690231 0.11503789 -0.09215771
-0.065272644 0.08733235 0.06362873 0.09479694 0.086412326 0.097732335 0.02248995 -0.03286454
0.07180199 0.09290835 0.052109167 -0.12349899 0.060821682 -0.04289472 0.12396991 -0.100908026
-0.026053995 -0.01844123 0.0025819987 0.043084204 -0.029318362 0.029818043 -0.034951493 -0.09094906
0.06362218 -0.06061876 0.015445933 0.1206536 -0.04006216 0.1068991 -0.07705982 -0.083185956
-0.0004183203 -0.051170856 0.09688303 -0.05244799 -0.017626494 -0.07431297 0.12211472 -0.044634014
0.043785736 -0.087436676 0.005066186 0.008397177 -0.037020236 0.1242505 -0.048673347 -0.12238321
-0.03621909 -0.056894705 0.052789122 0.04760696 0.07100849 -0.04738751 0.10358451 -0.0367551
-0.016643777 0.08343333 0.12334278 0.08875434 0.07271929 -0.08693202 0.05989614 0.06010759
0.12061615 -0.07419239 -0.11624077 -0.121512756 -0.042000815 0.12380059 0.006770402 -0.040613517
0.0803203 0.010311604 0.08994676 -0.087499276 -0.11319646 -0.096701324 -0.102873445 -0.107932374
-0.09235306 -0.10883278 -0.009498239 -0.11732976 -0.04730864 0.045118704 -0.074392855 0.060336128
0.013538182 -0.08476803 -0.10078995 -0.053202868 0.123872444 0.034705505 -0.08848998 -0.06103465
0.044791758 -0.008968279 -0.0667728 0.080115035 0.021875396 0.06051691 0.035724625 0.010959357
0.074541956 0.07338019 -0.11652225 -0.008546457 -0.06579143 0.08740285 0.07305229 -0.0040614456
-0.07831429 -0.09634994 0.027536586 -0.010353431 -0.08139445 -0.044638112 0.097252876 -0.050605968
0.09322463 0.0636114 0.078000486 0.085360765 -0.10212988 -0.033938378 -0.049195796 -0.060918957
0.11548893 0.07121079 0.041437954 -0.06283669 0.025615513 0.05267699 -0.111113876 0.020161435
0.052131042 -0.07558584 -0.01614064 0.028252989 0.12374754 -0.054911062 0.010337099 -0.11678481
-0.08285941 0.10886368 -0.045480445 0.06647608 -0.097857386 -0.04220754 -0.093951225 0.0403637
0.031940848 -0.10935648 -0.10879043 0.09032287 -0.05944468 -0.015924647 -0.06580965 0.06809673
-0.11762275 -0.004975185 0.04163243 0.028563082 0.08390324 -0.07783568 0.090320304 -0.045056865
0.00976336 0.08827104 0.031862184 0.0882913 -0.02691324 -0.119917974 -0.04897298 0.08052085
0.076969266 -0.013407469 -0.0016717911 0.07048941 -0.035433322 -0.023148224 -0.052202 0.07137632
0.04332106 -0.008001909 -0.009468466 -0.040867224 -0.050547883 -0.008056238 -0.006535411 0.11899193
-0.043539315 0.033651054 0.1135906 0.08657929 -0.027717486 -0.10219994 0.08538565 -0.1032076
-0.010643676 -0.12241088 0.098524734 -0.02853711 -0.004827291 0.031528234 0.04951854 0.0812023
0.10549663 -0.11858769 0.024565294 0.08503279 -0.040249616 0.09478606 -0.07066505 -0.072930425
0.08825044 -0.08835222 0.043903887 -0.0055406094 0.08134049 0.10281314 0.042150438 0.007993519
-0.07507187 -0.10266198 -0.03688149 0.025576428 0.025195688 -0.024085015 0.042196542 0.011580676
-0.0059291422 0.037542686 -0.09730899 -0.07843211 9.3623996e-05 0.103140354 0.014947802 -0.12425171

lstm.bias_ih_l0 f4 [256]
00000000: 0467 34bd b056 77bc 0af5 d93d 282d 72bd
00000010: 10f9 cfbc a8af ebbd 1e16 f23d a0e3 66bd
00000020: 3069 813c 4499 0abd 8cfb f4bd a858 e6bc
00000030: 4430 3abd 96ed d53d 084c b1bc d4a9 af3d
00000040: 44f7 eabd 606f 73bc 8e13 f63d 82db e23d
00000050: 84f1 05bd dcf2 33bd a8ce fc3c 201c 9b3c
00000060: c0a0 c13c 865d c7bd e2e6 83bd 8043 cb3a
00000070: 806c 013b c639 d73d 0c19 84bd 1c91 da3d
00000080: ee29 a03d f832 b43d 8ccf 433d 5048 78bd
00000090: da0b 9e3d d0b9 373c 8035 f53b 767a cabd
000000a0: 8075 2d3c d0cd 72bd 362c ff3d 8a41 b33d
000000b0: 24bc d23d a07d 59bc aa3e b7bd c40f e8bd
000000c0: 721c e53d 8cd1 32bd 8c07 d33d 36ec 9d3d
000000d0: 3c89 5ebd 0cd4 ad3d 883f 8e3c 329f e73d
000000e0: d07c c33c c0e8 d6bc 7c52 9abd d43e 1b3d
000000f0: 6096 8f3d 40e5 7f3b 90a2 48bd 5421 b93d
00000100: a0f9 353c 807f 383d f8a8 25bd 0c5c 7a3d
00000110: c88f 483d a840 913d 30b5 31bc 80ee fc3a
00000120: 80c3 00bd 60e0 8cbb 00be 03ba e4b4 3f3d
00000130: 72cf d13d b0bf bd3d 72a2 c5bd 30b0 31bd
00000140: fe34 d33d 3233 f4bd 1070 f9bc 1c31 98bd
00000150: 488c ebbd 605d 37bc 64a1 7e3d dcb1 f9bd
00000160: 786f e2bc 04f8 423d 38af 963d 3054 c93d
00000170: c089 51bd c838 e4bc 40ab 79bc c846 8abc
00000180: fec8 d0bd e0a8 303d 9c2c 583d c80d 053d
00000190: ec70 debd fc8a c23d 6291 8d3d 8047 963d
000001a0: 0c22 abbd 1a69 bb3d a0e3 b83c 68cc 673d
000001b0: 2c66 28bd 8c1f 033d 427b c7bd c4fa 373d
000001c0: 1620 adbd e027 17bd 20ca eb3d 404a 323d
000001d0: b25d f33d 4c91 333d d879 0cbd 3071 343d
000001e0: 9418 043d 2a70 afbd e8b3 713d 06d5 c3bd
000001f0: 9075 0abc 70b8 c63d 382f debc 00c6 a8b9
00000200: 168f ba3d b83f 3fbd b2b0 9f3d 04fc f5bd
00000210: bcf6 e4bd def4 95bd 8891 813d 5c0d 51bd
00000220: d22c ee3d 2a5d aebd 700a 1ebd 4a4c a7bd
00000230: 4c84 cd3d cefd 863d 6aa1 803d 2e24 c6bd
00000240: a4eb eb3d 74c8 d73d 18e7 a5bc a088 683d
00000250: 80c0 4a3d b41b 88bd 5a58 e4bd fc6c 4c3d
00000260: 386b 2dbd a45b 6cbd e4b4 97bd 9479 0d3d
00000270: 3a73 883d b823 b73c 2843 e03c 9c2f e53d
00000280: aceb 0bbd bc1f dd3d d071 a63d 006c 79ba
00000290: 64da 263d 92d7 e4bd 50ce e5bd 2cd5 5d3d
000002a0: e27d cf3d e8a9 f8bd 90c3 f33d f6a3 9fbd
000002b0: 40f0 093d f06e fabd 0850 b03d 78e1 d6bc
000002c0: 30c0 71bd f067 a33c c08f a9bd 9081 74bd
000002d0: f08e acbd c826 f23d a8d4 8bbd 804d df3b
000002e0: fa3b f33d dc0f 9abd 1889 d63d 24d6 8bbd
000002f0: 8e88 ba3d 704b 8f3d 0825 6cbd 4078 613b
00000300: 00b2 833c f880 86bc d0bd e8bc 96b4 f6bd
00000310: dc47 a33d 407d 273d 4270 d9bd f477 ebbd
00000320: fc08 28bd 40ed 223c 66e7 bebd cc83 253d
00000330: 5025 7d3d 3a5f 9cbd 5ea6 f83d ce5b cdbd
00000340: 404c 5e3d 3059 d4bc 6889 8d3d eefc 853d
00000350: 0c67 63bd 249a 543d 98cc 2fbd 4026 24bc
00000360: 602c 913c d0f4 1c3d 040d 9e3d c668 e33d
00000370: 8c6d c13d 889b 343d 00fb 573a 18f0 fc3d
00000380: 2092 3f3c f8e4 57bd 8027 70bc f0cb 013c
00000390: 8206 c8bd 3c7f 093d c2ea 913d c042 6bbd
000003a0: 8630 ae3d a4b8 ddbd 528d c4bd 96ce a73d
000003b0: a011 47bc 44c7 1cbd 3ccb c9bd 8061 a23a
000003c0: b8ff 2bbd 8470 a8bd 40c6 91bb 88c6 f6bd
000003d0: b01f c3bd 8c83 0abd 10ed 51bd 00d0 7c3b
000003e0: c014 5bbb ea07 d83d f877 8dbc 64b5 aebd
000003f0: 7a57 bbbd 5432 a93d c0ea 8c3d 083b 32bd
-0.044043556 -0.0150963515 0.106424406 -0.059125096 -0.025387317 -0.11508113 0.11820625 -0.056369424
0.015797228 -0.03383757 -0.11962041 -0.028118446 -0.045456186 0.104457065 -0.0216427 0.08577314
-0.114729434 -0.014858097 0.120154485 0.11077024 -0.03270103 -0.04393278 0.03086026 0.01893431
0.023636222 -0.09734635 -0.06440522 0.0015507787 0.001974851 0.10509066 -0.0645009 0.10672209
0.078204975 0.08798784 0.047805354 -0.060615838 0.07717104 0.011213735 0.0074831843 -0.09886639
0.010587096 -0.05927831 0.124596044 0.08752735 0.10289791 -0.01327458 -0.08947499 -0.11331132
0.11187066 -0.04365687 0.10304174 0.07711069 -0.054330096 0.0848771 0.017364278 0.11309661
0.023863226 -0.02623403 -0.07535264 0.037901714 0.07011104 0.0039046556 -0.048983157 0.0903956
0.0111068785 0.04504347 -0.040444344 0.06112294 0.048965245 0.0709241 -0.010846421 0.0019297153
-0.031436443 -0.0042992085 -0.00050255656 0.04680337 0.10244645 0.09265077 -0.096501246 -0.043380916
0.10312842 -0.11923827 -0.030448943 -0.07431242 -0.11501366 -0.011191696 0.062165633 -0.12192127
-0.027641043 0.047599807 0.07357639 0.098305106 -0.05115676 -0.027859107 -0.015238583 -0.016879454
-0.10194586 0.0431298 0.052776918 0.032483846 -0.10861382 0.094991654 0.06912495 0.07337856
-0.08356103 0.09150906 0.022569478 0.05659142 -0.041113064 0.032012507 -0.097403064 0.044916883
-0.084533855 -0.036903262 0.11513162 0.04352784 0.11883105 0.043839738 -0.034295887 0.044053257
0.032250002 -0.085663155 0.059009463 -0.09562115 -0.008450881 0.097031474 -0.027122125 -0.00032190979
0.09109323 -0.046691626 0.07797374 -0.12010959 -0.11179873 -0.07322095 0.06326586 -0.05103813
0.116296425 -0.085138634 -0.038584173 -0.08168848 0.10034999 0.06591378 0.06280787 -0.096748695
0.11519554 0.1053628 -0.020251796 0.05677092 0.04949999 -0.06645909 -0.11149664 0.049908623
-0.04233858 -0.057704583 -0.07407549 0.034539774 0.06662603 0.0223559 0.027375773 0.111907214
-0.0341603 0.107970685 0.08127177 -0.00095146894 0.040735617 -0.11173929 -0.112209916 0.054158375
0.10131432 -0.12141782 0.11902535 -0.07794945 0.033676386 -0.12228191 0.08609015 -0.026230559
-0.059021175 0.019947022 -0.08279371 -0.059693873 -0.08425701 0.11823803 -0.0682767 0.0068146586
0.11876674 -0.07522556 0.10475367 -0.068279535 0.09108077 0.069968104 -0.057652503 0.003440395
0.016076088 -0.016418919 -0.028410822 -0.12046163 0.079726905 0.040890932 -0.106171146 -0.114974886
-0.041024193 0.00994426 -0.093214795 0.040408894 0.061803162 -0.076353505 0.12141107 -0.10027276
0.054271936 -0.025921434 0.06910974 0.06542383 -0.055518195 0.051904812 -0.042919725 -0.010018885
0.017721355 0.03831941 0.07717326 0.11103968 0.094447225 0.04409364 0.0008239001 0.12350482
0.011692554 -0.052708596 -0.014657855 0.007922158 -0.09766866 0.033568606 0.071248546 -0.057436705
0.08505349 -0.10826233 -0.09597267 0.081937 -0.012150198 -0.038275972 -0.09853217 0.0012388676
-0.04199192 -0.08224586 -0.004448682 -0.120495856 -0.09527528 -0.03381686 -0.05125147 0.0038576126
-0.0033429116 0.105483845 -0.01726912 -0.08530691 -0.09147544 0.082615525 0.068807125 -0.043513328

lstm.bias_hh_l0 f4 [256]
00000000: e268 8d3d 9c7a 673d 9c9e 693d d857 fe3d
00000010: b85f 8b3d de52 f03d f487 47bd 62cf d8bd
00000020: caf7 b23d d4d5 8fbd e0ea 79bd a2f4 f63d
00000030: 5831 ad3c a828 9cbc 9e83 f9bd 3654 f73d
00000040: d066 d1bc f06e 0b3d ea82 ac3d 684d 98bd
00000050: 00a3 a93a 0cea 3a3d ce54 8c3d a8f2 9f3d
00000060: 08ae 903d 70ce 653d 607e 66bc ccec e33d
00000070: 1e42 8dbd 5ce0 483d 10fc 9ebc 360d 8e3d
00000080: a042 f33b 5aa5 b83d 7294 ccbd 3ca4 003d
00000090: 76a9 d9bd f062 aa3c 48a5 743d 845f ca3d
000000a0: e417 ee3d 0421 f93d 3081 3f3c 405e 39bb
000000b0: a868 c63d 804c c5ba d84e 3abd 2052 f13b
000000c0: c80f 8a3d b890 c2bd dc0e fcbd c09a f83b
000000d0: 1864 0bbd d039 57bc 80d0 ac3c c2fb a33d
000000e0: 70c6 65bd d09d 693c 4a8f edbd 02ba d33d
000000f0: 3003 e13d 704c 053d 9cf1 2f3d dc8d 553d
00000100: 2cb0 cc3d 1e80 933d d898 6dbd 889e 02bd
00000110: f284 a8bd 2884 d4bc b283 8c3d 68d6 7dbd
00000120: 5e36 b13d d4e2 5e3d 608d 143d 3c3a 7abd
00000130: 9cd8 82bd a839 b43c 74db f9bd 482e f1bd
00000140: bc90 56bd 5cdb 903d 7c9d 183d 8208 a63d
00000150: 9a61 89bd 2c0f 543d 6043 ddbc 7c61 4a3d
00000160: 8e35 9b3d 7cb7 88bd a688 adbd f8aa 133d
00000170: 48d1 5fbd 4481 b83d 9cb2 073d 2804 123d
00000180: ec7d 4abd 3444 04bd 1c33 133d 4ef1 b13d
00000190: 1c94 3ebd 1eda e5bd f66e 93bd a868 9fbd
000001a0: fcd6 df3d e2ed 89bd 8c54 973d 6027 ed3d
000001b0: 48cb a0bc 58ac 6d3d 526a e7bd 401e d03b
000001c0: ac8d 563d 00b6 76ba eeab afbd 386d 57bd
000001d0: 6431 d63d 6099 d6bb c083 563c 60ef 36bd
000001e0: f8fa 2e3d 0875 993d e619 8b3d a8bc dbbc
000001f0: 2025 fa3b a8d8 c13d 4025 1dbd 9c87 663d
00000200: 7a5f 813d 40e1 6d3d a03b 293d 900e e0bd
00000210: 841b b43d f80b 483d a0f8 72bc 60bc 673c
00000220: 04a2 1bbd c008 333d 2c5e 233d 40ac fc3d
00000230: 18a6 74bd e441 8a3d e0c1 2fbc 5c4d b23d
00000240: 586d d63d acf4 01bd a48c c8bd 7c84 913d
00000250: 9c6a b7bd 20ef 82bb 90cd 58bc f439 a23d
00000260: 800a 31bb d0ff 9c3d bea3 d13d 600c 1f3d
00000270: 207d 98bb 201c a13b d806 1abd 9821 983d
00000280: 4071 81bb 88ac ccbc 90f7 713d 221e dabd
00000290: 00c3 273a 9c83 9ebd 8814 26bd f027 78bd
000002a0: 1698 81bd 3cbd d23d 807b 37bd 004d b93a
000002b0: 00b3 ac3b c8ad 8bbc 6205 a33d 40d9 dc3b
000002c0: c801 1dbd bcf9 c1bd d802 b1bc 0039 b43b
000002d0: 2888 c03c 609b 813b 82cf f23d bc08 a43d
000002e0: 98a7 a3bc 2074 433d 1035 803d a884 3b3d
000002f0: 763a d83d d8ec 9f3c 805a abbd 469d c1bd
00000300: 12ff ef3d f05a 4a3c 8641 803d 3825 9a3c
00000310: 587b d3bd 9cac 3cbd 0ce7 073d 2863 603d
00000320: 8e6b 91bd 74c3 5b3d f2e6 9dbd ba87 debd
00000330: 0832 53bd 98b3 c9bd 64e9 3c3d 241a f83d
00000340: 34fb dc3d 56ed c2bd f8bf c4bd f283 813d
00000350: d057 22bd ac22 80bd 84e2 19bd c477 623d
00000360: d07d b6bc 309d 9ebc 4e86 86bd d8b0 ad3d
00000370: 1009 c33d 44af 463d 701a b1bc 127e fb3d
00000380: a884 433d 6ab3 903d 7ead bebd de2f ad3d
00000390: f079 3bbc 58ea b73c b8d6 5dbd 788a 87bd
000003a0: a897 a83d 1a56 b5bd 4411 ee3d bab5 d9bd
000003b0: 400f 3dbc 48c2 ac3d ee3d 89bd 961a 973d
000003c0: f8a5 543d 4073 403b 8299 d7bd 80d3 94ba
000003d0: 8e0d e1bd 587c 4c3d 4ece d43d 3e2b 9f3d
000003e0: 88d4 debd 64c6 f3bd 1023 efbc 004f dfbc
000003f0: e01c ad3c 88d7 7c3d 00ed 523d e83d debd
0.069047704 0.056513414 0.057036027 0.124190986 0.06805366 0.11734556 -0.04871364 -0.1058643
0.08738668 -0.07023206 -0.06101501 0.12058379 0.021141693 -0.019062355 -0.12183307 0.12076609
-0.02556172 0.034041345 0.084234074 -0.07436639 0.0012942255 0.04563336 0.06852113 0.07809955
0.07064444 0.056105077 -0.014068216 0.1112915 -0.068973765 0.04904209 -0.019407302 0.069361135
0.007423714 0.09015913 -0.09989251 0.031406626 -0.10628025 0.02079913 0.059727937 0.098814994
0.116256505 0.121645 0.011688516 -0.0028284937 0.0968793 -0.0015052706 -0.045485348 0.0073645264
0.06741291 -0.09500259 -0.12307522 0.007586807 -0.034031004 -0.013136342 0.021095514 0.08007003
-0.056097448 0.014258817 -0.11599596 0.103382125 0.10986936 0.0325436 0.042955026 0.05213724
0.099945396 0.07202171 -0.05800709 -0.03188947 -0.08228482 -0.025941923 0.068610564 -0.06197205
0.08652948 0.05441554 0.03626764 -0.061090693 -0.06388971 0.022000149 -0.122000605 -0.117764056
-0.052384123 0.070730895 0.037259564 0.081070915 -0.06708069 0.05177228 -0.027009666 0.049409375
0.07578574 -0.06675622 -0.08473329 0.03605172 -0.054642946 0.090090305 0.03312932 0.035648495
-0.049436495 -0.032291606 0.035937414 0.08688603 -0.046527967 -0.11223243 -0.071988985 -0.077836335
0.10929677 -0.06734826 0.07389173 0.11579776 -0.019628182 0.058025688 -0.11299576 0.0063512623
0.052381203 -0.00094112754 -0.08577715 -0.052594393 0.10458639 -0.0065490454 0.013092935 -0.04466188
0.04271981 0.07493025 0.06792049 -0.026823357 0.00763382 0.09465152 -0.038365602 0.05628167
0.06317039 0.058076143 0.04131663 -0.109402776 0.08794311 0.04883954 -0.014829785 0.014144033
-0.037996307 0.043709517 0.03988473 0.123375416 -0.05972871 0.06750849 -0.010727376 0.087061614
0.104700744 -0.031727478 -0.0979245 0.071053475 -0.08955881 -0.003995791 -0.013232604 0.0792121
-0.0027014315 0.0766598 0.102363095 0.03883016 -0.004653588 0.004916683 -0.037604183 0.074282825
-0.003950268 -0.024984613 0.059073985 -0.10650279 0.00063996017 -0.07739946 -0.040546924 -0.060584962
-0.06327836 0.1029 -0.044795513 0.0014137328 0.005270362 -0.017050639 0.07960011 0.0067397654
-0.038331777 -0.09471461 -0.021607801 0.005499959 0.023502424 0.0039552897 0.11855985 0.080094784
-0.019977376 0.047718167 0.06260121 0.045780808 0.105580255 0.019522116 -0.08366871 -0.09453826
0.11718573 0.012350783 0.062624976 0.018816575 -0.1032626 -0.04606305 0.033179328 0.054782063
-0.071005926 0.053653196 -0.07710065 -0.108657315 -0.051561385 -0.09848708 0.046121016 0.12114361
0.10790101 -0.095179245 -0.09606928 0.06323995 -0.039634526 -0.06256613 -0.037569538 0.05529
-0.022276789 -0.019362062 -0.06568585 0.08480996 0.09523213 0.04850699 -0.021619052 0.122799054
0.047733933 0.070654705 -0.09310435 0.084563956 -0.011442646 0.022450611 -0.05415985 -0.06618208
0.08232051 -0.08854313 0.11624387 -0.10630365 -0.01153928 0.08435494 -0.06701265 0.07378118
0.051916093 0.002936557 -0.10527326 -0.0011354536 -0.109889135 0.04992327 0.10390912 0.0777192
-0.10880381 -0.119030744 -0.029191524 -0.02725935 0.021131933 0.061728984 0.051495552 -0.108516514

lstm.weight_ih_l1 f4 [256, 64]
00000000: 4825 e8bc 04dc d0bd 90e8 bd3d cbf5 03be
00000010: 7477 b33d 17d7 b9bd 8d6a 873d 5c54 133d
00000020: 30a3 243d ec45 25bd 88c4 c33d d830 3cbd
00000030: 0aa7 82bd d84e 14bd 0415 3abd 8859 85bd
00000040: e847 413d fcbb ff3c f4c0 6ebd c0ab ad3c
00000050: 9605 a6bd e4e3 b0bd c628 a03d e7cc a1bd
00000060: d6ae 9c3d 4892 f8bc 0ecc d83d e620 bdbd
00000070: a053 0bbc 30ea 47bd 8fdb 01be d039 963d
00000080: f872 2e3d 28be b4bd 0cd9 10bd 003c cdbc
00000090: eeba 64bd 7ecd b13d 5b48 c5bd 8004 f63a
000000a0: a0b7 5bbc b0ff 2d3c 906d 1a3d 607c ecbd
000000b0: 34db b1bd d63f a8bd b896 153d 3041 8dbc
000000c0: 9a02 e8bd 2c69 94bd a474 383d a0a7 153c
000000d0: c9f2 8f3d 3469 e13c 7408 3ebd 52c6 d6bd
000000e0: ca02 92bd 1890 cb3c a21c f9bd f636 91bd
000000f0: 08a0 d3bd 0040 4e3a 3815 fe3c b85e 0abd
00000100: b616 d03d 6a9f d23d d047 8fbd 5dad dd3c
00000110: a8c9 a93c fdfd 86bd 7548 a13d 4029 85bd
00000120: c48c 303d 580c 383d 4024 eabc a032 c43b
00000130: 787d b3bd 9e05 debd d035 81bd 1aab 9dbd
00000140: f08f 94bd a6cc 89bd 0894 44bd 84b7 ccbd
00000150: 3433 9e3d a220 fcbd 729d 9abd e5e9 ca3d
00000160: 90d0 4c3c 008a 4fbb 3496 613d 8c0b 9fbd
00000170: d811 35bd 7b51 ac3c f268 febc 503d 2d3d
00000180: 4042 f6bb cd21 633d fc69 183d 9803 f93d
00000190: bf97 d5bd 9860 b03d 8a1f e6bd ac37 87bd
000001a0: 64bd 26bd eef3 a13d 4a80 a93d c084 a43c
000001b0: 04e8 59bd 161d b0bd 3c7f c93d 0cb8 1dbd
000001c0: f9e9 e8bd 40fb 72bd 4234 d0bd 3e7f a23d
000001d0: 4045 18bd 0ac3 aabd 10e1 4abc fcfa 4ebd
000001e0: 7cdc e43d 4052 753d d058 473d a052 ebbc
000001f0: 7806 ff3d 5843 99bc 328a c53d e060 a9bd
00000200: 2047 b7bd 00f1 93ba 404e eabd d320 43bb
00000210: 666b febd 02df dbbd 8db7 b9bc e698 cabd
00000220: 12e6 8a3d c4f3 83bd ba3e c13d 4c51 e03d
00000230: 0025 373b 92f4 01bc 5617 d8bd 7e3b 923d
00000240: 1c4b 81bd 5e41 2abd 90fc d1bd 38a1 d4bc
00000250: 6002 83bc a089 563d f0c7 03bd f170 d43d
00000260: fced 93bd b4ea 8bbd 484e bcbd f43e 033d
00000270: 6abb 853d 33cb d6bd 8206 92bd 4c2c e63d
00000280: b485 d3bd 850d 663b e8af 5c3d 4c0b eabd
00000290: 51d0 833d c6df c73d 4e9b f0b9 aa87 d8bd
000002a0: cc77 b03d 7492 7c3d d274 92bd 4c27 1b3d
000002b0: 8c7a c53d f8be 42bd 8158 df3d e29b 853d
000002c0: d185 a73d 8e59 c1bd ae50 903c f625 973d
000002d0: 4a81 83bd 444d 0d3c bcda 093d 4031 4d3c
000002e0: a078 053c 675c 003d a0ff 693c 947a c0bd
000002f0: 8424 b1bd 3c3f 80bd 603b 25bc 0a37 b6bd
00000300: 882a 1ebd d2d1 aa3d 04a8 69bd e69b 59bc
00000310: a091 c2bb 4f5a d7bc d3b3 793b c42a 093d
00000320: a046 08bc 8014 91bb 2efc 96bd 88cf 35bd
00000330: 52c7 a5bd c9d3 dd3c e099 66bc b0e3 ecbd
00000340: 50b1 61bd fd80 fbbd 58ea a13c ec05 95bd
00000350: b4b6 b8bd cca8 e1bd e8fc b93d 8297 b13d
00000360: a478 78bd 9c38 ea3d e847 efbc e012 7abd
00000370: c8b5 b9bc 082f 5c3d b206 253d 7ae2 87bd
00000380: 284b 103d a0c8 583d 8427 263d 6830 8abd
00000390: 861a 81bd ecb6 22bd ecbe da3c 0054 c9bd
000003a0: 50f5 a23c 20cb 4dbc 7615 e13d b4ef 8e3d
000003b0: 0811 ee3c f0b8 c6bd 86bc f2bd 0a4f f43d
000003c0: 8612 d33d 680e cdbc f839 8e3d 1868 17bd
000003d0: bf38 cdbd 68c1 92bd ae0f 883d 28b7 80bd
000003e0: e200 d0bd 59b7 cc3c eab3 c2bd 60dc 0e3c
000003f0: 744b eb3d c0a8 6d3b b05e 62bc 9ae1 a03d
-0.02833809 -0.10198215 0.092728734 -0.12886731 0.08763018 -0.09074228 0.0661212 0.035969123
0.04019469 -0.040349886 0.0955897 -0.04594502 -0.063795164 -0.036208004 -0.0454302 -0.06511217
0.047187716 0.031217568 -0.058289483 0.02120006 -0.08106534 -0.08637217 0.07820277 -0.0790041
0.07650535 -0.03034319 0.10585795 -0.092347905 -0.0085038245 -0.048807323 -0.12681411 0.073352456
0.04259011 -0.08825332 -0.035363242 -0.025053024 -0.055842333 0.08681773 -0.09632941 0.0018769652
-0.013410479 0.010620043 0.037702143 -0.1154716 -0.08684388 -0.08215301 0.03652069 -0.017242998
-0.11328621 -0.072466224 0.045033112 0.009134203 0.070287295 0.027515985 -0.04639478 -0.10487045
-0.07129438 0.024848983 -0.121636644 -0.07090561 -0.10333258 0.0007867813 0.031015977 -0.033781737
0.10160582 0.10284312 -0.06996119 0.027060205 0.02072604 -0.06591413 0.07875148 -0.065020084
0.043102995 0.044933647 -0.028581738 0.0059874803 -0.08764166 -0.10840915 -0.06309092 -0.07698651
-0.072540164 -0.06728487 -0.047992736 -0.0999594 0.0772461 -0.12310912 -0.075495616 0.09907893
0.012500897 -0.0031667948 0.055074885 -0.07765874 -0.04420647 0.021034947 -0.031055901 0.0422948
-0.007515222 0.055452157 0.03721045 0.121588886 -0.10429334 0.08612174 -0.11236484 -0.066024154
-0.04070796 0.07907854 0.08276422 0.020082831 -0.053199783 -0.08599298 0.09838721 -0.0385056
-0.11372752 -0.059321642 -0.101662174 0.07934426 -0.037175417 -0.08337982 -0.012382761 -0.050532326
0.111748666 0.059892893 0.048668683 -0.028725922 0.12452406 -0.01870887 0.09645499 -0.082704306
-0.08949113 -0.0011287034 -0.11440706 -0.0029774203 -0.124228284 -0.10735895 -0.022670532 -0.09892444
0.06782164 -0.06442979 0.09435792 0.10953006 0.0027945638 -0.007931845 -0.10551326 0.071402535
-0.06313154 -0.041566245 -0.102532506 -0.025955781 -0.015992343 0.052377343 -0.032173097 0.10373104
-0.07223126 -0.068318754 -0.091946185 0.03204246 0.06529887 -0.10487976 -0.071301475 0.11238918
-0.10328236 0.0035103273 0.053878695 -0.11427936 0.064362176 0.09759478 -0.00045892078 -0.10572751
0.086165994 0.061663106 -0.07151188 0.037879273 0.096425146 -0.047545403 0.10905553 0.06523873
0.0817982 -0.09440909 0.017616596 0.07380287 -0.06421144 0.008624379 0.033655867 0.012523949
0.008146435 0.03133812 0.014282137 -0.0939838 -0.08649543 -0.06262061 -0.010084957 -0.088972166
-0.03861478 0.08340801 -0.057044998 -0.013281798 -0.00593777 -0.02628818 0.0038101568 0.03348805
-0.00831762 -0.0044274926 -0.07372318 -0.04438737 -0.08094658 0.027078526 -0.014074773 -0.115668654
-0.05510074 -0.12280462 0.019765064 -0.0727652 -0.09019223 -0.110185236 0.09081441 0.08671476
-0.060661927 0.11436579 -0.029209092 -0.061053157 -0.022669688 0.05375579 0.04028959 -0.06634994
0.035227925 0.052925706 0.04056503 -0.06747514 -0.06303887 -0.03972523 0.026702367 -0.09830475
0.019892365 -0.012560636 0.109904215 0.069793135 0.029060856 -0.09703243 -0.11852364 0.11929138
0.103062674 -0.025031283 0.069446504 -0.036964506 -0.10020589 -0.071657956 0.06643616 -0.06284934
-0.101564184 0.02498977 -0.09506972 0.008719534 0.11489001 0.0036263913 -0.013816521 0.0785553

lstm.weight_hh_l1 f4 [256, 64]
00000000: d0b9 93bd 9f30 0a3e 5fd7 21bd 0829 723d
00000010: 94a6 95bc 5092 c1bd 9303 e7bd 319a 1a3d
00000020: 5a85 f53d 0aa5 83bc 0883 873c a963 cb3d
00000030: d2b8 bfbc d1ac c5bd 0978 0cbe 56fb aa3c
00000040: b8fa a13d 5a15 fcbb eaf7 cb3d 0ee8 043c
00000050: e440 91bd 5959 8d3c 411e 043e 5214 a9bd
00000060: a3e2 8b3b a1bc d0bd 9685 813d 5d5d 8e3d
00000070: 11b3 dbbd ffd6 babd 3902 58bd 22a6 8dbd
00000080: f77c 933a 1570 d83c 1ae6 4bbd 1498 1abc
00000090: 8335 953d ab00 db3c 3834 74bd 36ba dfbd
000000a0: a591 4fbd ba56 09be f7a9 a5bd 5efb b5bd
000000b0: 2d15 9dbc 298f c9bd f701 0a3e f030 3dbd
000000c0: b54b 8f3b 2bf3 a4bd 641f fdbc a213 05bd
000000d0: 94f4 f2bc 3389 2cbd 356c 0bbb fa98 363d
000000e0: f554 ccbc 8e48 bfbd 9db3 d1bc e9a8 813d
000000f0: 21ce 133d 01b4 2cbd 66f9 4dbd f538 bcbc
00000100: acb5 e9bc 8dbc c83d 0f85 b23d a2fd 91bd
00000110: e6fa 6ebd 7e70 0dbe dfce ebbd 1e49 7cbd
00000120: adef 113e fa9d f33d 1485 4c3c 76cd e9bd
00000130: dd37 d13b 0f24 903c 3e02 c93d ae02 ab3c
00000140: de42 0a3e afe0 8abd 7cdf a4bd 773a 4a3d
00000150: 5e98 2f3c 18f6 a73d 3877 fdbc b815 93bd
00000160: 3960 3bbd abcd c3bc dae8 13bd 5e1b a4bc
00000170: 850c d9bd ff51 b33c 1bc3 913d a17e 9ebd
00000180: 4b5e 343d 731e 0dbd 9a8c de3d 2edd cbbd
00000190: c2e9 95bc 5f23 f43d 56f5 0cbe c674 ccbd
000001a0: 31c7 043d fbfa cd3d c3dd 4ebd 6fad eabd
000001b0: f1dd b43d ea3a fcbd 4dbd ce3d 2180 0cbe
000001c0: 84ce 29bd 991f 9ebd c4b2 343c b6b0 cb3b
000001d0: 5af8 d2ba 2cb6 723d 89ec fcbd 18cc 983d
000001e0: 06aa 0f3e 652c 843d 3b42 eebd 94a8 223d
000001f0: f414 c03d 06e2 aa3d 45e4 6cbc 3631 1ebc
00000200: 6361 e8bc 73c0 e2bc 503a d4bd 4c39 b23c
00000210: 9ec1 063d 2a57 3b3c 8787 ebbd eca4 233c
00000220: f41c 593c ea5d 383d 0b99 fcbd 7587 a43d
00000230: b3e6 a43d 7d48 e33d 9073 b43d a399 a13d
00000240: e04a 793d 4143 aa3d 078d f63c eebd 0a3d
00000250: e639 8c3d d7a0 bfba a784 1b3d 1c47 123e
00000260: b569 0cbd fef9 923d 4511 6ebd 600b a3bc
00000270: c819 3bbd 6268 be3d 781c ed3d 2221 853d
00000280: ccc6 12bd 4f2d ccbc faec bebd 3d78 54bd
00000290: 5b89 2d3d 9884 3fbc c9ed 1bbd af7f 05be
000002a0: c2c5 c7bd 1780 3fbd e800 ab3d 6886 e1bd
000002b0: 20e1 b8bd 8e43 85bd e003 78bc dd00 e43c
000002c0: 042a b73d 94c2 cf3d a188 aa3d ed03 7dbd
000002d0: 3e6d 0fbe 2b5c c13d e0ac 80bd 1cfa d7bd
000002e0: 75fa 22bd 68b3 593d e812 6a3d 4b2a 0a3d
000002f0: a180 243d abb3 b13b 320d db3d 3ac8 bc3c
00000300: e254 e2bd 3495 21bc c324 bf3d 352e 823c
00000310: 95cb e43d 5b65 e83c 6924 85bd 5139 dcbd
00000320: e07a 5f3d 4c10 e93c ddde 7f39 ded9 8c3b
00000330: b208 113d 3024 0bbd 85bf dc3d 5b11 a93c
00000340: 9626 de3d 8b93 ac3c d77f 233a a3ef abbd
00000350: 7c73 e23d 9f7d dabc 3c27 85bd ff9d 113e
00000360: f24a 863b d5db 83bc 5973 5bbd 3cf3 cb3c
00000370: 4f7e a8bd a4c0 9a3d fe2a f9bc aaf6 85bd
00000380: 14ff 0fbc ec9a 473c bcd0 bfbd 242b 033d
00000390: 1d99 debc ab95 943d 405b 9cbd 888a af3d
000003a0: 8550 d5bd a424 c83d e84b ba3d 74d9 53bd
000003b0: af92 3abd 6161 c83d acab e43c 3f39 9dbd
000003c0: e120 583c c445 7b3d 3a51 10be 6be9 d5bc
000003d0: 46dc e33d 6356 073d 298d a3bd 3481 f4bd
000003e0: 6bf6 83bd 7f52 923d 6d07 d7bd 9887 a6bd
000003f0: 8975 b4bd 02d6 7abd f15a ec3d 41a0 f63c
-0.07213175 0.1349511 -0.039512035 0.05912116 -0.018267907 -0.09451735 -0.112799786 0.037744705
0.119883254 -0.016069908 0.016541973 0.09931118 -0.023403559 -0.09652103 -0.13717665 0.0208718
0.07909149 -0.007692975 0.09959395 0.008111967 -0.07092455 0.017254518 0.12902166 -0.08255829
0.0042689606 -0.10192228 0.063243076 0.069514014 -0.107275136 -0.091230385 -0.052736495 -0.06916453
0.0011252452 0.026420632 -0.04977999 -0.009435672 0.07285597 0.026733717 -0.059620112 -0.10924189
-0.050676007 -0.1341199 -0.08089059 -0.08885835 -0.019175136 -0.09841759 0.13477312 -0.04618925
0.0043730387 -0.08054193 -0.030898757 -0.032489426 -0.02965764 -0.04212303 -0.0021274213 0.044579484
-0.024942854 -0.093400106 -0.025598342 0.06331045 0.03608525 -0.042163853 -0.050286673 -0.022976378
-0.02852901 0.09801588 0.08716785 -0.07128455 -0.058344744 -0.13812444 -0.11514067 -0.061593167
0.14251585 0.11895366 0.0124829 -0.11416142 0.0063848333 0.01759532 0.09814881 0.020875301
0.1350207 -0.06781136 -0.08050439 0.049372163 0.0107174795 0.082012355 -0.030940637 -0.07181877
-0.045746062 -0.023901781 -0.036110736 -0.020032581 -0.10598091 0.021889685 0.071172915 -0.07738996
0.044035237 -0.034452867 0.10866661 -0.09954296 -0.018299941 0.11920809 -0.13765463 -0.0998321
0.032416526 0.10057636 -0.050504457 -0.11458861 0.088313945 -0.123159245 0.100947 -0.13720752
-0.041456714 -0.077208705 0.011028949 0.006216134 -0.0016095743 0.059255764 -0.12349803 0.07460803
0.14029703 0.0645378 -0.11633726 0.03971155 0.093789965 0.08343892 -0.014458721 -0.0096552875
-0.02836675 -0.027679658 -0.10362685 0.021755837 0.03289949 0.011434356 -0.11500459 0.009988051
0.013251532 0.04501144 -0.12333878 0.08033649 0.08051815 0.110978104 0.08811104 0.07890632
0.060862422 0.08313609 0.030096544 0.033872537 0.06846981 -0.0014620078 0.037968304 0.14284939
-0.034280498 0.071765885 -0.05812194 -0.019902885 -0.045678884 0.09297253 0.115776956 0.0650046
-0.03583412 -0.024923949 -0.093225434 -0.05187248 0.04236732 -0.011689328 -0.038068566 -0.13036989
-0.09754516 -0.046753015 0.08349782 -0.11011964 -0.09027314 -0.06507026 -0.015137643 0.027832443
0.08943561 0.10144535 0.08326841 -0.061771322 -0.14006516 0.09441408 -0.06282973 -0.105457515
-0.039789636 0.05314961 0.057146937 0.03373174 0.040161733 0.0054230294 0.10695876 0.023044694
-0.11051346 -0.009862233 0.093331836 0.015891174 0.11171643 0.028368643 -0.06501085 -0.1075312
0.054560542 0.028450154 0.00024401718 0.0042984327 0.035408683 -0.033970058 0.10778717 0.020638159
0.108472034 0.021066448 0.0006237006 -0.083953165 0.11057183 -0.026671229 -0.06501624 0.14220427
0.0040982896 -0.016096035 -0.0535768 0.024896257 -0.082272165 0.075562745 -0.030416008 -0.06541188
-0.008788843 0.012182932 -0.09365985 0.032023564 -0.02717262 0.072551094 -0.07634592 0.085713446
-0.104157485 0.09772614 0.09096509 -0.05172105 -0.045550045 0.097841986 0.02791389 -0.076769345
0.013191433 0.06134583 -0.14093485 -0.026112279 0.11125998 0.03304137 -0.079859085 -0.11938706
-0.06443485 0.07144641 -0.10499463 -0.08131331 -0.088114806 -0.06123925 0.11540783 0.030105712

lstm.bias_ih_l1 f4 [256]
00000000: 704d 453d b726 a63d ce3c e83c f7a6 933d
00000010: bf5a bc3d 594f bf3c ac76 643d 5af3 ba3c
00000020: 2346 f33d a83d 18bd dc92 b1bd 74c1 abbd
00000030: d08f 50bd a674 8bbd e595 95bd 91d9 ed3d
00000040: 8084 28bd 4661 2d3d 0dd8 14bd d26b 903d
00000050: 668b afbd 133b d73d 33bf 103e 98a7 5e3d
00000060: 0444 80ba 7df8 baba 7523 293d a233 c23d
00000070: 9b87 913c 8ccd afbd 46b1 d53d 004a c03d
00000080: 55d3 0e3e 6a64 863d 6aff 9dbd c02e a4bd
00000090: 168a 04bd 6ead 12bd 2ac0 7b3c 4203 3b3c
000000a0: 1151 b13d eaf5 47bd dd5f 413d 508b d1bd
000000b0: 214d e13c 33b7 c2bd 595c a13d b3b3 0c3e
000000c0: 78cb a83d 15c2 973d 68b3 073c 0b6b fa3d
000000d0: 1c58 753d ad2f bc3c a92a adbd 36e0 5ebc
000000e0: 9bac 563d 92ec b23d 9406 d13d 835b 92bd
000000f0: 02a5 ba3d 6624 e8bd 3ebc b53d e8ca 903d
00000100: 6680 99bc 552e 44bd 00a8 7fbd c7e1 5b3d
00000110: 2eb5 a73d a9c4 8d3d 294c 66bd 8f85 d23b
00000120: b142 d4bd 7487 00bc ec4a dcbd 8931 ee3d
00000130: 77f9 573d 7f6f aa3c ede1 833d bff2 b93c
00000140: b640 b6bd 242a 703d 0b03 a53d 6b0f af3d
00000150: c12d 25bd 1c3b de3d 4b9a 97bd 070f b5bd
00000160: 7082 8c3d 1542 bebd 50e2 a9bc 4aad 0d3e
00000170: 1013 35bd 24d9 95bd f39e 513d 0307 093e
00000180: f787 88bd dc43 a3bd 6aeb 32bd 6c97 c23d
00000190: f981 933c d8c0 033e d8c6 a73d 5769 22bd
000001a0: 6523 86bd a230 f13d c815 dabd 4643 87bd
000001b0: 3f31 a93d 9aa9 a6bd 7e62 0d3e de2b da3d
000001c0: 7d36 ff3c 89eb 0c3e 590a 64bd 8405 093d
000001d0: b08a a0bd a85c 7cbb a692 03bd 1818 bfbd
000001e0: 0fa7 5d3d 580f bdbc 0b1c 36bc e379 79bd
000001f0: d2f8 50bc eb0d f9bd 51d5 d9bc a497 c43d
00000200: 5e0a 913d d605 0d3e 2e7f 4abd 84f0 8bbd
00000210: a53a 593c 429b bf3d c620 f8bc 0fae d0bd
00000220: 7428 c3bd a4d9 b93d 0a83 b63d f8ec af3d
00000230: 2164 10bd 75f4 2cbd 7c7a 803c d026 6a3a
00000240: 341c b33d 6bb4 9ebd e76e b53b e28a 91bd
00000250: 3cdf 39bd e97f 953d 9e79 48bd c0ec 88bd
00000260: cec5 01be 2ba4 c9bb 4a66 45bd 629b d0ba
00000270: aff5 84bd 87ab 80bd 669a c9bd f233 c7bd
00000280: 8677 e23d 3612 d4bd 29f5 813d e894 8abd
00000290: d085 b43d 38a3 173d 7265 cdbd 5fa3 c136
000002a0: 6916 d8ba f468 09bc c6f8 87bd c232 50bd
000002b0: ad50 da3d 0acb e2bd 31cb fc3d 7aa4 d23c
000002c0: d152 26bd 5137 023d 9c12 6c3d f377 c33d
000002d0: bbbd 25bc 971e acbd 18e5 04bd 7ebc 753d
000002e0: 16c2 9ebd 8fad f33d f489 bdbd 0b36 f7bd
000002f0: 0421 533c 4384 cd3d bfab 053e d135 b63d
00000300: 04c2 c1bd 951b 183e 812c a23d 1bca 213d
00000310: 489f 1dbd a54d 4b3d 352a 243d 8a86 883d
00000320: 88c1 853d 7521 38bd 0c55 d5bd d761 bebc
00000330: be6b ed3d 09eb d43d d437 e03c e107 653d
00000340: 2b9a 84bd 82a1 b5bd dc9a ce3d 29ba c4bd
00000350: b2a8 b4bc 83c6 933d 28fd 343d ba83 093e
00000360: d242 863d 8eb2 013e dcf9 893d 2507 1938
00000370: 8e4e ee3d 13f6 7e3d 2e82 db3d 57c5 3b3c
00000380: 069f a93c b08f 173d 99d8 58bd b7da 9abc
00000390: 13cc a1bd 653a 103e 5b6a 8abd a810 e23c
000003a0: 3705 88bb 1fca 9f3d 0bae b63d 457a be3d
000003b0: 23e9 6f3d 32d1 eabc 261a 8f3d a48f 04bd
000003c0: 70b3 c33d b7b7 113d 2409 a4bd d8fc da3d
000003d0: dc32 36bd e95a a3ba 8f87 b23d eb04 c73d
000003e0: 4400 58bd 64e1 f03d 7a93 063e 5286 013e
000003f0: c5b9 96bd 88a1 39bd 5f64 3bbd 6cce 983b
0.048169553 0.08112853 0.028349306 0.072095804 0.09196996 0.023353266 0.055777237 0.022821117
0.11878612 -0.037168175 -0.08670589 -0.08386508 -0.0509184 -0.06809358 -0.07303981 0.11613763
-0.041141987 0.042329095 -0.036338855 0.07051815 -0.0857151 0.105093144 0.14135437 0.05435905
-0.0009785895 -0.0014264729 0.04129358 0.094825044 0.017764857 -0.08584127 0.10434203 0.093891144
0.13947804 0.06562121 -0.07714732 -0.08016729 -0.03235825 -0.035809927 0.01536564 0.011414351
0.0865804 -0.048818506 0.047210563 -0.1023165 0.027502598 -0.09507599 0.07878942 0.13740425
0.082419336 0.07410065 0.00828252 0.12227448 0.05989848 0.022971952 -0.084554024 -0.013603261
0.052410703 0.087365285 0.10206333 -0.07146361 0.09113504 -0.113350675 0.08873795 0.07069951
-0.018737983 -0.04789575 -0.062416077 0.053682115 0.08188854 0.069222756 -0.056224976 0.006424613
-0.10364283 -0.007844795 -0.10756478 0.11630542 0.052728143 0.020805119 0.06439576 0.022698758
-0.088990614 0.05863394 0.08057221 0.085478626 -0.040326837 0.10851118 -0.07402476 -0.08840757
0.068608165 -0.09289948 -0.020737797 0.13835636 -0.044207633 -0.07316807 0.051176976 0.13381581
-0.06666558 -0.079719275 -0.04368154 0.09501538 0.018006312 0.12866533 0.08192223 -0.03965124
-0.0654972 0.11776854 -0.10648686 -0.06604628 0.08261346 -0.08137818 0.13807103 0.10652898
0.031153912 0.13761725 -0.05567393 0.033452526 -0.078389525 -0.0038507376 -0.032122277 -0.093307674
0.054114398 -0.023078606 -0.011115084 -0.060907256 -0.012754636 -0.12160858 -0.026590975 0.09599236
0.070820555 0.13771757 -0.049437694 -0.06832984 0.013258611 0.09355785 -0.030289065 -0.10189449
-0.095292 0.09074715 0.089117125 0.0859012 -0.03525174 -0.04222532 0.015683405 0.0008932175
0.08745614 -0.07749256 0.005536902 -0.07106568 -0.04537891 0.072997876 -0.04894411 -0.066857815
-0.12673113 -0.0061536036 -0.048193254 -0.0015915448 -0.06492173 -0.06282716 -0.09843902 -0.09726705
0.110579535 -0.10355036 0.06345589 -0.06766683 0.08814585 0.037020892 -0.10029115 5.770867e-06
-0.0016486171 -0.008386839 -0.06639247 -0.050829656 0.10659919 -0.11073883 0.12343443 0.025713194
-0.040606324 0.031791035 0.057634935 0.09544363 -0.010116036 -0.08404272 -0.032445043 0.059994213
-0.07751863 0.11898338 -0.09254828 -0.12070855 0.0128862895 0.100349925 0.13053797 0.088969834
-0.09460834 0.14854272 0.07918645 0.039499383 -0.03848198 0.049634594 0.040079314 0.06666286
0.06531054 -0.044953782 -0.10416612 -0.023240013 0.11592816 0.10396392 0.02737037 0.055915717
-0.06474718 -0.08868696 0.10088131 -0.0960582 -0.022053096 0.072155975 0.04418674 0.13429156
0.06555714 0.1266577 0.0673711 3.6484696e-05 0.11636077 0.062246393 0.10718189 0.011460624
0.020705711 0.037002265 -0.05294094 -0.01890312 -0.07900252 0.14084776 -0.06758567 0.027595833
-0.0041510123 0.078022234 0.08919915 0.09300665 0.058571946 -0.028664205 0.06987409 -0.03236355
0.09555709 0.035575595 -0.08009556 0.10692757 -0.044482097 -0.0012463006 0.08717262 0.09717735
-0.05273463 0.1176174 0.13142195 0.12648895 -0.073596515 -0.045320064 -0.04575002 0.0046632793
