models/API3USDT_lstm_20250822_023650.pth (torch, 267829 bytes, 11 tensors)

lstm.weight_ih_l0 f4 [256, 53]
000000 e2 8b 9c bd 80 32 41 3c 4c ec 6d bd 20 da fe 3d
       -0.07643868 0.011791825 -0.05808668 0.12443948
000010 92 d5 f7 bd 7a 20 c5 bd 50 21 5e bc 88 07 4a 3d
       -0.12101282 -0.09625335 -0.013557747 0.04932359
000020 40 d1 76 bc f4 f2 8c bd ae 52 e9 3d 16 b0 81 bd
       -0.0150645375 -0.06882277 0.11392723 -0.06332414
000030 da 17 8c 3d ec b8 df 3d c0 52 aa bb 5c ab 4a 3d
       0.06840487 0.10923943 -0.005197853 0.049479827
000040 4e 44 9d bd 3a 3e d7 bd 00 5c 6b 39 00 5a 34 bd
       -0.07679044 -0.10509916 0.00022445619 -0.044031143
000050 f2 02 c5 bd ec c1 e6 bd 44 e8 f2 3d 80 1d 00 3c
       -0.096197024 -0.112674564 0.118607074 0.007819533
000060 d0 65 e4 bd 9e 95 c8 3d 90 63 16 3d f0 aa ca bc
       -0.11152232 0.09794162 0.036716044 -0.024739712
000070 ec 0a 09 3d 94 9f 98 bd d4 31 c3 bd 38 a6 16 bd
       0.03345768 -0.07452312 -0.09530988 -0.036779612
000080 1a 5c cf 3d 20 d6 d4 bc 1c a3 c5 bd 12 00 96 3d
       0.10124989 -0.025981009 -0.09650251 0.07324232
000090 b0 b3 e8 bd 96 ff 89 bd 92 f7 b2 3d e6 15 a8 bd
       -0.11362398 -0.06738202 0.087386265 -0.08207302
0000a0 b2 37 f1 bd 4a 6a f2 3d 78 12 a2 3c 2c 9c c4 3d
       -0.11778201 0.11836679 0.019784197 0.096001
0000b0 cc e2 51 bd d0 1d 4b 3c 70 4c b9 3d 90 47 b8 3c
       -0.05124168 0.012397245 0.090477824 0.022495061
0000c0 8e 33 b9 bd 1a 97 81 3d f4 16 e5 3d 80 86 a4 bd
       -0.090430364 0.063276485 0.111860186 -0.08033466
0000d0 fe 71 c6 3d 40 4f 9e bb a0 23 e5 bc 40 0a 77 bc
       0.09689711 -0.0048312247 -0.027971089 -0.015078127
0000e0 84 40 7f bd a0 f0 d2 bb 18 b0 c2 3d e4 67 3b bd
       -0.062317386 -0.006437376 0.095062435 -0.045753375
0000f0 20 cb 9a bc 6c 50 a9 bd d0 f6 0a 3c 84 bc bd 3d
       -0.018895686 -0.082672924 0.008481696 0.09264472
000100 18 cb 60 bd ea de f5 bd 00 dd ea bc 30 f6 de 3c
       -0.054881185 -0.12005408 -0.028669834 0.027217
000110 9e 62 9a bd e4 88 33 3d 8e cc c2 3d 92 75 f6 3d
       -0.07538341 0.04383172 0.09511672 0.120341435
000120 b0 42 62 3c 82 d8 97 bd 3e 4e aa 3d cc 99 d4 3d
       0.013809845 -0.074143425 0.08315705 0.10380897
000130 fe da e8 bd 72 cd 85 3d cc df c0 3d bc 84 81 bd
       -0.113698944 0.06533326 0.09417686 -0.06324145
000140 38 ea 3c bd 84 fe f6 bd 44 6c df 3d 70 91 77 3d
       -0.046121806 -0.12060264 0.10909322 0.060441434
000150 44 d0 34 bd c4 41 70 bd ae 8a d9 3d 70 37 b6 bc
       -0.04414393 -0.05865647 0.10622154 -0.022243232
000160 16 e0 91 bd a0 97 66 3d b0 cf 63 3c e0 55 f9 3c
       -0.07122819 0.056296945 0.013904497 0.030436456
000170 f0 07 13 bd e4 46 0d bd d4 97 fc bd 88 2d a4 3c
       -0.03589624 -0.034491435 -0.123336464 0.020041242
000180 80 39 f5 3c 50 4f 7c 3c 40 2c c9 bc e4 99 f2 bd
       0.029934645 0.015399769 -0.024557233 -0.118457586
000190 50 ca 77 bc 36 b7 a6 3d da c8 bd 3d c0 be 9b bb
       -0.015123919 0.081404135 0.09266825 -0.004752964
0001a0 3c ed 24 bd f0 69 07 3c 38 a3 6e bd f0 30 c8 bc
       -0.040265307 0.008265004 -0.058261126 -0.024437398
0001b0 64 74 41 3d ae f9 ec bd bc 36 ce 3d e0 3d c1 bc
       0.04723014 -0.1157106 0.100690335 -0.023589075
0001c0 66 30 89 3d 3c 88 6f 3d 20 c3 36 3d 00 91 71 bd
       0.066986844 0.058479533 0.04461968 -0.058976173
0001d0 e0 d5 29 3d 34 7a 43 bd fc 5e 9d bd a2 93 8a 3d
       0.041463733 -0.047723964 -0.076841325 0.0676644
0001e0 c2 4f 8d bd 9e e0 d8 bd dc 8f 39 bd 5e 0c e5 3d
       -0.06899978 -0.10589717 -0.04530321 0.111839995
0001f0 a0 fd bb 3d 00 ce 86 b9 8c 66 00 bd 3c 54 3f bd
       0.091792345 -0.00025711954 -0.031347796 -0.04671119
000200 58 8c 23 bd 18 8a fb 3c de 61 bc bd 1e b4 e9 bd
       -0.039928764 0.030705497 -0.09198354 -0.11411308
000210 0c 33 8a bd d0 16 45 bc 50 f7 8a bc d4 47 ac 3d
       -0.06748018 -0.012029365 -0.01696363 0.08412138
000220 24 46 39 3d 42 a2 aa bd 00 39 aa 3a 94 54 97 bd
       0.045232907 -0.083317295 0.0012986958 -0.07389179
000230 9e ba e2 bd 90 b9 e4 3d 86 88 fd bd 5c 8c 2f bd
       -0.11070751 0.11168206 -0.123795554 -0.042858467
000240 74 d7 73 3d 14 43 b3 bd ca 5d 83 3d 2c ad f6 bd
       0.059531644 -0.087530285 0.06414373 -0.12044749
000250 68 b1 82 bc 66 0f d3 3d 9c 67 0c 3d 94 44 97 3d
       -0.015953735 0.103056714 0.034278497 0.07386127
000260 1a e0 f1 3d 00 d3 57 bc 98 ed 96 bd f8 8c 4f bd
       0.11810322 -0.013172865 -0.07369536 -0.050671548
000270 1c 80 e0 bd 10 ad 73 3c a0 d0 71 bc 70 79 d4 3d
       -0.10961935 0.014872804 -0.014759213 0.10374725
000280 38 d1 99 bd 80 72 c9 3b f4 e7 57 3d e0 f5 88 bd
       -0.075106084 0.0061476827 0.052711442 -0.06687522
000290 9a ec ac 3d 8c 2a d7 3d 04 cc 3a bd 42 9e 84 bd
       0.08443566 0.10506162 -0.04560472 -0.06475498
0002a0 76 13 c2 3d 48 7b e5 bd d2 61 e9 3d 98 cb b2 bc
       0.09476368 -0.11205155 0.11395611 -0.021825597
0002b0 68 3c d9 bc 96 22 ba bd 5e 5b e9 3d d4 0e b7 bd
       -0.026518062 -0.09088628 0.1139438 -0.08938375
0002c0 94 a0 d7 bd c0 1e 2c 3b 02 be 8d 3d 50 28 17 bd
       -0.10528675 0.0026263446 0.06921007 -0.03690368
0002d0 e4 9e d1 3d 04 ff 21 bd f8 fa a2 3c e2 4a dd 3d
       0.10235384 -0.039549842 0.019895062 0.108052984
0002e0 18 51 4d bd 20 47 0f bc 70 2f 97 3c d4 49 4d bd
       -0.050126165 -0.008744985 0.018455237 -0.050119236
0002f0 e8 ee bd 3d 00 86 cb bb d6 2d d5 3d 22 91 8d bd
       0.092740834 -0.0062110424 0.10409133 -0.069124475
000300 0e 12 b5 bd 9c 6a da bd 00 6b 75 3b 98 8e 4e 3d
       -0.08841334 -0.106648654 0.003744781 0.050428957
000310 a2 82 cb bd f0 91 a7 bd 5c d8 e0 bd 9c 4e 26 3d
       -0.099370256 -0.08182132 -0.10978767 0.04060231
000320 7c 02 30 bd 10 5a 99 3d c0 4f f1 bd 9c 4c 63 bd
       -0.04297112 0.07487881 -0.11782789 -0.055492982
000330 3a 56 e1 bd 7a 8a b2 3d 0e 3c 80 3d 40 13 1b bc
       -0.110027745 0.087178186 0.062614545 -0.009465039
000340 e4 e0 c0 3d 60 10 b1 3b f0 44 b7 bc 82 dd cf 3d
       0.094178945 0.0054035634 -0.02237174 0.10149671
000350 c4 7a 6c 3d 6c bb 91 3d d0 a1 69 bc 2a 6f 99 3d
       0.057734266 0.07115826 -0.0142597705 0.07491906
000360 20 d3 d1 bd f0 6a e7 bd ec 5e d2 3d b0 94 23 bc
       -0.10245347 -0.112996936 0.10272011 -0.00998418
000370 08 29 31 bd ac c6 67 bd 20 d8 d0 bd 50 b3 34 3d
       -0.04325202 -0.056585953 -0.101974726 0.04411632
000380 ce 26 e0 3d 6e c2 c6 bd d0 10 d2 bd 14 27 be bd
       0.109449014 -0.09705053 -0.10257113 -0.09284797
000390 62 64 c3 3d 6e ea c8 bd 80 0b 40 3d 2a 8c cc bd
       0.09540631 -0.09810339 0.046885967 -0.09987672
0003a0 b0 e3 b4 3c 10 42 ce 3c 50 46 71 3d e2 a2 a9 3d
       0.022081226 0.025177985 0.058904946 0.082830206
0003b0 30 ca 66 bd 08 8d 16 bd 42 8f f6 bd 2c e1 7e 3d
       -0.056345165 -0.03675559 -0.12039043 0.06222646
0003c0 6e df 98 bd 0a 58 9c bd 1c 9a f5 bd a2 12 87 3d
       -0.07464491 -0.076339796 -0.11992285 0.06595351
0003d0 20 86 dd bd 70 da 62 bd 54 73 bd bd f0 f8 11 3d
       -0.10816598 -0.0553841 -0.09250513 0.035637796
0003e0 40 34 5e bd 34 15 2a bd 82 12 d0 bd 78 09 25 bd
       -0.05424905 -0.041524127 -0.1015978 -0.040292233
0003f0 00 8e 8e ba fa 22 bb bd b8 d7 ab bd 02 4e f8 3d
       -0.001087606 -0.091375306 -0.083907545 0.12124254

lstm.weight_hh_l0 f4 [256, 64]
000000 48 16 bd 3d ba 20 e9 3d 20 e7 a6 bc 5a 24 fa bd
       0.092327654 0.11383195 -0.02037388 -0.12213965
000010 b8 da 75 3d 4e a4 94 bd f0 d1 a4 3d ae 77 b9 3d
       0.06002304 -0.07257901 0.08047855 0.0905603
000020 88 61 98 bd 44 3b 1b bd f8 d0 3b 3d b2 02 f5 3d
       -0.074404776 -0.037898317 0.045853585 0.11963405
000030 ac 72 82 3d 00 ca 88 b9 ce a5 b6 bd 12 4a ef bd
       0.06369528 -0.00026090443 -0.089183435 -0.1168405
000040 80 7f 14 bd 34 12 40 bd ec 7e 54 3d f0 09 0d 3d
       -0.036254406 -0.04689236 0.051878855 0.034433305
000050 60 02 d8 3c f6 38 c6 bd a4 93 0d bd 00 25 cd ba
       0.02636832 -0.09678833 -0.03456463 -0.0015651286
000060 36 df b7 bd 16 09 db 3d 50 a9 7f bd b0 af f2 bd
       -0.08978121 0.106950924 -0.06241733 -0.11849916
000070 b0 1b 57 bd 54 4f 7b bd 40 61 f7 3c 50 d5 bd bd
       -0.05251664 -0.06135495 0.03019774 -0.09269202
000080 fa bd be 3d 58 9d a1 3c 90 d2 4b bd b2 e7 97 bd
       0.09313579 0.019728348 -0.049761355 -0.07417239
000090 38 95 b2 3c 50 df ec 3d 50 54 95 bc 74 51 1c 3d
       0.021799669 0.11566031 -0.01822868 0.038163617
0000a0 c8 3a 57 bd 40 c9 5b bc 84 fe cb bd b0 a1 3a 3d
       -0.052546293 -0.013414681 -0.099606544 0.045564353
0000b0 a4 ad e2 bd 60 fb ab bc 04 64 7e bd 92 2a d9 bd
       -0.110682756 -0.020993888 -0.0621071 -0.10603823
0000c0 00 ea 7c ba b0 46 a3 bd b2 b5 87 bd 66 b5 80 3d
       -0.0009647906 -0.07972467 -0.066264525 0.06284599
0000d0 58 3f 13 bd 04 be 09 3d 00 bd 3c bb 80 55 bb bb
       -0.03594908 0.03362848 -0.0028799176 -0.0057169795
0000e0 80 65 fe bb 90 6a a7 3d 64 2f 31 3d 6e d4 ee bd
       -0.0077635646 0.08174622 0.043258086 -0.116616115
0000f0 90 42 3e 3c 84 69 86 3d 1e 42 81 3d ee f2 c4 bd
       0.011612549 0.06563094 0.06311439 -0.09616648
000100 da d4 c1 bd 28 f9 95 bd 28 70 c2 bd c2 06 c0 3d
       -0.09464426 -0.073229134 -0.09494048 0.09376289
000110 1a c5 b0 bd 18 21 fe 3c 68 bb 88 3d 34 db 3f bd
       -0.08631344 0.03102164 0.0667637 -0.046839908
000120 90 f9 26 bd 00 e2 c7 bb 02 37 b5 bd 16 c4 ef 3d
       -0.040765345 -0.0060999393 -0.088483825 0.11707322
000130 72 91 e6 3d ee 81 dd 3d c4 7d 3c 3d b0 9c ef bc
       0.1125821 0.10815798 0.046018377 -0.02924952
000140 b4 a2 47 3d 90 8e 89 bd b0 da 65 bc 40 e6 87 bc
       0.04873915 -0.06716645 -0.01402919 -0.016589284
000150 b0 43 6b bd b8 6c 4e bd bc b0 ac 3d 80 2d 5e 3c
       -0.0574376 -0.05039665 0.08432147 0.013560653
000160 38 19 d6 bd 7e 87 d4 3d 14 65 b9 3d 20 9a 4e 3c
       -0.10454029 0.103774056 0.09052482 0.012609988
000170 8e 78 b8 bd a0 23 1c 3d 40 26 6f bc 20 8e 24 3d
       -0.09007369 0.038119912 -0.014596522 0.040174603
000180 ba 3d b5 bd 68 3e d9 bc 52 a5 e0 3d f8 fe d4 bc
       -0.08849664 -0.026519015 0.10969032 -0.026000485
000190 20 44 9b 3d b0 df bc bd 6c 7a 1b 3d 4c 75 94 bd
       0.07581353 -0.092223525 0.037958547 -0.07248935
0001a0 9c 5e 0a 3d 5c dc 3a 3d 78 46 80 bc 30 d9 7b bc
       0.033781633 0.045620307 -0.015658602 -0.015371606
0001b0 ae 3d f5 bd fe 24 f6 bd f4 fa 69 bd 78 aa 8f bd
       -0.11974655 -0.120187744 -0.057124093 -0.07014936
0001c0 f0 e1 b4 3c ec 30 0f 3d a8 a0 6e 3d 60 85 f3 bd
       0.022080392 0.034958765 0.058258682 -0.11890674
0001d0 5e 1a 81 bd 10 26 59 bd 62 2b e5 3d 00 e9 9a bc
       -0.06303857 -0.053014815 0.11189915 -0.018909931
0001e0 80 16 b2 bd 00 bd c9 bb 9e 90 df bd 1e 9a d0 3d
       -0.08695698 -0.0061565638 -0.109162554 0.101856455
0001f0 20 cc b4 bb 10 d9 be bc 20 4b fc 3c fe 93 b3 bd
       -0.0055174977 -0.023296863 0.030797541 -0.08768462
000200 e8 35 1e bd 18 fd 0e 3d 52 21 c8 3d 2c 6a fc 3d
       -0.038625628 0.034909338 0.0977198 0.12324938
000210 7c fc d7 bd c8 64 37 3d 3c 82 9c 3d 80 a1 27 3d
       -0.105462044 0.044773847 0.07642028 0.040925503
000220 c2 68 e3 bd f0 61 b7 3c 50 45 a2 3c 70 8d 71 3c
       -0.11103965 0.022385567 0.019808441 0.014743194
000230 66 84 8d 3d fc 82 ff bd c0 de 10 3b 70 ae ec 3d
       0.069100186 -0.12476155 0.0022105426 0.11556709
000240 b0 cf 3f 3d 50 7d 23 3d 0c b5 f7 3d 5c ad c8 3d
       0.046828926 0.03991443 0.12095079 0.09798691
000250 c0 d9 62 3b d8 84 89 3d c0 92 b8 bc c4 93 06 3d
       0.0034614652 0.06714791 -0.022530913 0.032855764
000260 30 b5 99 bd c2 29 9a bd 70 79 6f bc 80 e8 0e bb
       -0.07505262 -0.07527496 -0.014616355 -0.0021806061
000270 10 32 e7 3d f0 c4 1e 3c f8 0d 6e 3d 56 b1 ce bd
       0.112888455 0.009690508 0.05811879 -0.10092418
000280 80 2a d0 bc 8e 9d 9b bd 30 fb e1 3c e0 99 fd 3b
       -0.02541089 -0.075984105 0.027585596 0.0077392906
000290 30 90 05 bc 04 e2 cb 3d 04 e7 39 3d c0 e2 db bb
       -0.008152053 0.099552184 0.04538633 -0.0067103803
0002a0 44 31 11 3d 1c 2d a7 bd 3a 80 f7 3d 8a ed 86 bd
       0.035447374 -0.08162901 0.12085004 -0.06588276
0002b0 78 2f 61 3d 4c 8c a8 bd 0c af 9f bd 00 aa bc 3d
       0.05497691 -0.082298845 -0.077970594 0.092121124
0002c0 14 cd 4f bd 60 36 ab 3d 10 80 24 3d 0c 10 47 bd
       -0.050732687 0.083599806 0.040161192 -0.048599288
0002d0 24 0f 03 bd a2 90 87 bd 1e 3f f9 3d 90 57 ea 3d
       -0.03199686 -0.066193834 0.12170242 0.114424825
0002e0 16 2e fa 3d 40 b1 0f bc e0 90 de bc e0 56 d2 bc
       0.122158214 -0.008770287 -0.027168691 -0.02567619
0002f0 54 e3 5d bd d8 84 cd 3c f0 a5 15 bc f0 3a b5 3d
       -0.054171875 0.025087759 -0.009133801 0.08849132
000300 58 e2 b1 bc 14 1c dc bd 78 dc 45 bd f4 b0 76 bd
       -0.021714374 -0.10747543 -0.04830596 -0.06022735
000310 48 68 c0 bc 1c be 4a 3d 96 ae e4 bd 48 8a d0 bc
       -0.023487225 0.04949771 -0.11166112 -0.025456563
000320 90 48 91 3d 34 22 72 bd 0c 33 e5 3d 00 c0 7f bc
       0.07093918 -0.05911465 0.11191377 -0.015609741
000330 6c b8 b9 3d be 5c a3 3d ac d1 c9 3d 6a 22 8d bd
       0.09068379 0.079766735 0.09854445 -0.068913296
000340 e0 70 99 bb 00 8d 8d bc 26 19 92 bd e8 c1 bb 3d
       -0.004682645 -0.017279148 -0.07133703 0.09167844
000350 06 d4 f3 3d fc 36 23 bd 48 89 e9 bd 20 f2 e4 3b
       0.11905675 -0.03984736 -0.114031374 0.0069868714
000360 46 24 ec 3d 70 3c 7e 3c 00 77 35 3a 20 14 79 3c
       0.11530356 0.015517339 0.00069223344 0.015202552
000370 d6 68 97 bd 00 9d 81 ba b8 be cf bc 62 61 d7 bd
       -0.07393043 -0.0009888709 -0.025359496 -0.10516621
000380 a0 d1 8d bc f8 0b a1 3d 86 79 9a bd 78 c6 19 3d
       -0.017311871 0.07863611 -0.0754271 0.03754279
000390 66 1d 96 bd e0 55 4a bd c0 69 bc 3c b0 2c 82 3c
       -0.07329826 -0.049398303 0.022999644 0.01589045
0003a0 20 a2 f3 bb 08 b4 7d 3d b0 0e 54 3c e6 7a b5 3d
       -0.0074350983 0.06193927 0.012942955 0.08861332
0003b0 00 22 cc 3d a4 3a 06 bd 90 30 5a bd 60 6b 9b 3b
       0.099674225 -0.032770768 -0.05326897 0.0047430247
0003c0 40 6e 62 3c 2a d3 c0 bd 60 d4 df bb 90 09 e9 3d
       0.013820231 -0.09415276 -0.006830737 0.11378777
0003d0 48 09 fb 3d 90 12 a1 bc 00 df 92 3a c0 97 22 3c
       0.1225763 -0.019662172 0.0011205375 0.009923875
0003e0 aa 6f fb 3d 2e f2 9c 3d 44 f5 9d 3d f0 f4 2c 3d
       0.122771576 0.076633796 0.07712796 0.042225778
0003f0 ae c8 c2 3d 40 78 4d bc 54 3d f4 3d e8 5d ca bd
       0.09510933 -0.012540877 0.1192576 -0.098811924

lstm.bias_ih_l0 f4 [256]
000000 86 02 a9 3d 9e d1 d4 bd ae bb 89 bd 48 cb 5c 3d
       0.082524344 -0.10391544 -0.0672525 0.0539048
000010 e4 aa b7 bd 18 1a b0 3c f8 9e a5 bd 02 f1 bc bd
       -0.08968142 0.021496817 -0.080869615 -0.09225656
000020 60 c1 c0 3d 5e 68 ac 3d d0 32 eb bc 44 12 f2 3d
       0.09411883 0.08418344 -0.028710753 0.1181989
000030 7a 2f d6 3d 64 97 ad bd 90 cf 56 3c 62 ae 83 bd
       0.10458274 -0.08476141 0.01311101 -0.06429745
000040 e0 d6 35 bd c0 22 78 3c 74 f8 9c 3d 24 fc 6b 3d
       -0.044394374 0.015145004 0.07664576 0.057613507
000050 56 11 db bd 08 9e ea bd 28 e6 bb bc 00 e3 cf bc
       -0.10696666 -0.11455923 -0.022936895 -0.025376797
000060 30 87 53 3d 74 8f 0f 3d a0 f6 2c 3c f8 22 8d bc
       0.051642597 0.035048917 0.010556847 -0.017228588
000070 a0 93 6f bc 60 1f d6 3d 16 50 84 bd 5c 75 b1 3d
       -0.014622599 0.10455203 -0.06460588 0.08664963
000080 a4 54 3d 3d 82 d4 a5 3d cc 6c 50 bd 0c ba ac bd
       0.046223298 0.08097173 -0.050885007 -0.08433923
000090 c6 02 d0 bd a6 b1 88 3d 60 44 ea 3b 8a 17 fa bd
       -0.10156779 0.06674509 0.007149264 -0.12211521
0000a0 04 72 bf bd 50 fb d5 3d 60 46 5c bc a8 20 cf 3d
       -0.09347919 0.10448325 -0.013444513 0.101136506
0000b0 00 53 91 3d 64 43 74 3d 9a 01 a8 3d 78 24 de bd
       0.07095909 0.05963458 0.082034305 -0.108467996
0000c0 2a 24 fa bd a4 1d e8 bd 00 06 96 3b a0 82 4d bc
       -0.12213929 -0.113337785 0.004578352 -0.01254335
0000d0 08 df b1 bc 6c dc 62 bd d8 dc 84 bd 34 33 6b 3d
       -0.021712795 -0.055385992 -0.06487435 0.057421878
0000e0 ba 0d b7 bd 5c 77 f8 bd c0 8a c7 3d a0 44 eb 3c
       -0.08938165 -0.12132141 0.09743261 0.028719246
0000f0 b0 73 72 3d a0 a3 b6 bd f8 9e 72 3d 0a de b2 3d
       0.05919236 -0.08917928 0.059233636 0.08733757
000100 f0 ac e1 bc 8e 54 f9 3d 2a 41 be bd 4a 01 cd bd
       -0.027548283 0.12174331 -0.09289773 -0.100100115
000110 c0 df b0 3c 00 9f 99 bd c4 1f 83 3d 38 5a 90 3c
       0.021591067 -0.0750103 0.06402543 0.017621145
000120 f8 ad 06 bd 6e 97 90 bd dc 1f e3 bd c8 b7 64 bd
       -0.032880753 -0.07060133 -0.11090061 -0.05583933
000130 78 b0 00 3d 10 81 d2 3c e0 b8 33 bd 98 d0 e3 bd
       0.031418294 0.025696307 -0.043877482 -0.111237705
000140 42 f1 ce bd 50 d8 2a 3c 3e 94 c5 bd 40 cd 4b 3b
       -0.1010461 0.0104275495 -0.096474156 0.003109768
000150 40 33 31 3c fc f2 1f 3d 70 5b 56 3c 9c 5c 98 bd
       0.010815442 0.039050087 0.013083324 -0.07439539
000160 ec 6d cb 3d 44 37 64 3d 60 0f 66 3d 8c 06 02 bd
       0.09933075 0.055716768 0.056167006 -0.031744525
000170 64 e5 45 bd 0e 3d cd bd 80 ca 88 3c fc 92 e5 bd
       -0.048314467 -0.10021411 0.016698122 -0.11209676
000180 d0 0d db bd 92 36 84 3d 00 2f ac 3a b6 8b d9 bd
       -0.10695994 0.06455721 0.0013136566 -0.10622351
000190 60 36 b2 bb 00 49 a2 3a 50 b9 47 bc c6 86 d2 bd
       -0.005438611 0.0012381375 -0.012190178 -0.10279612
0001a0 22 87 8a 3d 50 9b 25 bd 7a b5 cd bd 4e b4 ed bd
       0.06764056 -0.04043132 -0.100443795 -0.11606656
0001b0 82 c7 ff 3d 88 60 2e bd 10 f6 bf 3c 04 e8 67 3d
       0.12489225 -0.042572528 0.023432761 0.05661775
0001c0 42 92 9b 3d 10 29 77 bd 30 fb 0e bc 70 49 92 bc
       0.07596256 -0.060341895 -0.00872688 -0.017857283
0001d0 c0 ce ee bd 5a 90 b4 3d 30 4d ad 3c 44 04 f9 3d
       -0.11660528 0.088165954 0.02115497 0.12159017
0001e0 e0 99 97 3c a0 6b 97 3d 80 9f 84 3b 10 79 99 bc
       0.01850599 0.07393575 0.004047334 -0.018734485
0001f0 d8 3c 4b bd 9c b1 e8 3d 8c f6 91 bd a0 bc 04 3c
       -0.049618572 0.11362001 -0.07127103 0.008101612
000200 08 2d 5c 3d 88 f5 4e 3d 5a cd ce bd d8 31 c4 bd
       0.053753883 0.050527126 -0.100977615 -0.095798194
000210 08 6b b1 bd 38 7a 0c 3d 80 ce ec bc 40 60 fe 3d
       -0.08662993 0.034296244 -0.02890706 0.12420702
000220 1c ed 0c bd 40 18 0d 3c 86 b2 de 3d d4 ee 2b 3d
       -0.034405813 0.008611739 0.108738944 0.04197581
000230 48 84 1e 3d 00 cf d3 3a b0 8d 91 3c 78 b6 f8 bc
       0.038700372 0.0016159713 0.017767757 -0.030360445
000240 3a d8 cb 3d a0 84 ee bb 52 53 86 3d fe 28 df bd
       0.09953351 -0.0072789937 0.06558861 -0.108964905
000250 ea c5 e7 3d f8 12 00 3d 60 82 cf bb 00 85 2a 3c
       0.11317046 0.03126809 -0.0063326806 0.010407686
000260 50 1e 09 bd ea 4d ef 3d b0 38 57 3c 1c 0e de bd
       -0.033476174 0.11684783 0.013136074 -0.10842535
000270 4c cf 0b bd 94 77 6b bd 20 d2 78 bd 30 e5 ce 3d
       -0.03413324 -0.057487085 -0.060747266 0.10102308
000280 c6 43 85 3d ac ab 2e 3d 68 86 ad bc 00 12 0f ba
       0.065070674 0.042644188 -0.021182254 -0.00054576993
000290 f8 26 a0 3c 80 41 d4 bb da 61 e0 3d 60 d7 db 3c
       0.019549832 -0.006477535 0.10956164 0.026836097
0002a0 88 ff 88 3c 70 2f 36 3d 42 0a a5 bd 90 d0 fb 3d
       0.01672341 0.044478834 -0.08058597 0.122956395
0002b0 ea 19 e7 bd 00 15 4a 3d 5c 39 89 bd a0 42 56 bc
       -0.112842396 0.049336433 -0.067003936 -0.013077408
0002c0 2a 01 f8 bd e0 66 d5 bc 18 d4 2d bd d0 f8 4c 3d
       -0.12109597 -0.026050031 -0.042438596 0.050041974
0002d0 62 fc f3 3d b0 b2 dd 3d 50 40 32 3c ee 4a 96 3d
       0.119133726 0.108250976 0.010879591 0.073385105
0002e0 3e 38 80 3d 80 e8 1e 3c d0 85 b2 bc 28 37 c0 bd
       0.06260727 0.009698987 -0.021792322 -0.0938552
0002f0 88 27 4d 3d 38 ed 8e bc 60 45 48 bc 80 a0 ee bb
       0.050086528 -0.0174471 -0.012223572 -0.0072823167
000300 80 5a ad 3d 68 93 f0 bd 14 37 23 3d 68 3f c7 bc
       0.08464527 -0.117468655 0.03984745 -0.024322227
000310 d4 f5 65 bd 80 00 29 bd 2c 8e e7 bd ac 30 3c bd
       -0.056142643 -0.041260242 -0.11306414 -0.045944855
000320 2a e2 88 3d c0 ef 45 3c 20 f8 8f 3b 9c 73 45 3d
       0.06683762 0.012081087 0.0043935925 0.048205957
000330 fa 86 e9 3d 54 31 2f 3d 74 31 28 bd 94 37 27 3d
       0.11402698 0.042771652 -0.041062787 0.040824488
000340 2e b9 e5 3d a4 5e 71 3d f2 f2 d5 bd 02 b6 bd bd
       0.11216961 0.058928147 -0.10446729 -0.09263231
000350 80 35 23 bc 42 9d ef 3d 44 38 01 3d 2c da 32 3d
       -0.009961486 0.116999164 0.0315478 0.043665096
000360 60 35 8c bc dc 01 05 bd 62 83 b4 bd 90 d1 16 3d
       -0.017115295 -0.032472476 -0.08814122 0.036820948
000370 40 e4 cc 3b 72 3c a4 bd 30 55 73 3c 62 95 c4 bd
       0.0062527955 -0.080193415 0.014851853 -0.09598805
000380 44 f2 19 3d a0 36 9e 3d 00 05 31 bb 60 9e be 3c
       0.037584558 0.07725263 -0.0027011037 0.023268878
000390 f4 d0 57 3d 42 75 c5 bd c0 bb e7 3b 3e 2e fe bd
       0.052689508 -0.09641506 0.007071942 -0.12411164
0003a0 f0 a4 08 3c c4 c3 ec bd 38 32 a0 bd 78 d6 83 bd
       0.008340105 -0.11560777 -0.078220785 -0.06437391
0003b0 b8 4b 40 3d a6 77 9a 3d cc 42 d3 3d a4 84 a2 bd
       0.04694721 0.075423524 0.10315475 -0.079354554
0003c0 aa 88 c6 bd c0 08 ad 3b 5a b5 bc bd b8 d1 e3 3d
       -0.09694035 0.005280584 -0.092142776 0.11123985
0003d0 da 9b d5 bd 4c e9 d9 3d b6 d1 a7 3d b8 04 91 3c
       -0.10430117 0.10640201 0.08194296 0.017702445
0003e0 20 34 81 3b 20 6c 47 bc e0 22 13 3d 3c e5 24 bd
       0.0039429814 -0.012171775 0.03592193 -0.040257677
0003f0 e8 9c d3 bd 94 ce 3c 3d 90 3b 52 3d 1e 9f d0 3d
       -0.10332662 0.046095446 0.051326334 0.10186599

lstm.bias_hh_l0 f4 [256]
000000 56 b4 e5 3d 84 28 f8 3d 80 f9 fd 3d 0e b6 eb 3d
       0.11216037 0.12117103 0.12401104 0.115093336
000010 0a 8a f2 3d d8 73 7d bd 8c f2 83 bd 1a 3c cf bd
       0.11842735 -0.061878055 -0.064427465 -0.10118885
000020 10 36 50 3d 3c 4b ea bd 00 02 64 3a 54 52 50 bd
       0.050832808 -0.11440131 0.0008697808 -0.050859764
000030 50 dc 5b bd 42 39 fc bd 5e 43 e0 3d 8e 38 e2 3d
       -0.053676903 -0.123156086 0.10950349 0.11045943
000040 70 fc 54 3c 30 70 65 3d 08 1c 96 3c 2c 6c f8 bd
       0.012999639 0.056015193 0.018323913 -0.12130007
000050 fe 4d e4 3d 30 52 56 bc 64 a5 77 bd 88 82 e5 3c
       0.11147688 -0.013081118 -0.060460463 0.028016344
000060 ac 22 d3 bd c8 6d 96 3d 90 cd cc bc 9c c6 95 3d
       -0.103093475 0.07345158 -0.025000364 0.07313272
000070 b8 62 c0 bc c6 dd e5 bd ec 98 b6 bd 52 9b b2 bd
       -0.023484573 -0.112239406 -0.08915886 -0.08721031
000080 e6 a7 f6 bd 7a 94 b1 bd 0c 17 de bd 94 ab 54 bd
       -0.12043743 -0.08670898 -0.108442396 -0.051921442
000090 20 f9 d0 bb 48 ef ff 3c 60 49 d7 3b 80 3d b0 3d
       -0.0063773543 0.031242028 0.0065700263 0.0860548
0000a0 c8 1c d4 3c c0 26 33 bd c8 95 7d 3d 14 8d 8f bd
       0.02589263 -0.043738127 0.06191042 -0.070093304
0000b0 b0 a4 2a 3d fa 85 af 3d 28 79 16 bd ec de 03 bd
       0.041660964 0.08570476 -0.036736637 -0.032195017
0000c0 92 b2 c7 3d 8e d8 8a bd 40 c2 1a 3d 50 02 54 bd
       0.097508565 -0.06779586 0.037782907 -0.051760018
0000d0 c0 23 f6 bd 8c 65 0a 3d 96 64 a4 3d e0 5d a7 3d
       -0.120185375 0.03378825 0.08026998 0.08172202
0000e0 a8 ee 47 3d 20 4e b0 bc 94 91 53 3d 00 fb 16 bc
       0.048811585 -0.021521628 0.051652506 -0.0092151165
0000f0 24 52 17 3d 14 bb b8 3d 7c a5 54 bd 02 61 90 3d
       0.03694357 0.09020057 -0.05191563 0.07049753
000100 78 d7 d1 bc 4c 8e 77 3d c8 d7 13 bd 00 79 f2 3a
       -0.025615439 0.06043844 -0.036094457 0.0018499196
000110 92 1f c8 3d 80 ce c7 3b 5c 6f 2d bd fe c1 a5 3d
       0.097716466 0.0060976148 -0.04234253 0.08093642
000120 f0 2a 02 bd 8e 1b fc 3d 00 63 0d 3c 82 de 8a 3d
       -0.03177923 0.12309943 0.0086295605 0.06780721
000130 e4 96 b1 3d 20 5e 57 bc 10 49 62 3c 90 46 d3 3d
       0.08671358 -0.013145 0.013811365 0.10316193
000140 40 45 fb bb 36 e3 b7 3d e8 a0 99 bd b0 0e 15 bc
       -0.0076681674 0.08978884 -0.075013936 -0.00909774
000150 28 be e2 3c 00 09 45 bd b0 be 6e bd e0 47 c2 bb
       0.027678564 -0.048104286 -0.058287323 -0.0059289783
000160 38 3e 81 3d 7e f3 96 bd aa 89 e6 3d 00 fd 31 bc
       0.063106954 -0.07370661 0.11256726 -0.010863543
000170 80 f3 f8 bc d8 67 79 3d 50 01 64 bc fc 69 8e 3d
       -0.030389547 0.06089005 -0.013916329 0.06953809
000180 80 f1 66 3d 30 5c 3d 3d b0 fa ea bd 9c 7a da bd
       0.056382656 0.046230495 -0.11473596 -0.10667917
000190 5e db ae 3d 10 c3 c3 3c 24 f8 11 bd ca 0c 80 3d
       0.08537935 0.023896724 -0.035637036 0.06252439
0001a0 e8 69 23 bd 48 e0 d3 3c aa 29 c0 bd e8 da 4e bd
       -0.039895922 0.025863782 -0.09382947 -0.050501734
0001b0 36 a3 b9 3d 94 36 fc bd 66 da b4 bd 4e 9d b1 3d
       0.09064333 -0.123150975 -0.08830719 0.086725816
0001c0 2a 5d 88 3d c0 8a 97 bc 20 eb 1c bc b4 fd 5f bd
       0.06658395 -0.018498778 -0.009577543 -0.05468531
0001d0 ac 81 64 3d b4 02 88 3d 72 dd 92 bd 1e 76 fe 3d
       0.055787727 0.066411406 -0.071711436 0.12424873
0001e0 48 a9 00 3d 36 4d 80 3d 9c 84 09 bd 42 c0 cc bd
       0.03141144 0.06264727 -0.03357373 -0.09997608
0001f0 20 98 7a 3c 5c fd e9 3d ec bc ab 3d a6 3c bc bd
       0.0152950585 0.114252776 0.08385643 -0.09191255
000200 d6 dc b3 bd 5e 22 d4 bd a4 35 df 3d 2c 40 d5 bd
       -0.087823555 -0.103581175 0.10898903 -0.104126304
000210 16 bb 8b bd 2c 13 d1 bd e8 1a de 3d 00 ce 34 bb
       -0.06822793 -0.10208735 0.10844976 -0.0027588606
000220 2a 19 e2 3d d8 82 f6 3c d8 01 a0 3d 28 92 9b bc
       0.11039956 0.030091688 0.07812852 -0.018990591
000230 2c 62 29 bd 02 d3 f1 bd d0 b7 05 bc 38 5e de bd
       -0.04135339 -0.11807825 -0.0081615 -0.108578146
000240 e8 5c 78 bd c8 37 99 3d 6a e3 e9 bd 70 8b 30 bd
       -0.060635477 0.074813426 -0.11420329 -0.043101728
000250 ae b7 ac bd 0c 92 cf 3d 80 ef ba 3d e0 bd 89 bd
       -0.084334716 0.10135278 0.09127712 -0.06725669
000260 34 f7 a8 3d 28 d9 58 3d 80 95 35 3c 70 b0 e2 3c
       0.08250275 0.05294147 0.011083007 0.027672023
000270 c8 d2 e6 3d cc ee 87 bd 00 41 07 3a c0 e2 7f 3d
       0.11270672 -0.06637344 0.0005159527 0.062472105
000280 18 7a ee 3c 10 cd 49 bc aa 33 ff bd 08 5a e7 bc
       0.029110953 -0.012316957 -0.12461026 -0.028241172
000290 2a 01 cf 3d 00 bc a8 bb e6 21 de bd 14 f0 d9 bd
       0.10107644 -0.0051493645 -0.10846309 -0.106414944
0002a0 e8 ee ee bc 70 2e 40 bd d2 05 c6 bd dc 5c 15 3d
       -0.029166654 -0.046919286 -0.09669079 0.03646551
0002b0 0c e9 8c bd a6 7b cd 3d dc a7 46 3d 40 72 70 3d
       -0.06880388 0.1003335 0.048499927 0.058702707
0002c0 00 67 b1 3b 48 16 a6 3d 0c 11 d3 bd d0 18 fd bd
       0.00541389 0.081097186 -0.10305986 -0.12358248
0002d0 88 de 31 bd e0 b0 26 bd 3a c4 f1 3d b4 8c 3c 3d
       -0.043425113 -0.040696025 0.11805005 0.046032622
0002e0 54 2d 08 3d a8 04 f5 3c 72 ce ba 3d ec d3 4d 3d
       0.033246353 0.029909447 0.091214076 0.050250933
0002f0 d8 c7 42 3d 40 22 b6 3c d0 0f 42 bd 1c 9f 8e bd
       0.047553867 0.022233129 -0.04737836 -0.069639415
000300 b8 47 3b bd 14 cf c6 bd 70 b6 c4 bc d4 9e fc 3d
       -0.045722693 -0.09707466 -0.024012774 0.123349816
000310 b0 39 df 3d 92 3e 9c 3d 96 3b 9c bd 28 e3 d1 bd
       0.10899675 0.07629122 -0.076285526 -0.10248405
000320 7a c1 ec bd 28 99 66 bd c0 e5 d1 bd 50 0a eb 3c
       -0.1156034 -0.056298405 -0.102488995 0.02869144
000330 1c 62 99 3d a0 05 78 bd 0c e7 79 3d 28 4b db bd
       0.07489416 -0.06055224 0.06101136 -0.10707694
000340 60 c4 cc bb e8 95 df 3d 20 ee e8 bd 08 7d ae 3d
       -0.0062489957 0.10917264 -0.11373544 0.085199416
000350 b8 7f ff 3c d0 6f 13 bc b0 f6 40 bd f0 08 40 3d
       0.03118883 -0.008998826 -0.04711026 0.046883523
000360 d4 25 85 bd 4c 62 a9 bd ca fe 83 bd 0e 72 f8 bd
       -0.06501356 -0.08270702 -0.064450815 -0.12131129
000370 00 1a 9a bb a0 80 c2 bb 74 0e ba bd 78 a6 e2 bc
       -0.0047028065 -0.0059357435 -0.09084788 -0.02766727
000380 90 32 ed 3d 64 fa ec 3d 38 df c3 bd 90 fd f4 3c
       0.1158191 0.11571196 -0.0956406 0.029906064
000390 a0 f0 d9 bc 4a af b0 3d fc e3 e5 3d 38 fe 4b 3d
       -0.026603997 0.08627184 0.11225125 0.04980299
0003a0 00 d0 0c 38 b0 ce c1 3d 80 04 85 bd 66 c1 ee 3d
       3.3572316e-05 0.09463251 -0.06494999 0.116579816
0003b0 80 11 90 3b fc a3 a9 3d a8 0e 88 3c 42 2b ba bd
       0.0043966174 0.08283231 0.016608551 -0.09090282
0003c0 0c 84 7c bd 16 fa bf bd f0 96 dc 3d c8 ee a2 3c
       -0.061649367 -0.09373872 0.107709765 0.01988925
0003d0 ce a7 f0 3d 20 5a dd 3d 42 22 b4 3d a2 bb aa bd
       0.11750756 0.108082056 0.08795597 -0.08336569
0003e0 6c 68 ce bd 92 e3 a2 bd 5a 21 e8 3d 3e 51 f7 bd
       -0.10078511 -0.07953562 0.11334486 -0.120760426
0003f0 b0 d2 f1 3c 70 69 3c 3d ac 6a da bd 9c c8 fc 3d
       0.029519409 0.04599899 -0.10664877 0.12342951

lstm.weight_ih_l1 f4 [256, 64]
000000 7c 3e 7a bd e2 72 a2 bd 1a 6b 80 bd 85 b8 ad bd
       -0.061094746 -0.079320684 -0.06270428 -0.0848246
000010 6a 93 b2 3d 6c 0b f7 bd f8 79 60 3d b1 dc e4 bc
       0.08719523 -0.120627254 0.05480382 -0.027937265
000020 5a c8 ef bd 60 d9 73 bc d4 5c 43 bd 0a bf cf 3c
       -0.11708136 -0.014883369 -0.04769595 0.02535965
000030 ec ef e2 3b 78 57 fc bc 0a 4d b5 bd 2e 12 24 3a
       0.0069255736 -0.030803427 -0.08852585 0.00062588125
000040 39 00 14 3d 00 17 31 3d 3f 44 5a 39 c8 23 04 be
       0.036133025 0.043234825 0.00020815524 -0.12904274
000050 f0 21 00 3c ca 6a 92 bd 80 58 f6 bc c8 45 de 3c
       0.007820591 -0.07149275 -0.030071497 0.027132884
000060 04 13 57 3d 9f 8a a8 3b 7e 32 ca 3d 58 d9 4c bd
       0.05250837 0.005143478 0.09872912 -0.050011963
000070 7e 1d 32 bb 54 01 bc 3d 48 d6 53 bd a2 51 e2 bd
       -0.0027178223 0.09179941 -0.051718026 -0.110507265
000080 30 53 d2 bc b2 a1 2e 3d 08 0e 3c 3d 90 03 d0 bc
       -0.025674433 0.042634673 0.04591182 -0.025392324
000090 01 aa b2 3c 6a ac f7 bd 9e 0c 96 3d dc 9a cc bd
       0.02180958 -0.12093432 0.07326625 -0.099904746
0000a0 15 98 de bd 68 c1 cf 3d 76 53 ee bd e5 ab f6 3c
       -0.10868851 0.10144311 -0.11637013 0.030111263
0000b0 e0 11 c5 bd 3c a1 1d bd 0c 69 92 3d 58 dc 65 bd
       -0.0962255 -0.038483843 0.07148942 -0.05611834
0000c0 c0 f2 34 bc a8 73 b3 3d 94 0b a7 bd 2c 60 46 bd
       -0.011044204 0.08762294 -0.08156505 -0.04843156
0000d0 66 0b ef bd b4 3a a5 3d d4 5b 9a bd 8d 69 66 3b
       -0.11672096 0.08067837 -0.07537046 0.0035158128
0000e0 c8 66 94 bc 29 2f d6 bd f8 6a d0 3d 68 4a dd 3c
       -0.018115416 -0.10458214 0.10176653 0.027013019
0000f0 dd 96 b3 bd f0 14 c1 bd 08 01 e2 3d ec c1 1f bd
       -0.08769009 -0.09427822 0.11035353 -0.039003298
000100 0e 5f ea 3d c2 ef 97 bd 78 6a e7 bc 25 85 23 3d
       0.114439115 -0.07418777 -0.02824901 0.0399219
000110 54 d8 0e 3d 04 c1 99 bd 90 0f 5e bd 78 7f 0a 3d
       0.034874275 -0.07507518 -0.05421406 0.03381297
000120 92 a9 84 bd 08 98 db bc 40 5e d5 3b e5 2a ac 3d
       -0.064776555 -0.026805893 0.0065114796 0.08406619
000130 ac de 72 bd 70 39 99 bd 9c f5 ec bd b7 db 59 3d
       -0.059294388 -0.074816585 -0.11570284 0.053188052
000140 ac 90 e7 3d 90 37 e1 3d 2a 3d a6 3c c3 27 c0 3d
       0.11306891 0.10996926 0.020292837 0.09382584
000150 56 00 91 3d 00 9a 40 3a 6c 3c 8d 3d cc 71 5c 3d
       0.07080142 0.00073471665 0.0689629 0.053819463
000160 cc 6a 10 3d bb 42 b5 3d 44 b6 09 bd f8 ac 8e 3d
       0.0352581 0.088506185 -0.033621088 0.06966585
000170 fb b8 b6 bb f0 24 f6 bd e0 8d 16 bd 5e ce c5 3d
       -0.0055762506 -0.12018764 -0.036756396 0.09658502
000180 30 61 4c 3d cd 56 e0 3d 07 79 88 3d 00 df 53 bc
       0.049897373 0.10954056 0.06663709 -0.012931585
000190 2d b1 77 3d 80 2e 7b bd e8 db 8d bc d8 9e df bc
       0.060471702 -0.061323643 -0.017316774 -0.027297422
0001a0 06 0b 9d 3b f8 96 9a 3d 6c fb e0 3d 51 8a a1 3c
       0.004792574 0.07548326 0.10985455 0.019719275
0001b0 a6 5f 99 bd 20 5f 7b 3c 48 97 14 3d 06 62 c5 3d
       -0.074889466 0.015342504 0.036277086 0.09637837
0001c0 fc 1d 85 bd 7e 5b d2 bd 4c ae 98 bd 52 03 ee bd
       -0.0649986 -0.10271357 -0.074551195 -0.11621727
0001d0 40 41 52 bb c0 cb 4d bb f4 2f 97 bd c5 6a a5 bc
       -0.003208235 -0.0031401962 -0.07382193 -0.020192513
0001e0 75 dd cc 3b a4 f0 2a bb 48 45 0a bd c0 58 23 bd
       0.0062519857 -0.0026083374 -0.033757478 -0.03987956
0001f0 2e 41 0a be 02 da b8 bd ac bf 32 3d 12 53 b5 3d
       -0.13501427 -0.09025957 0.043639824 0.08853735
000200 e0 1c e9 3c b8 8f 80 3d e8 7e fc bd 6d 20 8e 3d
       0.028456151 0.06277412 -0.12328893 0.069397785
000210 20 65 53 3d a0 ca cc 3c 00 5e ce ba a3 c1 84 3d
       0.051610112 0.024998963 -0.0015744567 0.06482246
000220 ae c3 93 bd 50 49 90 bc a6 df e4 3d 1f d1 eb bd
       -0.07215057 -0.017613083 0.1117547 -0.11514496
000230 55 a0 bb 3d e0 c8 ec 3d 8e 71 e5 3d 0d e4 05 be
       0.0916144 0.11561751 0.112032995 -0.13075276
000240 7d 2a c0 bd c0 4a db bb a5 17 06 be cf de f8 bd
       -0.09383104 -0.0066922605 -0.13094957 -0.12151872
000250 ac 15 3b bd 02 20 bb bd a4 d2 f7 3d a0 91 37 3c
       -0.045674965 -0.091369644 0.121007234 0.011204153
000260 98 02 c7 bc 3f 1a ad bd 8a 7a e0 3d 80 b5 56 3d
       -0.024293229 -0.08452272 0.109608725 0.052419186
000270 d0 7f a6 bb 91 06 e6 bd 64 0d 64 3d 14 b2 31 bd
       -0.0050811544 -0.11231721 0.055676833 -0.04338272
000280 e8 bf c1 3c 0b ff 8c bd fe 6c 32 3c f2 9f a2 3d
       0.023651078 -0.06884583 0.010890244 0.079406634
000290 8b 3e 6a 3d 36 03 e0 bd 98 e1 0d bd 88 90 fe 3c
       0.057188552 -0.109381124 -0.03463897 0.031074777
0002a0 2a ea 9b 3c 54 6e fc 3d 5c 54 60 3d 46 15 58 bd
       0.019032557 0.12325731 0.05476795 -0.052754663
0002b0 fc c6 48 bd a0 ba a1 3d ce 4a 94 bd 88 b7 33 3d
       -0.04901789 0.07896924 -0.0724083 0.0438762
0002c0 80 7b 8f 3b a0 cf e1 bc 40 ca 83 bd b0 fa 9f bd
       0.004378736 -0.027564824 -0.064350605 -0.07811487
0002d0 98 e9 4a bd a0 7b c7 3c 80 50 e4 ba 6a b6 fa 3b
       -0.04953918 0.024350941 -0.001741901 0.00765114
0002e0 6f 3b fb 3d 54 68 9f 3d e0 13 1b bc 98 12 57 3d
       0.122671954 0.07783571 -0.009465188 0.052507967
0002f0 d5 1a 99 bd e0 12 c7 3c b0 9a 11 bd b8 d4 7a bd
       -0.07475821 0.024300992 -0.035547912 -0.06123802
000300 50 e3 26 bc 50 09 ae 3d 70 af 97 3c d3 fd df bc
       -0.010186031 0.0849787 0.018516272 -0.027342713
000310 00 29 0a bc f0 97 8b 3d e8 f6 bb 3d 11 0d 15 bd
       -0.008432627 0.06816089 0.09177953 -0.036389414
000320 a0 85 30 bd 20 f7 d1 bb f0 51 b5 3d 2d 76 fd 3c
       -0.043096185 -0.0064076334 0.08853519 0.03094014
000330 1b a8 0d be 12 44 ae 3d a8 bd 98 3d 3d 89 00 be
       -0.13833658 0.08509077 0.07458049 -0.12552352
000340 72 d3 8f 3d a2 b3 f6 bd 6b ad 07 be 2f 5b af bd
       0.07022752 -0.12045981 -0.13249747 -0.08562314
000350 58 6a d8 3c a0 29 ba bd 48 3a 3b 3d aa 9a ee bd
       0.026417896 -0.090899706 0.04570988 -0.116505936
000360 d2 91 f3 3d b3 44 a9 bc b0 d5 84 3d 6c 80 08 3d
       0.118930474 -0.020662641 0.0648607 0.033325598
000370 19 49 68 3d 48 84 76 bd 12 28 fc bd 20 6b df 3b
       0.056710336 -0.060184747 -0.1231233 0.00681819
000380 e8 e5 de bd 6f 73 40 3d b4 20 d2 3d 1c f8 63 3d
       -0.10883695 0.046985086 0.10260144 0.055656537
000390 05 52 31 3d 08 e2 f1 bd c2 ff bc 3d 2c 68 9c bd
       0.04329111 -0.1181069 0.092284694 -0.07637057
0003a0 c2 e2 ad bd ca 1e 95 3d 92 dc a5 3d 3d 07 88 3d
       -0.08490516 0.07281263 0.08098711 0.066420056
0003b0 3c 53 8d 3d b4 c2 66 3d 00 37 a9 bb 70 0c d7 3c
       0.06900641 0.056338027 -0.005164027 0.026251048
0003c0 ec 12 8a 3d 4c de 30 3d 00 dd 69 bc 2e be b8 bd
       0.0674189 0.04318075 -0.014273882 -0.09020649
0003d0 ce 19 bd bd f0 54 d6 3c be a7 a4 bd 38 6f b2 bc
       -0.092334375 0.026163548 -0.08039807 -0.021781549
0003e0 de ec 77 3d 1f c4 fa bd d0 fe 51 3d e4 d0 09 3d
       0.06052863 -0.122444384 0.0512684 0.03364648
0003f0 79 c7 ce 3d 6a b7 9f 3d 50 b8 88 bc d4 92 66 bd
       0.1009664 0.07798655 -0.01668945 -0.05629237

lstm.weight_hh_l1 f4 [256, 64]
000000 be 2c 98 bd dc 68 08 bd 81 52 6a 3c 95 4c d4 ba
       -0.07430409 -0.033303127 0.014301897 -0.001619714
000010 e1 be e9 ba 74 e1 a7 bd c5 40 f8 3d 75 8a d0 bd
       -0.0017833376 -0.08197299 0.12121729 -0.101826586
000020 86 4e c7 3d 90 a5 cf 3d 1e 55 c5 bd fe 83 34 bd
       0.09731774 0.101390004 -0.096353754 -0.04407119
000030 ca fe e0 bc ea 91 97 bd 76 f9 fd 3d 1f 1e c7 bd
       -0.027465243 -0.07400878 0.124010965 -0.09722542
000040 dc 23 66 bd 3c c9 d3 3d f3 4b 96 3d e0 ec a4 bd
       -0.056186542 0.10341117 0.07338705 -0.08052993
000050 b4 60 b0 3d cb c9 ab bd 20 f6 b6 3c c4 59 0f bd
       0.08612195 -0.08388098 0.022334158 -0.034997717
000060 4a f9 cf bc 20 f6 5e bc f1 67 97 bd 39 ce b9 3d
       -0.025387425 -0.013608485 -0.07392872 0.09072537
000070 fe 4c 6f 3d 08 9b 0c bc ae 30 d2 bc d1 03 8e bd
       0.058423035 -0.008581884 -0.025657978 -0.06934322
000080 3a 01 8a bb 62 34 b9 bd 27 e2 a2 bd 41 22 e7 3d
       -0.004211572 -0.09043194 -0.079532914 0.1128583
000090 b9 dc 12 bd d2 e9 0a 3e 50 f2 a1 bd 97 40 06 be
       -0.03585503 0.13565758 -0.079075456 -0.13110577
0000a0 d2 45 ae 3c 52 af 05 3e b3 49 73 3d b3 74 64 bd
       0.021273527 0.1305516 0.059396457 -0.055775356
0000b0 c0 54 ab 3d a2 06 02 3d 35 5b 25 bd d2 b0 89 3c
       0.08365774 0.031744607 -0.040370185 0.016807947
0000c0 b0 20 6b 3d 7a 41 23 3d d5 0c 23 bd 7c b3 3a bd
       0.05740422 0.039857365 -0.03980716 -0.045581326
0000d0 e9 95 55 3d 0e e1 fc 3c 20 c7 8e bc d1 e9 a3 bd
       0.05214492 0.030869033 -0.017428935 -0.08003581
0000e0 54 c8 9f bd 76 d3 5b 3d 75 68 45 3a f4 b1 de 3d
       -0.078018814 0.05366846 0.0007530519 0.108737856
0000f0 cb eb be 3c 99 bf 40 3d 02 36 d5 bc 50 b5 bd 3d
       0.023305794 0.04705772 -0.02602673 0.09263098
000100 f7 a5 4d bd f7 23 f8 bc 6d 19 b0 3d 67 0e f5 bc
       -0.050207105 -0.030290587 0.085985996 -0.029914094
000110 a1 63 fa 3d 12 cb d3 3c bb 58 ce bd fc aa 84 3d
       0.12226034 0.025853667 -0.10075518 0.06477925
000120 aa a6 a5 bd b9 f3 52 3d c3 d0 8f bd 37 b1 92 bd
       -0.08088429 0.051501963 -0.0702224 -0.07162707
000130 73 cc a3 3d 16 28 06 3e 41 aa a7 3b 66 eb 45 3c
       0.0799798 0.13101229 0.0051167314 0.012080049
000140 c7 43 47 bc c6 9a e2 3c 79 82 49 bd fd 5c 8a bd
       -0.0121621555 0.027661692 -0.049196694 -0.06756017
000150 65 81 a3 3c a5 58 88 3d 39 28 b4 3d 0f 6c 0f be
       0.019959161 0.066575326 0.08796734 -0.14006065
000160 4b c8 a1 bd 5a be b9 bd ee 98 d1 3b 8f c3 0d be
       -0.07899531 -0.0906951 0.0063964045 -0.13844131
000170 a3 d6 9e 3d 99 74 fa 3c b8 98 ac bd 47 7d d8 bd
       0.077557825 0.030573176 -0.08427566 -0.1057077
000180 1a b2 a3 3d 1c c5 9c 3d 95 50 d5 bd b2 ce ef 3d
       0.079929546 0.07654783 -0.104157604 0.11709346
000190 0f d8 1a bd 43 90 d5 3d 8c 00 02 be fa d2 86 bb
       -0.037803706 0.10427906 -0.12695521 -0.004114506
0001a0 72 96 3c bd cc de 01 3e 2e fb 03 be c4 93 3e 3d
       -0.046041913 0.12682647 -0.12888786 0.04652764
0001b0 4e 4a f8 b9 c4 47 7a 3d 66 08 4b bd ac 34 25 bd
       -0.00047357607 0.061103597 -0.049568556 -0.040333435
0001c0 d3 2f 80 3c 56 e9 9c bd 19 5f 57 3d e1 c2 94 3c
       0.015647804 -0.07661693 0.052580927 0.018159332
0001d0 f5 d6 d1 bb a0 07 b1 3c 0a 70 73 3c 03 9f 6a 3c
       -0.0064037987 0.021610081 0.014858255 0.014320138
0001e0 cf b0 89 3d 58 69 f7 bd 97 90 4e bd b9 f2 37 3c
       0.06723177 -0.120806396 -0.05043086 0.011227303
0001f0 8e b3 94 bd 2a 7c 1b bd 77 c7 8a 3d 31 db 84 bc
       -0.0726081 -0.03796021 0.06776326 -0.0162178
000200 f4 b9 e6 bc 7f 36 9c 3d 1c 09 dc 3d e7 67 61 3d
       -0.028164841 0.07627582 0.10743925 0.05503073
000210 76 81 0e 3e 06 61 e6 3d 5f 68 e4 3d 06 7a 92 bd
       0.13916573 0.112489745 0.1115272 -0.071521804
000220 6d 1d f4 bd cd d4 7c bd 66 e8 84 bd 51 72 0d 3d
       -0.11919675 -0.06172638 -0.06489639 0.03453285
000230 f6 bd dd bb 25 c5 bc bd 4a ee bb 3d 7b 58 6a 3b
       -0.00676703 -0.0921729 0.091763094 0.0035758305
000240 ce 06 ba bd 05 c1 61 3b a0 e5 00 be 49 81 e4 bc
       -0.09083329 0.0034447324 -0.12587595 -0.02789368
000250 fb 89 10 bd 9e 2c 54 3d f3 28 79 3d bd eb 0b be
       -0.03528784 0.051800363 0.060830068 -0.13664146
000260 ef 01 f5 bc 91 2a e2 bc c8 4d 11 3e 8a de 73 3d
       -0.029908149 -0.027608188 0.14189827 0.0595384
000270 a3 b1 45 3d 47 f4 b6 3d 9b dc c4 3d cc f9 f1 3d
       0.04826511 0.08933311 0.0961239 0.11815223
000280 a7 82 0a bd 0d 35 16 3c 0d c5 08 3d 33 d6 b1 bd
       -0.033816006 0.009167922 0.033391047 -0.086834334
000290 a8 92 82 3d f7 94 a0 bd 8c 1c d8 bd b8 a1 b2 3d
       0.06375629 -0.07840913 -0.1055232 0.08722252
0002a0 fd 5e 71 3d 10 49 cc 3d 6c 8d 81 3d 34 a3 81 3d
       0.05892848 0.09974873 0.06325802 0.06329957
0002b0 46 b0 a7 3d 5b f3 e8 3c bd a2 e1 3d dd c7 52 bc
       0.08187918 0.028436353 0.11017368 -0.012865034
0002c0 ec 23 15 3c 81 d8 df 3d 9a 30 8a 3d 81 78 0e 3e
       0.009102803 0.10929967 0.06747551 0.13913156
0002d0 78 30 bf 3c f6 55 98 3c fd a0 c9 bd 37 36 89 3c
       0.023338541 0.018595677 -0.09845159 0.016749484
0002e0 aa 60 3b 3b c2 22 86 bd ec cd 04 be ce 33 c1 3c
       0.0028591552 -0.06549598 -0.12969178 0.023584273
0002f0 46 7c 4a 3d 3b 0d 9f bd 5f 40 d2 bc 1c 5b e3 3c
       0.049434923 -0.077661954 -0.02566546 0.027753405
000300 8b 03 d8 bd 7a dd 67 bd a0 db 4f 3d 2c 98 00 3e
       -0.10547551 -0.0566077 0.05074656 0.12558049
000310 b5 6a d3 3d ea 5a be 3c 86 00 7f 3d 7e ab aa bd
       0.10323087 0.02323671 0.06225636 -0.08333491
000320 2e 17 93 3d 7e 56 ce 3c e2 b4 d9 bc a9 89 87 bb
       0.071821555 0.025187727 -0.02657551 -0.0041362834
000330 7c d9 ca 3d 98 32 1c bd cb 6d b9 bd 01 9a b7 3d
       0.09904763 -0.038134187 -0.090541445 0.08964921
000340 8e 5f 7d bd e7 e6 a9 bd 5d 45 91 bc 17 60 30 3d
       -0.061858706 -0.08295994 -0.01773327 0.04306039
000350 c8 98 58 bd 47 0a 34 bd ac 80 90 bd 5b ce e2 bd
       -0.05288008 -0.043955114 -0.07055792 -0.110745154
000360 cc 5c 80 3d 66 dd d1 3c 46 e6 01 3e d3 90 b0 3d
       0.062676996 0.025618266 0.12685499 0.08621373
000370 26 81 9b 3d ad 00 ab bd 75 f0 25 3d db 63 b3 bd
       0.075929925 -0.08349738 0.04051252 -0.0875928
000380 af 35 5e 3d 56 02 e2 bb bd 55 66 3d ca 6d 63 bd
       0.054250415 -0.006897251 0.05623411 -0.055524625
000390 5e 33 8e bd 43 20 54 3b f7 21 ef 3c e3 cc 3e bd
       -0.06943391 0.0032367862 0.029191 -0.046582114
0003a0 2e 99 f6 bc 18 87 a9 3d a3 85 aa bc 84 27 bf bd
       -0.030102339 0.0827772 -0.020815676 -0.09333709
0003b0 40 18 1e 3d 8a 49 55 3d 1a 59 02 3d 24 04 30 bb
       0.038597345 0.052072085 0.031823255 -0.0026857937
0003c0 e3 f9 d4 3d a4 9b f3 bd c9 ac 9f 3d 71 a1 aa 3c
       0.103992246 -0.118949205 0.07796628 0.020828934
0003d0 47 11 35 bd 23 6f bc bd 8f 2b ef bd 8e 77 d6 bd
       -0.04420593 -0.09200885 -0.1167823 -0.10472022
0003e0 37 16 aa 3d 7b 0f 4c bd b9 a8 77 bd 21 44 08 3d
       0.083050184 -0.04981945 -0.06046364 0.033268098
0003f0 14 8d 73 bd 76 ce 99 bd c9 a8 a2 3a 5a ac e2 bd
       -0.059460714 -0.075100824 0.0012409921 -0.1106803

lstm.bias_ih_l1 f4 [256]
000000 76 a5 bf bd 59 d2 78 bd 51 66 a4 bd 6c 85 d8 3d
       -0.09357731 -0.06074748 -0.08027328 0.10572323
000010 c5 47 08 3e ae f7 e5 ba a2 46 d1 bd 3a 02 f5 3d
       0.13308628 -0.0017545128 -0.1021855 0.11963315
000020 95 66 61 bd 16 97 d0 3d 48 b7 85 bd 06 87 6d 3d
       -0.05502947 0.10185067 -0.06529099 0.057990097
000030 cf 66 d0 bd 6e 75 59 3c 8c 5b e7 3d 58 09 b1 bc
       -0.10175859 0.013272626 0.11296758 -0.0216109
000040 e4 3d a4 3d 86 af 15 3c b3 b7 0b 3e 56 27 e2 3d
       0.08019617 0.009136086 0.13644294 0.11042659
000050 0d b0 98 3d d4 e7 91 3d 43 ca 28 3d 8e b5 9d 3d
       0.07455454 0.07124296 0.041208517 0.077006444
000060 0e 2e 88 3c e2 a3 75 bd f3 ad 51 bc 09 54 a4 3d
       0.016623523 -0.059970744 -0.01279782 0.08023841
000070 71 01 53 3d 63 6a 78 3d 25 f9 b2 bd 19 5a 59 bc
       0.051515047 0.060648333 -0.08738927 -0.01326611
000080 6b 51 d1 bc 4d 6e 74 bc 9f 00 4a 3d dd fc 4d bd
       -0.025551518 -0.014918876 0.049317 -0.050289977
000090 93 c1 5b bd 07 8c 33 3d 32 75 9d 3c b7 37 90 3d
       -0.053651404 0.043834712 0.019220922 0.07041877
0000a0 06 ea aa 3d d0 e3 f0 3d 33 12 09 ba 9f 03 c5 3c
       0.08345418 0.11762202 -0.0005228847 0.024049578
0000b0 f3 b1 1d bd 47 12 21 3c 42 2a da 3d 97 90 f3 3d
       -0.038499784 0.009831018 0.10652591 0.11892813
0000c0 60 ff 4c 3d f3 25 24 bd a0 c7 bc bd 03 63 b6 3d
       0.050048232 -0.040075254 -0.09217763 0.08905604
0000d0 32 8c 7a 3d 47 60 53 3c 54 04 67 3d 73 70 d8 bd
       0.061168857 0.012901372 0.056400612 -0.10568323
0000e0 04 0b f6 3d 41 2d 87 bd 11 4a 3e bc c6 d5 68 3d
       0.1201382 -0.066004284 -0.0116143385 0.056844495
0000f0 6d 4a 91 3c e8 9d fc 3d 81 c2 d0 3c 11 18 c1 bd
       0.017735684 0.12334806 0.025483372 -0.094284184
000100 20 81 02 3b ee fe fc 3d e2 1e a7 3d 35 6f 88 3d
       0.001991339 0.123533115 0.08160187 0.06661836
000110 88 24 13 bd c3 06 d8 3b e4 a8 01 3e 92 f4 ab 3d
       -0.03592351 0.006592603 0.12662083 0.083962575
000120 b5 0d af bd 94 6a 96 bd 50 73 2e 3d 9b 02 c7 bb
       -0.08547536 -0.07344547 0.04259044 -0.0060733086
000130 df 65 1d bd b7 92 c7 3c e7 4b 3b bd 4f f2 95 3c
       -0.03842723 0.024361951 -0.045726683 0.018304018
000140 be f7 9c bd 19 9d b4 bd 37 c1 c7 bd 8d 9d f0 3d
       -0.076644406 -0.088190265 -0.0975365 0.117488004
000150 07 2c 2a 3d 27 d9 34 3d 79 05 2f bc a2 a7 3e 3d
       0.041545894 0.044152405 -0.010682457 0.046546586
000160 52 8c 41 bd e4 97 05 3e 6d b7 48 3c 72 af 91 3d
       -0.04725296 0.13046223 0.012250763 0.07113542
000170 ad 08 e4 bd 7b d6 24 3d 91 5e b5 3d b9 15 e6 3d
       -0.11134467 0.040243607 0.08855928 0.11234612
000180 a6 c3 8f 3b 5a 1c d4 3d 7e 06 aa bd d9 f2 44 3b
       0.004387337 0.1035697 -0.083020195 0.0030051975
000190 95 22 ef 3d bf 43 a9 3d 84 1a 89 bd bf 95 cb 3c
       0.11676518 0.08264875 -0.066945106 0.024851678
0001a0 a7 60 ed 3d b5 a4 02 3e 2f a4 02 bc af 8d b1 bd
       0.115907006 0.12758143 -0.007973715 -0.08669602
0001b0 08 91 9b 3d 03 60 06 3e 95 8a b3 3d 06 4f 8c bd
       0.07596022 0.13122563 0.08766667 -0.0685101
0001c0 df 81 0a bd 81 82 37 3d 5c bb d8 bc be f5 d2 3d
       -0.03381526 0.044802193 -0.026456527 0.10300778
0001d0 cb 98 15 3e f5 4b 5e bd 81 29 cc 3d 10 ea 07 3e
       0.14609067 -0.054271657 0.09968854 0.13272882
0001e0 0f ba f1 bc 92 a4 92 bd a5 e1 50 bc 4a 2e 1b 3d
       -0.029507665 -0.071602955 -0.01274911 0.03788594
0001f0 4b 7a 95 bc 54 49 97 3d ec 36 73 bd e5 2d 68 3b
       -0.01824679 0.07387033 -0.05937855 0.0035427746
000200 2f fd eb bd 49 73 03 bd 57 27 a3 bd 8b 3b 18 3d
       -0.115229 -0.032092366 -0.07966488 0.03716616
000210 7e 0b f3 3d d9 1e a5 3d 72 3a ea bb 37 63 93 bd
       0.11867426 0.08062524 -0.0071480805 -0.07196658
000220 16 6c 8f bc 5e 38 91 3c 3b 0c 0d 3e 1c d3 0b 3d
       -0.017507594 0.017727073 0.13774197 0.034136876
000230 17 b1 cb 3d 27 4d df 3d 28 75 9e 3c 8d bb 28 3d
       0.099458866 0.109033875 0.019342974 0.041194487
000240 7b df ba 3d bd ef ab bc 62 a7 83 3d 48 5b 67 bd
       0.09124657 -0.02098834 0.0642841 -0.056483537
000250 e3 32 6a 3d 7a a7 08 bc 86 a7 5c bd 0c 33 c6 bc
       0.057177436 -0.008340711 -0.0538707 -0.024194263
000260 2d 8a 9c 3d 8c 44 d1 bd 0d 36 ff bc 85 dc a8 3d
       0.076435424 -0.102181524 -0.031153703 0.08245186
000270 40 e9 2a 3c 68 88 f3 3d 13 23 16 3c f0 29 a9 bd
       0.010431588 0.11891252 0.009163636 -0.08259952
000280 75 3c f7 3c 7d f5 fb 3d 4e 9c ec bc 77 7c b4 3d
       0.030180195 0.123026825 -0.028883126 0.08812802
000290 25 58 24 bd 96 61 14 bd 0c e2 a1 bd 04 f5 ba 3b
       -0.040123124 -0.036225878 -0.07904443 0.0057054777
0002a0 59 20 e8 bd 02 18 d7 3d 90 43 40 bd 8b 2b 1e 3d
       -0.11334295 0.10502626 -0.046939433 0.038615745
0002b0 e1 a2 5b bd 07 48 07 3d 69 bc e1 3d dc 20 58 3d
       -0.05362213 0.033027675 0.110222645 0.052765712
0002c0 e4 b8 f7 3d 0d 76 57 bd 80 84 cd bd 23 f5 89 3d
       0.12095812 -0.052602816 -0.10035038 0.06736209
0002d0 f9 77 88 3a 6d ec bf 3d af 73 47 3d 4d d3 6f 3c
       0.0010411731 0.093712665 0.04869431 0.01463778
0002e0 63 a5 b1 bd 3f ae c4 bd 67 fb e4 bb a8 26 2c bd
       -0.08674123 -0.09603547 -0.0069879773 -0.042029053
0002f0 26 69 c8 bd 2e 9d 4a bd 49 5f a2 3d eb 1c a0 3d
       -0.097856805 -0.049466304 0.079283305 0.07818016
000300 0d b0 80 bd a4 8f 03 3e e2 98 ee 3d 3e 92 a9 bd
       -0.06283579 0.12847763 0.11650254 -0.082798466
000310 24 b1 59 3a 83 3a e2 ba 7c e3 72 3d fb 0f 30 3c
       0.0008304289 -0.001725987 0.059298977 0.010745998
000320 fc f2 c3 bd 11 68 e7 3d f7 b5 43 3d c2 e8 a1 bc
       -0.0956783 0.11299146 0.047780957 -0.019764308
000330 c3 8e ff 3d 36 d4 12 3d 41 dd 8d 3c 09 38 b7 bd
       0.124784015 0.03584691 0.017317416 -0.08946235
000340 77 9b a5 bd 51 fb bd 3d 0c 03 ac 3d c8 de 6d bc
       -0.08086293 0.092764504 0.08399019 -0.014518447
000350 ad 97 cd 3d 59 cc 81 3d 63 e0 90 3d c2 68 09 3e
       0.100386955 0.06337804 0.07074048 0.13418868
000360 51 61 7d 3b 15 1f 77 3c 04 d3 d7 3d 83 1e bb 3d
       0.0038662741 0.015083094 0.10538295 0.09136679
000370 ab 55 6e bd ea 75 1c 3d 2d f3 2d bd 1a 6c c8 bd
       -0.058187168 0.03819839 -0.04246824 -0.09786244
000380 c6 dc 67 3d bc 7b 6e bc f9 f7 16 bd 2c c5 bd bb
       0.05660703 -0.014555868 -0.03685758 -0.005791327
000390 60 a3 cf bd 72 e7 9e bd f8 d6 6a 3d e7 7d c1 3d
       -0.10138583 -0.077589884 0.057333916 0.09447842
0003a0 23 5b 40 3c 48 05 0c bd f2 17 81 bd 08 5d c6 bd
       0.011740479 -0.034184724 -0.06303395 -0.09685713
0003b0 6b e0 d0 bc 7f dd b9 bd f6 60 06 3e c1 69 cb 3d
       -0.025497636 -0.0907545 0.13122925 0.0993228
0003c0 1f ec 6a bd 89 64 0b 3e 52 5d 30 bc 5f 3b 59 3d
       -0.05735409 0.1361257 -0.010764437 0.053035136
0003d0 ba c3 78 bd 45 34 14 3d 10 64 4e bd 39 dd e4 bc
       -0.060733534 0.03618266 -0.050388396 -0.027937518
0003e0 63 3e 88 bd be ad 8c 3a 32 06 b3 bc e4 4a 22 3d
       -0.06652524 0.0010732932 -0.02185354 0.039622203
0003f0 f7 3e b8 bb 49 1f 40 3d dc 13 9c bd 62 b1 6e 3d
       -0.0056227404 0.046904836 -0.076209754 0.058274634
