models/API3USDT_lstm_20250822_035745.pth (torch, 244277 bytes, 11 tensors)

lstm.weight_ih_l0 f4 [256, 30]
0	0x3d95a98e	0.073077306
1	0x3de1af02	0.11019708
2	0xbdc3336a	-0.09531291
3	0x3d9a2c5a	0.07527991
4	0x3da68f26	0.08132772
5	0xbca2fe10	-0.019896537
6	0xbdf25e4e	-0.118343934
7	0xbda0d1d6	-0.07852523
8	0xbde714d8	-0.112832725
9	0x3d8dbae6	0.06920414
10	0x3d72b6c8	0.059256345
11	0x3cd46b80	0.025930166
12	0x3d8b9a4c	0.06816539
13	0xbdf6d31c	-0.12051985
14	0xbdcbb874	-0.09947291
15	0xbde72372	-0.112860575
16	0x3d1a787c	0.03771256
17	0x3c8415d8	0.016123697
18	0xbd985fd8	-0.07440156
19	0xbd87e0c6	-0.06634669
20	0x3c4ddd40	0.012564957
21	0xbd87191e	-0.065965876
22	0xbd7a833c	-0.06116031
23	0x3cd4f100	0.025993824
24	0x3d969cc2	0.07354118
25	0xbdf47a78	-0.119374216
26	0x3dcecc5a	0.10097571
27	0x3daec8b8	0.08534378
28	0x3d25e1e0	0.040498614
29	0x3d089118	0.033341497
30	0xbd5b4e60	-0.05354154
31	0xbd68ce68	-0.05683747
32	0xbca22360	-0.019792259
33	0x3d976290	0.07391846
34	0x3ddea8e8	0.1087206
35	0x3d75ad0c	0.059979483
36	0x3dac5ca0	0.08416104
37	0xbd4d5fb8	-0.050140113
38	0xbd152054	-0.036407784
39	0xbd8dfc7c	-0.06932923
40	0xbda6455c	-0.08118698
41	0xbdeb839e	-0.11499713
42	0x3b544100	0.0032387376
43	0x3dc2302a	0.09481843
44	0x3da05ea4	0.07830551
45	0x3d035be0	0.03207004
46	0xbd909cb2	-0.07061137
47	0xbda829a0	-0.08211064
48	0xbdb654aa	-0.08902867
49	0x3da8dbbe	0.082450375
50	0x3dc6e792	0.09712137
51	0x3cdd9b98	0.027051732
52	0xbd2a200c	-0.04153447
53	0xbdbb6a0a	-0.09151085
54	0xbdfc92de	-0.123327
55	0xbd8a16d0	-0.067426324
56	0xbde3fbfa	-0.11132045
57	0xbd8d44e4	-0.068979055
58	0xbdedf868	-0.11619645
59	0x3dd87b10	0.10570347
60	0xbcf889e8	-0.030339196
61	0x3d31842c	0.04333894
62	0xbc300b00	-0.01074481
63	0xbd4d3d30	-0.05010718
64	0x3c02add0	0.00797601
65	0x3d9c8970	0.076434016
66	0x3d2ec388	0.042666942
67	0x3d924fa6	0.07144098
68	0x3d9f2a82	0.077717796
69	0x3cdf0790	0.027225286
70	0xbdf02bb6	-0.11727087
71	0xbc964410	-0.018343002
72	0xbd53b7b4	-0.051688865
73	0x3ddd6a98	0.10811347
74	0xbd7472f4	-0.05967994
75	0xbd80a5fc	-0.06281659
76	0x3c631700	0.013860464
77	0x3da3931c	0.07987043
78	0x3c6fc3b0	0.014634058
79	0xbd232628	-0.03983131
80	0x3d7591b0	0.05995339
81	0x3d0ee0e4	0.03488244
82	0x3d2b637c	0.041842923
83	0xbdd0534c	-0.101721376
84	0xbd6415fc	-0.05568503
85	0xbc3238e0	-0.010877818
86	0x39d42600	0.00040464103
87	0xbdc0edbc	-0.09420344
88	0x3d881180	0.06643963
89	0x3da54fea	0.08071883
90	0x3dbed304	0.09317592
91	0x3c3f54c0	0.011677921
92	0x3d5d7960	0.05407083
93	0xbd903a9a	-0.07042427
94	0xbc19aea0	-0.009380013
95	0xbdb906c8	-0.090344965
96	0xbd7de028	-0.06198135
97	0x3dc99294	0.09842411
98	0xbcc48b90	-0.02399233
99	0x3d9c0e5a	0.07619925
100	0x3c1aa360	0.009438366
101	0x3dce2f3c	0.10067603
102	0xbdd1e05a	-0.1024787
103	0x3c7c0060	0.015380949
104	0x3d93d9e8	0.07219297
105	0xbd7ea8c8	-0.06217268
106	0xbdc4024a	-0.09570749
107	0xbd324bd4	-0.043529347
108	0xbda80350	-0.08203757
109	0x3c6cb110	0.014446512
110	0xbdd63964	-0.10460165
111	0x3b427780	0.0029673278
112	0x39ed4c00	0.00045260787
113	0x3b3f8500	0.0029223561
114	0xbd1fe618	-0.039037794
115	0xbdcb023e	-0.09912537
116	0xbccb75a0	-0.024836361
117	0xbcac1478	-0.021005854
118	0xbd8f6708	-0.070020735
119	0xbdb080ee	-0.086183414
120	0x3c77b200	0.015118122
121	0xbd4cb6d4	-0.049979046
122	0x3d0f7da0	0.035031915
123	0xbd5f49e8	-0.054513842
124	0x3db04c7e	0.0860834
125	0x3b27f3c0	0.0025627464
126	0xbcdf86e0	-0.027285993
127	0x3dceca3a	0.100971654
128	0x3d4ca558	0.04996237
129	0x3de8fe34	0.113766104
130	0xbde169ce	-0.11006509
131	0x3d97b188	0.07406908
132	0x3df36820	0.11885095
133	0x3c1a5270	0.009419069
134	0x3d2c3f98	0.042052835
135	0xbc8bdf80	-0.017074347
136	0xbd20ad6c	-0.039227888
137	0x3d8836ba	0.06651063
138	0xbdda1986	-0.106493995
139	0xbdd6233a	-0.10455938
140	0x3dfa1098	0.12210196
141	0x3dfc6e02	0.1232567
142	0xbda98a7a	-0.082783654
143	0xbd1c2b08	-0.038126975
144	0xbda85e14	-0.08221069
145	0x3d1f8de4	0.038953677
146	0xbd70498c	-0.05866389
147	0x3db31962	0.08745076
148	0xbbbc9620	-0.005755201
149	0x3dd64788	0.10462862
150	0x3c8fde08	0.017561927
151	0x3c99c2c8	0.018769637
152	0xbd91af64	-0.07113531
153	0xbdf1a114	-0.11798301
154	0xbbe17320	-0.006880179
155	0x3d59e4e0	0.053196788
156	0x3df1bd6e	0.11803709
157	0xbdffedf6	-0.12496559
158	0xbcf5fcd8	-0.030027792
159	0xbd7d0e90	-0.061781466
160	0x3d919d28	0.07110053
161	0xbdaa9dca	-0.08330877
162	0x3cb27290	0.021783143
163	0xbd918cac	-0.07106909
164	0xbde356a8	-0.11100513
165	0x3def8baa	0.11696561
166	0x3cd838a0	0.026394188
167	0xbd98d89e	-0.074631914
168	0xbd417f58	-0.047240585
169	0xbd265594	-0.040608957
170	0xbda93808	-0.0826264
171	0x3dee7290	0.11642945
172	0x3d53b51c	0.05168639
173	0xbcce3120	-0.025169909
174	0x3cc86ea8	0.024466828
175	0x3d2fd120	0.042924047
176	0x3cea2b50	0.028585106
177	0x3b500c40	0.0031745583
178	0x3d66ed30	0.056378543
179	0x3dd6696e	0.10469328
180	0xbde0de0e	-0.109798536
181	0xbd8fa51a	-0.070139125
182	0x3ddeb436	0.10874216
183	0x3d444844	0.04792048
184	0xbd189e9c	-0.037260637
185	0xbcd20400	-0.025636673
186	0xbd5cecf8	-0.05393693
187	0xbd10db38	-0.035365313
188	0x3d573e64	0.052549735
189	0xbdbe3b68	-0.092886746
190	0xbd4eafc8	-0.050460607
191	0xbd6a9a00	-0.057275772
192	0x3c8c7bd8	0.017148897
193	0xbd5d850c	-0.05408196
194	0x3d8cae2c	0.06869158
195	0xbd0f0aa8	-0.034922272
196	0x3de3e6bc	0.111279935
197	0xbdd77b98	-0.105216205
198	0x3df0e462	0.117623106
199	0x3db78008	0.08959967
200	0xbc443c90	-0.01197733
201	0xbdc6addc	-0.0970113
202	0x3cc12a68	0.023579791
203	0xbd834c54	-0.06411043
204	0x3ccbd3a0	0.024881184
205	0xbd8d8a9e	-0.06911205
206	0x3d55dc08	0.05221179
207	0x3d1f17f4	0.038841203
208	0xbc06d420	-0.0082292855
209	0xbd9a2c4a	-0.07527979
210	0x3dc292d4	0.095006615
211	0x3d0ea65c	0.03482662
212	0xbde11fb6	-0.109923765
213	0x3dc17f02	0.09448053
214	0x3da9d76e	0.08293043
215	0x3d24ad98	0.040204614
216	0x3d6acbd0	0.057323277
217	0x3cfbb8a0	0.030727684
218	0x3d8aec3c	0.067833394
219	0xbd5748a8	-0.052559525
220	0x3dabfdfa	0.083980516
221	0xbd8b76ec	-0.06809792
222	0xbd8e41e4	-0.069461614
223	0xbd51fa7c	-0.05126427
224	0xbd28c1fc	-0.041200623
225	0xbd037908	-0.032097846
226	0xbdc99cfc	-0.098443955
227	0x3dea0a8c	0.11427793
228	0x3de4cba6	0.11171655
229	0xbdfb1712	-0.1226026
230	0xbc5e29b0	-0.013559744
231	0xbd896500	-0.06708717
232	0x3d728edc	0.059218273
233	0x3da2b50a	0.07944687
234	0xbdf0f1aa	-0.11764844
235	0x3de2a11a	0.11065884
236	0x3d711e90	0.058867037
237	0x3a5f8400	0.00085264444
238	0xbdcbdca0	-0.0995419
239	0x3c41e830	0.011835143
240	0xbdfaf5fc	-0.12253949
241	0xbce5ab30	-0.02803573
242	0xbdd6c7dc	-0.10487339
243	0x3d3b1648	0.045675546
244	0x3c07ca10	0.008287922
245	0xbdf1a08c	-0.117982
246	0x3dd99f3c	0.10626075
247	0x3dc5c132	0.0965599
248	0xbd8356e4	-0.064130574
249	0x3d5159ac	0.05111091
250	0x3ca846b0	0.020541519
251	0xbc859e78	-0.016310915
252	0xbd8daa16	-0.06917207
253	0xbdfcbb76	-0.12340443
254	0xbd91fb22	-0.07127978
255	0xbd467554	-0.048451737

lstm.weight_hh_l0 f4 [256, 64]
0	0x3be8a9c0	0.007100314
1	0xbddd13de	-0.10794805
2	0x3d38ec04	0.045146957
3	0xbdac3140	-0.08407831
4	0xbc554330	-0.013016507
5	0xbd66f540	-0.056386232
6	0x3cc101d8	0.02356045
7	0xbdd7fb44	-0.10545972
8	0xbc2d8de0	-0.010592908
9	0xbd12063c	-0.035650477
10	0xbd140130	-0.036133945
11	0xbcde0078	-0.027099833
12	0xbd35843c	-0.04431556
13	0xbdbf4b7c	-0.093405694
14	0xbd059de8	-0.032621294
15	0x3d27d164	0.040971175
16	0x3dbb7728	0.091535866
17	0x3c8e0ad0	0.01733914
18	0xbc140ae0	-0.009035796
19	0x3c9b2478	0.018938288
20	0xbd871426	-0.0659564
21	0x3c968d40	0.0183779
22	0x3deda830	0.11604345
23	0xbda8de46	-0.0824552
24	0xbda22b36	-0.07918398
25	0x3da4f660	0.08054805
26	0xbdbd3ea4	-0.092404634
27	0x3dfb0b14	0.12257972
28	0xbd741788	-0.059592754
29	0x3d334064	0.04376258
30	0xbd69df78	-0.057097882
31	0xbd625bc0	-0.05526328
32	0x3d0c08fc	0.034188256
33	0x3df066f8	0.1173839
34	0xbcb23578	-0.021754012
35	0x3c9dd198	0.019264981
36	0x3db46ae8	0.08809453
37	0x3d1218a8	0.035668045
38	0xbd416b5c	-0.047221527
39	0x3cbe64d8	0.023241445
40	0x3dcdcd66	0.10048942
41	0x3db1a6be	0.08674382
42	0x3df2f3c8	0.11862904
43	0xbd9b8bc8	-0.075950205
44	0xbdb088a0	-0.08619809
45	0x3d30bbc4	0.043147817
46	0x3de35788	0.1110068
47	0xbd8d3fd6	-0.06896941
48	0xbdc637bc	-0.09678599
49	0xbdb440d2	-0.08801426
50	0xbce3ed20	-0.027823031
51	0x3d10f35c	0.035388336
52	0xbd047808	-0.032341033
53	0x3dd374d8	0.103250206
54	0xbd83466a	-0.06409915
55	0x3d4eed2c	0.050519153
56	0x3d247a08	0.04015544
57	0x3de98242	0.11401798
58	0x3d7d0178	0.06176898
59	0xbd8f08f0	-0.069841266
60	0xbd2bce64	-0.041944876
61	0x3d467fa0	0.048461556
62	0xbda92318	-0.08258647
63	0x3dc28786	0.09498505
64	0x3dc05f82	0.09393217
65	0x3d8d8496	0.069100544
66	0xbdc41dba	-0.095759824
67	0x3cf2a530	0.029619783
68	0xbdaf0e4a	-0.08547647
69	0x3db85da6	0.09002237
70	0x3da0af7e	0.078459725
71	0x3db2340a	0.08701332
72	0xbc2c31f0	-0.010509953
73	0xbdad9b9a	-0.08476944
74	0xbdce6ac8	-0.10078961
75	0xbdb0695e	-0.08613847
76	0x3df7e18e	0.12103568
77	0x3dc221d2	0.09479107
78	0xbda7fa48	-0.08202034
79	0xbda149b8	-0.07875389
80	0xbdc705fa	-0.09717937
81	0x3df1f990	0.118151784
82	0xbcc8ad98	-0.024496838
83	0xbdb8f648	-0.090313494
84	0x3d92aad2	0.07161488
85	0xbdbcaf34	-0.09213105
86	0x3dcf35be	0.101176724
87	0xbd3fc58c	-0.046819255
88	0xbdf53698	-0.119733036
89	0xbd8571b8	-0.06515831
90	0x3dbf1e8a	0.09331997
91	0x3d1e7808	0.03868869
92	0x3dd8bece	0.10583268
93	0x3def2e98	0.11678809
94	0x3de40a8a	0.11134823
95	0x3d07b5d8	0.033132404
96	0xbddd0c42	-0.107933536
97	0x3d1c99f8	0.038232774
98	0xbd612ec0	-0.054976225
99	0xbd910bee	-0.070823535
100	0x3c8b9c70	0.017042369
101	0x3dd64b82	0.10463621
102	0x3de2d014	0.11074844
103	0x3b235b40	0.0024926215
104	0xbc84f138	-0.016228303
105	0xbc00ac30	-0.007853553
106	0xbdc3caa8	-0.09560138
107	0x3ccf4e88	0.025306001
108	0xbc42aa30	-0.011881396
109	0xbd98bffe	-0.074584946
110	0xbc0eec30	-0.008723304
111	0x3da67c62	0.08129193
112	0xbac81a80	-0.0015266687
113	0x3d7629ac	0.060098335
114	0x3db2fe0e	0.08739863
115	0x3aa9fd80	0.0012969226
116	0xbdc1f96a	-0.094714
117	0xbdd4ea4c	-0.10396251
118	0x3d12fc64	0.03588523
119	0x3ca63360	0.02028817
120	0x3d1eb8d4	0.038750485
121	0x3df143d4	0.11780515
122	0xbdc44558	-0.09583539
123	0x3de3d6a6	0.11124925
124	0x3dea884a	0.11451776
125	0xbd8985a0	-0.0671494
126	0x3c8a7b80	0.016904593
127	0x3c492980	0.012277961
128	0xbd3dbc1c	-0.046321973
129	0xbd88e0bc	-0.0668349
130	0x3c765430	0.01503472
131	0x3d90ceee	0.07070719
132	0x3dbd5bce	0.09246026
133	0x3df2cdc8	0.11855656
134	0x3d64f06c	0.055893347
135	0xbdc02cc4	-0.09383538
136	0xbde1f112	-0.11032309
137	0x3d020614	0.031744078
138	0x3df97988	0.12181383
139	0x3dac32ee	0.084081516
140	0x3cb04518	0.021517321
141	0xbda7ae4a	-0.0818754
142	0x3d214b58	0.039378494
143	0xbdcd5110	-0.10025227
144	0xbd6c5f3c	-0.05770801
145	0xbc3f34f0	-0.011670336
146	0xbc9478a8	-0.01812394
147	0x3c8d0320	0.017213404
148	0xbde777fa	-0.113021806
149	0x3d3a03b0	0.045413673
150	0x3dbef6cc	0.093244165
151	0xbda88410	-0.08228314
152	0xbd8ca20e	-0.06866847
153	0xbdd2cc2c	-0.10292849
154	0xbc679b10	-0.014136091
155	0x3d3a3b8c	0.045466945
156	0x3df5a76c	0.11994824
157	0x3c0133a0	0.0078858435
158	0x3de9479e	0.11390613
159	0xbd74d784	-0.059775844
160	0xbda3c3c2	-0.07996322
161	0xbd82caaa	-0.06386311
162	0x3de4e810	0.11177075
163	0xbd72ddc4	-0.059293523
164	0xbbf08600	-0.007340193
165	0x3cd73208	0.026268974
166	0xbd878ed6	-0.06619041
167	0x3c2851f0	0.010273442
168	0xbcb8f310	-0.022576839
169	0x3d6382b0	0.055544555
170	0x3cefeff8	0.02928923
171	0x3d3bc5cc	0.04584293
172	0xbd0922b4	-0.03348036
173	0x3d1d9de8	0.03848067
174	0xbd23229c	-0.039827928
175	0x3d2a713c	0.041611895
176	0xbd9d67d0	-0.07685816
177	0x3d4fd88c	0.050743625
178	0x3c6aa4b0	0.014321491
179	0x3c90e598	0.017687604
180	0x3dc0de80	0.094174385
181	0xbdf7c97c	-0.12098977
182	0xbb0e7a80	-0.0021740496
183	0x3d31fc0c	0.04345326
184	0x3cf8c9d8	0.030369684
185	0x3df80c42	0.12111713
186	0x3dc064c4	0.093942195
187	0x3dcd028a	0.1001025
188	0x3d8066dc	0.06269619
189	0x3ce20548	0.027590409
190	0xbcfdff78	-0.031005606
191	0x3dc621ac	0.09674391
192	0xbdf32f1a	-0.11874218
193	0x3d9357b2	0.07194461
194	0xbdae432e	-0.08508907
195	0x3dee14c8	0.116250575
196	0xbdb1fa34	-0.086903006
197	0x3caa0340	0.020753503
198	0x3d12e59c	0.035863504
199	0xbc392b10	-0.011301771
200	0xbce8f218	-0.028435752
201	0x3d590958	0.052987427
202	0x3d32e894	0.043678835
203	0xbd460268	-0.04834214
204	0xbd98e9ee	-0.074664935
205	0x3dcd2e78	0.10018629
206	0x3d044454	0.032291725
207	0x3dac65b8	0.08417839
208	0xbcf76ff8	-0.030204758
209	0x39343800	0.00017187
210	0xbd141980	-0.03615713
211	0xbdf23a3e	-0.11827515
212	0xbdda6c7c	-0.10665223
213	0xbb10ff80	-0.0022124946
214	0xbdfcd7c2	-0.1234584
215	0x3d8b12e2	0.06790711
216	0x3d70239c	0.05862771
217	0xbde40848	-0.11134392
218	0x3db803c6	0.08985095
219	0x3c75c150	0.014999703
220	0x3dc22674	0.094799906
221	0xbda2fcca	-0.07958372
222	0xbc9af4d8	-0.018915579
223	0xbbb88ac0	-0.0056317747
224	0xbdf6e770	-0.12055862
225	0x3d091b18	0.033473104
226	0x3d625a9c	0.055262193
227	0xbdefaeae	-0.117032394
228	0x3cb4cd90	0.022070676
229	0x3d92bdc6	0.07165103
230	0xbd76cad8	-0.06025204
231	0x3dd942ea	0.10608466
232	0xbdcf130c	-0.10111055
233	0xbdd00736	-0.101576254
234	0xbd5973e8	-0.053089052
235	0xbd020d90	-0.031751215
236	0x3d48831c	0.04895316
237	0x3dff088e	0.124528036
238	0xbcfd6730	-0.030932993
239	0xbb899500	-0.0041986704
240	0x3ced9468	0.02900143
241	0xbdccbea0	-0.09997296
242	0x3dddb314	0.10825172
243	0x3b8b65e0	0.004254088
244	0x3daf087c	0.0854654
245	0xbd6c7174	-0.057725385
246	0x3db4ee28	0.08834487
247	0x3d846472	0.06464471
248	0xbdafaa1c	-0.08577368
249	0xbca3b260	-0.019982517
250	0x3daad678	0.08341688
251	0x3d914c22	0.07094599
252	0xbd719458	-0.058979362
253	0xbd3c2430	-0.04593295
254	0xbd459f18	-0.048247427
255	0x3d5182c8	0.051150113

lstm.bias_ih_l0 f4 [256]
0	0xbd904810	-0.07044995
1	0x3d4e6cdc	0.050396785
2	0x3d2fabe4	0.042888537
3	0x3df48634	0.1193966
4	0x3dc216d0	0.094770074
5	0xbd5293dc	-0.05141054
6	0xbdea905a	-0.11453314
7	0xbd64b0a0	-0.055832505
8	0xbdb422ee	-0.08795725
9	0x3d4ba138	0.049714297
10	0xbdd64660	-0.10462642
11	0xbdd74b2e	-0.10512386
12	0xbd896438	-0.06708568
13	0xbd9e4234	-0.07727471
14	0x3d766c5c	0.060161933
15	0x3df23018	0.118255794
16	0xbd11ac20	-0.03556454
17	0xbd993374	-0.07480517
18	0xbd4d2990	-0.050088465
19	0xbd8b52f6	-0.06802933
20	0xbc291070	-0.01031886
21	0xbd22e064	-0.039764777
22	0xbdbc4caa	-0.0919431
23	0x3dcae676	0.09907238
24	0x3d8ed524	0.06974247
25	0xba976080	-0.0011549145
26	0x3dd5fe7e	0.10448931
27	0x3da17326	0.07883291
28	0x3da97948	0.08275086
29	0xbdc18356	-0.094488785
30	0x3dda47dc	0.10658237
31	0x3dd602aa	0.10449727
32	0xbc8de4f0	-0.01732108
33	0xbdfc8cee	-0.12331568
34	0xbda0d6fa	-0.078535035
35	0xbd82d902	-0.06389047
36	0xbdb5aa24	-0.088703424
37	0x3d2a7640	0.04161668
38	0xbdf8fbe4	-0.12157419
39	0xbdb0cfac	-0.0863336
40	0xbd086204	-0.0332966
41	0x3c9c05a8	0.019045666
42	0x3df005a2	0.117198244
43	0x3d67e1fc	0.056612
44	0xbdbd6ff2	-0.092498675
45	0xbd88e3dc	-0.06684086
46	0xbd61a034	-0.055084422
47	0x3df70026	0.12060575
48	0xbdbef96a	-0.09324916
49	0xb9917600	-0.00027744472
50	0xbdd312b0	-0.10306299
51	0x3d839ab0	0.06425989
52	0x3bc8b6e0	0.006125316
53	0xbc93dc00	-0.01804924
54	0x3b55bd80	0.0032614172
55	0xbd0638ac	-0.03276889
56	0xbdfb3210	-0.12265408
57	0x3de16888	0.11006266
58	0xbccc77d0	-0.024959475
59	0x3df8ad76	0.1214246
60	0x3ca57910	0.020199329
61	0xbc634a60	-0.013872713
62	0xbc7a8eb0	-0.015292808
63	0x3de230fa	0.11044498
64	0x3df84eba	0.12124391
65	0x3d5cc860	0.05390203
66	0xbda0879a	-0.07838364
67	0x3db9c07e	0.09069918
68	0x3ca8a348	0.020585671
69	0xbdcac954	-0.099016815
70	0xbb9ceba0	-0.004788831
71	0x3b974360	0.004616186
72	0x3c528950	0.012850121
73	0xbd046770	-0.03232521
74	0x3db5fb60	0.088858366
75	0x3c79f330	0.015255734
76	0xbda3e1b8	-0.08002037
77	0xbdbd6d42	-0.09249355
78	0xbdae5982	-0.08513166
79	0xbdf1d666	-0.118084714
80	0xbd2b3ab8	-0.041804045
81	0x3d0732d4	0.033007458
82	0xbccfe468	-0.025377467
83	0xbd2a1bc8	-0.0415304
84	0x3d90f882	0.07078649
85	0xbdfcc2ca	-0.123418406
86	0xbd25faa4	-0.040522233
87	0x3d007e88	0.03137067
88	0xbd9f51c6	-0.07779269
89	0xbdd4d7b4	-0.103927046
90	0x3c23d110	0.009998575
91	0x3d9cd4cc	0.07657775
92	0xbdb38a3e	-0.08766602
93	0xbdb8bdda	-0.09020586
94	0xbdcbf8c6	-0.09959559
95	0xbde602f4	-0.11231032
96	0x3df373cc	0.11887321
97	0x3dd3212c	0.103090614
98	0xbd9f44a4	-0.07776764
99	0x3d590e50	0.052992165
100	0xbc573150	-0.013134316
101	0xbd8622ca	-0.06549604
102	0x3c975e00	0.01847744
103	0xbd352b04	-0.044230476
104	0xbd751f4c	-0.0598443
105	0xbd8070b4	-0.062714964
106	0x3daecf92	0.08535685
107	0xbdf96142	-0.121767536
108	0x3d1bbf8c	0.03802447
109	0x3dedb724	0.11607197
110	0x3d9911d2	0.07474102
111	0x3d92aff4	0.07162467
112	0xbdfade62	-0.122494474
113	0xbde40374	-0.11133471
114	0xbd28d074	-0.04121442
115	0x3dab0bc6	0.08351855
116	0x3cd43df0	0.02590844
117	0xbd3f82f0	-0.04675573
118	0x3d4a0f00	0.04933071
119	0xbdea7788	-0.1144858
120	0xbc093940	-0.008375466
121	0xbdab77bc	-0.08372447
122	0xbd0cdc88	-0.034390002
123	0xbd5195ac	-0.05116813
124	0x3d4b2b94	0.049602106
125	0xbce255b8	-0.027628765
126	0x3d85c87e	0.065323815
127	0xbc90ecc8	-0.017691031
128	0x3de86368	0.11347085
129	0x3cb55000	0.022132874
130	0x3d361f78	0.044463605
131	0xbd1a54a0	-0.03767836
132	0x3db741cc	0.08948097
133	0xbdd95a60	-0.10612941
134	0x3dbfe4b2	0.09369792
135	0xbd3533dc	-0.04423891
136	0xbdc9cc98	-0.09853476
137	0x3c9002b8	0.017579421
138	0xbdc5507c	-0.09634492
139	0x3bb43d60	0.0055004805
140	0x3c8c1c68	0.017103389
141	0xbc013280	-0.007885575
142	0xbb4dad80	-0.0031383932
143	0xbd57ab54	-0.052653626
144	0xbd570b28	-0.052500874
145	0x3d9747f2	0.07386769
146	0xbad9f180	-0.0016627759
147	0xbb42df00	-0.002973497
148	0x3dc940f2	0.098268405
149	0x3d75521c	0.05989276
150	0x3d3bfc84	0.045895115
151	0xbcd1fac8	-0.025632277
152	0xbdbc23c8	-0.09186512
153	0xba62b600	-0.0008648336
154	0x3ce21120	0.027596056
155	0xbd4775d8	-0.04869637
156	0x3d9ceef0	0.07662761
157	0x3dc997c0	0.09843397
158	0xbd6edfdc	-0.058318958
159	0xbde508bc	-0.111833066
160	0x3da69888	0.08134562
161	0xbdf6895a	-0.120379165
162	0xbda881f0	-0.082279086
163	0x3dfd14aa	0.12357457
164	0x3daee76a	0.085402325
165	0xbdba0676	-0.090832636
166	0xbd5b21f4	-0.053499177
167	0x3d0b6d64	0.03403987
168	0x3d40fbe4	0.04711522
169	0xbdec16f0	-0.115278125
170	0x3d43e194	0.04782255
171	0xbc06eae0	-0.0082347095
172	0x3de8cb92	0.11366953
173	0x3ca306b0	0.01990065
174	0xbd28f658	-0.041250557
175	0xbd3ba000	-0.045806885
176	0x3d5df1d4	0.054185703
177	0x3d35d908	0.04439643
178	0x3dc8d280	0.09805775
179	0x3dd304a6	0.10303621
180	0x3d8fd508	0.07023054
181	0xbd795fb0	-0.06088227
182	0xbd28f9d8	-0.041253895
183	0xbd730c7c	-0.059338078
184	0xbdac0e18	-0.08401126
185	0xbdaaf4d0	-0.083474755
186	0x3d3386c4	0.043829694
187	0xbd0e2560	-0.034703612
188	0xbdde9b60	-0.10869479
189	0xbce45f98	-0.027877614
190	0x3df1f406	0.11814122
191	0xbcad9560	-0.021189392
192	0x3df85d6a	0.12127192
193	0x3dbf16c8	0.09330517
194	0xbdf1a19a	-0.11798401
195	0xbc7ae360	-0.0153129995
196	0xbd4b0804	-0.04956819
197	0x3b8ca080	0.004291594
198	0x3d8da162	0.06915547
199	0xbd4645f0	-0.04840654
200	0x3dadc748	0.084852755
201	0x3da74a78	0.08168501
202	0x3b6f3380	0.0036499202
203	0x3dd0cab8	0.101949155
204	0xbdffbe42	-0.12487461
205	0x3cd35f30	0.025802225
206	0x3d99491e	0.07484649
207	0xbd4c1190	-0.049821436
208	0xbd2d66b8	-0.04233429
209	0x3cec7860	0.028865993
210	0xbdacc7ac	-0.08436522
211	0xbd80278c	-0.06257543
212	0xbdae6ee2	-0.08517243
213	0xbd6ae738	-0.057349414
214	0xbd2d2fa4	-0.04228176
215	0xbd119cb0	-0.03554982
216	0xbd0c9ce4	-0.03432931
217	0xbd40d9fc	-0.047082886
218	0x3d882ed4	0.06649557
219	0xbde22032	-0.11041297
220	0x3d248980	0.040170193
221	0x3c86e4e0	0.016466558
222	0xbb6c1a00	-0.003602624
223	0xbdfe3034	-0.12411538
224	0xbd24a8f8	-0.040200204
225	0x3d858a9e	0.0652058
226	0x3dfafeb4	0.12255612
227	0x3b00c040	0.001964584
228	0x3de5a59e	0.112132296
229	0x3d95e318	0.07318705
230	0x3ceafaf0	0.02868411
231	0x3df78ed8	0.12087792
232	0xbd46fcf4	-0.04858108
233	0xbde20d5a	-0.11037703
234	0x3de61cce	0.11235963
235	0x3d986600	0.0744133
236	0x3da83506	0.082132384
237	0x3d1eae68	0.038740546
238	0x3dd5d364	0.1044071
239	0x3da0d100	0.078523636
240	0x3d0682cc	0.03283958
241	0x3de4ee16	0.11178224
242	0xbdf97dd0	-0.121822
243	0xbb9f1940	-0.004855305
244	0x3da6ef82	0.08151151
245	0x3df94dfe	0.12173079
246	0xbdcde4d8	-0.10053414
247	0xbc886988	-0.016651884
248	0x3cdecd80	0.0271976
249	0xbc9d01c8	-0.019165888
250	0xbda6e8b8	-0.08149856
251	0x3d2fa09c	0.04287778
252	0xbd80937e	-0.06278132
253	0x3d4cd3d8	0.050006717
254	0x3dc4a1e0	0.09601188
255	0xbc3717b0	-0.011175081

lstm.bias_hh_l0 f4 [256]
0	0x3d1d9e9c	0.03848134
1	0x3d493234	0.049120143
2	0xbd3e85ec	-0.046514437
3	0xbddb43ee	-0.10706316
4	0xbc2d9f00	-0.010596991
5	0xbdfacae4	-0.122457296
6	0x3d783b0c	0.060603186
7	0xbd047474	-0.03233762
8	0xbdefec8a	-0.11715038
9	0xbbf89f80	-0.0075873733
10	0x3dd3c1ee	0.103397235
11	0x3d9d89b6	0.07692282
12	0xbd543fb0	-0.05181855
13	0x3def06c8	0.11671215
14	0xbb483b80	-0.0030553043
15	0x3df7bca8	0.1209653
16	0x3d4e9584	0.050435558
17	0x3cda6b08	0.026662365
18	0x3df2e430	0.118599296
19	0x3da05766	0.0782917
20	0x3d7ff7e0	0.06249225
21	0x3d5456a8	0.051840454
22	0x3dc6192c	0.0967277
23	0x3da2af4e	0.07943593
24	0xbd62d0e8	-0.05537501
25	0xbd1ed92c	-0.03878133
26	0xbdfbf410	-0.123024106
27	0x3de80862	0.11329724
28	0x3d47cf10	0.048781455
29	0xbd6b672c	-0.05747144
30	0x3dae889c	0.0852215
31	0x3dcf93a0	0.10135579
32	0xbd109944	-0.035302415
33	0xbd899506	-0.06717877
34	0x3d9aeb96	0.07564466
35	0xbd9a1546	-0.07523589
36	0xbc6d20a0	-0.01447311
37	0x3d6cb238	0.05778715
38	0xbde15df2	-0.11004247
39	0x3d18c6d0	0.037298977
40	0x3dc24dee	0.0948752
41	0x3c1cbb00	0.009566069
42	0x3d0c020c	0.03418164
43	0xbd729018	-0.05921945
44	0x3d8cb1b2	0.0686983
45	0xba81f480	-0.0009914786
46	0x3dd4dbc6	0.10393481
47	0x3d256b8c	0.040385768
48	0x3d06e498	0.032932848
49	0x3d976d28	0.07393867
50	0xbcbdf2e0	-0.0231871
51	0xbde005ee	-0.10938631
52	0xbd5adbb8	-0.053432196
53	0xbdc18fb0	-0.09451234
54	0xbc60ba10	-0.013716236
55	0x3dfc6610	0.123241544
56	0xbd46355c	-0.04839073
57	0xbd842688	-0.06452662
58	0xbd79b940	-0.060967684
59	0xbdb3b3e2	-0.08774544
60	0xbdbd2fd8	-0.09237641
61	0xbdd143b8	-0.102179945
62	0x3d24f43c	0.040271983
63	0xbd507824	-0.050895825
64	0x3dd40c54	0.10353914
65	0xbd383ba0	-0.044978738
66	0x3de320b8	0.11090225
67	0x3d276840	0.040870905
68	0x3d8b18ba	0.067918256
69	0x3bab8ae0	0.005235061
70	0xbce4f148	-0.027947083
71	0x3d7b7fbc	0.061401114
72	0xbc164a20	-0.009172946
73	0xbdcaf020	-0.099090815
74	0x3dce52be	0.100743756
75	0x3d8a8c5c	0.06765053
76	0xbd9f94ae	-0.0779203
77	0xbcf65800	-0.030071259
78	0xbc748c60	-0.014926046
79	0x3d3c7cd4	0.046017483
80	0xbc85c330	-0.016328424
81	0xbddfe4aa	-0.10932286
82	0xbda6d7fc	-0.081466645
83	0x3d8d6698	0.06904334
84	0x3d895a46	0.067066714
85	0xbda3bee4	-0.07995394
86	0x3d27163c	0.04079269
87	0xbd8bfefe	-0.06835745
88	0x3dfdc420	0.123909235
89	0xbda4f48c	-0.08054456
90	0xbd155b68	-0.036464125
91	0xbdd4dc12	-0.103935376
92	0x3d9638be	0.073350415
93	0x3d30797c	0.043084607
94	0xbd058170	-0.032594144
95	0xbcd13de0	-0.0255422
96	0xbd70b1b0	-0.058763206
97	0x3dbe78ce	0.093003854
98	0xbc6a1ad0	-0.014288619
99	0xbd02e7bc	-0.03195928
100	0xbdc2e98e	-0.09517203
101	0xbd2ae14c	-0.041718766
102	0xbd498c0c	-0.049205825
103	0xbdfe43ec	-0.12415299
104	0x3d9a6caa	0.07540257
105	0xbdf5f5ba	-0.12009759
106	0xbc01d440	-0.0079241395
107	0x3de21e9c	0.110409945
108	0xbcebd598	-0.028788373
109	0x3cb91168	0.022591308
110	0x3cd495b0	0.025950283
111	0x3da656f8	0.08122057
112	0x3da3b5ee	0.07993685
113	0x3c4a97c0	0.012365282
114	0x3dec0456	0.115242645
115	0xbdf82d1c	-0.12117979
116	0xbd1a720c	-0.03770642
117	0xbddb7762	-0.1071613
118	0x3dba22f4	0.09088698
119	0xbd3d0cdc	-0.04615484
120	0xbd90c938	-0.070696294
121	0x3d374368	0.044742018
122	0xbda4d7bc	-0.080489606
123	0xbdb3d892	-0.08781542
124	0x3c3515d0	0.011052564
125	0x3def6a10	0.11690152
126	0xbd2cd18c	-0.042192027
127	0x3d5cd80c	0.053916976
128	0xbd5b1130	-0.05348319
129	0x3d4eafd8	0.050460666
130	0xbd9486a8	-0.07252246
131	0xbd1d5a00	-0.03841591
132	0x3da68b58	0.081320465
133	0x3dc22604	0.09479907
134	0xbdefd2f0	-0.11710155
135	0x3c630c30	0.013857886
136	0xbddd9df0	-0.1082114
137	0xbd6cf2ac	-0.057848617
138	0xbdda33fe	-0.10654448
139	0x3d409060	0.047012687
140	0xbcf68ec8	-0.03009738
141	0x3cec8560	0.028872192
142	0xbd35bd90	-0.044370234
143	0xbcb2d138	-0.021828279
144	0xbd93e454	-0.072212845
145	0x3d4e4694	0.050360277
146	0xbd85bcea	-0.06530173
147	0x3d2594bc	0.040425047
148	0xbd1a4634	-0.037664607
149	0xbdafb628	-0.085796654
150	0xbdf4e38a	-0.11957462
151	0xb9c27600	-0.0003709048
152	0x3db8c50c	0.09021959
153	0x3d508d78	0.050916165
154	0xbd310e90	-0.04322678
155	0xbda84028	-0.08215362
156	0xbc8f7da8	-0.017515972
157	0xbdf7cdd0	-0.120998025
158	0xbdf74472	-0.12073602
159	0x3d8c4c7c	0.06850526
160	0xbdb528f2	-0.088457
161	0xbdb69ebe	-0.089169964
162	0x3d584a68	0.052805334
163	0x3d82dcb4	0.06389752
164	0xbd75ac38	-0.059978694
165	0xbdef4f1e	-0.11685012
166	0xbc02b400	-0.007977486
167	0x3d35d9d0	0.044397175
168	0x3dc36472	0.09540643
169	0x3cf0c590	0.02939108
170	0x3dbf04bc	0.09327075
171	0xbde28b08	-0.11061674
172	0x3dc1eebc	0.09469363
173	0x3d84a75a	0.06477232
174	0xbda9d78a	-0.08293064
175	0x3dfbc1c6	0.12292819
176	0x3d849846	0.06474356
177	0xbc43ccc0	-0.011950672
178	0x3c4e3f20	0.012588292
179	0xbbbcac80	-0.0057578683
180	0x3de267bc	0.11054942
181	0x3dd04e1c	0.10171148
182	0x3dc2b57a	0.0950727
183	0xbd09f198	-0.033677667
184	0xbd0a4ef4	-0.0337667
185	0x3d9e295e	0.07722734
186	0xbd06c8b0	-0.032906234
187	0xbd9c2b54	-0.07625452
188	0xb9697400	-0.00022263825
189	0x3c354a00	0.011065006
190	0xbd3e36ec	-0.046439096
191	0xbd206048	-0.03915432
192	0x3d899fee	0.06719957
193	0x3dfa66f8	0.12226671
194	0x3d0a8448	0.03381756
195	0x3a64b200	0.0008724034
196	0x3ddb3ba6	0.107047364
197	0x3dc1eaa8	0.09468585
198	0xbd01c6ac	-0.03168361
199	0xbce11e58	-0.02748029
200	0xbd83aa58	-0.06428975
201	0x3c3bbac0	0.011458099
202	0xbd74a9bc	-0.059732184
203	0xbd2e6b9c	-0.042583093
204	0xbc998578	-0.0187404
205	0xbd858cb8	-0.065209806
206	0x3d6a8df0	0.05726427
207	0xbdd9d6aa	-0.10636647
208	0xbcedb598	-0.029017255
209	0xbd17e3b4	-0.03708239
210	0xbdd9c574	-0.10633364
211	0xbd0beda4	-0.03416218
212	0x3db269c0	0.087115765
213	0xbd490090	-0.049072802
214	0x3deb766a	0.11497195
215	0xbda989cc	-0.08278236
216	0x3c1bcf20	0.009509832
217	0xbca6f3c0	-0.020379901
218	0xbdb3cd88	-0.08779436
219	0xbd2081cc	-0.039186284
220	0x3dae1208	0.08499533
221	0x3dea4948	0.114397585
222	0x3c2c9380	0.010533214
223	0xbdbbf8c8	-0.09178311
224	0xbb86a960	-0.0041095465
225	0xbdc7b8e0	-0.09752059
226	0xbdbd8860	-0.09254527
227	0xbd2c1078	-0.042007893
228	0xbdd65558	-0.10465497
229	0xbb716f00	-0.0036839843
230	0xbd46e908	-0.04856208
231	0xbc8cf988	-0.01720883
232	0x3d88225c	0.066471785
233	0xbdc4ec64	-0.096154004
234	0x3d27d868	0.040977865
235	0xbdd8032c	-0.1054748
236	0x3de431c2	0.11142303
237	0xbd0675d4	-0.032827213
238	0x3d86bb14	0.06578651
239	0x3dcb1f0c	0.09918031
240	0xbd965cee	-0.07341944
241	0xbdbd10d6	-0.09231727
242	0x3cf96580	0.030443907
243	0x3dbf307c	0.093354195
244	0x3db59a20	0.08867288
245	0xbd4c2488	-0.049839526
246	0x3daea6dc	0.0852792
247	0x3dca235a	0.09870024
248	0x3d9b78c8	0.075913966
249	0xbd993a84	-0.07481864
250	0xbd5873f8	-0.05284497
251	0x3d749584	0.0597129
252	0xbcb7bee8	-0.022429898
253	0xbcdafc48	-0.026731625
254	0x3dd0818a	0.101809576
255	0xbdaa91c0	-0.08328581

lstm.weight_ih_l1 f4 [256, 64]
0	0x3d902970	0.070391536
1	0xbd408e74	-0.047010854
2	0x3d0c4108	0.034241706
3	0x3db400d2	0.08789219
4	0xbdb95947	-0.090502314
5	0xbdcc4142	-0.099733844
6	0xbca8b3c0	-0.020593524
7	0x3d063f14	0.032775
8	0x3b982700	0.004643321
9	0xbda16c3a	-0.07881971
10	0xb9799efd	-0.00023805718
11	0x3c8b5290	0.017007142
12	0x3d9f7676	0.077862665
13	0x3dc42596	0.095774814
14	0x3d798ff4	0.0609283
15	0xbded6c56	-0.11592929
16	0xbd520c94	-0.051281527
17	0x3debed7d	0.11519907
18	0x3dfd5b06	0.12370877
19	0xbd1ce9e9	-0.03830901
20	0x3df3c196	0.11902158
21	0xbd2b1d98	-0.04177627
22	0xbd075b30	-0.033045948
23	0xbd9b6c32	-0.07588996
24	0xbd9ecb2a	-0.07753594
25	0xbc4b2530	-0.012399003
26	0x3db2542c	0.08707461
27	0x3ca509f8	0.020146355
28	0xbd0ac624	-0.033880368
29	0x3d253d0c	0.040341422
30	0x3dbf40be	0.093385205
31	0x3c0188a0	0.007906109
32	0x3df4233a	0.119207814
33	0x3de9b20e	0.11410914
34	0xbcb0ce20	-0.021582663
35	0xbd64cf38	-0.05586168
36	0x3de5af1c	0.1121504
37	0x3d1099f8	0.035303086
38	0x3d1596c4	0.036520734
39	0xbd92aec5	-0.07162241
40	0xbd8d1bb2	-0.06890048
41	0xbcb13298	-0.02163057
42	0x3de1f504	0.11033061
43	0x3c0b4de0	0.008502454
44	0x3b348200	0.0027543306
45	0xbd70b46c	-0.058765814
46	0x3daf7de8	0.085689366
47	0x3dd9fc64	0.10643843
48	0x3d86ead2	0.06587757
49	0xbc97b8a8	-0.018520668
50	0x3c136e0a	0.008998403
51	0xbd32b0a0	-0.043625474
52	0xbde574d7	-0.11203926
53	0x3d368d1c	0.044568166
54	0x3dd388ae	0.10328804
55	0x3c969030	0.0183793
56	0x3e0292f6	0.12751374
57	0x3c6f0a40	0.014589846
58	0x3c0f0ffc	0.008731838
59	0xba85c500	-0.0010205805
60	0xbd8fddc6	-0.07024722
61	0xbcdc6cf6	-0.026907425
62	0xbbf235c4	-0.0073916633
63	0x3d8ddc11	0.0692674
64	0xbdc357dc	-0.09538242
65	0x3dd26ac8	0.10274273
66	0xbde3a28a	-0.11114986
67	0xbcd432b8	-0.02590309
68	0xbd2454d6	-0.04011997
69	0xbd981e24	-0.07427624
70	0x3c8c2348	0.017106667
71	0xbd983bd2	-0.07433285
72	0xbc94a880	-0.018146753
73	0xbdc0e200	-0.09418106
74	0x3e0380f3	0.12842159
75	0x3de477de	0.11155675
76	0x3d3ddddc	0.04635416
77	0xbd1debe4	-0.03855504
78	0x3ddf8e8c	0.109158605
79	0x3cb7eb70	0.022451133
80	0x3d886c2c	0.06661257
81	0x3dd800d2	0.105470315
82	0x3d3348ec	0.043770716
83	0x3d8416f9	0.06449694
84	0x3ded3d16	0.11583917
85	0x3db8523e	0.090000615
86	0x3dcd1df2	0.10015477
87	0xbd53bab4	-0.051691726
88	0x3bef2b40	0.007298857
89	0x3dff14c8	0.124551356
90	0x3df5b2e1	0.11997009
91	0xbc829580	-0.015940428
92	0x3dd310ac	0.10305914
93	0xba944600	-0.0011312366
94	0x3dc62f4c	0.0967699
95	0x3dc2c774	0.09510699
96	0xbdf351ba	-0.118808225
97	0x3dd75054	0.10513368
98	0xbdb332aa	-0.08749898
99	0x3d2687d8	0.040656894
100	0xbb401ec0	-0.0029315203
101	0xbd0cfab0	-0.03441876
102	0xbdad4cb4	-0.084618956
103	0xbcabcddc	-0.020972185
104	0x3db10bd2	0.08644833
105	0xbd686cbd	-0.056744326
106	0xbde6f3e6	-0.11276989
107	0xbd6e485c	-0.058174476
108	0xbd864f2e	-0.06558071
109	0xbd757d14	-0.059933737
110	0x3df3c35c	0.11902496
111	0xbc5ca300	-0.013466597
112	0xbd8b4870	-0.06800926
113	0x3de95eea	0.113950565
114	0x3d79a49a	0.060947992
115	0x3df51cda	0.119683936
116	0x3d86aae7	0.06575566
117	0x3b5e5a50	0.0033928342
118	0x3c80d328	0.015725687
119	0xbd599924	-0.053124562
120	0xbd6da0bb	-0.058014613
121	0xbdaeafcc	-0.08529624
122	0x3d5063d8	0.05087647
123	0xbdb80768	-0.08985788
124	0x3db857e2	0.09001137
125	0x3d4b2802	0.0495987
126	0x3d1e58b3	0.03865881
127	0x3c887e8c	0.016661905
128	0xbc02f7f0	-0.007993683
129	0xbd32daac	-0.043665573
130	0x3cca1860	0.024669826
131	0x3d5b86c4	0.05359532
132	0xbbbf9580	-0.005846679
133	0x3da2a1f6	0.07941048
134	0x3db7c33a	0.089727834
135	0xbd458c5c	-0.04822956
136	0x3c563400	0.013073921
137	0x3cee2cea	0.029074151
138	0xbdd5e7d7	-0.104446106
139	0x3c835420	0.016031325
140	0x3dab01d2	0.083499566
141	0x3c9d3270	0.01918909
142	0x3c801560	0.015635192
143	0xbcf349f0	-0.029698342
144	0xbd031ee4	-0.03201188
145	0x3d2a9a37	0.041650977
146	0x3df9d4f6	0.12198822
147	0x3d2e5267	0.042559054
148	0x3dae4052	0.08508362
149	0x3dbc6b82	0.09200193
150	0x3c614d90	0.0137514025
151	0x3ddb275a	0.10700865
152	0xbdc0cb0a	-0.09413727
153	0xbad7b980	-0.0016458482
154	0xbd7a61bd	-0.061128367
155	0xbd96b844	-0.07359365
156	0xbcecd4e8	-0.028910115
157	0x3d60b5d4	0.054860905
158	0x3dd1dabe	0.102468
159	0x3c014360	0.007889599
160	0xbd342a14	-0.04398544
161	0x3dd4e2fa	0.10394855
162	0xbdaa11a8	-0.08304149
163	0xbd63a02c	-0.055572674
164	0x3d098f3c	0.033583865
165	0xbda8a91c	-0.0823538
166	0xbcff5df0	-0.031172723
167	0xbd26e56c	-0.040746137
168	0xbddaaf89	-0.10678012
169	0xbdf74716	-0.120741054
170	0x3cd4b2e1	0.025964202
171	0x3d23a3ec	0.03995125
172	0xbcc37a18	-0.02386193
173	0xbd5cdaa4	-0.05391945
174	0xbdf24aa6	-0.11830644
175	0xbd4a74fc	-0.04942797
176	0x3df38c9e	0.11892055
177	0x3d4cb208	0.04997447
178	0x3ddd22c9	0.1079765
179	0x3d506f5c	0.05088745
180	0xbd8aedbf	-0.06783628
181	0xbe03d665	-0.12874754
182	0x3db972c6	0.090550944
183	0xbd35401c	-0.044250593
184	0x3d416cc0	0.047222853
185	0x3dec897e	0.11549662
186	0xbd6536cb	-0.055960458
187	0xbcec8a50	-0.028874546
188	0x3d5378d0	0.051628888
189	0xbdb8974c	-0.090132326
190	0x3d485f28	0.048918873
191	0xbdd4ed2c	-0.103967994
192	0xbd8ee60e	-0.06977473
193	0x3de7e8e6	0.11323719
194	0xbca686b0	-0.020327896
195	0x3d9c62d0	0.076360345
196	0x3c4b98f8	0.012426607
197	0xbd617b7c	-0.055049405
198	0x3da2cd9e	0.079493746
199	0xbdfaf04e	-0.12252866
200	0x3c4e9890	0.012609616
201	0xbcd34c26	-0.025793146
202	0xbd7848a0	-0.060616136
203	0xbd236008	-0.039886504
204	0x3d8020e8	0.06256276
205	0xbba5cba0	-0.0050596744
206	0x3d2d3f3c	0.042296633
207	0xbdaec0ca	-0.08532865
208	0x3ca1b330	0.019738764
209	0x3d8e10bc	0.069367856
210	0xbd9e2422	-0.077217355
211	0x3dc7ce7b	0.0975618
212	0x3cfec1c8	0.031098261
213	0xbc543300	-0.0129516125
214	0x3c6b49f0	0.01436089
215	0x3dd2a896	0.102860615
216	0xbd534054	-0.05157502
217	0xbda86422	-0.08222224
218	0xbd7b361e	-0.061330907
219	0xbd7b32d4	-0.06132777
220	0x3c6b06f0	0.014344916
221	0x3d934f5e	0.071928725
222	0xbd074530	-0.033024967
223	0xbdad7518	-0.084695995
224	0x3d829338	0.06375736
225	0xbdbfebf6	-0.09371178
226	0x3d1cb320	0.038256764
227	0xbdad8be8	-0.084739506
228	0xbd662480	-0.056187153
229	0xbd653470	-0.05595821
230	0xbdabbdec	-0.08385834
231	0xbdab708e	-0.083710775
232	0xbdd25a61	-0.10271145
233	0x3d377cfd	0.044796932
234	0x3dbfe10f	0.093690984
235	0xbc017e00	-0.007903576
236	0x3d65a240	0.056062937
237	0x3d974de4	0.07387903
238	0x3c537820	0.012907058
239	0x3c269c70	0.010169134
240	0x3d56cd14	0.05244167
241	0x3d947ae6	0.072500035
242	0xbc871df2	-0.016493771
243	0x3d6aa03c	0.057281718
244	0xbd69670b	-0.056983035
245	0xbd8b828d	-0.0681201
246	0xbcc1abf8	-0.023641571
247	0x3c22e6e0	0.00994274
248	0x3e05aa46	0.13053235
249	0x3d8c2972	0.068438426
250	0xbb9a0514	-0.0047003124
251	0x3d8433c6	0.064551875
252	0xbc39f390	-0.011349574
253	0x3e0cc486	0.13746843
254	0x3c8095ea	0.015696485
255	0x3dbb6733	0.09150543

lstm.weight_hh_l1 f4 [256, 64]
0	0x3d8872d7	0.06662529
1	0xbd5f37c0	-0.054496527
2	0x3d7570ca	0.059922017
3	0x3d99f1f9	0.07516856
4	0x3d6f173b	0.058371764
5	0xbcf7e671	-0.03026125
6	0x3d91cbd9	0.07118959
7	0xbd9ea39e	-0.07746051
8	0xbd1f6bcf	-0.038921174
9	0x3d732346	0.05935981
10	0x3d93b18b	0.07211598
11	0xbdb24f17	-0.087064914
12	0x3e0d595a	0.13803616
13	0x3c38861d	0.011262444
14	0xbe026053	-0.12732057
15	0x3d35613d	0.044282187
16	0xbdd9ecc4	-0.106408626
17	0xbd989283	-0.0744982
18	0x3c949561	0.018137636
19	0xbb5a54d3	-0.003331472
20	0xbd29726c	-0.041368887
21	0xbcaf8114	-0.021423854
22	0xbd046d3c	-0.032330737
23	0x3d9d4920	0.07679963
24	0xbd690a1c	-0.056894407
25	0x3dbd4017	0.0924074
26	0xbe121c04	-0.142685
27	0x3dfd5ad5	0.123708405
28	0xbdb739d6	-0.08946578
29	0xbce066ed	-0.027392829
30	0x3c917088	0.017753854
31	0x3da08b10	0.07839024
32	0xbe02e5e4	-0.12783009
33	0x3de60f73	0.112334155
34	0xbdabf096	-0.083954975
35	0x3dc648c4	0.09681848
36	0x3b66af20	0.0035199597
37	0xbc8c6ec7	-0.017142667
38	0xbd0995ea	-0.033590235
39	0x3da3c17e	0.0799589
40	0xbdc6881b	-0.09693929
41	0xbda8d216	-0.08243196
42	0xbd2d9f38	-0.04238817
43	0xbdf130b1	-0.11776865
44	0xbd803447	-0.06259971
45	0xbdd567f6	-0.104202196
46	0x3d0072d8	0.031359524
47	0x3cdc5dea	0.02690025
48	0x3de7b3d0	0.113135934
49	0xbbcc8ad7	-0.006242137
50	0xbd6778d2	-0.056511708
51	0x3c283e46	0.010268753
52	0x3dc871e8	0.09787351
53	0xbab3b3bd	-0.0013710182
54	0xbdf04666	-0.117321774
55	0xbca88955	-0.020573298
56	0xbbf189ef	-0.0073711793
57	0xbb8817fa	-0.004153249
58	0x3d960170	0.07324493
59	0x3d092c10	0.033489287
60	0xbd1956e1	-0.03743637
61	0xbde0b129	-0.109712906
62	0x3e0c4432	0.1369789
63	0xbdabcec1	-0.083890446
64	0xbdb56b5a	-0.08858366
65	0xbcb0a364	-0.021562286
66	0x3e15c829	0.14627136
67	0x3da1b7c2	0.07896377
68	0xbd9e98b5	-0.0774397
69	0x3db1bdda	0.086787894
70	0xbda4c8b3	-0.08046093
71	0xbe08d117	-0.13361011
72	0xbdbf6b3b	-0.093466245
73	0xbd509db4	-0.050931647
74	0xbdbc5a3f	-0.091969006
75	0xbd6b9241	-0.057512525
76	0xbc971be9	-0.018445926
77	0x3de26a2b	0.11055406
78	0x3d956d82	0.072962776
79	0xbd255023	-0.040359627
80	0x3d643204	0.05571176
81	0x3bae7165	0.0053235763
82	0xbc38fcd2	-0.011290746
83	0xbcb3d850	-0.021953732
84	0x3d5a3d43	0.05328108
85	0xbddd7c46	-0.10814719
86	0x3c0cc33d	0.00859147
87	0xbd656c2c	-0.056011364
88	0xbc9c9cc5	-0.019117722
89	0xbdb02346	-0.08600478
90	0xbded79f4	-0.11595526
91	0xbd39cd67	-0.045361903
92	0xbc26bed7	-0.010177336
93	0xbde75703	-0.11295893
94	0xbe06563a	-0.1311883
95	0x3d726521	0.059178475
96	0xbdb3a7f4	-0.08772269
97	0x3d88838d	0.06665716
98	0x3d02a8cf	0.03189927
99	0xbcbf27bd	-0.023334378
100	0xbdffdfe8	-0.124938786
101	0x3e1c0238	0.15235221
102	0x3d4241e3	0.047426116
103	0xbe1a4363	-0.15064768
104	0xbc61ef4a	-0.013789961
105	0xbdd4a0a6	-0.10382204
106	0x3e0db42b	0.1383826
107	0x3d390456	0.04517015
108	0x3caba02a	0.020950396
109	0x3da8c756	0.08241145
110	0x3cfa0e9d	0.030524546
111	0x3bcb815b	0.0062104887
112	0x3d7ce992	0.061746188
113	0xbdb5d799	-0.088790126
114	0x3d0f3ce2	0.03497017
115	0xbe09ffb5	-0.1347645
116	0xbd9258f6	-0.07145874
117	0x3dbb4f8d	0.091460325
118	0x3d43e451	0.04782516
119	0x3c8859fa	0.016644467
120	0x3dbeb4bf	0.09311818
121	0xbd3c0f7b	-0.0459132
122	0xbd012e79	-0.03153846
123	0x3be3b064	0.0069485176
124	0x3ca50771	0.02014515
125	0x3d86003d	0.06543014
126	0x3d2ab017	0.04167184
127	0x3d9710e2	0.07376267
128	0xbd6cfadc	-0.057856426
129	0xbb9ca4ab	-0.004780372
130	0xbce42ec2	-0.027854327
131	0x3d3e897c	0.046517834
132	0x3d4f5814	0.050621107
133	0x3ad7e9ce	0.0016472877
134	0x3db141d4	0.08655134
135	0x3c530f7c	0.01288211
136	0xbda0db68	-0.078543484
137	0x3e146142	0.14490226
138	0xbd542df8	-0.05180165
139	0xbb23d18f	-0.0024996733
140	0xbdb9e632	-0.090771094
141	0xbb9caca2	-0.0047813216
142	0x3da4129a	0.080113605
143	0x3e14eefd	0.14544292
144	0xbd23cd82	-0.03999091
145	0x3dc10374	0.09424487
146	0xbbd79a59	-0.006579679
147	0xbd9e44f4	-0.077279955
148	0xbdf6043b	-0.12012526
149	0xbc791384	-0.015202407
150	0xbdd1c70c	-0.10243043
151	0x3dc0fe29	0.09423477
152	0xbd36a150	-0.044587433
153	0x3b98ebc1	0.004666776
154	0x3d06ad24	0.032879964
155	0xbd1a843c	-0.037723765
156	0xbd4e9b36	-0.05044099
157	0x3d74a0be	0.05972361
158	0x3cd1a38e	0.025590684
159	0x3dd904b1	0.10596598
160	0x3d77e6f1	0.060522977
161	0x3dcd5ca7	0.10027438
162	0x3cf81db7	0.030287607
163	0xbdc8c0d8	-0.09802407
164	0x3d9990aa	0.074982956
165	0xbd471172	-0.04860062
166	0xbdb4058e	-0.08790122
167	0x3d9672ca	0.07346113
168	0xbd837db5	-0.06420461
169	0xbdc583db	-0.0964429
170	0x3d17c531	0.03705329
171	0xbd484055	-0.048889477
172	0xbd002fb7	-0.031295504
173	0xbdafe7ed	-0.08589158
174	0xbde21a28	-0.11040145
175	0xbda2f9b3	-0.079577826
176	0xbcbdccd3	-0.023168957
177	0x3da6cdf9	0.08144755
178	0xbc186593	-0.009301561
179	0xbe08a750	-0.13345075
180	0x3da48bac	0.08034453
181	0xbcae5930	-0.021282762
182	0x3d6cff99	0.057860944
183	0x3d0f14f0	0.034932077
184	0xbdab029a	-0.083501056
185	0xbdc20c38	-0.09474987
186	0x3caac0d7	0.020843906
187	0x3daf741e	0.085670695
188	0x3de24a0e	0.11049281
189	0x3dc87785	0.097884215
190	0x3d0588d0	0.032601178
191	0xbd5a75ff	-0.053335186
192	0xbc9c5744	-0.01908458
193	0xbdbd0187	-0.09228807
194	0x3cf05466	0.02933712
195	0x3caeb732	0.021327589
196	0xbd3438cd	-0.043999482
197	0xbdb6c25a	-0.08923788
198	0x3c8eff0e	0.017455604
199	0xbd99c25b	-0.075077735
200	0xbd2ee3c5	-0.042697687
201	0xbd876ebe	-0.06612919
202	0x3ded03fe	0.11573027
203	0xbdb2755c	-0.08713791
204	0x3db66247	0.08905464
205	0x3def214c	0.11676273
206	0x3d0d8256	0.034548126
207	0xbdb951bb	-0.09048792
208	0xbd424c33	-0.04743595
209	0xbddf6bf8	-0.10909265
210	0x3de32b8d	0.11092291
211	0xbcada9bd	-0.021199102
212	0x3ba8a8b4	0.005147064
213	0xbd1f9b09	-0.038966212
214	0xbe075622	-0.13216451
215	0x3dda74e7	0.106668286
216	0x3e041c4d	0.12901421
217	0x3c57de8a	0.013175616
218	0xbd72cc18	-0.05927667
219	0xbd8f4f2c	-0.06997523
220	0xbd7295d1	-0.059224907
221	0xbcf24a43	-0.029576426
222	0x3bafa138	0.005359795
223	0x3d3cffa6	0.046142243
224	0x3b98b533	0.0046602725
225	0x3dea56bf	0.11442327
226	0xbdc85f1b	-0.09783765
227	0x3d94fee8	0.07275182
228	0x3cf396a5	0.029734919
229	0x3d5c79bd	0.053827036
230	0x3deec1b2	0.11658038
231	0xbd401cdd	-0.046902526
232	0x3dfd68fc	0.1237354
233	0x3ca5fdb9	0.020262586
234	0x3d25200a	0.040313758
235	0xbca9d4c3	-0.020731336
236	0x3d973408	0.07382971
237	0x3d9758e9	0.07390005
238	0x3dddb5d7	0.10825699
239	0x3d48e825	0.049049515
240	0x3dee9cba	0.11650987
241	0x3ded027d	0.1157274
242	0x3e10bc3e	0.14134309
243	0xbe103318	-0.1408199
244	0xbddc273c	-0.10749671
245	0x3d9b814d	0.075930215
246	0xbdbbf666	-0.09177856
247	0xbd568196	-0.052369677
248	0x3c5471a9	0.012966552
249	0xbcd00b92	-0.025396142
250	0x3d873f0f	0.06603824
251	0x3c6536e8	0.013990141
252	0x39c9a4ac	0.00038460398
253	0xbd2b258d	-0.041783858
254	0xbd95fa18	-0.07323092
255	0xbe13bc28	-0.14427245

lstm.bias_ih_l1 f4 [256]
0	0x3d0aac09	0.03385547
1	0x3df4a7f3	0.11946096
2	0xbdd2080e	-0.102554426
3	0xbd9f053e	-0.07764672
4	0xbddbee65	-0.107388295
5	0x3dfd7b3f	0.12377023
6	0x3c75b7e7	0.014997459
7	0x3d8b3ae1	0.0679834
8	0xbc48e9bf	-0.012262761
9	0xbd073005	-0.03300478
10	0x3d40e5a2	0.047093995
11	0xbd5cb7ac	-0.0538861
12	0xbda72c6a	-0.08162768
13	0xbd8ab1f7	-0.06772225
14	0x3dd6d5c1	0.10489989
15	0x3d92a1e1	0.07159782
16	0xbd41906a	-0.047256865
17	0x3c9101e3	0.017701095
18	0x3ce90b56	0.028447788
19	0xbd8df62b	-0.069317184
20	0xbdc0400c	-0.09387216
21	0x3d76797e	0.060174458
22	0x3d508c7a	0.05091522
23	0x3dee38b7	0.11631911
24	0x3df5e53d	0.12006614
25	0xba43bfe8	-0.0007467256
26	0x3c67f090	0.014156476
27	0x3c66199c	0.014044192
28	0x3dc1bc3b	0.0945973
29	0x3c57125b	0.013126935
30	0x3dae3eff	0.08508109
31	0x3b98c015	0.00466157
32	0x3c0e1028	0.008670844
33	0x3d3724fe	0.044713013
34	0xbca03c80	-0.019560099
35	0x3d8032ba	0.06259675
36	0x3da0230c	0.07819185
37	0x3d83f6ee	0.064435825
38	0x3e00f7f0	0.1259458
39	0x3cc927be	0.024555083
40	0x3d5738a8	0.052544266
41	0x3c462c1b	0.0120954765
42	0x3ca5b2e6	0.020226907
43	0xbc68ad22	-0.014201434
44	0x3ddbd74b	0.10734423
45	0xbce9a55d	-0.028521234
46	0xbdc626bc	-0.09675357
47	0xbd58405d	-0.052795757
48	0xbd0c8f49	-0.034316335
49	0xbbcfa6a7	-0.006337005
50	0x3da881e9	0.082279034
51	0xbdd0a7fd	-0.10188291
52	0xbd7cb02d	-0.06169145
53	0xbd453440	-0.048145533
54	0xbc2f418e	-0.010696782
55	0xbb192cc6	-0.0023372634
56	0xbdacfc95	-0.08446614
57	0x3daa2b7d	0.08309076
58	0x3ddf00db	0.10888835
59	0x3e039cd5	0.12852795
60	0xbcdcc9c8	-0.026951686
61	0x3d863c99	0.06554527
62	0xbd8df62b	-0.069317184
63	0xbd00d2e4	-0.03145112
64	0xbd0fc626	-0.03510108
65	0xbd162f84	-0.03666641
66	0xbdd2c18f	-0.102908246
67	0x3da16aab	0.078816734
68	0xbda358ff	-0.07975959
69	0xbd2844db	-0.04108129
70	0x3e132fb1	0.14373662
71	0xbd7d3ccc	-0.06182556
72	0xbcdb10fb	-0.026741495
73	0x3ca4fd8f	0.020140437
74	0x3d8bdf72	0.06829728
75	0xbd72cfed	-0.059280325
76	0xbdba320c	-0.09091577
77	0x3dd332ad	0.103124
78	0x3c7f58ca	0.015585134
79	0xbdc96d0b	-0.098352514
80	0x3d0b5244	0.034014
81	0x3dab9404	0.08377841
82	0x3dd55f93	0.1041862
83	0xbd79cb15	-0.06098469
84	0xbd91cbdb	-0.071189605
85	0xbdab8f52	-0.083769456
86	0xbb0325e4	-0.0020011598
87	0xbd850c27	-0.064964585
88	0x3bdc01dc	0.006714089
89	0x3e10ee7b	0.14153473
90	0x3deffaad	0.117177345
91	0x3d31bfde	0.04339587
92	0x3dafc67f	0.08582782
93	0xbd939d05	-0.072076835
94	0x3e0ff277	0.14057337
95	0xbd084150	-0.03326541
96	0xbda68ad0	-0.08131945
97	0x3d9b47ca	0.07582052
98	0x3de649eb	0.112445675
99	0x3d519d26	0.05117526
100	0xbccc4202	-0.024933819
101	0x3dc51dd9	0.096248336
102	0xbcfe8f10	-0.031074077
103	0x3d395c6e	0.045254163
104	0xbd0b61f5	-0.034028966
105	0xbdcf3f63	-0.10119512
106	0xbd3b2480	-0.045689106
107	0x3d1c8eac	0.038222
108	0x3d3fd43d	0.046833266
109	0x3d60bd51	0.054868046
110	0xbdeb75f5	-0.11497108
111	0xbca8090b	-0.020512125
112	0xbd6e3f92	-0.058166094
113	0xbd684f2d	-0.056716133
114	0xbdc1d24c	-0.09463939
115	0x3d186a46	0.037210725
116	0xbdedae88	-0.11605555
117	0x3d0ca5f5	0.034337956
118	0xbcc2d993	-0.023785388
119	0x3de2f8d8	0.110826194
120	0xbd69f8ce	-0.057122044
121	0x3d874ae6	0.066060826
122	0xbd0ac1fa	-0.033876397
123	0x3cbfcd07	0.023413194
124	0x3c51ec87	0.01281274
125	0x3d171a4d	0.036890317
126	0xbccbdbf9	-0.024885165
127	0x3d26ffe1	0.04077137
128	0x3df34fea	0.11880477
129	0x3d2a3dd4	0.04156287
130	0x3dd61760	0.10453677
131	0xbe0b32a3	-0.13593535
132	0xbdec52da	-0.1153924
133	0xbce952cf	-0.028481869
134	0x3d8dad6f	0.069178455
135	0xbd522d83	-0.051312935
136	0xbd9e5252	-0.07730545
137	0xbd7fec05	-0.062480945
138	0x3d92ddaf	0.07171189
139	0xbda61d72	-0.08111085
140	0xbca1fa88	-0.019772783
141	0xbdd757ac	-0.10514769
142	0x3cd1e02f	0.025619594
143	0x3d2a1d80	0.04153204
144	0x3b9a8bd9	0.004716378
145	0x3d1aee40	0.03782487
146	0xbc635675	-0.013875593
147	0x3d415991	0.047204558
148	0xbdb24f2e	-0.087065086
149	0xbc683d42	-0.014174761
150	0x3deb6aac	0.114949554
151	0x3d5e5740	0.054282427
152	0x3cd62f9a	0.026145745
153	0xbc2643ec	-0.01014803
154	0x3c238380	0.0099800825
155	0x3d6185dc	0.0550593
156	0xbc7e193d	-0.015508947
157	0xbde82de9	-0.11336882
158	0x3cb85254	0.022500195
159	0xbd40dede	-0.047087543
160	0x3da28634	0.079357535
161	0xbdfbb63e	-0.12290619
162	0xbdbb3235	-0.091404356
163	0x3d8c6e60	0.0685699
164	0xbd33dff0	-0.043914735
165	0x3a557a8e	0.0008143567
166	0xbda4c846	-0.080460116
167	0xbdac7624	-0.08420971
168	0x3cc6aed9	0.024253296
169	0xbd9ca4ad	-0.07648597
170	0xbde695f3	-0.11259069
171	0x3d5f0663	0.05444945
172	0xbd30ca9a	-0.043161966
173	0xbdb58aab	-0.088643394
174	0xbd15f9be	-0.036615126
175	0xbccc5120	-0.024941027
176	0x3d2c8a3f	0.04212403
177	0x3d534502	0.051579483
178	0x3db75942	0.089525715
179	0xbcb05f33	-0.02152977
180	0xbd7d3379	-0.061816666
181	0xbdb82dc0	-0.08993101
182	0xbd41537f	-0.04719877
183	0xbc10a9ab	-0.0088295145
184	0x3d9a89d2	0.075458184
185	0xbd4d6d75	-0.050153214
186	0xbdb8bf6e	-0.09020887
187	0xbdce07a7	-0.10060053
188	0xbd8f9554	-0.07010904
189	0xbdab1620	-0.083538294
190	0xbd0b84e1	-0.03406227
191	0x3cf148a6	0.029453587
192	0x3d2ff393	0.0429569
193	0x3dd35aec	0.10320076
194	0x3c99ea00	0.018788338
195	0x3dd0fa19	0.10203952
196	0xbd52f092	-0.051498957
197	0x3d822170	0.06354034
198	0x3df1dd41	0.11809779
199	0xbd9b5be9	-0.0758589
200	0xbdacd889	-0.08439738
201	0x3e1095b6	0.1411961
202	0x3dc7a5f7	0.09748452
203	0x3dfa0f1c	0.12209913
204	0xbd27349f	-0.040821668
205	0x3cfa1beb	0.03053089
206	0x3deecf83	0.116606735
207	0x3d4b16cc	0.049582288
208	0x3d3faaa0	0.04679358
209	0xbd6026a4	-0.05472435
210	0x3e0939f8	0.1340102
211	0xbc600890	-0.013673916
212	0x3d85f69f	0.0654118
213	0x3db86f45	0.09005598
214	0xbd86d8d2	-0.06584324
215	0xbcdf3725	-0.027247975
216	0x3db1435a	0.086554244
217	0x39a40ad2	0.0003128858
218	0xbd7080c8	-0.058716565
219	0x3d45f12f	0.048325714
220	0xbccf804c	-0.025329731
221	0x3d970f58	0.073759735
222	0x3e079854	0.13241702
223	0x3ca024ef	0.019548861
224	0x3c00d737	0.007863811
225	0x3dbf11ec	0.0932959
226	0xbd3f5158	-0.046708435
227	0xbd13ac73	-0.036053132
228	0x3d9cc3f6	0.07654564
229	0xbd3538f7	-0.04424378
230	0x3e0b492d	0.13602133
231	0x3d94a139	0.07257313
232	0x3d42f948	0.047601014
233	0xbd3b26ae	-0.045691185
234	0x3d5697cb	0.052390855
235	0x3dd75f4d	0.10516224
236	0x3d101c88	0.03518346
237	0x3db40579	0.08790106
238	0x3d346149	0.04403809
239	0x3de428b8	0.11140579
240	0x3d473e42	0.048643358
241	0x3d732d63	0.059369456
242	0x3dedf4d7	0.11618965
243	0x3de497c4	0.111617595
244	0x3df01e2b	0.11724504
245	0x3d670779	0.05640361
246	0x3df13c63	0.11779096
247	0x3dcc6ac6	0.09981303
248	0xbc52cd34	-0.012866307
249	0xbd0d5dac	-0.03451316
250	0x390b5c4f	0.0001329046
251	0xbd5dd549	-0.054158483
252	0x3d47f9f9	0.048822377
253	0x3d8c1933	0.06840744
254	0x3cdc3dda	0.026884962
255	0x3cfa8a82	0.030583624
