models/BTCUSDT_lstm_20250822_024448.pth (torch, 267815 bytes, 11 tensors)

lstm.weight_ih_l0 f4 [256, 53]
000000 00 80 48 b8 98 91 7d 3d b2 66 f2 bd 08 71 78 bd
       -4.7802925e-05 0.061906427 -0.11835994 -0.06065467
000010 f6 93 b7 bd 0c ea 5a 3d 3a 51 a5 bd 9c 29 1a bd
       -0.08963768 0.05344586 -0.08072133 -0.037637338
000020 88 27 b0 bd 9c de 9a 3d 74 bb 49 3d 76 cc f3 3d
       -0.0860129 0.075619906 0.049251035 0.11904232
000030 a8 75 c4 3c ba de d8 bd ec 0d 24 bd e8 50 f1 3d
       0.023981884 -0.10589357 -0.04005234 0.1178301
000040 c6 0a cb bd fc fc 99 bd 20 ad 2a bd 50 90 e8 3d
       -0.09914164 -0.07518956 -0.04166901 0.113556504
000050 62 5d d6 bd 1c 29 be 3d 18 a3 85 3d f4 24 5a bd
       -0.1046703 0.09285185 0.06525248 -0.053257897
000060 80 bd e6 bb 3a 06 aa 3d f0 d7 db 3c 0c c1 32 bd
       -0.007041633 0.08301969 0.026836365 -0.043641135
000070 14 41 ff 3d f6 a4 b1 bd 40 5b b3 bb 2c 5b 1c 3d
       0.124635845 -0.08674042 -0.0054735243 0.038172886
000080 80 a3 1f bc cc 58 60 3d 98 51 1c bd 28 08 f1 3c
       -0.009743571 0.054772183 -0.03816375 0.029422835
000090 96 9c 9c 3d 50 a4 2e bc b0 83 6a 3d a8 ba ea bd
       0.07647054 -0.010659292 0.057254493 -0.11461383
0000a0 64 39 a3 3d 3a 4a dd bd 0a d2 bc 3d a0 1f a2 bd
       0.07969931 -0.10805173 0.09219749 -0.07916188
0000b0 0c f5 f2 bd 20 c8 28 3c 4a 5b e2 3d 72 8c c5 3d
       -0.11863145 0.01030162 0.11052568 0.096459284
0000c0 66 dc d7 bd 4c 4a e6 3d 56 6c d3 3d e0 7e d2 3d
       -0.105400845 0.1124464 0.10323398 0.10278106
0000d0 10 26 2e 3c 1a 58 cd bd 50 07 c9 3c fc 39 b0 3d
       0.010629192 -0.1002657 0.02453962 0.0860481
0000e0 d4 ab 55 bd e0 46 5f bd e0 b7 fe bc f0 d5 77 3d
       -0.05216582 -0.05451095 -0.031093538 0.06050676
0000f0 b0 6d 44 3d 10 e8 58 3c 20 f0 f3 bb 4a a6 f6 bd
       0.04795617 0.013238922 -0.0074443966 -0.12043436
000100 e8 02 85 3c c0 b2 b7 3d 3a 44 d0 3d c0 db 81 bd
       0.016236737 0.08969641 0.10169263 -0.06340742
000110 8a 8f dd bd ec 67 30 3d 28 ca dd 3c f0 23 22 bc
       -0.108183935 0.043067858 0.027073935 -0.0098962635
000120 30 a2 4b 3c 46 e1 e2 3d 08 f6 08 bd 50 4c 8d bc
       0.012428805 0.11078124 -0.03343776 -0.017248303
000130 4a 81 a0 3d 96 29 df 3d 64 2f ea 3d 2a 2e b4 bd
       0.0783716 0.10896604 0.1143482 -0.087978676
000140 f6 88 f9 3d 08 09 dc 3d 40 ab 91 3d cc 6d b7 bd
       0.12184326 0.1074391 0.071127415 -0.08956489
000150 80 9f 2c 3b 1c 5b a4 bd 20 7e bf 3c 8e 98 dd bd
       0.0026340187 -0.0802519 0.02337557 -0.10820113
000160 f0 48 67 3c d4 10 08 bd 48 5f 75 bd a0 be 1a bc
       0.014116511 -0.033219174 -0.05990532 -0.009444863
000170 c4 9c 32 3d 10 23 75 bd f0 a0 ce 3c b4 61 e4 3d
       0.043606535 -0.05984789 0.025223225 0.11151448
000180 de 58 d6 bd 20 55 03 3c 24 f7 be 3d 60 85 2b 3d
       -0.10466169 0.008015901 0.09324482 0.041875243
000190 34 67 70 3d be f0 d7 3d 3a 17 f7 bd 70 07 19 bd
       0.058692172 0.10543965 -0.12064977 -0.03736061
0001a0 ea 06 c3 3d 90 c8 09 3d 9a e1 e0 3d d0 41 59 3c
       0.09522803 0.033638537 0.1098053 0.01326032
0001b0 3c 0a 9b 3d 48 17 27 3d 5a 08 ac 3d 80 cd af 3d
       0.075703114 0.040793687 0.084000304 0.08584118
0001c0 58 d4 48 3d 78 a0 6f 3d 08 af c9 3c e2 39 85 3d
       0.04903063 0.058502644 0.024619594 0.06505181
0001d0 22 dc d8 3d 60 12 68 bd 50 a6 49 bc 98 78 ce bc
       0.10588862 -0.05665815 -0.012307718 -0.025203988
0001e0 bc 67 b7 3d 00 7e a7 bb 86 4d 9d 3d b8 2a 38 bd
       0.08955333 -0.005111456 0.07680802 -0.044962615
0001f0 4e 89 c4 3d 20 d0 5d bc 0e ac c6 bd 98 0e e9 bd
       0.09596501 -0.01353839 -0.097007856 -0.11379737
000200 18 68 b6 3d 74 6f 89 bd c4 8c ce 3d 56 20 f0 bd
       0.08906573 -0.06710711 0.10085443 -0.117249176
000210 00 a9 8f bc a2 ee a8 3d 40 d8 4b 3b cc 0f cb bd
       -0.01753664 0.082486406 0.0031104237 -0.099151224
000220 72 ad fa 3d a4 7c de bd b6 b5 b0 3d e0 48 f5 3b
       0.12240113 -0.10863617 0.086284086 0.007485494
000230 f8 a6 20 3d c8 ce 6f bd 3a 21 a0 3d 22 e6 82 bd
       0.039221734 -0.05854681 0.078188375 -0.063915506
000240 e6 f0 d2 bd 30 d6 98 3d be f5 8b bd b8 ad 4e 3d
       -0.10299854 0.07462728 -0.06833981 0.05045864
000250 e2 b7 f1 3d 6a 63 d1 3d c8 c5 d7 bd ac 69 e0 bd
       0.11802651 0.1022404 -0.10535771 -0.10957655
000260 a0 64 c4 3b c0 90 80 3b e8 1e c0 3d c4 9a 8e bd
       0.0059934407 0.0039235055 0.09380895 -0.06963113
000270 4e 75 fe bd 8c 8b b0 bd ac 26 88 3d c0 d0 c2 3d
       -0.12424718 -0.086203665 0.06648001 0.09512472
000280 f2 bf fd 3d 98 44 9b 3c 24 84 67 bd e6 40 fc bd
       0.12390126 0.018953606 -0.056522503 -0.12317066
000290 8c f2 35 3d 18 84 ea 3d d0 88 f5 bc 88 6f cd 3c
       0.044420764 0.11450976 -0.029972464 0.025077596
0002a0 50 58 1d 3d 68 aa 92 bc 7e a7 f3 3d c0 39 17 bc
       0.0384143 -0.017903522 0.11897181 -0.009230077
0002b0 58 58 d4 3d 44 a1 5a 3d bc 8d 5a bd ba 29 e1 bd
       0.10368413 0.05337645 -0.053357825 -0.10994287
0002c0 aa 89 ff bd 54 e6 18 3d 72 63 bc 3d c0 d5 7c bb
       -0.12477429 0.037329033 0.09198655 -0.0038579553
0002d0 00 33 9b 3a 30 40 34 bc 4a 76 d1 3d 1a b0 e5 bd
       0.0011840761 -0.011001632 0.1022764 -0.11215229
0002e0 88 70 2e 3d f4 0d 78 3d b2 ba 92 bd d8 ad ed bc
       0.042587787 0.06056018 -0.071645156 -0.02901356
0002f0 50 1b f2 bd e8 2e e8 3d 90 da af bd c2 bb ad bd
       -0.11821616 0.11337072 -0.08586609 -0.084830776
000300 44 ca c4 bd 98 4a d8 bc d8 88 d5 3c d8 8e 34 3d
       -0.096088916 -0.026402757 0.026066229 0.04408154
000310 64 5f ea bd 14 d2 26 3d 40 ae 4d 3c 50 7e df 3d
       -0.114439756 0.04072769 0.0125537515 0.10912764
000320 48 40 d7 bd 1e d2 b0 bd 8c c4 72 3d 70 03 0f bc
       -0.105103076 -0.08633827 0.059269473 -0.008728847
000330 00 9b 49 ba de ea 84 3d 58 a6 ee 3d a4 00 a1 bd
       -0.00076906383 0.0649011 0.11652821 -0.0786145
000340 b0 bd 30 3c 94 f8 5c bd 4c 3d b4 3d f0 ba 94 3d
       0.0107874125 -0.053948 0.08800754 0.07262218
000350 88 4f c9 3c e8 6b 5e bd c8 c1 eb bc 10 02 57 3d
       0.024574056 -0.054302126 -0.028778926 0.0524922
000360 bc 18 00 bd 42 53 dc 3d 84 3a 6a 3d e0 24 0a bd
       -0.03127359 0.10758068 0.05718471 -0.033726573
000370 60 af e9 3b 84 83 55 3d 18 b0 b4 3c 70 f2 d5 bc
       0.007131502 0.052127376 0.022056624 -0.02611658
000380 5e ff fa bd 2c de b1 3d 20 71 a6 3b 78 11 f9 bd
       -0.12255739 0.08684954 0.0050794035 -0.12161535
000390 e0 0b 9d 3b c4 61 4c 3d 50 56 0c 3d 38 e5 d9 3c
       0.0047926754 0.049897924 0.034262 0.026598558
0003a0 c4 70 27 bd b0 d0 9d bd 5c 31 d7 3d c0 08 4f 3b
       -0.040879026 -0.077058196 0.105074614 0.0031590909
0003b0 1c f8 32 bd 02 bd d4 bd c0 ea fe bb 04 06 70 bd
       -0.043693647 -0.10387613 -0.007779449 -0.058599487
0003c0 06 2f 99 bd ca f4 ff bd 80 01 c5 ba 28 11 fc bd
       -0.07479672 -0.12497862 -0.0015030354 -0.1230796
0003d0 80 aa 98 3b f8 0a 36 bd 2a d4 ad bd 1a ec a5 bd
       0.004658997 -0.044444054 -0.08487733 -0.081016734
0003e0 b0 fa c0 bc 3c 10 f8 3d 82 55 f5 bd de b1 a2 bd
       -0.023557037 0.121124715 -0.119792 -0.07944082
0003f0 00 09 5f bd 5c 64 ab bd d0 ed db 3c e0 64 a4 bb
       -0.054451942 -0.083687514 0.026846796 -0.005016908

lstm.weight_hh_l0 f4 [256, 64]
000000 c0 cd 59 bd 9a 54 93 bd 1c 96 aa bd e8 dd 61 3d
       -0.053174734 -0.07193871 -0.08329412 0.055143267
000010 28 fa b1 bc 4e 1b ef bd ea 60 dc 3d 00 71 9f 3b
       -0.02172573 -0.1167513 0.107606724 0.0048657656
000020 ee 0b d9 bd 92 4d 92 3d be 92 8e bd a4 98 50 3d
       -0.105979785 0.071437016 -0.069615826 0.05092682
000030 a8 47 f2 bc c6 8e df bd f2 37 95 bd e8 ff e4 3d
       -0.029575184 -0.10915904 -0.07286061 0.11181623
000040 8c 54 89 3d 68 9e ee 3c 90 48 f5 bd 8e bb d7 bd
       0.06705579 0.029128268 -0.11976731 -0.1053382
000050 90 26 a5 bd a4 bd 4e 3d d8 0e aa bd b8 05 e9 3c
       -0.08063996 0.050473824 -0.083036125 0.02844511
000060 90 fa 02 3c ea d2 fe 3d 40 e8 47 bd 90 fe 9f bc
       0.007994309 0.124425724 -0.048805475 -0.019530565
000070 54 2c a3 bd 16 c5 e9 bd 00 23 6f bb 10 54 65 3d
       -0.07967439 -0.11414544 -0.0036489367 0.05598837
000080 00 ff c3 ba 5a b4 82 bd e0 ad bb bb c8 51 91 3c
       -0.0014953315 -0.063820556 -0.0057275146 0.017739192
000090 70 cc 8f bd 00 c6 de ba 90 e0 11 bd 6c 6f f6 3d
       -0.07021415 -0.0016996264 -0.03561455 0.12032971
0000a0 0c 6f f2 3d 80 fe 9a 3a d8 d4 12 3d 40 ed 81 bb
       0.11837587 0.0011825114 0.035847515 -0.00396505
0000b0 c4 f0 b0 bd 98 47 a2 3d e4 d8 7e bd ba 27 99 bd
       -0.086396724 0.07923812 -0.06221856 -0.0747828
0000c0 b8 40 90 3c 1a d4 da 3d d0 5f f1 bc ba d7 98 bd
       0.017608985 0.106849864 -0.029464632 -0.074630216
0000d0 30 cd 9b 3d a4 5d 1c 3d dc 73 60 3d 18 18 0d 3d
       0.07607496 0.03817524 0.054797992 0.034446806
0000e0 b0 96 d1 bd c0 47 0c bc d8 98 98 bd 10 65 94 bc
       -0.102338195 -0.008562028 -0.07451028 -0.018114597
0000f0 40 0c 99 bc 30 ba a1 bd 98 85 fc 3d 10 5b 80 3c
       -0.018682599 -0.078968406 0.123301685 0.015668422
000100 60 0c 29 bc 0e 6b 86 bd 18 ea 83 3c 20 55 6b 3d
       -0.010317892 -0.06563388 0.016102836 0.05745423
000110 78 76 5c bd 90 fb f0 bc 28 bd 83 bd c0 df d0 bb
       -0.053823918 -0.02941683 -0.06432563 -0.0063743293
000120 76 04 f6 bd 4e bb b5 3d bc 12 ca 3d 4a 06 e9 bd
       -0.120125696 0.08873616 0.098668545 -0.11378153
000130 78 0a c1 3c 82 4b d4 3d 60 dd b1 3b 0c ba 6c bd
       0.023564562 0.103659645 0.0054280013 -0.057794616
000140 62 fe ad 3d 10 2f bc 3c 84 f3 b7 bd 1e 8a cc bd
       0.08495785 0.02297166 -0.08981994 -0.09987281
000150 20 fb 43 bc 9c a5 72 3d e4 21 68 bd 00 6f 24 3b
       -0.011961728 0.05923997 -0.056672946 0.0025090575
000160 20 fc 18 3d 70 c6 aa 3d 20 2c 7d 3c 9a 1f 8e bd
       0.03734982 0.0833863 0.015452415 -0.06939621
000170 6e 63 b1 bd 30 9c da bd 98 bd c5 3c 18 ae 00 3d
       -0.08661543 -0.10674322 0.024138257 0.03141603
000180 3c 59 8f 3d 36 a7 b2 bd 14 af e2 3d 9a 51 da 3d
       0.06999442 -0.08723299 0.1106855 0.106600955
000190 c0 5e e7 3b e0 67 ba bd fc 99 68 3d 80 10 42 3b
       0.0070608556 -0.09101844 0.056787476 0.0029611886
0001a0 16 78 85 bd 80 a2 e0 3c a8 dd a8 3d 30 45 ad 3d
       -0.06517045 0.027421236 0.082454026 0.08460462
0001b0 ac 31 9c 3d a8 74 e8 3c 5c 9a 55 3d 80 0c 91 3c
       0.07626662 0.028375939 0.05214916 0.017706156
0001c0 20 43 70 3d 98 f2 a0 bc fe d4 f9 3d b0 af 5a bd
       0.058657765 -0.019646928 0.12198828 -0.053390205
0001d0 a0 93 c9 3b d4 c4 3e 3d 2c 89 01 3d 34 04 b7 3d
       0.0061516315 0.04657443 0.031624958 0.089363486
0001e0 80 02 08 bc 10 9a 6a bc d0 26 4c bc f2 2c 8c bd
       -0.008301377 -0.014318958 -0.0124604255 -0.0684451
0001f0 a2 cb ae bd 00 26 bf 3a f4 92 36 bd e0 72 7c bc
       -0.085349336 0.0014583468 -0.04457374 -0.015408248
000200 10 34 fa bc d2 49 fc bd 88 02 55 3d c0 58 2a 3d
       -0.030542403 -0.123187676 0.052004367 0.041588545
000210 40 fe 34 bd 58 3b d2 3d c0 c1 90 bd d4 ed 60 bd
       -0.044187784 0.10265225 -0.07068205 -0.05491431
000220 00 6d c6 3c 3c e4 ff 3d 18 5f 20 3d 30 3a 28 3d
       0.024221897 0.12494704 0.03915319 0.041071117
000230 e2 8b 83 bd b0 26 0c bd 4a 7c fb 3d 40 df 1e 3d
       -0.06423165 -0.034216583 0.12279566 0.038787127
000240 40 93 be 3b 96 14 c5 bd 6c 26 83 bd 12 93 c0 3d
       0.0058158934 -0.09623067 -0.06403813 0.094030514
000250 68 f0 65 bd 6e 85 9b bd 48 7e 7f bd 08 5a ed 3d
       -0.056137472 -0.07593809 -0.06237629 0.11589438
000260 30 c0 00 3c 78 12 26 bd a8 4a b8 bc 3c d3 f1 3d
       0.007858321 -0.040544957 -0.022496536 0.11807868
000270 b2 92 87 bd 6e 72 fd 3d b2 9b a8 3d 52 48 df bd
       -0.06619777 0.12375341 0.082328215 -0.10902466
000280 b0 04 bb 3d 90 2a a9 bc 42 37 af 3d 98 b0 d8 3d
       0.091317534 -0.020650178 0.085554615 0.105805576
000290 e0 d1 ac 3d 34 fd 62 bd d0 68 76 3c d0 10 17 3c
       0.08438468 -0.055417255 0.015039638 0.009220317
0002a0 e4 1c 17 bd 2e 66 a9 bd e2 1f f4 bd 18 0f 92 3d
       -0.036892787 -0.08271442 -0.11920144 0.07131785
0002b0 78 c1 2f bd 0c 7c c2 bd 00 80 c5 bb 66 a6 f6 bd
       -0.042909116 -0.09496316 -0.0060272217 -0.12043457
0002c0 a0 cc 8a 3d 90 2c a7 bd 0a 7b e2 3d 6c ca de bd
       0.0677731 -0.081627965 0.11058624 -0.10878453
0002d0 f6 c0 f5 bd a2 9f c5 bd de 0f b2 3d b0 06 b3 3c
       -0.11999695 -0.09649588 0.08694433 0.021853775
0002e0 3e 45 f9 bd f4 a5 15 bd a4 65 e5 3d 00 70 d5 b8
       -0.1217141 -0.03653522 0.11201027 -0.00010177493
0002f0 70 3d 89 3c 80 91 df 3b 10 54 1a bd 5a ab f1 3d
       0.016752928 0.006822765 -0.037677824 0.11800261
000300 24 53 8f 3d 40 ae 07 3b 92 90 9a bd 78 99 93 bd
       0.0699828 0.0020703226 -0.07547106 -0.07207006
000310 aa c5 d3 bd 48 11 9d 3c e8 fd 4a bd 24 7b d0 3d
       -0.10340436 0.01917328 -0.04955855 0.10179737
000320 da cb b5 3d 9c 67 b6 3d 66 f3 9a bd b0 d5 99 bd
       0.08876772 0.08906481 -0.07565956 -0.07511461
000330 c8 03 f5 3c a0 c6 5a bc 66 fd cb bd d0 a7 02 bd
       0.02990903 -0.01335302 -0.09960441 -0.03189832
000340 20 95 8a 3b 9c 91 77 3d 60 54 c3 bd 7c 33 29 3d
       0.004229203 0.0604416 -0.09537578 0.041308865
000350 20 25 9a bc d0 a7 cf 3d 90 b2 c0 3c 74 84 21 3d
       -0.01881653 0.101394296 0.023522645 0.039432958
000360 0e 60 e0 bd 42 29 83 3d 58 2c 6b 3d 42 9d f3 3d
       -0.10955821 0.06404354 0.057415336 0.11895229
000370 42 26 c5 bd 88 d9 6f bd b8 49 2c 3d 88 a1 6f 3d
       -0.09626438 -0.058557063 0.04206249 0.058503658
000380 ac e0 d5 3d d2 de b0 bd f0 8a 3f bd 28 9b 81 3d
       0.104432434 -0.086362496 -0.04676336 0.06328422
000390 60 e8 89 3b a0 9e 25 3c f0 f4 84 3d c0 0d 51 3d
       0.0042086095 0.01010862 0.064920306 0.051038504
0003a0 c2 43 c1 bd 80 0b e9 3b b2 ff ea bd ec 10 92 bd
       -0.09436752 0.0071119666 -0.11474551 -0.07132134
0003b0 0c 08 84 bd 90 de 1d bc ae d1 f1 bd 58 f7 8d bd
       -0.06446847 -0.009635583 -0.11807571 -0.06931943
0003c0 f8 ee 69 3d ee bb 92 3d b8 d6 b5 3c e4 a8 50 bd
       0.057112664 0.07164751 0.022197112 -0.050942317
0003d0 9c 4e ec bd d4 77 3e 3d 68 42 87 bc f0 75 90 bd
       -0.11538431 0.046500996 -0.016511157 -0.07053745
0003e0 30 e4 32 bc c0 a4 3c 3c 80 a7 de bb a0 46 c7 3d
       -0.010918662 0.011513889 -0.00679487 0.097302675
0003f0 18 c4 a6 3c 0e 6b b3 bd ee 00 c8 3d 80 03 68 3c
       0.020357177 -0.087606534 0.09765802 0.014160991

lstm.bias_ih_l0 f4 [256]
000000 40 95 c2 bb 3e f9 d7 bd 00 8e e2 bd d6 6d 95 bd
       -0.005938202 -0.10545586 -0.110622406 -0.0729634
000010 70 06 df 3d fa 51 cf 3d 38 0a f2 bc c4 b3 91 3d
       0.108899 0.10123058 -0.029545888 0.07114366
000020 a8 22 d3 3c ac 83 c2 3d 22 0b df bd 80 33 22 bb
       0.025773361 0.09497771 -0.10890795 -0.0024749935
000030 46 7f ba 3d 54 2c 02 bd d0 58 6f 3c 3c 9d 86 3d
       0.09106307 -0.031780556 0.014608577 0.06572959
000040 f6 df e2 bd b6 a5 a1 bd 88 91 ae 3d d6 21 eb 3d
       -0.110778734 -0.07892935 0.08523852 0.11481063
000050 9c 9b 24 3d 5a 20 86 3d 68 db 05 3d b0 23 b4 bd
       0.040187463 0.06549139 0.032679945 -0.08795869
000060 6c 50 14 3d 38 ef 99 3d 38 e1 26 3d 96 6a 9a bd
       0.03620951 0.075163305 0.04074213 -0.07539861
000070 48 9f 0f bd 7c 38 d3 bd 38 86 9d 3d 64 02 94 3d
       -0.03506401 -0.10313508 0.07691616 0.072270185
000080 3e be 95 bd 14 70 aa 3d 64 31 a8 bd e0 cf 25 3c
       -0.073116764 0.083221585 -0.082125455 0.010120362
000090 70 96 a4 bc 8c 3c 18 bd 68 e8 ab bd ec a6 52 3d
       -0.020091265 -0.037167117 -0.08393937 0.05142872
0000a0 f0 6b cc 3d 1c a7 28 bd b4 a3 fc bd b6 fc a8 3d
       0.09981525 -0.041174993 -0.123359114 0.08251326
0000b0 50 2a dd bc 16 7c a8 3d 02 7d c3 3d e4 39 87 3d
       -0.026997715 0.082267925 0.09545328 0.06602839
0000c0 c0 c5 a3 3b 40 b2 f5 3d 6e 59 a5 bd 40 22 9a bd
       0.004997939 0.11996889 -0.08073698 -0.07526064
0000d0 44 79 1c bd f8 93 24 bd 38 9c 4f bd a8 a0 e0 3c
       -0.038201585 -0.040180176 -0.05068609 0.027420357
0000e0 10 0b 0a 3c 10 c8 b4 3d 5c 2f ae bd 70 59 d0 3c
       0.008425489 0.088272214 -0.08505127 0.025433272
0000f0 70 d6 27 bd 0c 0a f2 3d 24 8d 22 3d 0e c1 b0 3d
       -0.040975988 0.118183225 0.039685383 0.08630572
000100 e4 46 a9 bd b8 19 a6 bc 40 53 0c 3d e0 93 fe 3c
       -0.082654744 -0.020275936 0.03425908 0.031076372
000110 ee 19 f9 3d a0 99 fd 3c 38 86 d4 bd 3a 2e 84 3d
       0.12163149 0.030957043 -0.10377163 0.064541295
000120 40 4d f4 bb 2a bc dc bd 0e 4d b5 bd 9c 61 43 bd
       -0.007455498 -0.10778077 -0.08852588 -0.04770051
000130 d4 42 a9 3d 48 46 74 bd 90 ab e6 3d 08 96 74 3d
       0.082646996 -0.059637338 0.11263192 0.059713393
000140 36 e5 ca bd 14 0d 67 3d 38 d4 98 bc 9e cb e1 bd
       -0.09907 0.056408957 -0.018655881 -0.11025165
000150 b0 52 3c 3c de e2 fb 3d 48 a3 bb 3d f4 09 9b bd
       0.011494324 0.12299131 0.09162003 -0.07570258
000160 28 52 cb 3c ae 86 ac bd 30 97 63 3c 88 81 fd bd
       0.024819449 -0.084241256 0.013891026 -0.12378222
000170 ea 34 bc bd b2 63 aa bd 34 a6 3f bd 34 58 f1 bd
       -0.0918978 -0.083197966 -0.046789363 -0.117844015
000180 f8 ee bd 3c 80 3d a0 ba 64 d2 18 3d 40 ba 89 bd
       0.023185238 -0.001222536 0.03731002 -0.067249775
000190 40 fe 0d bc fc 6d f2 3d 08 a4 b2 bc 80 fc ad bd
       -0.008666575 0.11837384 -0.021806732 -0.08495426
0001a0 bc 50 21 3d 40 b5 fb 3c 7a 1e a4 bd e6 88 9c bd
       0.039383635 0.030726075 -0.080136254 -0.07643299
0001b0 84 5b e5 bd 80 9b d3 bd e0 26 b9 3b f0 23 e5 3d
       -0.11199096 -0.10332394 0.005650386 0.11188495
0001c0 c8 73 d2 3d 10 6f e7 bd 28 c5 cd bd 9a 69 90 3d
       0.1027599 -0.1130048 -0.1004737 0.07051392
0001d0 40 59 01 3d ce 74 80 bd dc 52 37 3d e4 6c b5 bd
       0.031579256 -0.06272279 0.044756755 -0.0885866
0001e0 f2 b4 cb bd 82 53 a0 3d d4 45 c5 3d d0 1c 3d 3c
       -0.09946622 0.07828428 0.09632459 0.011542514
0001f0 b0 1e c1 3c 58 0c 1d 3d b0 13 f9 3c 8e 48 af bd
       0.023574203 0.03834185 0.030404896 -0.085587606
000200 0c 22 e5 bd fe ac 84 bd f8 f2 75 bd 82 e7 84 3d
       -0.111881346 -0.06478308 -0.060046166 0.06489469
000210 34 66 20 bd 70 16 66 3c 2e b6 b4 3d 78 f0 da 3d
       -0.03915997 0.014043435 0.088238105 0.10690397
000220 a0 c2 71 bd 22 31 de 3d 84 54 9b 3d 82 b6 81 bd
       -0.0590235 0.10849215 0.075844795 -0.06333639
000230 70 55 dc 3d 66 01 a5 bd 60 48 f0 3c ec e3 85 bd
       0.107584834 -0.08056907 0.029331386 -0.06537613
000240 8c b1 bb bd 86 4b ea bd fe 39 ba bd dc ba 43 3d
       -0.09164724 -0.11440186 -0.090930924 0.047785625
000250 7a 95 bf 3d ac 97 bc 3d a6 1f ec 3d ba c3 85 3d
       0.09354682 0.092086166 0.11529474 0.065314725
000260 70 41 88 bd 82 94 e4 bd ca a3 c7 3d 3a bf fe bd
       -0.06653106 -0.11161138 0.09748037 -0.12438817
000270 00 e8 aa bb 90 62 9f 3c 38 91 ba 3d e0 7f ce bd
       -0.005215645 0.019456178 0.091097295 -0.10082984
000280 32 f7 e7 3d ea b1 df 3d 74 26 64 3d e6 13 bf 3d
       0.11326446 0.10922606 0.055700734 0.09329967
000290 62 2b de bd b8 06 4e 3d 78 60 e4 bd 20 dc ab 3b
       -0.10848118 0.050299376 -0.111512125 0.005244747
0002a0 00 41 d3 3c 9c 90 18 bd 20 d5 05 3c 14 91 d9 3d
       0.02578783 -0.037247285 0.008168489 0.106233746
0002b0 f0 d4 74 bd 40 03 f5 bb f0 13 86 bc 24 8f 27 bd
       -0.059773386 -0.007477194 -0.016366929 -0.040907994
0002c0 38 db fd 3d 00 9f 18 bb a0 19 91 3c 50 99 3f bc
       0.12395328 -0.002328813 0.017712414 -0.011694267
0002d0 46 b9 f3 3d b8 40 bf 3d 96 06 ef bd 20 d6 14 3c
       0.119005725 0.09338516 -0.11671178 0.0090842545
0002e0 60 7a 4e 3d 90 a9 8e 3d 8a fa f1 3d 94 8e 64 3d
       0.050409675 0.06965935 0.11815365 0.055800036
0002f0 b2 97 be bd b8 ee 49 3d 64 ac 2f 3d e0 b5 56 bc
       -0.09306277 0.049299926 0.042889014 -0.013104886
000300 c8 d0 e1 bd f8 c5 19 3d 80 44 26 bb 7c 80 67 bd
       -0.1102615 0.037542313 -0.002537042 -0.056519017
000310 04 37 75 bd 08 bf da 3c 54 2b 26 3d b8 e3 13 3d
       -0.05986692 0.026702419 0.040568665 0.03610584
000320 3e 4c ec bd dc 52 e0 3d ec 4a 18 bd 5e 36 d0 3d
       -0.115379795 0.10953304 -0.037180826 0.1016662
000330 cc b5 90 3d 20 d6 c1 bc e0 e5 5f bc 0e f9 a9 bd
       0.07065925 -0.023661673 -0.013665646 -0.082994565
000340 94 f2 93 3d 80 0c ff bc 40 41 42 bd 48 e6 9c 3d
       0.072240025 -0.03113389 -0.04742551 0.0766111
000350 30 18 af bd ee d5 8a bd 50 6f 21 bc 34 ce b9 3d
       -0.08549535 -0.06779085 -0.009853199 0.09072533
000360 22 9f a1 bd d0 01 19 bc a4 68 22 3d 04 f7 1a bd
       -0.0789168 -0.009338811 0.039650574 -0.03783323
000370 86 fc bd 3d f2 36 ee bd f6 40 f8 3d d8 51 81 bc
       0.09276681 -0.11631574 0.12121765 -0.015786096
000380 40 55 70 3d 6e 9d 9e 3d 98 33 fa 3c 40 f0 6c 3d
       0.05867505 0.07744871 0.03054218 0.057846308
000390 ec 73 e6 bd 9a be 95 bd ba 6e b1 bd 50 1b 5f 3c
       -0.11252579 -0.07311745 -0.086636975 0.013617352
0003a0 b8 43 f2 bd fc 0a 8b bd 20 3d 3a 3c f6 5d f0 3d
       -0.118293226 -0.067892045 0.011367112 0.117366716
0003b0 b8 6c 8c bc 28 54 b9 3c 02 9c 83 bd 80 e3 34 bb
       -0.017141685 0.022623137 -0.064262405 -0.002760142
0003c0 92 b0 d9 bd be 01 c5 bd c2 83 de bd 78 4e 72 bd
       -0.10629381 -0.09619473 -0.108649746 -0.059156865
0003d0 24 26 28 3d 60 f8 a4 3b 60 c9 d7 3b 7a 1a ff bd
       0.041052 0.0050344914 0.006585285 -0.12456222
0003e0 2c a4 e3 bd 8c 76 71 bd 70 f4 ab 3d 18 b5 95 bd
       -0.11115298 -0.058950946 0.08396232 -0.073099315
0003f0 e0 ca 3b 3c c8 e2 1d bd d0 f9 76 3d 08 4a 19 bd
       0.011461943 -0.038546354 0.060296834 -0.037424117

lstm.bias_hh_l0 f4 [256]
000000 64 21 c2 3d 18 2c 4e bd f8 e2 51 bd a0 77 55 3c
       0.09479025 -0.05033502 -0.051241845 0.013029009
000010 a0 33 57 3c 80 7f cf 3a 5a ff e6 bd 00 7b 68 ba
       0.013134867 0.0015830845 -0.11279173 -0.0008868426
000020 38 c6 bc 3d 28 b2 63 3d c0 3b bd bc 76 7c eb 3d
       0.09217495 0.055589825 -0.02309978 0.114983484
000030 2c 35 41 bd a0 4d fe bd 90 e3 ae 3c 80 b7 7d bd
       -0.04716985 -0.124171495 0.021348745 -0.061942577
000040 64 72 53 3d 2c ba 40 bd c0 12 90 3d 60 71 d2 3c
       0.051622763 -0.047052547 0.07034826 0.025688827
000050 6a 03 bc 3d 50 ce 5b 3c ce d1 ed bd c4 bf ac 3d
       0.09180339 0.013415888 -0.11612283 0.08435014
000060 c0 87 88 3d 30 8a d3 bc 18 b6 cc bd 44 cc 7b 3d
       0.06666517 -0.025822729 -0.09995669 0.0614741
000070 9c 57 b7 bd 40 f2 d2 bb 78 59 d0 bc 5e 79 83 3d
       -0.08952257 -0.00643757 -0.025433287 0.06419633
000080 16 5e 9a bd a4 02 18 3d a2 a7 ba bd e4 8d 6a bd
       -0.07537477 0.037111893 -0.09114005 -0.057264224
000090 90 94 41 3c 44 ac af bd f8 4b 92 bd 42 10 b3 bd
       0.011815205 -0.08577779 -0.07143396 -0.08743335
0000a0 e2 28 e4 bd a4 4e c8 bd 3c 1a 54 bd 86 6b 97 3d
       -0.1114061 -0.097806245 -0.05178283 0.07393555
0000b0 58 44 d5 bc 78 df 58 3d 20 37 47 bc 8c b7 93 bd
       -0.026033565 0.05294749 -0.012159139 -0.07212743
0000c0 e0 ba a1 3b 70 6c c8 bd 78 88 1f bd c0 3f 9c bb
       0.0049356073 -0.09786308 -0.038948506 -0.004768342
0000d0 80 4c f5 ba 40 0f 8e bb 74 0e 6f bd 36 f8 c9 3d
       -0.0018714815 -0.004335314 -0.058363393 0.098617956
0000e0 72 28 a0 3d 20 8d 8b 3c 00 73 e7 bd e0 c2 b1 3d
       0.07820214 0.017035067 -0.113012314 0.086797476
0000f0 18 be c0 3d 22 80 8f bd 6e ec 85 3d 38 69 7e bd
       0.094112575 -0.07006861 0.06539236 -0.062112063
000100 6c de e0 3d 5e e0 8a bd f0 42 eb bd 78 61 13 bd
       0.109799236 -0.06781076 -0.11487377 -0.035981625
000110 24 19 b1 3d e0 6c 72 3d d0 2d 84 bc a8 c9 f4 bc
       0.08647373 0.059185863 -0.016135126 -0.029881313
000120 ec a3 8a bd 30 67 b7 bc 62 f7 86 3d f6 be be bd
       -0.06769547 -0.02238807 0.06590153 -0.09313767
000130 d8 4a 4e bd 0c 79 05 3d de 82 d3 bd 80 c9 85 bb
       -0.050364345 0.032586142 -0.10327695 -0.0040828586
000140 6c a3 8b 3d 08 e2 ab 3c 2c 32 df 3d 28 a1 8a bc
       0.068182796 0.020981804 0.108982414 -0.016922548
000150 96 0e e4 3d c4 6f fb 3d 30 94 9a 3c 20 e6 d0 bc
       0.111355945 0.12277177 0.01886949 -0.025500357
000160 00 38 d0 b8 a4 a3 33 3d 00 90 bf 3d 40 f8 7d 3d
       -9.928644e-05 0.04385723 0.09353638 0.062004328
000170 7c 47 f5 bd e8 d2 64 bd e8 7b b7 3d f8 1d 98 3c
       -0.11976525 -0.0558652 0.0895918 0.018568978
000180 6c 62 2f 3d 88 9f e3 bc d0 0d 7a 3c 10 12 6c bc
       0.04281847 -0.027786031 0.015262082 -0.014408603
000190 98 7a 99 bd 00 a0 64 38 f4 c6 06 3d 70 95 84 bd
       -0.07494086 5.4508448e-05 0.03290458 -0.064738154
0001a0 e8 12 a5 3c 08 ab a1 bd de 70 9a bd 42 be a2 bd
       0.020150617 -0.0789395 -0.07541059 -0.07946445
0001b0 0a ab fc bd 28 46 b7 bc 86 86 e3 3d 86 9a c2 3d
       -0.123373106 -0.02237232 0.11109643 0.09502129
0001c0 3c f8 53 bd bc dd 29 bd c0 0f 79 bd 80 ca 95 3d
       -0.051750407 -0.041471228 -0.060806036 0.073140144
0001d0 d6 b0 f4 bd 20 b8 09 3c 80 08 b6 3c 40 b3 eb 3b
       -0.11947791 0.008405715 0.02222085 0.007192999
0001e0 76 a6 d2 bd 98 b1 52 3d 7a f3 c4 bd f0 1c ce 3d
       -0.10285656 0.051438898 -0.09616752 0.10064113
0001f0 cc 47 1a 3d 46 4f 9e bd 3a e0 84 bd 80 40 ee 3b
       0.037666127 -0.07729964 -0.0648808 0.0072708726
000200 bc be 93 bd 12 3b e8 bd d0 a1 4c bd 06 61 83 bd
       -0.07214114 -0.11339392 -0.049959004 -0.0641499
000210 c0 b8 0c 3d 58 d3 87 3d b0 08 f2 bc a0 f2 3c bd
       0.03435588 0.066321075 -0.029545158 -0.046129823
000220 ea 30 df bd 08 df 1c 3d b8 6b ce bc 80 9f cb bd
       -0.108980015 0.038298637 -0.025197849 -0.099425316
000230 b8 0b 9d bd d8 6b 91 bd 5c 0f da 3d 52 90 a8 3d
       -0.07668251 -0.07100648 0.10647461 0.08230652
000240 04 f1 82 bd b0 86 91 3d e0 be 73 3d 46 3c 88 3d
       -0.06393626 0.07105768 0.059508204 0.06652121
000250 a0 39 85 bc 68 85 c7 bd 76 06 f0 bd 1c 84 70 bd
       -0.01626283 -0.09742242 -0.11719982 -0.05871974
000260 a0 de a9 bb 10 09 f1 bc 8c a4 f2 3d 1c e3 45 3d
       -0.0051840097 -0.029423267 0.11847791 0.04831229
000270 24 76 92 bd 38 e0 4c 3d 60 00 52 3c 6c 03 8b 3d
       -0.0715144 0.05001852 0.012817472 0.06787762
000280 d8 ac 94 3c f4 5f 77 3d a0 dc 30 bd 30 68 66 3c
       0.018148825 0.060394242 -0.043179154 0.014062926
000290 a0 fa 6a 3d a0 bb fc 3d 40 d0 03 bb 9c 41 d4 3d
       0.05736792 0.12340474 -0.002011314 0.103640765
0002a0 20 5f bf 3c 28 28 a4 3d b0 cb b3 3d 38 2e e5 bc
       0.023360789 0.08015472 0.08779085 -0.02797614
0002b0 26 d7 db bd 68 bd a0 bd 38 19 7b bd b4 27 a3 3d
       -0.10734396 -0.078486264 -0.061303347 0.07966557
0002c0 28 27 d4 bc 58 34 2a 3d 50 95 6c bd 28 c3 b2 3d
       -0.025897577 0.041553825 -0.057759583 0.08728629
0002d0 b8 f9 b5 3c 20 1e 58 bc e8 19 02 3d 34 a6 9a bd
       0.022213802 -0.013190776 0.031762987 -0.07551232
0002e0 14 2e ed 3d d0 9d 5d bc b0 c6 0f 3d ee 02 aa bd
       0.11581054 -0.013526395 0.035101593 -0.0830134
0002f0 86 5f fb 3d 4c d8 94 3d d0 84 5f bc 74 db 03 3d
       0.12274079 0.07267818 -0.013642505 0.03219171
000300 44 cb 85 bd 90 69 c2 bd 00 bf cf bd b8 98 ec bd
       -0.065329105 -0.09492791 -0.10143852 -0.11552566
000310 08 fe d2 bc 8c a5 8f bd 88 1e 46 bd d0 4f a8 3c
       -0.025755897 -0.070139974 -0.04836896 0.02054587
000320 80 fa b2 3c 1c be f8 3d 90 d9 09 bd 80 68 52 bc
       0.021847963 0.121456355 -0.03365475 -0.012842298
000330 80 e0 df bc 00 f6 57 bd cc 18 e2 3d b2 d1 d6 bd
       -0.02732873 -0.05272484 0.11039886 -0.10489215
000340 8e e3 fe 3d cc f5 8f 3d d4 48 a8 3d 32 a0 ea bd
       0.12445746 0.07029304 0.08217016 -0.11456336
000350 4a 42 f6 bd b0 e8 ae bd 60 c6 18 bc 02 58 f1 3d
       -0.120243624 -0.08540475 -0.00932464 0.11784364
000360 c8 ec b6 bd 36 99 cb 3d 58 88 a9 bc b0 a9 02 3d
       -0.08931881 0.09941332 -0.020694897 0.031900108
000370 cc ce 5e 3d 5e 21 cc bd 44 b3 6b 3d 60 72 ab 3c
       0.054396436 -0.09967302 0.057544008 0.020928562
000380 34 40 1f 3d 60 d4 6b bc 5e 67 82 bd 74 1c 79 bd
       0.03887959 -0.014393896 -0.06367372 -0.06081815
000390 78 94 89 3d b6 7f e9 bd fc 71 ad bd 7c 0f 7c bd
       0.06717771 -0.11401312 -0.084690064 -0.061538205
0003a0 80 3a 11 3b 56 e8 ee bd 34 e5 19 bd 08 a7 cd 3d
       0.0022160113 -0.11665408 -0.0375721 0.10041624
0003b0 b0 4c 2f 3d 64 b9 16 3d 9c 58 e0 3d bc be 6e bd
       0.042797744 0.036797896 0.10954401 -0.058287367
0003c0 50 9d b1 3d 5e 2d f1 3d 80 b4 aa bc 5a 56 a0 bd
       0.08672583 0.11776231 -0.020838022 -0.0782897
0003d0 44 9b 05 3d 7e e1 93 3d e4 4a be bd ae 86 92 3d
       0.032618776 0.072207436 -0.09291628 0.07154594
0003e0 68 0d 64 bd f2 01 d8 3d 30 59 ec 3c 00 6d 5c bc
       -0.055676848 0.10547246 0.028851122 -0.013453722
0003f0 62 5f c1 bd a8 c9 e2 3d 2c e3 b1 3d 92 6a bf bd
       -0.09442021 0.11073619 0.08685908 -0.093464985

lstm.weight_ih_l1 f4 [256, 64]
000000 84 ed 10 3d da 2b 92 bd b0 13 51 bc 5c 74 a7 3c
       0.035382763 -0.0713727 -0.0127610415 0.020441227
000010 3f 91 8a 3c 12 9c 51 3d c0 b7 a9 3c f2 97 41 bd
       0.016914962 0.05117423 0.020717502 -0.047264047
000020 60 50 3a 3d bf ee 92 3d aa cd ed 3d 40 51 29 bb
       0.045486808 0.071744435 0.11611493 -0.0025835782
000030 16 3c a3 3d 41 c5 8b 3d ed ef c2 3d ba e0 ed 3d
       0.07970445 0.068247326 0.095184185 0.11615129
000040 57 3a 89 bd a0 09 c0 3c 60 d8 d3 3d 59 c5 8c 3d
       -0.067005806 0.02344209 0.10344005 0.068735786
000050 70 f7 9f 3d df ad e8 bd 54 39 19 bd 20 0f db 3b
       0.07810867 -0.11361288 -0.037408188 0.0066851526
000060 e3 96 02 be ba 23 01 be 5a 91 af bd 00 4d c6 3c
       -0.12752871 -0.12611285 -0.085726455 0.024206638
000070 8c 5c 9e bd 20 95 cb bd 22 6c a7 3b 60 ea ed 3c
       -0.07732496 -0.09940553 0.005109326 0.029042423
000080 38 73 3c bd 6a ef 09 3e fa d4 7a bd 20 ce 18 3d
       -0.04600832 0.13470235 -0.061238267 0.03730595
000090 4a fd 98 bd 60 f8 4d 3d 9e 44 f9 bd 66 6e cf 3d
       -0.07470186 0.050285697 -0.12171291 0.10128479
0000a0 1f 1a 66 3d 78 1a e9 bc 30 5d 7d bd f8 f2 e9 3d
       0.056177255 -0.028455004 -0.06185645 0.11423296
0000b0 a0 7b f2 bd e4 57 8a 3d f6 30 9b bd 14 f0 9f 3d
       -0.11839986 0.06755045 -0.07577698 0.07809463
0000c0 b4 a5 c5 3d 36 47 96 3d 8c 9f c4 bd 19 56 b5 bd
       0.09650746 0.07337801 -0.09600744 -0.088543124
0000d0 00 d2 40 bd ac a9 3f 3d 84 a6 18 bd 60 fd 3e 3d
       -0.04707527 0.04679267 -0.037268177 0.046628356
0000e0 a0 0b 56 3d bc 0e 34 3d 2e 7a 83 bd 80 1c ee bc
       0.05225718 0.043959364 -0.06419788 -0.029066324
0000f0 88 6f cf bc 7c a7 5f bd 80 f8 f1 3a bc 43 e9 bd
       -0.025321737 -0.054603085 0.00184609 -0.113898724
000100 20 11 f6 bb 88 81 16 bd ea 7e a9 bd 38 39 f6 bd
       -0.0075093657 -0.036744624 -0.0827616 -0.12022632
000110 da 59 06 3d f6 cc 95 bd d0 c0 b9 bd 99 56 53 3c
       0.032800533 -0.07314484 -0.09069979 0.012899064
000120 80 6a f7 3b 98 90 a5 bc 1e bf 84 3d 3e 66 d3 bd
       0.0075505376 -0.02021055 0.06481765 -0.103222355
000130 34 a7 0f 3d f0 f5 04 bd 25 86 d6 3d 14 90 e6 bd
       0.035071567 -0.032461107 0.10474805 -0.112579495
000140 af de 8e 3c 62 b3 d0 bd 48 fa d7 3d 3d 48 c5 bd
       0.017440168 -0.101904646 0.10545784 -0.09632919
000150 be c5 ff bd 3c 6b 4b 3c f4 6d 3b 3d 8c d2 05 bd
       -0.12488888 0.012415703 0.045759156 -0.032671496
000160 8f 65 03 be 8d 56 dc bd 7a 31 a4 3d 8c 3b bb bd
       -0.1283171 -0.10758696 0.080172494 -0.09142217
000170 40 6d bd 3b 00 17 43 bc 20 d4 23 bd d0 21 de 3d
       0.005780846 -0.011907339 -0.03999722 0.10846293
000180 b8 e1 a3 bc 2d f8 4f 3d 8d f1 76 3d e0 c3 01 3c
       -0.020005092 0.05077379 0.060288955 0.007920235
000190 80 6e ca 3c f4 f9 32 3d 80 70 b1 bd 78 60 d9 3c
       0.024710894 0.043695405 -0.08664036 0.026535258
0001a0 84 33 fb bc d8 43 07 bd 6a 75 7d bd 04 8e fa 3d
       -0.030664213 -0.033023685 -0.061879553 0.122341186
0001b0 f0 97 0d 3d c0 ce 1d bc 40 75 68 3b dc ee 9a 3d
       0.034568727 -0.009631813 0.0035470277 0.0756509
0001c0 02 8e f6 bd 20 b2 41 3c 34 ac da bd 7d 2f 2d 3d
       -0.120388046 0.011822253 -0.106773764 0.042281616
0001d0 b8 13 08 bd 1c 6e 43 3d a0 1e 83 3b ee 7a 83 3d
       -0.03322193 0.04771243 0.0040014535 0.06419931
0001e0 64 07 7a bd eb 4f 08 3e 40 6e 46 bb dc cb fa bd
       -0.061042204 0.13311736 -0.0030278116 -0.12245914
0001f0 ca 39 cf 3d f4 ef 6d bd 64 ec 89 bd 88 04 7f bc
       0.10118444 -0.058090165 -0.06734541 -0.015565045
000200 a4 c6 13 3d c0 93 7f 3b be c7 e5 bd cc 5d 85 3d
       0.03607811 0.0038997978 -0.112197384 0.06512031
000210 b2 86 49 3d 75 7d d0 3d 9a b4 b9 3d 90 b4 45 3d
       0.04920072 0.10180179 0.0906765 0.0482679
000220 88 d4 c2 3c b7 6d 2e bd 68 74 96 3c 0c fa bf 3d
       0.023782983 -0.0425851 0.018366054 0.093738645
000230 16 b3 e6 3d a2 05 d3 3c 0d e0 3f 3d da 60 92 3d
       0.11264627 0.025759522 0.04684453 0.07147379
000240 f7 5c ab bc 68 d1 b7 3c 00 c0 f7 37 91 71 b1 bc
       -0.020918353 0.02243872 2.9534101e-05 -0.021660598
000250 f0 f2 7d bd 73 1a d3 3d 64 7c 53 bd 3c 18 30 bd
       -0.06199926 0.10307779 -0.0516323 -0.04299186
000260 ba 07 d7 3c 0e 09 0d be dc 02 87 3d 78 46 af 3c
       0.026248801 -0.13772985 0.06592342 0.021395907
000270 28 f8 75 3d c4 6a 4d 3d 1e 4b 5e 3d 42 2e 90 3d
       0.060051113 0.050150648 0.054270856 0.07040073
000280 92 78 f6 3d 27 40 8c bd 8a 8b d2 bd 50 22 5d 3c
       0.12034716 -0.068481736 -0.10280521 0.01349695
000290 54 d8 4f 3d ea 7a b0 3d 40 2c 2f bb 56 80 bd 3d
       0.050743416 0.08617194 -0.0026729256 0.09252994
0002a0 0c 2e fb 3b 10 b9 17 3d 29 64 70 bd 78 4a e6 bc
       0.0076654013 0.037041724 -0.05868927 -0.028111681
0002b0 2a 15 c9 bd 54 37 11 3d 50 45 18 bc e4 71 63 3d
       -0.0981849 0.035453156 -0.009293869 0.055528536
0002c0 c0 20 ea bd ae bc b4 3d 40 02 bb bd ce 1e 40 bb
       -0.11432028 0.0882505 -0.091312885 -0.0029315236
0002d0 f0 8c da bc b0 97 60 3d 18 63 3c bd 78 08 a6 3d
       -0.026678532 0.05483216 -0.04599294 0.08107084
0002e0 ea 84 a2 bd fe 38 af 3d 90 14 d2 3c 0e df c4 bd
       -0.079355076 0.08555792 0.02564457 -0.09612857
0002f0 d0 e5 46 3d 84 cc 78 bd 50 a0 fc bc ef 43 c9 3d
       0.04855901 -0.060741916 -0.030838162 0.098274104
000300 b4 d0 90 3d ec ab c1 bd 10 70 21 3c 3d 8f c7 3c
       0.07071057 -0.094566196 0.009853378 0.024360294
000310 f8 e1 e5 bd 50 cb 4f bd d0 75 bd bd 1a 72 88 3d
       -0.11224741 -0.050731003 -0.092509866 0.06662388
000320 b0 5f 4c bd 42 e3 f8 3d 34 10 f4 3d ca 5f ec 3d
       -0.049895942 0.12152721 0.11917153 0.11541708
000330 20 1e b7 3b e2 9b 07 bc ba 5e c6 3d e0 3c 46 bd
       0.005588308 -0.008276911 0.096860364 -0.0483979
000340 06 53 62 bc b2 be aa 3d 9e f6 9c bd 2d 7b e4 bd
       -0.01381374 0.083371535 -0.07664226 -0.111563064
000350 56 22 e6 bd 75 30 e4 bd ee 38 d6 3d 84 fd 86 bd
       -0.11237018 -0.11142055 0.10460077 -0.06591323
000360 6b c3 5d 3d 37 8f 05 bd e6 f8 dc bd a4 9f 6e 3d
       0.054141443 -0.032607283 -0.10789661 0.058257714
000370 30 95 06 3c 92 a6 e8 3d 87 ee ee bc 6c f6 6c 3d
       0.00821428 0.11359896 -0.029166473 0.057852194
000380 e8 73 54 bd 5f c6 ec bc ac a6 7d bd 34 83 c6 bd
       -0.05186835 -0.028903184 -0.06192653 -0.09692994
000390 30 78 ac 3d 5c 73 76 bd c8 d3 8e 3c 80 3f 71 bc
       0.084213614 -0.06016861 0.01743497 -0.014724612
0003a0 30 ea d0 bd e0 1d 3a bd 08 00 c2 bd 98 25 18 3d
       -0.10200918 -0.045438647 -0.09472662 0.037145227
0003b0 e0 41 31 bd 84 30 11 3d 8c 62 cf bd 08 c5 6d 3d
       -0.043275714 0.03544666 -0.10126218 0.05804923
0003c0 2a 4d d1 3d 08 48 f0 3c 78 aa 88 bc ae 59 c7 3d
       0.10219796 0.029331222 -0.016682848 0.09733902
0003d0 80 1b 09 3b 70 8a 6c 3d cc 20 e5 3d a4 d4 c1 3d
       0.0020920932 0.05774921 0.11187896 0.09464386
0003e0 80 df 52 bd 8a a0 cd 3d 60 67 33 3d a2 45 c6 3d
       -0.051482677 0.10040386 0.043799758 0.0968125
0003f0 00 4c 59 bd 8a e8 c9 bd 60 c7 e5 3c 02 74 23 bc
       -0.053050995 -0.098588064 0.028049171 -0.009976389

lstm.weight_hh_l1 f4 [256, 64]
000000 cf 44 0c 3c 6c f2 b5 3d ab c1 94 3c 5b 38 a2 bd
       0.008561327 0.08884129 0.018158754 -0.07920905
000010 1f e8 61 bd 95 2e 67 bd b6 4c 4e bd b1 22 50 3d
       -0.05515301 -0.05644091 -0.050366126 0.050814334
000020 8a 9e e7 bc 87 64 6c bd 2c 1e 09 3e 9e ca e0 3d
       -0.02827384 -0.057713058 0.13390416 0.10976146
000030 b2 c5 9d 3d 92 c3 9b 3d 7e fb 8f bd b7 68 e4 3c
       0.07703723 0.076056615 -0.0703039 0.027881963
000040 cb a8 84 3d 84 a0 ed 3b f4 6c 50 bd b1 72 cc 3d
       0.06477507 0.007251801 -0.050885156 0.09982813
000050 55 1f d7 bc dd 57 0b 3e 57 11 92 3d 1f 2f ba 3d
       -0.026260057 0.13607736 0.071322136 0.09091019
000060 ff 6e d6 bd ed 46 6f bd 76 7c ac bd dd 1a e1 b8
       -0.104703896 -0.05841725 -0.084221765 -0.0001073384
000070 f3 d5 1b bc 77 5b 9e 3d 31 0e a6 3d 3e 95 ff bb
       -0.009511459 0.07732289 0.081081755 -0.0077997735
000080 63 db ec bd 26 38 09 3d be e5 c7 3d 97 cf 95 bc
       -0.11565282 0.033500813 0.09760617 -0.018287463
000090 08 97 81 bd 1f d7 7d 3d 46 fa 9b 3d e1 30 6c bd
       -0.06327635 0.061972734 0.07616095 -0.057663802
0000a0 b0 cb 88 3d 9b 5a 24 3d 3b 01 0a 3d a9 94 fe 3c
       0.06679475 0.04012547 0.03369258 0.031076746
0000b0 34 a5 87 bd 23 fc a7 bd c8 29 a3 bd 86 77 6b bc
       -0.06623307 -0.08202388 -0.079669535 -0.014371758
0000c0 fd 04 1e 3d 45 5b a1 3d 35 d8 30 bd 36 58 11 3e
       0.038578976 0.078787364 -0.04317494 0.14193806
0000d0 27 ee 99 3d b6 14 85 3d 59 e5 9b 3d 79 c2 e8 bc
       0.07516127 0.06498091 0.07612104 -0.028413044
0000e0 84 8f 99 3d ab 4c 87 3d be 9f ed bc 9f c6 86 bd
       0.074980766 0.0660642 -0.029006835 -0.06580853
0000f0 ab 63 05 3e 71 6c 40 bd c0 8a 23 bd c3 29 06 3c
       0.13026302 -0.046978418 -0.039927244 0.008188668
000100 38 11 df 3d 5f aa b7 bc 90 60 6b bd 67 26 f8 bd
       0.10891956 -0.022420106 -0.057465136 -0.121167
000110 bd 11 fc 3d 4a 63 8d bd 82 e3 ae 3d 51 a4 a8 bc
       0.12308071 -0.069037035 0.085394874 -0.020586165
000120 a6 98 07 3d 37 27 e3 3d b0 21 68 3d cd f9 50 bd
       0.03310456 0.11091464 0.056672752 -0.05101948
000130 5f f7 b8 bd 35 9b 4f 3d 05 7d 43 3d 72 a3 6c bd
       -0.09031557 0.050685126 0.04772665 -0.05777306
000140 0e 1c 67 bd 25 fd 61 3c 42 7b d9 bd 4d ba 0b be
       -0.05642324 0.0137932645 -0.10619213 -0.13645287
000150 47 4e 09 be 4a 2e dd bd 21 04 cf 3d 61 bf 04 be
       -0.13408767 -0.107998446 0.101082094 -0.1296363
000160 a0 59 4e bd 15 df e1 3d 65 48 bd bd 3d ad 88 3d
       -0.05037844 0.11028878 -0.09242324 0.066736676
000170 ff cb e0 3d 53 48 57 bd 17 e2 85 3d fe 65 f5 bd
       0.10976409 -0.052559208 0.06537264 -0.11982344
000180 a4 3c 4b 3c 23 b7 f8 3d 5e 33 98 3c e8 bb a2 bd
       0.012404595 0.121443056 0.018579181 -0.079459965
000190 92 d4 0a be b8 aa 29 3d 07 ae d7 bc ea 5a 04 bd
       -0.13557652 0.041422576 -0.0263281 -0.032313265
0001a0 e3 f0 7a 3c 41 7f 1c 3d 8e e2 ae 3d 32 b7 c3 bd
       0.015316221 0.038207296 0.085393056 -0.09556426
0001b0 88 51 63 3b 63 db c4 bc e6 83 a3 3d 6c a1 8a bd
       0.0034686048 -0.024030393 0.07984142 -0.0676907
0001c0 0a 68 9e bd 33 59 8d bd 7b 98 00 3c 3f 47 da 3d
       -0.077346876 -0.06901779 0.007848854 0.1065812
0001d0 0b 3d 07 3e 10 79 ce 3d 18 46 ee 3b 0f 3d 9e bb
       0.1320688 0.100816846 0.0072715394 -0.004829056
0001e0 ab 87 1e 3c 91 00 bb bd 8c 08 f8 3d ec 49 ac 3d
       0.0096759 -0.091309674 0.12111005 0.08412537
0001f0 f5 0f 7d 3b a1 12 9f bd 23 20 cc 3d 47 ee d5 bd
       0.0038614247 -0.07767225 0.09967067 -0.104458384
000200 4d bc fe 3b 3a 0a c4 bd d9 0c f2 3d 67 7b db bd
       0.007773912 -0.09572263 0.11818857 -0.107168965
000210 ef c8 7c 3d 2d 3d 4f bd a8 45 85 bd b1 27 9b 3d
       0.061715063 -0.05059545 -0.065074265 0.0757593
000220 e2 67 79 3d 77 ed 05 be 5b 35 f5 3d 1d 15 88 bd
       0.060890086 -0.13078867 0.119730674 -0.06644652
000230 81 52 c4 3d 9a e2 ac 3d 5f 71 94 3c e4 b3 95 bd
       0.09586049 0.08441658 0.018120466 -0.07309702
000240 b0 1c 39 3d 5d 50 06 be 94 31 5f bd 9d ce c5 3d
       0.045193374 -0.13116594 -0.05449064 0.09658549
000250 22 f7 b7 3b 33 2d 87 bd be 62 95 bd 03 43 06 3d
       0.0056141773 -0.06600418 -0.07294224 0.03277875
000260 95 c2 9f 3d bf ec a7 3d 1e 40 1b be 39 c6 b0 bd
       0.078007855 0.081994526 -0.15161178 -0.08631558
000270 b5 36 5e 3d e4 23 e6 bc 24 2d 9d bd 6e 89 54 bd
       0.05425139 -0.028093286 -0.076746255 -0.051888876
000280 ea 37 b5 bd bf d9 0c 3e bc f0 1c 3d 77 7d 92 bc
       -0.088485554 0.13754939 0.03831552 -0.017882092
000290 77 ac 06 bc 5c 36 e4 bd 33 a3 6e bd e9 23 35 bd
       -0.00821983 -0.11143181 -0.058261108 -0.0442237
0002a0 b0 07 72 bd 82 12 a3 bd 23 20 0c 3e b5 84 c9 bd
       -0.059089363 -0.079625145 0.13684134 -0.09839765
0002b0 57 1e 5d 3c 0c 46 41 3b 7a 91 19 be c7 29 5e bc
       0.013496003 0.0029491214 -0.14996901 -0.013559765
0002c0 49 2a 5a 3d 25 29 ea bb 86 e6 de bd c8 ce 68 bc
       0.053262983 -0.007146018 -0.108838126 -0.014209457
0002d0 36 18 d1 3d d2 2c 08 be fa 8f 82 bd 3f 27 8b bd
       0.10209696 -0.13298348 -0.063751176 -0.06794595
0002e0 7a 38 68 bd cb 78 0d 3d 0c 16 68 3c 93 b2 62 bb
       -0.056694485 0.034539025 0.014165413 -0.0034591302
0002f0 71 71 d1 3d 0e 2f 2a bc db 5a af 3d d5 2e 0f be
       0.10226715 -0.010387195 0.08562251 -0.13982709
000300 9c 33 8f 3d f5 22 12 3e 3c ab bd 3d 86 1c 1e bd
       0.069922656 0.14271148 0.09261176 -0.03860142
000310 2d 96 09 bd 11 b3 0a 3d cb 3d f4 3b 6b 05 b5 3b
       -0.033590484 0.033862177 0.0074536554 0.0055243275
000320 d2 d5 51 3d 9d 6a 47 bd ff 0d 65 3d 39 97 f8 bb
       0.051229306 -0.04868566 0.05592155 -0.0075863865
000330 4c d5 ce 3d 2a 43 80 3c 4e 15 08 be 0f ed 42 3c
       0.10099277 0.015657026 -0.13289377 0.0118973395
000340 e7 6d 07 3e 62 bf 4d bd 5a 43 2a 3d 1e b8 c1 3d
       0.13225518 -0.050231345 0.041568138 0.09458946
000350 e2 c0 05 bd 2a 80 ca 3d b1 25 cd 3d e0 aa 3b 3d
       -0.03265465 0.098877266 0.10016955 0.045817256
000360 40 98 9e 3d cb 8b 95 3d c3 23 be 3d c3 fd cb bc
       0.07743883 0.07302054 0.09284165 -0.024901276
000370 42 ad bd bd 10 90 6d bd 41 f8 86 3b 48 ad f4 bd
       -0.09261562 -0.057998717 0.0041189496 -0.11947113
000380 f8 15 3c 3d b6 3f 97 3c ce 57 d1 bd 09 92 c3 bc
       0.04591939 0.018462997 -0.102218255 -0.023873346
000390 ba 8e 15 bc 22 e2 9a bd b6 86 97 bc 2b 4f 0c bd
       -0.009128267 -0.07562663 -0.018496852 -0.034255188
0003a0 9b 55 9a bd ea 31 bb bd dd a7 f2 3c ef ea 28 bd
       -0.07535859 -0.0914038 0.02962106 -0.041239675
0003b0 d3 f3 1e bd e1 90 70 bd 6a 5f 91 bd 3d 09 d7 bb
       -0.038806748 -0.058731917 -0.07098277 -0.0065623806
0003c0 ee 75 01 bc 9f 22 0c bd 40 e5 04 be b0 2c b8 bd
       -0.007901652 -0.034212705 -0.12978077 -0.089928985
0003d0 da 94 92 3d 43 ec fb bd c3 9c 67 3d a7 17 37 bd
       0.071572974 -0.12300923 0.056545984 -0.04470029
0003e0 db 2a bf 3d 50 a1 fd bd 1e 12 3e 3d ce 5f c1 3a
       0.09334346 -0.123842835 0.046403997 0.0014753283
0003f0 3b df ca bc 2e a8 17 3c a8 41 bc bc 4f 57 c2 3d
       -0.024764648 0.009256406 -0.022980526 0.09489309

lstm.bias_ih_l1 f4 [256]
000000 62 09 a0 3d 6d b9 92 3d ea 39 9a 3c 1e 4d aa bd
       0.0781429 0.071642734 0.018826444 -0.0831549
000010 24 fe 1d bd 69 12 05 bd 9b e7 9a 3d 04 73 1d bb
       -0.038572446 -0.03248826 0.075637065 -0.0024024853
000020 70 ea 28 3d bd b9 c3 bc 68 50 0b bd 5b 68 b3 bb
       0.041239202 -0.023892278 -0.03401223 -0.0054750866
000030 2c 11 78 bc 6d db ac bd e6 52 4c bc a3 46 e1 3c
       -0.015140813 -0.0844029 -0.012470936 0.027499503
000040 83 c1 92 3d ae 68 ac bd e0 d8 c2 bb 54 0d c9 3b
       0.07165816 -0.084184036 -0.0059462637 0.006135622
000050 ff cd e0 3d 74 6a 7d 3d d7 2d 88 bd a6 0a fd 3d
       0.10976791 0.0618691 -0.06649368 0.12355547
000060 ce 3a 01 3e 57 93 a7 bc 48 a3 a7 bc c6 1e 0c bd
       0.12620088 -0.020456 -0.0204636 -0.034209035
000070 2e 2b 2e bd b9 4a dc 3d de 38 64 3d 3d 7d a6 3d
       -0.042521648 0.1075644 0.055718295 0.08129356
000080 e8 83 12 bd 12 06 20 3b cc 0e 7e 3d ba aa 98 3d
       -0.035770327 0.002441768 0.06202583 0.074544385
000090 ff 92 b6 bc fd 67 97 bc cc e6 81 3d aa 25 33 bd
       -0.02228689 -0.018482203 0.06342849 -0.04373709
0000a0 f5 d9 22 3b e2 57 bc bd d3 18 db 3d d9 3c 0d bd
       0.002484915 -0.0919645 0.10698094 -0.034481857
0000b0 2a ab 57 3d b3 f0 54 bd f9 14 18 bd 45 51 1d 3d
       0.05265347 -0.05198736 -0.037129376 0.038407583
0000c0 53 9c 5e bd 62 e6 a4 3d 49 17 78 bc 86 4d dc 3d
       -0.0543483 0.080517545 -0.01514227 0.10756974
0000d0 f7 3b af bd ca 7d 7b bc ba 06 01 3e 48 3d 26 bc
       -0.08556359 -0.015349815 0.12600222 -0.0101464465
0000e0 4e 98 54 bd 1a b9 f9 3d 74 b9 24 bd 2d 18 ba bd
       -0.05190306 0.121935084 -0.040215924 -0.090866424
0000f0 52 ae e2 3d c0 22 89 bb 2d da 91 3d 00 fa a7 3d
       0.11068405 -0.0041850507 0.07121692 0.082019806
000100 6c 01 92 3c 4d 76 dc 3d 30 f7 f6 3c 26 d1 18 3d
       0.017822944 0.107647516 0.030147165 0.037308834
000110 ec d9 21 3d 5c 6d b2 3a b8 7b 1b 3d e3 7b c2 3c
       0.039514467 0.0013612914 0.037959784 0.023740714
000120 16 c6 d4 bc 0a cd c1 3d 35 6e b6 3b 5f 68 dd 3d
       -0.025973361 0.09462936 0.005567337 0.10810923
000130 6f c7 e1 3d 3e 69 df 3d ea 61 01 bd b8 50 a5 3d
       0.11024367 0.10908745 -0.03158752 0.080720365
000140 ab 4e 05 3e 65 b1 13 bb 9c 1f 12 bd ec 9e b2 3d
       0.1301829 -0.0022536155 -0.035674676 0.08721718
000150 55 44 08 3e b4 fb 21 bd d5 c2 cd bc 66 62 ce bc
       0.13307317 -0.039546683 -0.025117317 -0.025193404
000160 3b 84 b0 3d bb d0 64 bd 29 73 e2 3d e6 43 d2 bc
       0.08618971 -0.055863123 0.11057121 -0.025667142
000170 34 dc 8d 3d b2 ec c9 3d 6a b9 7d 3d f5 cf 94 bd
       0.06926766 0.09859599 0.061944403 -0.07266227
000180 05 f3 62 3d 9e 35 72 3d f0 ff af bd d8 fd 0e 3e
       0.055407543 0.059133165 -0.08593738 0.13964021
000190 0d f2 0b 3e 29 4b 0d bc ba d3 6e bc 18 ca fd 3d
       0.13666554 -0.008623877 -0.014576847 0.12392062
0001a0 ba 06 c6 bd 14 d6 1f 3d f9 7d d6 3d 83 26 c2 3d
       -0.09669252 0.03902252 0.10473246 0.09480002
0001b0 95 b8 b4 bd 49 b6 d6 3d e0 c1 85 3d d7 6b f4 3d
       -0.08824269 0.10483987 0.06531119 0.11934631
0001c0 02 01 d5 3d 6d 0b d6 bc 66 72 d4 3c 3c d4 b2 bd
       0.10400583 -0.026128495 0.025933456 -0.08731887
0001d0 b9 3d 3e bd 8e eb 70 bd cb 66 46 3d 63 9b 03 3e
       -0.046445582 -0.058818392 0.048437875 0.12852244
0001e0 14 01 b5 3c a7 0b c3 3d 2f 0f ec bc ee fa b2 3d
       0.02209524 0.09523707 -0.028815834 0.08739267
0001f0 82 76 f8 3b 33 5b 9f 3d 4e 60 92 bb 1e 13 cd 3d
       0.0075824866 0.07781067 -0.004467047 0.10013412
000200 7f ef 9c bc 8b 83 13 3d b5 be c0 3d b4 03 52 ba
       -0.01915717 0.03601412 0.094113745 -0.0008011416
000210 a0 fe 6b bd 76 36 41 3d 2f f3 6e bc 67 ff 26 3d
       -0.057615876 0.04717108 -0.014584347 0.040770914
000220 10 9d 0e be 22 97 e7 3d 4a 28 1a bd a5 1a f4 3d
       -0.13927102 0.11308123 -0.03763608 0.119191445
000230 78 f8 e6 3d 05 03 ed 3d 46 d0 c9 3d 97 d1 19 3d
       0.112778604 0.115728416 0.09854178 0.037553396
000240 0e 0a 52 bd 20 e8 01 be 10 0e f3 bd 3a 44 de 3d
       -0.05127912 -0.12686205 -0.118679166 0.10852857
000250 f2 77 09 bd 69 3f 0b bb d9 bb ee bd 06 ae de 3d
       -0.033561654 -0.0021247512 -0.11656923 0.10873036
000260 b7 58 a8 bc 63 8c 53 bd 63 b9 0f bd 52 3b d0 3d
       -0.020550115 -0.051647555 -0.035088908 0.101675645
000270 46 4e 33 3c 03 e0 94 3d f2 d9 fd 3d 07 36 b2 bd
       0.010943955 0.07269289 0.123950854 -0.08701711
000280 16 8d 0f bc 3b 73 c0 bd 4e 95 06 bc dc a2 2c 3d
       -0.008761665 -0.093969785 -0.008214308 0.042147502
000290 ba 11 ed 3c aa fc 1c 3d f4 2b d5 3a 0f d7 18 3d
       0.028939117 0.038326897 0.0016263709 0.03731447
0002a0 63 c5 b3 bd 2a 16 68 bd 74 64 cb 3d ce 17 2c bd
       -0.08777883 -0.056661762 0.09931269 -0.04201489
0002b0 d8 6d bf 3d 7a 97 a1 3c df 67 da bd 54 74 97 3d
       0.09347123 0.01972555 -0.10664343 0.07395235
0002c0 fc b2 99 3b 37 2c 79 bd b9 a4 4d 3d 50 50 a2 3b
       0.004690526 -0.060833182 0.05020592 0.0049534217
0002d0 9c 03 04 3e 77 b0 cc bc e9 47 26 3c 83 01 b4 bd
       0.12892002 -0.024986489 0.010148981 -0.08789351
0002e0 23 d3 c7 3d fb 77 b1 bb 08 fc 06 3e 45 e9 fc 3d
       0.09757068 -0.005415914 0.1318208 0.1234918
0002f0 03 9d e8 3d 3c e7 44 3d 3d 0c 08 be d5 61 c9 bd
       0.113580726 0.048072085 -0.13285919 -0.09833113
000300 02 6b 18 3e bf e4 76 3d 94 2f 11 bd 30 f6 33 3d
       0.1488457 0.060276743 -0.035445765 0.043935955
000310 5e c2 0b 3e 2e c1 2d bd c9 74 b2 3d 71 39 13 3e
       0.13648364 -0.04242056 0.08713681 0.14377381
000320 ea a4 84 bd 55 2f 86 3d c4 55 d2 3d 16 c8 30 3d
       -0.06476767 0.065519966 0.10270265 0.043159567
000330 5b b3 bc 3d 97 73 18 bd 12 63 10 3e 56 f9 a7 bd
       0.09213897 -0.03721961 0.14100292 -0.08201854
000340 23 c1 ac 3d c6 24 eb bc 95 5e c8 3d f3 94 96 3d
       0.084352754 -0.028704058 0.09783665 0.073526286
000350 b2 1c 88 3c 23 b8 ad 3d 75 97 a4 3d f2 7d 9b bd
       0.016615245 0.08482387 0.08036701 -0.075923815
000360 55 43 60 bc 90 76 13 3d 7e e8 00 bd ec 30 33 bc
       -0.013687928 0.036001742 -0.03147172 -0.010936957
000370 69 f7 30 bd 1e 96 10 3e c2 a9 df 3c 75 51 a5 3d
       -0.0432047 0.14119765 0.027302627 0.08072177
000380 2f de 32 3c 5b 73 be 3d 4d 20 08 3e d3 cd 1c bd
       0.0109172305 0.09299346 0.13293572 -0.038282227
000390 5e bc 65 3b 2d 27 4c bc 76 53 29 3d 63 97 0e 3e
       0.0035054903 -0.012460512 0.04133936 0.13924937
0003a0 85 4d 81 bd e3 a9 8a bc 4b 93 57 bd 7e 6e 05 3e
       -0.06313614 -0.016926711 -0.052630704 0.1303043
0003b0 85 15 6a 3d 85 33 7b bd a7 93 00 3e 9c 68 4c 3d
       0.05714943 -0.06132843 0.12556325 0.04990445
0003c0 82 d9 dd bc e1 0e 07 3a c2 98 4f bb 60 29 dc 3d
       -0.027081255 0.00051520584 -0.0031676744 0.10750079
0003d0 31 f2 0e 3e 5e 61 5e bd 32 40 f5 bc b1 7d b1 bd
       0.13959576 -0.054292075 -0.029937837 -0.08666552
0003e0 5a 47 b9 bd 76 91 c3 bd 38 ba 8c 3c 81 19 ba 3d
       -0.09046812 -0.09549229 0.01717864 0.09086896
0003f0 0d c0 f5 3d 08 e7 ec 3d c6 53 8f 3d ab 39 12 3e
       0.119995214 0.11567503 0.069984004 0.14279811
