models/BTCUSDT_lstm_20250822_021906.pth (torch, 267815 bytes, 11 tensors)

lstm.weight_ih_l0 f4 [256, 53]
0	0xbc947ba8	-0.01812537
1	0x3d9289b6	0.071551725
2	0xbdb8e640	-0.09028292
3	0xbde10028	-0.10986358
4	0xbd062dc0	-0.032758474
5	0x3dda5c1c	0.106621
6	0x3df0fd72	0.11767091
7	0x3d8a3fee	0.06750475
8	0x3bf71140	0.007539898
9	0x3d3d8540	0.046269655
10	0x3d98a650	0.074535966
11	0x3cd32f70	0.025779456
12	0x3d9d416a	0.07678492
13	0xbdaaa5e8	-0.08332425
14	0xbdff841c	-0.1247637
15	0xbc8de0e0	-0.017319143
16	0xbda7f608	-0.082012236
17	0xbdd1ab20	-0.10237718
18	0xbddf8a72	-0.10915078
19	0xbd5a6d54	-0.05332692
20	0xbd3313c8	-0.043720037
21	0x3c762310	0.015023008
22	0xbdf3da28	-0.119068444
23	0x3d854488	0.06507212
24	0x3dc800d8	0.09765786
25	0x3d486614	0.048925474
26	0x3cf40850	0.02978912
27	0xba995200	-0.0011697412
28	0xbdfa8e20	-0.122341394
29	0x3dea0970	0.11427581
30	0xbc572f00	-0.013133764
31	0x3c5deb00	0.013544798
32	0xbda3b7d4	-0.07994047
33	0xbd62eddc	-0.05540262
34	0xbda41e90	-0.08013642
35	0x3bd69a60	0.0065491647
36	0xbc5421b0	-0.012947485
37	0xbc8ea728	-0.01741369
38	0x3da62ff2	0.081146136
39	0xbdfbfa2a	-0.123035744
40	0x3d3c321c	0.045946226
41	0x3d349c3c	0.04409431
42	0xbd08638c	-0.03329806
43	0x3df0331c	0.11728498
44	0xbdbbb5ac	-0.091655105
45	0xbd72ffc8	-0.059325963
46	0x3c5d9b00	0.013525724
47	0x3dc8d5d2	0.09806408
48	0xbde19aba	-0.1101584
49	0xbc7ae6d0	-0.015313819
50	0xbcd9c010	-0.02658084
51	0x3d4f4428	0.05060211
52	0xbd84bfc8	-0.06481892
53	0x3dba6b5e	0.0910251
54	0x3b198040	0.002342239
55	0xbc24a490	-0.010049
56	0x3db9ba28	0.090687096
57	0x3cff3200	0.031151772
58	0xbdc04e76	-0.09389965
59	0xbd55646c	-0.052097723
60	0xbbf242e0	-0.007393226
61	0x3de09f9e	0.109679446
62	0x3d8c60a4	0.0685437
63	0xbcbd8968	-0.02313681
64	0xbdd56562	-0.10419728
65	0xbdc0b8bc	-0.09410235
66	0x3d9eb18e	0.077487096
67	0x3d699540	0.0570271
68	0xbd90bb7c	-0.0706701
69	0x3d94027a	0.07227035
70	0x3c36aa60	0.011149019
71	0xbdbe4304	-0.09290126
72	0x3d0ba9b0	0.034097373
73	0x3bcc9bc0	0.006244153
74	0xbd020358	-0.03174147
75	0x3daa8edc	0.083280295
76	0x3dc91138	0.09817737
77	0x3cf06d60	0.029349029
78	0xbde268fa	-0.11055179
79	0x3d128468	0.035770804
80	0x3d7a396c	0.061089918
81	0x3d9e7cb6	0.077386305
82	0xbd47b184	-0.048753276
83	0x3ddc0f8c	0.10745153
84	0x3d7bc518	0.06146726
85	0xbc4bcf70	-0.012439594
86	0xbcfa75d8	-0.03057377
87	0x3cf1ae48	0.02950205
88	0x3da183b4	0.078864485
89	0xbadccb80	-0.0016845316
90	0xbcc67ca8	-0.024229363
91	0xbc1b5830	-0.009481475
92	0x3de41cda	0.111383155
93	0x3cca1730	0.02466926
94	0xbdbe7f18	-0.09301585
95	0x3df59c24	0.11992672
96	0xbdaae7ba	-0.083449796
97	0x3d1c32a4	0.038134232
98	0x3c1ae310	0.00945355
99	0xbdb379fa	-0.087634996
100	0xbdc9c1be	-0.098514065
101	0x3da3eebe	0.08004521
102	0xbbfdb7e0	-0.007742867
103	0xbd84f7ac	-0.06492552
104	0xbda29bcc	-0.07939872
105	0xbda1114a	-0.07864626
106	0xbd41d950	-0.047326386
107	0x3d040e04	0.03223993
108	0xbc6f0180	-0.01458776
109	0xbdec0130	-0.11523664
110	0xbdd4586e	-0.10368429
111	0xbd76407c	-0.06012009
112	0xbcfb3b60	-0.03066796
113	0xbdf1078e	-0.11769019
114	0xbd83e3e2	-0.064399496
115	0xbdca170e	-0.098676786
116	0x3d99cf30	0.07510221
117	0xbd6758ec	-0.056481287
118	0xbcd84ad8	-0.026402876
119	0x3dc73ae8	0.09728032
120	0xbd91d1bc	-0.07120082
121	0x3de2fa90	0.11082947
122	0xbd30cb8c	-0.043162867
123	0xbd29614c	-0.041352555
124	0xbd8d03b2	-0.068854704
125	0xbdfc950e	-0.123331174
126	0x3dcf42c4	0.101201564
127	0x3dd648b8	0.10463089
128	0xbd0e1974	-0.034692243
129	0x3db15a72	0.08659829
130	0xbd9ddce2	-0.07708146
131	0x3d4859bc	0.048913702
132	0x3d2bb718	0.04192266
133	0xbd2fc164	-0.04290904
134	0x3d8ee91a	0.06978054
135	0xbd332430	-0.043735683
136	0x3df883cc	0.12134513
137	0x3da83400	0.08213043
138	0xbdbd6534	-0.092478186
139	0x3dfee618	0.12446231
140	0xbd8669a8	-0.06563121
141	0xbd403d64	-0.046933547
142	0xbdb8a86c	-0.09016499
143	0xbd725c00	-0.05916977
144	0xbdc83e9c	-0.09777567
145	0x3dbcc114	0.09216514
146	0x3db887da	0.09010287
147	0x3cf75430	0.03019151
148	0xbc4dae50	-0.012553766
149	0x3dcb0ca0	0.099145174
150	0x3db715ca	0.08939703
151	0x3bbf7120	0.005842343
152	0xbd5009a0	-0.05079043
153	0x3dc5d97c	0.096606225
154	0x3d7664b4	0.06015463
155	0x3dca4d86	0.09878068
156	0xbda36fc8	-0.07980305
157	0xbd485b6c	-0.04891531
158	0xbdfe725a	-0.124241546
159	0x3ac31e00	0.001488626
160	0xbd2dce74	-0.042433217
161	0xbd2c5da0	-0.042081475
162	0xbdfc6924	-0.123247415
163	0xbd56f0c0	-0.05247569
164	0x3dc64fb0	0.09683168
165	0x3d16167c	0.036642537
166	0x3d037194	0.03209074
167	0x3c06afa0	0.008220583
168	0xbc9ed638	-0.019389257
169	0xbd8086fa	-0.06275745
170	0xbdd1e962	-0.10249592
171	0xbbcf70e0	-0.0063305944
172	0x3d2fcc24	0.042919293
173	0x3dd98758	0.10621518
174	0x3c3160a0	0.01082626
175	0x3de76e6a	0.11300357
176	0xbd7f3018	-0.062301725
177	0x3dbd49b2	0.09242572
178	0x3d97016c	0.07373318
179	0xbdedb0a0	-0.11605954
180	0xbd97bf0c	-0.07409486
181	0xbd5b6a44	-0.05356814
182	0x3de6e6e2	0.11274506
183	0xbd28c938	-0.041207522
184	0x3db5c810	0.088760495
185	0xbcd7b678	-0.026332125
186	0x3caa5278	0.020791277
187	0xbcb2e5d0	-0.021838099
188	0x3dbb68e6	0.09150867
189	0x3c65a670	0.014016733
190	0x3db5e3ec	0.08881363
191	0x3de4db16	0.111746
192	0xbdc77f7a	-0.09741111
193	0x3dcbc1d2	0.09949078
194	0xbd3fbc04	-0.046810165
195	0xbd6509e0	-0.05591762
196	0xbdbd2e4c	-0.09237346
197	0xbda0b380	-0.07846737
198	0x3d0e5a10	0.03475386
199	0xbd70811c	-0.05871688
200	0xbd9a9f1c	-0.07549879
201	0xbde11104	-0.109895736
202	0x3d06db8c	0.03292422
203	0xbd5cfbfc	-0.05395125
204	0x3cfcfb08	0.03088142
205	0x3dff72a8	0.12473041
206	0xbd856ebc	-0.065152615
207	0x3dbeee94	0.09322849
208	0x3dc12558	0.09430951
209	0xbda7aac0	-0.08186865
210	0x3d678ef4	0.056532815
211	0x3d97638c	0.07392034
212	0x3dc9c8e0	0.09852767
213	0xbdc2b254	-0.0950667
214	0x3d597a04	0.05309488
215	0xbd8e31d2	-0.06943096
216	0xbca26020	-0.019821227
217	0xbd294768	-0.041327864
218	0xbdf395f8	-0.11893839
219	0x3c496b20	0.012293607
220	0xbc8704d8	-0.016481802
221	0xbd974dee	-0.07387911
222	0x3dbe8bdc	0.0930402
223	0x3d111df8	0.03542897
224	0xbd5dc8d8	-0.054146618
225	0x3cbf10d8	0.023323461
226	0x3cf19620	0.02949053
227	0x3d74d3a8	0.059772164
228	0xbdc7965a	-0.09745474
229	0xbd1a57f4	-0.037681535
230	0x3db240fc	0.08703801
231	0xbd530ec0	-0.05152774
232	0x3dd17cdc	0.10228893
233	0x3d994c38	0.07485241
234	0xbcf4f1c8	-0.029900447
235	0x3da5cb16	0.08095376
236	0xbdcee1f6	-0.101016924
237	0xbdc0743c	-0.0939717
238	0x3d8376fe	0.0641918
239	0x3c204030	0.0097809285
240	0xbdf4cf2a	-0.11953576
241	0x3dc5ee80	0.09664631
242	0xbbed4ce0	-0.00724183
243	0xbb796200	-0.0038052797
244	0xbdfaecec	-0.122522205
245	0xbc074060	-0.008255094
246	0xbd7a10d4	-0.061051205
247	0xbd589f8c	-0.05288653
248	0x3c68c1f0	0.014206395
249	0xbdc3cfba	-0.09561105
250	0xbd7b4ab0	-0.061350524
251	0x3c393760	0.011304706
252	0xbde1ee0e	-0.110317335
253	0x3d5b2b94	0.053508356
254	0xbd7e3a24	-0.062067166
255	0x3be09d80	0.006854713

lstm.weight_hh_l0 f4 [256, 64]
0	0x3df64984	0.12025741
1	0xbd1a728c	-0.037706897
2	0x3d91b2b6	0.071141645
3	0xbd7a199c	-0.06105958
4	0xbdb00a3c	-0.08595702
5	0x3d0fe7bc	0.03513311
6	0x3d60ba5c	0.054865226
7	0xbb98c4c0	-0.0046621263
8	0xbdca59f6	-0.0988044
9	0x3db40fde	0.08792089
10	0xbdd9a3e4	-0.10626963
11	0xbdb5cdba	-0.0887713
12	0xbdbd915a	-0.09256239
13	0xbdb49b62	-0.088186994
14	0xbc1712f0	-0.009220824
15	0xbdc74128	-0.097292244
16	0x3dbddd12	0.092706814
17	0xbb8e0420	-0.004333988
18	0xbd996312	-0.07489599
19	0xbd3f8298	-0.046755403
20	0xbdc7cae6	-0.09755497
21	0x3de00560	0.10938525
22	0x3d86108e	0.06546126
23	0x3d15409c	0.03643857
24	0x3d766cb4	0.06016226
25	0x3dac25c2	0.08405639
26	0x3df662c8	0.1203056
27	0x3d9e7182	0.07736494
28	0xbdb5c31e	-0.08875106
29	0x3d180638	0.037115306
30	0xbdb5787c	-0.08860871
31	0xbd53d1e8	-0.051713854
32	0xbd5d7b74	-0.054072812
33	0xbcf1f0d0	-0.029533774
34	0xbd534000	-0.051574707
35	0xbd19714c	-0.037461564
36	0x3df7501e	0.12075828
37	0x3de31518	0.11088008
38	0xbc9d4e78	-0.019202456
39	0xbcd45df0	-0.0259237
40	0x3bee2320	0.007267371
41	0xbd94eb58	-0.07271451
42	0xbdedf172	-0.11618318
43	0xbc8500f8	-0.016235813
44	0x3c917220	0.017754614
45	0x3ddf3582	0.10898878
46	0xbd39d4f4	-0.045369104
47	0xbdf436f0	-0.11924541
48	0x3d4325e8	0.047643572
49	0x3dc0cdf2	0.09414281
50	0xbc0983a0	-0.008393198
51	0x3c2949e0	0.010332555
52	0x3dc521be	0.096255764
53	0xbd899e42	-0.067196384
54	0x3d17f68c	0.03710036
55	0xbdbab202	-0.091159835
56	0xbd95608c	-0.072938055
57	0x3dbbf67a	0.09177871
58	0xbc9ef2c8	-0.019402876
59	0xbdb9c844	-0.09071401
60	0x3df079ac	0.11741957
61	0xbc80af08	-0.015708461
62	0xbd95d28a	-0.07315548
63	0xbde36862	-0.11103894
64	0x3d9e178a	0.077193335
65	0x3dc197a6	0.09452753
66	0xbcc2e9c8	-0.023793116
67	0xbdfe109e	-0.12405513
68	0xbdf9111e	-0.12161468
69	0xbb984ec0	-0.0046480596
70	0x3dadb784	0.084822685
71	0xbbe8f160	-0.0071088523
72	0xbd4ab518	-0.04948911
73	0x3df76d7c	0.12081429
74	0xbdc6de2a	-0.09710343
75	0x3dab3452	0.08359589
76	0x3d264628	0.04059425
77	0x3d93b3be	0.072120175
78	0xbd055550	-0.032552063
79	0x3dc11ad6	0.09428947
80	0xbd98ef5a	-0.07467528
81	0xbd4e01e4	-0.05029477
82	0xbdc56cc4	-0.09639886
83	0x3d5e9cf8	0.054348916
84	0xbda300c2	-0.07959129
85	0x3ce45970	0.027874678
86	0x3d89b4b0	0.067239165
87	0xbc67a800	-0.014139175
88	0x3dbf91fc	0.09354016
89	0x3bf49280	0.007463753
90	0xbded309c	-0.11581537
91	0x3dac19e4	0.08403376
92	0x3d9f82e8	0.0778864
93	0xbddba198	-0.10724181
94	0xbdaebad6	-0.0853173
95	0x3cb9af80	0.022666693
96	0xbc99e868	-0.018787578
97	0xbda794ce	-0.08182679
98	0x3d58396c	0.052789137
99	0xbcf1f4e8	-0.029535726
100	0xbd0e3ba4	-0.034724846
101	0x3dd14dd2	0.10219921
102	0x3cf60040	0.030029416
103	0xbd6479b0	-0.055780113
104	0xbcf2e718	-0.02965121
105	0xbdb57768	-0.088606656
106	0x3de214ce	0.110391244
107	0xbdfcbe98	-0.123410404
108	0x3bc2f500	0.0059496164
109	0x3dfe1162	0.12405659
110	0x3da7016c	0.08154568
111	0x3dff391a	0.12462063
112	0x3db6d332	0.08927001
113	0x3d9e1af2	0.07719983
114	0x3d96a852	0.07356323
115	0xbd7c37a8	-0.061576515
116	0x3dfef41c	0.12448904
117	0x3d825a0a	0.0636483
118	0x3decbdb0	0.115596175
119	0x3d00e880	0.03147173
120	0xbddccff4	-0.107818514
121	0x3de272b2	0.11057033
122	0x3dc5964a	0.09647806
123	0xbdc22370	-0.094794154
124	0x3d25cbfc	0.040477738
125	0xbda072b2	-0.078343764
126	0xbd9857b4	-0.07438603
127	0xbd5a7028	-0.053329617
128	0x3ddbbae6	0.107290074
129	0xbdaa1794	-0.083052784
130	0x3d996f84	0.07491973
131	0xbdf71b54	-0.12065759
132	0x3bcfb7c0	0.0063390434
133	0xbcaf8fc8	-0.021430865
134	0xbd834e1e	-0.06411384
135	0x3da86770	0.08222854
136	0x3c85c650	0.016329914
137	0xbdc274e2	-0.0949495
138	0xbdc52238	-0.09625667
139	0x3da59360	0.0808475
140	0x3d8a370e	0.06748782
141	0x3da42cd8	0.08016366
142	0xbdbcb952	-0.092150345
143	0x3dccc6d8	0.09998864
144	0xbdf9c55c	-0.121958464
145	0xbdfbdbe4	-0.122978
146	0xbd3bf4fc	-0.045887932
147	0xbd88a466	-0.066719815
148	0x3dbfdc9a	0.09368248
149	0x3c5edca0	0.013602406
150	0xbddedf74	-0.10882464
151	0xbde49270	-0.11160743
152	0xbde9dee2	-0.11419465
153	0xbda281cc	-0.07934913
154	0x3cdbfce0	0.026853979
155	0xbd2c1358	-0.042010635
156	0xbdf68b74	-0.12038317
157	0x3d747114	0.059678152
158	0x3c1e5ea0	0.009666115
159	0xbd06ebc0	-0.032939672
160	0x3cf0ab00	0.029378414
161	0xbd879bc2	-0.06621505
162	0x3db0af1a	0.08627148
163	0xbdded15a	-0.108797744
164	0xbdb5b308	-0.08872038
165	0x3ccb5cb0	0.02482447
166	0x3d9ba3f4	0.07599631
167	0xbda9ac3c	-0.08284804
168	0xbd6cc878	-0.05780837
169	0x3c4e34c0	0.012585819
170	0x3de64ac8	0.11244732
171	0x3d92c7a4	0.07166985
172	0xbc15d2b0	-0.00914447
173	0xbc839620	-0.016062796
174	0x3cc28250	0.023743778
175	0x3d2e0ec8	0.042494565
176	0xbddc4a8e	-0.10756408
177	0xbdb4fa6c	-0.08836827
178	0xbdff621a	-0.12469883
179	0x3ddd7d4e	0.108149156
180	0x3d343594	0.04399641
181	0x3d4c17f0	0.049827516
182	0xbd817076	-0.06320278
183	0x3dc960a2	0.09832884
184	0x3d554b20	0.052073598
185	0xbdb6b78e	-0.08921729
186	0x3df5fcf6	0.12011139
187	0xbd70d6f0	-0.05879873
188	0x3df712c4	0.12064126
189	0xbd888640	-0.06666231
190	0x3d982038	0.0742802
191	0x3cd9f7c0	0.026607394
192	0x3de5fcb4	0.1122984
193	0x3df845aa	0.12122662
194	0xbddf1dfa	-0.108943895
195	0x3c8db528	0.017298296
196	0xbdec637a	-0.11542411
197	0x3dcdabac	0.100425094
198	0xbcafdaa0	-0.021466553
199	0x3cc6cb08	0.024266735
200	0x3c75f280	0.01501143
201	0xbd9df616	-0.07712953
202	0xbce34fe8	-0.027748063
203	0xbc1f3fa0	-0.009719759
204	0x3d37be98	0.0448595
205	0x3d99416c	0.07483181
206	0x3cba3d50	0.022734314
207	0x3cc1b008	0.023643509
208	0x3dc6ff7e	0.097167
209	0xbb874940	-0.004128605
210	0x3d976a7a	0.07393356
211	0x3da53a36	0.080677435
212	0xbd8ab31a	-0.06772442
213	0x3de7fc70	0.113274455
214	0xbda91dd6	-0.08257644
215	0xbdbd15a6	-0.09232645
216	0xbd8f47c4	-0.0699611
217	0xbdd00d5a	-0.101587966
218	0xbdcb7ede	-0.09936307
219	0xbd650684	-0.055914417
220	0x3d4e6ee8	0.050398737
221	0xbd938262	-0.07202603
222	0xbc60ea30	-0.01372771
223	0xbdc5316a	-0.096285656
224	0x3c483980	0.01222074
225	0x3d534e48	0.051588327
226	0x3d82f190	0.06393731
227	0x3cac3c58	0.021024868
228	0xb9cf9200	-0.00039590895
229	0xbd70856c	-0.05872099
230	0x3d8a09fe	0.06740187
231	0x3db288d6	0.08717506
232	0xbdcb506c	-0.09927449
233	0xbdd5026c	-0.104008526
234	0xbd6769cc	-0.05649738
235	0x3dcb3ad4	0.0992333
236	0xba581c00	-0.00082439184
237	0x3d33d448	0.04390362
238	0xbda481d0	-0.08032572
239	0xbdb8ea2a	-0.09029038
240	0xbdf86730	-0.121290565
241	0xbd4818e8	-0.048851877
242	0xbd61d048	-0.055130273
243	0xbd141af8	-0.036158532
244	0x3dec1dce	0.11529122
245	0xbdde2e1a	-0.10848637
246	0x3db78ae6	0.0896204
247	0x3db0fa00	0.08641434
248	0xbdc5610a	-0.09637649
249	0x3dc95882	0.09831335
250	0xbda59556	-0.08085124
251	0xbd1b4cd8	-0.03791508
252	0xbd8d5fe8	-0.06903058
253	0x3dda9204	0.106723815
254	0x3ce2d930	0.027691454
255	0xbdc9b20c	-0.09848413

lstm.bias_ih_l0 f4 [256]
0	0x3dc165ec	0.09443268
1	0xbc311d80	-0.010810256
2	0xbc8d59a8	-0.017254665
3	0x3d3b2fa4	0.04569973
4	0x3d85c7e2	0.06532265
5	0x3d6464cc	0.05576019
6	0xbdc0e166	-0.09417991
7	0xbda7f83a	-0.08201642
8	0xbdbd1190	-0.092318654
9	0x3d754e94	0.05988939
10	0x3dbd4fe4	0.092437536
11	0x3d3eabcc	0.046550557
12	0x3d065054	0.03279145
13	0x3cbe1ae8	0.02320619
14	0x3d05efec	0.03269951
15	0xbde65adc	-0.11247799
16	0xbd8215a2	-0.063517824
17	0xbcc7a320	-0.024369776
18	0xbde24818	-0.11048907
19	0xbd38422c	-0.04498498
20	0x3d9a1010	0.07522595
21	0x3dd207d6	0.10255401
22	0xbd971e2c	-0.07378802
23	0x3df65a20	0.12028909
24	0x3d2bbc94	0.04192789
25	0xbd083410	-0.033252776
26	0x3d259114	0.04042156
27	0xbd66efc4	-0.056381002
28	0xbd9ea96a	-0.07747157
29	0x3c8ee7c0	0.017444491
30	0xbd6fce90	-0.058546603
31	0xbd799cec	-0.060940668
32	0xbc307600	-0.010770321
33	0x3aaa4a00	0.0012992024
34	0xbd637578	-0.05553195
35	0xbd5f9930	-0.05458945
36	0xbcf3f8e0	-0.029781759
37	0x3cf69d58	0.030104324
38	0xbdd45dba	-0.103694394
39	0x3de58626	0.112072274
40	0xbd034f78	-0.03205821
41	0xbdd8e61a	-0.105907634
42	0x3d27398c	0.040826365
43	0x3d56c494	0.052433565
44	0x3df627f6	0.12019341
45	0x3d865b9e	0.06560443
46	0xbd5bad88	-0.05363229
47	0xbcbcfe90	-0.023070604
48	0xbd7b9010	-0.061416686
49	0x3dead808	0.11466986
50	0xbd893fc0	-0.067016125
51	0x3d819072	0.06326379
52	0x3d2e2e50	0.042524636
53	0xbdb0fe20	-0.086422205
54	0xbd999774	-0.074995905
55	0xbd8d50e0	-0.06900191
56	0xbbdd7480	-0.0067582726
57	0x3ddc350c	0.107523054
58	0x3d912196	0.07086484
59	0x3da7d1c0	0.081943035
60	0x3c13bce0	0.009017199
61	0xbd9f4a54	-0.07777849
62	0xbd46bc1c	-0.04851924
63	0x3d7680cc	0.060181424
64	0xbdee27fa	-0.11628719
65	0x3c52db20	0.012869626
66	0x3df6ac18	0.12044543
67	0x3dc701da	0.0971715
68	0x3d0bbbb0	0.03411454
69	0x3d25ab00	0.04044628
70	0xbd4e1154	-0.050309494
71	0x3dd9792e	0.10618816
72	0xbdd861b2	-0.10565509
73	0xbd4a5b80	-0.049403667
74	0x3d646db0	0.05576867
75	0x3d2e0c40	0.04249215
76	0xbdb96c5c	-0.09053871
77	0x3d99e068	0.07513505
78	0x3dc54b32	0.09633483
79	0xbdd3013e	-0.10302971
80	0xbdeb5476	-0.11490719
81	0xbd446d04	-0.047955528
82	0x3d977a3a	0.0739636
83	0xbd277238	-0.040880412
84	0xbd2ea994	-0.04264219
85	0xbdbab8ca	-0.09117277
86	0xbd9aae9a	-0.07552834
87	0x3db03310	0.086034894
88	0xbd636dfc	-0.05552481
89	0x3cc27900	0.023739338
90	0x3cdec2c0	0.027192473
91	0xbd339024	-0.043838635
92	0xbbb8fb00	-0.005645156
93	0x3c7c0ef0	0.015384421
94	0x3d503ef8	0.0508413
95	0xbd05d430	-0.03267306
96	0xbcbd0ea0	-0.023078263
97	0xbd3e8cb0	-0.04652089
98	0xbdcae55e	-0.099070296
99	0x3c675920	0.01412037
100	0x3d82ab1a	0.06380291
101	0xbd059374	-0.032611325
102	0xbbb3ff80	-0.0054931045
103	0xbc55d400	-0.013051033
104	0x3b230e40	0.002488032
105	0x3df11dca	0.1177326
106	0xbd5c9a40	-0.05385804
107	0xbde6ffba	-0.11279245
108	0xbddd45ea	-0.10804351
109	0x3dd267ac	0.1027368
110	0xbda41d0a	-0.08013351
111	0xbd5094ac	-0.050923035
112	0xbcace338	-0.02110444
113	0x3d8ec320	0.06970811
114	0x3d1024d4	0.035191372
115	0x3c839a68	0.016064838
116	0x3ce9f6a0	0.028559983
117	0xbdab1eb4	-0.083554655
118	0xbd431084	-0.047623172
119	0xbd8883a4	-0.066657335
120	0xbcbfd508	-0.02341701
121	0x3cae00e8	0.021240667
122	0xbd61ced0	-0.055128872
123	0x3dab109c	0.08352777
124	0x3dccb416	0.09995286
125	0x3d19512c	0.037430927
126	0x3d3479e0	0.04406154
127	0x3dc584d2	0.09644474
128	0xbd706370	-0.05868858
129	0x3de1d2dc	0.11026546
130	0x3ddbf5a0	0.107402086
131	0x3dcdb2e4	0.10043886
132	0x3d7c4484	0.06158878
133	0x3df961e6	0.12176876
134	0x3df45788	0.11930758
135	0x3d054708	0.032538444
136	0x3dd78338	0.10523075
137	0xbdfd2fea	-0.123626545
138	0xbde8bf50	-0.11364615
139	0x3d95d31e	0.07315658
140	0xbd353138	-0.04423639
141	0x3df4a22c	0.11944994
142	0x3dc1ea66	0.09468536
143	0x3df16ae8	0.11787969
144	0xbd86c4e2	-0.06580521
145	0xbcee6a88	-0.029103532
146	0x3b97c8a0	0.0046320707
147	0x3db31c4a	0.0874563
148	0xbdb34d3a	-0.08754964
149	0xbca42a40	-0.020039678
150	0xbdcbc430	-0.09949529
151	0xbcb95eb0	-0.022628158
152	0x3c870f30	0.016486734
153	0x3d5e9128	0.05433765
154	0xbd470b3c	-0.0485947
155	0x3d686008	0.056732208
156	0x3dca5952	0.09880318
157	0x3dcf3278	0.10117048
158	0xbc69b750	-0.0142648965
159	0x3d693f80	0.056945324
160	0x3d466698	0.048437685
161	0x3dc9e6ec	0.09858498
162	0xbde543c0	-0.11194563
163	0x3df4cc0c	0.11952981
164	0xbc2f6850	-0.010706022
165	0x3bbf2da0	0.0058342963
166	0x3d662cb0	0.05619496
167	0xbd119c40	-0.035549402
168	0x3ca94fa8	0.020667866
169	0xbde8d146	-0.11368041
170	0xbdd09ad2	-0.1018578
171	0xbc42cc60	-0.011889547
172	0x3babf920	0.005248204
173	0xbcf0f450	-0.029413372
174	0xbdcd1f0a	-0.10015686
175	0x3df2d6ee	0.11857401
176	0x3c9cacb8	0.019125327
177	0xbdabbb04	-0.0838528
178	0xbd5cd15c	-0.0539106
179	0xbd88b72a	-0.06675561
180	0xbdbe953c	-0.09305808
181	0x3c9a4f50	0.018836647
182	0xbce445e8	-0.027865365
183	0xbcae1dd0	-0.02125445
184	0xbd32a0f4	-0.043610528
185	0x3de2898a	0.1106139
186	0xbdb22f58	-0.08700436
187	0x3def6c66	0.11690597
188	0xbca1ef90	-0.019767553
189	0xbda30438	-0.07959789
190	0xbdc2ac58	-0.09505528
191	0xbd9b6d54	-0.07589212
192	0xbdf9c65e	-0.12196039
193	0xbcc7c168	-0.024384215
194	0xbdd16406	-0.10224156
195	0x3d5863bc	0.05282949
196	0xbd92d562	-0.07169606
197	0xbdab4cb0	-0.08364236
198	0x3d0a939c	0.033832178
199	0x3d9c2fbc	0.07626292
200	0x3cd867a8	0.026416615
201	0xbd66d69c	-0.05635701
202	0x3da0ba92	0.078480855
203	0x3db163e0	0.08661628
204	0xbcbc0980	-0.022953749
205	0x3dc7063c	0.09717986
206	0x3dd72ad8	0.10506219
207	0xbd192c24	-0.03739561
208	0xbd714394	-0.05890234
209	0xbce6e408	-0.028184906
210	0xbd8df766	-0.06931953
211	0xbc5f11b0	-0.013615057
212	0xbdcc6856	-0.09980838
213	0xbdffce1e	-0.124904856
214	0x3d1213c0	0.035663366
215	0xbde47e9e	-0.11156963
216	0xbcacca08	-0.02109243
217	0xbd93d180	-0.07217693
218	0xbd00506c	-0.031326696
219	0xbde96ffc	-0.113983124
220	0xbdb48360	-0.0881412
221	0x3dda2d1c	0.10653135
222	0x3d7d3768	0.061820418
223	0xbd00b2d4	-0.031420544
224	0x3d12b784	0.035819545
225	0xbdf9e1a4	-0.12201241
226	0x3d474cb8	0.04865715
227	0x3df197dc	0.11796543
228	0xbdc3192c	-0.095262855
229	0xbdfa707e	-0.122284874
230	0x3d934f2e	0.07192837
231	0xbdf0784a	-0.11741693
232	0xbdbeab3c	-0.09310004
233	0xbcb10938	-0.021610841
234	0x3dd11e6a	0.10210879
235	0xbdead304	-0.11466029
236	0xbdf138e2	-0.11778428
237	0x3dd0e3ec	0.10199723
238	0x3d95378e	0.07285987
239	0x3cecce70	0.02890703
240	0x3de565da	0.11201067
241	0x3d9ab702	0.07554437
242	0x3dc74e5c	0.09731743
243	0x3d5b70fc	0.053574547
244	0xba97cc80	-0.0011581331
245	0x3cf28508	0.02960445
246	0xbdd5e512	-0.10444082
247	0xbd786460	-0.0606426
248	0x3d8832a8	0.06650287
249	0x3cf12f68	0.02944155
250	0x3d665038	0.056228846
251	0xbdd6bbf0	-0.10485065
252	0xbcac9680	-0.021067858
253	0xbdb0b630	-0.086284995
254	0xbc57f190	-0.013180152
255	0xbce13718	-0.027492091

lstm.bias_hh_l0 f4 [256]
0	0xbc9a7bc8	-0.018857852
1	0xbcd26e30	-0.025687307
2	0x3d4f1648	0.05055836
3	0xbd9db870	-0.07701194
4	0xbc83cd38	-0.016089067
5	0x3dc29094	0.09500232
6	0xbcbacc78	-0.022802576
7	0x3d7e3478	0.062061757
8	0xbd52d9a8	-0.051477104
9	0x3d5c05f0	0.0537166
10	0x3dcb39c8	0.0992313
11	0x3dbbae68	0.09164125
12	0x3de65e0c	0.11248407
13	0x3d452ef8	0.048140496
14	0xbdc80f26	-0.09768514
15	0xbb5f3c00	-0.0034062862
16	0xbd86c3e0	-0.06580329
17	0xbcfdfc18	-0.031003997
18	0xbddab06e	-0.106781825
19	0x3dc8e26c	0.098088115
20	0x3d51e894	0.051247194
21	0x3d31ce8c	0.04340987
22	0x3da95570	0.08268249
23	0x3c99cbb0	0.018773884
24	0xbd6ef67c	-0.058340535
25	0x3dd0a484	0.10187629
26	0x3d058bd0	0.03260404
27	0x3df49a34	0.119434744
28	0x3d85e7ba	0.06538339
29	0x3d4f5d38	0.05062601
30	0xbdb9ee0a	-0.090786055
31	0xbd92a73a	-0.07160802
32	0x3d946ee4	0.07247713
33	0x3dc42afe	0.095785126
34	0xbd8a21e2	-0.06744744
35	0x3cb77120	0.02239281
36	0xbdbaed22	-0.09127261
37	0xbc860cc8	-0.016363516
38	0x3de96136	0.11395495
39	0xbd7aac28	-0.061199337
40	0x3ddb7b0a	0.10716827
41	0x3c0e6310	0.0086906105
42	0xbda0e6bc	-0.07856509
43	0xbdeee10a	-0.116640165
44	0x3d1484a8	0.036259323
45	0x3d8b333e	0.06796883
46	0xbac33300	-0.0014892519
47	0xbcad5810	-0.021160156
48	0x3c6bff70	0.014404163
49	0x3cb3c558	0.021944687
50	0xbdb24276	-0.08704083
51	0xbd72d410	-0.05928427
52	0xbcd35000	-0.025794983
53	0xbcc86260	-0.024460971
54	0x3db25994	0.08708492
55	0x3da25670	0.07926643
56	0x3d61dd40	0.05514264
57	0x3d5560ac	0.052094147
58	0xbd96494c	-0.07338199
59	0xbcc77ad8	-0.024350569
60	0xbdc986e2	-0.0984018
61	0x3d7c01e8	0.061525255
62	0xbd825b60	-0.06365085
63	0x3dd5a898	0.10432547
64	0xbde55142	-0.11197139
65	0x3d781c80	0.060574055
66	0x3dd91808	0.10600287
67	0xbc4e0480	-0.012574315
68	0xbd655f60	-0.05599916
69	0xbcd10c80	-0.025518656
70	0xbdaa6a6e	-0.08321081
71	0x3db09540	0.08622217
72	0x3d52b54c	0.05144243
73	0x3cabeeb8	0.020987853
74	0xbd47855c	-0.048711166
75	0x3b20d200	0.0024539232
76	0xbd0a6df4	-0.033796266
77	0xbdb3e07a	-0.0878305
78	0xbd5adba4	-0.053432122
79	0xbdf0909e	-0.117463335
80	0x3d37e348	0.044894487
81	0x3dbda68e	0.092602834
82	0x3dd08a82	0.10182668
83	0xbdb2e670	-0.08735359
84	0xbdef48ce	-0.11683808
85	0xbcf92970	-0.030415267
86	0x3dcb3de2	0.099239126
87	0x3dfc6e18	0.12325686
88	0x3dd0c5f6	0.10194008
89	0x3dc1d4e4	0.09464434
90	0x3de1e1fe	0.11029433
91	0xbd62a3b0	-0.055331886
92	0xbddf3448	-0.10898644
93	0xbc1d1490	-0.009587422
94	0x3d3a5b70	0.045497358
95	0xbd9441d6	-0.0723912
96	0x3de81fa6	0.113341615
97	0xbd33811c	-0.0438243
98	0xbd46b77c	-0.048514828
99	0xbd36526c	-0.044512197
100	0xbdc25c60	-0.094902754
101	0x3df8a65e	0.12141107
102	0xbdb182d0	-0.08667529
103	0x3d8eaaf8	0.069662035
104	0x3cf36580	0.029711485
105	0xbcd54ed0	-0.026038557
106	0xbb5b19c0	-0.0033432096
107	0xbd8d04ba	-0.06885667
108	0xbd2030ec	-0.039109156
109	0x3c8df240	0.017327428
110	0xbde02f04	-0.109464675
111	0x3d87b4a0	0.06626248
112	0x3d3f3640	0.046682596
113	0xbdd4f038	-0.103973806
114	0x3d0c11b4	0.03419657
115	0x3df5fb96	0.12010877
116	0x3ddef71c	0.10886976
117	0xbd9ed6f8	-0.07755846
118	0x3db8de6c	0.090267986
119	0xbdfc3bf0	-0.1231612
120	0xbd241bec	-0.04006569
121	0xbde0ea1c	-0.10982153
122	0x3dd91d16	0.10601251
123	0x3d34b5b0	0.044118583
124	0x3d7d4b64	0.061839476
125	0x3dd492a0	0.10379529
126	0xbdbf1504	-0.0933018
127	0xbdf321d0	-0.118716836
128	0xbdae141a	-0.08499928
129	0xbcb2b488	-0.0218146
130	0x3dfce856	0.12349002
131	0xbdf92aa6	-0.12166338
132	0x3baf4da0	0.00534983
133	0x3c0113f0	0.007878289
134	0x3cc4e8d0	0.024036795
135	0xbd0df74c	-0.03465967
136	0x3db940cc	0.09045562
137	0x3c29e890	0.010370389
138	0xbdbc1ca8	-0.09185153
139	0x3d003958	0.031304687
140	0x3d363a04	0.04448892
141	0xbdc32ca4	-0.09529999
142	0x3d833580	0.06406689
143	0x3d2f79fc	0.042840943
144	0xbd183c44	-0.03716685
145	0x3d1e57fc	0.038658127
146	0x3bf97340	0.007612616
147	0x3dfefa52	0.124500886
148	0x3cbc6ba0	0.023000538
149	0x3bd24be0	0.0064177364
150	0x3cb189a0	0.02167207
151	0xbc9b8d60	-0.018988311
152	0xbd8ef344	-0.06979993
153	0x3d61d548	0.05513504
154	0xbddd0e66	-0.10793762
155	0xbde5d190	-0.112216115
156	0x3b8f0b60	0.0043653697
157	0xbdfbfbe4	-0.12303904
158	0x3ca9ce68	0.020728305
159	0xba70e600	-0.0009189546
160	0x3dc390b4	0.09549084
161	0x3d6261f4	0.055269197
162	0x3db2c75c	0.08729431
163	0xbd5edad4	-0.05440791
164	0x3dfac1c8	0.12243992
165	0xbd339688	-0.04384473
166	0xbccfe470	-0.025377482
167	0x3d64aac8	0.055826932
168	0x3da9290c	0.08259782
169	0xbc387ea0	-0.0112606585
170	0xbd0c3d90	-0.034238398
171	0x3dc1d0dc	0.09463665
172	0xbd24d1a0	-0.040238976
173	0xbd7ec4ac	-0.06219928
174	0xbd1701b0	-0.036866844
175	0xbd4eeff4	-0.050521806
176	0x3d95974e	0.0730425
177	0xbca98ee0	-0.02069801
178	0xbc3fbd20	-0.011702806
179	0xbc974f70	-0.018470496
180	0x3dd7da40	0.10539675
181	0xbdbbc21a	-0.09167881
182	0xbcdc45b0	-0.026888698
183	0x3d58e454	0.052952126
184	0xbc284a90	-0.010271683
185	0x3dedb8ce	0.11607514
186	0xbd944586	-0.07239823
187	0x3daf8ae2	0.08571412
188	0x3dd64a1a	0.104633525
189	0xbc52afb0	-0.01285927
190	0xbd2f0d64	-0.04273738
191	0xbba42100	-0.0050088167
192	0x3ceeaa28	0.029133871
193	0x3d46a0e0	0.048493266
194	0x3dc175be	0.09446286
195	0x3d431c04	0.04763414
196	0x3ca7fee0	0.020507276
197	0x3c833888	0.016018167
198	0xbce7f4b0	-0.028314918
199	0xbd6f0200	-0.058351517
200	0xbd066f94	-0.032821253
201	0x3dcb82a8	0.0993703
202	0xbd6a2cb8	-0.057171553
203	0x3d4fae8c	0.05070357
204	0xbdd8a5e4	-0.10578516
205	0xbda5a0c8	-0.08087307
206	0x3dbac204	0.09119037
207	0x3c465520	0.012105256
208	0x3d65273c	0.05594562
209	0x3dda9ec2	0.10674812
210	0x3dc657a0	0.09684682
211	0x3d68c858	0.056831688
212	0x3b5a6f80	0.003333062
213	0x3d2e5684	0.042562976
214	0x3dbb8ace	0.09157334
215	0x3cfbd8c8	0.030743018
216	0x3c821ca0	0.01588279
217	0x3d21a184	0.039460674
218	0xbd47eaa8	-0.04880777
219	0x3bff6a80	0.007794678
220	0x3df4ce9e	0.119534716
221	0x3d0acd38	0.033887118
222	0xb8b1a000	-8.46982e-05
223	0xbdfeaeae	-0.12435661
224	0xbd91f7f4	-0.071273714
225	0x3dbe1a60	0.092823744
226	0xbdbd367e	-0.09238909
227	0x3dd7bce4	0.10534075
228	0xbd9f24de	-0.07770704
229	0xbd80a528	-0.06281501
230	0xbca2a260	-0.019852817
231	0x3d17339c	0.036914453
232	0x3de04f4e	0.10952626
233	0xbdcb1400	-0.09915924
234	0xbd7c1bf8	-0.06155011
235	0x3d89998e	0.06718741
236	0xbd4ebfe4	-0.05047597
237	0xbd2e47b0	-0.042548835
238	0xbda0ce2e	-0.07851826
239	0xbdc43fd8	-0.0958249
240	0xbd61b190	-0.055100977
241	0xbd02f520	-0.03197205
242	0x3dfdd4ac	0.123940796
243	0xbd9c2e82	-0.07626058
244	0x3dd44762	0.10365178
245	0x3d9e383e	0.07725571
246	0xbdea7e4a	-0.11449869
247	0x3da50afe	0.08058737
248	0x3ccc3058	0.024925396
249	0xbdb5584c	-0.08854732
250	0x3def6bbe	0.11690472
251	0x3cd579c0	0.026059031
252	0xbd04f0a0	-0.03245604
253	0xbdb336a8	-0.08750659
254	0x3d7f5c70	0.062344015
255	0x3dad7d8a	0.0847121

lstm.weight_ih_l1 f4 [256, 64]
0	0xbd09373c	-0.03349994
1	0x3de382ec	0.11108956
2	0x3cffca38	0.031224355
3	0x3d3e7e2c	0.046507046
4	0xbdbefeb0	-0.093259215
5	0xbddaa49e	-0.106759295
6	0xbdf7a4e8	-0.12092
7	0x3ca43adb	0.020047596
8	0xbd8fa192	-0.07013239
9	0xbcae1160	-0.02124852
10	0xbddcc234	-0.10779229
11	0x3d10e5c4	0.03537537
12	0x3d411973	0.04714341
13	0xbd1dc410	-0.038517058
14	0x3d9bd408	0.07608801
15	0x3df69b5d	0.12041352
16	0xbdc4b842	-0.09605457
17	0xbd9e7cee	-0.07738672
18	0x3dd8fc5a	0.10595007
19	0xbd168224	-0.036745206
20	0xbc5f4230	-0.01362662
21	0xbde73d62	-0.11291005
22	0xbe0ccd3b	-0.13750164
23	0xbd4c5b64	-0.049891844
24	0x3dcb7cb2	0.09935893
25	0x3db26fe4	0.08712748
26	0xbd9e8838	-0.077408254
27	0xbd5ee64c	-0.054418847
28	0xbcaa32d0	-0.020776182
29	0x3d6caf48	0.05778435
30	0xbdac2be2	-0.084068075
31	0x3dc1e2d1	0.0946709
32	0x3da01492	0.078164235
33	0xbdfda24c	-0.12384471
34	0xbdb4ff76	-0.08837788
35	0xbd707914	-0.05870922
36	0x3de2fcb4	0.110833555
37	0x3dcf816c	0.10132107
38	0x3dea367e	0.11436175
39	0x3dc10a23	0.094257616
40	0x3dfc6120	0.123232126
41	0xbcd915f0	-0.026499718
42	0xbbeefde0	-0.007293448
43	0xbbeee822	-0.007290856
44	0x3d92d2fb	0.071691476
45	0x3db3ecf5	0.0878543
46	0xbd94ee0f	-0.072719686
47	0x3db0be6c	0.0863007
48	0x3cd50f18	0.026008174
49	0x3d761c78	0.060085744
50	0x3dc27e3a	0.09496732
51	0x3df60426	0.1201251
52	0xbdb6a78a	-0.08918674
53	0x3d64baa0	0.055842042
54	0xbdb9b8a6	-0.09068422
55	0x3d3571b7	0.0442979
56	0xbdc715fc	-0.0972099
57	0x3ca2d9f0	0.019879311
58	0x3d50e41c	0.050998792
59	0x3d0a4cf4	0.033764794
60	0xbdb4b1db	-0.08822986
61	0xbde25846	-0.11051993
62	0x3d352d9c	0.04423295
63	0xbdc611c8	-0.0967136
64	0xbccbc610	-0.024874717
65	0xbd6a0e14	-0.057142332
66	0x3dfa18d2	0.12211765
67	0x3df6ae7e	0.120450005
68	0xbd370862	-0.04468573
69	0x3d8a60be	0.06756733
70	0xbc09e4a0	-0.008416325
71	0xbe0285b3	-0.12746315
72	0x3bec3540	0.0072084963
73	0x3d51806c	0.051147863
74	0x3dd96296	0.10614507
75	0xbd2f3ab4	-0.042780593
76	0xbd63022e	-0.055422
77	0x3d9c474e	0.07630788
78	0xbdc8e0ba	-0.09808488
79	0x3de2002a	0.110351875
80	0x3da9be82	0.082882896
81	0xbce4b0c8	-0.027916327
82	0xbdf90e1a	-0.12160893
83	0x3dd18f7a	0.10232444
84	0xbc53cdd0	-0.0129274875
85	0xbc066b30	-0.008204266
86	0x3d9295de	0.07157491
87	0xbd56df60	-0.05245912
88	0x3dc98344	0.0983949
89	0xbdb45aca	-0.08806379
90	0xbdb08070	-0.086182475
91	0x3dccdd56	0.10003154
92	0xbd92dd3a	-0.07171102
93	0xbd81f282	-0.06345083
94	0xba91738d	-0.0011097059
95	0x3dd8f66e	0.10593878
96	0x3cc82bb0	0.024434894
97	0x3b211c00	0.002458334
98	0xbdefa020	-0.11700463
99	0xbd230a44	-0.039804712
100	0xbd5a611c	-0.053315267
101	0xbd7d5610	-0.061849654
102	0xbded9df2	-0.11602391
103	0xbe0785e9	-0.13234676
104	0x3dd63c02	0.10460664
105	0x3d1d2e80	0.038374424
106	0x3d7f59ec	0.062341616
107	0xbd9dfdd3	-0.07714429
108	0xbdf8d34f	-0.12149679
109	0x3d9beede	0.0761392
110	0x3debed8b	0.11519917
111	0x3c4d42e0	0.012528151
112	0xbded0e9e	-0.11575054
113	0x3de88ab5	0.11354581
114	0x3c8bb6c8	0.01705493
115	0xbdf52e5e	-0.119717345
116	0xbbc74e20	-0.0060823113
117	0x3dd0ce08	0.10195547
118	0xbd643f18	-0.055724233
119	0xbd86596d	-0.06560025
120	0x39ec3600	0.0004505366
121	0x3ddfa002	0.10919191
122	0xbda5de70	-0.08099067
123	0xbc752050	-0.014961317
124	0x3d50e6f0	0.05100149
125	0x3c79f230	0.015255496
126	0x3d429a58	0.047510475
127	0xbdddca24	-0.10829571
128	0x3be0b080	0.006856978
129	0xbb360d00	-0.0027778745
130	0xbd3e63e0	-0.046481967
131	0x3db6ef12	0.08932318
132	0xbd022cc6	-0.03178098
133	0xbdd451b2	-0.10367145
134	0x3db25d22	0.0870917
135	0xbd562c23	-0.052288186
136	0xbd8bd0d0	-0.06826937
137	0xbc9c5290	-0.019082338
138	0x3db158d8	0.08659524
139	0xbd80e982	-0.06294538
140	0xbdedd93d	-0.116137005
141	0x3d80ea28	0.06294662
142	0xbc2cabf0	-0.01053904
143	0x3dfae2fa	0.122503236
144	0x3cecb8c0	0.02889669
145	0xbda46220	-0.08026528
146	0xbda9a1ee	-0.08282839
147	0x3dba03b8	0.090827405
148	0xbd99f686	-0.07517724
149	0xbdbfc2fe	-0.09363364
150	0xbd6be4a0	-0.05759108
151	0xbc1380c0	-0.009002864
152	0x3db93d6e	0.0904492
153	0xbd85295e	-0.06502031
154	0x3dd61bde	0.10454534
155	0x3b85ec00	0.0040869713
156	0xbc938948	-0.018009797
157	0xbdaf5188	-0.08560473
158	0xbcc0f3bf	-0.023553727
159	0x3b1f61bc	0.002431973
160	0x3d2e8098	0.042603105
161	0xbdaa64e2	-0.08320023
162	0x3d3d0100	0.04614353
163	0x3d343bd8	0.044002384
164	0xbd885ce2	-0.06658341
165	0xbdd2d024	-0.10293606
166	0x3de2693c	0.11055228
167	0xbd5fd6bb	-0.054648142
168	0xbc5aec90	-0.013362065
169	0xbdfd1564	-0.123575956
170	0x3c77f310	0.015133634
171	0xbdaf6956	-0.08565013
172	0xbdc8eacc	-0.09810409
173	0x3d382452	0.044956513
174	0xbad7b9d1	-0.0016458576
175	0x3c901738	0.017589197
176	0x3da4a4c4	0.08039239
177	0x3dc844c2	0.097787395
178	0xbcc4bea8	-0.024016693
179	0xbd3b9fa4	-0.045806542
180	0xbd46b12c	-0.048508808
181	0xbb50f780	-0.0031885803
182	0x3de58376	0.11206715
183	0x3bf047e5	0.0073327892
184	0xbd2c63c8	-0.042087346
185	0x3ddd9f46	0.108213946
186	0xbdedd8f0	-0.11613643
187	0xbd7e6770	-0.062110364
188	0x3d4224d2	0.047398396
189	0xbdda9a50	-0.10673964
190	0x3cec8000	0.028869629
191	0xbdac4d9e	-0.08413242
192	0x3d0c0f44	0.034194246
193	0x3ded34a0	0.11582303
194	0xbd5dfa60	-0.054193854
195	0xbcb3b808	-0.021938339
196	0x3c724e5d	0.014789191
197	0xbd342ed4	-0.04398997
198	0x3df52fd2	0.119720116
199	0xbdb9cc06	-0.090721175
200	0x3c85cd20	0.016333163
201	0xbcb5b2a8	-0.022179917
202	0xbccc3ed0	-0.024932295
203	0xbda440bc	-0.080201596
204	0xbce6f4a5	-0.028192827
205	0xbce7dcb0	-0.028303474
206	0x3d50cb8c	0.050975367
207	0x3cfd804e	0.03094497
208	0x3dcc1270	0.09964454
209	0xbd089808	-0.033348113
210	0x3db91178	0.09036535
211	0x3c82dcb8	0.015974388
212	0x3dcab198	0.098971546
213	0x3c015cf0	0.007895693
214	0x3d0bf7f6	0.03417202
215	0x3a61ee00	0.00086185336
216	0xbc2b0440	-0.010438025
217	0x3dddd5e6	0.108318135
218	0xbb483700	-0.003055036
219	0xbd174890	-0.036934435
220	0xbcb96808	-0.022632614
221	0x3d81cb06	0.06337552
222	0x3df4e2cd	0.11957321
223	0xbd9fb7ab	-0.07798704
224	0xbd1e4858	-0.03864321
225	0xbd34fadc	-0.04418455
226	0xbda23322	-0.07919909
227	0x3da14144	0.078737766
228	0xbb02cf40	-0.0019959956
229	0xbdb2eb34	-0.08736268
230	0xbdf06dd0	-0.11739695
231	0x3d0ad1e4	0.033891574
232	0xbd7038c0	-0.05864787
233	0x3d02922c	0.03187768
234	0x3c3f8a40	0.011690676
235	0xbd98000d	-0.07421885
236	0xbd364da4	-0.044507638
237	0xbdbfc114	-0.093629986
238	0xbc2727bb	-0.010202344
239	0x3d90644c	0.0705038
240	0xbd0449b0	-0.032296836
241	0x3dcb45c9	0.0992542
242	0xbd7b94e0	-0.061421275
243	0x3c32bfd0	0.0109099895
244	0x3ddb1970	0.10698211
245	0x3d9571a0	0.07297063
246	0xbcf817a0	-0.030284703
247	0xbcd2d6e9	-0.025737243
248	0x3da6e268	0.08148652
249	0xbc9dcec8	-0.01926364
250	0x3c4cac90	0.012492314
251	0xbdb00a0c	-0.08595666
252	0xbc218342	-0.009857954
253	0x3c972548	0.018450394
254	0x3d8770c6	0.06613307
255	0xbccbbcd8	-0.024870321

lstm.weight_hh_l1 f4 [256, 64]
0	0x3d3c229b	0.04593144
1	0xbc45fa7a	-0.012083644
2	0x3c92d8fd	0.017925734
3	0xbc91f4c0	-0.017816901
4	0xbb51ed6d	-0.0032032386
5	0xbd89c333	-0.067266844
6	0xbd6eddca	-0.058316983
7	0x3cab5876	0.020916205
8	0x3e09cadf	0.13456295
9	0x3c1fa0b9	0.009742909
10	0xbc740e96	-0.014896056
11	0xbda0a4a2	-0.07843901
12	0x3dc00b8a	0.09377201
13	0xbe1162d6	-0.14197859
14	0xbd7f309c	-0.062302217
15	0xbd8f3ae5	-0.06993655
16	0xbc0d8125	-0.0086367475
17	0x3d9a59a6	0.0753663
18	0x3c7117a7	0.014715112
19	0x3dcbcf2d	0.09951625
20	0x3a4bb183	0.0007770287
21	0xbd821b04	-0.06352809
22	0x3dc4d7c2	0.09611465
23	0x3bc46df1	0.0059945513
24	0x3d6272e0	0.055285335
25	0x3d0d5e35	0.03451367
26	0xbd3b9338	-0.045794696
27	0xbdacebc2	-0.08443405
28	0x3d56266c	0.052282736
29	0xbd177bbf	-0.036983248
30	0xbc0f27fb	-0.008737559
31	0xbdb9e831	-0.0907749
32	0xbce74f99	-0.028236197
33	0x3d82ef6f	0.063933246
34	0xbc904b3a	-0.017613996
35	0xbd7a4cd4	-0.061108425
36	0xbd9f3042	-0.07772876
37	0xbd5f90b7	-0.05458137
38	0xbdad7ed0	-0.08471453
39	0xbcfb4e3e	-0.030676957
40	0x3d8fc4a7	0.0701993
41	0x3e0d1bf6	0.13780198
42	0xbba1fbf3	-0.0049433648
43	0xbd7df572	-0.062001653
44	0xbd4bce5c	-0.049757347
45	0x3d6d7750	0.057975113
46	0x3dcc61fc	0.099796265
47	0x3d74ef74	0.059798673
48	0x3ca51fe6	0.020156812
49	0xbd794095	-0.060852606
50	0x3df771d1	0.12082256
51	0x3d9aefa4	0.07565239
52	0x3da03903	0.07823374
53	0xbe0bac0c	-0.1363985
54	0xbe070026	-0.1318365
55	0xbdb2d6f2	-0.08732404
56	0xbd956cfb	-0.07296177
57	0x3bc5b3e1	0.006033406
58	0xbcbf3586	-0.023340952
59	0xbd5d1396	-0.053973757
60	0x3a70c175	0.0009184101
61	0x3d7f6d89	0.06236032
62	0xbdfd2bfd	-0.12361906
63	0x3cb92227	0.022599293
64	0xbd382c9c	-0.044964418
65	0xbe0ee3c5	-0.13954075
66	0x3d6f6d14	0.058453634
67	0xbd8abf8e	-0.067748174
68	0xbd41c808	-0.047309905
69	0xbd0728cd	-0.032997895
70	0xbe14511a	-0.14484063
71	0x3d29fcfc	0.04150103
72	0x3de6af74	0.11263934
73	0x3cd2e9cc	0.025746249
74	0xbc977251	-0.018487127
75	0xbdcfce26	-0.101467416
76	0x3cd2d5fb	0.0257368
77	0xbd9be9bf	-0.07612943
78	0x3d7babb8	0.06144306
79	0x3c6c1116	0.0144083705
80	0xbd565b6a	-0.052333273
81	0xbdd973b8	-0.10617775
82	0x3db55744	0.08854535
83	0xbd91005d	-0.070801474
84	0x3d8bb542	0.068216816
85	0xbdbc0f97	-0.09182661
86	0x3c9ee124	0.019394465
87	0xbdc2edfc	-0.09518048
88	0x3d654f18	0.055983633
89	0xbd5ac537	-0.053410735
90	0x3d0b0c30	0.03394717
91	0x3bc1bdd8	0.0059125237
92	0x3d3f9978	0.04677722
93	0x3d84e277	0.06488507
94	0x3da943d0	0.08264887
95	0x3d88271d	0.06648085
96	0x3dd992c3	0.10623696
97	0x3c02cc4d	0.007983279
98	0xbdbdf374	-0.092749506
99	0xbd06c72e	-0.032904796
100	0xbd99edaf	-0.07516038
101	0xbce85ac6	-0.028363597
102	0xbcd1ec90	-0.025625497
103	0x3d499069	0.049209986
104	0x3ca1e082	0.019760374
105	0xbcd75a6e	-0.026288237
106	0xbd01384c	-0.03154783
107	0xbc1fe345	-0.009758775
108	0xbd80517f	-0.06265544
109	0x3d1b4e20	0.037916303
110	0x3d6f4009	0.058410678
111	0x3ca62620	0.020281851
112	0xbe06c923	-0.13162665
113	0xba085d5a	-0.0005201899
114	0x3e12878a	0.14309517
115	0xbd3e4653	-0.046453785
116	0x3dd56d66	0.10421257
117	0xbc95a13d	-0.018265361
118	0xbde0abea	-0.1097029
119	0xbdde0d0d	-0.10842333
120	0xbda8f2f2	-0.08249463
121	0x3dba5d3b	0.090998136
122	0xbd2aa5bd	-0.041661967
123	0xbd22073b	-0.039557677
124	0xbe098e6e	-0.13433239
125	0xbdc96408	-0.098335326
126	0x3d39e1bb	0.04538129
127	0x3d06c3b0	0.032901466
128	0xbd816fb9	-0.063201375
129	0x3d095c95	0.03353556
130	0x3dd5fdf7	0.104488306
131	0x3d1e8441	0.038700346
132	0x3da7c248	0.08191353
133	0xbda25d92	-0.07928003
134	0xbcbf6877	-0.023365242
135	0xbcb9e062	-0.022690002
136	0x3d805f1a	0.06268139
137	0x3c78641c	0.015160587
138	0x3d8d7437	0.06906932
139	0x3e0eab9c	0.13932651
140	0xbbe40aa8	-0.006959278
141	0x3cba57b6	0.022746902
142	0xbb4181ec	-0.0029526902
143	0xbe0a8c3c	-0.13530058
144	0xbdc19d95	-0.094538845
145	0x3d847d84	0.06469253
146	0x3da5215d	0.08063004
147	0xbd63339d	-0.055469144
148	0xbd6a3439	-0.05717871
149	0xbca8fe89	-0.020629184
150	0xbc2cfc9d	-0.010558275
151	0x3d7a9007	0.06117251
152	0x3d0391a1	0.032121304
153	0xbdfffd63	-0.124995016
154	0x3da645a3	0.08118751
155	0xbd0b6d88	-0.034040004
156	0x3dd4b6ff	0.10386466
157	0x3b0ca412	0.0021460098
158	0xbd9bce52	-0.07607712
159	0x3d03fcef	0.03222364
160	0x3df84fee	0.121246204
161	0x3dcfe305	0.101507224
162	0xbd149f8b	-0.036284965
163	0x3d7e9e29	0.062162552
164	0x3d4cd3d1	0.05000669
165	0x3d5d426c	0.054018423
166	0xbde528ad	-0.11189399
167	0xbdb2db70	-0.08733261
168	0x3d401cc3	0.04690243
169	0x3b5a88bc	0.003334566
170	0x3d97dc16	0.07415025
171	0xbc96d9de	-0.018414434
172	0xbddba3bd	-0.1072459
173	0xbc94f7f0	-0.018184632
174	0xbdc0cced	-0.094140865
175	0xbccde5ab	-0.025133928
176	0xbc9e8593	-0.019350803
177	0xbd556913	-0.05210216
178	0x3dc95795	0.09831158
179	0xbd83df50	-0.06439078
180	0xbd0153f5	-0.03157421
181	0x3d051498	0.032490343
182	0xbdc525ea	-0.09626372
183	0xbdd831a0	-0.1055634
184	0xbc142636	-0.009042313
185	0xbd5385be	-0.05164122
186	0x3ce59f8e	0.028030183
187	0x3d96ddd9	0.07366533
188	0xbd42d1f4	-0.04756351
189	0x3a4383f8	0.00074583245
190	0xbe0b2b2d	-0.13590689
191	0x3cc5bd55	0.024138132
192	0x3bf891fb	0.0075857616
193	0xbe09fe28	-0.13475859
194	0x3d6453ab	0.055743854
195	0xbd340a4c	-0.043955132
196	0x3d5c373e	0.05376362
197	0x3db33e93	0.087521695
198	0xbb828a5f	-0.0039837803
199	0x3d4baa21	0.049722794
200	0x3d02cadb	0.03193174
201	0xbdbe6f83	-0.09298613
202	0xbbaea1eb	-0.0053293607
203	0x3d866dd4	0.06563917
204	0xbc842380	-0.016130209
205	0xbdd1985a	-0.10234137
206	0xbdf7c3e7	-0.12097912
207	0xbcc602e0	-0.024171293
208	0x3dabfd8b	0.08397969
209	0x3d08f07c	0.03343247
210	0xbdb0f584	-0.086405784
211	0xbd88affb	-0.066741906
212	0xbc7ce347	-0.0154350465
213	0xbd967c16	-0.07347886
214	0xbc8443ca	-0.016145606
215	0x3c5de12d	0.013542456
216	0x3d3f9c9c	0.046780214
217	0xbd954b3d	-0.07289741
218	0xbccbb833	-0.024868106
219	0x3da82e72	0.08211984
220	0xbdb72d06	-0.089441344
221	0x3de57b1a	0.112051204
222	0xbd572623	-0.052526604
223	0xbdefdffc	-0.117126435
224	0xbd60fcef	-0.054928716
225	0x3d0a4529	0.033757363
226	0xbd95475c	-0.07289001
227	0xbd043ea1	-0.03228629
228	0xbd98fa17	-0.07469576
229	0xbe097253	-0.13422517
230	0x3bab61ae	0.00523015
231	0x3cc25d92	0.023726258
232	0x3b69335d	0.0035583593
233	0xbceaebbf	-0.028676866
234	0x3b68db62	0.0035531153
235	0x3dab757c	0.08372018
236	0x3dd55784	0.10417083
237	0x3da84926	0.08217077
238	0x3b8f7dd1	0.004379012
239	0xbc706500	-0.014672518
240	0xbdf06e1a	-0.1173975
241	0xbd712a2a	-0.0588781
242	0xbd93f5a2	-0.07224585
243	0x3c071392	0.008244412
244	0xbdaff344	-0.08591321
245	0x3d861502	0.06546976
246	0x3db9dfa1	0.09075857
247	0x3d9b9528	0.07596809
248	0xba894d7a	-0.001047536
249	0x3e1559c5	0.14585026
250	0x3c57138f	0.013127222
251	0x3e030bf3	0.12797527
252	0x3da80380	0.082037926
253	0x3d81d1ec	0.063388675
254	0xbdf262e2	-0.11835267
255	0xbd7b878b	-0.06140856

lstm.bias_ih_l1 f4 [256]
0	0x3dd58481	0.10425664
1	0xbbe01324	-0.0068382192
2	0x3e08a995	0.1334594
3	0x3ce104a0	0.027468026
4	0x3da2cfcf	0.079497926
5	0xbda2aac3	-0.079427265
6	0x3dcb6331	0.09931029
7	0x3dd73552	0.10508217
8	0x3d4a19b3	0.049340915
9	0x3d9e738d	0.07736883
10	0x3ded9396	0.116004154
11	0x3e0a083a	0.134797
12	0xbd54971f	-0.051901933
13	0x3c8a93ff	0.016916273
14	0x3dd4dfde	0.10394262
15	0x3d852507	0.06501203
16	0x3de7b5cb	0.11313971
17	0xbb6571c5	-0.003501044
18	0x3d4fea51	0.05076057
19	0x3d2d5ca1	0.042324666
20	0x3d71d7db	0.059043746
21	0x3dd10efa	0.10207935
22	0x3dab5b9a	0.08367081
23	0xbd32c8f4	-0.043648675
24	0x3dcd8694	0.10035434
25	0x3de2f102	0.11081125
26	0x3c1f8bb9	0.009737902
27	0xbdd2b9a7	-0.102893166
28	0xbda4e680	-0.08051777
29	0x3cda6588	0.026659742
30	0x3be62cdb	0.00702439
31	0x3e020d70	0.12700438
32	0xbbabfa3e	-0.005248337
33	0x3cb8ee3a	0.022574533
34	0xbb949441	-0.004534275
35	0xbdb9fbcb	-0.09081229
36	0xbd84f84e	-0.06492673
37	0x3dfe8b5c	0.124289244
38	0xbcc35fe5	-0.023849437
39	0x3d64fe30	0.055906475
40	0xbb6e3ab2	-0.0036350903
41	0x3c3d5a08	0.01155711
42	0x3da8899b	0.08229371
43	0xbc3d29c4	-0.011545602
44	0xbccc0a16	-0.024907153
45	0x3c8a3a19	0.016873406
46	0x3df48324	0.119390756
47	0x3c4bca19	0.012438321
48	0x3d8a13c4	0.06742051
49	0xbd74b59a	-0.0597435
50	0x3e0d3f91	0.1379378
51	0x3d2774ca	0.040882863
52	0xbdb9b88f	-0.09068405
53	0xbc62f29d	-0.013851789
54	0x3cf27f42	0.029601697
55	0xbd2b18a1	-0.041771535
56	0x3d612659	0.05496821
57	0x3d474ff5	0.048660237
58	0xbdc964a6	-0.0983365
59	0x3df8634a	0.12128313
60	0xbd6d9cc0	-0.058010817
61	0x3d3cf110	0.046128333
62	0x3db03bcb	0.086051546
63	0x3c94797b	0.018124333
64	0x3df0ad0c	0.11751756
65	0x3d4f0c67	0.050548937
66	0x3de03209	0.109470434
67	0x3d4ba36e	0.049716406
68	0x3de2fd23	0.11083438
69	0xbd2b33b5	-0.04179736
70	0x3d19b4d4	0.037525967
71	0xbc9df136	-0.019280057
72	0x3da5c890	0.08094895
73	0x3e0d4620	0.13796282
74	0x3dbaa240	0.09112978
75	0x3e086abc	0.13321966
76	0xbd66d1a4	-0.056352273
77	0xbd9408c6	-0.07228236
78	0x3df89473	0.121376894
79	0x3de52b9e	0.1118996
80	0x3e102ec6	0.14080343
81	0xbdae188a	-0.08500774
82	0xbc40ccda	-0.01176759
83	0xbbd20c92	-0.00641019
84	0x3df8ed10	0.12154591
85	0xbd84f461	-0.06491924
86	0x3dbbef4c	0.09176502
87	0x3d19476b	0.037421625
88	0xbda7e9c7	-0.08198886
89	0xbda4bdfe	-0.08044051
90	0xbd820783	-0.06349089
91	0xbd3d6142	-0.04623533
92	0xbd004d78	-0.03132388
93	0x3e112f2a	0.14178148
94	0xbdb766ff	-0.08955192
95	0x3de70189	0.1127959
96	0xbdb9df9f	-0.090758555
97	0x3df92b73	0.121664904
98	0xbd4e482c	-0.050361797
99	0xbd386a02	-0.045022972
100	0x3e14bd8d	0.14525433
101	0x3e0e526d	0.1389863
102	0xbdb038aa	-0.08604558
103	0x3dd89da3	0.10576942
104	0x3b814f03	0.0039461865
105	0xbd96341f	-0.0733416
106	0xbdc387d0	-0.095473886
107	0xbb5ea73c	-0.0033974191
108	0xbd83dffb	-0.06439205
109	0x3e08ce11	0.13359858
110	0x3d987e3a	0.07445951
111	0x3c6df736	0.014524272
112	0x3d1ed3af	0.038776096
113	0x3d247edf	0.040160056
114	0x3d9c1b0e	0.07622348
115	0x3c836252	0.016038094
116	0x3d36a947	0.04459503
117	0xbbf67320	-0.007521048
118	0x3bd067db	0.006360037
119	0xbd531d04	-0.051541343
120	0xbd08ce30	-0.03339976
121	0x3e0a0cc1	0.13481428
122	0x3e017bb5	0.12644847
123	0x3d38824c	0.045046136
124	0x3d6abfd3	0.057311844
125	0xbd81707f	-0.06320285
126	0x3d5c1652	0.053732224
127	0xbd9ec00f	-0.07751476
128	0xbce34494	-0.027742662
129	0xbdb5d0f3	-0.088777445
130	0xbdcec014	-0.1009523
131	0xbdf6972d	-0.12040553
132	0xbde0efcc	-0.109832376
133	0x3c532433	0.012887049
134	0xbd0bd256	-0.03413614
135	0x3db489d1	0.08815349
136	0x3d850e9b	0.064969264
137	0xbdf4132c	-0.11917719
138	0xbe01b8e7	-0.12668191
139	0x3df4b0f5	0.119478144
140	0x3ddb048c	0.106942266
141	0xbce81f6b	-0.028335294
142	0xbda63cc2	-0.081170574
143	0xbc5d7144	-0.013515774
144	0x3b020edc	0.0019845283
145	0x3dc79c75	0.09746639
146	0xbd128d31	-0.035779182
147	0x3c3e6bdb	0.011622394
148	0x3d4928af	0.049111065
149	0xbe08b058	-0.1334852
150	0xb8e9bd97	-0.0001114562
151	0xbe0c28e1	-0.13687469
152	0x3d477181	0.04869223
153	0xbd690986	-0.056893848
154	0xbcd4309a	-0.025902081
155	0x3d1d255d	0.03836571
156	0xbca53af4	-0.020169713
157	0x3d8024cb	0.06257018
158	0x3bf864b8	0.007580366
159	0xbcc0de0c	-0.02354338
160	0xbda627b8	-0.081130445
161	0x3d163361	0.036670092
162	0xbcf1a55f	-0.0294978
163	0xbdbdabaa	-0.09261258
164	0x3d2b4350	0.04181224
165	0xbcb568ed	-0.02214476
166	0xbdd15de2	-0.10222985
167	0x3d54a9c0	0.0519197
168	0xbdc25bf8	-0.09490198
169	0x3c40812f	0.01174955
170	0xbe07cc6e	-0.13261577
171	0x3d8a05e5	0.067394055
172	0x3d0e91ce	0.03480702
173	0x3d2391e6	0.03993406
174	0x3d7f0712	0.062262602
175	0x3de4448c	0.11145887
176	0xbdc68522	-0.09693362
177	0xbc2924f0	-0.010323748
178	0xbdc9bbe0	-0.098502874
179	0xbd4c98c4	-0.049950376
180	0xbdb7b226	-0.08969526
181	0xbddb96f8	-0.107221544
182	0x3ac279f4	0.001483737
183	0xbd84164c	-0.06449565
184	0x3db49208	0.08816916
185	0xbc1f218a	-0.009712586
186	0xbde6332b	-0.11240228
187	0x3c2f5499	0.010701322
188	0xbcbac874	-0.022800662
189	0xbd73b54f	-0.05949908
190	0x3db5c18d	0.088748075
191	0x3d900fe0	0.07034278
192	0xbda84ac1	-0.08217383
193	0xbd24fa6f	-0.040277895
194	0xbd9b9b08	-0.07597929
195	0xbce7746c	-0.028253756
196	0xbdb79f33	-0.08965912
197	0x3d95ecb3	0.073205374
198	0x3de94898	0.11390799
199	0x3e03cc38	0.12870872
200	0xbaa3cc7d	-0.0012496855
201	0xbdb6465c	-0.08900139
202	0x3d920b66	0.0713108
203	0x3dfc35f2	0.12314977
204	0x3dc93677	0.098248415
205	0x3e21e5c6	0.15810308
206	0x3e1736ee	0.14767048
207	0x3ccb4a50	0.024815708
208	0x3d3a594f	0.045495328
209	0x3c694c19	0.0142393345
210	0xbda41b8d	-0.080130674
211	0x3ddc45d0	0.10755503
212	0xbd8f612d	-0.07000957
213	0xbdb4fccd	-0.088372804
214	0x3e0da468	0.13832247
215	0x3da9b1ef	0.08285891
216	0xbd853025	-0.065033235
217	0x3d94294a	0.07234438
218	0x3e0ed7a8	0.13949454
219	0x3dcc4efe	0.09976004
220	0xbdd1e24c	-0.10248241
221	0xbba2b947	-0.0049659344
222	0x3db088a1	0.0861981
223	0x3cbfad4a	0.02339806
224	0x3e11be37	0.14232717
225	0xbdb60ec7	-0.08889537
226	0xbcfb145a	-0.030649353
227	0x3e019a1a	0.12656441
228	0xbd7a00c3	-0.061035883
229	0x3daa9a90	0.08330262
230	0x3da29c75	0.07939998
231	0x3d7274f0	0.05919355
232	0xbdaecd64	-0.08535269
233	0xbcb6c6eb	-0.022311648
234	0xbcce7d19	-0.025206136
235	0xbd20ac2f	-0.039226707
236	0x3cadd8d6	0.02122156
237	0xbd7755c7	-0.060384538
238	0x3da70c9e	0.081567034
239	0x3dc7dc35	0.09758798
240	0x3d0517d4	0.032493427
241	0xbd56863b	-0.052374106
242	0x3e103bfb	0.1408538
243	0x3d57197e	0.052514546
244	0x3dc0e489	0.094185896
245	0xbd456fdf	-0.04820239
246	0xbda110ba	-0.078645185
247	0x3d6ffcb6	0.058590613
248	0xbd5d726b	-0.054064196
249	0xbbef0b1e	-0.0072950264
250	0xbc6c4180	-0.014419913
251	0x3e12051d	0.14259763
252	0x3dfe5b60	0.12419772
253	0x3daafa28	0.08348495
254	0x3d507c1f	0.05089962
255	0xbb0bf93a	-0.0021358267
