models/BTCUSDT_lstm_20250822_023650.pth (torch, 267815 bytes, 11 tensors)

lstm.weight_ih_l0 f4 [256, 53]
000000 b8 e2 c0 3d e8 4e ef 3c 1c 77 7d 3d ec 8e af bd
       0.09418243 0.02921243 0.06188117 -0.08572182
000010 a4 55 0c bd 8a 11 9c bd da e5 e1 bd 74 9b 3b bd
       -0.03426136 -0.07620533 -0.11030169 -0.04580255
000020 1c 8f 9f 3d a0 24 24 bc 8c 62 fd 3d dc 6b 8a bd
       0.07790968 -0.010018498 0.12372312 -0.06758854
000030 60 9a 0b 3c be cb d7 3d 5a 85 b6 3d 04 d5 b4 bd
       0.008520693 0.105369076 0.089121535 -0.08829692
000040 ae 1a 8d bd d8 71 e0 bc ec 92 7d 3d 8c 25 0f 3d
       -0.06889854 -0.027398035 0.061907694 0.034947917
000050 64 42 98 3d 54 f1 d5 bd e0 b1 f4 bb 7c 5b fe 3d
       0.07434538 -0.1044642 -0.0074674934 0.12419793
000060 b0 58 af bc 10 c7 7b bc 38 18 89 bc a0 03 1b bc
       -0.021404594 -0.015367284 -0.016735181 -0.0094613135
000070 96 3c cc bd 2c b4 56 bd da 1d c4 3d f6 2b 83 bd
       -0.09972493 -0.05241792 0.09576006 -0.06404869
000080 42 18 ae 3d d0 b8 b5 bd 14 71 fa 3d de 3f c1 bd
       0.085007206 -0.08873141 0.12228599 -0.0943601
000090 c0 94 0d 3c 2c c0 88 bd 40 c3 b8 bd 9e 11 bb bd
       0.008641422 -0.06677279 -0.09021616 -0.091342196
0000a0 f8 6a e1 3d cc 62 6f bd ec 8a 17 bd fc 09 3f 3d
       0.11006731 -0.05844383 -0.03699772 0.04664038
0000b0 f0 55 c4 bd fc 71 b9 3d 86 1c f2 3d c0 89 eb bb
       -0.09586704 0.09054944 0.11821847 -0.007188052
0000c0 b4 de d6 bd 9a 3c c3 3d 36 e7 da 3d a6 5d c1 bd
       -0.10491696 0.09533043 0.10688631 -0.0944169
0000d0 c4 70 5b 3d 02 68 fe bd 1a de f7 3d c8 a9 ab bd
       0.05357434 -0.12422182 0.121029094 -0.083819926
0000e0 90 7d 36 3c 4c ca 48 bd 6e 4a e8 3d e0 0f 2a 3c
       0.011138335 -0.04902105 0.11342321 0.010379761
0000f0 76 7f ac 3d 5e a1 df bd 80 e6 76 bc 2c 03 46 3d
       0.08422749 -0.1091945 -0.015069604 0.04834287
000100 42 23 a4 bd 00 f1 79 3d 14 a2 09 bd 30 7e a0 bd
       -0.080145374 0.06102085 -0.033601835 -0.07836568
000110 80 ba 93 bd 50 1c a7 bc 36 7c d6 3d 58 96 aa bc
       -0.072133064 -0.020399243 0.1047291 -0.020823643
000120 12 52 c6 3d 88 4b 7d bd e2 5c 81 3d 70 f2 b9 3d
       0.096836224 -0.06183961 0.06316544 0.090794444
000130 e4 8f b7 3d 30 be 3d bc b4 76 78 bd 90 ed 26 bc
       0.08962992 -0.011580989 -0.06066008 -0.010188475
000140 a8 82 4a bd 8c a4 37 3d 04 af 03 bd b4 2e 05 3d
       -0.04944101 0.04483466 -0.03214933 0.032515243
000150 6c f3 43 3d 74 c8 50 bd 68 a7 c8 3c a0 53 61 3d
       0.047839567 -0.050972417 0.024493888 0.05501139
000160 8e 6e 85 bd 5a 40 d8 bd 98 7a f5 bc 94 8e 96 bd
       -0.06515227 -0.10559149 -0.029965684 -0.07351413
000170 d4 92 09 3d 14 14 01 bd 08 da f4 3d c0 35 c9 3d
       0.03358729 -0.03151329 0.11955649 0.09824705
000180 c0 87 1f 3b 20 d9 82 bc 28 3f e8 bc 18 72 a1 bc
       0.0024342388 -0.015972674 -0.028350428 -0.019707724
000190 60 0a 82 bd 6c 5e 06 3d 28 67 cb bd 4e f5 f7 bd
       -0.06349635 0.03280489 -0.09931785 -0.12107335
0001a0 8c da 42 3d 00 06 c4 ba bc a0 5f bd 40 d8 ee bb
       0.047571704 -0.0014955401 -0.054596648 -0.0072889626
0001b0 ae 16 c2 3d 60 8b 3b bd 50 a9 d3 bc 5e d6 e6 3d
       0.09476982 -0.045787215 -0.02583757 0.11271356
0001c0 b0 58 40 bd 7a 44 ad 3d 48 a4 a4 bd 5c 7c d0 bd
       -0.04695958 0.084603265 -0.08039147 -0.1017997
0001d0 00 e3 9c 3a a8 b6 f1 3d 88 3d 0b bd ac 1f 22 3d
       0.0011969507 0.11802417 -0.033994228 0.039580986
0001e0 30 ca ea bd 2c 08 12 bd 1c b5 a6 bd 18 4f 94 3c
       -0.114643455 -0.035652325 -0.081400126 0.018104121
0001f0 dc 45 4d bd 5a 8c af 3d 16 84 b0 bd 00 23 51 ba
       -0.05011545 0.08571692 -0.086189434 -0.00079779327
000200 c0 5a 2e bb 90 06 92 3d 4c ae 56 3d 8c b2 f1 bd
       -0.0026604384 0.07130158 0.052412316 -0.11801633
000210 58 38 63 3d cc c0 b3 3d 80 67 f5 3a 06 1b 8c 3d
       0.055473655 0.087770075 0.0018722862 0.06841092
000220 f0 1a 21 3d 30 d9 63 bc 00 b1 a8 3b 2e 6b 86 3d
       0.03933233 -0.013906762 0.005148053 0.06563412
000230 74 c7 cb 3d cc 44 65 bd ee 86 c8 bd e0 1a 91 3b
       0.09950152 -0.055973813 -0.09791361 0.0044282526
000240 5c 06 78 3d 50 c0 5d bd b2 79 fa 3d b8 78 8d bc
       0.06055294 -0.05413848 0.12230243 -0.017269477
000250 c8 7b fe bd d0 da 85 3c 04 33 55 bd c0 18 c8 3c
       -0.12425953 0.01633969 -0.052050605 0.024425864
000260 fe f8 82 bd 94 27 1f 3d 14 38 eb 3d e0 d6 4b 3d
       -0.06395148 0.038856104 0.114853054 0.049765468
000270 ce 67 9b 3d f4 83 03 bd e6 86 b6 3d 80 96 78 bc
       0.075881585 -0.032108262 0.089124486 -0.015172601
000280 00 ba 2d 3a 20 38 b6 3d c0 63 12 bc ba b7 91 3d
       0.00066271424 0.08897424 -0.008934915 0.07115121
000290 2e 3c db 3d f6 39 a2 3d 80 1a 8c 3d 00 dd f5 bb
       0.10704838 0.079212114 0.06840992 -0.007503152
0002a0 70 e2 61 3d bc 0f cc bd dc f7 48 bd 80 9d 78 bd
       0.05514759 -0.099639386 -0.049064502 -0.06069708
0002b0 40 af 95 bc fc 23 c3 bd a0 7c 1f bc bc 69 20 bd
       -0.018272042 -0.09528348 -0.009734303 -0.039163336
0002c0 84 52 5d bd 40 a6 5f 3d b0 47 eb 3d 66 d6 f3 bd
       -0.05403377 0.054601908 0.11488283 -0.11906128
0002d0 08 bd 22 3d c0 b7 38 3c 08 b3 da 3c e4 c8 9a 3d
       0.039731055 0.011274278 0.026696697 0.07557848
0002e0 28 13 2f 3d 5c 94 8d bd 5c 4d eb 3d 50 1b 9a bc
       0.04274288 -0.06913063 0.114893645 -0.018811852
0002f0 a0 81 da 3b da 82 c1 bd 40 9f 18 3d e0 81 94 bb
       0.0066682845 -0.09448786 0.037261248 -0.004532084
000300 60 cf bb bb 06 5e bd bd 40 3f f1 3b 3c ce 45 bd
       -0.005731508 -0.09246449 0.0073622763 -0.048292384
000310 3c 57 f1 bd d0 c4 26 bc be 42 f0 3d a6 36 de 3d
       -0.11784217 -0.01017876 0.1173148 0.10850267
000320 6c 84 92 bd 62 09 b0 bd 20 68 f5 3d 28 26 2f bd
       -0.07154164 -0.0859554 0.11982751 -0.042760998
000330 8a 32 bf bd 00 20 ed 39 2c 10 e9 bd 74 b3 46 bd
       -0.093358114 0.00045228004 -0.11380038 -0.048510984
000340 8a db dd bd c6 45 a7 3d 60 08 d2 3d 40 2c 6b bd
       -0.108328894 0.08167605 0.10255504 -0.057415247
000350 86 38 d2 3d e0 91 b9 3b 28 d9 37 3d 34 31 b8 bd
       0.10264687 0.0056631416 0.04488483 -0.0899376
000360 68 c7 d8 3d d8 b8 ac 3c 50 c8 f7 bc b0 a9 b9 bc
       0.10584909 0.021084234 -0.030246884 -0.022663921
000370 00 3e 17 bb ae 4b e6 3d 3c a4 07 bd 7c 98 05 3d
       -0.0023077726 0.112449035 -0.03311561 0.032616124
000380 ea 0c bb bd 52 13 8c 3d 6a 18 9e bd e0 34 74 3c
       -0.091333225 0.068396226 -0.077195 0.0149051845
000390 74 4b 8a 3d b8 e7 41 bd 28 4d 3d bd dc ed 4a 3d
       0.06752673 -0.047340125 -0.04621616 0.049543247
0003a0 02 93 ca 3d 44 72 e2 bd c0 62 9f 3b fa c7 94 bd
       0.09891321 -0.11056951 0.004864067 -0.07264705
0003b0 2e 02 bd 3d bc 48 71 bd 08 2f a7 bc 30 61 5a 3c
       0.09228931 -0.058907256 -0.020408168 0.013328835
0003c0 76 83 b2 3d c2 7d 8d 3d 98 75 aa 3c fc 6d ec 3d
       0.087164804 0.06908752 0.020808026 0.11544415
0003d0 78 96 cf bc 62 9e f1 bd 80 a4 06 3d 2c 73 5d 3d
       -0.025340304 -0.11797787 0.032871723 0.054064915
0003e0 fe db ef 3d 98 40 48 bd 74 8c 97 3d a8 29 90 3d
       0.11711882 -0.048889726 0.07399836 0.07039195
0003f0 68 48 71 bd 24 0c b4 3d 16 44 e5 bd 70 a0 6f 3d
       -0.058906943 0.08791378 -0.11194627 0.058502614

lstm.weight_hh_l0 f4 [256, 64]
000000 be 80 bd 3d 28 3f 1d 3d 44 18 a7 bd 2c 26 7f 3d
       0.09253071 0.03839031 -0.08158925 0.062292263
000010 70 df 10 3c 70 af d3 3c 28 14 95 3c 46 68 d4 3d
       0.008842334 0.025840491 0.018198088 0.10371451
000020 12 53 a6 bd 2a 6e 90 3d 40 51 7b 3d c6 b1 88 3d
       -0.08121313 0.07052262 0.061356783 0.066745326
000030 00 a8 bc bd 70 37 fb bd f0 30 af bd 4a 40 ef bd
       -0.09211731 -0.12266433 -0.08554256 -0.11682184
000040 e4 41 04 3d 74 ca e5 3d ac f2 6a 3d d0 a8 35 bc
       0.0322894 0.112202555 0.057360336 -0.011087611
000050 cc 2f 42 bd d4 5f 1c 3d 90 5d c5 bc 3c 98 11 3d
       -0.047408864 0.038177326 -0.024092466 0.035545573
000060 f8 df 6a 3d 48 eb 5e bd 56 f8 99 bd d4 d7 0f bd
       0.0573425 -0.0544236 -0.075180694 -0.03511794
000070 b8 c0 a7 3d 1c 57 e8 3d aa e2 cc bd 82 93 89 bd
       0.08191055 0.1134474 -0.1000417 -0.06717588
000080 bc 8c 98 3d 40 fc ee bd cc 5f a8 bd 50 3d e8 3d
       0.07448718 -0.116692066 -0.08221397 0.113398194
000090 da 88 c6 3d 6e 63 cc 3d 60 94 6b 3c 10 f3 9a 3d
       0.09694071 0.09979902 0.014378637 0.07565892
0000a0 a2 dc dd bd 3c ec 42 3d 54 08 29 bd 5a d3 9a bd
       -0.10833098 0.047588572 -0.041267708 -0.07559843
0000b0 50 ed 65 bc 76 24 8a bd 64 3d 6c bd cc 36 93 bd
       -0.0140336305 -0.067452356 -0.057675734 -0.07188186
0000c0 00 18 00 bb de f6 a4 bd 80 be 9b bc c8 34 0c 3d
       -0.0019545555 -0.08054899 -0.019011736 0.034230024
0000d0 d0 c8 c0 bd b2 0b 87 3d bc 62 f9 bd aa ee bf bd
       -0.09413302 0.065940276 -0.12177035 -0.093716934
0000e0 30 fa f5 3d ac ee 5d bd 5e 50 dc bd 36 8e c7 bd
       0.1201061 -0.054182693 -0.10757516 -0.097439215
0000f0 d4 04 f7 3d c8 b2 3a bd 44 e3 95 3d 16 d0 f6 bd
       0.12061468 -0.045580655 0.07318738 -0.12051408
000100 34 c0 cb bd de 85 84 3d c0 3c 9d 3d 00 bd 3c 3a
       -0.09948769 0.06470846 0.07677603 0.0007199794
000110 b8 b0 f7 3d 42 a6 c3 3d 5a c2 c8 3d 38 4f 56 bd
       0.12094253 0.095531955 0.098026946 -0.052321643
000120 ac 69 bd bd d4 63 49 bd 20 a9 fe 3b 70 23 8f bc
       -0.09248671 -0.04916747 0.007771626 -0.017472953
000130 0c 4d 68 bd c2 e6 dd 3d ac 37 41 3d c8 0e c7 bd
       -0.056714103 0.10835029 0.047172233 -0.09719616
000140 20 0b 72 bd 74 a2 84 bd 02 8e 89 bd 44 21 97 3d
       -0.05909264 -0.06476298 -0.06716539 0.07379392
000150 98 68 d1 bd dc 6f 33 bd 36 47 fa 3d 64 c9 44 3d
       -0.10225028 -0.04380785 0.12220614 0.048043624
000160 56 1e bc 3d 88 82 b2 3c b2 f8 b9 bd 20 2f fd bd
       0.091854736 0.021790758 -0.09080638 -0.12362504
000170 e0 20 fb bd 68 89 f4 3d 04 09 73 3d 38 6b 0d 3d
       -0.1226213 0.11940271 0.05933477 0.03452608
000180 58 fb a8 bc 44 e0 81 bd 68 6a 6d 3d 58 0d b2 bd
       -0.020627663 -0.063416034 0.057962805 -0.08693951
000190 d0 f0 58 bc b4 4f cb bd f4 63 15 3d c8 01 42 3d
       -0.013241008 -0.099273115 0.036472276 0.04736498
0001a0 e8 aa e4 3d b8 30 4d 3d a0 c6 7c 3d 54 39 a0 3d
       0.1116541 0.05009529 0.06171286 0.078234345
0001b0 70 d3 75 3d 60 9e a8 3c ea 09 b0 bd 68 17 a2 3d
       0.060016096 0.020583332 -0.08595641 0.07914621
0001c0 a8 ea de bd 84 e5 10 bd 50 d4 4b 3d 70 13 46 bd
       -0.10884601 -0.035375133 0.049763024 -0.04835838
0001d0 80 95 a7 bb 9e 1a af bd de cb c9 bd e8 ca 2c bd
       -0.0051142573 -0.08549999 -0.09853338 -0.042185694
0001e0 14 87 e5 bd 6e 0e bf 3d 90 ed 0e 3d 8c 9a 8a bd
       -0.11207405 0.09328924 0.034894526 -0.06767759
0001f0 90 c8 bd 3c 2a 8e ef bd d0 83 50 3c 48 aa 97 3c
       0.023166925 -0.116970375 0.012726739 0.018513814
000200 e0 a8 df 3d d0 3e a7 bc c6 60 ed 3d 7c c1 db bd
       0.10920882 -0.020415694 0.11590724 -0.107302636
000210 24 30 41 3d 70 56 a4 bc 88 09 7b bd 02 1f d7 3d
       0.04716505 -0.020060748 -0.061288387 0.10503961
000220 d0 6a c0 3c c0 aa 22 bd c6 52 b2 3d c2 f5 a5 3d
       0.023488432 -0.03971362 0.08707194 0.08103515
000230 be 55 a2 bd 98 c5 80 3d 14 b6 d5 3d 60 cd e7 bd
       -0.0792651 0.06287688 0.10435119 -0.11318469
000240 7c 6c 76 bd 18 b4 96 bd 5c 36 64 3d f0 f9 a4 3c
       -0.060162053 -0.07358569 0.055715904 0.02013871
000250 30 bf 74 bc 66 23 89 3d 16 fa dd bd 14 ab e3 bd
       -0.014938161 0.06696205 -0.10838716 -0.11116615
000260 72 a7 83 bd 04 3b 06 3d 00 08 76 39 58 c4 22 3d
       -0.06428422 0.032771125 0.00023463368 0.03973803
000270 c2 c6 a1 3d 38 4f 6b bd 5c 50 a9 3d 2a a3 97 3d
       0.07899238 -0.057448596 0.082672805 0.07404168
000280 78 35 2e bd e0 4c 12 3c 28 7f 87 3c d2 81 85 bd
       -0.04253146 0.008929461 0.016540125 -0.06518902
000290 46 b8 f0 bd b0 00 a3 bc e0 3e 9e bb 80 67 bd bc
       -0.11753897 -0.019897789 -0.0048292726 -0.023120642
0002a0 50 ea 31 bc 2c ab 30 bd 68 33 b4 bc 70 9d 48 3d
       -0.010859087 -0.043131992 -0.021997169 0.04897827
0002b0 78 31 06 3d d2 b3 d1 3d 96 16 c5 3d 7c 89 4e 3d
       0.03276202 0.10239376 0.096234486 0.050424084
0002c0 00 24 7e bd 60 b3 31 bd 3c cd 91 3d 80 4a 89 bb
       -0.06204605 -0.043383956 0.071192235 -0.0041897893
0002d0 78 4e 2f bd a8 56 44 3d 54 6f 53 bd f0 44 b8 3c
       -0.042799443 0.047934204 -0.051619843 0.02249381
0002e0 00 21 0d 3c 28 02 43 bd 60 dc bd bb b4 83 06 bd
       0.008613825 -0.04760948 -0.005794093 -0.032840446
0002f0 fe ea 9a bd f4 56 4b bd 7c 72 1a 3d ac fb 19 bd
       -0.075643525 -0.04964347 0.037706837 -0.03759353
000300 08 eb 91 bd 4c 07 a3 3d 98 c1 4e bd a6 ea ed bd
       -0.07124907 0.07960376 -0.050477594 -0.11617021
000310 f8 38 f6 bd 34 4e 45 bd da 25 88 3d 3c 6d 5a 3d
       -0.12022585 -0.048170283 0.066478446 0.05332683
000320 80 16 6b 3b 64 f9 44 3d f8 24 f5 bc 4c 41 f9 bd
       0.0035871565 0.0480894 -0.029924855 -0.121706575
000330 30 8e 45 bc c0 39 42 bb 3c f7 24 bd a0 c5 b2 bc
       -0.012057826 -0.0029636472 -0.040274844 -0.02182275
000340 fa 98 8d 3d e4 3e 9d bd 80 f0 48 3c 14 64 d2 3d
       0.069139436 -0.07678011 0.012264371 0.10272995
000350 30 ba 50 3c 6a 8c 87 3d b0 df cf bd 50 df e7 3d
       0.012739703 0.06618579 -0.10150087 0.1132189
000360 f0 91 8d 3d b0 77 db bc 00 1f fd bc e0 ca b5 bb
       0.06912601 -0.02679047 -0.030898571 -0.005547866
000370 da c7 88 3d d8 6b 3b bd 94 2b 3d 3d 5c 14 de 3d
       0.06678744 -0.045757145 0.046184137 0.10843727
000380 6c e3 76 bd f0 8c 89 bc a4 5e 13 bd 9a 06 b5 3d
       -0.06027548 -0.016790837 -0.03597893 0.0883915
000390 6c 36 88 3d a0 3b 11 bc b4 9a d3 bd 84 cd 75 bd
       0.06651005 -0.008864313 -0.10332242 -0.060010448
0003a0 18 5c f1 bc fc 11 a1 3d d8 20 52 3d 14 95 c7 bd
       -0.029462859 0.07864758 0.051300853 -0.09745231
0003b0 b0 4c a1 bc 0a b6 a4 bd 70 28 30 3c b0 39 a9 3c
       -0.019689888 -0.08042534 0.010751829 0.02065739
0003c0 f8 07 9d bd aa 31 f0 bd a8 26 5d 3d c8 83 ea 3d
       -0.076675355 -0.11728223 0.053991944 0.114509165
0003d0 b0 1b 91 bc 94 d2 d2 3d 30 b6 ef bd 60 cc 0a bd
       -0.017713398 0.10294071 -0.117046714 -0.033886313
0003e0 1a bc ae bd 80 03 bd 3b 1c 61 88 3d fa 2a ef bd
       -0.08531971 0.0057682395 0.06659147 -0.11678119
0003f0 2c 24 df bd bc 5e 46 bd e0 a9 48 3c 40 9c f1 3d
       -0.10895571 -0.04843019 0.012247533 0.117973804

lstm.bias_ih_l0 f4 [256]
000000 36 d8 f5 bd 78 35 52 3d 38 f2 2c 3d d4 85 83 bd
       -0.120041296 0.051320523 0.042223185 -0.0642201
000010 f8 15 f0 3c 5c 32 c2 3d d2 92 f9 bd 70 0f c6 bd
       0.02930735 0.094822615 -0.12186207 -0.09670913
000020 fc 5b 26 bd 30 a6 2f bc d4 0a 3c bd ec c3 8a 3d
       -0.040615067 -0.0107207745 -0.045908764 0.067756504
000030 bc b5 db 3d 80 82 cb 3b b0 ad 3e bc ae ff c4 bd
       0.107280225 0.006210625 -0.01163809 -0.096190795
000040 62 78 b0 bd 00 24 43 3a 6e 7b ed bd 30 b2 0a bc
       -0.08616711 0.0007444024 -0.11595808 -0.008465335
000050 dc 60 c2 3d 42 ae f3 bd 14 72 ed bd 98 a8 76 3d
       0.09491131 -0.118984714 -0.11594024 0.060219377
000060 80 44 70 bb 60 27 bc 3d aa a8 9d bd 20 aa 36 bd
       -0.0036661923 0.09187198 -0.07698186 -0.044595838
000070 04 71 5c bd f8 2b e7 bc 1e 0d bf bd da f9 92 bd
       -0.053818718 -0.028219208 -0.09328674 -0.07176562
000080 36 1b ad bd d4 16 e2 bd c0 5f 17 3d 1c 3d 26 bd
       -0.08452456 -0.1103951 0.03695655 -0.040585622
000090 34 ee e3 bd 24 43 cf bd 50 b9 fa 3d d0 43 d3 3c
       -0.11129418 -0.10120228 0.12242377 0.025789171
0000a0 f4 9b 57 3d b8 32 19 bd 44 39 54 3d 40 f6 a5 bc
       0.052638963 -0.037401885 0.051812425 -0.020259023
0000b0 14 23 38 bd 40 4e 79 bd 68 29 b1 3d b2 12 f0 bd
       -0.044955328 -0.06086564 0.08650476 -0.11722316
0000c0 1c 18 48 3d 8c d9 d2 3d 00 22 dd ba dc 0e f0 bd
       0.048851117 0.102954 -0.0016871095 -0.11721584
0000d0 c0 ff 0e 3c 00 b5 42 3c fe 99 c6 bd e4 1e b7 bd
       0.008727968 0.011883974 -0.096973404 -0.08941439
0000e0 ac 71 6c 3d ea fb af bd b4 9f d0 3d 96 63 b8 bd
       0.057725593 -0.08592971 0.10186711 -0.090033695
0000f0 ee 75 a9 3d 9c 29 e4 3d dc 02 d5 3d 04 fc 8b 3d
       0.082744464 0.11140749 0.10400936 0.068351775
000100 fc f1 83 3d a6 6d d7 bd 08 6a f3 3d 56 33 b6 bd
       0.06442639 -0.10518961 0.11885458 -0.0889651
000110 c0 48 e8 bc 90 90 c8 bd 04 03 c8 3d 8c f0 04 3d
       -0.028355002 -0.09793198 0.097662 0.032455966
000120 70 cc 5d 3c 8c 8c 23 3d 98 61 de bd 14 7e 68 bd
       0.013537511 0.039928958 -0.10858458 -0.056760862
000130 b8 e5 0b bd 80 e1 7f 3d b0 ca 1b bc c2 ea cc bd
       -0.034154624 0.062470913 -0.009508774 -0.10005714
000140 d4 69 6d bd dc 4e df bd 98 9a 77 3d 78 ca 90 3d
       -0.057962254 -0.10903713 0.060450166 0.07069868
000150 6e 47 ed bd bc ce 31 bd 90 f2 09 3d ca fe c9 3d
       -0.1158589 -0.043410048 0.03367859 0.0986305
000160 90 9f d8 bd e8 90 21 bd 70 8c 99 bd 40 c4 7c 3b
       -0.10577309 -0.039444834 -0.074974895 0.0038569123
000170 56 8c a6 3d a8 77 8e 3c e2 14 f2 bd 38 df 5c 3d
       0.08132236 0.01739104 -0.11820389 0.053923815
000180 6c c4 b4 3d 04 b1 93 3d d8 05 c8 bd d4 3d d1 bd
       0.08826527 0.072114974 -0.097667396 -0.10216871
000190 8a 25 ad bd 4c a3 08 3d 18 2c 3f 3d b8 1c 37 3d
       -0.08454426 0.033358857 0.04667291 0.044705123
0001a0 bc 69 30 bd 88 70 21 bd 70 9d 4d bc 88 a3 8f 3c
       -0.043069586 -0.03941396 -0.012549743 0.017534032
0001b0 d6 76 c5 3d 80 fe f4 bd 08 14 f5 bd 94 3e 85 bd
       0.09641807 -0.119626045 -0.11966711 -0.065060765
0001c0 98 81 57 bd 58 cd 92 bd a4 89 55 bd 48 ff 18 3d
       -0.052613825 -0.071680725 -0.052133217 0.03735283
0001d0 90 81 38 bc 9c 04 d9 3d 50 3b 3b 3c e4 9e ec 3d
       -0.011261359 0.10596582 0.011427715 0.115537435
0001e0 68 b4 33 3d 60 df 6a bc 8e 4c f5 bd 36 1f a6 bd
       0.04387322 -0.014335483 -0.11977492 -0.08111422
0001f0 7a d5 f5 3d 38 f1 f8 bd d2 b1 92 3d a0 1e bd bc
       0.12003608 -0.12155384 0.07162823 -0.023085892
000200 e8 6f 99 bd c0 86 2b bd 60 e5 e4 3b b8 08 a9 bd
       -0.074920475 -0.041876554 0.0069853514 -0.08253616
000210 9c 0b 0a bd 30 59 97 3d 92 d6 f7 bd d8 29 58 bd
       -0.033702478 0.07390058 -0.12101473 -0.05277428
000220 20 0f 31 3c 80 81 18 3c ba 8a e4 bd 80 b0 72 3b
       0.010806829 0.009308219 -0.111592725 0.0037031472
000230 d8 b8 3a bd e0 bd a8 3d 6c 3f d2 3d 4a c8 c8 bd
       -0.045586437 0.08239341 0.10266003 -0.09803827
000240 ec 7f 12 3d d2 43 f6 3d de a4 97 3d 70 3c e4 bc
       0.035766527 0.120246544 0.07404493 -0.02786085
000250 60 07 b5 bd 78 75 cf bc ba a5 85 bd 60 c3 42 bc
       -0.08839297 -0.025324568 -0.065257505 -0.011887401
000260 38 50 e5 3c d0 b1 7e 3d 28 18 cc bc e0 5c fd bc
       0.027992353 0.062181294 -0.024913862 -0.030928075
000270 4c 27 ab 3d de 47 d8 3d 00 79 44 bb a8 ce b0 bc
       0.08357105 0.105605826 -0.0029979348 -0.021582916
000280 aa a0 97 bd 7c b4 3d bd 08 f6 16 bd fc db 4a bd
       -0.07403691 -0.0463147 -0.036855727 -0.0495262
000290 ea 7b d2 3d b4 d0 80 3d b2 3b bb 3d 8c 44 a0 3d
       0.10277541 0.06289807 0.09142245 0.07825574
0002a0 68 7b b5 3d b0 a6 f6 bd 02 62 e2 3d 3e af c5 bd
       0.088614285 -0.12043512 0.1105385 -0.096525654
0002b0 e8 37 d6 3d b0 d0 1c 3c e0 d9 58 3c 28 46 47 3d
       0.10459882 0.009571239 0.013235539 0.04865089
0002c0 18 35 d5 3d 34 6d 34 3d 80 49 2b 3b 80 d3 fd 3c
       0.104105175 0.044049457 0.0026136339 0.03098464
0002d0 72 36 d2 3d 00 47 6e ba dc 54 d9 bd 04 63 bc bd
       0.10264291 -0.00090895593 -0.10611889 -0.09198573
0002e0 f2 91 82 bd 24 da c1 3d 28 d6 f2 3d 12 e5 e5 bd
       -0.06375493 0.09465435 0.11857253 -0.11225332
0002f0 de f1 d1 3d 28 c3 45 bd d6 e2 e7 3d 00 76 02 bc
       0.10251211 -0.04828182 0.113225624 -0.007962704
000300 20 c7 77 3c 70 2f 43 bd 04 52 76 bd 50 f6 4f bd
       0.015123159 -0.04765266 -0.06013681 -0.05077201
000310 1c 15 32 3d f8 4b 26 3d d0 a2 11 bc fc dd 2f 3d
       0.043477163 0.040599793 -0.008888915 0.04293631
000320 74 82 08 3d 50 cf 92 bd 48 d9 15 3d 1a 92 f7 3d
       0.033327535 -0.07168448 0.03658417 0.120884135
000330 26 e1 e2 bd 98 4f 45 3d 30 70 e1 3c de 7a 8d 3d
       -0.110781 0.04817161 0.027519315 0.06908201
000340 e4 71 a1 bd 8c 6e b5 bd 20 0d d5 3d 00 8b 02 3d
       -0.07883051 -0.08858976 0.10402894 0.031870842
000350 f8 0e 87 3c 80 74 bf 3c fa 3c c0 3d b8 46 57 3d
       0.01648663 0.023370981 0.0938663 0.052557677
000360 4e ae ed 3d 64 6d db 3d 58 99 c5 3d 98 57 3e bd
       0.116055116 0.10714224 0.096483886 -0.046470255
000370 d0 e7 f7 3d 7c 13 c0 3d 18 63 bf 3d 38 ef 5b bd
       0.121047616 0.09378716 0.093450725 -0.053694934
000380 b8 50 b9 bd de c5 f5 3d 5c 98 43 bd 76 c7 f2 bd
       -0.09048599 0.12000631 -0.047752723 -0.118544504
000390 50 2b 3e bd f0 72 fc 3d 4c 7a a1 bd 14 00 fb 3d
       -0.046428025 0.1232661 -0.078846544 0.12255874
0003a0 f0 07 e7 bd f2 88 b3 3d d2 49 c1 bd c8 c9 ba 3d
       -0.11280811 0.087663546 -0.09437908 0.09120518
0003b0 92 aa cf bd 8c c0 d7 3d 28 93 dc bd 1c a0 8a 3d
       -0.101399556 0.10534772 -0.10770255 0.0676882
0003c0 00 14 25 bb 20 4e 71 bc d4 96 b7 3d de 18 ff 3d
       -0.0025188923 -0.014728099 0.08964315 0.12455915
0003d0 d2 10 a4 3d 4e 67 be 3d 52 64 ac bd 8c fe b2 bd
       0.08011021 0.092970476 -0.08417572 -0.08739957
0003e0 4a 0e e5 3d 64 92 79 3d 30 a4 ce bd de 7e ff 3d
       0.11184366 0.060930625 -0.1008991 0.1247537
0003f0 f0 35 a0 bc 98 ed 3a bd e8 b9 2b 3d 9a 49 db 3d
       -0.01955697 -0.045636743 0.04192534 0.10707398

lstm.bias_hh_l0 f4 [256]
000000 a0 cf 8a bc 48 9f 45 3d 9c ae 2a bd 00 a4 45 3b
       -0.016944706 0.048247606 -0.041670427 0.0030157566
000010 ac a1 66 3d 0c 82 75 bd 70 e8 b0 bc b0 e0 75 bd
       0.056306526 -0.059938475 -0.02159521 -0.06002873
000020 e0 e1 83 bc e0 95 e5 bb 50 29 97 3c 5a 34 95 bd
       -0.016098917 -0.007006392 0.018452317 -0.07285376
000030 c0 93 d5 3d 26 1f bb 3d f0 18 f3 bc c8 43 b7 3c
       0.10428572 0.091368005 -0.029674977 0.022371188
000040 cc fd 1f 3d 60 16 e7 3d d0 7a f5 bc 00 92 86 b9
       0.0390604 0.112835646 -0.029965788 -0.0002566725
000050 86 f5 98 3d 70 ce 31 bd 40 dd 28 bc f2 0c 82 3d
       0.07468705 -0.043409765 -0.010306656 0.06350125
000060 80 dc c1 ba 40 4b ee 3c b0 a7 cd 3d 22 48 a0 bd
       -0.0014790446 0.029088616 0.100417495 -0.07826258
000070 22 a9 f7 bd 02 c1 b6 bd 90 0a 7a 3d 24 1a d8 3d
       -0.120928064 -0.08923532 0.06104523 0.10551861
000080 dc 1d 7d bd 94 52 52 bd a8 7b 83 bc 60 39 8b bd
       -0.061796054 -0.051348284 -0.016050175 -0.06798053
000090 ec d6 fa 3d ac 47 3b bd 70 cc 58 bd 44 4c 23 bd
       0.12248024 -0.04572265 -0.05292934 -0.039867654
0000a0 c8 ec ce bd b0 f4 2d bc 98 b1 74 3d a8 bc c8 3d
       -0.10103756 -0.01061742 0.05973968 0.09801608
0000b0 42 0d fb bd d0 71 d3 bc a4 f5 e2 bd 78 3c a2 bc
       -0.12258388 -0.025811106 -0.110820085 -0.019804224
0000c0 c0 a4 de 3c 10 a9 48 3d 22 22 d8 bd 5c 9e 18 3d
       0.027178168 0.048989356 -0.10553385 0.0372604
0000d0 34 fb 51 bd a4 58 c0 3d 0c c3 03 bd 0a 5e a8 3d
       -0.051264957 0.09391907 -0.032168433 0.082210615
0000e0 88 3e 81 bd c0 70 40 bd be 6b bc bd 28 2c af bc
       -0.06310755 -0.046982527 -0.09200238 -0.02138336
0000f0 a0 9e 5a bc d4 aa 6c bd 4e 65 8c 3d b4 a4 6a 3d
       -0.013343483 -0.057780102 0.0685526 0.05728598
000100 96 b2 ff bd a4 1c e5 bd 06 c3 81 3d a6 47 ba 3d
       -0.124852344 -0.111871034 0.06336026 0.09095697
000110 c0 b3 c6 3c a6 f1 a1 3d 50 d0 bb 3d b8 ce d5 3d
       0.024255633 0.07907419 0.09170592 0.10439819
000120 58 68 c1 3c d0 be 27 3c 94 85 46 bd 14 bf 2a 3d
       0.023609325 0.010238364 -0.048467234 0.041686133
000130 54 2a 40 bd a2 47 f8 bd 5c 49 29 bd c8 c8 cc 3c
       -0.046915367 -0.12123038 -0.041329727 0.024998084
000140 e0 8b b5 3d bc fc 97 bd 1a 88 e8 3d e8 70 80 bd
       0.0886457 -0.07421252 0.11354084 -0.06271535
000150 24 46 18 3d 8c e6 0c bd 00 1b 20 3a 60 e9 c9 3b
       0.037176266 -0.034399554 0.0006107539 0.0061618537
000160 60 20 de 3b 6c fe cb 3d 64 6d 3e 3d 28 17 35 bd
       0.0067787617 0.099606365 0.04649104 -0.044211537
000170 48 26 f3 3d 58 1c b6 3c 3a 80 d2 3d 3e 64 be bd
       0.11872536 0.022230312 0.102783635 -0.092964634
000180 d4 f7 5f 3d 2c a6 78 3d 06 a2 ff bd a4 5f 36 3d
       0.054679707 0.06070535 -0.124820754 0.044524804
000190 0c a7 0a 3d 9a db 86 3d 24 cc fc 3d 72 d5 85 bd
       0.033850715 0.065848544 0.12343624 -0.06534852
0001a0 76 db cf bd c4 fd e1 bd 60 0b 96 3d c0 ee 11 3d
       -0.10149281 -0.1103473 0.07326388 0.03562808
0001b0 62 a9 b5 bd 3c 02 40 bd fc 67 ce 3d 90 ad ca bd
       -0.08870198 -0.04687713 0.10078427 -0.09896386
0001c0 e8 f8 81 bd 44 92 f1 bd 9c 01 8a bd 60 c3 95 bb
       -0.06346303 -0.11795476 -0.06738588 -0.0045704097
0001d0 80 d1 0e bc 8c 6f 05 bd a0 37 a7 3c 9c 99 94 bd
       -0.008716941 -0.032577083 0.020412266 -0.07255861
0001e0 f0 ba 46 3d a0 70 70 3c a4 39 38 bd 86 8e 82 bd
       0.04851812 0.014675289 -0.044976845 -0.063748404
0001f0 92 c2 ae bd 2a 4d da 3d d0 a9 8e bc 14 84 b9 bd
       -0.08533205 0.10659249 -0.017414957 -0.09058395
000200 6c ef 82 bd e0 e3 7d 3c a4 7b 06 3d b0 4e 7a bd
       -0.06393322 0.015496224 0.032832757 -0.0611102
000210 9c a6 08 bd 44 23 61 bd 7c 3d 9f 3d e0 7d 48 3d
       -0.033362016 -0.054965273 0.07775399 0.04894817
000220 02 9e cc bd d8 6a 7e bd 00 f7 8d bc ea 5e e6 bd
       -0.09991075 -0.062113613 -0.017329693 -0.11248572
000230 92 94 eb bd f0 2a 9b 3c 00 e5 ad bb 10 05 28 bd
       -0.11502947 0.018941373 -0.00530684 -0.041020453
000240 60 66 eb 3d 74 37 87 3d 20 f2 91 3c 58 41 22 3d
       0.11494136 0.06602374 0.01781565 0.039613098
000250 80 4d 67 3d ea e1 b3 bd c2 92 ae bd 5c e0 27 3d
       0.056470394 -0.08783324 -0.085240856 0.04098545
000260 98 c2 e7 3d 08 35 b4 bd 80 38 f2 3a 88 70 c8 bc
       0.11316413 -0.087991774 0.0018479973 -0.024467722
000270 54 0d d9 3d a6 d8 e8 bd 40 cd 72 bb 3a 3f bf bd
       0.10598245 -0.113694474 -0.0037048608 -0.093382314
000280 3e 01 f7 bd e8 f0 c2 bc 54 7b 9f bd 82 3e a8 bd
       -0.12060784 -0.023796514 -0.07787195 -0.082150474
000290 38 d7 54 3d 10 e3 42 bc e0 fc ce 3c c0 c3 29 3c
       0.05196306 -0.011894956 0.025267065 0.010361612
0002a0 70 1a 7b 3c 00 56 63 3a c0 be 28 3b 5e 05 c2 3d
       0.015326127 0.0008672178 0.0025748461 0.0947368
0002b0 f4 c6 71 bd 90 fb db bc ec 61 a4 bd 78 14 ca 3c
       -0.059027627 -0.026853353 -0.080264896 0.024667963
0002c0 3a 33 a7 bd e0 d3 a8 bc 20 e0 45 bc e8 bc af bd
       -0.081640676 -0.020608842 -0.012077361 -0.08580953
0002d0 50 77 1e 3c c0 2e 8a 3b a8 96 b9 bd 44 70 7c bd
       0.009672001 0.004216999 -0.090619385 -0.061630502
0002e0 e0 70 65 bd da cb 81 bd 00 c1 1a ba 00 9e ac bb
       -0.05601585 -0.0633771 -0.0005903393 -0.0052678585
0002f0 88 cf f9 bd c2 28 c1 bd c0 3b 37 3d 60 cf 27 bc
       -0.121977866 -0.09431602 0.044734716 -0.010242313
000300 7c f3 cd bd 40 db e4 bc 74 92 ef 3d d4 1e 6e bd
       -0.100562066 -0.027936578 0.116978556 -0.05813487
000310 3c 3b da bd 1e c4 ae bd 80 53 43 3c e0 1b 44 bd
       -0.10655829 -0.085335 0.011921763 -0.047878146
000320 de ea bc 3d f4 b4 df 3d 12 58 ef bd 80 0a 45 3c
       0.09224485 0.10923186 -0.1168672 0.012026429
000330 04 32 13 bd 8e c5 c2 3d b8 25 d8 3d 1a f1 be 3d
       -0.03593637 0.09510337 0.10554069 0.0932333
000340 c0 64 9b bc 10 d7 5a 3c 9c f6 98 3d 5c 7e 27 3d
       -0.01896894 0.013356939 0.07468912 0.04089199
000350 da 23 8c bd d4 bd be bd 60 eb 43 bc 02 3a c4 bd
       -0.06842776 -0.093135506 -0.011957973 -0.095813766
000360 00 04 11 3b 60 e7 d0 bb 78 32 02 bd 66 9b f6 bd
       0.0022127628 -0.0063752383 -0.031786412 -0.12041359
000370 70 16 98 bd e4 c6 85 bd 80 f1 f3 bc ee 30 ef 3d
       -0.074261546 -0.06532076 -0.029778242 0.116792545
000380 3a 8e 93 bd 74 aa dc 3d f4 10 c4 bd d2 a6 a2 bd
       -0.07204862 0.10774699 -0.09573546 -0.07941975
000390 da a1 9d 3d 94 23 13 bd ac 3d ab 3d 84 ed ba 3d
       0.07696886 -0.0359226 0.08361372 0.09127334
0003a0 00 d3 3c 3b 60 62 7f bc b0 18 be 3c ec 5e ec 3d
       0.002881229 -0.015587419 0.023205131 0.115415424
0003b0 b2 15 f8 3d e8 8e 9d 3d 28 05 43 3d d4 a1 0b 3d
       0.12113513 0.07693273 0.04761234 0.03408988
0003c0 50 2c de 3d b0 c2 ab 3c 56 57 e6 bd 50 97 38 bc
       0.10848296 0.020966858 -0.11247127 -0.011266544
0003d0 04 10 84 3d 90 e7 d2 bc d8 a7 a7 3d 28 07 c4 bc
       0.06448367 -0.025745183 0.081863105 -0.023929194
0003e0 cc 8a 81 bd c4 5e 8e 3d 24 76 7c 3d 40 d8 39 bb
       -0.063253015 0.06951669 0.061636105 -0.0028357655
0003f0 7a eb dc bd 34 c9 bc bd d8 30 8f bc b0 b5 49 3c
       -0.10787101 -0.09218064 -0.017479345 0.012311384

lstm.weight_ih_l1 f4 [256, 64]
000000 bc 4f 31 3d 36 b3 c4 bd c0 d4 98 3b 9e df cc 3d
       0.04328893 -0.09604494 0.0046640337 0.10003589
000010 c8 ec ee 3c e0 ba 5a bc b6 72 e8 bd 4e f6 f6 bd
       0.02916564 -0.013350219 -0.113500044 -0.12058698
000020 9c 8f bd 3d e0 bc a7 3d 22 db b5 bd 28 1f e3 3d
       0.09255907 0.08190322 -0.08879687 0.11089927
000030 de e8 fd 3d 78 61 18 3d be 14 a9 3b 0c f8 7d 3d
       0.123979315 0.03720233 0.0051599434 0.062004134
000040 ec 36 2a 3d d4 d1 b3 3d ca 8f 26 3d 36 7c 89 bd
       0.041556284 0.08780256 0.04066447 -0.067131445
000050 c2 79 9e bd 48 7e 3e 3d 1b c0 a4 bd f4 91 ac 3d
       -0.07738067 0.04650715 -0.08044454 0.08426276
000060 40 e7 e2 bb 84 e6 25 3d dc f1 8c 3d 20 5f 76 bc
       -0.00692454 0.04050304 0.068820685 -0.015037328
000070 60 bd c2 bd fe 8b e7 3d a4 18 6c 3d de 52 cf bd
       -0.09508777 0.11305998 0.057640687 -0.101232275
000080 0c 7f 56 3d 96 3a 2a 3d 7c 12 91 3d ec ad 8f 3d
       0.052367255 0.04155978 0.07083604 0.07015595
000090 28 35 20 3d f6 61 cc 3d 80 ee f2 bb 72 d8 c8 bd
       0.039113194 0.09979622 -0.0074136853 -0.09806909
0000a0 78 86 d7 bc f0 30 a0 bd 20 2f cf bb 74 86 0b bd
       -0.026309237 -0.07821834 -0.0063227564 -0.03406377
0000b0 34 f3 c5 3d 76 33 84 bd 6c 8a 9e bd fc bd 93 bd
       0.09665528 -0.06455128 -0.077412456 -0.07213971
0000c0 38 fd aa 3d 2e 70 c2 bd 20 99 00 bc 60 d4 86 bb
       0.08349079 -0.09494053 -0.007849008 -0.0041146725
0000d0 70 0b e6 bc b0 ed 16 bc d8 30 f2 3c 10 04 89 3c
       -0.028081626 -0.009211943 0.029564306 0.01672557
0000e0 0e c1 f7 3d b2 92 80 bd 83 6a ee 3c e0 16 d5 bd
       0.12097369 -0.0627798 0.029103523 -0.10404754
0000f0 b8 58 e3 bd 18 ae 8d 3c bc 56 7d 3d 48 e1 df bc
       -0.11100906 0.017294928 0.061850294 -0.027329102
000100 02 1f af 3d d0 c5 ef 3d 60 e6 af 3b f0 80 65 3d
       0.08550836 0.117076516 0.005368039 0.056031168
000110 80 19 c5 3b 04 7b a4 3d b8 2a c5 bc 38 6f b6 3d
       0.0060150027 0.08031276 -0.024068221 0.08907932
000120 80 8c 67 3c 36 3b cf 3d f2 7a 28 bd dc 2e 7d 3d
       0.014132619 0.101187155 -0.041132875 0.061812267
000130 d8 b4 4b 3d 96 3b a3 bd 91 aa a6 bc 88 b4 ae bd
       0.049733013 -0.079703495 -0.020345004 -0.08530527
000140 22 d9 a8 3d 1c 41 04 3d f5 df b1 3c 28 3d e1 bd
       0.0824454 0.032288656 0.021713236 -0.10997993
000150 64 a7 d7 3d dc 52 4c bd f8 3c cf bd 00 50 dc b8
       0.10529974 -0.04988371 -0.10119051 -0.00010505319
000160 14 f8 86 3d a4 c9 93 bd e4 01 a4 bd 44 c9 15 3d
       0.06590286 -0.07216194 -0.08008173 0.036568895
000170 58 fe 25 bd 0a 71 85 3d 80 d2 52 3c d8 f7 4f bd
       -0.040525764 0.06515701 0.01286757 -0.05077347
000180 58 c7 a8 3d f5 d0 14 3e f4 15 72 3d f1 10 73 3d
       0.08241147 0.14532836 0.059102967 0.05934233
000190 2c dc 8f bd 14 50 02 3d 1c ac 26 3d 9c 23 5b bd
       -0.07024416 0.03181465 0.04069148 -0.053500757
0001a0 74 f5 62 3d b8 51 7a bd 22 d3 8b bd b4 49 e0 bd
       0.055409864 -0.06111309 -0.0682738 -0.10951558
0001b0 d0 64 4e bd 8c df 61 bd 8c 23 2d bd 6a f9 98 bd
       -0.05038911 -0.05514483 -0.04227023 -0.07469447
0001c0 00 b6 50 3c 88 43 a2 3c 10 0f 7b bd a8 2f dd bd
       0.012738705 0.019807592 -0.06129366 -0.10800105
0001d0 40 30 39 bc 30 dd e6 bc 48 2d ff 3d b2 16 ab bd
       -0.011303008 -0.028181642 0.124598086 -0.08353938
0001e0 38 56 b4 3c 82 07 94 3d 45 3e 0c be 90 8c 3d 3c
       0.022013769 0.072279945 -0.13695629 0.011569157
0001f0 72 e2 f8 3d e0 86 78 3c 68 8a a7 3c c6 1f c8 bd
       0.12152566 0.015168875 0.02045174 -0.09771685
000200 b4 f0 0a bd 82 99 8a bd 38 8c a1 3c a4 d2 39 3d
       -0.03392096 -0.067675605 0.019720182 0.0453669
000210 a0 cb c2 3b 20 b7 9c 3c 40 0e 8e 3d 44 95 9e bd
       0.005944684 0.01913029 0.06936312 -0.07743314
000220 86 92 d4 3d ba a3 a4 3d 9d fb 68 3c 84 91 9e bd
       0.1037951 0.08039041 0.0142201455 -0.07742599
000230 5a ba fa bd a4 d1 fd bd b8 71 ed bd 7a e6 88 bd
       -0.12242575 -0.123935014 -0.11593956 -0.06684585
000240 5c 62 99 3d 70 f6 17 bc 1a 45 7b 3d de 57 df bd
       0.07489464 -0.009275064 0.061345197 -0.10905431
000250 ea ea fd 3d 2e a1 bb 3d 08 e6 af 3d e0 89 85 bc
       0.12398322 0.09161602 0.08588797 -0.016301095
000260 16 39 b7 bd ce 74 a6 3d a4 cc 6a 3d e0 09 ea 3b
       -0.08946435 0.081277475 0.057324067 0.0071422905
000270 18 74 d1 3c 78 a7 da bc 98 f8 ef 3c 6a fe ef bd
       0.025568053 -0.026691183 0.029293343 -0.117184475
000280 6a ab 9d 3d 42 69 ca 3d 50 f9 80 bd 56 c7 93 bd
       0.0769871 0.098833576 -0.062975526 -0.07215755
000290 0e f4 b9 3d e0 9c 56 3c 40 6c 1c 3d 08 2a 8d bc
       0.09079753 0.013098925 0.038189173 -0.017231956
0002a0 c8 bf 1a 3d 10 6c 07 bc aa b8 cb 3d 1c 88 bc 3d
       0.037780553 -0.00826551 0.09947331 0.09205648
0002b0 48 7a 1d bd e4 dd 60 bd f0 80 b8 3c f8 62 de 3d
       -0.038446695 -0.05489911 0.02252242 0.108587205
0002c0 36 4d 82 3d 12 38 99 3d 54 51 f0 3d ba 7f fc 3d
       0.06362383 0.07481398 0.11734262 0.123290494
0002d0 a8 b6 ca 3d c0 60 05 bc c4 76 cd bd 00 44 71 bb
       0.0989812 -0.008140743 -0.10032418 -0.0036814213
0002e0 9e ea ad 3d 3c ce 17 bd c6 34 4c bd 60 f2 fa 3b
       0.08492015 -0.037061915 -0.049855016 0.007658288
0002f0 02 68 ef 3d 78 ee 4e bd 68 bd 8f 3c 30 00 8b 3d
       0.1168976 -0.05052039 0.01754637 0.06787145
000300 38 2b b4 3d 2e ce 9a bd 04 de 5d bd 9c ea 55 bd
       0.08797306 -0.07558857 -0.05416681 -0.052225694
000310 a4 0b c6 3d 88 43 7e bd b0 8c e3 bc 6c 4f ff 3d
       0.09670189 -0.06207612 -0.027777046 0.124663204
000320 9c 54 2c 3d 70 08 a9 bc 61 71 f6 bd 18 77 4e 3d
       0.042072877 -0.020633906 -0.12033344 0.050406545
000330 36 d8 a6 bd 88 c8 91 bc b0 ac cd 3d 40 ba 31 3c
       -0.08146708 -0.017795816 0.10042703 0.010847628
000340 d0 e3 a3 3c 04 e6 7a bd c7 de f5 bc 4c 0d 83 3d
       0.02000609 -0.061254516 -0.030013455 0.063990206
000350 70 ec cb bd 70 05 92 bc 22 42 04 be 80 b8 ca 3d
       -0.09957206 -0.017824858 -0.12915853 0.09898472
000360 9a 10 b8 bd bc ee 4b bd 34 fc 8a bd 90 d1 ed 3c
       -0.089875415 -0.04978822 -0.06786385 0.029030591
000370 00 68 93 b9 00 38 60 3a a0 e2 f4 bb 3c 06 f6 bd
       -0.0002811551 0.00085532665 -0.007473305 -0.12012908
000380 68 ca c9 3c 83 d4 0b 3e 32 56 a3 bd fb 00 14 3e
       0.024632648 0.13655286 -0.07975425 0.14453499
000390 cc e2 25 bd e6 52 f7 bd e8 11 0e bd 22 4a bf 3d
       -0.040499493 -0.120763585 -0.034685045 0.093403116
0003a0 38 bb 3f 3d f0 87 ab 3c 50 e2 18 bc 10 0e c8 3d
       0.046809405 0.020938843 -0.009331301 0.09768307
0003b0 70 35 5b bd f0 2e f0 3c 64 ac 22 3d f8 dc e9 bc
       -0.05351776 0.029319257 0.039715186 -0.028547749
0003c0 00 b8 d5 39 70 ca e7 bd 4e d8 e7 3d e0 2f e2 bb
       0.00040763617 -0.11317909 0.11320554 -0.00690268
0003d0 60 47 87 3d d0 fb 75 bc 90 53 0a bd 64 3f 25 bd
       0.066054106 -0.01501365 -0.033771098 -0.040343657
0003e0 72 36 e1 bd 38 6e 43 bd 79 7a 19 bd 94 80 f1 bd
       -0.10996713 -0.047712535 -0.037470315 -0.117921025
0003f0 20 dd f8 bb 64 2a 10 3d dc e9 db 3d 14 0a be bd
       -0.0075947195 0.035196677 0.107379645 -0.09279266

lstm.weight_hh_l1 f4 [256, 64]
000000 2e 92 c8 3c 2c f3 c9 3d 6c 6c 89 3d fc a7 07 3d
       0.024483766 0.098608345 0.06710133 0.033119187
000010 af 82 6a bd 2c 57 0d 3e 51 62 77 bd 98 5f 6a 3b
       -0.057253536 0.13802785 -0.060396496 0.0035762545
000020 fd d5 03 bd 6c ee b5 3c 34 d6 0c 3d 82 b8 bc 3d
       -0.032186497 0.022208415 0.034383968 0.092148796
000030 b7 4e 0c be 97 b7 0d bd 9e 82 c2 bd 01 bb a0 bd
       -0.13701902 -0.034598913 -0.094975695 -0.07848168
000040 0d 58 91 bd c3 d6 09 3e 39 cb 9a 3d 35 c9 08 3e
       -0.070968725 0.13460831 0.07558293 0.13358004
000050 6f 4a 38 3d 13 24 93 bd 5e ad dc bd 54 aa 80 bd
       0.04499286 -0.07184615 -0.10775255 -0.062824875
000060 5f ae c8 bc 29 05 0f 3d d4 32 fc bd ea 90 35 bd
       -0.02449721 0.03491703 -0.12314382 -0.044327654
000070 99 89 71 bd cc 9b 9f bc 67 45 4d bd 5e 7d 0b be
       -0.058969114 -0.01948347 -0.050115015 -0.13622043
000080 13 b3 7b bb 25 64 08 3d 6a 5d 0d 3d 8b ae 02 be
       -0.0038406297 0.03329863 0.034512915 -0.12761895
000090 2f 8c 08 bd 19 04 b2 bd 97 30 41 bd cf 42 fd bd
       -0.033336814 -0.08692188 -0.04716548 -0.12366258
0000a0 0a cd f1 3c 7d be 32 3c aa b2 fb 3d e2 92 94 bd
       0.029516716 0.010909674 0.12289937 -0.07254578
0000b0 0d dc 89 3d c5 f9 a6 bd f6 c9 6a bd 83 c7 d5 bd
       0.067314245 -0.081531085 -0.05732151 -0.104384445
0000c0 00 05 8f 3d 0a 7e d6 bd 46 52 18 3e f4 29 e8 bb
       0.069833755 -0.10473259 0.14875135 -0.0070850793
0000d0 85 1c 3e bc b8 65 28 bd 0e 0a 0f bc 0f b3 cb bb
       -0.011603479 -0.04111263 -0.008730425 -0.006216414
0000e0 22 1e 11 3e e5 6e 1b bd 83 19 ed bb 6f 8a 5c bd
       0.14171651 -0.037947554 -0.0072357072 -0.053842958
0000f0 16 a4 0f 3e 0f 5d 9c bd 89 1d d6 bd 9f b6 2f 3d
       0.14027438 -0.07634937 -0.10454852 0.04289877
000100 44 39 25 3d d6 cc f5 3b 67 94 03 bd fd e6 cd 3d
       0.040337816 0.007501225 -0.03212395 0.10053823
000110 96 38 7e 3d f3 30 ac 3d 9c 78 cb bd 05 d0 5a bd
       0.062065683 0.08407774 -0.09935114 -0.05342104
000120 26 ee 59 bd b0 11 0a 3d db 63 ed 3c fe 13 8e 3d
       -0.05320563 0.033708274 0.028978279 0.06937407
000130 aa 65 ba 3d be c7 ac 3d d2 be 18 bc 69 fc c4 3d
       0.09101422 0.08436535 -0.009322839 0.09618456
000140 29 4c c7 3c 58 70 c1 3d b5 22 17 be d6 98 83 3d
       0.024328308 0.09445256 -0.14759333 0.064256355
000150 8b ee 69 bd 44 9f ff 3d 6c 6d 51 bd 17 ca 0e 3e
       -0.057112258 0.124815494 -0.051129743 0.13944279
000160 1c 4b df 3d b6 c4 1a bc 32 d1 c4 3d 9f 23 fc bd
       0.10902998 -0.009446314 0.09610213 -0.12311482
000170 8f 8b 06 be ef f2 da bc ff b4 ff bb 14 8d 18 bd
       -0.13139175 -0.026727168 -0.007803559 -0.037243918
000180 11 cc 1a be 2a 82 b9 bd e6 1d 87 3d 98 f5 8d bd
       -0.15116908 -0.0905803 0.065974995 -0.06931609
000190 86 51 10 3d fa 17 b4 3d 74 73 11 be aa bb ed bd
       0.035233997 0.08793636 -0.14204198 -0.1160806
0001a0 c9 8e 04 3e 5c f2 d2 bd ef 5e c2 3d 90 b5 13 3c
       0.12945093 -0.10300133 0.094907634 0.009015456
0001b0 bc 4c 90 bd fc 60 81 3d 8c 3b 3f bd 99 a0 b3 3d
       -0.07045886 0.063173264 -0.046687648 0.08770866
0001c0 d9 dc 88 3d e3 80 83 bd c1 43 cd 3d 27 e9 09 3e
       0.06682748 -0.064210676 0.10022689 0.13467847
0001d0 be 43 4f 3d fe 5b ed bd d9 04 69 3c 6f ab 02 3c
       0.050601713 -0.11589812 0.014222347 0.007975443
0001e0 4c 9f b8 3d e2 25 20 bc f8 39 d9 bc 5f 8f 25 3d
       0.090147585 -0.009774657 -0.0265169 0.040419932
0001f0 1a 49 c3 3d 77 38 3c bc 38 4a ad 3d 8f a8 8b bc
       0.095354274 -0.011488072 0.08461422 -0.017048148
000200 9a 83 eb bd f6 29 c4 3d 86 42 89 bd a0 b6 9b bd
       -0.114997104 0.09578316 -0.067021415 -0.07603192
000210 94 75 fb bc d4 ce 73 3d 5d fd 75 bd b2 f0 9a bd
       -0.030695714 0.05952342 -0.06005608 -0.0756544
000220 0b 4d 58 bb de ad 1d 3b 42 2f 91 3d 7b 91 89 3d
       -0.0033004906 0.0024059932 0.07089092 0.06717201
000230 36 18 84 3d 3c 65 e6 3c 21 94 bb 3d ec 2e a1 bb
       0.0644993 0.028124444 0.09159113 -0.0049189236
000240 56 47 04 be 3a 22 94 bd 23 d5 35 bd 68 b0 97 3d
       -0.12917838 -0.07233091 -0.044392716 0.07406694
000250 81 67 73 bd e5 79 c0 3d cf e9 8a 3d b0 4f b9 3d
       -0.05942488 0.093982495 0.06782877 0.09048402
000260 df a9 a8 3d d3 02 c4 3d 0d ee 92 3d 62 b4 50 bd
       0.08235525 0.09570851 0.07174311 -0.050953276
000270 ee 97 1d 3c 93 ae f6 3c 19 a9 63 3c 55 cb b6 3d
       0.009618742 0.03011254 0.0138952965 0.08925501
000280 be e1 0e be 77 cd 97 3c 15 8f 53 bd fc e8 b6 bb
       -0.13953301 0.01853059 -0.051650126 -0.005581973
000290 a9 29 97 bd d1 77 b4 3d 79 a1 2e 3c ee 6d 60 3d
       -0.07380993 0.08811916 0.010658615 0.054792337
0002a0 b4 db ef 3c 44 61 71 bd 06 af 8e bd 45 2f c7 3d
       0.029279567 -0.05893065 -0.06966977 0.09725813
0002b0 95 27 43 3d f6 a0 97 bc fc c0 0e 3d fb 7c 0a bd
       0.04764517 -0.01850937 0.034852013 -0.033810597
0002c0 97 b6 c9 bd cd 13 d7 bd 9a 58 6e 3d 94 f2 9d bc
       -0.098492794 -0.105018236 0.058189966 -0.01928071
0002d0 64 0b 98 bc 51 1e f6 3c 9f 4b 1d 3d 67 27 25 bd
       -0.018560119 0.030043753 0.038402196 -0.04032078
0002e0 7f 96 0c 3e 91 eb b1 3b f7 7b 71 bd f6 be e3 bb
       0.13729285 0.005429693 -0.058956113 -0.0069502546
0002f0 86 b2 ae 3d 9d 6b 86 3d 9e 3a 4f 3d 99 53 f5 bd
       0.085301444 0.06563494 0.05059301 -0.119788356
000300 31 e8 04 bd c8 f1 1d 3d c3 20 e7 3b 17 32 97 3d
       -0.032447997 0.03856066 0.007053466 0.07382601
000310 61 b4 0c 3e 99 f0 15 3d 2c b3 9c 3d c6 f1 a6 bd
       0.13740684 0.036606405 0.07651362 -0.081515834
000320 c4 54 5f 3d 30 60 a9 bc 21 ca cf bb ee 25 21 bd
       0.0545242 -0.020675749 -0.0063412343 -0.039342813
000330 44 80 cb bd 54 f6 76 bd ad b4 83 bd 30 60 df bd
       -0.09936574 -0.06029351 -0.064309455 -0.10907018
000340 0f b9 58 3c 10 b4 d6 bd 7e 59 71 3d e0 2d 0d 3e
       0.013227715 -0.10483563 0.058923237 0.13787031
000350 25 aa 8c bd 45 5f ba bd 21 7f ce 3b 0f e3 cd 3d
       -0.0686839 -0.091002025 0.006301776 0.100530736
000360 62 50 85 3d b6 ab f2 3d ce 62 d9 bc 8d e3 83 3c
       0.065094724 0.118491575 -0.026536372 0.016099716
000370 a9 9e 40 3d 33 0f d3 3d 57 b2 a0 3c 5a 56 1f 3d
       0.04702631 0.103056334 0.019616289 0.03890071
000380 29 c5 0f be ba 05 0f 3d d2 70 c3 3c 96 81 fb bd
       -0.14040054 0.03491757 0.023857508 -0.12280576
000390 09 f8 d0 3b 2f 5f b6 3b 5a 20 b8 bd f3 d6 89 3d
       0.0063772243 0.005565546 -0.089905456 0.067304514
0003a0 c1 1e cf 3b 41 6e 62 bd 21 cd 29 bb 17 14 cc 3d
       0.006320805 -0.055280928 -0.002590962 0.09964769
0003b0 16 8f a7 3d 94 d1 7a 3d 83 b4 b5 3d bb 4d 54 3d
       0.08181588 0.061235026 0.088723205 0.051831942
0003c0 af c0 bb 3d 96 db cd bd c4 aa a1 3c 87 58 cc bc
       0.09167611 -0.10051648 0.019734748 -0.024944557
0003d0 be 9c 80 3d 68 70 19 bd ba a7 9c 3d 86 c8 25 bd
       0.06279896 -0.037460715 0.07649179 -0.040474437
0003e0 88 91 2f 3c 59 7c ea 3d fd 90 93 bd 5d a6 df bd
       0.01071585 0.11449499 -0.07205389 -0.10920403
0003f0 0c 3f 3d bd e5 9b 36 bd 02 4c c1 3c ee 36 bc 3d
       -0.046202704 -0.044582266 0.023595814 0.091901645

lstm.bias_ih_l1 f4 [256]
000000 36 96 dc bc 1a 9b ef 3d 6a ad 0f 3e 88 32 eb 3d
       -0.026927095 0.11699505 0.14030996 0.114842474
000010 a6 5d e1 bc 56 c6 2b bb 56 7d 0a bd d8 e1 f5 3d
       -0.027510475 -0.0026210747 -0.033810936 0.12005967
000020 ca 3b ae 3d 41 f4 aa 3d 0d 72 b8 3d d5 f6 a2 3d
       0.085074976 0.08347369 0.090061285 0.07957236
000030 4f 4c 21 3d 00 fc d5 3b 9d 5c 0b 3d c8 77 52 bd
       0.039379414 0.006530285 0.03402387 -0.051383764
000040 63 d0 a6 3d 01 3b 09 3e 03 16 8f 3d 9a c2 c7 bd
       0.08145215 0.13401414 0.0698662 -0.09753914
000050 2f f7 e0 3d 66 47 31 bd eb a8 82 3d d9 5c 78 bd
       0.109846465 -0.04328098 0.06379875 -0.06063542
000060 87 b1 f0 3d 27 d4 89 3b e8 ef c8 3d 9c 8c 59 3c
       0.11752611 0.0042061987 0.098113835 0.013278153
000070 39 a4 c7 bd 4f 2c fd 3d e2 20 90 3d 84 a2 90 3d
       -0.0974812 0.12361967 0.07037522 0.070622474
000080 07 4c ad 3a 99 52 52 bd 9b f9 d1 3d 7d 64 0a 3e
       0.001322151 -0.051348303 0.102526866 0.13514896
000090 ab 5c f7 3b 4d 4f 08 bd ef fa 7b 3d 4b bc 59 3d
       0.0075488887 -0.033278752 0.061518606 0.053158086
0000a0 30 5c 30 3d 57 96 4e 3d a3 51 10 3e 31 5a 6f bd
       0.043056667 0.050436344 0.14093642 -0.058435623
0000b0 9e 3f 5d 3c cf 06 10 bd 24 ee 96 3d 3a b3 60 bd
       0.013503937 -0.035162743 0.073696405 -0.054858424
0000c0 22 f5 7d 3d 21 5b 7b bd 70 fb 08 3e 17 47 e1 bd
       0.062001355 -0.061366204 0.13377166 -0.109998874
0000d0 c8 de a5 3c 56 e6 f7 bc 23 4a 7a bd 9c 93 41 3d
       0.020247832 -0.0302612 -0.06110586 0.047259912
0000e0 e8 30 ae 3b 3a 74 71 bd 99 45 a9 bd c6 36 b8 bd
       0.0053158887 -0.058948733 -0.08265228 -0.08994822
0000f0 76 2d af 3b 45 17 45 bd 9e 99 a7 3d 0b a9 a7 bd
       0.0053459955 -0.048117895 0.08183597 -0.08186539
000100 a5 96 b3 3d 01 51 fb 3c b2 64 a5 3c 4b aa 81 bd
       0.087689675 0.030678274 0.020189617 -0.06331309
000110 38 f2 ad 3b f5 6f a2 bd 6b f2 3a 3d 74 d0 16 3e
       0.0053084157 -0.0793151 0.045641344 0.14727956
000120 fe 4a 0c 3e 4d f7 71 3d 1c 96 15 bd ca 5d f1 3d
       0.13700482 0.059073735 -0.03652011 0.11785467
000130 c3 31 81 bd 33 9c e7 3d 8c bd b4 bd 1d b1 0c 3e
       -0.063083194 0.113090895 -0.08825216 0.13739438
000140 41 ee 74 3d cc 6d 4c 3c 19 40 b1 3d 59 31 ae 3d
       0.05979753 0.0124773495 0.08654804 0.08505506
000150 94 d5 c9 3d ac 08 80 bc cc cd 4c bd c7 5e a2 3d
       0.0985519 -0.015629135 -0.05000095 0.079282336
000160 a7 00 7b bd 56 6a 2c bb 31 3e 35 3d 5d cb 22 3c
       -0.06127992 -0.0026308498 0.044248763 0.009936181
000170 0c bd 9b 3d e8 2b 83 3d 13 9a 2a 3d 59 e5 fa 3d
       0.07604417 0.06404859 0.041650843 0.12250776
000180 ea d0 ec 3c fd f4 b4 bb f1 76 7b 3c 6f d7 d1 bc
       0.028908212 -0.005522369 0.015348182 -0.025615422
000190 60 a9 30 bd e1 93 fe 3c 68 99 6d 3d ba ca 92 bd
       -0.04313028 0.031076374 0.058007628 -0.07167573
0001a0 55 1b 0a 3e d8 43 c7 3d f4 3b 93 bd 8f cc a2 bd
       0.13486989 0.09729737 -0.071891695 -0.07949173
0001b0 a4 14 09 3e eb 74 b4 bd 88 df 4c 3c b6 31 e6 3d
       0.1338678 -0.08811363 0.012504466 0.1123995
0001c0 e6 c8 50 bd 8b 2a 8a bd 03 b9 b1 bd fd d9 b5 bd
       -0.05097284 -0.06746396 -0.08677866 -0.088794686
0001d0 7b 66 d4 3c 0e 6b a0 bd 57 0b 64 bc c5 7c 9a bd
       0.025927773 -0.07832919 -0.013918719 -0.07543329
0001e0 17 cf 52 bd 08 2c a3 3d 5a 14 29 bd 42 c4 a1 bd
       -0.051467028 0.07967383 -0.041279174 -0.07898761
0001f0 01 4c 8e 3d f6 9c 50 3d 6f b7 67 3b 8b 57 04 3e
       0.0694809 0.05093094 0.0035357138 0.1292402
000200 46 23 c3 3d d0 aa b1 3d 0f 3a 92 bc 8f aa ac 3d
       0.09528212 0.08675158 -0.01784995 0.08430969
000210 dd da b5 3c 73 52 1d 3d b6 e8 84 bb d7 b8 9a 3d
       0.022199089 0.038408708 -0.0040560616 0.07554787
000220 04 98 d6 bd 9c 75 96 3d ff d1 16 3d d8 3d a9 bd
       -0.104782134 0.07346651 0.03682136 -0.08263749
000230 88 eb 99 3d 80 36 0f be b4 1e 8a 3b e2 cf 1e 3d
       0.07515627 -0.13985634 0.004215086 0.03877247
000240 08 fb 18 3d bb f0 25 3b 95 40 08 be a7 e6 f3 3d
       0.037348777 0.0025320488 -0.13305886 0.11909228
000250 4f 71 bc bb 21 7e 38 3d f1 55 4c 3d 43 8e 76 bc
       -0.005750812 0.04504216 0.049886648 -0.015048566
000260 4a 84 95 bd c6 a8 c8 3d 9f 67 c3 3d 92 38 ad bd
       -0.07300623 0.09797816 0.095412485 -0.084580556
000270 f3 45 69 3b ee 2d 56 3d 05 d6 b7 3c bb 50 03 be
       0.0035594671 0.052289896 0.02244092 -0.12823765
000280 c9 a8 cc bd 25 a8 97 3d 34 0d d0 bd 86 91 9d 3d
       -0.09993131 0.07405118 -0.10158768 0.07693772
000290 02 76 fe bd 25 22 d7 3d 20 1c 15 bc 1c 7d 0d be
       -0.12424852 0.105045594 -0.009100944 -0.13817257
0002a0 ea 89 55 3c dd 92 04 be 82 9e fb 3c 21 6d be 3c
       0.01303337 -0.12946649 0.03071523 0.023245396
0002b0 ca 67 ec 3d d8 8f 07 be 84 37 9f bd 5f 9f d4 bd
       0.11543234 -0.13238466 -0.07774261 -0.1038196
0002c0 a0 c8 ef 3d ef 0a d2 3d 38 7f 72 bd 5c 72 ab 3d
       0.11708188 0.10255992 -0.059203357 0.08371422
0002d0 02 f9 90 bd 39 ad 69 bd 45 3f 44 bd 22 d5 4a 3d
       -0.070787445 -0.057049964 -0.0479119 0.049519666
0002e0 b0 7a 74 bc ad 50 76 bd a0 1f 19 bd 3a 5b 04 be
       -0.014921829 -0.060135532 -0.037383676 -0.12925425
0002f0 b4 e2 06 bd 96 ef ea bd 2d 58 42 3d d2 aa c3 bd
       -0.032931045 -0.11471479 0.047447372 -0.09554066
000300 c8 de 61 bd a6 e8 14 3d 56 1a fe 3d 2a f6 dc 3c
       -0.0551441 0.036354683 0.12407367 0.026972849
000310 2c 07 16 bd b0 99 9b bd f2 ff d4 3d 75 32 19 3e
       -0.036627933 -0.07597673 0.1040038 0.14960654
000320 23 d1 f6 3d 48 db ce 3c ba 46 c6 3d 5b 25 1e bc
       0.120516084 0.025251046 0.09681459 -0.009652461
000330 c5 a5 c3 3d 47 1d b2 bd 49 2e 21 3c a3 a2 ce 3d
       0.095531024 -0.086969905 0.009837695 0.10089614
000340 13 42 b4 bc 5e 85 84 3c 52 59 0a 3e a0 ab 99 3d
       -0.022004163 0.016176876 0.13510635 0.07503438
000350 50 6d ed 3d a0 f3 95 bd 93 9c 9a 3d 13 f2 45 3d
       0.11593115 -0.073218584 0.075493954 0.048326563
000360 14 0a 83 bd 8d c1 93 3d 57 14 5d 3d 2a 0c 09 3e
       -0.063984066 0.07214651 0.053974476 0.13383546
000370 7e 72 24 bb 37 e0 95 3b 47 71 ba bb 9b 00 da 3d
       -0.0025092657 0.0045738476 -0.0056897732 0.10644647
000380 fe 31 0a 3e a0 1f 0a 3e dc 40 a4 3d a2 d7 13 3e
       0.13495633 0.13488626 0.080201834 0.14437726
000390 7b 5b 69 3c 12 d4 c3 3c 8e 5d cd bc 78 8a 9a 3d
       0.014243002 0.023904834 -0.025069024 0.07545942
0003a0 f3 4e cd 3c d6 97 b8 bd af d6 07 3e 54 63 b9 bb
       0.02506206 -0.090133354 0.13265489 -0.005657593
0003b0 d7 9a b2 3c 12 eb 83 bd 0a 12 9f bd 87 76 9b bd
       0.021802349 -0.064413205 -0.077671126 -0.07590967
0003c0 47 37 cf bb 1b 5f 81 3b fa 56 81 3b 9e 61 b5 3b
       -0.0063237282 0.003948105 0.003947136 0.0055353185
0003d0 0c ac 18 bb 55 7f d6 3d f5 cd 26 3d ae 73 f8 3c
       -0.0023295907 0.104735054 0.04072376 0.030328598
0003e0 d7 47 bb 3d 2d 03 f0 3d f2 22 80 bb 73 fd b8 bd
       0.09144562 0.11719356 -0.003910416 -0.090327166
0003f0 15 6a b5 3d 9d d8 12 3d 17 79 05 bc 0c 29 04 3e
       0.08858124 0.03585111 -0.008146546 0.12906283
