models/DOGEUSDT_lstm_20250822_165219.pth (torch, 244277 bytes, 11 tensors)

lstm.weight_ih_l0 f4 [256, 30]
0.002398312 0.11173676 -0.094745144 -0.021710083 0.07954168 0.06781955 0.032706067 -0.079667374
0.04854718 0.032023683 0.057241216 -0.01370348 -0.0872425 0.121533796 -0.09886573 -0.11536275
0.038965285 0.030146047 0.001059249 -0.12121321 0.032244533 0.07667446 0.1165784 0.021405026
-0.08266123 0.11178988 -0.0041235387 0.08344993 -0.0295659 0.022830278 -0.11660299 -0.09930776
-0.106281966 0.02572073 -0.0050074756 0.10926969 0.034215465 -0.08555645 -0.06871839 -0.05109109
-0.01312764 0.070863664 0.041342363 0.07084288 0.12296389 -0.11148137 0.014570355 0.010632724
-0.04007694 0.069213584 0.04670556 -0.009697169 -0.11206946 -0.016141966 0.0056020766 0.027228296
-0.0224552 0.08915402 -0.11997323 0.093257576 -0.030032337 -0.02179867 -0.007671371 -0.011679426
0.012007579 -0.12330887 -0.07202083 -0.0012326986 0.010716572 0.0458384 0.03402877 0.10339135
-0.051734164 -0.06425455 0.11087759 -0.02560854 0.10264458 0.014615789 -0.03872396 -0.033456504
-0.00095905364 -0.109097674 -0.026725844 -0.014036432 0.122496575 0.0225088 -0.10181008 -0.0050321072
-0.057984933 -0.053114817 0.08065966 0.016278937 0.014378354 0.0217918 0.034252465 -0.0032662004
-0.021823943 0.038997784 0.015363991 -0.040364638 0.016570732 0.057768986 0.04372777 -0.085759416
-0.10415013 0.028109953 -0.077301875 0.10922298 0.055631727 -0.017858148 -0.064746186 -0.044938967
0.065791085 0.12434071 -0.064303234 -0.061706334 -0.032886416 -0.083888456 0.08765061 -0.039886415
0.01581496 -0.0994318 0.07078308 -0.00773409 0.11300814 0.033899114 -0.07882641 0.092424914
-0.07186204 -0.07152143 0.03825581 0.051669106 -0.013134688 0.07763448 -0.10965 -0.025027037
-0.03469412 -0.043310255 0.020953745 0.12241334 0.07639746 0.10543567 -0.11362225 0.11398406
-0.024221495 0.020597085 -0.027396008 -0.037581533 0.021566272 -0.037459552 0.078733176 0.075022504
-0.055824503 -0.023615986 0.08626109 -0.010303006 0.042136908 -0.11053845 -0.06455925 -0.06267056
0.11496572 -0.08687925 0.05483392 -0.027651891 0.04944007 0.0973573 -0.08438638 0.08274059
-0.09098272 -0.12289737 0.041824684 0.105418175 -0.050429493 0.03911832 -0.120543 -0.05889353
0.102879405 0.06343897 -0.009436458 -0.06818351 -0.093959644 -0.030759335 -0.011098713 0.11216672
0.018880978 -0.06671578 -0.08179511 -0.064482674 0.09731723 0.07902904 -0.009385332 0.12188178
-0.0063212216 -0.010131642 0.0857344 -0.020787627 -0.034039423 -0.09490624 -0.0022504926 0.0012704432
0.07836582 0.08398794 -0.107684225 0.10900207 -0.021027535 0.12410584 0.008082718 -0.011219919
-0.02415441 0.100504726 0.027595088 -0.11033659 0.064447284 -0.119910896 0.08176489 -0.07579802
-0.059683874 -0.061835647 0.00482063 0.1171889 0.010327384 0.0042180866 -0.023205534 -0.069706514
-0.04831837 -0.02638565 -0.041451395 -0.07494907 0.043823615 0.0011414587 -0.09065139 0.090384394
0.10661462 -0.0570426 -0.060835436 -0.032340556 -0.03790261 -0.039501563 0.031472087 -0.081643716
0.06441097 0.092761055 -0.09466532 0.09717886 0.058810443 -0.04774642 -0.104219526 0.119579405
0.04403533 0.046461955 -0.07038808 0.08442311 -0.10899247 0.044247195 -0.09516464 -0.10662253
00000000: 002d 1d3b 3ed6 e43d be09 c2bd 58d9 b1bc
00000010: c0e6 a23d fae4 8a3d ccf6 053d a628 a3bd
00000020: 68d9 463d 442b 033d c475 6a3d 9084 60bc
00000030: 32ac b2bd b6e6 f83d 1e7a cabd 4e43 ecbd
00000040: 109a 1f3d d8f4 f63c 80d6 8a3a a23e f8bd
00000050: d812 043d 8007 9d3d a8c0 ee3d 9859 af3c
00000060: 4a4a a9bd 18f2 e43d c01e 87bb cce7 aa3d
00000070: 3034 f2bc 9006 bb3c 8ccd eebd de61 cbbd
00000080: 5caa d9bd 48b4 d23c c015 a4bb cac8 df3d
00000090: 8425 0c3d 3838 afbd 3abc 8cbd e444 51bd
000000a0: 5015 57bc f820 913d 9c56 293d 1216 913d
000000b0: 7ed4 fb3d 5850 e4bd 80b8 6e3c e034 2e3c
000000c0: b827 24bd dabf 8d3d 544e 3f3d e0e0 1ebc
000000d0: ac84 e5bd 283c 84bc a091 b73b e00d df3c
000000e0: f8f3 b7bc 6296 b63d 86b4 f5bd d4fd be3d
000000f0: 6006 f6bc 2093 b2bc 2060 fbbb 105b 3fbc
00000100: 70bb 443c 5c89 fcbd a87f 93bd 8092 a1ba
00000110: 9094 2f3c 0cc1 3b3d c061 0b3d d8be d33d
00000120: 34e7 53bd e497 83bd ca13 e33d 00c9 d1bc
00000130: 5237 d23d 1077 6f3c 049d 1ebd b009 09bd
00000140: 0069 7bba 9a6e dfbd 28f0 dabc 10f9 65bc
00000150: 7cdf fa3d 6064 b83c ce81 d0bd 60e4 a4bb
00000160: 9c81 6dbd ec8e 59bd e430 a53d 685b 853c
00000170: 3093 6b3c b884 b23c 504c 0c3d c00d 56bb
00000180: 20c8 b2bc 24bc 1f3d 40b9 7b3c 6455 25bd
00000190: 58bf 873c 2c9f 6c3d e41b 333d a2a2 afbd
000001a0: aa4c d5bd d846 e63c 7250 9ebd 4cb0 df3d
000001b0: 18de 633d 404b 92bc a699 84bd ec11 38bd
000001c0: 7abd 863d 58a6 fe3d 6ab1 83bd c8bf 7cbd
000001d0: e8b3 06bd b6cd abbd 2a82 b33d f05f 23bd
000001e0: 608e 813c e6a2 cbbd b8f6 903d 406e fdbb
000001f0: d070 e73d ccd9 0a3d be6f a1bd 4649 bd3d
00000200: 682c 93bd d479 92bd 20b2 1c3d fca2 533d
00000210: e032 57bc d4fe 9e3d 2e90 e0bd 8005 cdbc
00000220: 6c1b 0ebd 1866 31bd 30a7 ab3c d8b3 fa3d
00000230: 4676 9c3d a8ee d73d c8b2 e8bd 7a70 e93d
00000240: 286c c6bc 38bb a83c 986d e0bc 18ef 19bd
00000250: c0ab b03c 306f 19bd dc3e a13d 66a5 993d
00000260: 3ca8 64bd 5076 c1bc a8a9 b03d f0cd 28bc
00000270: c097 2c3d fc61 e2bd a437 84bd 6c59 80bd
00000280: 2673 eb3d c0ed b1bd 8899 603d 3886 e2bc
00000290: ac81 4a3d 4463 c73d c4d2 acbd e673 a93d
000002a0: 2655 babd 9eb1 fbbd 5c50 2b3d 7ce5 d73d
000002b0: 288f 4ebd 883a 203d 40df f6bd 583a 71bd
000002c0: 70b2 d23d 4aec 813d 609b 1abc cca3 8bbd
000002d0: ea6d c0bd 00fb fbbc 60d7 35bc aab7 e53d
000002e0: 48ac 9a3c 48a2 88bd 3284 a7bd 7e0f 84bd
000002f0: 424e c73d fad9 a13d f0c4 19bc 289d f93d
00000300: 4022 cfbb 30ff 25bc 8495 af3d d04a aabc
00000310: ec6c 0bbd 345e c2bd 007d 13bb 0085 a63a
00000320: 427e a03d de01 ac3d 8c89 dcbd 7a3c df3d
00000330: f041 acbc 342b fe3d 606d 043c c0d3 37bc
00000340: 78df c5bc 6cd5 cd3d 180f e23c 26f8 e1bd
00000350: f0fc 833d d893 f5bd 5a74 a73d fe3b 9bbd
00000360: 1477 74bd 6047 7dbd 60f6 9d3b bc00 f03d
00000370: 3034 293c e037 8a3b 8819 bebc 4ac2 8ebd
00000380: 7ce9 45bd b826 d8bc f0c8 29bd e67e 99bd
00000390: 6480 333d 009d 953a 70a7 b9bd 741b b93d
000003a0: c458 da3d 80a5 69bd 942e 79bd 8877 04bd
000003b0: c43f 1bbd 64cc 21bd e0e8 003d d234 a7bd
000003c0: e6e9 833d 82f9 bd3d e4df c1bd b605 c73d
000003d0: 38e3 703d c091 43bd 0c71 d5bd 0ce6 f43d
000003e0: 645e 343d e44e 3e3d a027 90bd 06e6 ac3d
000003f0: 7237 dfbd 8c3c 353d aee5 c2bd ea5c dabd

lstm.weight_hh_l0 f4 [256, 64]
-0.12217891 0.03141816 -0.12061325 -0.05002868 -0.0015521646 0.048230633 0.05150795 -0.07523686
0.037637606 0.039393976 -0.07478054 0.011345908 0.03916438 0.02411203 -0.015721425 0.114820406
-0.0010195524 -0.117402166 -0.10740398 0.08261928 -0.08231893 0.06546518 -0.117739305 0.04416196
0.03185916 -0.10790275 0.04081966 -0.041914746 0.032324553 -0.018570647 0.11157428 -0.06509358
0.005971268 0.016720891 -0.041620106 -0.048760146 0.0908346 -0.08109182 -0.051197216 -0.058382317
0.08350927 -0.112018704 -0.100379094 -0.10862683 0.023104489 0.12070465 0.08924326 -0.03389862
0.0065841377 -0.03716603 -0.12034629 0.08368245 -0.04732153 -0.11272092 0.046219394 0.045123756
0.025654316 0.078717336 -0.03354676 0.060690045 0.052601248 0.04306093 0.10674386 -0.009385675
0.06590581 0.102422014 0.12347533 -0.056781054 -0.09522663 0.06333952 0.070149004 0.04127054
-0.100228146 -0.028778926 -0.00089377165 0.018753424 0.028914854 0.07426365 -0.122976825 -0.08358279
-0.052271202 -0.108941406 -0.026055291 0.008092418 -0.07769063 0.10568786 0.09054406 -0.09148145
-0.07476805 -0.11024374 0.11307205 0.06844193 -0.00221546 0.07779665 -0.08669034 0.10114868
-0.084153146 -0.040555596 0.065307274 -0.03153573 -0.10429314 0.07835044 -0.095945925 -0.059544817
0.103775755 0.05681698 -0.058297604 -0.010566592 -0.08174273 0.00010219216 0.02071628 -0.055522785
0.07225479 0.016254544 -0.10398583 0.06991631 0.1199002 0.08281714 -0.108376205 -0.11526388
-0.12241314 -0.085652664 0.0047494173 0.019241542 0.11436123 -0.0069987774 -0.09089111 0.08017771
-0.087931186 -0.039034724 -0.0027671903 -0.043547645 0.1195261 0.054807216 -0.012914076 -0.11193159
0.1246243 -0.041632578 -0.025988847 0.10637155 -0.050069407 0.11854997 0.12107685 0.107179925
0.012076169 -0.07296321 -0.00015445054 0.022650942 0.07107201 -0.11445631 -0.023312807 -0.015944347
-0.051481664 -0.016632423 -0.10396105 -0.10451481 -0.055342466 0.082033455 0.006502256 0.014486879
-0.07737014 0.04652229 -0.11739652 -0.0354134 0.0058347285 0.123887375 -0.10691646 -0.02215521
0.04968354 0.06316434 -0.030012935 -0.11694896 0.03429605 0.108529 0.04146859 -0.11294818
0.078249216 0.025572464 0.042492017 0.05859223 0.04004319 0.019361436 -0.0991326 0.00071823597
-0.12289584 0.014862493 0.04809837 -0.0650339 0.093408406 0.032262236 0.12297222 0.0073022544
0.0007560402 0.06689046 0.10831635 -0.04613787 0.07091501 -0.06865977 0.10808289 0.05870962
-0.015733153 -0.042901024 -0.06791566 -0.07580115 0.08558059 0.05498433 -0.11283024 -0.11280748
-0.025523677 -0.042476475 -0.028620511 0.01975502 -0.08607496 -0.05127789 0.031182572 0.099188566
0.09834297 0.038708106 0.10683133 -0.091523156 0.028631479 0.09073606 0.08532645 0.09861207
-0.02951464 -0.028068021 0.04203932 -0.112706274 -0.08528158 0.043537617 -0.0453711 0.10530916
0.006249115 0.05585994 -0.029574946 -0.006330535 -0.009403944 0.039514214 -0.021932244 0.0018062592
0.035591006 -0.038914204 0.046414524 0.058137015 0.11256762 -0.047308967 -0.05165945 0.11900018
0.06997208 0.08023973 0.10804187 -0.0018629432 -0.11638659 -0.10065168 -0.12453072 0.078823164
00000000: f038 fabd 54b0 003d 1404 f7bd e0ea 4cbd
00000010: 0072 cbba 7c8d 453d 00fa 523d c815 9abd
00000020: e429 1a3d 945b 213d 8a26 99bd 30e4 393c
00000030: d46a 203d 9886 c53c 38ca 80bc f626 eb3d
00000040: 80a2 85ba 8c70 f0bd 9ef6 dbbd 4c34 a93d
00000050: d496 a8bd 9c12 863d 4e21 f1bd 2ce3 343d
00000060: c07e 023d 1efc dcbd 8432 273d ccae 2bbd
00000070: c066 043d 7821 98bc 0e81 e43d c84f 85bd
00000080: a0aa c33b 40fa 883c d879 2abd b8b8 47bd
00000090: 7e07 ba3d 7813 a6bd 2cb4 51bd 4c22 6fbd
000000a0: e806 ab3d 106a e5bd 8e93 cdbd be77 debd
000000b0: a045 bd3c 0034 f73d 2cc5 b63d 48d9 0abd
000000c0: c0bf d73b 683b 18bd 1e78 f6bd b461 ab3d
000000d0: 38d4 41bd 3ada e6bd 8c50 3d3d b0d3 383d
000000e0: 0029 d23c 8e36 a13d 5468 09bd 2096 783d
000000f0: 6874 573d a860 303d 869c da3d 60c6 19bc
00000100: a0f9 863d a2c2 d13d a2e0 fc3d 4093 68bd
00000110: 2e06 c3bd 26b8 813d 48aa 8f3d 4c0b 293d
00000120: 6a44 cdbd c8c1 ebbc 004c 6aba c8a0 993c
00000130: d8de ec3c 8a17 983d 46db fbbd 742d abbd
00000140: 541a 56bd ac1c dfbd e871 d5bc 1096 043c
00000150: 441c 9fbd e072 d83d 2a6f b93d a05a bbbd
00000160: fe1f 99bd 78c7 e1bd 5292 e73d 482b 8c3d
00000170: 4031 11bb da53 9f3d b48a b1bd 0a27 cf3d
00000180: 7c58 acbd a01d 26bd d2bf 853d 9c2b 01bd
00000190: a497 d5bd 3276 a03d 4c7f c4bd 44e5 73bd
000001a0: 6288 d43d ecb8 683d 78c9 6ebd 801f 2dbc
000001b0: bc68 a7bd 0050 d638 30b5 a93c dc6b 63bd
000001c0: 52fa 933d 4028 853c 86f6 d4bd 4830 8f3d
000001d0: 3c8e f53d 089c a93d 58f4 ddbd 780f ecbd
000001e0: beb3 fabd aa6a afbd 00a1 9b3b 70a0 9d3c
000001f0: 3836 ea3d 0056 e5bb 1e25 babd 3634 a43d
00000200: 4415 b4bd e0e2 1fbd c059 35bb 045f 32bd
00000210: 1aca f43d 887d 603d 9095 53bc 643c e5bd
00000220: 063b ff3d ec86 2abd 90e6 d4bc 54d9 d93d
00000230: 9415 4dbd 54ca f23d 24f7 f73d 2681 db3d
00000240: 20db 453c bc6d 95bd 00f4 21b9 788e b93c
00000250: 348e 913d 1268 eabd 80fa bebc b89d 82bc
00000260: 70de 52bd b840 88bc 88e9 d4bd dc0b d6bd
00000270: c8ae 62bd 2801 a83d e010 d53b 605a 6d3c
00000280: 3c74 9ebd 288e 3e3d 966d f0bd a40d 11bd
00000290: 4031 bf3b aab8 fd3d 04f7 dabd d87e b5bc
000002a0: f880 4b3d 4e5c 813d b0dd f5bc f082 efbd
000002b0: 047a 0c3d 7444 de3d f8da 293d 6051 e7bd
000002c0: 2041 a03d 587d d13c 1c0c 2e3d 68fe 6f3d
000002d0: 5404 243d e09b 9e3c 0806 cbbd 0048 3c3a
000002e0: d0b0 fbbd d081 733c cc02 453d 7e30 85bd
000002f0: e84c bf3d 6825 043d dcd8 fb3d c047 ef3b
00000300: 0031 463a defd 883d f6d4 dd3d 10fb 3cbd
00000310: e43b 913d 7e9d 8cbd 905a dd3d 8079 703d
00000320: d0e2 80bc fcb8 2fbd 5e17 8bbd a23d 9bbd
00000330: e044 af3d 4037 613d 8a13 e7bd 9c07 e7bd
00000340: 0817 d1bc d0fb 2dbd 9075 eabc 48d5 a13c
00000350: 1248 b0bd c408 52bd 9872 ff3c 6023 cb3d
00000360: 0a68 c93d 648c 1e3d 62ca da3d 7e70 bbbd
00000370: 908c ea3c d4d3 b93d a2bf ae3d 20f5 c93d
00000380: b0c8 f1bc e8ee e5bc 6c31 2c3d 8cd2 e6bd
00000390: 1ca8 aebd 8054 323d 0cd7 39bd 54ac d73d
000003a0: 60c5 cc3b 64cd 643d 2847 f2bc 6070 cfbb
000003b0: 0013 1abc a8d9 213d 40ab b3bc 00c0 ec3a
000003c0: e0c7 113d 8064 1fbd 281d 3e3d 1421 6e3d
000003d0: da89 e63d 0cc7 41bd dc98 53bd 5eb6 f33d
000003e0: 864d 8f3d ba54 a43d 0e45 dd3d 002e f4ba
000003f0: 185c eebd 7822 cebd f609 ffbd 0a6e a13d

lstm.bias_ih_l0 f4 [256]
-0.0703734 0.1112154 0.073193565 0.0015550405 0.05951272 0.0008211732 -0.07545528 0.124134004
-0.060229406 -0.03445202 -0.069873884 0.10511945 0.1156113 0.05672227 0.120446235 0.07969731
0.116007134 -0.039017573 -0.071988 -0.10949157 0.06657922 -0.119391724 0.11753413 -0.11657116
-0.07483274 -0.11425793 -0.085967526 -0.10050431 -0.07892661 0.03507763 0.056785062 -0.019804597
-0.103246406 -0.05027826 0.11501512 0.1061451 -0.05851966 0.056601256 0.0027627498 -0.051810905
0.11388056 0.07821135 -0.06923056 0.07856932 0.00794594 -0.10000494 0.0067534447 0.07125746
0.0925667 -0.002930954 -0.09446311 0.046662554 0.12432547 -0.042573795 -0.05269195 0.022390068
-0.11360176 -0.059340894 -0.012697428 0.033404633 0.02479434 -0.076762006 -0.06742853 0.004965633
-0.061931744 0.0070085377 -0.06566875 -0.042786673 -0.045900658 -0.06863105 0.047041744 0.09377621
-0.10388799 0.055846184 -0.07532853 0.12181361 0.0700838 -0.051837012 -0.112944156 -0.098343104
0.09053393 0.07404664 0.052213 0.06592178 0.014652967 0.038331747 0.013325617 0.021336883
-0.0903822 -0.032132372 0.116699636 -0.092768714 0.09944494 0.07403572 -0.013232663 -0.08906776
0.01526235 -0.009316891 -0.07799551 -0.11266984 -0.084108114 0.11617471 -0.081126824 -0.10811727
-0.01302889 0.09552467 -0.016516417 -0.079262316 -0.11803374 0.016311675 -0.054372624 -0.022586524
-0.07465099 -0.08912721 0.11737569 0.05832982 0.0068346113 -0.03616351 -0.077659264 0.028114855
-0.010862246 -0.115921125 0.020209342 -0.11284898 0.051390514 -0.07140377 0.07620834 0.060324475
-0.09140839 -0.028502539 0.025130466 0.09807302 -0.109433696 0.117558464 -0.048732594 -0.08898017
0.079975486 0.06523138 0.038029775 -0.097701594 0.084067 -0.11820826 0.01553534 0.040299922
-0.12268588 -0.07807769 -0.029195502 -0.105266854 -0.0012682676 -0.03393407 -0.0074252486 -0.07394247
-0.004913464 -0.06002955 -0.007921994 0.10608044 0.06262727 -0.033778608 -0.11817624 0.025589183
-0.045488268 -0.07121983 -0.12247838 -0.042150423 -0.015204743 0.07078904 -0.055519283 -0.038860306
-0.121744215 0.035874277 0.11578706 -0.069643885 0.022194445 0.09143983 0.07834828 0.02827087
-0.008765206 -0.07173538 -0.09955077 -0.06312762 -0.11108369 0.11698155 -0.029479101 0.056431264
0.11700757 0.073009774 0.057633504 0.06814559 -0.014849946 -0.019352391 -0.1087759 0.056641087
-0.122712225 0.08459969 -0.05607365 -0.019282907 -0.11519681 0.05028121 0.10358366 -0.057385385
-0.080943376 0.08599475 0.11588332 -0.096315295 -0.043619215 -0.06771736 0.015943661 0.06551348
0.032496795 0.106640965 0.11272715 0.042630106 0.09655799 0.0632053 0.07274638 -0.042695776
-0.040463805 -0.06622331 0.10255562 0.09794521 0.09364778 -0.11949226 0.004536763 -0.05606377
0.05979289 -0.083207175 0.029742405 -0.051610425 0.09510316 0.09050888 0.10686053 -0.036974415
-0.07263872 0.06435816 -0.03335443 -0.09857121 0.0054178387 0.07274833 0.01989013 -0.11384846
-0.031055361 -0.03133136 0.07358973 0.06173928 -0.064968556 0.08130126 -0.12481837 -0.072833896
0.067209974 0.091318935 0.10631071 -0.06815557 -0.09422757 -0.05855389 0.058329374 0.058115125
00000000: ee1f 90bd e6c4 e33d 82e6 953d 80d2 cb3a
00000010: 9cc3 733d 0044 573a 4c88 9abd f839 fe3d
00000020: 1cb3 76bd 901d 0dbd 0a1a 8fbd de48 d73d
00000030: 9ec5 ec3d 9c55 683d 84ac f63d 5838 a33d
00000040: 2695 ed3d e4d0 1fbd 726e 93bd 1e3d e0bd
00000050: b05a 883d a683 f4bd bcb5 f03d dcbc eebd
00000060: e841 99bd 1000 eabd be0f b0bd 34d5 cdbd
00000070: 46a4 a1bd 90ad 0f3d 7497 683d 403d a2bc
00000080: da72 d3bd 94f0 4dbd 0c8d eb3d 9a62 d93d
00000090: 50b2 6fbd b8d6 673d 400f 353b ac37 54bd
000000a0: 363a e93d 462d a03d c0c8 8dbd f4e8 a03d
000000b0: b02f 023c 64cf ccbd 004c dd3b 6eef 913d
000000c0: 9c93 bd3d 4015 40bb e075 c1bd 3c21 3f3d
000000d0: 5a9e fe3d dc61 2ebd 84d3 57bd 606b b73c
000000e0: 0aa8 e8bd 700f 73bd e008 50bc 4cd3 083d
000000f0: 801d cb3c 6635 9dbd f817 8abd c0b6 a23b
00000100: 24ac 7dbd e0a7 e53b 567d 86bd 1441 2fbd
00000110: 5402 3cbd 708e 8cbd d8ae 403d be0d c03d
00000120: 3ac3 d4bd f8be 643d d845 9abd 6a79 f93d
00000130: 1888 8f3d 0c53 54bd 444f e7bd 1c68 c9bd
00000140: da69 b93d c4a5 973d 4cdd 553d 0002 873d
00000150: 0013 703c c001 1d3d b053 5a3c b0ca ae3c
00000160: 4e1a b9bd 3c9d 03bd 3800 ef3d 86fd bdbd
00000170: caa9 cb3d 0aa0 973d d0cd 58bc 2869 b6bd
00000180: f00e 7a3c e0a5 18bc 1cbc 9fbd 72bf e6bd
00000190: e040 acbd 02ed ed3d d225 a6bd 966c ddbd
000001a0: 2077 55bc 70a2 c33d 704d 87bc 4854 a2bd
000001b0: acbb f1bd 10a0 853c d4b5 5ebd 6007 b9bc
000001c0: 9ee2 98bd 5488 b6bd aa62 f03d 40eb 6e3d
000001d0: e0f4 df3b 3020 14bd d20b 9fbd 2051 e63c
000001e0: 90f7 31bc 0e68 edbd 108e a53c 5e1d e7bd
000001f0: dc7e 523d 243c 92bd 1e13 9c3d cc16 773d
00000200: 5234 bbbd 287e e9bc 68de cd3c 82da c83d
00000210: c61e e0bd 7ec2 f03d d49b 47bd 3c3b b6bd
00000220: 30ca a33d 0898 853d 1cc5 1b3d c617 c8bd
00000230: 522b ac3d 2c17 f2bd f087 7e3c 8811 253d
00000240: bc42 fbbd 32e7 9fbd 682b efbc 2696 d7bd
00000250: 003c a6ba 74fe 0abd 804f f3bb 266f 97bd
00000260: 2001 a1bb 8ce1 75bd 40cb 01bc b440 d93d
00000270: ba42 803d 705b 0abd 6206 f2bd 68a0 d13c
00000280: e851 3abd b4db 91bd f2d5 fabd eca5 2cbd
00000290: 501d 79bc d8f9 903d 3068 63bd fc2b 1fbd
000002a0: 0855 f9bd e8f0 123d c421 ed3d 74a1 8ebd
000002b0: 20d1 b53c ce44 bb3d 1075 a03d 5098 e73c
000002c0: f09b 0fbc 00ea 92bd 46e1 cbbd 0e49 81bd
000002d0: d87f e3bd 0694 ef3d 287e f1bc 7824 673d
000002e0: aaa1 ef3d 2686 953d 1c11 6c3d ea8f 8b3d
000002f0: 304d 73bc e888 9ebc e6c5 debd 7c00 683d
00000300: 8c50 fbbd 9a42 ad3d 7cad 65bd 30f7 9dbc
00000310: 4eec ebbd acf3 4d3d ac23 d43d f00c 6bbd
00000320: a4c5 a5bd 041e b03d 3c54 ed3d f440 c5bd
00000330: 10aa 32bd 66af 8abd 489c 823c ee2b 863d
00000340: 5c1b 053d 9466 da3d 7edd e63d e89c 2e3d
00000350: 32c0 c53d c871 813d 0efc 943d c4e1 2ebd
00000360: 60bd 25bd 16a0 87bd ae08 d23d 8097 c83d
00000370: 68ca bf3d 5cb8 f4bd 20a9 943b 20a3 65bd
00000380: 64e9 743d 8668 aabd 58a6 f33c 7465 53bd
00000390: 72c5 c23d b85c b93d b2d9 da3d 7c72 17bd
000003a0: 9cc3 94bd 36ce 833d a89e 08bd b4df c9bd
000003b0: 2088 b13b 14fd 943d a0f0 a23c 6229 e9bd
000003c0: d067 febc 5055 00bd 36b6 963d 54e2 7c3d
000003d0: 3c0e 85bd 4681 a63d c6a0 ffbd f029 95bd
000003e0: 62a5 893d 6c05 bb3d 6eb9 d93d 2695 8bbd
000003f0: 62fa c0bd 34d6 6fbd c8ea 6e3d 200a 6e3d

lstm.bias_hh_l0 f4 [256]
0.08741704 -0.004976645 0.10745585 -0.05266796 0.053811684 -0.022508532 -0.09291896 0.06888679
-0.007259488 0.055480972 -0.058030054 0.016865954 0.02669315 0.013057098 0.1113241 -0.00819996
-0.1234726 -0.121034205 -0.014098823 -0.031309232 -0.035475373 -0.023297548 -0.024842948 0.046110094
-0.11617407 0.024923682 -0.056365088 -0.10661493 -0.119826555 0.043340147 0.0004940033 -0.056760654
0.055307627 -0.07013011 -0.081988245 0.045510277 -0.10006656 0.07234408 0.018880233 0.06669465
-0.10916707 0.120351285 -0.11197485 0.043266177 -0.10651378 0.034795687 0.12237765 0.08305746
0.06405507 0.115354255 -0.11049093 0.11651914 0.11328541 0.1232862 0.08441222 -0.028917491
0.11304928 -0.024394587 -0.08998966 0.11210202 0.11486277 -0.036310762 -0.056701407 -0.118251234
-0.020151913 -0.070892826 -0.056509614 -0.011237979 -0.120851785 -0.11659342 -0.067432314 0.020768791
0.04750496 -0.105048805 0.07989663 0.02937077 0.12061706 0.10938203 -0.010511398 0.019574538
0.048163116 -0.024867937 -0.08044784 -0.08648743 -0.11123963 -0.01267913 0.032717615 -0.008165091
0.029224023 0.05253984 0.04188773 0.075997606 -0.065258175 -0.10735668 -0.07886411 0.021276534
0.039406285 0.10296728 -0.02921173 0.04474649 -0.0053473115 -0.021831289 -0.034799486 -0.03311655
-0.067465276 -0.11955048 0.088192984 0.09219867 -0.097862214 0.092995554 -0.09232162 -0.056879222
-0.014641359 0.029936552 -0.11649528 -0.06822635 0.101926774 -0.07271965 -0.039089262 -0.023321971
-0.0503667 0.0034114867 -0.020913273 0.093677655 0.07449511 0.06981863 0.029352307 -0.10178518
0.11646229 -0.02207625 0.091192365 -0.12258151 -0.011967897 -0.028234825 0.01697947 0.07693982
0.03148207 0.041553736 -0.093003035 0.0063596815 0.11045608 0.072701514 -0.023063004 -0.0878537
-0.0068533868 -0.070179045 -0.109390795 -0.011015534 -0.0025452822 -0.11164118 -0.0363698 -0.03224115
-0.020470425 -0.06325345 0.022848517 0.013755277 -0.011580095 0.0052042156 0.1183054 0.086199656
0.06580347 0.017762333 0.019993603 0.016540363 0.054531515 -0.045020327 -0.0438599 0.06651123
-0.05365081 -0.0588419 -0.0077093095 0.0012682676 0.060517848 -0.07087085 -0.0782996 -0.11059259
-0.12441982 0.07623245 -0.06795682 0.087060496 0.1005618 0.0982977 -0.018321484 -0.0018892586
-0.058964297 -0.0019433647 -0.03278248 -0.027708873 0.07512927 -0.082697555 0.061364353 0.10938035
0.05932747 -0.12015116 -0.090642765 0.08623016 0.07568459 -0.054405093 -0.08430441 -0.11338079
-0.028334066 -0.09044857 -0.11039123 0.061347917 0.08434564 -0.029645264 0.026609689 -0.030255094
-0.01828307 -0.08545487 -0.05758676 0.039751098 -0.03292121 0.10928832 0.061566755 0.06470066
-0.05835718 0.017220974 -0.033698216 -0.020631164 0.071941644 0.021017268 -0.045942813 -0.011969775
-0.10486516 0.0034090728 0.07743798 0.06181355 0.11551246 0.09653066 -0.032209143 0.09593372
-0.111064106 0.09827545 0.018912941 -0.038540304 -0.074306116 -0.01139383 0.047094956 0.0027421564
-0.040695816 0.019023761 -0.107363224 0.08512895 0.091179416 0.07129978 -0.07971467 -0.011326447
-0.0023627132 -0.082216024 -0.052997366 -0.0524237 0.020094082 0.08422616 -0.12186867 -0.10032326
00000000: b407 b33d 2013 a3bb d011 dc3d 5cba 57bd
00000010: a469 5c3d d063 b8bc 4c4c bebd 8414 8d3d
00000020: 00e1 edbb 0440 633d ecb0 6dbd 782a 8a3c
00000030: 98ab da3c 70ed 553c e4fd e33d 2059 06bc
00000040: 34df fcbd c8e0 f7bd c0fe 66bc 1c3e 00bd
00000050: a04e 11bd 80da bebc 7083 cbbc f0dd 3c3d
00000060: acec edbd c02c cc3c 14df 66bd ee58 dabd
00000070: a067 f5bd 7085 313d 0080 013a dc7d 68bd
00000080: 408a 623d 60a0 8fbd 74e9 a7bd fc68 3a3d
00000090: b2ef ccbd 2229 943d b8aa 9a3c 3497 883d
000000a0: fc92 dfbd bc7a f63d 1253 e5bd e037 313d
000000b0: e623 dabd ec85 0e3d 22a1 fa3d 081a aa3d
000000c0: 4e2f 833d da3e ec3d 1249 e2bd 96a1 ee3d
000000d0: 2e02 e83d 7a7d fc3d 50e0 ac3d 60e4 ecbc
000000e0: 6286 e73d 28d7 c7bc 804c b8bd be95 e53d
000000f0: 2c3d eb3d 98ba 14bd bc3f 68bd b42d f2bd
00000100: a015 a5bc 4230 91bd a076 67bd 801f 38bc
00000110: 2481 f7bd 88c8 eebd f419 8abd 5023 aa3c
00000120: 9094 423d d423 d7bd d8a0 a33d f89a f03c
00000130: 1406 f73d b003 e03d 0038 2cbc c85a a03c
00000140: b046 453d d8b7 cbbc d6c1 a4bd 5220 b1bd
00000150: 9ad1 e3bd 20bc 4fbc e802 063d e0c6 05bc
00000160: 3867 ef3c 0434 573d 7892 2b3d a2a4 9b3d
00000170: 14a6 85bd d2dd dbbd 8283 a1bd 204c ae3c
00000180: 7c68 213d 82e0 d23d 704d efbc 1848 373d
00000190: 8038 afbb 88d7 b2bc e889 0ebd 38a5 07bd
000001a0: 3c2b 8abd e2d6 f4bd 869e b43d a8d2 bc3d
000001b0: fc6b c8bd 7474 be3d 1e13 bdbd 30fa 68bd
000001c0: 50e2 6fbc 803d f53c 1495 eebd 42ba 8bbd
000001d0: fcbe d03d 0aee 94bd 101c 20bd b80d bfbc
000001e0: 504d 4ebd 4093 5f3b 5052 abbc 12da bf3d
000001f0: e490 983d 12fd 8e3d 4074 f03c c074 d0bd
00000200: c883 ee3d 40d9 b4bc 10c3 ba3d 040c fbbd
00000210: 0015 44bc b84c e7bc 8818 8b3c a092 9d3d
00000220: 58f3 003d 4034 2a3d 6078 bebd e064 d03b
00000230: cc36 e23d 88e4 943d a0ee bcbc a4ec b3bd
00000240: 6092 e0bb 08ba 8fbd 4808 e0bd 807a 34bc
00000250: c0ce 26bb 22a4 e4bd 80f8 14bd 4c0f 04bd
00000260: 98b1 a7bc 068b 81bd d02c bb3c d05d 613c
00000270: 70ba 3dbc 2088 aa3b 1a4a f23d 7289 b03d
00000280: f8c3 863d 5082 913c a0c9 a33c a87f 873c
00000290: 705c 5f3d 3c67 38bd 70a6 33bd 0a37 883d
000002a0: f4c0 5bbd 3404 71bd 609e fcbb 003c a63a
000002b0: 90e1 773d bc24 91bd 8a5b a0bd 5e7e e2bd
000002c0: d2cf febd c21f 9c3d f22c 8bbd c64c b23d
000002d0: 58f3 cd3d 4e50 c93d f016 96bc 00a1 f7ba
000002e0: 8c84 71bd 80b8 feba ec46 06bd b8fd e2bc
000002f0: 60dd 993d 565d a9bd 3059 7b3d ce02 e03d
00000300: 5c01 733d d011 f6bd eaa2 b9bd 7099 b03d
00000310: 8600 9b3d e0d7 5ebd caa7 acbd 3034 e8bd
00000320: d81c e8bc 1a3d b9bd cc14 e2bd f447 7b3d
00000330: 68bd ac3d a0da f2bc 90fc d93c 88d9 f7bc
00000340: 60c6 95bc f602 afbd 18e0 6bbd 0cd2 223d
00000350: 64d8 06bd 8ed2 df3d 6c2d 7c3d c881 843d
00000360: f007 6fbd 0013 8d3c 2407 0abd b002 a9bc
00000370: 2456 933d 682c ac3c 882e 3cbd e01c 44bc
00000380: 8cc3 d6bd c06a 5f3b ce97 9e3d 3430 7d3d
00000390: cc91 ec3d deb1 c53d bced 03bd e678 c43d
000003a0: 9475 e3bd a444 c93d 50ef 9a3c 70dc 1dbd
000003b0: ce2d 98bd 30ad 3abc a4e6 403d c0b5 333b
000003c0: a8b0 26bd b8d7 9b3c 40e1 dbbd 1658 ae3d
000003d0: 46bc ba3d 9e05 923d 7241 a3bd 9092 39bc
000003e0: c0d7 1abb e060 a8bd c413 59bd 3cba 56bd
000003f0: 589c a43c c47e ac3d 4896 f9bd 4876 cdbd

lstm.weight_ih_l1 f4 [256, 64]
-0.042219307 -0.014848515 0.03605467 -0.075789645 -0.005081758 -0.003264294 0.0010951608 0.03244535
-0.03884624 -0.11008403 -0.10765016 -0.05424255 0.117039755 -0.026510313 0.054133803 -0.04018843
-0.04720433 -0.0421789 0.038243815 -0.030453175 -0.084337324 -0.00025719404 -0.040595487 -0.12295298
0.0913057 0.07189591 0.13693342 -0.07905553 0.0027663559 0.015537834 0.008861423 -0.08118999
-0.023569345 0.06505442 -0.0005515665 -0.108636156 0.034734808 -0.0020598706 -0.06222248 -0.040110007
-0.10945733 0.030493885 -0.02849704 0.013082507 0.06533688 0.049383983 -0.14012182 0.10641915
-0.09958963 0.095752954 -0.1243075 -0.053427115 0.11379975 -0.034156367 -0.05050214 -0.01533717
-0.031552244 0.051864833 0.019133816 0.12387535 -0.0929811 -0.08464818 -0.10830854 -0.101622686
0.038298223 0.053237855 -0.059972093 0.04796347 0.081142485 -0.088968486 -0.12432599 -0.108853936
-0.012498379 -0.07900806 0.04580453 0.08230442 -0.11645199 0.022278592 -0.07882322 0.05629687
-0.03405142 0.10357483 -0.019286677 0.026937723 -0.07061449 0.080485195 -0.1120854 0.101224154
0.120248675 0.03128557 0.008874915 0.07039703 0.048985645 -0.06997103 -0.11221853 -0.05722542
0.039928406 -0.060320437 -0.0212287 0.060790166 -0.053742364 -0.016272152 0.021814913 0.09498808
-0.11699362 -0.06749788 -0.10551639 -0.11811781 0.038557723 -0.10386963 0.069428325 -0.038696907
0.12144862 0.06885181 0.10139936 -0.06913781 -0.0125976205 0.10781917 0.075232506 0.08774927
0.11770513 -0.034989566 -0.1002161 0.099736005 0.06874342 -0.055002928 -0.061610192 0.07375667
0.0043584425 -0.095786214 -0.082258284 -0.07708138 -0.12126696 -0.07592559 0.022692993 -0.009820847
0.052099645 -0.03205976 0.112047076 -0.1186907 0.012276873 0.10051718 -0.0063770115 -0.027424455
0.009116307 0.03004174 -0.06983164 0.016016066 -0.08345711 0.09003806 -0.07522221 0.12455453
0.105001196 -0.09427929 0.089011036 -0.004261291 -0.0029239357 -0.09853963 0.02009806 -0.0724127
-0.10935496 0.123494014 -0.0811238 0.049368203 -0.14263533 0.06551657 0.035879284 -0.058120295
-0.05370672 -0.02736047 0.053610712 -0.03218985 0.03554909 0.12327114 -0.0042202235 0.073476404
-0.05385065 0.098562375 0.007987052 0.06035313 -0.03362663 -0.028195411 -0.12694074 -0.08764355
0.06371042 -0.09352708 0.08927092 -0.06689359 -0.06333938 -0.060668126 0.09176093 -0.013308766
-0.060539268 -0.026151001 -0.11101119 0.012729004 0.11863637 0.018676415 0.0137741715 -0.060391065
-0.118799135 -0.11593203 0.11752996 0.0842291 -0.019086197 0.120034784 -0.021808237 0.08304319
0.036946997 -0.052238926 -0.094198436 0.034295782 -0.0259282 -0.0770134 0.11537436 0.031132504
-0.12157588 -0.11550698 -0.101155736 0.0365093 0.044042274 -0.017568363 0.05401863 -0.06823638
-0.10493487 -0.086630344 0.0059210807 -0.013647482 0.008864975 -0.049482275 -0.12150444 -0.11269365
-0.03809479 0.002139628 0.11320175 -0.013743184 -0.03720738 -0.058665246 0.0055737845 0.03877627
0.05229041 -0.097555935 -0.12427734 -0.09888756 0.01812981 0.04099424 0.021299707 -0.0115395505
0.070522115 -0.048433512 -0.033934053 -0.06455195 -0.10500029 0.056020245 0.05953403 -0.0095295375
00000000: 27ee 2cbd 3047 73bc 10ae 133d 9a37 9bbd
00000010: e084 a6bb c4ed 55bb 808b 8f3a 6ae5 043d
00000020: 3c1d 1fbd bc73 e1bd b077 dcbd 702d 5ebd
00000030: 8ab2 ef3d 282c d9bc 68bb 5d3d a09c 24bd
00000040: 5459 41bd c8c3 2cbd 8ca5 1c3d f078 f9bc
00000050: 0cb9 acbd 00d8 86b9 7447 26bd c6ce fbbd
00000060: 7cfe ba3d 2a3e 933d 4638 0c3e dee7 a1bd
00000070: c04b 353b 6692 7e3c 802f 113c f046 a6bd
00000080: 8014 c1bc 403b 853d 0097 10ba a27c debd
00000090: 1646 0e3d e5fe 06bb 00dd 7ebd 644a 24bd
000000a0: 2a2b e0bd 50ce f93c a072 e9bc 0358 563c
000000b0: 58cf 853d dc46 4a3d 187c 0fbe 49f2 d93d
000000c0: a6f5 cbbd 201a c43d ee94 febd 64d6 5abd
000000d0: d80f e93d 8ce7 0bbd 55db 4ebd c148 7bbc
000000e0: ed3c 01bd 3870 543d 85be 9c3c 5cb2 fd3d
000000f0: e06c bebd 065c adbd ded0 ddbd 8e1f d0bd
00000100: 99de 1c3d f00f 5a3d 4ca5 75bd 5875 443d
00000110: 082e a63d 1c35 b6bd a09e febd d0ee debd
00000120: 00c6 4cbc face a1bd 889d 3b3d 388f a83d
00000130: 627e eebd 9881 b63c 126e a1bd 8c97 663d
00000140: 8079 0bbd 0a1f d43d 18ff 9dbc 80ac dc3c
00000150: 549e 90bd 6cd5 a43d 088d e5bd 9c4e cf3d
00000160: f044 f63d 4c25 003d 1768 113c 512c 903d
00000170: 2ca5 483d f94c 8fbd d4d2 e5bd 3465 6abd
00000180: f88b 233d 9012 77bd d0e7 adbc 1cff 783d
00000190: f420 5cbd 2d4d 85bc 30b5 b23c 1c89 c23d
000001a0: 5a9a efbd 543c 8abd fa18 d8bd c0e7 f1bd
000001b0: b4ee 1d3d 9ab9 d4bd 7030 8e3d a680 1ebd
000001c0: 0eba f83d 2e02 8d3d 78aa cf3d 2098 8dbd
000001d0: 4066 4ebc 4cd0 dc3d 8013 9a3d e4b5 b33d
000001e0: 630f f13d 3851 0fbd 193e cdbd 6442 cc3d
000001f0: 5ac9 8c3d c04a 61bd f85a 7cbd bd0d 973d
00000200: 44d1 8e3b 902b c4bd 0877 a8bd d8dc 9dbd
00000210: d05a f8bd e07e 9bbd a8e6 b93c 9ee7 20bc
00000220: 7066 553d 1851 03bd f078 e53d 1c14 f3bd
00000230: f024 493c f4db cd3d 40f6 d0bb 40a9 e0bc
00000240: 905c 153c 181a f63c e403 8fbd 2034 833c
00000250: 90eb aabd e065 b83d 1a0e 9abd 7216 ff3d
00000260: de0a d73d 8015 c1bd 6b4b b63d 4da2 8bbb
00000270: 809f 3fbb 25cf c9bd b0a4 a43c 1c4d 94bd
00000280: 7ef5 dfbd 6eea fc3d 3c24 a6bd 5036 4a3d
00000290: ff0e 12be 8d2d 863d 28f6 123d 8c0f 6ebd
000002a0: 94fb 5bbd 1023 e0bc e896 5b3d 81d9 03bd
000002b0: ec9b 113d 9475 fc3d cd49 8abb cc7a 963d
000002c0: 8092 5cbd 12db c93d 20dc 023c d834 773d
000002d0: 14bc 09bd 10fa e6bc c1fc 01be 767e b3bd
000002e0: 9c7a 823d 208b bfbd acd3 b63d 82ff 88bd
000002f0: 14b8 81bd 247f 78bd 28ed bb3d 030d 5abc
00000300: 06f8 77bd a03a d6bc d659 e3bd 508d 503c
00000310: a0f7 f23d 48ff 983c 10ad 613c 9f5c 77bd
00000320: f64c f3bd c66d edbd 8cb3 f03d 4e80 ac3d
00000330: a85a 9cbc ccd4 f53d 30a7 b2bc 8c12 aa3d
00000340: bc55 173d 7cf8 55bd 1ceb c0bd bc79 0c3d
00000350: 6067 d4bc 34b9 9dbd 6449 ec3d 9809 ff3c
00000360: c6fc f8bd ec8e ecbd bd2a cfbd c78a 153d
00000370: ac65 343d 87eb 8fbc a442 5d3d 84bf 8bbd
00000380: 18e8 d6bd 406b b1bd a005 c23b b099 5fbc
00000390: 663e 113c edad 4abd 52d7 f8bd eecb e6bd
000003a0: 4809 1cbd 0039 0c3b 52d6 e73d 172b 61bc
000003b0: c466 18bd f84a 70bd 4ba4 b63b ded3 1e3d
000003c0: 782e 563d 68cb c7bd 1e85 febd 9085 cabd
000003d0: f884 943c 94e9 273d b97c ae3c 6210 3dbc
000003e0: e66d 903d 3862 46bd 6ffe 0abd d033 84bd
000003f0: 640a d7bd 7c75 653d f4d9 733d c721 1cbc

lstm.weight_hh_l1 f4 [256, 64]
0.07288864 -0.093710765 -0.023861177 -0.033873003 0.06558741 -0.03579355 -0.0978989 -0.05061132
0.118981786 -0.13224195 0.11291589 -0.07403948 -0.04567988 -0.06498783 0.00057545275 0.08957209
-0.015180093 0.05095417 -0.10939941 0.052419536 -0.11254956 -0.11234475 -0.0840621 0.018329935
-0.06936715 0.020244991 0.14397953 -0.071262136 -0.02962686 -0.06957897 0.010443947 0.014280269
-0.12386363 -0.019861404 0.015168287 -0.09718815 -0.04483317 0.053511016 0.067276455 -0.14170662
-0.009629983 -0.019229978 -0.09147895 -0.13978058 0.00062691234 0.095963046 0.13746282 -0.09738819
0.037747044 -0.11343208 0.02037088 0.01723236 0.102616586 0.0037384252 0.05463028 -0.040909056
-0.063229226 -0.012019472 0.090193495 -0.0451292 0.03532822 -0.028409202 0.09809305 -0.060540307
-0.017044287 0.005367649 -0.103080966 0.0429767 0.086591035 0.10298061 0.041665632 0.062766664
-0.06262366 0.02733247 -0.048179977 0.018568119 -0.01409132 0.10954 -0.020042947 -0.10269515
-0.018419135 0.057586603 -0.10607473 0.021732913 0.017927228 0.0055416697 -0.096038096 0.0436005
0.031171447 0.044450957 -0.0048126476 0.060867373 0.0011781675 0.03477296 0.13722138 0.010770659
-0.04219632 0.023322871 0.10131834 -0.13412338 -0.018406233 0.042688787 -0.018955892 -0.12136139
-0.067854 -0.09219871 0.01004358 -0.016768342 0.039905205 -0.031368792 0.093349546 0.09676792
0.06405146 -0.009147034 0.05587593 0.020489754 -0.0870068 -0.066972665 0.0059599774 0.006340525
-0.051033493 0.09447963 -0.01340672 -0.044158567 0.10838462 0.121561885 0.08888526 0.07447408
-0.10108688 -0.06911575 0.08917493 0.042514645 -0.038021628 0.025676388 -0.031047909 0.06723385
0.12995464 -0.12229959 0.11417597 -0.0029634784 -0.041735176 0.04349928 0.06437603 0.1165267
-0.011274674 0.024733469 0.0774015 -0.068087526 -0.13925041 0.010022925 0.0006086525 0.051955186
0.10387647 -0.12985854 0.042569555 -0.04726489 -0.1220307 0.08557704 0.034756064 0.104980625
-0.06529714 0.13455866 0.06406154 -0.051298976 -0.06002504 -0.09616675 0.016398914 0.09123287
-0.13956787 -0.05492272 0.09238873 -0.12834594 -0.026648486 0.06835405 -0.0439869 0.008581373
0.019417416 0.055511195 0.041110195 0.040297054 0.041828804 -0.08942934 0.041937437 -0.02193944
-0.052065764 -0.048883174 0.003329252 0.13568723 0.061791778 0.110436164 -0.019466564 0.016195372
-0.11614767 0.094524615 -0.06908278 -0.13858733 0.02602684 0.078105345 -0.0038774675 0.030332781
-0.098925784 0.05882245 0.009868964 -0.044136725 -0.0725183 -0.08386795 -0.024823317 -0.005569067
0.089511186 0.10936427 -0.13714464 -0.029724335 0.052693397 -0.013902791 0.13321537 -0.053337
0.026243813 -0.13412234 0.016919823 -0.013399202 -0.13330396 0.060332924 0.055558637 -0.10349975
-0.073698826 0.02731968 0.05894057 0.0941291 0.07855684 -0.072262436 -0.06398598 -0.052390076
0.07186058 -0.09014554 0.05295693 0.05006056 0.007345322 -0.1216186 0.10160428 -0.11420454
-0.098096535 0.011937024 -0.071411245 -0.07514283 -0.003091817 -0.02240691 0.0714521 -0.08394184
0.034900438 -0.052527316 -0.109190196 -0.10437378 0.034784496 0.0042215525 0.12642322 -0.036702238
00000000: a446 953d 6eeb bfbd 8478 c3bc 6bbe 0abd
00000010: b152 863d 429c 12bd 387f c8bd d14d 4fbd
00000020: b9ac f33d 6f6a 07be 7240 e73d 03a2 97bd
00000030: d31a 3bbd 5718 85bd fbd9 163a 9271 b73d
00000040: edb5 78bc 52b5 503d cc0c e0bd deb5 563d
00000050: 6280 e6bd 0115 e6bd c028 acbd a928 963c
00000060: 5d10 8ebd d3d8 a53c 5f6f 133e e2f1 91bd
00000070: 07b4 f2bc 6b7f 8ebd 171d 2b3c caf7 693c
00000080: 37ac fdbd 62b4 a2bc 6884 783c 950a c7bd
00000090: fca2 37bd 5e2e 5b3d 3dc8 893d 8a1b 11be
000000a0: 14c7 1dbc 3088 9dbc 5159 bbbd a422 0fbe
000000b0: 6057 243a 4688 c43d 0ec3 0c3e 7673 c7bd
000000c0: a59c 1a3d 144f e8bd d5e0 a63c e12a 8d3c
000000d0: a528 d23d 5e00 753b 00c4 5f3d 4190 27bd
000000e0: 537e 81bd 52ed 44bc 5eb7 b83d 65d9 38bd
000000f0: 53b4 103d 6aba e8bc 02e5 c83d 1df9 77bd
00000100: 76a0 8bbc 1ae3 af3b 1d1c d3bd 5608 303d
00000110: a456 b13d 80e7 d23d 95a9 2a3d cf8b 803d
00000120: d540 80bd 58e8 df3c 5e58 45bd 2b1c 983c
00000130: 48df 66bc 8256 e03d 1b31 a4bc d651 d2bd
00000140: bae3 96bc eedf 6b3d b53d d9bd 3909 b23c
00000150: 1fdc 923c e596 b53b 9faf c4bd 7096 323d
00000160: 435b ff3c 3512 363d 6ab3 9dbb 1150 793d
00000170: be6c 9a3a 176e 0e3d c383 0c3e 6b77 303c
00000180: 0cd6 2cbd 9b0f bf3c fd7f cf3d a457 09be
00000190: abc8 96bc 70da 2e3d 6349 9bbc 528c f8bd
000001a0: 0af7 8abd add2 bcbd d48d 243c c35d 89bc
000001b0: a473 233d 907c 00bd 0c2e bf3d 422e c63d
000001c0: 692d 833d 71dd 15bc 29de 643d 21da a73c
000001d0: 9f30 b2bd f728 89bd ea4b c33b 2ec4 cf3b
000001e0: 7f08 51bd 897e c13d dca7 5bbc 9ddf 34bd
000001f0: c1f8 dd3d 70f5 f83d 7a09 b63d de85 983d
00000200: a306 cfbd 8f8c 8dbd 58a1 b63d d623 2e3d
00000210: 91bc 1bbd 4a57 d23c 2f58 febc e7b1 893d
00000220: d412 053e 3578 fabd 17d5 e93d eb36 42bb
00000230: 81f2 2abd 4d2c 323d 94d7 833d 8da5 ee3d
00000240: 69b9 38bc d89d ca3c ad84 9e3d 7971 8bbd
00000250: a997 0ebe 3237 243c fa8d 1f3a f6ce 543d
00000260: 30bd d43d a3f9 04be 6a5d 2e3d d498 41bd
00000270: 3beb f9bd 0443 af3d 605c 0e3d 1500 d73d
00000280: 82ba 85bd bfc9 093e b232 833d e01e 52bd
00000290: d1dc 75bd 13f3 c4bd 0457 863c 4dd8 ba3d
000002a0: e1ea 0ebe a5f6 60bd 4d36 bd3d 1e6d 03be
000002b0: ed4d dabc 35fd 8b3d 9c2b 34bd e398 0c3c
000002c0: 4611 9f3c b55f 633d 2a63 283d 860e 253d
000002d0: ae54 2b3d bb26 b7bd 97c6 2b3d 57ba b3bc
000002e0: e942 55bd b939 48bd 942f 5a3b 98f1 0a3e
000002f0: 6019 7d3d 5b2c e23d 5878 9fbc 28ac 843c
00000300: d4de edbd 1f96 c13d 467b 8dbd d6e9 0dbe
00000310: 3d36 d53c b2f5 9f3d 1c1d 7ebb 747c f83c
00000320: 9a99 cabd cfef 703d 6fb1 213c b6c8 34bd
00000330: 7984 94bd f6c2 abbd 455a cbbc b87c b6bb
00000340: a451 b73d 60fa df3d a56f 0cbe 7380 f3bc
00000350: 08d5 573d 88c8 63bc 9c69 083e e677 5abd
00000360: 44fd d63c 5e57 09be 719b 8a3c 5488 5bbc
00000370: d580 08be a81f 773d 7491 633d adf7 d3bd
00000380: 69ef 96bd 86cd df3c ab6b 713d c2c6 c03d
00000390: 69e2 a03d 54fe 93bd 150b 83bd fa96 56bd
000003a0: a42b 933d 3a9e b8bd 5ee9 583d 4d0c 4d3d
000003b0: 07b1 f03b 2c13 f9bd e815 d03d 12e4 e9bd
000003c0: d6e6 c8bd 8293 433c 0f40 92bd 7ce4 99bd
000003d0: 15a0 4abb b28e b7bc 7b55 923d b3e9 abbd
000003e0: c3f3 0e3d e226 57bd 1c9f dfbd ecc1 d5bd
000003f0: 307a 0e3d f354 8a3b 1775 013e 1655 16bd

lstm.bias_ih_l1 f4 [256]
-0.043818664 -0.02918493 -0.036658686 0.032832578 -0.09665209 0.13834995 -0.026638988 -0.028591648
0.08858948 -0.060700584 -0.07141206 -0.090627216 0.11954305 0.11062244 0.00025324753 -0.076136366
-0.018559748 0.10343557 -0.036045328 0.02529779 0.064541176 -0.085332975 0.1228631 0.051554706
0.11991472 0.06864818 0.09933682 0.12672623 -0.0732319 0.09921708 -0.005059855 -0.0065947426
-0.06452817 0.11371127 -0.03672667 -0.045123212 -0.028653566 0.07093118 0.0064908774 -0.0047668912
0.09892484 -0.07916316 0.018487806 0.10541045 -0.02672343 0.08739502 -0.005453364 0.10701996
-0.0410033 0.01877434 0.07643957 -0.032494612 0.13383141 0.09149739 0.08729703 0.07707869
0.074041225 0.023464192 -0.011074806 0.011402101 0.13255885 0.09761271 -0.11161515 0.10004467
-0.045454558 -0.04342689 0.041319393 0.053154275 -0.031995486 0.04045822 -0.019439954 -0.02297381
-0.04258182 0.03487643 0.02529343 0.0977463 0.034120735 0.1314881 0.13491142 -0.020514118
0.1404225 0.010378433 -0.08682899 0.0020873281 -0.073741786 0.07191228 0.13635418 0.08124733
0.01256319 0.14594133 0.08306449 0.08314237 -0.002108614 -0.057273395 -0.076357834 -0.02289898
-0.06887157 -0.052572135 0.083134905 0.031956714 0.011503404 -0.0058066426 -0.028341735 -0.07384107
0.06853257 -0.089753695 0.04474049 0.11400896 -0.05526343 0.038286053 -0.058301147 0.14281955
-0.022192953 0.13109128 -0.049777605 0.123255126 0.012997908 0.092150554 -0.0635675 0.10284495
0.1394871 -0.0416776 0.1226394 0.076742664 -0.04970114 0.01094581 0.13298073 0.108306825
-0.041695498 -0.045842033 -0.030587038 -0.042806093 0.07423002 0.051109266 -0.08458703 -0.06593256
0.05357505 -0.101771235 0.12905326 -0.0053888173 -0.099734135 -0.06113535 -0.04777268 0.06397085
0.1060637 -0.025297066 -0.09984996 -0.05662131 -0.0016818861 -0.06951733 -0.054761127 -0.0003078844
0.013672756 -0.009099216 -0.0345185 -0.025212966 -0.0067668427 0.0759922 0.0069479826 -0.01171188
0.027858287 -0.051137503 0.07413576 0.11015939 0.109327786 0.08227758 0.07633644 0.06598691
0.015739033 0.08841344 -0.011725418 -0.021254271 -0.04192701 -0.094919555 -0.04123254 0.07810519
-0.10868564 -0.05811083 -0.089295454 0.122129865 0.10695234 -0.11998132 0.047695603 0.028985815
-0.012368866 -0.10315692 -0.054543804 -0.0594133 0.06703303 0.0010603229 -0.018657941 0.07255701
-0.006843463 0.056279648 0.1276252 0.051042173 -0.089972794 0.015876418 0.056692872 0.11735257
0.13564001 0.09018212 0.13556702 -0.04098243 -0.048072107 0.008859519 0.11955698 -0.0087169
-0.07228465 -0.00071073975 -0.012225253 0.11924157 0.06575129 -0.054302312 0.09650271 -0.049088407
0.06835722 0.017936178 0.008719379 0.14166217 0.12399845 -0.051500637 0.10323449 -0.07177156
0.15197982 0.014082485 0.010858876 -0.015835455 0.03448804 -0.015215814 -0.0378398 0.037470892
0.0050797635 0.031474568 0.08414498 -0.060618807 0.05743438 0.10519947 -0.053374123 0.039196845
-0.025546378 0.05847769 -0.08294933 0.07878999 0.1379491 -0.045185756 -0.08276959 -0.018636974
0.13901909 0.09023684 -0.055392824 0.014518168 0.023093054 0.09465203 0.1343481 0.118976586
00000000: 337b 33bd 3c15 efbc 6b27 16bd 747b 063d
00000010: 88f1 c5bd 9cab 0d3e 023a dabc 0839 eabc
00000020: 676e b53d 2da1 78bd 7c40 92bd c39a b9bd
00000030: fdd2 f43d 058e e23d 4fc6 8439 62ed 9bbd
00000040: 9d0a 98bc 07d6 d33d 44a4 13bd 503d cf3c
00000050: 2a2e 843d 0ec3 aebd a69f fb3d 072b 533d
00000060: d995 f53d 6b97 8c3d 1a71 cb3d 85c4 013e
00000070: 9bfa 95bd 5332 cb3d 24cd a5bb b618 d8bb
00000080: 5827 84bd 74e1 e83d b46e 16bd 1ed3 38bd
00000090: e2ba eabc 5e44 913d 6db1 d43b 9533 9cbb
000000a0: 1b99 ca3d 4b20 a2bd bd73 973c 6fe1 d73d
000000b0: 18eb dabc 29fc b23d 22b2 b2bb 482d db3d
000000c0: 14f3 27bd a5cc 993c 598c 9c3d 1219 05bd
000000d0: 1a0b 093e fc62 bb3d c9c8 b23d 6fdb 9d3d
000000e0: eda2 973d fa37 c03c 1a73 35bc e1cf 3a3c
000000f0: 82bd 073e 2ce9 c73d 7c96 e4bd 38e4 cc3d
00000100: 8f2e 3abd 65e0 31bd 863e 293d 4cb8 593d
00000110: b30d 03bd 85b7 253d 8a40 9fbc 9233 bcbc
00000120: 466a 2ebd 96da 0e3d 2b34 cf3c 362f c83d
00000130: 2fc2 0b3d d1a4 063e 3826 0a3e 390d a8bc
00000140: eaca 0f3e 4e0a 2a3c 66d3 b1bd 8ecb 083b
00000150: ef05 97bd bf46 933d 6ea0 0b3e 0065 a63d
00000160: d7d5 4d3c a571 153e b71d aa3d 8c46 aa3d
00000170: ac30 0abb 8297 6abd 7f61 9cbd a496 bbbc
00000180: 8a0c 8dbd e155 57bd a242 aa3d 0be5 023d
00000190: c678 3c3c a645 bebb ed2c e8bc fd39 97bd
000001a0: ce5a 8c3d c9d0 b7bd ce41 373d 887d e93d
000001b0: e85b 62bd d6d1 1c3d 2fcd 6ebd 4a3f 123e
000001c0: ffcd b5bc cb3c 063e 9ae3 4bbd 2f6d fc3d
000001d0: 2df5 543c 6eb9 bc3d ad2f 82bd 60a0 d23d
000001e0: b5d5 0e3e 22b6 2abd 5e2a fb3d 422b 9d3d
000001f0: 6c93 4bbd 0e56 333c 1a2c 083e f8cf dd3d
00000200: e6c8 2abd dbc4 3bbd ab91 fabc 7155 2fbd
00000210: e905 983d f357 513d f73b adbd a607 87bd
00000220: 8371 5b3d 706d d0bd 8a26 043e ad94 b0bb
00000230: 6941 ccbd 1069 7abd 49ad 43bd 2603 833d
00000240: ed37 d93d cb3b cfbc 237e ccbd bfeb 67bd
00000250: bc72 dcba 1a5f 8ebd 344d 60bd 8b6b a1b9
00000260: b203 603c e114 15bc 4563 0dbd 6c8b cebc
00000270: 64bc ddbb cca1 9b3d e7ab e33b 2fe3 3fbc
00000280: 1037 e43c 8f75 51bd 7dd4 973d 3f9b e13d
00000290: 3fe7 df3d 2681 a83d 4856 9c3d 2524 873d
000002a0: 25ef 803c 1b12 b53d f81b 40bc 701d aebc
000002b0: a8bb 2bbd 2f65 c2bd 74e3 28bd 9df5 9f3d
000002c0: 9496 debd 9f05 6ebd 89e0 b6bd 391f fa3d
000002d0: d409 db3d c4b8 f5bd 775c 433d a973 ed3c
000002e0: c9a6 4abc ef43 d3bd 5369 5fbd 5c5b 73bd
000002f0: 9d48 893d 88fa 8a3a 8ad8 98bc c598 943d
00000300: 213f e0bb 7d85 663d 2eb0 023e 9911 513d
00000310: a843 b8bd 430f 823c c936 683d 8b56 f03d
00000320: 37e5 0a3e 67b1 b83d 15d2 0a3e 31dd 27bd
00000330: 42e7 44bd 8427 113c 4ada f43d 54d1 0ebc
00000340: f909 94bd f050 3aba 6d4c 48bc ed34 f43d
00000350: 9da8 863d 1a6c 5ebd 36a3 c53d ed10 49bd
00000360: dffe 8b3d e4ee 923c badb 0e3c e30f 113e
00000370: e6f2 fd3d 55f2 52bd 9b6c d33d f8fc 92bd
00000380: 99a0 1b3e 39ba 663c 6de9 313c 5bb9 81bc
00000390: 5543 0d3d c04b 79bc e8fd 1abd 147b 193d
000003a0: 2574 a63b 7aeb 003d 3454 ac3d 6d4b 78bd
000003b0: 5040 6b3d d272 d73d d39e 5abd df8c 203d
000003c0: a346 d1bc 4d86 6f3d 57e1 a9bd a55c a13d
000003d0: 8742 0d3e b314 39bd 1a83 a9bd 91ac 98bc
000003e0: 055b 0e3e 18ce b83d 96e3 62bd 9cdd 6d3c
000003f0: a52d bd3c ecd8 c13d 8c92 093e ffa9 f33d
