models/DOTUSDT_lstm_20250822_040106.pth (torch, 244263 bytes, 11 tensors)

lstm.weight_ih_l0 f4 [256, 30]
0.11108607 0.11709745 -0.027683899 0.111596376 -0.06305383 0.08916333 0.015172631 0.12323794
-0.029230013 0.028340429 0.04217477 0.12188268 -0.10242076 -0.07684751 -0.10105379 0.080591634
-0.109282166 0.047605067 -0.030802399 0.02710785 0.0866572 -0.016680568 0.066503674 0.10559107
-0.045306996 -0.08113092 -0.12400758 -0.0038051307 -0.09913647 0.025656834 0.078230456 -0.054211855
0.03795153 -0.12186651 0.09581007 -0.054417208 -0.086845174 0.013166368 -0.022953108 0.080365136
0.040184945 0.036565796 0.09405227 0.12472907 -0.004062563 0.0039498955 -0.080763966 -0.04413134
-0.10455777 0.09887862 0.023733735 -0.02071412 0.09469761 -0.0076981634 0.068859726 -0.041226566
0.017109051 -0.056238756 -0.07722865 0.1204398 0.06787382 0.01077196 0.01509507 -0.09412615
0.02265425 -0.09895584 0.017709047 -0.021685004 -0.091036305 -0.007917926 -0.08226873 0.06547259
-0.09324868 -0.0058773905 -0.016892284 -0.020169362 -0.1016666 0.10240632 0.022856906 0.0013658553
0.09284802 0.04003778 0.07950723 -0.024671152 0.043126658 0.093836546 -0.0026636273 0.09064166
0.017497808 -0.12464441 0.0358126 -0.08160266 -0.0026957989 0.024154052 0.09181133 0.0019165426
-0.10504587 -0.025251865 -0.023987189 -0.0883207 -0.111699685 0.02202484 0.0035341978 0.03087227
0.035402387 0.047381327 0.029586926 0.060231045 0.04068683 0.0028287172 0.04820144 -0.03350097
-0.079260856 0.023119003 -0.020805508 -0.09778312 0.0497683 0.013932735 0.028237939 0.07426068
0.030291528 0.0006374568 0.084976 0.12112497 -0.0027618706 -0.11714125 0.12473664 -0.09113145
0.10648358 0.039977804 0.10407321 -0.04307121 -0.080574155 -0.11799055 -0.09485525 -0.08547792
0.08664569 -0.123312056 -0.03904356 -0.0079524815 -0.07467374 0.097246036 -0.066693544 0.06466733
-0.10369471 0.027437165 -0.09552957 -0.09493427 -0.028379038 0.06708805 0.10957351 -0.08490522
0.03971468 0.08258608 0.11815901 0.10248174 0.105595216 0.11844258 -0.12218961 -0.110465646
-0.06472777 0.014505267 -0.0189818 -0.020429105 -0.006210625 -0.113287345 0.0819816 0.032325417
-0.0044728816 0.023424238 0.03642851 0.0097592175 -0.10435146 -0.0332243 0.098645926 -0.029676378
-0.06930141 -0.069482565 -0.12453498 -0.120750874 0.079824165 0.117375895 -0.018629357 -0.020957187
0.08488372 -0.062087074 -0.01009354 -0.042429596 -0.007915303 -0.006967604 -0.08102529 0.11469552
-0.11667681 -0.08054151 -0.023345947 -0.06751743 0.09839746 0.028588489 0.0057356656 0.08935551
0.07663575 -0.11243431 0.028686449 -0.0040314347 -0.07107358 -0.033221513 0.12177314 0.09162021
0.10268557 0.0908625 -0.10700357 0.051598668 -0.038094014 0.03285198 -0.036334902 0.027630478
-0.0060209185 0.094069764 0.01884973 0.06462574 0.10038477 -0.08842088 -0.10113023 -0.017562717
0.00013422966 0.11487369 0.0785609 -0.094111174 -0.058711007 -0.005682528 0.06261559 0.032122955
0.021801665 -0.10988408 -0.038008377 -0.013315007 0.109733626 -0.12379667 0.02738446 -0.07316221
-0.087366626 0.12426017 0.081161186 -0.023119733 0.04224944 0.022581369 0.068120494 0.053056493
-0.115986824 -0.021775499 -0.053416938 -0.034091264 0.004513219 0.035514638 0.0120188 -0.1120034
00000000: 1881 e33d cad0 ef3d 58c9 e2bc a48c e43d
00000010: 5e22 81bd 449b b63d a096 783c 2c64 fc3d
00000020: c873 efbc 302a e83c 74bf 2c3d a09d f93d
00000030: fac1 d1bd 3a62 9dbd 4af5 cebd 3a0d a53d
00000040: 54cf dfbd 88fd 423d 5055 fcbc 4811 de3c
00000050: 5479 b13d b0a5 88bc 1433 883d 2240 d83d
00000060: d493 39bd f827 a6bd b0f7 fdbd 805f 79bb
00000070: 1008 cbbd 482e d23c 4a37 a03d 400d 5ebd
00000080: 1073 1b3d 2695 f9bd 1238 c43d 94e4 5ebd
00000090: e2db b1bd c0b7 573c 2808 bcbc 7a96 a43d
000000a0: f898 243d 04c6 153d 7a9e c03d f471 ff3d
000000b0: 401f 85bb 206e 813b 9467 a5bd 10c3 34bd
000000c0: 6222 d6bd e080 ca3d 406d c23c a8b0 a9bc
000000d0: d2f0 c13d e040 fcbb 5406 8d3d 30dd 28bd
000000e0: 4828 8c3c 9c5a 66bd 0e2a 9ebd 24a9 f63d
000000f0: 6e01 8b3d e07c 303c 5051 773c 36c5 c0bd
00000100: 6895 b93c 5ca9 cabd 9012 913c c0a4 b1bc
00000110: 3e71 babd 30ba 01bc 827c a8bd 7e16 863d
00000120: 2af9 bebd 2097 c0bb b061 8abc 383a a5bc
00000130: 9436 d0bd 68ba d13d 683e bb3c 8006 b33a
00000140: 1a27 be3d a8fe 233d b0d4 a23d 281b cabc
00000150: 94a5 303d 602d c03d 4090 2ebb 56a2 b93d
00000160: 9057 8f3c 9245 ffbd 3cb0 123d 4c1f a7bd
00000170: 00ac 30bb b8de c53c 9407 bc3d 8034 fb3a
00000180: 4a22 d7bd 00dd cebc c880 c4bc 7ce1 b4bd
00000190: cec2 e4bd 706d b43c 009e 673b d8e7 fc3c
000001a0: 1802 113d ec12 423d 4860 f23c d4b4 763d
000001b0: 3ca7 263d 0062 393b e06e 453d 5038 09bd
000001c0: 8453 a2bd 1064 bd3c 5070 aabc 8442 c8bd
000001d0: d8d9 4b3d 2046 643c 4053 e73c fc15 983d
000001e0: f025 f83c 001b 273a e607 ae3d 5e10 f83d
000001f0: 8000 35bb c0e7 efbd ec75 ff3d 20a3 babd
00000200: 1014 da3d c4bf 233d 5624 d53d 706b 30bd
00000210: 1004 a5bd 08a5 f1bd 7843 c2bd 0c0f afbd
00000220: 4c73 b13d 088b fcbd 24ec 1fbd 204b 02bc
00000230: 8cee 98bd ee28 c73d a096 88bd 4e70 843d
00000240: e45d d4bd e8c3 e03c 02a5 c3bd e66c c2bd
00000250: 287b e8bc 7665 893d 1468 e03d cae2 adbd
00000260: dcab 223d e422 a93d 5afd f13d f2e1 d13d
00000270: 4e42 d83d 0692 f23d 8c3e fabd d03b e2bd
00000280: fe8f 84bd 80a7 6d3c b87f 9bbc f05a a7bc
00000290: 8082 cbbb 3203 e8bd f8e5 a73d a867 043d
000002a0: 4091 92bb 30e4 bf3c 1036 153d 20e5 1f3c
000002b0: 38b6 d5bd 3416 08bd e006 ca3d e01b f3bc
000002c0: e6ed 8dbd e04c 8ebd 320c ffbd 3c4c f7bd
000002d0: da7a a33d c662 f03d 989c 98bc 68ae abbc
000002e0: 84d7 ad3d 044f 7ebd 605f 25bc a8ca 2dbd
000002f0: 30af 01bc 8050 e4bb 96f0 a5bd 7ce5 ea3d
00000300: 40f4 eebd f2f2 a4bd 0040 bfbc 9446 8abd
00000310: 9c84 c93d 6832 ea3c 40f2 bb3b 0600 b73d
00000320: 34f3 9c3d f643 e6bd d8ff ea3c 201a 84bb
00000330: 068f 91bd 4813 08bd 3264 f93d 60a3 bb3d
00000340: d04c d23d 1e16 ba3d b024 dbbd 2059 533d
00000350: 7808 1cbd cc8f 063d e8d3 14bd 5059 e23c
00000360: 204b c5bb a6a7 c03d c06a 9a3c 805a 843d
00000370: 8896 cd3d 0216 b5bd 5e1d cfbd b0df 8fbc
00000380: 00c0 0c39 e642 eb3d 8ae4 a03d 5cbd c0bd
00000390: f47a 70bd 8034 babb 9a3c 803d 5c93 033d
000003a0: 6899 b23c e80a e1bd acae 1bbd 3027 5abc
000003b0: 06bc e03d 1c89 fdbd 6055 e03c 12d6 95bd
000003c0: 46ed b2bd 1e7c fe3d d637 a63d 9865 bdbc
000003d0: c00d 2d3d 90fc b83c c282 8b3d c451 593d
000003e0: 808a edbd 8862 b2bc b8cb 5abd 48a3 0bbd
000003f0: a0e3 933b cc77 113d 80ea 443c 0a62 e5bd

lstm.weight_hh_l0 f4 [256, 64]
0.08751753 0.090446696 -0.11291224 0.0082395375 0.08542013 -0.11996259 0.008285373 0.011832625
0.1005553 -0.09691416 0.022169098 -0.10861494 0.008293554 -0.06485653 -0.026995108 0.08953804
-0.123098776 -0.11566976 -0.06924139 0.1174003 0.091677174 -0.0045630485 0.10636456 -0.030744746
0.09360884 -0.09855808 0.052466676 0.0051709265 0.122440144 -0.068306044 0.0012281835 0.105028614
-0.07345845 -0.047491938 0.0027641654 0.11774598 0.09739834 -0.1080675 0.03903541 -0.089486554
-0.121396795 -0.025395527 0.07047705 0.08325069 0.05345705 0.108490065 -0.08976716 -0.09100197
0.042375043 0.036272183 0.047964558 -0.046931267 0.06723608 0.058760956 -0.024352625 -0.032011956
0.10236612 -0.117676005 0.014930084 0.11483851 0.116606325 -0.0021047145 -0.047929257 -0.078391716
0.04225704 -0.008156449 -0.12015909 0.055130422 -0.119757414 -0.08184789 -0.025045916 0.025438845
0.011013538 0.036042094 -0.022956774 0.01436387 -0.11856952 -0.010606915 0.071502715 0.08461586
-0.10064727 -0.06252529 0.07117063 -0.09135969 -0.09288667 0.0880394 0.119085506 0.0740744
-0.041691527 0.083262265 -0.097023875 -0.03301117 -0.03967069 -0.11336166 -0.08712655 -0.061042413
-0.0005226433 0.050689593 -0.04031758 -0.03855875 -0.09635225 -0.05028808 -0.121333584 0.11303802
0.01943113 -0.123831704 -0.07096982 0.088590875 0.06351113 -0.00046628714 -0.05048816 -0.036818728
0.11613646 0.09200263 -0.0009248853 -0.0070338547 -0.018058702 -0.062491298 -0.006005034 -0.047004893
0.009874001 -0.053210318 -0.06743173 0.04886256 0.070844814 0.0010682195 -0.1008499 0.0013569295
-0.061621964 -5.1885843e-05 0.10953954 -0.09002289 0.038813025 0.09400198 0.0037592351 -0.116400406
-0.07876547 -0.06785506 0.09859043 0.045457482 -0.0817322 -0.088396505 0.019624174 -0.11197044
-0.010528848 0.11824192 -0.028564736 -0.020127237 -0.12334551 0.12231746 0.032720998 0.09651291
0.08160584 0.08552775 -0.07608296 -0.0074017346 0.059323102 0.12348665 0.06927709 -0.051730856
0.09435944 -0.021169022 0.067457244 0.077340335 -0.103755414 -0.117042035 0.08537589 -0.071641386
0.10875009 0.10032201 -0.0753835 -0.111131355 0.07332978 -0.061051384 0.1226656 0.092267126
0.045994774 0.08258641 0.024717838 -0.116037175 0.1202842 -0.11208607 0.081340164 0.08238968
0.03813556 -0.019473925 0.06307866 -0.11285862 0.08775425 0.123179376 -0.124671414 0.06802355
0.029232308 0.042404696 0.09599252 0.120616645 0.037108585 0.07997945 -0.03517863 0.06568985
0.019464597 0.03272538 0.04192011 0.114905894 0.118715435 0.06527966 0.061613902 -0.07936703
-0.075029954 -0.00037780404 -0.094142094 -0.035350606 -0.08049232 0.038351163 -0.09542377 -0.047720373
0.037571892 0.042641938 -0.08031799 0.048461378 0.045083225 0.014302388 0.005019307 -0.02040051
0.052031606 0.05593197 0.081695125 0.05081901 0.09008768 -0.10602409 0.05772032 -0.008686379
-0.08872393 0.05243501 0.08965464 0.081518516 -0.118891105 -0.110867694 -0.11286484 -0.016241863
-0.11864175 -0.10895753 0.06324823 0.04397279 0.06401177 -0.076120585 -0.026521578 0.034869537
0.024513677 0.11091229 0.093955964 -0.049089953 0.102060735 -0.078189984 0.030900016 0.014502481
00000000: 643c b33d 1e3c b93d 883e e7bd 20ff 063c
00000010: c0f0 ae3d f2ae f5bd 60bf 073c a0dd 413c
00000020: f0ef cd3d ee7a c6bd f89b b53c 8271 debd
00000030: b0e1 073c 80d3 84bd d824 ddbc b85f b73d
00000040: 361b fcbd 44e4 ecbd 6ece 8dbd 926f f03d
00000050: 3ec1 bb3d a085 95bb aad5 d93d 68dc fbbc
00000060: feb5 bf3d d2d8 c9bd 4ce7 563d e070 a93b
00000070: e6c1 fa3d 0ae4 8bbd 00fb a03a 3e19 d73d
00000080: 6271 96bd e886 42bd 0027 353b ce24 f13d
00000090: c878 c73d 7e52 ddbd 98e3 1f3d ba44 b7bd
000000a0: e29e f8bd 480a d0bc 4656 903d 567f aa3d
000000b0: c8f5 5a3d 0a30 de3d d8d7 b7bd 3e5f babd
000000c0: 7491 2d3d 2492 143d 7c76 443d 003b 40bd
000000d0: 12b3 893d 54af 703d 287f c7bc f81e 03bd
000000e0: 54a5 d13d 1e00 f1bd 509d 743c 7430 eb3d
000000f0: 4ccf ee3d 40ef 09bb 7851 44bd d68b a0bd
00000100: b815 2d3d a0a2 05bc f815 f6bd 70d0 613d
00000110: 6043 f5bd de9f a7bd 182d cdbc 2065 d03c
00000120: 2072 343c e0a0 133d d80f bcbc 7056 6b3c
00000130: 94d4 f2bd a0c8 2dbc 0470 923d 144b ad3d
00000140: 2820 cebd 420d 80bd e8c1 913d ca1a bbbd
00000150: 5e3b bebd 004e b43d 1ae3 f33d 52b4 973d
00000160: bcc4 2abd 6885 aa3d 74b4 c6bd b836 07bd
00000170: bc7d 22bd 282a e8bd 686f b2bd 9c07 7abd
00000180: 0002 09ba e49f 4f3d 0c24 25bd c8ef 1dbd
00000190: 5454 c5bd e0fa 4dbd be7d f8bd 7a80 e73d
000001a0: 082e 9f3c 7a9b fdbd a058 91bd 226f b53d
000001b0: 2012 823d 0078 f4b9 accc 4ebd 3ccf 16bd
000001c0: f4d8 ed3d e06b bc3d 0074 72ba 407c e6bb
000001d0: d8ef 93bc e0f6 7fbd e0c5 c4bb 3488 40bd
000001e0: 90c6 213c 10f3 59bd a619 8abd 1c24 483d
000001f0: 1617 913d 8003 8c3a 648a cebd 00db b13a
00000200: 5067 7cbd 00a0 59b8 4456 e03d ec5d b8bd
00000210: 68fa 1e3d 1c84 c03d 805d 763b 5663 eebd
00000220: ca4f a1bd 98f7 8abd c8e9 c93d a031 3a3d
00000230: 3663 a7bd 3a09 b5bd e0c2 a03c c250 e5bd
00000240: 3081 2cbc d228 f23d 9800 eabc e0e1 a4bc
00000250: 929c fcbd 9481 fa3d 7406 063d 90a8 c53d
00000260: f620 a73d 2c29 af3d 62d1 9bbd 408a f2bb
00000270: c8fc 723d 92e6 fc3d 26e1 8d3d bce3 53bd
00000280: 863f c13d a86a adbc 0627 8a3d 9c64 9e3d
00000290: b87d d4bd bcb3 efbd 8ed9 ae3d b8b8 92bd
000002a0: 5eb8 de3d a075 cd3d aa62 9abd d698 e3bd
000002b0: ec2d 963d 0411 7abd 1a38 fb3d 8cf6 bc3d
000002c0: 0465 3c3d 1023 a93d 107d ca3c e6a4 edbd
000002d0: 9057 f63d 628d e5bd ac95 a63d ecbb a83d
000002e0: 0834 1c3d c887 9fbc 622f 813d 6c22 e7bd
000002f0: 80b8 b33d 7845 fc3d ba53 ffbd ee4f 8b3d
00000300: 9878 ef3c 8cb0 2d3d ba97 c43d dc05 f73d
00000310: 2cff 173d 44cc a33d 7817 10bd 6688 863d
00000320: 3874 9f3c 0c0b 063d 6cb4 2b3d c853 eb3d
00000330: 1421 f33d 58b1 853d dc5e 7c3d 2e8b a2bd
00000340: 4ea9 99bd 0014 c6b9 92cd c0bd cccb 10bd
00000350: 28d9 a4bd 1c16 1d3d 8a6d c3bd 7076 43bd
00000360: fce4 193d 50a9 2e3d c27d a4bd 707f 463d
00000370: 30a9 383d 9054 6a3c 0079 a43b f81e a7bc
00000380: 181f 553d ec18 653d c64f a73d 9827 503d
00000390: e47f b83d 2823 d9bd 246c 6c3d 5051 0ebc
000003a0: e4b4 b5bd 18c6 563d da9c b73d 2ef3 a63d
000003b0: 2e7d f3bd 9a0e e3bd ae25 e7bd a80d 85bc
000003c0: 72fa f2bd 2025 dfbd 4a88 813d d01c 343d
000003d0: 9a18 833d 1ce5 9bbd c843 d9bc 5cd3 0e3d
000003e0: e8d0 c83c fc25 e33d fc6b c03d 8c12 49bd
000003f0: 3805 d13d 1222 a0bd 0822 fd3c d09b 6d3c

lstm.bias_ih_l0 f4 [256]
0.081967354 -0.0027160048 -0.11972913 0.03351052 0.09754546 -0.11886361 0.11153434 0.049287483
0.084092066 0.016151339 0.116011724 0.04457946 0.07299444 0.038960457 0.10061473 0.022290945
0.06181602 -0.11859208 0.10115807 0.006007284 0.053342238 -0.09691621 0.024158925 0.004214853
-0.06014803 0.03154385 0.075421065 -0.022014663 0.120336905 0.071052775 0.013054326 0.10785177
0.0028947592 -0.036142558 -0.007219106 0.012870312 0.10495579 0.108728155 0.12203351 -0.00407137
-0.11895718 -0.07922222 -0.049038112 -0.056103602 -0.0773042 -0.094666556 0.06355496 -0.11488004
-0.08764979 -0.03127542 0.11434536 -0.042941213 0.013224348 0.048848793 -0.06477846 -0.0093137175
0.12034468 0.056778133 0.0021942258 -0.08317962 -0.10487582 0.116911426 -0.0630357 0.03515929
0.041909277 0.00044572353 -0.055791706 -0.08130926 0.09220511 -0.020059273 0.025215104 -0.12333752
-0.0100390315 0.07290721 0.012715772 -0.063429534 0.0061691403 0.039939374 0.0055857003 -0.10280946
0.052092984 -0.0072558373 0.06304252 0.093454525 -0.031354144 0.048097238 -0.06426552 0.0146519095
-0.03557828 0.08161916 -0.1074215 0.096657515 0.03195004 0.034568936 0.05468674 -0.015325591
0.07051937 0.10806896 0.060515493 0.05192341 -0.019491106 0.1006414 0.012617633 -0.068101406
0.022822946 0.012298599 0.10020295 -0.014389962 -0.01558207 0.09472492 0.08919561 -0.022266403
0.102868274 0.05495362 -0.01962763 -0.0030591637 -0.08273476 -0.08138472 0.051262364 0.017484158
-0.08032513 0.04547903 0.093424305 -0.10058962 0.008866414 -0.12270588 -0.08083372 -0.035326853
0.0895876 0.060530722 -0.081919864 -0.0756187 0.047340885 -0.099733874 -0.006718248 0.07749316
-0.04869978 -0.076877415 -0.007240027 0.048336238 -0.016807184 -0.10911591 0.021743476 0.0977613
0.051804557 -0.06469652 -0.028746188 0.022585794 0.12187663 -0.0480154 -0.04615116 -0.12229772
-0.043503165 0.0022923201 0.08222392 -0.1029553 0.109556526 0.027318254 -0.04785922 0.033177167
0.017255336 0.07650629 -0.042420432 0.102954865 0.068048656 -0.11393213 -0.08147475 -0.004572913
0.10438821 -0.0708558 -0.051594898 0.03422098 -0.034620002 0.014319807 0.11243349 -0.10635729
0.02518484 -0.06879319 0.0026959628 -0.022686824 -0.027583987 0.06455602 -0.0932122 0.06338686
-0.10195884 -0.038657486 -0.057650357 0.1065657 0.09344956 0.094949156 -0.0030215234 -0.07307194
-0.024956152 0.09324227 -0.0958202 -0.054509044 0.08339104 -0.03775987 0.11378437 -0.013071403
0.10288808 0.12375496 0.09037584 0.0150909275 0.028213084 -0.04543273 0.072445646 0.016845956
0.03525701 0.075814635 0.014441654 0.071596384 -0.027718693 -0.04576184 -0.045027852 0.070151374
-0.070512295 -0.113505185 0.116303265 -0.09614821 -0.08926064 0.013304621 0.09692989 -0.09350957
-0.039574817 -0.11603129 -0.037528187 -0.07545075 0.09201138 0.018611714 0.044575438 0.06561737
-0.11788288 0.09421526 0.035685405 -0.099263 0.039918095 0.041578904 0.024154127 -0.08829759
-0.10886264 -0.09152727 0.03851664 -0.10758147 0.031483307 -0.05505912 -0.06578016 -0.0687927
0.017777562 0.120776966 0.005292326 -0.03582482 0.1138659 0.012131199 -0.06557521 -0.08762409
00000000: 80de a73d 00ff 31bb 8c34 f5bd 5442 093d
00000010: eac5 c73d c46e f3bd 1e6c e43d ace1 493d
00000020: 7638 ac3d d04f 843c 8e97 ed3d f498 363d
00000030: 1c7e 953d 0095 1f3d 180f ce3d 809b b63c
00000040: cc32 7d3d 68e0 f2bd f62b cf3d c0d8 c43b
00000050: 647d 5a3d 027c c6bd f0e8 c53c c01c 8a3b
00000060: c85d 76bd 2034 013d 5c76 9a3d 1858 b4bc
00000070: 3273 f63d 1e84 913d d0e1 553c 64e1 dc3d
00000080: 00b6 3d3b 380a 14bd 408e ecbb 00de 523c
00000090: 10f3 d63d deac de3d b4ec f93d 2069 85bb
000000a0: d29f f3bd 423f a2bd 30dc 48bd e4cc 65bd
000000b0: aa51 9ebd 8ae0 c1bd 1a29 823d 3a46 ebbd
000000c0: bc81 b3bd a81a 00bd e62d ea3d 20e3 2fbd
000000d0: f0aa 583c ac15 483d 92aa 84bd 9098 18bc
000000e0: 4677 f63d 3090 683d 00cd 0f3b 145a aabd
000000f0: 22c9 d6bd 426f ef3d dc18 81bd 3003 103d
00000100: 10a9 2b3d 00b0 e939 d885 64bd 7885 a6bd
00000110: 08d6 bc3d 5853 a4bc e88f ce3c 6298 fcbd
00000120: c07a 24bc 6050 953d d055 503c 58e7 81bd
00000130: 8026 ca3b 7897 233d 4008 b73b c48d d2bd
00000140: 745f 553d 60c2 edbb 701c 813d 1665 bf3d
00000150: 346d 00bd 9c01 453d a49d 83bd 900e 703c
00000160: 88ba 11bd f227 a73d ceff dbbd 60f4 c53d
00000170: 0cde 023d 2898 0d3d 34ff 5f3d 3018 7bbc
00000180: 766c 903d 4253 dd3d 18df 773d a4ad 543d
00000190: d0ab 9fbc 141d ce3d 30ba 4e3c c078 8bbd
000001a0: 30f7 ba3c 1080 493c 3437 cd3d e0c3 6bbc
000001b0: f04b 7fbc 24ff c13d 30ac b63d 0868 b6bc
000001c0: 9aac d23d 0c17 613d 20ca a0bc 407c 48bb
000001d0: d870 a9bd 08ad a6bd 7cf8 513d f03a 8f3c
000001e0: 8081 a4bd 3848 3a3d 3e55 bf3d ee01 cebd
000001f0: 7044 113c 384d fbbd 268c a5bd e4b2 10bd
00000200: b479 b73d 10ef 773d 9ac5 a7bd fadd 9abd
00000210: 84e8 413d 4641 ccbd c024 dcbb bcb4 9e3d
00000220: 6c79 47bd e871 9dbd c03d edbb 38fc 453d
00000230: 38af 89bc 2a78 dfbd 601f b23c 1437 c83d
00000240: 0431 543d 9c7f 84bd 207d ebbc d805 b93c
00000250: 749a f93d ccab 44bd 0009 3dbd 3a77 fabd
00000260: 6030 32bd c03a 163b 0465 a83d 3ada d2bd
00000270: 2c5f e03d 88ca df3c 0808 44bd c8e4 073d
00000280: 105b 8d3c 54af 9c3d 0cc1 2dbd 00da d23d
00000290: 185d 8b3d 4055 e9bd 3cdc a6bd 60d8 95bb
000002a0: 7cc9 d53d d81c 91bd 2c55 53bd 4c2b 0c3d
000002b0: b4cd 0dbd a09d 6a3c 8843 e63d dad1 d9bd
000002c0: 7050 ce3c 72e3 8cbd c0ae 303b b8d9 b9bc
000002d0: d0f7 e1bc f235 843d 0ae6 bebd f8d0 813d
000002e0: cccf d0bd 5057 1ebd c822 6cbd 1e3f da3d
000002f0: 7c62 bf3d b474 c23d c004 46bb bea6 95bd
00000300: d870 ccbc cef5 be3d 623d c4bd e044 5fbd
00000310: ecc8 aa3d 18aa 1abd c807 e93d 7029 56bc
00000320: fcb6 d23d 3e73 fd3d f816 b93d f03f 773c
00000330: 201f e73c ac17 3abd 625e 943d 8800 8a3c
00000340: a869 103d b444 9b3d b09c 6c3c 20a1 923d
00000350: 5012 e3bc c470 3bbd 206f 38bd 86ab 8f3d
00000360: c068 90bd 6875 e8bd 6830 ee3d 5ae9 c4bd
00000370: 48ce b6bd a0fb 593c 2e83 c63d f281 bfbd
00000380: 3419 22bd d0a1 edbd 28b7 19bd ec85 9abd
00000390: 7670 bc3d 9877 983c bc94 363d 6662 863d
000003a0: 946c f1bd eef3 c03d dc2a 123d 664a cbbd
000003b0: 2881 233d a44e 2a3d e0de c53c 5ed5 b4bd
000003c0: 60f3 debd a672 bbbd a0c3 1d3d ac53 dcbd
000003d0: a4f4 003d ac85 61bd c0b7 86bd 30e3 8cbd
000003e0: 40a2 913c ea59 f73d 406b ad3b 0cbd 12bd
000003f0: 8632 e93d f0c1 463c 4c4c 86bd 4274 b3bd

lstm.bias_hh_l0 f4 [256]
0.08254422 -0.060993373 0.0007317811 0.015533462 -0.10756737 0.10687244 -0.0010103136 -0.123467565
0.054710746 0.03970459 0.070303604 -0.009971306 0.033055708 0.1024639 0.1152596 0.031926766
0.03983155 0.06754969 0.07248248 -0.106341854 -0.10881963 -0.03056319 -0.114765525 -0.0011948049
0.00011265278 0.006996095 0.09471735 -0.10577871 0.100683 -0.09958479 0.036644146 0.0056070983
-0.065148294 0.062545925 0.119858146 0.10221274 0.11583768 -0.0960114 0.08411811 0.020277485
-0.094948575 0.037275597 0.014071509 0.122742146 0.050348014 0.020648032 -0.049431935 0.062469512
0.04428707 -0.07651298 0.04199335 -0.06498663 -0.008948922 0.10205299 -0.074774235 -0.047862455
0.06438048 -0.034443185 -0.040759057 -0.044643685 0.08971818 0.093585014 -0.108229995 0.06276567
0.09866245 0.007579431 -0.0506147 0.084292814 -0.04857692 -0.011016652 0.024403468 0.056054577
-0.092148855 0.03840536 -0.09180327 -0.009151608 -0.07544169 0.021734774 -0.108163446 -0.04087417
-0.12159714 -0.028781071 -0.007481605 0.101863846 0.06107436 -0.03356351 -0.08308472 0.12045267
-0.058430538 -0.09723179 -0.0027447194 0.05556856 -0.051577836 0.027196243 0.078202635 0.026462346
0.06530075 0.03315863 -0.088423416 -0.12373796 -0.00797677 0.0405574 -0.044868946 -0.10893421
-0.09795013 0.034361407 0.08292712 -0.086211726 -0.017315522 -0.03221999 -0.11372392 -0.08094257
-0.031031728 -0.11880034 -0.04553996 0.09498043 0.005195692 -0.065058604 -0.06907064 0.07920502
0.036926717 -0.1232672 0.09381756 0.048590362 -0.04364258 0.10692908 0.052825153 -0.022863597
-0.09056993 0.020280704 0.015117124 0.10490796 0.045154184 0.09516901 0.11877866 0.090542495
-0.07955705 -0.07946479 -0.022203699 0.095312566 0.07171589 0.107084766 -0.07845323 8.3372e-05
0.055185467 0.013690442 -0.0067530125 0.09162164 0.11097655 -0.015135065 0.055847943 0.049608916
-0.02661392 0.1064882 0.056897447 0.037920386 0.105243966 0.08600703 -0.1033054 0.018298417
-0.11030269 0.11926547 0.011429414 0.029925466 0.10210769 -0.07874258 0.01605013 0.07121761
-0.12235367 -0.098835796 0.061347768 0.038597956 -0.037186146 0.12341976 -0.07498774 0.015645102
-0.06037955 -0.09509167 0.020074993 0.10563342 -0.017470136 0.112298384 -0.024081558 0.0895904
-0.0021443963 -0.0013511181 0.051854372 0.047873035 -0.057226375 0.067117855 0.117152855 0.0053768456
0.006305486 -0.015708774 0.013315767 -0.07449092 -0.0872864 0.008890092 -0.08197352 0.022350013
0.12476607 0.03862962 -0.09497394 0.11061145 0.082514405 -0.06336957 0.09102173 -0.050853133
0.09697834 0.120953724 0.013269886 -0.0043387115 0.064422905 0.022082582 -0.07793872 0.07972863
0.034806028 -0.011445224 0.089400396 -0.06109579 -0.053130537 -0.007591456 -0.049176335 -0.07009235
-0.0027457178 0.0524105 0.048698872 -0.06959657 -0.0028928816 0.031271085 -0.0009498596 0.016908392
0.04771687 0.09644233 -0.08052312 0.01534836 0.07327825 -0.089028314 0.010321677 0.09224287
0.06547661 0.09216729 0.045976013 0.021181688 0.081876785 0.06659311 -0.08934297 -0.08948323
-0.07257275 -0.09834063 0.11795518 -0.08429003 -0.087965235 0.013777718 -0.12423846 0.020720497
00000000: f20c a93d 30d4 79bd 00d5 3f3a 1080 7e3c
00000010: 484c dcbd f0df da3d 806c 84ba 90dc fcbd
00000020: 6018 603d 48a1 223d 56fb 8f3d b05e 23bc
00000030: 6c65 073d 98d8 d13d 3a0d ec3d a4c5 023d
00000040: 6826 233d 7e57 8a3d b271 943d c2c9 d9bd
00000050: d4dc debd a85f fabc 300a ebbd 009b 9cba
00000060: 0040 ec38 803f e53b 2cfb c13d 82a2 d8bd
00000070: e432 ce3d 1cf3 cbbd 2c18 163d c0bb b73b
00000080: 786c 85bd 1418 803d 3078 f53d ea54 d13d
00000090: 4e3c ed3d a0a1 c4bd 1e46 ac3d f81c a63c
000000a0: 6674 c2bd 4cae 183d 308c 663c 3c60 fb3d
000000b0: b839 4e3d 1026 a93c 2479 4abd 08e0 7f3d
000000c0: 5c66 353d d6b2 9cbd 3801 2c3d b617 85bd
000000d0: 809e 12bc 2801 d13d 3c23 99bd 6c0b 44bd
000000e0: ead9 833d 4c14 0dbd f8f2 26bd 4cdc 36bd
000000f0: 2abe b73d 80a9 bf3d b0a7 ddbd 4a8b 803d
00000100: 8a0f ca3d e05c f83b 5c51 4fbd b6a1 ac3d
00000110: 98f8 46bd 307f 34bc c8e9 c73c 7c99 653d
00000120: 8ab8 bcbd f04e 1d3d 5a03 bcbd a0f0 15bc
00000130: 2c81 9abd 200d b23c cc84 ddbd ac6b 27bd
00000140: ec07 f9bd 48c6 ebbc 4028 f5bb fe9d d03d
00000150: 1c29 7a3d e479 09bd 5228 aabd e4af f63d
00000160: dc54 6fbd 7621 c7bd c0e0 33bb dc9b 633d
00000170: 4843 53bd a8ca de3c b428 a03d 90c7 d83c
00000180: 66bc 853d 58d1 073d 5617 b5bd 546a fdbd
00000190: 00b1 02bc 841f 263d 80c8 37bd e618 dfbd
000001a0: 149a c8bd 8cbe 0c3d b2d5 a93d c68f b0bd
000001b0: 48d9 8dbc 1cf9 03bd 16e8 e8bd 38c5 a5bd
000001c0: 4036 febc 984d f3bd 1c88 3abd 1a85 c23d
000001d0: a040 aa3b 723d 85bd e874 8dbd 3e36 a23d
000001e0: 7840 173d 8473 fcbd 6c23 c03d b006 473d
000001f0: 90c2 32bd a2fd da3d 305f 583d 704c bbbc
00000200: ba7c b9bd b823 a63c d0ad 773c fcd9 d63d
00000210: 98f3 383d f8e7 c23d 3a42 f33d 586e b93d
00000220: ceee a2bd 70be a2bd 88e4 b5bc 3c33 c33d
00000230: c8df 923d 424f db3d 16ac a0bd 00d8 ae38
00000240: 280a 623d e04d 603c 6048 ddbb 20a4 bb3d
00000250: ac47 e33d 10f9 77bc d0c0 643d b832 4b3d
00000260: 7005 dabc 7c16 da3d 4c0d 693d 6852 1b3d
00000270: 268a d73d 7424 b03d c891 d3bd 90e6 953c
00000280: 60e6 e1bd 7441 f43d 7042 3b3c 4026 f53c
00000290: d61d d13d ca43 a1bd 907b 833c 8ada 913d
000002a0: 9094 fabd 6c6a cabd cc47 7b3d e418 1e3d
000002b0: 8050 18bd 80c3 fc3d 2c93 99bd 282a 803c
000002c0: 8c50 77bd 6cbf c2bd 5074 a43c 5656 d83d
000002d0: 881d 8fbc b2fc e53d b046 c5bc 2c7b b73d
000002e0: 0089 0cbb 0018 b1ba 4065 543d 8416 443d
000002f0: 3466 6abd 1675 893d d6ed ef3d 4030 b03b
00000300: 409e ce3b b0af 80bc 602a 5a3c b28e 98bd
00000310: 36c3 b2bd c0a7 113c bce1 a7bd 6017 b73c
00000320: 5a85 ff3d 183a 1e3d b281 c2bd 4288 e23d
00000330: 50fd a83d e8c7 81bd 9a69 ba3d 604b 50bd
00000340: 949c c63d 96b6 f73d f069 593c c02b 8ebb
00000350: 28f0 833d 88e6 b43c 569e 9fbd c448 a33d
00000360: c490 0e3d c084 3bbc 8e17 b73d 943f 7abd
00000370: 689f 59bd c0c1 f8bb 206d 49bd 948c 8fbd
00000380: 80f1 33bb 64ac 563d 7878 473d a688 8ebd
00000390: 8096 3dbb 1c16 003d 0000 79ba 7883 8a3c
000003a0: c472 433d 8e83 c53d 4ee9 a4bd b077 7b3c
000003b0: e812 963d 7a54 b6bd 401c 293c d4e9 bc3d
000003c0: 9a18 863d 34c2 bc3d 5851 3c3d 3885 ad3c
000003d0: 04af a73d f861 883d 72f9 b6bd fc42 b7bd
000003e0: 06a1 94bd d066 c9bd 7c92 f13d 40a0 acbd
000003f0: 1e27 b4bd f0bb 613c bc70 febd 08be a93c

lstm.weight_ih_l1 f4 [256, 64]
-0.0541116 -0.090225995 0.08991869 0.0869052 -0.05107144 -0.12350078 0.111940086 -0.028133273
0.04109636 0.07124446 0.119942404 -0.1181775 0.1107582 -0.04459533 -0.107234545 -0.021249458
-0.06671913 -0.04066038 0.1224169 0.055120513 -0.12485053 -0.11013463 0.041150913 0.0839494
0.109748125 -0.054847796 -0.06864156 0.021603629 0.11140306 0.031611234 -0.10075979 0.0035260469
-0.072979175 -0.108967215 -0.060307637 0.10717668 0.10297194 0.05860737 0.038701236 -0.08380467
-0.060300395 0.096335545 -0.022200614 0.012406513 0.12314668 -0.11260867 -0.03469561 -0.048221122
0.011756778 0.046616614 -0.025856435 0.054648682 0.014669329 -0.11747712 -0.07796867 -0.10097703
-3.1738884e-06 -0.13218142 -0.03741552 -0.09085238 0.03122051 0.10772431 0.038358096 -0.010880202
-0.10717757 0.093687475 -0.12139757 -0.010405012 0.10539616 0.02050428 0.07923818 0.10219614
0.097011864 -0.03919913 0.01792464 0.039253928 0.07974574 -0.013860569 0.08635207 -0.0333122
0.07307988 0.08726925 0.015895396 0.09455933 -0.04469782 -0.103158966 0.050946966 -0.091383874
-0.11768192 -0.031237109 0.13490234 0.11100635 -0.099381804 -0.068572536 0.09879875 0.027122632
0.07495677 -0.11114363 -0.032315522 0.018836558 0.04847142 0.08340475 -0.095059186 0.09727247
-0.1014013 0.051038593 -0.106007576 -0.026317388 0.06099312 -0.0143754035 0.056225717 -0.100250125
-0.106621355 0.12382348 0.06627029 0.088005364 -0.02585122 0.11285661 -0.030887768 0.097217396
0.13421036 0.01827759 -0.08734499 -0.12354618 -0.07933435 -0.03438115 0.11407228 0.03226064
-0.054736823 0.052324608 0.03035514 -0.014565454 -0.044171046 -0.027658924 -0.11507119 0.011010006
0.11220248 -0.01979205 -0.05581673 -0.09779177 0.14021434 0.054332003 -0.039302677 -0.102795854
-0.028365262 -0.092644125 0.061125502 0.08177996 -0.058440834 -0.027054593 -0.040925145 0.031597957
-0.008352354 -0.07540541 -0.097235344 -0.118401274 0.089827746 0.07123591 0.004038751 -0.11324757
-0.024388237 0.12123892 0.012642235 0.081573024 -0.017595157 -0.094055146 -0.04432711 0.07636477
0.0014797151 -0.0022308081 -0.10023272 9.033084e-05 -0.03428699 -0.07375713 0.04701619 -0.042372044
-0.020331785 0.02580811 0.037885964 -0.054449186 0.014866605 0.038559794 0.04885994 0.065625906
-0.088970244 -0.009140166 0.015653595 0.11177406 -0.104046494 0.06717813 -0.04782223 0.039731726
-0.11493267 -0.08563119 0.08526412 0.005494145 0.055431344 -0.10643937 0.016557857 0.11208774
-0.026359662 0.12193023 -0.037977844 -0.08218316 0.084543 0.013230576 0.079015456 -0.10099964
-0.001941091 -0.009492174 0.054463655 -0.002334997 0.097683966 -0.0455731 -0.04513739 0.09375499
-0.03902468 -0.06951921 0.11479071 0.041733086 -0.0904388 0.12151444 -0.12105237 -0.066681325
-0.018690968 0.12152597 -0.09638293 0.02888839 -0.051928803 0.08718894 0.10559423 0.0913326
0.07246986 -0.09111826 0.04256326 0.080276236 0.10426171 0.041923627 -0.09132172 0.04254319
-0.12163235 0.031289205 0.05689296 -0.08894062 -0.084673 0.1066764 -0.059460133 -0.036893815
0.042653132 -0.110153615 -0.06182897 0.059873134 -0.038777202 0.101288095 -0.070994556 0.0060840696
00000000: 20a4 5dbd 68c8 b8bd 4a27 b83d 5afb b13d
00000010: 4930 51bd faed fcbd d840 e53d c077 e6bc
00000020: a854 283d 9ee8 913d 5da4 f53d 0c07 f2bd
00000030: 32d5 e23d 98a9 36bd c99d dbbd 5813 aebc
00000040: 0aa4 88bd 808b 26bd b6b5 fa3d 0cc6 613d
00000050: a2b1 ffbd 448e e1bd dc8d 283d aaed ab3d
00000060: a0c3 e03d 15a8 60bd f293 8cbd 18fa b03c
00000070: 4a27 e43d c87a 013d 265b cebd 4015 673b
00000080: 1b76 95bd 342a dfbd 2405 77bd 727f db3d
00000090: f4e2 d23d 480e 703d 3085 1e3d c8a1 abbd
000000a0: 8cfd 76bd 924b c53d 10de b5bc b044 4b3c
000000b0: 5434 fc3d 609f e6bd fc1c 0ebd 8383 45bd
000000c0: 809f 403c 10f1 3e3d e0d0 d3bc 4cd7 5f3d
000000d0: a057 703c d897 f0bd 0aae 9fbd 0ccd cebd
000000e0: fdfe 54b6 915a 07be 0441 19bd d010 babd
000000f0: 28c2 ff3c 909e dc3d 611d 1d3d e042 32bc
00000100: ea7f dbbd 38df bf3d 4a9f f8bd c979 2abc
00000110: f1d9 d73d 98f8 a73c a047 a23d 364c d13d
00000120: 28ae c63d 448f 20bd b2d6 923c bac8 203d
00000130: bc51 a33d 7117 63bc 5bd9 b03d 6072 08bd
00000140: e7aa 953d 38ba b23d 1037 823c 52a8 c13d
00000150: 1015 37bd 0245 d3bd c4ad 503d 7827 bbbd
00000160: 3803 f1bd f7e4 ffbc d723 0a3e 4c57 e33d
00000170: b088 cbbd c26f 8cbd 0057 ca3d 4830 de3c
00000180: ef82 993d 469f e3bd 485d 04bd 204f 9a3c
00000190: f889 463d 1cd0 aa3d 64ae c2bd ca36 c73d
000001a0: 7cab cfbd d80d 513d 801a d9bd 9097 d7bc
000001b0: ecd3 793d d086 6bbc f04c 663d f04f cdbd
000001c0: 4c5c dabd 2a97 fd3d b8b8 873d 283c b43d
000001d0: f0c5 d3bc 5e21 e73d 5808 fdbc ea19 c73d
000001e0: 716e 093e e2ba 953c eee1 b2bd c805 fdbd
000001f0: 0c7a a2bd 40d3 0cbd ba9e e93d bc23 043d
00000200: b833 60bd 5452 563d 58ab f83c f1a3 6ebc
00000210: b3ec 34bd f894 e2bc 72aa ebbd 5063 343c
00000220: 6aca e53d f022 a2bc 15a0 64bd 0d47 c8bd
00000230: 5994 0f3e 3c8b 5e3d d8fb 20bd a286 d2bd
00000240: 445e e8bc 34bc bdbd bc5e 7a3d 407c a73d
00000250: a85f 6fbd 98a1 ddbc 20a1 27bd dc6c 013d
00000260: 50d8 08bc 276e 9abd 5323 c7bd 5e7c f2bd
00000270: 9cf7 b73d 22e4 913d 8057 843b 58ee e7bd
00000280: d7c9 c7bc 1c4c f83d 6021 4f3c c20f a73d
00000290: b823 90bc fc9f c0bd 5890 35bd 2265 9c3d
000002a0: 00f3 c13a c032 12bb d046 cdbd 0070 bd38
000002b0: 8470 0cbd fa0d 97bd 0c94 403d 4f8e 2dbd
000002c0: d88e a6bc 886b d33c 502e 1b3d 1c06 5fbd
000002d0: 1093 733c e0f0 1d3d 5c21 483d e066 863d
000002e0: 0836 b6bd a3c0 15bc f83b 803c cce9 e43d
000002f0: 5416 d5bd b094 893d 3ee1 43bd bcbd 223d
00000300: d261 ebbd 685f afbd f49e ae3d 3b08 b43b
00000310: fa0b 633d e2fc d9bd 58a4 873c 428e e53d
00000320: 38f0 d7bc 8eb6 f93d a88e 1bbd a54f a8bd
00000330: e124 ad3d 0fc5 583c dbd2 a13d e6d8 cebd
00000340: 356c feba 1085 1bbc 4815 5f3d c006 19bb
00000350: 880e c83d dcaa 3abd fce1 38bd 9e02 c03d
00000360: 58d8 1fbd 1660 8ebd 6417 eb3d 50f0 2a3d
00000370: fa37 b9bd 90dc f83d 4eea f7bd 3890 88bd
00000380: cd1d 99bc 9ce2 f83d 6a64 c5bd 58a7 ec3c
00000390: 4cb3 54bd 1d90 b23d ca41 d83d 960c bb3d
000003a0: 146b 943d 369c babd d056 2e3d de67 a43d
000003b0: 2a87 d53d 1cb8 2b3d e206 bbbd c541 2e3d
000003c0: 621a f9bd 1c29 003d 9808 693d 8026 b6bd
000003d0: 0a69 adbd 2879 da3d 788c 73bd f81d 17bd
000003e0: 0db5 2e3d 3898 e1bd 6040 7dbd 883d 753d
000003f0: d8d4 1ebd 2270 cf3d 9865 91bd e05c c73b

lstm.weight_hh_l1 f4 [256, 64]
-0.02400126 0.102513835 0.034210946 -0.09067273 -0.037760243 0.053923875 -0.12870453 -0.0042624413
-0.08619226 -0.13059689 -0.06689803 -0.03493577 0.07108251 0.09351181 0.026495334 0.14535925
0.12851773 -0.06671151 -0.050274488 0.08187267 0.042881474 -0.13473468 -0.05180789 0.04618714
-0.09221698 0.14646658 -0.069550075 -0.096798874 -0.06958544 0.1398125 0.01844414 0.027852202
0.036973484 0.005193041 0.059302 -0.097089745 -0.038881533 0.13407746 -0.0310179 -0.12408517
-0.01694737 -0.09306286 0.027766183 -0.013194168 -0.0897651 -0.07532968 0.05092285 -0.032400213
0.07339737 -0.04121165 0.103107385 -0.030916499 -0.060009044 0.028396705 -0.03329224 -0.03556705
-0.057286825 0.11587864 0.032769214 0.06051556 -0.009084942 -0.0840157 0.018834148 -0.00017052118
0.05526906 0.007502002 -0.09293845 0.004086074 0.051577672 0.015213586 0.04017386 0.12667969
0.09148267 0.105431266 -0.027390718 -0.044526882 0.013570435 0.041568253 0.10672637 -0.0402873
-0.018693993 -0.11982679 -0.025882622 0.10271355 0.007808704 -0.13838881 0.07265209 -0.058114767
-0.1342723 -0.014547445 0.010467451 0.046065528 0.0037178828 -0.035388235 0.09436104 -0.035354063
0.09926491 -0.09647411 0.067542076 -0.09467914 -0.02600056 0.057862498 -0.04782323 -0.12481236
-0.07999801 0.015653977 -0.055681746 0.07308569 -0.0059526768 -0.012951028 -0.06121116 0.074291594
0.13159722 -0.025468862 -0.051932726 0.004915748 -0.074816056 0.123777665 0.04731935 -0.045969978
0.034398504 0.020634726 -0.06412615 -0.103884056 -0.09778132 0.027053086 0.008934088 -0.04145536
0.12370773 0.11379314 0.0011852591 0.09323881 0.10027598 -0.061315425 0.009256744 0.06672245
-0.048258167 0.07093827 -0.10738845 -0.045760002 -0.03198072 0.015091183 -0.057016537 -0.056684338
-0.017521614 0.08357568 0.0676267 0.09792543 -0.00093814585 0.10370216 -0.065214194 0.03351563
-0.09478671 0.036014643 0.087307826 -0.042426918 -0.12293574 0.13605553 0.028626306 -0.025446594
0.049690038 -0.13094085 0.054525405 -0.0754027 0.066396125 -0.09032044 0.11167126 0.06137294
-0.13731691 0.084769666 0.13489252 0.086690016 0.06745548 0.038380597 -0.024917467 0.0072358027
-0.023793599 -0.06709456 0.020674337 -0.117581286 0.077918105 -0.039374135 0.005958287 0.124068856
0.120463185 0.02976608 0.08284429 -0.051819045 -0.04307017 0.009071184 -0.0497025 -0.050422437
0.10948027 0.02704936 0.104119204 -0.002916703 -0.017720798 -0.09499186 0.08346572 -0.032648887
0.009040277 -0.05502266 -0.08495689 -0.027666118 0.03850079 -0.11411605 -0.0058265124 -0.017728971
0.10224232 0.059359696 -0.026649326 -0.062029563 -0.03953058 -0.09157622 -0.07627396 0.1307102
-0.07892494 0.04997742 0.066056296 0.04117931 0.0634541 -0.08664236 -0.092988774 -0.02759196
0.024531266 0.047192935 0.009732182 -0.084750675 0.10529669 -0.01367772 0.075405225 -0.0067851245
-0.07841022 -0.012142217 0.03751239 -0.051199973 -0.045411088 0.08962733 -0.019349374 -0.06042312
-0.059239358 0.044023655 0.021414256 -0.02949018 -0.007266559 0.0018365522 -0.016219685 0.04680749
0.13518924 -0.016928256 0.028888088 0.06136536 -0.09397133 -0.02542165 -0.042698625 0.03025633
00000000: 4a9e c4bc c6f2 d13d c720 0c3d a0b2 b9bd
00000010: 7caa 1abd 48df 5c3d 1fcb 03be f3ab 8bbb
00000020: 9185 b0bd 31bb 05be d601 89bd cf18 0fbd
00000030: b593 913d 1f83 bf3d be0c d93c 0ed9 143e
00000040: 279a 033e 0ba0 88bd 9fec 4dbd dcac a73d
00000050: 7ca4 2f3d e3f7 09be 8334 54bd ba2e 3d3d
00000060: 42dc bcbd 56fb 153e 4570 8ebd 7d3e c6bd
00000070: d082 8ebd 022b 0f3e 2a18 973c 4d2a e43c
00000080: 8271 173d 632a aa3b a7e6 723d fdd6 c6bd
00000090: 3e42 1fbd 9a4b 093e 4019 febc 5e20 febd
000000a0: 36d5 8abc be97 bebd e875 e33c 5a2c 58bc
000000b0: c4d6 b7bd 7346 9abd 7a94 503d 16b6 04bd
000000c0: 5c51 963d 8ccd 28bd f729 d33d 9944 fdbc
000000d0: 0bcc 75bd 35a0 e83c 725d 08bd c1ae 11bd
000000e0: 97a5 6abd c851 ed3d 0339 063d 2adf 773d
000000f0: 02d9 14bc 6c10 acbd 124a 9a3c eecd 32b9
00000100: cf61 623d 5bd3 f53b 8456 bebd 79e4 853b
00000110: 1c43 533d 6842 793c 588d 243d 52b8 013e
00000120: 445b bb3d 59ec d73d 8062 e0bc d261 36bd
00000130: 8856 5e3c 7943 2a3d 5b93 da3d 4c04 25bd
00000140: 2524 99bc c067 f5bd cb07 d4bc 7b5b d23d
00000150: 28e0 ff3b ccb5 0dbe 9eca 943d c009 6ebd
00000160: ae7e 09be 6858 6ebc ac7f 2b3c 35af 3c3d
00000170: b9a7 733b 41f3 10bd 5c40 c13d 6ccf 10bd
00000180: 674b cb3d 3894 c5bd 8053 8a3d 23e7 c1bd
00000190: 20ff d4bc 3a01 6d3d 4be2 43bd 9f9d ffbd
000001a0: ffd5 a3bd c53c 803c 8b12 64bd f3ad 953d
000001b0: ac0e c3bb 8c30 54bc 8eb8 7abd 3126 983d
000001c0: 6cc1 063e 13a4 d0bc 69b7 54bd 4814 a13b
000001d0: 2939 99bd 257f fd3d efd1 413d 044b 3cbd
000001e0: 72e5 0c3d 280a a93c 9254 83bd 2ac1 d4bd
000001f0: 9341 c8bd 6f9e dd3c 4860 123c 18cd 29bd
00000200: 7a5a fd3d 610c e93d b25a 9b3a fdf3 be3d
00000210: 7e5d cd3d e225 7bbd 99a9 173c c8a5 883d
00000220: 5baa 45bd 1548 913d 7aee dbbd d76e 3bbd
00000230: 37fe 02bd 0241 773c 2c8a 69bd d62d 68bd
00000240: 7d89 8fbc ba29 ab3d de7f 8a3d 218d c83d
00000250: e7ed 75ba cc61 d43d 058f 85bd af47 093d
00000260: 891f c2bd 1784 133d 72ce b23d d9c7 2dbd
00000270: bcc5 fbbd 2452 0b3e b781 ea3c 6075 d0bc
00000280: c887 4b3d 5c15 06be 0856 5f3d bb6c 9abd
00000290: b1fa 873d ecf9 b8bd e7b3 e43d 3162 7b3d
000002a0: ce9c 0cbe b89b ad3d 4421 0a3e 898a b13d
000002b0: 1926 8a3d f934 1d3d b71f ccbc 501a ed3b
000002c0: cbea c2bc df68 89bd 3a5d a93c 75ce f0bd
000002d0: 8793 9f3d c646 21bd bc3d c33b d017 fe3d
000002e0: 67b5 f63d ffd7 f33c 44aa a93d 3540 54bd
000002f0: 596a 30bd 4e9f 143c d994 4bbd c287 4ebd
00000300: 3137 e03d 9f96 dd3c 733c d53d 2826 3fbb
00000310: 352b 91bc 188b c2bd 13f0 aa3d d7ba 05bd
00000320: ac1d 143c 715f 61bd e1fd adbd 0ea4 e2bc
00000330: 01b3 1d3d adb5 e9bd 54ec bebb 593c 91bc
00000340: 6c64 d13d 2723 733d b04f dabc b612 7ebd
00000350: d1ea 21bd 508c bbbd 8635 9cbd e5d8 053e
00000360: 66a3 a1bd 20b5 4c3d 8648 873d a3ab 283d
00000370: 39f4 813d 8d71 b1bd e670 bebd 8908 e2bc
00000380: cbf5 c83c 614d 413d bb73 1f3c c391 adbd
00000390: caa5 d73d 8418 60bc 0e6e 9a3d c055 debb
000003a0: 8a95 a0bd 26f0 46bc 98a6 193d 10b7 51bd
000003b0: fa00 3abd 898e b73d 9482 9ebc 3c7e 77bd
000003c0: f8a4 72bd 2652 343d f36c af3c 6495 f1bc
000003d0: 511c eebb 77b8 f03a 25df 84bc 36b9 3f3d
000003e0: 0c6f 0a3e 20ad 8abc b6a6 ec3c 3e5a 7b3d
000003f0: 0a74 c0bd 1041 d0bc c1e4 2ebd 1fdc f73c

lstm.bias_ih_l1 f4 [256]
0.11530103 0.020306323 0.12152228 0.1289732 -0.0017072125 -0.10244133 0.029433234 -0.10757952
0.13069966 -0.04846091 -0.06691256 0.01902861 0.09793929 0.05980719 0.06732021 -0.03448221
-0.095925406 -0.027004685 0.007844857 -0.021042489 -0.07733519 0.13216028 -0.003734298 -0.07746178
0.07285947 -0.08787909 0.060899135 0.09246122 -0.07972233 0.10732984 0.14017679 0.046318375
-0.08637254 -0.012990493 0.05032892 0.068041384 -0.03283055 -0.030964505 -0.065563366 0.07897291
0.0489808 0.12391768 -0.07416586 -0.0943777 0.040080473 0.07042518 -0.019363144 0.011465812
0.016640026 0.10837608 -0.09642136 -0.006392073 0.025490787 0.019968256 0.08752153 4.699222e-05
0.011528313 0.090121016 0.004223335 -0.00011821472 0.13460414 0.123700716 0.088820495 0.06258502
-0.08270127 0.09951712 0.14100744 0.105936676 0.008417047 -0.07049654 -0.07919042 0.12982796
-0.08809563 0.031084983 0.021610688 0.017301686 -0.03638407 0.012228587 -0.084104836 0.052938614
0.10016664 0.12683463 0.040254075 0.115557626 -0.053604465 0.062137425 0.10173353 0.017217143
0.1009927 0.13351166 -0.07332303 0.034339894 -0.011147926 -0.094614856 0.05928201 -0.08112084
0.07100656 0.10225626 -0.011447605 -0.012605829 -0.035707492 0.010656286 0.13013214 0.09984777
0.013455263 0.03797994 0.06062153 0.012591071 0.11245933 0.13770078 0.005185602 0.024427168
0.008978777 0.14108688 -0.032880712 0.07135426 -0.08178037 0.05642144 -0.031428643 -0.08561677
0.09262209 0.0056538247 0.10488426 0.04130699 0.005170431 0.03078318 -0.008995424 0.106031835
-0.03862332 0.11887158 -0.07666913 -0.0749288 -0.03934214 -0.070913166 -0.082158536 -0.014916896
-0.06254038 0.009260523 -0.078109786 -0.104322985 -0.012808402 0.049594164 0.10320143 0.01623079
0.04410215 -0.11992138 -0.09797293 -0.015190532 0.071426034 -0.107147396 -0.09802503 0.06958423
-0.015402356 -0.033248782 -0.062383026 -0.07223826 0.088323236 0.050281156 0.048984885 -0.016906302
0.12944247 -0.027927767 -0.008643851 -0.05953499 -0.029857153 -0.09019079 0.09961312 -0.06458709
-0.0024642583 -0.052611925 -0.008005124 0.08735517 -0.104139574 -0.020573398 -0.030566946 0.12293157
0.07362809 -0.077523395 0.0024051403 -0.008886462 0.03052575 0.03280346 0.023769675 0.074306205
-0.041284326 0.019842084 0.044292167 -0.009317656 0.11922378 0.08652182 -0.0013029939 0.0020375259
-0.0535412 0.019518467 0.100690246 0.07451663 -0.07395426 0.112561636 0.109204486 -0.045318745
0.06478936 -0.05332824 -0.03972804 0.10256685 -0.008196596 0.0033307713 -0.02777187 0.07513696
-0.0080462005 0.12049997 0.106525615 0.0620505 0.13226077 0.13397205 -0.027785823 0.040945638
-0.031097881 -0.047729228 0.004974078 0.07856033 0.072250634 0.0041545182 -0.01259369 0.13175032
-0.008391415 0.09351783 -0.073788024 0.086314514 -0.0074254405 0.110756695 0.10672556 0.007121928
-0.026434137 -0.0015088932 -0.018823244 0.10642662 0.02493551 -0.025356825 -0.08707272 -0.04132766
-0.0379592 0.03365893 -0.08586774 -0.03981416 -0.05900952 0.07875012 0.10718221 -0.075985335
0.011962937 0.049955826 0.13436057 -0.041729998 0.05252133 0.007144956 0.031819135 -0.027805572
00000000: f222 ec3d 7259 a63c ace0 f83d 8d11 043e
00000010: 8cc4 dfba c3cc d1bd f71d f13c a752 dcbd
00000020: 22d6 053e f27e 46bd 7409 89bd e3e1 9b3c
00000030: 6594 c83d 62f8 743d 2edf 893d 383d 0dbd
00000040: 8a74 c4bd ee38 ddbc b787 003c 4c61 acbc
00000050: e961 9ebd 0655 073e 20bb 74bb 48a4 9ebd
00000060: 5937 953d f4f9 b3bd 5f71 793d 4f5c bd3d
00000070: 7645 a3bd bfcf db3d 818a 0f3e 56b8 3d3d
00000080: 16e4 b0bd 14d6 54bc b325 4e3d 4859 8b3d
00000090: 5479 06bd 46a9 fdbc 1646 86bd 8dbc a13d
000000a0: 17a0 483d 8dc8 fd3d 45e4 97bd 1849 c1bd
000000b0: 6c2b 243d 143b 903d 759f 9ebc 1adb 3b3c
000000c0: aa50 883c 47f4 dd3d 9078 c5bd 9874 d1bb
000000d0: 0ed2 d03c 7894 a33c 7d3e b33d 8319 4538
000000e0: 40e1 3c3c 5e91 b83d e763 8a3b 0bea f7b8
000000f0: abd5 093e cd56 fd3d 85e7 b53d 932c 803d
00000100: 495f a9bd a2cf cb3d 4164 103e 54f5 d83d
00000110: a7e7 093c 7d60 90bd 962e a2bd 9ff1 043e
00000120: 7b6b b4bd efa5 fe3c e608 b13c 44bc 8d3c
00000130: 7607 15bd 695a 483c 283f acbd 29d6 583d
00000140: 2b24 cd3d f0e0 013e 75e1 243d 7aa9 ec3d
00000150: 5b90 5bbd d083 7e3d ab59 d03d f70a 8d3c
00000160: 43d5 ce3d 48b7 083e 622a 96bd fda7 0c3d
00000170: caa5 36bc 6fc5 c1bd b1d1 723d af22 a6bd
00000180: e36b 913d bb6b d13d bc8e 3bbc ae88 4ebc
00000190: 0542 12bd b497 2e3c 5c41 053e fd7c cc3d
000001a0: 7773 5c3c db90 1b3d 484e 783d c84a 4e3c
000001b0: 1451 e63d 6f01 0d3e fceb a93b 7c1b c83c
000001c0: b81b 133c 1479 103e edad 06bd 2f22 923d
000001d0: 777c a7bd 2b1a 673d 52bb 00bd d857 afbd
000001e0: a6b0 bd3d b843 b93b 8fcd d63d 8531 293d
000001f0: b86c a93b 022d fc3c 8b61 13bc 3827 d93d
00000200: 7d33 1ebd f172 f33d b404 9dbd 4574 99bd
00000210: 3925 21bd ec3a 91bd bc42 a8bd ff65 74bc
00000220: 2c15 80bd 73b9 173c 06f8 9fbd 4aa7 d5bd
00000230: 55da 51bc 4023 4b3d 455b d33d 6ff6 843c
00000240: 75a4 343d 5799 f5bd 08a6 c8bd b6e1 78bc
00000250: d047 923d 1870 dbbd 59c1 c8bd 2d82 8e3d
00000260: 2a5a 7cbc e02f 08bd 5885 7fbd a7f1 93bd
00000270: d0e2 b43d 9df3 4d3d 60a4 483d 167f 8abc
00000280: 918c 043e c6c8 e4bc f09e 0dbc f6da 73bd
00000290: fd96 f4bc f3b5 b8bd f701 cc3d 3c46 84bd
000002a0: 657f 21bb 9a7f 57bd ec27 03bc 44e7 b23d
000002b0: 2147 d5bd 8b89 a8bc 8867 fabc 8cc3 fb3d
000002c0: 53ca 963d 96c4 9ebd 8f9f 1d3b 8698 11bc
000002d0: 2311 fa3c ec5c 063d 9fb8 c23c da2d 983d
000002e0: c119 29bd de8b a23c b46b 353d 15a9 18bc
000002f0: 992b f43d 5a32 b13d 38c9 aaba 0388 053b
00000300: 044e 5bbd 31e5 9f3c b036 ce3d 2d9c 983d
00000310: 5575 97bd b786 e63d 9aa6 df3d 26a0 39bd
00000320: 49b0 843d b66e 5abd dfb9 22bd 920e d23d
00000330: 044b 06bc 1249 5a3b d581 e3bc 68e1 993d
00000340: 36d4 03bc b0c8 f63d 1a2a da3d aa28 7e3d
00000350: 5e6f 073e f82f 093e 189f e3bc 9db6 273d
00000360: fcc0 febc b97f 43bd 97fd a23b 3de4 a03d
00000370: 24f8 933d a022 883b c455 4ebc 8ee9 063e
00000380: 257c 09bc 4786 bf3d 2d1e 97bd aac5 b03d
00000390: 1c51 f3bb 68d4 e23d ee92 da3d 105f e93b
000003a0: 678c d8bc 0ec6 c5ba 3433 9abc 33f6 d93d
000003b0: 8e45 cc3c 1eb9 cfbc 2f53 b2bd 3147 29bd
000003c0: 1b7b 1bbd f2dd 093d 6ddb afbd 2c14 23bd
000003d0: f7b3 71bd be47 a13d 5982 db3d 339e 9bbd
000003e0: 3200 443c 7b9e 4c3d d195 093e 13ed 2abd
000003f0: 9b20 573d 3c20 ea3b c854 023d 83c8 e3bc
