models/ETHUSDT_lstm_20250822_033057.pth (torch, 244263 bytes, 11 tensors)

lstm.weight_ih_l0 f4 [256, 30]
0	0x3dea3cea	0.114374
1	0x3dc4e814	0.09614578
2	0x3d9a0e14	0.075222164
3	0x3da5b490	0.0809108
4	0xbc0f75a0	-0.008756071
5	0xbddf562a	-0.10905106
6	0x3d120ab4	0.03565474
7	0xbd15a208	-0.03653148
8	0xbde83f3a	-0.113401845
9	0xbc9304b8	-0.017946586
10	0x3dfd40c2	0.12365867
11	0xbd97447e	-0.07386111
12	0x3da819e4	0.08208063
13	0xbde03430	-0.10947454
14	0x3cc377d8	0.023860857
15	0xbd0e0e1c	-0.034681424
16	0x3ddc71ac	0.10763869
17	0xbccd8ac8	-0.02509059
18	0xbd6cc0a0	-0.05780089
19	0xbd64096c	-0.055673048
20	0xbdac373e	-0.08408974
21	0x3c9b4b80	0.0189569
22	0xbda86466	-0.082222745
23	0x3d759604	0.05995752
24	0xbcdc96e0	-0.026927412
25	0x3d5710e0	0.052506328
26	0x3dda048c	0.106453985
27	0x3dd65e38	0.104671896
28	0xbd723ac4	-0.059138075
29	0x3db6f4be	0.089333996
30	0xbc775630	-0.015096232
31	0x3dc2308a	0.09481914
32	0x3dd545d8	0.10413712
33	0x3ce11cb0	0.0274795
34	0xbd30f240	-0.043199778
35	0x3dd672c6	0.1047111
36	0x3c5b7080	0.013393521
37	0x3cad7920	0.021175921
38	0x3d607a88	0.054804355
39	0x3dcde0ac	0.100526184
40	0xbd38a338	-0.045077533
41	0xbdf4ed38	-0.119593084
42	0xbdf0901e	-0.11746238
43	0xbdd8df98	-0.10589522
44	0x3d97a486	0.07404427
45	0xbc96b070	-0.018394679
46	0x3b177500	0.002311051
47	0xbdfd4a4c	-0.12367687
48	0xbcecad80	-0.028891325
49	0x3dae1b5e	0.085013136
50	0x3d3cac48	0.046062738
51	0xbdb1627e	-0.08661364
52	0x3dc84de6	0.09780483
53	0x3d9b06c6	0.07569651
54	0xbde15bae	-0.11003815
55	0xbd0dd02c	-0.034622356
56	0xbdf92546	-0.121653125
57	0xbcc1f178	-0.023674712
58	0x3da6a4c8	0.08136898
59	0x3d97f2b8	0.07419342
60	0xbd5b7c5c	-0.053585395
61	0x3daf098c	0.08546743
62	0x3c0ae3d0	0.008477166
63	0xbd54b2a8	-0.051928192
64	0x3b62c6c0	0.0034603328
65	0xbd96ad30	-0.07357252
66	0x3b625fc0	0.0034541935
67	0x3dee0db2	0.11623706
68	0xbd77cb60	-0.060496688
69	0x3ba919e0	0.0051605552
70	0xbdf15856	-0.11784427
71	0xbd4461c4	-0.0479448
72	0x3d7176a0	0.05895102
73	0x3c548130	0.012970254
74	0x3d95e692	0.073193684
75	0xbcb053c0	-0.02152431
76	0xbc0ef890	-0.008726254
77	0xbd06f5cc	-0.032949254
78	0x3d36a1c4	0.044587865
79	0xbdb4bcfe	-0.0882511
80	0xbc7a7dc0	-0.01528877
81	0x3d90c968	0.07069665
82	0x3da0e2b4	0.0785574
83	0xbce5f938	-0.028072938
84	0x3d6f29b4	0.05838938
85	0x3d6f9f74	0.058501676
86	0x3d16bb08	0.03679946
87	0x3dac33f0	0.08408344
88	0x3cf91c70	0.030409068
89	0x3c578c40	0.013155997
90	0x3d22225c	0.03958355
91	0x3cfee550	0.031115204
92	0x3c288570	0.01028572
93	0x3d6063f4	0.054782823
94	0xbca35120	-0.019936144
95	0x389f8800	7.607043e-05
96	0x3dcdc7fe	0.10047911
97	0x3d991656	0.07474963
98	0x3b047240	0.00202097
99	0xbdc42326	-0.095770165
100	0xbdb87a08	-0.090076506
101	0xbd90f6cc	-0.07078323
102	0xbb9316a0	-0.004488781
103	0x3dc7f102	0.097627655
104	0x3c5f2150	0.013618782
105	0x3d7d6e40	0.06187272
106	0x3d1fac3c	0.038982615
107	0xbd258730	-0.040412128
108	0xbc4a2270	-0.012337312
109	0xbde8d770	-0.113692164
110	0x3d84eab6	0.0649008
111	0x3daaa396	0.08331983
112	0xbd8dec78	-0.069298685
113	0x3de0fd1c	0.10985777
114	0xbda58d02	-0.08083536
115	0x3d7b4b44	0.061351076
116	0xbdd0574e	-0.10172902
117	0x3d298b34	0.04139252
118	0x3d74fbf0	0.05981058
119	0xbde6c308	-0.11267668
120	0x3d568e64	0.052381888
121	0x3dd3b2ee	0.103368625
122	0x3da3a3f4	0.07990256
123	0x3d8bd19c	0.06827089
124	0x3d0a4b98	0.033763498
125	0xbdeabc54	-0.11461702
126	0x3df6e51e	0.120554194
127	0xbd687260	-0.0567497
128	0xbdfac9b2	-0.122455016
129	0x3db44698	0.08802527
130	0x3ccc52f0	0.024941891
131	0xbc7a3640	-0.015271723
132	0xbdb585a0	-0.088633776
133	0x3da7d7f0	0.08195484
134	0x3df6c72e	0.12049709
135	0xbc5f2ea0	-0.013621956
136	0xbde87d98	-0.1135208
137	0x3d820a4c	0.0634962
138	0xbd141d28	-0.036160618
139	0x3da55a2e	0.08073841
140	0x3daa8b84	0.08327392
141	0x3df869a2	0.12129523
142	0x3cc300f8	0.023804173
143	0x3c97e5d0	0.0185422
144	0x3ccfd520	0.02537018
145	0xbcf4f888	-0.029903665
146	0x3d7e2530	0.062047184
147	0xbde22780	-0.1104269
148	0x3d1bce74	0.038038686
149	0x3cee59a0	0.02909547
150	0x3d1c69e8	0.038186938
151	0x3db6b5f6	0.08921425
152	0x3b4c0980	0.0031133592
153	0xbd03b18c	-0.032151744
154	0xbd28aef4	-0.041182473
155	0xbd1d06cc	-0.03833656
156	0x3d69dccc	0.057095334
157	0xbdd6e480	-0.10492802
158	0x3c0bd180	0.008533835
159	0xbd35e7bc	-0.044410452
160	0xbd015da8	-0.03158346
161	0xbd142fc4	-0.036178365
162	0x3bfb7c00	0.007674694
163	0x3de8977e	0.1135702
164	0x3cc9ffa0	0.024658024
165	0x3d7214e4	0.059101954
166	0x3d3f6c30	0.046734035
167	0xbde2bb50	-0.11070883
168	0x3d3fe0ec	0.04684536
169	0x3dedbb50	0.11607993
170	0xbdf8c18e	-0.121462926
171	0xbd9d77c4	-0.07688859
172	0x3d64dc80	0.055874348
173	0xbd413d10	-0.047177374
174	0x3d9433ac	0.07236418
175	0x3baec4c0	0.005333513
176	0xbd86622c	-0.065616935
177	0x3de6b86a	0.11265643
178	0xbd4bbb38	-0.049739093
179	0xbdf6202c	-0.12017855
180	0xbd8d86da	-0.069104865
181	0xbd952720	-0.07282853
182	0xbbfe6f20	-0.007764712
183	0xbd186b84	-0.03721191
184	0x3c775230	0.015095279
185	0xbd34b1dc	-0.044114932
186	0x3c3aadc0	0.011393964
187	0x3df93c22	0.121696725
188	0xbd4d7f6c	-0.050170347
189	0xbded3326	-0.115820214
190	0xba467000	-0.000756979
191	0x3c6e03a0	0.014527231
192	0xbd34fb2c	-0.04418485
193	0xbc8dd190	-0.017311841
194	0xbd3d1cf8	-0.046170205
195	0x3df320a4	0.1187146
196	0xbdf1248e	-0.117745504
197	0xbde671c4	-0.11252168
198	0xbcb68628	-0.022280768
199	0x3aa34b80	0.0012458414
200	0xbdabee28	-0.08395034
201	0xbde10f4a	-0.10989244
202	0x3d1afc90	0.03783852
203	0x3d43787c	0.047722325
204	0x3d7af7f4	0.061271623
205	0xbdf0d5ce	-0.1175953
206	0x3dc4b176	0.096041605
207	0x3d06a034	0.032867625
208	0x3cda6780	0.02666068
209	0x3dca0652	0.09864487
210	0xbc092980	-0.008371711
211	0xbc91e4b8	-0.017809257
212	0xbd230fc0	-0.039809942
213	0x3dac7640	0.08420992
214	0x3c8ea298	0.017411515
215	0x3d8bb946	0.068224475
216	0xbaf24700	-0.0018484294
217	0x3dabb404	0.08383945
218	0xbd90535e	-0.07047151
219	0x3c3b4090	0.011428967
220	0xbd5522d8	-0.052035183
221	0xbd0d29d0	-0.034463704
222	0xbd5f3684	-0.05449535
223	0x3de2ddc4	0.11077455
224	0xbdda4470	-0.10657585
225	0xbd705718	-0.05867681
226	0x3c642a40	0.013926089
227	0x3cae3040	0.021263242
228	0x3d8721f8	0.06598276
229	0x3d7b4680	0.06134653
230	0xbce4aef8	-0.027915463
231	0x3d3951bc	0.045243964
232	0xbde7f692	-0.113263264
233	0x3defcb5e	0.11708711
234	0xbdc30a76	-0.0952348
235	0x3db62f86	0.08895783
236	0x3d77e508	0.060521156
237	0xba8fc380	-0.0010968298
238	0xbdf92b74	-0.12166491
239	0xbc73a3b0	-0.014870569
240	0xbddc3628	-0.10752517
241	0xbdd9a740	-0.106276035
242	0xbc4b7ea0	-0.0124203265
243	0xbd7a118c	-0.06105189
244	0xbd060f6c	-0.03272955
245	0x3d18e178	0.0373244
246	0xbdfb3236	-0.12265436
247	0xbd99c29e	-0.075078234
248	0x3cdeba70	0.02718851
249	0xbce31d90	-0.027724057
250	0x3d2efbc8	0.042720586
251	0x3dd02cf2	0.10164823
252	0xbd3cba3c	-0.046076044
253	0xbdc9d324	-0.09854725
254	0x3da2eea6	0.07955675
255	0xbdd88df0	-0.105739474

lstm.weight_hh_l0 f4 [256, 64]
0	0x3cd9e858	0.026600048
1	0x3ca57088	0.02019526
2	0xbd8e2174	-0.069399744
3	0x3d9d12d2	0.07669605
4	0xbd2ad598	-0.041707605
5	0xbcbb9140	-0.022896409
6	0x3d21ee34	0.03953381
7	0xbdcf814c	-0.10132083
8	0xbda3214c	-0.07965335
9	0xbd4b3aac	-0.0496165
10	0x3d03cabc	0.032175764
11	0x3d5b8af8	0.053599328
12	0xbd35da54	-0.044397667
13	0xbd38e2ec	-0.045138285
14	0x3cecd9d0	0.028912455
15	0xbcd60038	-0.026123151
16	0x3d01573c	0.031577334
17	0xbba1e6a0	-0.0049408227
18	0x3d8987be	0.06715344
19	0xbc6cd670	-0.014455423
20	0x3de40b6c	0.11134991
21	0x3d8c619c	0.06854555
22	0xbd825ab0	-0.063649535
23	0x3c9af978	0.018917784
24	0xbc38f570	-0.011288986
25	0x3c9371a0	0.017998517
26	0xbd167b14	-0.03673847
27	0x3aceaa00	0.0015767217
28	0xbdec4868	-0.11537248
29	0xbba007c0	-0.0048837364
30	0x3d414110	0.04718119
31	0x3d882966	0.06648521
32	0x3dac94ee	0.084268436
33	0xbd6fc528	-0.058537632
34	0x3cf8a2c0	0.030351043
35	0x3df2ecf8	0.118616045
36	0xbdc4a5e8	-0.096019566
37	0x3cc0e0f0	0.023544759
38	0x3cc00288	0.023438707
39	0xbde7588e	-0.11296187
40	0x3d9bf210	0.07614529
41	0x3dcbf8ce	0.09959565
42	0x3d776460	0.06039846
43	0xbc265810	-0.010152832
44	0xbbf4c3a0	-0.0074696094
45	0xbdfe167a	-0.12406631
46	0x3df119ca	0.11772497
47	0x3d9d93e6	0.07694225
48	0x3d6ab690	0.05730301
49	0xbda34d48	-0.079737246
50	0xbcd4e808	-0.025989547
51	0xbdbf82c4	-0.093511134
52	0xbcdc57d0	-0.026897341
53	0xbcd2fcf0	-0.025755376
54	0xbd98dad0	-0.0746361
55	0xbda671c8	-0.08127171
56	0x3cb5fbb0	0.02221474
57	0xbdfda26a	-0.12384494
58	0x3ca07858	0.019588634
59	0x3df70492	0.120614186
60	0xbdcca410	-0.0999223
61	0x3dc09b7c	0.09404656
62	0x3dd583aa	0.104255036
63	0xbda040f6	-0.0782489
64	0xbcd56e30	-0.026053518
65	0x3dc97d84	0.09838393
66	0x3dcf3b62	0.10118748
67	0x3cd670f8	0.026176915
68	0x3d3537c0	0.04424262
69	0x3be1a580	0.006886184
70	0xbdd2297e	-0.1026182
71	0x3d2ccb4c	0.042186067
72	0xbdc500d4	-0.096192986
73	0xbd5590f0	-0.052140176
74	0xbde53ea0	-0.111935854
75	0x3c8a8248	0.016907826
76	0x3db15c40	0.086601734
77	0x3d1aef70	0.037826
78	0xbdf24b2e	-0.11830746
79	0xbd801580	-0.06254101
80	0xbde489bc	-0.11159083
81	0xbdf43bc8	-0.11925465
82	0xbdf3e100	-0.1190815
83	0x3da9e866	0.082962796
84	0x3debf4d6	0.11521308
85	0x3d380274	0.044924214
86	0xbd1e3d3c	-0.038632616
87	0x3df575da	0.11985369
88	0x3dc4645c	0.095894545
89	0xbd5b6be8	-0.053569704
90	0xbbd6c280	-0.006553948
91	0xbdbcb05c	-0.092133254
92	0x3db401f4	0.08789435
93	0xbdf2ff40	-0.11865091
94	0x3d0e9f98	0.03482017
95	0xbdf2784e	-0.118393525
96	0x3ddbe8da	0.10737772
97	0x3d889b10	0.06670201
98	0xbdd146e6	-0.10218601
99	0x3d4720d0	0.048615277
100	0x3de5d12e	0.112215385
101	0x3defa492	0.11701311
102	0x3de2e9f2	0.11079778
103	0xbc819050	-0.015815884
104	0xbd44c09c	-0.04803525
105	0x3dd25e62	0.10271908
106	0xbc6bb5b0	-0.014386579
107	0xbd8013d4	-0.06253782
108	0xbd588af4	-0.05286689
109	0x3bcdd880	0.0062819123
110	0x3d9db36a	0.07700236
111	0x3dedaef8	0.11605638
112	0xbce553d8	-0.027994081
113	0x3c5bcf60	0.013416141
114	0x3d6428c4	0.05570294
115	0x3d87113c	0.06595084
116	0x3d147384	0.036242977
117	0xbc083270	-0.0083128065
118	0x3dff4a3a	0.124653295
119	0xbd48fe28	-0.049070507
120	0xbc2ec980	-0.0106681585
121	0xbda69e9e	-0.081357226
122	0xbd11f5fc	-0.03563498
123	0xbcf5a550	-0.029986054
124	0x3c3bf470	0.011471853
125	0xbdf20922	-0.11818148
126	0x3c6c9300	0.014439344
127	0xbd098b48	-0.033580095
128	0x3cec4b80	0.028844595
129	0xbd29982c	-0.041404888
130	0xbc9f5cc8	-0.019453421
131	0xbce79ae8	-0.028272107
132	0xbdf4460a	-0.119274214
133	0x3daa369a	0.08311196
134	0x3df5357e	0.119730935
135	0xbd1f8a2c	-0.03895013
136	0x3d062514	0.032750204
137	0xbddc01b2	-0.10742511
138	0x3ced0518	0.028933093
139	0x3ddcdaa4	0.1078389
140	0x3dad2656	0.084545776
141	0x3db57304	0.08859828
142	0x3d8ee98c	0.06978139
143	0xbdadab44	-0.08479932
144	0xbd46b52c	-0.048512623
145	0xbdaf247e	-0.08551882
146	0x3d015364	0.031573668
147	0xbc0f01f0	-0.008728489
148	0xbd148c40	-0.036266565
149	0xbda22244	-0.07916692
150	0x3cef05c8	0.029177561
151	0x3ca16e98	0.019706056
152	0xbdd9a0c6	-0.10626368
153	0x3de4add0	0.111659646
154	0xbddab84e	-0.106796846
155	0x3ce68e40	0.028144002
156	0xbd1fdd74	-0.039029554
157	0xbdaca0ea	-0.084291294
158	0xbdc7ff62	-0.09765507
159	0x3d496e98	0.049177736
160	0x3da5f33c	0.08103034
161	0xbdd31158	-0.103060424
162	0xbdf37046	-0.11886649
163	0xbd502648	-0.050817758
164	0x3d93106e	0.07180868
165	0x3d99a592	0.07502283
166	0x3da70e3a	0.081570104
167	0x3c14ebc0	0.00908941
168	0xbd91b51c	-0.07114622
169	0x3dfc5ba0	0.123221636
170	0x3ddebf2c	0.10876307
171	0xbd863cf6	-0.06554596
172	0xbd306740	-0.043067217
173	0xbbb7eec0	-0.005613178
174	0x3c963ca8	0.01833947
175	0xbdd1cba8	-0.102439225
176	0xbdc1410e	-0.09436236
177	0xbcba6ef0	-0.022757977
178	0xbdc2c384	-0.09509948
179	0x3dc5a7d6	0.09651153
180	0xbddca9a0	-0.10774541
181	0xbd8271dc	-0.06369373
182	0x3d1dfb20	0.03856957
183	0x3dfbebf0	0.12300861
184	0x3dc00ba6	0.09377222
185	0xbbc57e40	-0.006027013
186	0xbd6abcdc	-0.057309017
187	0x3daa773e	0.08323525
188	0x3dc00f90	0.09377968
189	0x3dd3c626	0.10340528
190	0xbda36b2a	-0.07979424
191	0x3da8ef28	0.082487404
192	0xbd0129d0	-0.031534016
193	0xbd4e7428	-0.050403744
194	0xbd863c72	-0.06554498
195	0x3d813bee	0.06310259
196	0x3dc12920	0.09431672
197	0x3ddece74	0.108792216
198	0x3c414920	0.0117972195
199	0x3deff2c4	0.11716226
200	0x3dd30e08	0.103054106
201	0xbd6d4760	-0.057929397
202	0x3d8a0b48	0.06740433
203	0xbda5aea4	-0.08089951
204	0xbc7df7d0	-0.015500978
205	0xbd80ab68	-0.06282693
206	0xbdf01c56	-0.11724155
207	0x3df73dc0	0.12072325
208	0x3bc2d720	0.005946055
209	0x3d9fccd6	0.07802741
210	0xbca39668	-0.01996918
211	0xbd40bdd8	-0.04705605
212	0xbd009278	-0.031389683
213	0xbd5ea7ac	-0.054359123
214	0x3def020a	0.11670311
215	0x3d892f8c	0.06698522
216	0xbd43c14c	-0.047791764
217	0xbbca1980	-0.0061675906
218	0x3dcc0632	0.09962119
219	0xb8f37800	-0.00011609495
220	0x3dd4fb38	0.10399479
221	0xbce42888	-0.027851358
222	0x3de56268	0.1120041
223	0x3c90fc18	0.017698333
224	0xbdf3c998	-0.11903685
225	0xbdd4de68	-0.10393983
226	0xbdcc95b6	-0.099894926
227	0x3df3bc52	0.119011536
228	0x3cb6cfe8	0.022315934
229	0x3d140a5c	0.036142692
230	0x3d99dfee	0.07513414
231	0xbd96064e	-0.07325421
232	0xbcafde08	-0.021468177
233	0x3c2344f0	0.009965166
234	0x3dc6c396	0.09705274
235	0xbd4c76ec	-0.0499181
236	0xbd33e9b8	-0.043924063
237	0xbdffbf74	-0.12487689
238	0x3c0d4f50	0.008624867
239	0x3dd4a266	0.103825375
240	0x3df883b2	0.12134494
241	0xbd5fd984	-0.0546508
242	0xbd752800	-0.0598526
243	0xbd3389fc	-0.043832764
244	0x3d2fd930	0.042931736
245	0x3d59d45c	0.053181037
246	0xbdb593fc	-0.088661164
247	0xbdeb6c34	-0.114952475
248	0x3d5fda68	0.054651648
249	0x3df6eb1e	0.12056564
250	0x3de85ba8	0.11345607
251	0x3c1e54d0	0.009663776
252	0xbdb7a954	-0.08967844
253	0xbda7c270	-0.08191383
254	0xbba4bbe0	-0.0050272793
255	0xbd9e01c0	-0.077151775

lstm.bias_ih_l0 f4 [256]
0	0x3df82dd0	0.12118113
1	0x3d90c3f4	0.07068625
2	0xbc246010	-0.010032669
3	0xbd8d2eb4	-0.068936735
4	0x3c2fc740	0.010728657
5	0x3cc28c38	0.023748502
6	0xbd5b8ac0	-0.05359912
7	0xbbb28780	-0.0054482818
8	0x3d440a3c	0.047861323
9	0x3c32a8a0	0.010904461
10	0xbd86014c	-0.06543216
11	0x3d5b8d64	0.053601637
12	0x3d2de7f8	0.04245755
13	0x3d181568	0.03712979
14	0x3cb58290	0.022156984
15	0xbd075840	-0.033043146
16	0x3d02c844	0.03192927
17	0xbd4d1674	-0.05007024
18	0x3d4455c0	0.04793334
19	0x3bceea40	0.006314546
20	0xbdc66ad8	-0.096883476
21	0x3de6dde2	0.112727895
22	0x3d9e7102	0.07736398
23	0x3d02953c	0.031880602
24	0xbd64a584	-0.05582191
25	0x3cb8c4e8	0.02255483
26	0xbd6a1c6c	-0.05715601
27	0x3ddfebda	0.10933657
28	0x3cea71c0	0.028618693
29	0x3d63a250	0.055574715
30	0x3d9d27aa	0.07673581
31	0x3dc9478c	0.098280996
32	0x3caffb30	0.02148208
33	0xbdc2125c	-0.09476158
34	0x3d7c1b68	0.061549574
35	0xbdda9f8a	-0.10674961
36	0x3de1b596	0.11020963
37	0x3d4fe764	0.05075778
38	0x3d8cf6a0	0.068829775
39	0x3dcca110	0.09991658
40	0xbae41100	-0.0017400086
41	0x3dde999a	0.10869141
42	0xbd93b42a	-0.07212098
43	0x3d0d8ea8	0.034559876
44	0xbd42de34	-0.04757519
45	0x3dfb6290	0.12274659
46	0xbd708a38	-0.058725566
47	0x3d9bc3c0	0.07605696
48	0xbd873078	-0.066010416
49	0x3dc4653a	0.0958962
50	0xbdeba07a	-0.11505218
51	0x3d943178	0.07235998
52	0xbde7855a	-0.11304732
53	0x3d65e1b8	0.056123465
54	0x3d990db2	0.07473315
55	0xbd9ffa3a	-0.07811399
56	0xbc63f380	-0.013913035
57	0xbd147688	-0.036245853
58	0xbdd0a634	-0.10187951
59	0xbdbd5724	-0.092451364
60	0xbdc28f32	-0.094999686
61	0x3d059f24	0.03262247
62	0x3dab16ac	0.08353934
63	0x3dec7bca	0.115470484
64	0xbdd86ca0	-0.105675936
65	0xbd8422da	-0.0645196
66	0x3d8a4a18	0.067524135
67	0x3d4799f8	0.04873082
68	0xbd560140	-0.052247286
69	0x3daf53d6	0.08560912
70	0xbcccef98	-0.025016591
71	0xbdf764fa	-0.120798066
72	0xbdf2615a	-0.118349746
73	0x3bd3d620	0.0064647347
74	0x3df4de12	0.11956419
75	0x3dab6dfc	0.08370587
76	0xbdc0d534	-0.09415665
77	0x3de7fb62	0.11327244
78	0x3ce8f440	0.02843678
79	0x3d342970	0.04398483
80	0x3d1ff3c4	0.039050832
81	0x38001000	3.053248e-05
82	0xbd8c5392	-0.06851877
83	0xbdad3870	-0.0845803
84	0x3dfeb6b0	0.124371886
85	0xbd2f3214	-0.042772368
86	0xbdb96966	-0.09053306
87	0x3dc015fe	0.09379195
88	0x3cd2db98	0.025739476
89	0xbd471b78	-0.04861018
90	0x3d67e4f8	0.056614846
91	0xbde97a2e	-0.11400257
92	0xbd58e388	-0.052951366
93	0xbd918738	-0.07105869
94	0x3dd5528e	0.10416137
95	0x3cfc3ed8	0.030791685
96	0xbd3b1f7c	-0.045684323
97	0xbc91c988	-0.017796293
98	0x3df85354	0.121252686
99	0x3c7322f0	0.014839873
100	0x3bec9300	0.007219672
101	0xbc245820	-0.010030776
102	0x3cc1ccb0	0.023657173
103	0xbdde263e	-0.10847138
104	0x3ceff868	0.029293254
105	0xbd35a494	-0.044346407
106	0xbd9a67ea	-0.07539351
107	0x3c916460	0.017748058
108	0x3d141f44	0.03616263
109	0x3dec8de2	0.115504995
110	0xbd89e45c	-0.06733009
111	0x3ddfd034	0.109283835
112	0xbdf09f16	-0.11749093
113	0xbd96dfcc	-0.073669046
114	0xbd96d576	-0.07364933
115	0xbd09dc34	-0.033657268
116	0xbcab3bb0	-0.020902485
117	0x3d118b4c	0.035533234
118	0xbde5cfd4	-0.11221281
119	0x3d76220c	0.060091063
120	0xbc777f50	-0.015106037
121	0x3ccfb100	0.025352955
122	0x3de55eb0	0.11199701
123	0xbd8c4676	-0.06849377
124	0xbd8c680e	-0.06855784
125	0xba1ef600	-0.00060638785
126	0xbcf7c6c0	-0.030246139
127	0x3ddcdc3c	0.10784194
128	0x3d5866e8	0.052832514
129	0x3d350518	0.04419431
130	0x3da575de	0.08079122
131	0xbded008c	-0.1157237
132	0xbdb5096c	-0.08839688
133	0xbd645ab4	-0.055750564
134	0xbdda6682	-0.10664083
135	0xbde519a2	-0.1118653
136	0xbd4a7f88	-0.04943803
137	0x3dc0372a	0.09385522
138	0x3cdf19b0	0.027233928
139	0xbd1ca9ec	-0.038247988
140	0x3d84cc02	0.06484224
141	0x3d945c9a	0.07244225
142	0x3d76a550	0.060216248
143	0x3d9e2bf8	0.0772323
144	0x3d949ba2	0.07256247
145	0xbdec4d44	-0.11538175
146	0x3ca40a20	0.02002436
147	0xbd6f940c	-0.058490798
148	0x3c9b8ef8	0.018989071
149	0x3dba7ecc	0.09106216
150	0x3da86bc8	0.08223683
151	0xbd3dd3a8	-0.04634443
152	0x3d838b80	0.06423092
153	0x3ca8a448	0.020586148
154	0x3ca81418	0.020517394
155	0xbd9e25f2	-0.07722081
156	0xbb37d080	-0.002804786
157	0x3d80f89c	0.062974185
158	0x3debd6b4	0.11515561
159	0xbd4cb6e0	-0.04997909
160	0x3dc25d60	0.09490466
161	0xbd1e2d30	-0.038617313
162	0x3d8f25ac	0.06989607
163	0x3d96a502	0.073556915
164	0xbde91b6c	-0.113821834
165	0xbcceb760	-0.025233924
166	0x3de010fa	0.10940738
167	0xbd6c23e8	-0.05765143
168	0xbde15e0a	-0.11004265
169	0xbdb1886c	-0.086685985
170	0x3dfef6a0	0.12449384
171	0xbda6b394	-0.081397206
172	0x3df14ada	0.11781855
173	0x3cacd398	0.02109699
174	0xbd44542c	-0.047931835
175	0xbd9dc02e	-0.07702671
176	0x3da94918	0.08265895
177	0x3dfe6fd4	0.12423673
178	0xbdc103e2	-0.09424569
179	0xbdca935c	-0.09891388
180	0xbddcff54	-0.107908875
181	0x3df0ba60	0.11754298
182	0x3de74da4	0.11294106
183	0x3d476de8	0.0486888
184	0xbc42c580	-0.011887908
185	0xbdd62880	-0.104569435
186	0x3daf2f12	0.085539
187	0xbcd51918	-0.026012942
188	0xbd703520	-0.058644414
189	0xbd28ba3c	-0.041193232
190	0x3d8b81c4	0.0681186
191	0xbdeebe8e	-0.11657439
192	0xbcb921a0	-0.022599041
193	0x3cc34f78	0.023841605
194	0xbcbac9d0	-0.02280131
195	0xbdf86436	-0.12128489
196	0xbd220f5c	-0.03956543
197	0xbdb8ea30	-0.09029043
198	0x3d81d9e6	0.06340389
199	0xbdca6cb0	-0.09884012
200	0xbd0bfdc0	-0.03417754
201	0x3d9fa9f4	0.07796088
202	0x3d067e48	0.032835275
203	0xbc8606b8	-0.016360626
204	0xbde59946	-0.11210875
205	0x3d762508	0.06009391
206	0x3db9752e	0.090555534
207	0xbdd0f390	-0.10202706
208	0xbdb2d594	-0.08732143
209	0xbdb5c1de	-0.08874868
210	0xbdd43508	-0.103616774
211	0xbc9bab80	-0.019002676
212	0x3d9ea022	0.07745387
213	0x3cbbd4e0	0.022928655
214	0x3dfae0f2	0.12249936
215	0xbd7e42d8	-0.062075466
216	0xbdf48a34	-0.11940423
217	0xbd769164	-0.06019725
218	0x3d31e34c	0.043429658
219	0x3ca59190	0.020211011
220	0xbd37217c	-0.044709668
221	0x3d4218e4	0.04738702
222	0x3dff2942	0.12459041
223	0xbcf58360	-0.029969871
224	0xbca4ee10	-0.020133048
225	0xbc1e2bd0	-0.009654
226	0xbbc41300	-0.0059837103
227	0xbc9c54b0	-0.01908335
228	0x3d8348f4	0.06410399
229	0x3cd71d58	0.02625911
230	0x3ba6cd80	0.0050904155
231	0x3c0d6a30	0.008631274
232	0xbd4d979c	-0.050193414
233	0x3defb6e8	0.117048085
234	0x3da5a870	0.080887675
235	0x3d751d98	0.059842676
236	0xbd5560bc	-0.052094206
237	0xbcd8eef8	-0.026481137
238	0x3d5c5078	0.05378768
239	0xbd04a288	-0.032381564
240	0xbd990dcc	-0.07473335
241	0xbd21dd60	-0.03951776
242	0x3c4e77f0	0.0126018375
243	0xbd24cfbc	-0.040237173
244	0x3ded986c	0.11601338
245	0x3d17b594	0.0370384
246	0x3d53a038	0.05166647
247	0x3dcc29e6	0.09968929
248	0xbdbb2280	-0.0913744
249	0xbdc6a504	-0.09699443
250	0xbdbe05c0	-0.092784405
251	0x3dd7c15e	0.10534929
252	0xbdebada2	-0.11507727
253	0xbdfbf1e0	-0.12301993
254	0xbd6d9440	-0.05800271
255	0xbde67094	-0.11251941

lstm.bias_hh_l0 f4 [256]
0	0x3caaa9c8	0.020832911
1	0x3d023870	0.031792104
2	0x3dda4ebc	0.10659549
3	0xbcdd9fb0	-0.027053684
4	0xbdbf00d6	-0.09326331
5	0x3bdeb780	0.0067967772
6	0x3c9f82c0	0.019471526
7	0x3da4e6d0	0.080518365
8	0xbd64ced4	-0.05586131
9	0x3dfa6164	0.12225607
10	0xbcedf150	-0.02904573
11	0x3d9630e2	0.073335424
12	0xbd84fb80	-0.06493282
13	0x3db35d10	0.08757985
14	0x3d80822a	0.06274827
15	0xbd92d686	-0.07169823
16	0xbde62366	-0.112372205
17	0xbd4f27b4	-0.050574973
18	0x3d3d6638	0.04624006
19	0xbcaa68e8	-0.020801976
20	0x3d8f558c	0.06998739
21	0x3d165c84	0.036709324
22	0xbda68e7c	-0.081326455
23	0xbdef2b9a	-0.11678238
24	0x3d454418	0.048160642
25	0xbdd2baf2	-0.10289563
26	0x3d83e3f6	0.064399645
27	0x3cf7b810	0.030239135
28	0x3dc25b2a	0.094900444
29	0xbd84aa26	-0.06477766
30	0xbd4182dc	-0.047243938
31	0x3d1f5d5c	0.038907394
32	0x3da65f56	0.08123653
33	0x3d8db682	0.06919576
34	0xbda101a6	-0.078616425
35	0x3dabae2a	0.083828285
36	0x3ce832c0	0.028344512
37	0xbc495eb0	-0.012290642
38	0x3d42cf08	0.04756072
39	0x3d93cc6c	0.07216725
40	0x3dba703c	0.09103438
41	0xbd4413c4	-0.047870412
42	0xbd87ffd2	-0.06640591
43	0x3d5aa560	0.05338037
44	0x3d3965c4	0.045263067
45	0x3c6f1bc0	0.014594018
46	0xbdc3efea	-0.09567244
47	0xbda63300	-0.08115196
48	0x3d5c2a74	0.053751424
49	0xbaec9680	-0.0018050224
50	0xbddadc3e	-0.10686539
51	0xbdf7c486	-0.12098031
52	0xbd9b0710	-0.075697064
53	0x3dcd97e8	0.100387394
54	0x3c1aa780	0.009439349
55	0x3d9c5680	0.07633686
56	0xbdd0e1da	-0.10199328
57	0x3d991778	0.074751794
58	0x3dcc9ab0	0.09990442
59	0x3dbcf484	0.09226325
60	0xbd8d7ee0	-0.06908965
61	0x3cd31518	0.025766894
62	0xbdee1a2e	-0.11626087
63	0x3c873f58	0.016509697
64	0xbd94aeac	-0.072598785
65	0x3d9c466c	0.076306194
66	0xbdabbdda	-0.08385821
67	0xbd3cfe44	-0.046140924
68	0x3c4a1ba0	0.012335688
69	0xbdc7ee68	-0.09762269
70	0x3d9536c8	0.07285839
71	0x3c8c9ca8	0.017164543
72	0x3d9b2ea8	0.07577258
73	0xbdeec55e	-0.116587386
74	0xbd97ce12	-0.07412352
75	0x3c419df0	0.01181744
76	0xbd9dd6d0	-0.07706988
77	0x3cdb9318	0.026803538
78	0x3cc96a68	0.024586871
79	0xbd47167c	-0.048605427
80	0xbdae4b1e	-0.08510421
81	0xbdf56372	-0.11981858
82	0xbda85838	-0.082199514
83	0x3ccd0020	0.025024474
84	0xbd88b212	-0.06674589
85	0x3d47beb4	0.048765853
86	0x3c3f0c80	0.011660695
87	0x3d6c6a34	0.05771847
88	0xbdd0da82	-0.10197927
89	0xbd383880	-0.044975758
90	0xbc045240	-0.008076251
91	0xbcb22c68	-0.02174969
92	0xbdedd84e	-0.116135225
93	0xbdab81b0	-0.08374345
94	0x3d21c7f8	0.039497346
95	0x3d697f00	0.057005882
96	0x3db30c28	0.08742553
97	0x3c930eb8	0.017951354
98	0x3ca00218	0.019532248
99	0x3d9121b0	0.070865035
100	0x3db9958a	0.090617254
101	0x3ce05428	0.027383879
102	0xbd227c00	-0.039669037
103	0xbdac08d4	-0.08400121
104	0x3d838b58	0.06423062
105	0xbdb537fe	-0.0884857
106	0x3d911a40	0.07085085
107	0xbdf8f29c	-0.12155649
108	0xbdabb0d0	-0.08383334
109	0x3df03e4a	0.11730631
110	0xbc60a740	-0.0137117505
111	0xbde98a0c	-0.114032835
112	0xbd262bc4	-0.040569082
113	0xbcd4f638	-0.025996312
114	0x3d818e56	0.063259766
115	0x3d336778	0.043799847
116	0xbdd8b7b2	-0.10581912
117	0xbbc14960	-0.0058986396
118	0xbdca701a	-0.09884663
119	0xbd8434a8	-0.06455356
120	0xbd814516	-0.06312005
121	0x3df5b13e	0.11996697
122	0x3d46bf3c	0.04852222
123	0xbde2222c	-0.11041674
124	0x3d1f15a8	0.038839012
125	0x3de1ac72	0.110192195
126	0x3d800484	0.06250861
127	0xbdcd38a2	-0.100205675
128	0x3cb679a0	0.022274792
129	0xbd6fe080	-0.05856371
130	0xbd7f4394	-0.062320307
131	0xbdceeab8	-0.10103363
132	0x3b2bc880	0.0026212037
133	0x3dd83064	0.10556105
134	0xbda5a690	-0.0808841
135	0xbd40aeac	-0.04704158
136	0xbdadc898	-0.08485526
137	0x3d9e82f8	0.07739824
138	0x3dba1fcc	0.09088096
139	0x3c9990a0	0.01874572
140	0xbc437e50	-0.011931971
141	0x3d20f3bc	0.039294943
142	0x3d6e5a80	0.058191776
143	0xbc1c2470	-0.009530172
144	0xbca45400	-0.020059586
145	0x3cfb1350	0.030648857
146	0xbd940466	-0.072274014
147	0xbd92d028	-0.07168609
148	0x3dad65d4	0.08466688
149	0xbde35714	-0.11100593
150	0xbd8ac420	-0.06775689
151	0x3da6f572	0.08152284
152	0x3be95da0	0.0071217567
153	0x3dcc7958	0.09984082
154	0xbdeaf526	-0.114725396
155	0xbc4a73e0	-0.012356728
156	0xbd8fe63c	-0.070263356
157	0xbd1c5bc4	-0.038173452
158	0xbdc67702	-0.09690668
159	0xbdf4bb90	-0.11949837
160	0x3c14ba50	0.0090776235
161	0x3c23cd10	0.009997621
162	0xbde90a28	-0.1137889
163	0x3df68f3c	0.120390385
164	0xbd11b4b4	-0.035572723
165	0xbd05ae8c	-0.032637164
166	0xbcb62360	-0.022233665
167	0xbdcdfa14	-0.10057464
168	0x3d82ee70	0.063931346
169	0xb8717000	-5.7563186e-05
170	0x3d7df5e4	0.062002078
171	0x3d953a16	0.0728647
172	0xbd8bfab0	-0.06834924
173	0xbc684300	-0.01417613
174	0xbc31ec70	-0.010859594
175	0x3da83e6e	0.082150325
176	0x3dcf4f9e	0.10122608
177	0xbdaf62c0	-0.08563757
178	0x3d72add8	0.05924782
179	0xbdf5cf56	-0.12002437
180	0x3cee16f8	0.029063687
181	0xbd34a068	-0.044098288
182	0xbd2c3d20	-0.04205048
183	0xbd6c09ac	-0.05762641
184	0xbd1ba18c	-0.03799586
185	0xbd97f6c0	-0.07420111
186	0xbdb46e64	-0.08810118
187	0xbc4bf900	-0.012449503
188	0xbdff1a30	-0.12456167
189	0xbc602f90	-0.013683215
190	0x3d511174	0.051042035
191	0x3c5c1af0	0.013434157
192	0x3c4bb590	0.012433425
193	0x3df71668	0.120648205
194	0xbdd83154	-0.105562836
195	0xbd9547d8	-0.07289094
196	0x3d400a48	0.046884805
197	0xba926500	-0.0011169016
198	0x3d82b0fc	0.06381413
199	0xbdc3119e	-0.095248446
200	0xbd9091a4	-0.07059029
201	0xbd9b4822	-0.075821176
202	0xbd8f2f5e	-0.069914564
203	0xbc28f8c0	-0.010313213
204	0x3da6aa88	0.08137995
205	0xbda7848a	-0.08179577
206	0xbd91f818	-0.07127398
207	0x3dbfcec4	0.09365609
208	0x3bfacfc0	0.0076541603
209	0x3d4b5758	0.049643844
210	0x3d974d0e	0.07387744
211	0x3df15c02	0.11785127
212	0xbdc96f1a	-0.09835644
213	0xbd6c3b18	-0.057673544
214	0x3d88f74e	0.066877946
215	0x3c63ff90	0.013915911
216	0x3cec0d58	0.028814957
217	0xbd960524	-0.07325199
218	0xbd7b0e08	-0.061292678
219	0x3cb012a0	0.021493256
220	0x3dc506b6	0.09620421
221	0x3caacc88	0.020849481
222	0xbdf5af92	-0.11996378
223	0xbdb774b0	-0.08957803
224	0x3dc5fb88	0.096671164
225	0x3da04496	0.07825582
226	0x3d8b2b38	0.06795353
227	0x3d836bb0	0.06417024
228	0x3dc91c04	0.09819797
229	0x3d06e480	0.03293276
230	0xbdff0598	-0.12452239
231	0xbdf9fe3a	-0.12206693
232	0x3c3081d0	0.010773137
233	0x3d88bfca	0.06677206
234	0x3cf20010	0.029541045
235	0x3db552ec	0.08853707
236	0xbc619120	-0.013767511
237	0xbaa0ad00	-0.0012258589
238	0xbd2ea538	-0.042638034
239	0xbdee7e3a	-0.116451696
240	0xbd770f54	-0.060317352
241	0xbd81b69a	-0.063336566
242	0x3d68f8fc	0.056878075
243	0x3dae53ee	0.08512102
244	0x3ce85660	0.0283615
245	0x3b28ff40	0.0025786906
246	0x3dac01f4	0.0839881
247	0xbd79e538	-0.061009616
248	0xbd353ca4	-0.044247285
249	0x3d02aa34	0.0319006
250	0xbd2bc9c4	-0.041940466
251	0x3dd1a528	0.10236579
252	0xbdf9cf58	-0.12197751
253	0xbd0af408	-0.033924133
254	0x3dd62d7c	0.10457894
255	0x3db13ff4	0.08654776

lstm.weight_ih_l1 f4 [256, 64]
0	0x3dec9d60	0.115534544
1	0x3cb9ae28	0.022666052
2	0xbddadf2c	-0.10687098
3	0x3d8f5eec	0.07000527
4	0xbd6052fc	-0.05476664
5	0x3e06fc57	0.13182198
6	0x3d420534	0.047368243
7	0xbd8d3b1a	-0.06896038
8	0x3dbf0616	0.09327333
9	0x3da12e60	0.078701735
10	0xbdfd5a08	-0.12370688
11	0xbd14ee28	-0.036359936
12	0x3dcc9a24	0.099903375
13	0xbdbd5184	-0.092440635
14	0x3d9dbc94	0.07701984
15	0xbcdd8650	-0.027041584
16	0x3d9b4d04	0.07583049
17	0x3d5d4c7f	0.05402803
18	0xbdcfda92	-0.10149111
19	0x3c46e110	0.01213862
20	0x3c9153b0	0.0177401
21	0xbdb9cdec	-0.090724796
22	0x3defed78	0.117152154
23	0xbbd7ed40	-0.0065895617
24	0x3da25a92	0.07927431
25	0x3dfd99a2	0.12382819
26	0xbdd70dba	-0.10500665
27	0xbd2dbdbc	-0.042417273
28	0x3defa5a0	0.11701512
29	0x3e0f566d	0.13997813
30	0x3d1a0227	0.03759971
31	0x3d8b5d21	0.06804872
32	0x3dcc9b80	0.09990597
33	0x3d530cef	0.051526006
34	0xbdb456c6	-0.08805613
35	0xbe091008	-0.13385022
36	0x3ce9749b	0.028497985
37	0xbd513ce8	-0.051083475
38	0x3dbc2ea0	0.091885805
39	0x3b82694d	0.003979838
40	0x3d993db0	0.07482469
41	0xbdf55b94	-0.11980358
42	0xbdecb046	-0.11557059
43	0xbd9600da	-0.07324381
44	0x3d9edfd4	0.077575356
45	0x3d8e21ae	0.06940018
46	0x3d1153d1	0.035480324
47	0xbda1598e	-0.07878409
48	0xbd87465c	-0.06605217
49	0xbbd5e284	-0.006527247
50	0x3ded541a	0.11588307
51	0xb9d51800	-0.00040644407
52	0x3d9961e8	0.07489377
53	0xbdf10f84	-0.117705375
54	0xbd5aa868	-0.05338326
55	0x3dde97ca	0.10868795
56	0x3db2e52c	0.08735117
57	0xbda641b2	-0.08117999
58	0xbd978d99	-0.074000545
59	0xbdb5c664	-0.08875731
60	0x3dc6a04e	0.096985444
61	0x3d773d17	0.060360994
62	0x3c00e679	0.007867449
63	0x3dc740f8	0.09729189
64	0xbdfcc23c	-0.12341735
65	0x3c0e31f0	0.008678898
66	0x3c2ad7f0	0.01042746
67	0xbd3c7b9c	-0.04601632
68	0xbda6b745	-0.08140425
69	0x3b77bd98	0.0037802216
70	0x3df8698a	0.12129505
71	0xbcc82b88	-0.02443482
72	0xbde6f678	-0.11277479
73	0xbd52ec40	-0.051494837
74	0x3dfe41f6	0.12414925
75	0xbd20b9fc	-0.03923987
76	0x3d019810	0.03163916
77	0xbd17b83c	-0.037040934
78	0xbd9fbc27	-0.07799559
79	0x3dda1302	0.10648157
80	0xbd1fb5c8	-0.03899172
81	0x3b9ba604	0.004750015
82	0xbd1d329c	-0.038378343
83	0x3c8f4478	0.017488703
84	0x3d718ed4	0.058974102
85	0xbd9fd5b8	-0.078044355
86	0xbdd2fb30	-0.103018165
87	0x3dc1d366	0.09464149
88	0x3d0923b0	0.0334813
89	0xbd69d580	-0.057088375
90	0xbdbe05a8	-0.092784226
91	0x3c079340	0.008274853
92	0x3d3cffac	0.046142265
93	0x3d8c6dcd	0.0685688
94	0xbdc5c5f1	-0.09656895
95	0xbcbdd0d1	-0.02317086
96	0xbd22ca48	-0.03974369
97	0x3c4e7b48	0.012602635
98	0x3d2dfea4	0.042479172
99	0x3dd146a7	0.10218554
100	0xbd43f243	-0.04783846
101	0x3d569a78	0.052393407
102	0x3dbe38da	0.09288187
103	0xbd9a69d0	-0.075397134
104	0xbd9ecb5c	-0.077536315
105	0xbbdf1a9d	-0.0068085925
106	0xbdc3f5bc	-0.095683545
107	0x3d96e9d8	0.07368821
108	0xbdc6c65c	-0.09705803
109	0x3ba05240	0.0048926175
110	0x39cb4a95	0.00038774745
111	0xbdbba640	-0.09162569
112	0x3db6babc	0.089223355
113	0x3cd8ef59	0.026481317
114	0x3dd37e4e	0.10326825
115	0xbd42af98	-0.04753074
116	0x3ded8da4	0.115992814
117	0xbce99db0	-0.028517574
118	0x3de3a3fa	0.111152604
119	0x3d0170dc	0.03160177
120	0xbde4dd08	-0.11174971
121	0xbdd1fb06	-0.10252957
122	0xbd6626ec	-0.056189463
123	0x3c2aa6a0	0.010415703
124	0xbd47f6f8	-0.048819512
125	0xbcf9d44d	-0.03049674
126	0xbd0a1af0	-0.033717096
127	0x3d55b5d8	0.052175373
128	0x3d479ecc	0.048735425
129	0xbc189af0	-0.009314284
130	0x3b559b80	0.0032593906
131	0xbdaefe0c	-0.08544549
132	0xbd9f99a0	-0.077929735
133	0xbd7f4490	-0.062321246
134	0xbd5a8e18	-0.053358167
135	0xbde3a7d2	-0.111159936
136	0x3cb00af0	0.02148959
137	0x3de16d42	0.110071674
138	0xb9f82600	-0.00047330558
139	0x3d9d39a4	0.0767701
140	0xbd08e90c	-0.033425376
141	0xbcf49f38	-0.029861078
142	0x3da4e7de	0.08052038
143	0x3dab456c	0.083628505
144	0xbde6a414	-0.11261764
145	0x3ceb072c	0.028689943
146	0xba69c600	-0.0008917749
147	0x3dcab5d6	0.09897964
148	0xbd4b408c	-0.049622104
149	0x3da98f84	0.082793266
150	0xbda9cc9e	-0.08290981
151	0x3cb578b0	0.022152275
152	0xbdbb2464	-0.091378
153	0x3c12df90	0.008964434
154	0xbdb0fa56	-0.08641498
155	0xbda7d550	-0.08194983
156	0x3dbc1e8a	0.09185512
157	0xbdcb7541	-0.09934474
158	0xbdd689ea	-0.10475524
159	0x3d39ccc6	0.045361303
160	0x3ce1dc98	0.027571008
161	0xbd61649f	-0.0550276
162	0xbccbfa18	-0.024899527
163	0x3cc14986	0.023594629
164	0xbdebeebe	-0.11520146
165	0x3dd28d08	0.10280806
166	0xbd472e7c	-0.048628315
167	0x3ddcb7af	0.10777222
168	0xbcba0a00	-0.022709846
169	0x3d91c7dc	0.07118198
170	0xbd9e075a	-0.07716246
171	0x3de4a8f4	0.11165038
172	0x3dded596	0.10880582
173	0xbc6cf190	-0.01446189
174	0xbd0bbbea	-0.034114756
175	0xbc9184c8	-0.01776351
176	0x3d5a3800	0.053276062
177	0xbd897daf	-0.06713425
178	0xbde4d246	-0.11172919
179	0x3d4d45b8	0.050115317
180	0xbdc7b7a2	-0.09751822
181	0xbd1073e0	-0.035266757
182	0xbd69ead8	-0.05710873
183	0x3d4b534c	0.049639985
184	0x3d74571c	0.059653386
185	0x3dc14110	0.09436238
186	0x3dae815f	0.08520769
187	0x3dd5d846	0.104416415
188	0x3cbc3a60	0.022977054
189	0x3d2d516a	0.04231397
190	0xbca295bf	-0.019846795
191	0x3daa2d5e	0.08309434
192	0xbc549330	-0.012974545
193	0xbc412e10	-0.011790767
194	0x3dcce750	0.10005057
195	0x3c9d7720	0.019221842
196	0x3d9efee0	0.07763457
197	0xbdc11113	-0.09427085
198	0x3dbbf942	0.091784015
199	0xbd78e50c	-0.06076531
200	0xbdf4995e	-0.11943315
201	0x3d43be0c	0.047788665
202	0x3dbbc310	0.091680646
203	0xbbf1a5e0	-0.00737451
204	0xbd8ff032	-0.070282355
205	0x3dcb5a10	0.099292874
206	0xbc7d933d	-0.015476999
207	0x3d271d58	0.04079947
208	0xbdeb8faa	-0.11502011
209	0xbc35c4d6	-0.011094293
210	0xbd920aec	-0.071309894
211	0x3d1c9358	0.038226455
212	0x3d2d081c	0.04224406
213	0xbddf51c6	-0.10904269
214	0xbddeeffa	-0.10885616
215	0x3dc922d2	0.098210946
216	0x3dea15bc	0.11429927
217	0x3d9c84ae	0.07642494
218	0x3c7e5c00	0.015524864
219	0x3dd16e36	0.10226099
220	0xbd94c6e8	-0.07264501
221	0xbc895986	-0.01676632
222	0x3b8c0341	0.004272849
223	0xbd0b5ca8	-0.03402391
224	0x3d4a2b88	0.04935792
225	0xbd0c6fd4	-0.034286335
226	0xbd43ecac	-0.04783313
227	0x3ce1f634	0.02758322
228	0xbd6d9c33	-0.05801029
229	0xbdad0f7c	-0.08450219
230	0xbdeccce2	-0.11562516
231	0xbcc7fe90	-0.024413377
232	0x3d44c418	0.048038572
233	0xbd313a46	-0.043268465
234	0x3d85e6c4	0.06538156
235	0x3d938712	0.07203497
236	0xbc5a5300	-0.013325453
237	0xbd843618	-0.0645563
238	0xbd3e1553	-0.046407055
239	0xbc1105c0	-0.008851469
240	0xbd879ea6	-0.06622057
241	0xbcd66194	-0.026169576
242	0xbd446f90	-0.047957957
243	0xbd845b24	-0.06462696
244	0x3d35e79c	0.044410333
245	0x3cff91c8	0.031197444
246	0x3de80ee2	0.11330964
247	0xbdf10a00	-0.117694855
248	0xbadb8b80	-0.0016749948
249	0xbda1da44	-0.07902959
250	0x3e0076ff	0.12545393
251	0xbdf07770	-0.11741531
252	0x3daebb7c	0.085318536
253	0xbdc52cd1	-0.09627689
254	0x3da2b3c8	0.07944447
255	0x3dea3e20	0.11437631

lstm.weight_hh_l1 f4 [256, 64]
0	0x3ccad2a8	0.024758652
1	0x3c81f40e	0.015863445
2	0x3d6662c5	0.056246538
3	0x3d9d2c65	0.07674483
4	0x3c99019b	0.018677523
5	0x3df06b57	0.117392235
6	0x3cf7fb76	0.030271273
7	0x3dd2434e	0.102667436
8	0xbdefd00f	-0.11709606
9	0xbddd9729	-0.10819847
10	0xbe05978c	-0.13046092
11	0xbdbadb78	-0.091238916
12	0x3d2064af	0.03915852
13	0xbd69ff09	-0.057127986
14	0x3bdff77c	0.0068349224
15	0x3da29f03	0.07940485
16	0x3e0ca767	0.13735734
17	0x3da18bd3	0.078879975
18	0xbd43b8c4	-0.047783628
19	0xbdac6bff	-0.08419036
20	0xbdf39341	-0.11893321
21	0xbd8ce06c	-0.068787426
22	0x3da78bb4	0.08180943
23	0xbcb0f2f6	-0.021600228
24	0xbdf948ce	-0.121720895
25	0x3d0f2255	0.03494485
26	0xbdc1c9a3	-0.09462287
27	0x3e09836e	0.13429043
28	0xbd8f0640	-0.06983614
29	0x3d118f1b	0.035536867
30	0x3db0f555	0.08640543
31	0xbe03b395	-0.12861474
32	0xbd990559	-0.07471723
33	0xbd901562	-0.070353284
34	0xbcc2e214	-0.023789443
35	0x3d385c43	0.045009863
36	0x3d9c4882	0.07631017
37	0xbd8f714f	-0.07004034
38	0x3d625a3d	0.05526184
39	0xbde1c4da	-0.110238746
40	0xbd022b5c	-0.031779632
41	0x3c96c9f5	0.018406847
42	0xbdb1baa3	-0.08678176
43	0xbd841a0a	-0.06450279
44	0xbd3d0878	-0.046150655
45	0x3dc53de0	0.09630942
46	0x3d601c4a	0.05471448
47	0x3cb5b8b5	0.022182802
48	0x3d89ad4d	0.067225076
49	0x3d96bfe9	0.07360823
50	0x3d298219	0.041383836
51	0xbdee5652	-0.11637558
52	0xbdc9ea9f	-0.098592035
53	0x3d165e96	0.036711298
54	0x3ceb9b39	0.02876054
55	0x3d448b5a	0.04798446
56	0xbd9a006c	-0.07519612
57	0x3d9d3fca	0.076781824
58	0xbd0f356a	-0.03496305
59	0xbba63abd	-0.00507292
60	0xbce2f009	-0.027702348
61	0x3cd8a32e	0.026444998
62	0x3dc03eb4	0.0938696
63	0x3d9f8241	0.07788516
64	0xbafe2b38	-0.0019391542
65	0x3d3ca92f	0.046059784
66	0xbe030a04	-0.1279679
67	0xbd98f174	-0.074679285
68	0xbd7bf8ce	-0.061516576
69	0xbdc68d76	-0.0969495
70	0x3c679366	0.014134264
71	0xbdcb3cc9	-0.09923703
72	0x3d030a2b	0.03199212
73	0x3a82bdac	0.000997474
74	0xbdc826db	-0.09773036
75	0x3c26ad3b	0.010173137
76	0x3d95f011	0.0732118
77	0xbce41f42	-0.027846936
78	0x3dd2de68	0.10296327
79	0x3dc4c308	0.09607512
80	0x3cb9817f	0.022644756
81	0xbd1beb78	-0.038066357
82	0xbc7bd000	-0.015369415
83	0xbcd62f88	-0.026145712
84	0xbd785a48	-0.060632974
85	0xbe0ee9ae	-0.13956329
86	0xbd0e10d8	-0.034684032
87	0x3d306697	0.043066587
88	0x3dd5cf22	0.10439898
89	0x3ce85895	0.028362552
90	0xbc0e622b	-0.008690397
91	0x3dfd3f24	0.12365559
92	0xbb1851ab	-0.0023242037
93	0xbd2937dd	-0.04131304
94	0x3e016fef	0.12640356
95	0xbd9a0c0f	-0.07521831
96	0xbd077acb	-0.03307609
97	0xbb6398a3	-0.003472843
98	0x3b72f74a	0.0037073665
99	0xbc97a594	-0.018511571
100	0x3ccfeb14	0.025380649
101	0xbb873fbc	-0.004127471
102	0xbd8ee153	-0.06976571
103	0xbe11fc33	-0.14256363
104	0x3df2b850	0.11851561
105	0xbcea7e6a	-0.028624732
106	0xbc4a5682	-0.012349727
107	0x3dec499a	0.11537476
108	0x3d0f6b3a	0.03501437
109	0xbd5bd641	-0.053671125
110	0x3e08a100	0.13342667
111	0x3d8dcdea	0.069240406
112	0x3c107b1e	0.008818416
113	0xbdb0151b	-0.085977755
114	0xb9ddf211	-0.00042332758
115	0x3dcaa2aa	0.09894307
116	0xbda4bbd5	-0.080436386
117	0xbcf259ce	-0.029583838
118	0xbdc2dcc5	-0.09514765
119	0x3aa0f254	0.0012279251
120	0x3d685fc8	0.05673197
121	0x3d4c0eb7	0.04981872
122	0x3d10206c	0.03518717
123	0xbe001c9b	-0.12510912
124	0x3e1744a2	0.14772275
125	0xbdb7e605	-0.089794196
126	0x3ddec5f0	0.10877597
127	0xbda856de	-0.082196936
128	0xbd4f804a	-0.050659455
129	0xbd5ac087	-0.053406265
130	0x3d7a23e0	0.06106937
131	0xbd0dff5c	-0.034667358
132	0xbde38ae6	-0.11110477
133	0x3dd32c1e	0.10311149
134	0xbdfc9ea9	-0.123349495
135	0xbe033511	-0.12813212
136	0x3dbac64a	0.09119852
137	0x3d785f05	0.060637493
138	0x3dd6f4fe	0.10495947
139	0x3e05773e	0.13033769
140	0x3dc7c2cd	0.09753952
141	0xbdcebdcf	-0.10094797
142	0x3d7a24d6	0.061070286
143	0x3d49edb4	0.049298957
144	0x3dcb7da8	0.099360764
145	0x3d606c99	0.054791067
146	0x3d2c4d3f	0.042065855
147	0x3dabb4ec	0.083841175
148	0xbd5dccfe	-0.054150574
149	0xbd99cc39	-0.075096555
150	0x3d3e8dfd	0.04652213
151	0xbd58aa5c	-0.052896842
152	0xbd0e7fd3	-0.03478987
153	0xbdad4b14	-0.08461586
154	0x3dbd5c1d	0.09246085
155	0xbd9be2a4	-0.07611588
156	0xbd5cdf1f	-0.053923722
157	0x3ddd0fbc	0.10794017
158	0xbd9e81e9	-0.07739622
159	0xbdf5b413	-0.11997237
160	0x3cb493fb	0.022043219
161	0x3dd3bc59	0.10338659
162	0x3c00757c	0.00784051
163	0xbc9cd013	-0.019142186
164	0xbd9d2473	-0.07672968
165	0x3db35aa6	0.08757524
166	0x3de2cd6e	0.11074339
167	0x3d84e913	0.06489768
168	0x3e0a72b8	0.13520324
169	0x3df4dfe5	0.11956767
170	0x3da890db	0.08230754
171	0x3d603b6e	0.054744177
172	0x3e0779ed	0.13230105
173	0x3d53893e	0.051644556
174	0x3d9e6265	0.07733611
175	0x3d866b0c	0.06563386
176	0xbd898990	-0.06715691
177	0xbdc925e6	-0.09821682
178	0x3b97b965	0.004630255
179	0xbcc861b2	-0.024460647
180	0x3dc8d047	0.09805351
181	0x3d786541	0.06064344
182	0xbdc6e48f	-0.09711563
183	0xbd7427fb	-0.05960844
184	0x3c108a70	0.008822069
185	0x3cfccee6	0.030860376
186	0x3da6814d	0.08130131
187	0xbd8b143a	-0.06790967
188	0x3c3ecfbd	0.011646208
189	0x3d340b53	0.043956112
190	0x3a690e34	0.0008890361
191	0xbde065dc	-0.10956928
192	0x3c8d63e9	0.017259555
193	0xbd2f68ab	-0.04282443
194	0xbb9a6a22	-0.004712359
195	0x3d563e22	0.05230535
196	0xbc7e54c5	-0.01552314
197	0xbcb54ed8	-0.022132322
198	0x3c0062bd	0.007836041
199	0x3da74041	0.08166552
200	0x3dc0c7b0	0.09413087
201	0xbddc622d	-0.10760913
202	0xb99bb804	-0.00029701006
203	0xbd481b87	-0.048854377
204	0x3d632c49	0.055462155
205	0xbdbbf5e6	-0.09177761
206	0x3d879e3c	0.06621978
207	0xbc6e7a09	-0.014555463
208	0x3c80ce34	0.015723325
209	0xbd638f2c	-0.05555646
210	0xbdcda5c7	-0.10041385
211	0x3e0d18ad	0.13778944
212	0x3cbb3ebf	0.022857068
213	0xbcd2d7d2	-0.025737677
214	0xbd8f16d4	-0.06986776
215	0x3db1cd55	0.08681742
216	0xbdd38e20	-0.103298426
217	0xbc54b097	-0.012981555
218	0xbc8e1db8	-0.017348155
219	0xbdb781d4	-0.089603096
220	0xbdb32eb3	-0.087491415
221	0x3cc96ca5	0.024587939
222	0xbd6ad25a	-0.057329513
223	0xbd25c22b	-0.040468376
224	0x3d5e24c3	0.054234277
225	0x3dc06ef6	0.09396164
226	0x3ce4b297	0.02791719
227	0xbd896aca	-0.067098215
228	0x3c8cdb43	0.017194396
229	0x3c2861e9	0.01027725
230	0xbd43a9c6	-0.04776933
231	0xbe150017	-0.14550816
232	0xbdbca7c5	-0.09211687
233	0x3db4d478	0.08829588
234	0x3ca72717	0.020404382
235	0x3b5c9c72	0.0033662585
236	0xbc71b010	-0.014751449
237	0xbd60b6d0	-0.054861844
238	0x3d57cbca	0.052684583
239	0x3d9fc52c	0.078012794
240	0xbda5176a	-0.080611065
241	0x3d47ceb8	0.048781127
242	0xbd78792d	-0.060662437
243	0xbdc306c3	-0.09522774
244	0x3cfbebcf	0.03075209
245	0x3d942fb9	0.07235665
246	0xbc109bc2	-0.008826198
247	0x3ca6f627	0.020381046
248	0x3d9131e5	0.07089595
249	0x3d5ce0dc	0.05392538
250	0x3d874486	0.06604867
251	0xbd9e83fc	-0.07740018
252	0x3ced7b65	0.028989503
253	0x3d6065f0	0.054784715
254	0xbd9735e2	-0.07383324
255	0xbd9ff0cd	-0.07809601

lstm.bias_ih_l1 f4 [256]
0	0xbdb92bc2	-0.09041549
1	0x3b889b09	0.0041688723
2	0xbde81ae8	-0.11333257
3	0x3e0d1cdc	0.1378054
4	0xbdd42e0a	-0.10360344
5	0xbdb81135	-0.08987657
6	0x3d543920	0.05181229
7	0xbdaf28a6	-0.08552675
8	0x3cb72689	0.022357242
9	0x3de1efc2	0.11032058
10	0x3dc203c0	0.094733715
11	0x3b5fd877	0.0034156123
12	0xbd802389	-0.06256778
13	0x3d131d77	0.03591677
14	0xbd29d7fe	-0.04146575
15	0xbd131551	-0.035909
16	0xbb21fb57	-0.002471646
17	0x3cba7f18	0.022765681
18	0x3de011fc	0.1094093
19	0x3d9c7218	0.07638949
20	0xbdb15895	-0.08659474
21	0x3d85c5f0	0.06531894
22	0x3dd77e62	0.105221525
23	0x3d3a4dd7	0.04548439
24	0xbdaf3702	-0.08555414
25	0x3d801c6a	0.062554196
26	0x3d95ce7a	0.07314773
27	0x3df0b539	0.117533155
28	0xbd8bb4c1	-0.068215854
29	0xbd9fcd58	-0.07802838
30	0xbd7b7137	-0.061387267
31	0x3db2ee69	0.087368794
32	0xbd0c8118	-0.0343028
33	0x3c2b8820	0.010469466
34	0x3dc6d63f	0.09708833
35	0x3e042049	0.12902941
36	0xbd28b312	-0.0411864
37	0xbd1b1680	-0.037863255
38	0xbd9ce4f3	-0.07660856
39	0xbdcffd5b	-0.101557456
40	0x3d06a428	0.032871395
41	0xbda81b71	-0.08208359
42	0xbdbd9e3c	-0.092586964
43	0x3d37cf32	0.04487533
44	0xbdcd7aae	-0.10033165
45	0x3e06f02f	0.1317756
46	0xbd22ed03	-0.039776813
47	0x3dd7e30e	0.10541354
48	0xbe0080b2	-0.12549093
49	0x3d1336b4	0.03594084
50	0xbda71f81	-0.08160306
51	0x3c995931	0.018719288
52	0xbc8b24c9	-0.016985314
53	0x3e0bb5d7	0.13643585
54	0xbcbe6dc6	-0.023245703
55	0xbca671b2	-0.020317886
56	0xbdb4855c	-0.08814499
57	0x3de94cf5	0.113916315
58	0xbd0e6beb	-0.034770887
59	0xbdcaa211	-0.09894193
60	0xbd3e7daa	-0.04650656
61	0xbd4bd692	-0.049765177
62	0xbdddf702	-0.108381286
63	0x3dedf277	0.11618512
64	0x3dae513f	0.0851159
65	0x3d078e2d	0.033094574
66	0x3dec6899	0.11543388
67	0x3da8a624	0.08234814
68	0x3cb15305	0.021646032
69	0xbd487318	-0.048937887
70	0x3df28fd9	0.11843843
71	0xbc295417	-0.01033499
72	0x3d4c68bc	0.04990457
73	0xbd845f6d	-0.064635135
74	0x3de4fd17	0.111810856
75	0x3dc31e87	0.09527307
76	0xbc4ec125	-0.012619291
77	0xbb174918	-0.0023084339
78	0xbc63fb97	-0.013914964
79	0xbd20b4e1	-0.039235
80	0x3dabf82c	0.083969444
81	0xbdd3cd87	-0.103419356
82	0x3d909d6d	0.070612766
83	0x3da001a1	0.07812811
84	0xbcf22bcb	-0.029561898
85	0x3dc26532	0.09491958
86	0xbdc55a10	-0.09636319
87	0x3d903145	0.070406474
88	0x3d6e71ff	0.058214184
89	0xbdbaba4f	-0.09117567
90	0x3e144b01	0.14481737
91	0x3d3d6367	0.046237376
92	0x3c868e73	0.016425347
93	0x3d3e90b7	0.04652473
94	0x3d54e3d1	0.051975075
95	0xbdc267fb	-0.09492489
96	0x3d512737	0.05106279
97	0x3b8f6022	0.0043754736
98	0xbd981376	-0.07425587
99	0xbd0d2970	-0.034463346
100	0xbdcd6600	-0.100292206
101	0x3dc5f24f	0.09665357
102	0x3caa1a0f	0.020764379
103	0xbd822d35	-0.06356279
104	0x3d090d7a	0.033460118
105	0x3e09e341	0.13465597
106	0xbd96da67	-0.07365876
107	0xbd492f04	-0.049117103
108	0xbd78700a	-0.060653724
109	0x3d76534e	0.06013804
110	0x3d4ac7ce	0.049506955
111	0x3d47045a	0.048588134
112	0x3dde1d82	0.10845472
113	0x3dd80c99	0.10549278
114	0xbd155c76	-0.03646513
115	0xbd5c1cbd	-0.053738344
116	0x3dc643cc	0.096809
117	0x3d96341c	0.07334158
118	0xbdcfa02e	-0.10137974
119	0xbda85f2e	-0.08221279
120	0x3dc33fd9	0.09533662
121	0xbaa43904	-0.0012529199
122	0xbd8b9221	-0.06814981
123	0xbcb3745a	-0.021906067
124	0xbd80c56e	-0.06287657
125	0xbdd2431b	-0.102667056
126	0xbd4fa06d	-0.050690103
127	0xbd2a9465	-0.041645426
128	0xbdb30e13	-0.08742919
129	0xbe0cd2a7	-0.13752232
130	0xbdcd5547	-0.10026031
131	0x3dd07782	0.10179044
132	0x3d44e761	0.048072223
133	0x3dfa6243	0.12225773
134	0xbe05dafc	-0.13071817
135	0xbc0fb1fb	-0.008770461
136	0x3d932a36	0.071857855
137	0xbdf9460e	-0.12171565
138	0xbdeaf55d	-0.114725806
139	0xbd8a2919	-0.0674612
140	0xbddb5396	-0.10709302
141	0xbdcc110c	-0.09964189
142	0xbdd8f973	-0.10594454
143	0xbd8008dd	-0.062516905
144	0xbdd16259	-0.102238365
145	0x3cf857d1	0.030315312
146	0xbdffb453	-0.12485566
147	0x3d5d048c	0.053959414
148	0x3d2fbadb	0.04290281
149	0x3d2c77f8	0.0421066
150	0xbde5f3cf	-0.112281434
151	0x3d9e1068	0.07717973
152	0xbd8605eb	-0.065440975
153	0x3e0a0858	0.13479745
154	0x3d43957d	0.047749985
155	0x3c119dd6	0.008887729
156	0xbda57e00	-0.08080673
157	0x3cc64abe	0.024205562
158	0xbdd4a7c1	-0.10383559
159	0xbdd4176c	-0.1035603
160	0x3e0a91fb	0.1353225
161	0xbdc7507c	-0.09732148
162	0xbde0dd9b	-0.10979768
163	0xbe0f2aa3	-0.13981108
164	0xbc93ea7c	-0.018056147
165	0xbded80e3	-0.11596849
166	0xbd05e158	-0.032685608
167	0xbd5b5401	-0.05354691
168	0xbbc5e90a	-0.0060397433
169	0xbd4fd9eb	-0.050744932
170	0xbe0493cf	-0.1294701
171	0x3da71118	0.08157557
172	0xbda180d6	-0.07885902
173	0x3d80b2df	0.06284117
174	0x3daab441	0.08335162
175	0xbdd2c3de	-0.10291265
176	0xbcad7229	-0.0211726
177	0xbdf32bab	-0.118735634
178	0x3dc34e74	0.09536448
179	0xbde12bf0	-0.109947085
180	0xbdc13884	-0.094346076
181	0x3d1ea186	0.03872826
182	0x3d75ac0d	0.059978534
183	0xbdd5c423	-0.10437801
184	0x3d92eaf5	0.07173721
185	0xbb5af331	-0.0033409114
186	0x3a912cdb	0.001107599
187	0xbd904cab	-0.07045873
188	0x3c0a0c3a	0.008425767
189	0xbe04e876	-0.12979302
190	0x3cd22192	0.025650773
191	0x3c6efbfd	0.014586446
192	0xbd527446	-0.05138042
193	0xb9800fca	-0.00024425826
194	0x3e12902d	0.14312811
195	0xbc4dd07c	-0.012561914
196	0x3d66f7b3	0.056388568
197	0xbd6c0233	-0.057619285
198	0x3c8cbd63	0.01718015
199	0x3dd8e26c	0.105900615
200	0xbd2a4686	-0.041571163
201	0x3cb802a6	0.0224622
202	0xbdb1f372	-0.08689012
203	0x3d469cb5	0.04848929
204	0x3df4da7a	0.119557336
205	0x3d8adcb5	0.06780378
206	0x3d908162	0.07055928
207	0x3d9f7ecf	0.07787859
208	0x3ca6365d	0.020289594
209	0x3d113baf	0.03545731
210	0xbd89aadb	-0.06722041
211	0x3dd32a2b	0.10310777
212	0x3e0445e6	0.12917289
213	0x3d3da4a8	0.046299607
214	0x3e16f6a8	0.1474253
215	0x3d100638	0.03516218
216	0x3da120e4	0.078676015
217	0x3cf0b9aa	0.029385407
218	0x3c4e338c	0.012585532
219	0x393b446e	0.00017859202
220	0x3d8e5ecc	0.06951675
221	0x3d5c25f3	0.05374713
222	0x3e0d4083	0.1379414
223	0x3c4fbea4	0.01267973
224	0x3d93bd7b	0.07213875
225	0xbd49b10a	-0.049241103
226	0x3d9eb3ce	0.07749139
227	0xbdbdf1b0	-0.09274614
228	0xbd545a13	-0.051843714
229	0x3da13403	0.078712486
230	0x3be9f1c3	0.007139416
231	0x3d835240	0.06412172
232	0xbd5d2e51	-0.05399925
233	0xbd798ace	-0.06092339
234	0x3d85d8f8	0.06535524
235	0x3d7a0601	0.061040882
236	0x3dbc967c	0.0920839
237	0xbd82c331	-0.06384886
238	0xbc9ca57e	-0.019121882
239	0x3db886f9	0.09010119
240	0xbbbd5320	-0.0057777315
241	0xbc8fc96e	-0.017552104
242	0x3d929cc9	0.07158811
243	0xbc109ef8	-0.008826964
244	0x3dbc40a5	0.091920175
245	0xbd31e165	-0.043427844
246	0x3de27fe7	0.11059552
247	0x3d73a1e5	0.059480567
248	0x3d06aeac	0.032881424
249	0x3d8979a9	0.06712658
250	0xbc9e7da7	-0.019347025
251	0xbd9677fb	-0.07347103
252	0x3d944ba6	0.07240991
253	0x3df7175f	0.120650046
254	0x3a898c25	0.0010494037
255	0xbc3353db	-0.010945286
