models/ETHUSDT_lstm_20250822_041552.pth (torch, 244263 bytes, 11 tensors)

lstm.weight_ih_l0 f4 [256, 30]
0.055825755 -0.058865845 0.059101343 0.016769886 -0.029259443 -0.07216765 -0.055280656 -0.07351251
0.018008664 -0.0334678 -0.1204354 0.040289253 -0.080554485 0.00883469 -0.03754741 -0.097181275
-0.00062577426 0.056239396 0.047822684 -0.026261434 0.038392738 0.03212641 -0.106953025 0.08980349
0.039597765 -0.105927825 -0.04735516 -0.025001362 0.021533683 0.032743737 0.105555356 -0.12195301
-0.04328999 -0.09129931 -0.10432102 -0.11284712 -0.0018693507 -0.010124281 0.035944596 0.034144104
-0.04271315 0.065867126 0.08304311 -0.04123476 -0.053388685 -0.0916298 -0.014428243 -0.09001014
-0.058922872 0.09921338 0.07778871 -0.06953506 -0.07742971 0.037926048 -0.056282952 -0.051934525
-0.056430385 0.039073333 -0.025207192 -0.04991898 0.10229343 -0.10881823 0.10813834 0.045848444
-0.055669636 0.047838062 0.0068325102 -0.07246685 0.11030997 -0.11324009 0.12427521 -0.046864763
0.046004564 0.05759725 -0.018157065 -0.11012751 -0.10572973 0.017679438 0.10378647 -0.00338915
-0.028901577 0.05952187 -0.025045723 0.01249747 -0.03395334 -0.04428263 -0.086743996 0.081376955
0.07017644 0.060567886 0.028719887 -0.054795578 -0.05659312 -0.06790206 0.12196079 0.05400899
0.050041527 -0.03246574 -0.07620828 -0.10717045 0.1074125 -0.06277658 0.11356315 0.09294063
0.012322575 -0.0016718209 0.02891396 -0.012099206 0.038474888 -0.08712804 -0.06704308 0.12131104
-0.10634543 0.09045452 0.05154629 -0.088041365 -0.124082506 0.023673162 -0.07959086 -0.11580841
0.07881841 -0.09552719 0.093631074 -0.028852075 0.043254077 0.024240538 -0.0052786916 0.1120304
0.03398162 -0.010993451 -0.056665212 -0.021675661 0.022192866 0.06941341 -0.10478222 -0.11308728
-0.061433062 0.05445768 0.059829846 -0.007513851 -0.041656166 -0.12259959 -0.043106243 -0.120691165
0.124446854 -0.046855927 0.07222341 0.032725528 -0.028361082 -0.1081346 0.101517156 -0.10667908
-0.119977936 0.029747814 -0.1209462 0.0498244 -0.11595 0.089964435 0.107886255 -0.09269257
-0.0019166768 -0.0393693 -0.04429747 0.03288196 -0.078153044 -0.015440047 0.056907237 0.02170296
-0.10509412 0.01598464 -0.048814625 0.08416498 0.07521239 0.118793145 -0.07268061 0.12218091
0.029735982 -0.0153891 -0.044750884 -0.0029930472 0.07648936 0.06589921 -0.112321615 -0.075867504
0.110495076 -0.0007138103 -0.12163633 -0.08017829 -0.019781679 -0.093398735 0.08910783 -0.07924008
-0.064611495 -0.03975886 0.05616285 -0.1245065 -9.198487e-05 -0.031965032 -0.011999533 0.06454016
-0.120770484 -0.09468992 0.10091783 -0.0037423372 0.030329138 0.110605925 -0.08174501 0.053495586
0.100896 0.058321804 0.052617833 0.014709815 -0.040067688 -0.069882184 -0.028427988 -0.05185485
-0.030926779 0.06646207 -0.072271585 -0.005694151 -0.11622611 -0.005656466 0.12409341 0.06970148
-0.087536305 -0.02596058 -0.039050996 -0.023892686 0.090138406 0.11937006 0.08333017 0.041245684
0.034631923 0.0020947754 0.0167588 0.049513534 0.07976772 -0.04997617 -0.1152115 0.05189006
0.033892155 -0.03969395 -0.009873912 -0.07777293 0.04872796 -0.036931694 0.10961364 0.064707875
0.077386126 -0.08316417 0.09212534 0.083041 -0.03280747 0.05315137 -0.00799714 0.0468923
00000000: 8ca9 643d 501d 71bd 4014 723d 0061 893c
00000010: 80b1 efbc a2cc 93bd f86d 62bd ba8d 96bd
00000020: e886 933c 8815 09bd d6a6 f6bd 5806 253d
00000030: c0f9 a4bd 60bf 103c 50cb 19bd fa06 c7bd
00000040: 000b 24ba 485b 663d b8e1 433d 3822 d7bc
00000050: b441 1d3d fc96 033d 300a dbbd e4ea b73d
00000060: 4431 223d b0f0 d8bd 7cf7 41bd a8cf ccbc
00000070: 6867 b03c 4c1e 063d 682d d83d 80c2 f9bd
00000080: d850 31bd 22fb babd 42a6 d5bd 641c e7bd
00000090: 0005 f5ba 50e0 25bc a43a 133d b0da 0b3d
000000a0: fcf3 2ebd 58e5 863d 8212 aa3d c8e5 28bd
000000b0: 18ae 5abd 68a8 bbbd 7064 6cbc 3c57 b8bd
000000c0: 1c59 71bd 6230 cb3d b04f 9f3d 6668 8ebd
000000d0: 7893 9ebd 5858 1b3d f488 66bd 4cb9 54bd
000000e0: 8c23 67bd 5c0b 203d 507f cebc d877 4cbd
000000f0: 387f d13d 18dc debd a277 dd3d 94cb 3b3d
00000100: d805 64bd d8f1 433d 40e3 df3b 8069 94bd
00000110: 32ea e13d 6cea e7bd 0084 fe3d 44f5 3fbd
00000120: 486f 3c3d 18eb 6b3d 20be 94bc 888a e1bd
00000130: d488 d8bd 78d4 903c 008e d43d 801c 5ebb
00000140: 00c3 ecbc 34cd 733d b02c cdbc 30c2 4c3c
00000150: a812 0bbd b461 35bd d6a6 b1bd f6a8 a63d
00000160: aab8 8f3d 0816 783d f845 eb3c 5471 60bd
00000170: 30ce 67bd 3c10 8bbd 94c6 f93d 8838 5d3d
00000180: 58f8 4c3d ccfa 04bd 1613 9cbd 2e7c dbbd
00000190: 16fb db3d 0291 80bd cc93 e83d a857 be3d
000001a0: a0e4 493c 0021 dbba f8dc ec3c c03b 46bc
000001b0: d897 1d3d 3070 b2bd e24d 89bd ec71 f83d
000001c0: a2cb d9bd 3840 b93d 3422 533d 084f b4bd
000001d0: f81e febd 38ee c13c 8800 a3bd f62c edbd
000001e0: 8c6b a13d c2a3 c3bd a6c1 bf3d 305b ecbc
000001f0: 302b 313d 1894 c63c e0f8 acbb 3270 e53d
00000200: 5030 0b3d e01d 34bc c819 68bd 2891 b1bc
00000210: d0cd b53c 9e28 8e3d 1098 d6bd 4e9a e7bd
00000220: 3ca1 7bbd 040f 5f3d 2410 753d c036 f6bb
00000230: a89f 2abd 7e15 fbbd 2c90 30bd ee2c f7bd
00000240: fedd fe3d 00ec 3fbd dee9 933d 340b 063d
00000250: 8055 e8bc ac75 ddbd 3ae8 cf3d 907a dabd
00000260: feb6 f5bd b0b1 f33c a4b2 f7bd ac14 4c3d
00000270: 3277 edbd 463f b83d 78f3 dc3d 9ad5 bdbd
00000280: 0039 fbba b441 21bd 4471 35bd 3caf 063d
00000290: b40e a0bd 40f8 7cbc 9017 693d 68ca b13c
000002a0: 963b d7bd 38f2 823c d8f1 47bd b05e ac3d
000002b0: f408 9a3d d249 f33d 92d9 94bd fc39 fa3d
000002c0: e098 f33c 9022 7cbc b44c 37bd 0027 44bb
000002d0: 74a6 9c3d 2af6 863d e008 e6bd 6c60 9bbd
000002e0: 3e4b e23d 001f 3bba 781c f9bd 8434 a4bd
000002f0: 300d a2bc d647 bfbd 2a7e b63d a048 a2bd
00000300: 0853 84bd 30da 22bd 040b 663d 44fd febd
00000310: 00e8 c0b8 c4ed 02bd b099 44bc a22d 843d
00000320: 8456 f7bd caec c1bd 02ae ce3d 0042 75bb
00000330: d074 f83c 5c85 e23d ee69 a7bd 301e 5b3d
00000340: 90a2 ce3d d8e2 6e3d cc85 573d 7001 713c
00000350: 041e 24bd 641e 8fbd d0e1 e8bc c065 54bd
00000360: 285a fdbc 441d 883d 2003 94bd 0096 babb
00000370: f407 eebd e059 b9bb b024 fe3d a6bf 8e3d
00000380: 3c46 b3bd 48ab d4bc f0f3 1fbd 98ba c3bc
00000390: 7c9a b83d 4a78 f43d 02a9 aa3d 3cf1 283d
000003a0: 34da 0d3d 8048 093b c049 893c b4ce 4a3d
000003b0: 425d a33d d0b3 4cbd 02f4 ebbd ac8a 543d
000003c0: 80d2 0a3d 2096 22bd 30c6 21bc 6a47 9fbd
000003d0: f896 473d b045 17bd 1e7d e03d 9085 843d
000003e0: 9e7c 9e3d fa51 aabd 36ac bc3d 6611 aa3d
000003f0: 2061 06bd 40b5 593d 7006 03bc 2412 403d

lstm.weight_hh_l0 f4 [256, 64]
-0.116903126 -0.10316253 0.009985462 0.093812644 -0.07495563 -0.11838095 -0.051558346 0.05415179
0.0062456876 0.021731004 -0.0100222975 0.08230463 -0.101340234 -0.07636739 0.11211449 0.02431196
-0.086272866 -0.0709856 0.09743726 0.08048913 0.01482217 -0.012032524 -0.0982324 0.005186647
0.044178054 -0.051889747 -0.014333874 0.058331594 0.03178999 -0.04435709 -0.008714184 0.05754079
0.06037031 0.030422151 -0.09906101 -0.08031009 -0.11857575 0.12180796 -0.025491908 0.0033969432
-0.050023824 -0.020337075 -0.02162452 -0.07104953 0.0019614547 0.10345274 0.11982323 -0.10250279
-0.059476927 0.087459266 0.07377344 0.06255545 0.11108425 -0.039780498 -0.047228694 0.10055177
-0.00058464706 0.06858674 0.06065418 0.12240443 0.013211325 0.077796176 -0.07513219 -0.11380263
0.03786297 0.10396868 0.030383155 0.0358375 -0.07872307 -0.047886416 -0.10501945 -0.07460633
-0.04755427 -0.012861565 0.09698127 -0.111171424 -0.08076705 -0.0029643625 -0.03489901 -0.07092579
-0.007573992 0.050844267 0.0030589849 0.09504701 0.078089476 -0.03649877 0.075299874 -0.06561275
-0.07861672 0.014159262 0.021073207 0.094862536 -0.117161766 0.035360023 0.013091981 -0.061033055
-0.11734557 0.091505945 0.04868284 0.11108208 0.11604257 0.02076228 0.11125092 -0.042800024
-0.058149993 0.03883566 0.028626263 0.10489862 0.03790693 -0.03739564 0.07355295 0.10715166
0.08112961 0.008309349 -0.057349652 0.062457606 0.052736044 0.11871347 -0.086578295 0.03558348
0.06964758 -0.026483089 0.10246399 -0.06903894 0.02704528 0.012112662 -0.10261895 -0.01157406
0.004299119 -0.067316055 -0.07341543 0.0875248 0.054988936 -0.11379312 0.0029215813 0.04595308
0.020087466 -0.015930563 -0.06595817 0.08275166 0.017459407 -0.07876909 0.0047567934 0.05056134
0.07469471 -0.06428571 0.084759116 -0.056479707 0.024445355 0.030117363 -0.06355563 -0.019127771
-0.024428874 -0.06766571 0.021769807 -0.10418172 0.070495814 0.08913647 -0.09862439 0.08728498
-0.10987675 -0.09170285 0.07554571 -0.07759687 0.11453955 -0.07745294 -0.12272592 -0.005219713
-0.110497296 -0.0051344186 -0.022503346 -0.08669093 0.060961246 0.05692196 -0.034471303 0.055142388
0.09987594 -0.03713824 0.07873443 0.12366344 0.055053398 0.11005011 0.054516196 0.08331223
-0.040848836 -0.055365667 -0.056306854 0.11592768 0.07678181 0.07447338 -0.10375123 0.04637672
0.019285277 -0.049986944 0.0977657 -0.070982546 -0.112247825 0.12484297 -0.076057464 0.08469461
0.023903355 -0.04701814 -0.10756828 0.10402767 0.067754164 0.062603116 0.023588672 0.04065883
0.006428376 0.028256029 -0.08435699 -0.06140305 0.01735419 0.023341343 -0.07397355 -0.035308182
-0.06458256 -0.014136285 0.011816129 0.10010061 -0.026303098 0.10840313 0.022999212 0.0029659867
-0.022834852 -0.11806515 0.091646194 0.032917574 0.052416354 -0.028928205 0.09378798 -0.1131798
0.060351938 0.074130565 0.0018743575 0.11476141 -0.033286214 -0.10042897 0.10825029 -0.07254654
-0.06318484 0.10022631 0.11714317 0.11614147 0.12212047 -0.032577977 0.078323215 -0.050974593
-0.010012761 0.0084294975 -0.008969471 0.10373226 -0.02114813 0.095719784 -0.025063887 0.100038394
00000000: e86a efbd e046 d3bd 109a 233c d820 c03d
00000010: 5682 99bd b671 f2bd d82e 53bd 44ce 5d3d
00000020: a0a8 cc3b 3805 b23c 9034 24bc 548f a83d
00000030: 788b cfbd 8266 9cbd 489c e53d e029 c73c
00000040: d4af b0bd e660 91bd 308d c73d 7cd7 a43d
00000050: b0d8 723c 1024 45bc 122e c9bd c0f4 a93b
00000060: 0cf4 343d 588a 54bd a0d8 6abc 1ced 6e3d
00000070: 3836 023d c8af 35bd f0c5 0ebc e4af 6b3d
00000080: dc46 773d e037 f93c 80e0 cabd 9e79 a4bd
00000090: d8d7 f2bd 7476 f93d 68d4 d0bc 409f 5e3b
000000a0: c8e5 4cbd f099 a6bc e825 b1bc 6a82 91bd
000000b0: c08b 003b 08df d33d e265 f53d fcec d1bd
000000c0: 149e 73bd d81d b33d 8816 973d 121d 803d
000000d0: 2480 e33d e0f0 22bd e072 41bd 16ee cd3d
000000e0: 0043 19ba 3477 8c3d 8470 783d 2caf fa3d
000000f0: 5074 583c 9a53 9f3d e8de 99bd 5a11 e9bd
00000100: 3416 1b3d 88ed d43d 18e6 f83c 58ca 123d
00000110: 9039 a1bd 8c24 44bd 7014 d7bd 34cb 98bd
00000120: 44c8 42bd 50b9 52bc 1e9e c63d d8ad e3bd
00000130: 3269 a5bd c045 42bb 44f2 0ebd 8a41 91bd
00000140: 402f f8bb 1442 503d 4079 483b 02a8 c23d
00000150: 60ed 9f3d bc7f 15bd d236 9a3d fa5f 86bd
00000160: ce01 a1bd 40fc 673c b8a1 ac3c 4a47 c23d
00000170: 82f2 efbd acd5 103d c07f 563c ccfd 79bd
00000180: e052 f0bd 7867 bb3d a867 473d 007f e33d
00000190: baa7 ed3d a815 aa3c 86d7 e33d 144f 2fbd
000001a0: b02e 6ebd 2412 1f3d a081 ea3c 16d5 d63d
000001b0: 4c44 1b3d 2c2c 19bd eea2 963d 5472 db3d
000001c0: 4827 a63d f023 083c 78e7 6abd 8cd3 7f3d
000001d0: c001 583d 0c20 f33d f64f b1bd fcbf 113d
000001e0: 64a3 8e3d 10f3 d8bc a4d8 d13d 4a64 8dbd
000001f0: 108e dd3c 3074 463c e229 d2bd 20a1 3dbc
00000200: a0df 8c3b 00dd 89bd d45a 96bd 3440 b33d
00000210: 143c 613d 5e0c e9bd 0078 3f3b 4c39 3c3d
00000220: 788e a43c d080 82bc 1415 87bd b479 a93d
00000230: 0807 8f3c b051 a1bd e0de 9b3b 6819 4f3d
00000240: 8af9 983d 3aa8 83bd 3096 ad3d 4457 67bd
00000250: a041 c83c b0b8 f63c 7429 82bd d8b1 9cbc
00000260: 101f c8bc 5294 8abd 9856 b23c 3a5d d5bd
00000270: 1c60 903d 2e8d b63d 96fb c9bd 78c2 b23d
00000280: 1007 e1bd b4ce bbbd b6b7 9a3d 1ceb 9ebd
00000290: b693 ea3d a69f 9ebd ba57 fbbd 200a abbb
000002a0: 684c e2bd a03e a8bb f058 b8bc 048b b1bd
000002b0: 80b2 793d 0027 693d c831 0dbd fcdc 613d
000002c0: c28b cc3d 441e 18bd 843f a13d 4243 fd3d
000002d0: ac7f 613d f461 e13d 604c 5f3d 9a9f aa3d
000002e0: 1c51 27bd 1cc7 62bd 04a2 66bd 7e6b ed3d
000002f0: c83f 9d3d 8085 983d 867b d4bd 84f5 3d3d
00000300: 28fc 9d3c 1cbf 4cbd 6239 c83d 4c5f 91bd
00000310: 30e2 e5bd acad ff3d 04c4 9bbd 5e74 ad3d
00000320: f8d0 c33c 1896 40bd c24c dcbd 760c d53d
00000330: b2c2 8a3d 1036 803d 083d c13c e089 263d
00000340: 20a5 d23b 3079 e73c 5cc3 acbd c481 7bbd
00000350: 602a 8e3c 5836 bf3c 727f 97bd 509f 10bd
00000360: dc43 84bd e09b 67bc 7098 413c 8c01 cd3d
00000370: 9879 d7bc 7602 de3d d868 bc3c 0061 423b
00000380: 2810 bbbc 24cc f1bd 00b1 bb3d 94d4 063d
00000390: 88b2 563d d8fa ecbc ea13 c03d d0ca e7bd
000003a0: 9833 773d c4d1 973d 00ad f53a 0808 eb3d
000003b0: 2057 08bd b4ad cdbd 54b2 dd3d 4893 94bd
000003c0: 0e67 81bd 7443 cd3d c2e8 ef3d 94db ed3d
000003d0: 4c1a fa3d 7c70 05bd ec67 a03d bcca 50bd
000003e0: 900c 24bc e01b 0a3c b0f4 12bc 9471 d43d
000003f0: d83e adbc bc08 c43d c852 cdbc eee0 cc3d

lstm.bias_ih_l0 f4 [256]
-0.09034786 0.10436903 -0.07573487 0.10168645 0.10318191 0.0069054365 -0.06940469 -0.10705063
0.043170065 0.10214649 0.06871796 0.09432538 0.061557785 0.023130894 -0.07620795 -0.015783757
0.05781682 -0.09191345 0.05336362 -0.089309335 0.021622866 0.02553095 0.04880716 0.00155285
0.12426019 -0.09133355 0.087942004 0.008002207 -0.0770361 -0.08861339 0.036111847 0.050521657
0.032814637 -0.08834162 0.114812404 -0.041046783 0.00508371 -0.023387805 0.105130315 -0.037064105
-0.01528573 0.028828174 0.10260852 0.061002135 0.12118487 -0.034114227 -0.010789216 0.0642048
-0.0027855039 -0.024245188 -0.053511783 -0.031080201 0.011667475 0.031141981 -0.0026484877 -0.09191139
-0.11251326 0.043227136 0.081737265 -0.030364066 0.042975277 0.00521262 0.05168216 0.11406635
0.0013979971 0.05652049 -0.09440336 -0.11945957 -0.075143546 -0.033450097 0.009581789 -0.06092809
0.10302767 0.06808217 0.022017673 0.08088836 -0.034164086 0.111754 -0.011832461 -0.06533401
-0.04337366 0.04099892 -0.045334235 -0.061455667 -0.12070963 -0.10953945 -0.10749619 0.034694195
-0.018252164 -0.043116182 -0.11718805 -0.017888457 0.08321218 -0.020813063 -0.10728815 -0.08107571
0.03738211 0.06463966 0.12175855 -0.07704076 0.033806667 0.047540665 0.034580335 0.06150177
0.090248704 0.029154629 0.1247617 -0.06561902 -0.06077589 -0.07406069 -0.045844957 -0.10448387
-0.10238254 0.11509751 -0.0682133 0.10914783 0.078203455 0.05397275 -0.06442851 -0.0743569
0.03336194 0.052651823 0.115688264 -0.049881354 -0.025889724 -0.11704008 -0.027221173 -0.08506313
0.023244947 0.020705938 0.02153927 0.039268658 0.014890343 0.115337834 -0.082897365 0.031963542
-0.07664108 0.006062776 -0.056595847 0.045313403 0.08191539 0.009337693 0.0004169941 -0.09960179
0.118792385 0.041804 -0.07606763 -0.00052544475 0.07049541 -0.047976613 0.11491987 -0.045391977
0.035507813 -0.043451443 0.12303205 -0.1206118 -0.06803118 0.04137267 0.048053086 -0.07493904
-0.039934486 0.05891049 0.07662214 -0.020343333 0.058909103 0.00076939166 -0.019817725 0.018361926
0.029446736 0.08763082 0.11335954 0.09418279 -0.11352402 -0.084458634 -0.012774169 -0.1226933
-0.05310735 -0.008879453 0.075793356 0.027107954 0.018982306 0.024257839 -0.057685733 -0.11567131
-0.017551228 -0.122472 0.11672044 -0.072372094 0.004318744 0.07274675 -0.05582677 0.010925859
0.040253296 0.08337353 0.123869196 -0.003027469 -0.12350795 0.010788992 -0.11631985 -0.019842878
0.068855405 -0.028448775 -0.057620674 -0.05067222 -0.0484325 -0.024792686 -0.09879449 -0.06465177
0.06492874 -0.10036503 -0.048794582 -0.05617313 -0.004521951 -0.07017025 0.014801189 0.062019154
0.058677018 -0.06806569 -0.08639939 0.08039591 -0.0015700608 0.070146665 0.016592607 0.09953345
0.08634071 -0.103030145 0.08274174 0.002045557 -0.10989411 0.063430116 0.04097353 0.04042335
0.09348445 -0.123519704 -0.12135965 0.040471897 -0.07771249 0.06609285 0.012471855 -0.12430002
-0.12382145 0.01576814 -0.09330717 -0.10123961 0.064722106 -0.088045835 -0.01896125 -0.08626515
-0.019286364 0.053666458 -0.001041323 -0.03479886 -0.08232337 -0.09967548 -0.12363106 -0.045244053
00000000: 4c08 b9bd 6ebf d53d e21a 9bbd fc40 d03d
00000010: 0a51 d33d 0047 e23b 0c24 8ebd 5c3d dbbd
00000020: 18d3 303d 2e32 d13d 00bc 8c3d aa2d c13d
00000030: 0424 7c3d 007d bd3c ea12 9cbd f04c 81bc
00000040: 54d1 6c3d 1e3d bcbd d093 5a3d d0e7 b6bd
00000050: 7022 b13c 4826 d13c 04ea 473d 0089 cb3a
00000060: 207c fe3d 160d bbbd f01a b43d b01b 033c
00000070: 1ac5 9dbd f07a b5bd 04ea 133d ccef 4e3d
00000080: a468 063d 74ec b4bd c422 eb3d ac20 28bd
00000090: 4095 a63b c897 bfbc 904e d73d 88d0 17bd
000000a0: 0071 7abc 1029 ec3c 6a24 d23d 60dd 793d
000000b0: c62f f83d 5cbb 0bbd 40c5 30bc ce7d 833d
000000c0: 008d 36bb d89d c6bc 2c2f 5bbd e89b febc
000000d0: f028 3f3c 781d ff3c 4092 2dbb 0a3c bcbd
000000e0: 5a6d e6bd f00e 313d de65 a73d 10be f8bc
000000f0: d806 303d a0ce aa3b acb0 533d 9e9b e93d
00000100: 003d b73a 0882 673d 8c56 c1bd 38a7 f4bd
00000110: dce4 99bd f802 09bd f0fc 1c3c bc8f 79bd
00000120: 2c00 d33d aa6e 8b3d 685e b43c cca8 a53d
00000130: a4ef 0bbd 48df e43d f0dc 41bc d6cd 85bd
00000140: 94a8 31bd 7cee 273d 64b0 39bd f0b8 7bbd
00000150: 9c36 f7bd 3856 e0bd f626 dcbd 801b 0e3d
00000160: 9085 95bc 989a 30bd 4a00 f0bd d08a 92bc
00000170: 266b aa3d 2880 aabc e4b9 dbbd 060b a6bd
00000180: fc1d 193d cc61 843d 8c5c f93d 8cc7 9dbd
00000190: dc78 0a3d 00ba 423d 1ca4 0d3d 48e9 7b3d
000001a0: 50d4 b83d b0d5 ee3c 1083 ff3d 4463 86bd
000001b0: 24f0 78bd 22ad 97bd ecc7 3bbd a4fb d5bd
000001c0: f0ad d1bd 3eb8 eb3d 6ab3 8bbd e688 df3d
000001d0: 2229 a03d 8812 5d3d 18f3 83bd 6e48 98bd
000001e0: 88a6 083d 70a9 573d f8ed ec3d 6450 4cbd
000001f0: b016 d4bc b6b2 efbd f0fe debc 9435 aebd
00000200: 306c be3c 809f a93c 2073 b03c 2cd8 203d
00000210: a0f6 733c 3e36 ec3d 18c6 a9bd 34ec 023d
00000220: 00f6 9cbd 40aa c63b 0cd1 67bd 8c9a 393d
00000230: 42c3 a73d 20fd 183c 00a0 da39 06fc cbbd
00000240: 6c49 f33d ac3a 2b3d 58c9 9bbd 00be 09ba
00000250: e65f 903d 2083 44bd 1c5b eb3d f0ec 39bd
00000260: a470 113d 24fa 31bd 3af8 fb3d 5203 f7bd
00000270: ee53 8bbd 6476 293d 50d3 443d a479 99bd
00000280: 5892 23bd 204c 713d 12ec 9c3d 10a7 a6bc
00000290: ac4a 713d 00b1 493a c858 a2bc c06b 963c
000002a0: 483a f13c ca77 b33d 0c29 e83d e8e2 c03d
000002b0: 487f e8bd a6f8 acbd c04a 51bc a046 fbbd
000002c0: 1887 59bd 207b 11bc 8c39 9b3d 8011 de3c
000002d0: c880 9b3c 60b8 c63c e047 6cbd 14e5 ecbd
000002e0: 98c7 8fbc 9ad2 fabd 200b ef3d d237 94bd
000002f0: 4084 8d3b 40fc 943d 9caa 64bd 6002 333c
00000300: a4e0 243d bebf aa3d 22af fd3d 8068 46bb
00000310: bcf1 fcbd 50c4 303c 1a39 eebd 888d a2bc
00000320: 1004 8d3d 680d e9bc a803 6cbd ac8d 4fbd
00000330: 2861 46bd 081a cbbc c454 cabd 2668 84bd
00000340: 5cf9 843d 2e8c cdbd d4dc 47bd cc15 66bd
00000350: e02c 94bb 6cb5 8fbd b080 723c cc07 7e3d
00000360: 5057 703d 0666 8bbd 2af2 b0bd 9ca6 a43d
00000370: 80ca cdba 0ea9 8f3d 38ed 873c 32d8 cb3d
00000380: 66d3 b03d 7801 d3bd 8074 a93d c00e 063b
00000390: 2a10 e1bd a6e7 813d dcd3 273d f492 253d
000003a0: c674 bf3d e6f7 fcbd 688b f8bd dcc5 253d
000003b0: ba27 9fbd b05b 873d c056 4c3c 0291 febd
000003c0: 1a96 fdbd 302c 813c d417 bfbd b656 cfbd
000003d0: 068d 843d 6051 b4bd a054 9bbc c8ab b0bd
000003e0: 70fe 9dbc 5cd1 5b3d 007d 88ba 4089 0ebd
000003f0: 2899 a8bd a822 ccbd 4832 fdbd d451 39bd

lstm.bias_hh_l0 f4 [256]
0.083758846 -0.07545592 0.123181134 -0.018624216 -0.030635372 -0.0020966232 -0.11828132 0.023523524
-0.10948034 0.06668815 -0.035695866 -0.04805109 0.10010943 0.10633977 0.034337133 -0.073778436
0.03275597 0.005582586 0.09901507 0.0892093 0.118849605 0.0032189488 0.07840048 0.10519448
0.06167923 0.05425401 -0.0061233044 0.030405223 0.103294924 0.014365256 0.072949916 0.11855027
0.11867158 0.061182126 -0.0053156316 0.018550545 -0.11017464 -0.098254725 -0.06995092 -0.009848803
0.09085889 -0.073394805 -0.04884115 -0.11259137 0.095672235 -0.11999911 0.05739379 -0.06489992
-0.1071123 0.071622044 -0.007916406 -0.0048552305 -0.043433562 0.08443014 0.0021974295 -0.047155246
0.059481025 -0.10485937 -0.007540956 -0.07731672 0.001085043 -0.0994747 -0.009586334 0.08017664
-0.10946751 0.045161545 0.09652421 -0.046240747 0.057594195 -0.069436625 0.09588437 -0.022900626
0.08404155 -0.08745192 -0.009961322 0.0698279 -0.10990748 -0.12204902 0.058713675 -0.121076316
-0.06372596 -0.08585608 0.07325083 0.121900454 -0.049228773 -0.07746059 -0.11172412 -0.077957794
-0.08802502 0.07265754 0.121950895 0.013420597 0.01004158 0.08333337 -0.03661777 -0.10915063
0.07167497 0.0739108 0.008190334 0.11047694 0.028413579 0.056130394 0.077868775 -0.01841195
-0.10854304 0.10704401 -0.024099708 -0.054529697 -0.07995775 0.091117114 -0.044671476 0.016372606
-0.020637333 -0.04323235 -0.055718407 -0.026685193 -0.056294188 0.0910441 0.02443543 0.035576046
0.07123479 0.056789055 0.059469968 -0.023821622 0.02454564 -0.031273305 0.050936803 0.09986308
-0.009198442 0.11767608 0.10935138 0.11794922 -0.009838194 -0.10830991 0.065930724 0.077423036
-0.06688909 0.009861469 -0.107969955 0.10470864 0.08845845 -0.034122646 0.04266849 -0.097218364
0.09427416 -0.11700395 -0.046397462 -0.10635598 -0.117800504 -0.11168805 -0.020774156 -0.06974882
0.046142235 0.052214548 0.014607087 -0.009463936 0.0050198734 0.014958546 -0.07028976 -0.062354192
0.02979134 0.016265854 0.07895915 -0.091027394 -0.08671644 -0.110198304 0.04965 -0.11149128
0.012121528 0.12485674 0.09382789 -0.03279245 0.09528753 -0.096325055 -0.039686978 0.07970874
-0.019310966 0.05526592 0.044551387 -0.026820287 -0.07667853 0.063741624 0.005923122 -0.095344886
0.04595475 -0.12198685 0.026005208 0.10878447 -0.06416203 0.08553581 -0.08611882 0.05178912
-0.08432369 -0.08354555 -0.066479206 0.07908411 -0.08202508 -0.10425 -0.016323656 -0.0124938935
-0.048619494 0.08199431 0.060959056 0.07781696 0.016766772 0.074563146 0.03171116 0.076472834
-0.078877285 -0.009732664 0.05511506 -0.08528106 0.109978825 -0.09164932 0.020669058 -0.016665235
0.029661417 0.022786856 -0.07807356 -0.09350596 -0.1046813 0.09772973 0.06488745 -0.07622711
-0.06753568 0.06326766 -0.0146820545 -0.055243134 -0.027400374 0.07441831 0.114114225 -0.015500918
0.035478726 0.021233708 -0.006905809 0.0037013292 -0.10311413 -0.07029432 0.08530976 -0.037364453
0.03679955 -0.10976532 0.11676222 -0.075082704 -0.058769748 0.09119111 0.10146698 -0.068646476
0.06268029 0.11508839 0.0720119 -0.03399992 -0.003619954 -0.065409526 -0.10101773 -0.03325954
00000000: c289 ab3d a288 9abd 6446 fc3d d091 98bc
00000010: 08f7 fabc 8067 09bb 7a3d f2bd 68b4 c03c
00000020: 3a37 e0bd cc93 883d d435 12bd 38d1 44bd
00000030: 2c06 cd3d aac8 d93d 18a5 0c3d 2619 97bd
00000040: 202b 063d 20ee b63b 6ac8 ca3d 5eb3 b63d
00000050: 6c67 f33d 00f5 523b 6e90 a03d 3470 d73d
00000060: 5ca3 7c3d 7439 5e3d 00a6 c8bb 6014 f93c
00000070: 4a8c d33d 405c 6b3c c466 953d 7cca f23d
00000080: 160a f33d 1c9a 7a3d c02e aebb 50f7 973c
00000090: 3ea3 e1bd c639 c9bd 6e42 8fbd e05c 21bc
000000a0: 3a14 ba3d 0450 96bd a80d 48bd 4e96 e6bd
000000b0: ceef c33d 18c2 f5bd c015 6b3d 40ea 84bd
000000c0: b25d dbbd 94ae 923d d0b3 01bc a018 9fbb
000000d0: 64e7 31bd b6e9 ac3d c002 103b dc25 41bd
000000e0: 60a2 733d 82c0 d6bd 201a f7bb 3a58 9ebd
000000f0: 0038 8e3a 64b9 cbbd 0010 1dbc a633 a43d
00000100: 8030 e0bd 50fb 383d 7cae c53d f066 3dbd
00000110: e4e7 6b3d ca34 8ebd 065f c43d 189a bbbc
00000120: fa1d ac3d fe19 b3bd d034 23bc ee01 8f3d
00000130: 2c17 e1bd d6f4 f9bd c07d 703d dcf6 f7bd
00000140: c282 82bd 50d5 afbd 8804 963d f2a6 f93d
00000150: 1ca4 49bd a8a3 9ebd 9ecf e4bd 56a8 9fbd
00000160: 7646 b4bd 7acd 943d 64c1 f93d 10e2 5b3c
00000170: 7085 243c b0aa aa3d 84fc 15bd 5e8a dfbd
00000180: 54ca 923d 8c5e 973d c030 063c bc41 e23d
00000190: 98c3 e83c fce8 653d aa79 9f3d a8d4 96bc
000001a0: d04b debd e439 db3d c06c c5bc 885a 5fbd
000001b0: e4c0 a3bd 9c9b ba3d 70f9 36bd d81f 863c
000001c0: a00f a9bc 6814 31bd fc38 64bd e89a dabc
000001d0: bc94 66bd 5475 ba3d d02c c83c 30b8 113d
000001e0: 8ce3 913d a49b 683d c896 733d 9025 c3bc
000001f0: f013 c93c 7018 00bd 1ca3 503d 0485 cc3d
00000200: 10b5 16bc 2800 f13d 9ef3 df3d 5c8f f13d
00000210: 6030 21bc 96d1 ddbd b006 873d f88f 9e3d
00000220: 26fd 88bd 0092 213c 5a1f ddbd 7c71 d63d
00000230: b429 b53d 30c4 0bbd 28c5 2e3d 6c1a c7bd
00000240: d012 c13d c49f efbd 440b 3ebd 2ad1 d9bd
00000250: 6441 f1bd b4bc e4bd 902e aabc 78d8 8ebd
00000260: a4ff 3c3d ecde 553d 9052 6f3c a00e 1bbc
00000270: c07d a43b b014 753c 14f4 8fbd 1c67 7fbd
00000280: f80c f43c f83f 853c 56b5 a13d 926c babd
00000290: 6498 b1bd a6af e1bd cc5d 4b3d 8a55 e4bd
000002a0: 6099 463c e4b4 ff3d d628 c03d 6051 06bd
000002b0: 1c26 c33d 1246 c5bd d08e 22bd 563e a33d
000002c0: 0832 9ebc 845e 623d 847b 363d 38b6 dbbc
000002d0: a209 9dbd f88a 823d c016 c23b 2e44 c3bd
000002e0: 0c3b 3c3d 3ed4 f9bd e008 d53c 64ca de3d
000002f0: 6267 83bd 662d af3d 105f b0bd d420 543d
00000300: e6b1 acbd ee19 abbd 4026 88bd daf6 a13d
00000310: c4fc a7bd 0681 d5bd 30b9 85bc 30b3 4cbc
00000320: 3c25 47bd a2ec a73d 34b0 793d 805e 9f3d
00000330: 785a 893c 90b4 983d 90e3 013d ca9d 9c3d
00000340: 6a8a a1bd c075 1fbc 54c0 613d d6a7 aebd
00000350: 943c e13d a4b2 bbbd 2852 a93c 8885 88bc
00000360: 80fc f23c 80ab ba3c 08e5 9fbd 0e80 bfbd
00000370: 2663 d6bd 8626 c83d b6e3 843d f61c 9cbd
00000380: 2650 8abd 7a92 813d 008d 70bc a046 62bd
00000390: c076 e0bc a068 983d b8b4 e93d 90f7 7dbc
000003a0: 2452 113d 50f2 ad3c 204a e2bb 0092 723b
000003b0: 802d d3bd 78f6 8fbd e2b6 ae3d 780b 19bd
000003c0: 20bb 163d a4cc e0bd 0821 ef3d f6c4 99bd
000003d0: 8cb8 70bd 68c2 ba3d eccd cf3d 8696 8cbd
000003e0: 865e 803d 76b3 eb3d fa7a 933d 8043 0bbd
000003f0: c03c 6dbb 6ef5 85bd 62e2 cebd 283b 08bd

lstm.weight_ih_l1 f4 [256, 64]
-0.010741467 -0.00026158075 0.009381657 0.12434177 0.08879025 0.026933627 0.07922361 -0.048082866
-0.052691218 0.04563217 -0.11511324 -0.0741355 0.12518835 0.07382333 0.022009388 0.11089262
0.10750763 -0.10061666 -0.016133994 0.099418096 -0.0037981868 -0.03883615 0.10758045 -0.052134678
0.11634879 0.110581204 0.00043014006 0.012075521 -0.017849784 -0.06027554 0.029749855 -0.02161485
0.08787041 -0.117770374 0.124173045 0.04093578 -0.123809054 -0.088093564 -0.100887924 -0.10916393
0.07794042 0.10680217 0.021564975 -0.052083835 0.11420126 0.07290849 0.09089059 -0.11235212
-0.00020998716 0.0031578094 -0.071321435 -0.07879266 0.07319473 0.048873357 -0.09587172 -0.0063301353
-0.0463994 0.05353935 0.089572296 0.009966657 0.02500233 -0.06255071 -0.069983974 -0.025107652
0.07686587 0.077956416 -0.04070283 0.005249381 0.061044633 -0.09710044 -0.0688403 -0.08336077
-0.10235162 0.072254255 -0.12140754 -0.05372013 0.0121007245 -0.11396177 0.0031355023 -0.12848456
0.031879574 -0.013932528 0.012340024 -0.09092499 -0.014348447 0.08577657 0.08521548 0.020217577
-0.099626824 0.048787564 -0.08384465 -0.12210046 0.01263104 0.056274652 0.07849613 0.0955016
-0.06321393 0.060334355 -0.051331565 -0.12691875 0.09552094 -0.026608106 -0.08323453 -0.07359076
-0.041726813 -0.024335755 -0.124206334 -0.046884716 0.080175236 -0.085109174 0.09287363 0.05562356
0.050070897 0.08527322 0.10666972 0.11388056 -0.02367054 0.115324475 -0.010283574 0.100580744
-0.04456457 -0.11919956 0.07377407 -0.08201994 0.085949585 -0.010580242 0.10696906 0.0064323395
-0.055948023 0.12193703 -0.00086552015 -0.09329444 0.019009605 0.029073382 0.07185897 0.050331976
0.017510949 0.05799721 0.085733905 0.13178848 0.12150222 0.044684485 -0.018428773 -0.10200926
-0.043674797 0.117161416 0.090779796 0.0021474953 -0.0719022 0.01740405 0.06622678 0.07305789
0.03257774 0.03471458 -0.08500333 -0.063896716 0.07384819 -0.112681374 0.08346555 0.071653634
0.06593896 0.07796514 -0.04545258 -0.023223303 -0.06207326 0.023484727 -0.105170175 0.022190178
0.060578287 -0.025763374 0.036627322 -0.11809568 -0.06411028 0.0007492304 -0.050879598 -0.07055314
-0.10588251 0.059767544 0.08284601 0.10774179 0.10954532 -0.026216224 -0.080240294 0.03326881
-0.0374353 0.07459365 -0.050978437 -0.12443222 -0.052698925 -0.08512002 0.09100917 0.07429212
0.059199437 0.017884571 0.018601866 0.07917605 -0.11366336 0.06545648 -0.0490864 -0.034310095
0.017859412 0.029814273 -0.03508766 0.03811108 0.06860176 -0.09536657 0.11449443 -0.0012891367
-0.103468835 0.052846227 0.0042369068 0.03647729 0.07502329 -0.026262417 0.10625608 -0.008059982
-0.0934256 -0.05549328 -0.06530749 -0.08150712 -0.0065595037 -0.0026160479 -0.10120182 -0.018956438
-0.12167553 -0.11398935 -0.119162366 -0.090482816 -0.05611573 -0.013585505 -0.04665728 -0.06556135
0.091629684 -0.1163009 -0.019780308 -0.059646428 -0.050856695 0.098014936 -0.110189855 0.121427
0.048746184 -0.04730238 -0.09624732 -0.123481214 0.058376253 -0.104477815 -0.0672227 0.061664186
0.09344558 -0.04305646 0.10788928 0.027513415 0.025166765 0.037795037 -0.042068318 0.055234984
00000000: fafc 2fbc c624 89b9 85b5 193c e6a6 fe3d
00000010: aad7 b53d e9a3 dc3c fd3f a23d 8af2 44bd
00000020: bfd2 57bd cce8 3a3d 7ec0 ebbd 5ad4 97bd
00000030: 6031 003e b030 973d 084d b43c ac1b e33d
00000040: f62c dc3d 1c10 cebd 702b 84bc b79b cb3d
00000050: 00eb 78bb a812 1fbd 2453 dc3d 2c8b 55bd
00000060: 4648 ee3d 6678 e23d 6c84 e139 68d8 453c
00000070: b639 92bc 7ce3 76bd f8b5 f33c a011 b1bc
00000080: 67f5 b33d 9831 f1bd 704e fe3d 47ac 273d
00000090: 9a8f fdbd 666a b4bd 549e cebd 5791 dfbd
000000a0: 3a9f 9f3d 19bb da3d 08a9 b03c dc55 55bd
000000b0: 5ae2 e93d 0c51 953d d824 ba3d de18 e6bd
000000c0: 0030 5cb9 40f3 4e3b f910 92bd 0c5e a1bd
000000d0: 1ee7 953d 6e2f 483d 6458 c4bd 066d cfbb
000000e0: 4c0d 3ebd 144c 5b3d ae71 b73d 304b 233c
000000f0: b0d1 cc3c 961a 80bd c253 8fbd 90ae cdbc
00000100: da6b 9d3d 9da7 9f3d 03b8 26bd 0003 ac3b
00000110: f009 7a3d 98dc c6bd 25fc 8cbd 0db9 aabd
00000120: ba9d d1bd 0afa 933d 84a4 f8bd a409 5cbd
00000130: 1e42 463c ca64 e9bd 007d 4d3b 7591 03be
00000140: 2894 023d 4245 64bc d02d 4a3c e236 babd
00000150: c015 6bbc a0ab af3d 7485 ae3d 559f a53c
00000160: 2609 ccbd 78d5 473d beb6 abbd ce0f fabd
00000170: 6cf2 4e3c 4080 663d 94c2 a03d 5896 c33d
00000180: 4e76 81bd 2821 773d 0c41 52bd fdf6 01be
00000190: 7ca0 c33d 3ef9 d9bc de76 aabd c1b6 96bd
000001a0: bce9 2abd c75b c7bc e45f febd 300a 40bd
000001b0: ea32 a43d b84d aebd 8834 be3d 88d5 633d
000001c0: 2417 4d3d baa3 ae3d a775 da3d 363a e93d
000001d0: b8e8 c1bc 3d2f ec3d 707c 28bc 47fd cd3d
000001e0: 5789 36bd e61e f4bd dc16 973d 12fa a7bd
000001f0: 5606 b03d c058 2dbc 9812 db3d 60c6 d23b
00000200: c129 65bd 1fba f93d 13e4 62ba 2811 bfbd
00000210: 08ba 9b3c 4d2b ee3c cc2a 933d e728 4e3d
00000220: 1f73 8f3c 7c8e 6d3d 4295 af3d 8ff3 063e
00000230: 28d6 f83d 1407 373d f0f7 96bc 3bea d0bd
00000240: 58e4 32bd 53f2 ef3d c2ea b93d febc 0c3b
00000250: 7641 93bd f092 8e3c e8a1 873d 609f 953d
00000260: 3c70 053d e030 0e3d 3a16 aebd 48dc 82bd
00000270: b83d 973d 7ec5 e6bd fcef aa3d 24bf 923d
00000280: 010b 873d 30ac 9f3d 7c2c 3abd cc3e bebc
00000290: 8840 7ebd 0b63 c03c 7663 d7bd 2dc8 b53c
000002a0: f020 783d b60d d3bc 8806 163d 26dc f1bd
000002b0: 404c 83bd 0068 443a 2067 50bd 2a7e 90bd
000002c0: eed8 d8bd d0ce 743d 2bab a93d baa7 dc3d
000002d0: 4c59 e03d 68c3 d6bc 0655 a4bd e044 083d
000002e0: c255 19bd 8ec4 983d c4ce 50bd 52d6 febd
000002f0: d4da 57bd 6853 aebd 0463 ba3d 7826 983d
00000300: 1c7b 723d aa82 923c f162 983c 0e27 a23d
00000310: 56c8 e8bd 0c0e 863d d20e 49bd be88 0cbd
00000320: e74d 923c 103d f43c 14b8 0fbd 5d1a 1c3d
00000330: 147f 8c3d 8c4f c3bd 0e7c ea3d 40f8 a8ba
00000340: 78e7 d3bd 4975 583d c0d5 8a3b 3669 153d
00000350: d0a5 993d 4824 d7bc ca9c d93d 040e 04bc
00000360: ec55 bfbd ec4c 63bd efbf 85bd 34ed a6bd
00000370: 1bf1 d6bb 0072 2bbb e642 cfbd 884a 9bbc
00000380: 0531 f9bd 4073 e9bd 660b f4bd 0e4f b9bd
00000390: 9cd9 65bd bd95 5ebc b41b 3fbd 0745 86bd
000003a0: 58a8 bb3d 2b2f eebd 500a a2bc d04f 74bd
000003b0: 1c4f 50bd 0ebc c83d 38ab e1bd b8ae f83d
000003c0: 14aa 473d 24c0 41bd 511d c5bd b8e3 fcbd
000003d0: f01b 6f3d 77f8 d5bd 0eac 89bd 9693 7c3d
000003e0: 6560 bf3d f85b 30bd 0ef5 dc3d d063 e13c
000003f0: 882a ce3c f8ce 1a3d d44f 2cbd 143e 623d

lstm.weight_hh_l1 f4 [256, 64]
-0.07410691 0.095645316 -0.07475688 -0.052802466 -0.05719842 0.014418633 0.042116795 0.09766687
-0.087747335 -0.023650752 0.021400435 0.030126145 -0.020982945 -0.07293975 0.008412886 -0.10758141
0.051654015 0.11912391 0.09324707 -0.016446982 -0.0012016091 -0.007786315 0.07043313 -0.091557816
0.029303078 0.0064236857 -0.022096299 -0.08338939 -0.08567211 0.07375602 -0.013863815 0.0025384838
-0.022097474 0.003976127 0.052904356 -0.14157948 0.052395757 -0.10479993 0.06755247 0.06704779
-0.030263605 0.07326087 -0.02237949 0.06166548 0.06172828 0.030194791 -0.03146517 -0.1020179
0.06040426 -0.018328222 0.06550834 0.10209094 0.05086157 -0.031431843 0.08982374 -0.007781986
0.115102395 -0.05661815 0.08406741 0.03626073 0.08356503 -0.06312004 0.00030903224 0.020663902
0.0064138714 0.07513909 -0.13586059 -0.09349923 -0.08981774 -0.02704922 -0.09840849 0.10368701
-0.054908097 0.13148369 -0.03886327 -0.0030572675 0.025192931 -0.039104067 0.02324724 0.08298615
0.029517507 -0.061275166 -0.020855704 -0.088057235 0.13602963 0.0111886645 0.07939288 0.008767958
-0.11010387 0.120193705 0.030803468 -0.098123915 0.011561544 -0.1300702 0.016792612 0.08092919
0.019899916 0.1088684 -0.068147324 -0.032927636 -0.04263807 0.037593167 -0.024253853 -0.010690167
0.003466645 -0.05228684 0.027077468 -0.019395381 -0.027901592 0.026614299 0.06915462 0.07474577
0.078802176 -0.06469694 0.042334344 0.05574164 -0.060794577 -0.12941769 0.11032629 0.042205393
0.0820915 -0.06916831 -0.06821913 0.043371096 -0.040891748 0.07877877 0.044472072 -0.10123507
-0.107569754 -0.024670515 -0.020864626 -0.0749901 0.00698781 0.13487843 0.037171714 0.010460732
0.021930857 0.095234126 0.030859804 0.12624359 -0.115210354 0.03015626 0.010259999 0.04225579
0.10650905 0.11975528 0.09811215 0.07110857 -0.03583582 0.04351622 -0.082798414 -0.029422957
0.080052145 0.0050119716 -0.03628085 -0.087301865 0.0147504 0.004720882 -0.102295764 -0.13444668
0.016894666 -0.05908941 -0.10811973 0.08249187 -0.08897975 -0.03510303 -0.022277689 0.018016415
0.108682096 -0.11229029 0.09700274 0.03711377 0.05534169 -0.097230904 -0.01388107 0.071290955
-0.1146137 -0.07257936 0.056761503 0.09720283 0.0035982986 0.08920444 -0.043128528 0.019163964
0.078959756 -0.088606074 -0.10449732 0.048996836 -0.012795272 0.10385354 -0.026311615 -0.025316987
0.011998726 0.03612971 -0.0012355956 0.052004166 -0.09830499 -0.08651683 0.082061395 0.14331211
0.05463432 0.0077804383 -0.101481676 -0.062388103 -0.090056635 0.036469452 -0.042101365 -0.089497484
0.10080006 -0.038664512 0.11498934 0.02544776 0.08476376 0.03056497 -0.06714679 0.050092444
-0.0008127826 -0.08817234 -0.11869675 -0.13799897 0.076900475 0.09236058 0.10280638 0.036824375
0.049886733 0.05416617 -0.063013144 -0.01646769 0.0064100027 -0.014904964 0.0010477679 -0.11739093
-0.067238405 -0.09478972 0.06953796 0.093224466 -0.044474777 -0.078003965 -0.0627906 0.061924018
0.005298021 -0.04848629 0.079985924 0.023876932 0.017974729 -0.05768643 -0.09562133 0.027248235
0.021369886 0.008981211 0.0953858 -0.061633162 0.12661919 0.07688916 -0.06370891 -0.030211098
00000000: 5dc5 97bd b1e1 c33d 231a 99bd 6647 58bd
00000010: e448 6abd 213c 6c3c a982 2c3d 9105 c83d
00000020: e0b4 b3bd 39bf c1bc f74f af3c 1bcb f63c
00000030: 6de4 abbc 7061 95bd 34d6 093c a453 dcbd
00000040: 2993 533d 3df7 f33d 52f8 be3d d2bb 86bc
00000050: 507f 9dba 5824 ffbb 3f3f 903d aa82 bbbd
00000060: 020d f03c c87d d23b 4c03 b5bc 0ec8 aabd
00000070: dc74 afbd 650d 973d 0e25 63bc b15c 263b
00000080: c305 b5bc 2c4a 823b 3db2 583d 36fa 10be
00000090: ef9c 563d 58a1 d6bd f358 8a3d 5a50 893d
000000a0: 61eb f7bc cc09 963d 3155 b7bc f194 7c3d
000000b0: cbd6 7c3d 115b f73c 9fe1 00bd c3ee d0bd
000000c0: 756a 773d 1125 96bc 3d29 863d 0e15 d13d
000000d0: 3954 503d adbe 00bd 82f5 b73d 0800 ffbb
000000e0: ceba eb3d 6fe8 67bd 892b ac3d 2286 143d
000000f0: 2424 ab3d 1445 81bd 9b05 a239 5847 a93c
00000100: 742b d23b 86e2 993d 0a1f 0bbe 867c bfbd
00000110: 5df2 b7bd 5396 ddbc 648a c9bd db59 d43d
00000120: 50e7 60bd a9a3 063e 182f 1fbd 705c 48bb
00000130: 6861 ce3c 962b 20bd ff70 be3c a5f4 a93d
00000140: b3ce f13c abfb 7abd 95d9 aabc 5a57 b4bd
00000150: 5a4b 0b3e a950 373c bc98 a23d 7ba7 0f3c
00000160: 237e e1bd 1e28 f63d 8e57 fc3c 31f5 c8bd
00000170: a16c 3d3c 1f31 05be a990 893c 34be a53d
00000180: 2605 a33c 65f6 de3d d390 8bbd 21df 06bd
00000190: 42a5 2ebd 4bfb 193d 04b0 c6bc cf25 2fbc
000001a0: a730 633b ba2a 56bd 91d1 dd3c 10e3 9ebc
000001b0: e191 e4bc 3b06 da3c f0a0 8d3d 4f14 993d
000001c0: 0963 a13d d47f 84bd c766 2d3d 5951 643d
000001d0: bc03 79bd 1286 04be c0f2 e13d 90df 2c3d
000001e0: 971f a83d 1da8 8dbd 79b6 8bbd e4a5 313d
000001f0: 1b7e 27bd c456 a13d 5928 363d 5554 cfbd
00000200: 884d dcbd d219 cabc 4bec aabc 6994 99bd
00000210: 00fa e43b 921d 0a3e 5e41 183d 7d63 2b3c
00000220: 57a8 b33c 1c0a c33d b3cd fc3c 0046 013e
00000230: 68f3 ebbd 430a f73c 8e19 283c 6814 2d3d
00000240: 6b21 da3d 4242 f53d 06ef c83d 5fa1 913d
00000250: 95c8 12bd 103e 323d 3792 a9bd 6a08 f1bc
00000260: 61f2 a33d 773b a43b 3b9b 14bd 52cb b2bd
00000270: a9ab 713c a1b1 9a3b 7180 d1bd 64ac 09be
00000280: af66 8a3c bd07 72bd e16d ddbd 7ff1 a83d
00000290: 043b b6bd 32c8 0fbd b37f b6bc 2997 933c
000002a0: b894 de3d 74f8 e5bd 5fa9 c63d 9c04 183d
000002b0: f8ad 623d ff20 c7bd 6d6d 63bc fe00 923d
000002c0: 96ba eabd 7da4 94bd c07e 683d 4712 c73d
000002d0: 6fd1 6b3b d1b0 b63d 8aa7 30bd bffd 9c3c
000002e0: a7b5 a13d 1a77 b5bd b102 d6bd e8b0 483d
000002f0: 43a3 51bc 2ab1 d43d 758b d7bc 9265 cfbc
00000300: 4e96 443c bffc 133d b5f3 a1ba 5202 553d
00000310: 2054 c9bd bc2f b1bd ce0f a83d 69c0 123e
00000320: 3dc8 5f3d 0cf3 fe3b a0d5 cfbd ab8a 7fbd
00000330: 9d6f b8bd fe60 153d 7b72 2cbd 754a b7bd
00000340: 4370 ce3d ae5e 1ebd 887f eb3d d277 d03c
00000350: 9f98 ad3d 6363 fa3c 4284 89bd bc2d 4d3d
00000360: eb10 55ba b393 b4bd 4817 f3bd 9a4f 0dbe
00000370: ff7d 9d3d 8b27 bd3d 278c d23d 28d5 163d
00000380: 0856 4c3d 59dd 5d3d 090d 81bd 40e7 86bc
00000390: 000b d23b f333 74bc 4255 893a a86a f0bd
000003a0: 4ab4 89bd 1d21 c2bd eb69 8e3d 78ec be3d
000003b0: 2f2b 36bd 8bc0 9fbd 5c98 80bd 0aa4 7d3d
000003c0: 059b ad3b 8f99 46bd a9cf a33d 8e99 c33c
000003d0: bd3f 933c 9b48 6cbd 1ed5 c3bd b137 df3c
000003e0: e60f af3c ee25 133c a159 c33d 0e73 7cbd
000003f0: 76a8 013e 1078 9d3d d179 82bd 447d f7bc

lstm.bias_ih_l1 f4 [256]
0.046946604 -0.08917199 -0.09096351 0.11410441 0.05792099 -0.008998011 0.11781253 -0.098155014
-0.017937206 0.012066191 0.11695818 0.1344434 -0.014162953 0.037918087 -0.035948876 -0.097786196
-0.057316594 0.06358622 -0.09514598 -0.0847761 -0.0022188434 -0.07835523 -0.016235463 0.052988503
0.01578682 0.099244006 0.05202337 0.082056455 -0.10246449 0.03962276 -0.10547989 0.09303429
0.0067484 -0.027257718 0.0677983 -0.06543497 -0.021486025 -0.016303726 0.010825745 0.06690378
0.012414509 0.043015394 -0.0045541194 0.037711363 0.12262274 0.07544744 -0.010704487 0.05547719
0.11655155 -0.019899076 -0.10119356 0.014759529 0.10119786 -0.103130095 -0.04917271 0.07009782
0.016405163 -0.06165914 -0.057134643 0.03902446 0.13288766 0.077682585 -0.049788743 -0.10352945
0.07002099 0.0046212766 0.061436825 0.008397786 -0.078740336 0.015536419 -0.03552839 0.13074134
-0.036714505 0.04843426 -0.11387116 -0.016733166 0.058314722 0.057632476 -0.0925093 0.035183284
0.049015597 -0.010944433 0.103158094 0.07564737 0.13667369 -0.1059934 0.111575805 -0.004998299
0.11983265 -0.061559636 0.0060073296 0.08448035 0.026712233 0.04427984 0.06738614 0.029080905
-0.046195224 -0.03738245 -0.10808914 -0.03508301 -0.07187884 -0.06415836 0.046084385 0.072365716
0.029079467 0.031373724 0.124703795 -0.045105483 0.057427 0.119659945 -0.06258078 0.070591494
-0.027023615 0.113796785 -0.083994836 0.10813345 0.051018786 -0.06361651 0.06450956 -0.029955119
0.04106888 -0.057035893 -0.023736382 -0.006066503 -0.09824142 -0.022397164 0.070801675 -0.05369967
0.07294413 0.1304956 -0.1348745 -0.09302923 -0.07681504 0.09957597 -0.030767823 0.12598458
-0.10482562 0.0077933692 0.08803142 -0.070572585 0.059988894 -0.058368497 0.09396714 0.013708054
-0.04725601 0.03837936 -0.069664076 -0.063708864 0.0070280517 -0.091342986 0.096488774 -0.116841935
0.04341966 0.04609594 0.046760425 0.007251748 -0.024361314 -0.11795175 0.1312679 -0.06616784
0.12077257 0.12659311 0.051118873 -0.029064039 -0.12111816 -0.013651854 -0.012784206 -0.102848515
0.025485842 -0.10212364 0.08005997 0.039429285 -0.1157697 0.07905802 0.09244052 -0.023587529
-0.06027921 -0.07081828 -0.059708726 -0.06265561 0.069718316 -0.057601325 -0.04321862 0.053021204
0.044837415 0.062379185 -0.0059280815 0.08604967 -0.003798967 0.09175861 0.09284352 0.07340272
0.04250244 0.12938663 0.06161693 0.14382541 -0.08136549 0.000819389 0.081945345 -0.0669032
0.046586383 0.078424044 0.015877686 0.003240973 -0.07461803 0.12602171 0.026222028 -0.0917183
0.069353886 -0.0045969402 0.09576113 0.08372548 0.116864674 -0.04988545 0.04146513 0.012445106
0.0018205484 0.10555698 0.12573218 0.038050286 -0.059117902 -0.04836571 -0.038482074 0.067347944
-0.017360445 0.07234897 -0.026557513 0.008319911 0.08866262 0.08705211 0.00703563 -0.06558975
-0.028405152 -0.055065345 -0.001274993 -0.0113488445 0.11298482 -0.085531674 0.093054876 0.14061774
0.08668811 0.08866072 0.12009016 -0.091279574 0.0033790534 0.11586234 0.045166664 -0.024295313
0.03560695 0.056706615 -0.074269846 -0.03337886 -0.04737594 0.09516558 0.10515368 0.14113733
00000000: 154b 403d ce9f b6bd 144b babd 93af e93d
00000010: 8f3e 6d3d 656c 13bc b247 f13d 7f05 c9bd
00000020: 0cf1 92bc 46b1 453c c587 ef3d 88ab 093e
00000030: bb0b 68bc ff4f 1b3d 213f 13bd 2144 c8bd
00000040: cec4 6abd 7e39 823d e5db c2bd 189f adbd
00000050: 046a 11bb b578 a0bd 3c00 85bc 790a 593d
00000060: 5c53 813c 7140 cb3d 7516 553d 370d a83d
00000070: e7d8 d1bd 7a4b 223d d705 d8bd c388 be3d
00000080: af21 dd3b 944b dfbc d6d9 8a3d c502 86bd
00000090: 7603 b0bc 648f 85bc 775e 313c d904 893d
000000a0: 3a66 4b3c e930 303d b93a 95bb 3b77 1a3d
000000b0: a221 fb3d 3084 9a3d df61 2fbc 0d3c 633d
000000c0: 94b2 ee3d 6303 a3bc 923e cfbd f4d1 713c
000000d0: d340 cf3d df35 d3bd 5369 49bd 728f 8f3d
000000e0: 1f64 863c 4b8e 7cbd 0406 6abd 1dd8 1f3d
000000f0: b413 083e 0c18 9f3d 48ef 4bbd 4007 d4bd
00000100: 2a67 8f3d 146e 973b 2ea5 7b3d de96 093c
00000110: 9d42 a1bd 778c 7e3c 3886 11bd 0fe1 053e
00000120: f361 16bd 0163 463d 4835 e9bd fe13 89bc
00000130: 6bdb 6e3d 0810 6c3d 8475 bdbd 591c 103d
00000140: 94c4 483d 4750 33bc 8d44 d33d 02ed 9a3d
00000150: 30f4 0b3e 1113 d9bd db81 e43d c5c8 a3bb
00000160: d26a f53d f525 7cbd 22d9 c43b 0904 ad3d
00000170: 9dd3 da3c c75e 353d bf01 8a3d 143b ee3c
00000180: 3437 3dbd 571e 19bd d75d ddbd 34b3 0fbd
00000190: 3735 93bd 7565 83bd fbc2 3c3d 7a34 943d
000001a0: 1038 ee3c bc81 003d b464 ff3d 87c0 38bd
000001b0: 9338 6b3d 4610 f53d 5a2a 80bd 4692 903d
000001c0: a160 ddbc 4a0e e93d 7c05 acbd 1275 dd3d
000001d0: 13f9 503d 5f49 82bd 971d 843d 7064 f5bc
000001e0: d837 283d 789e 69bd cd72 c2bc 84c9 c6bb
000001f0: cc32 c9bd 427a b7bc 7800 913d 2ff4 5bbd
00000200: bb63 953d a3a0 053e 8a1c 0abe 1c86 bebd
00000210: 3451 9dbd 7cee cb3d cd0c fcbc 1a02 013e
00000220: d1ae d6bd 855f ff3b d149 b43d 5c88 90bd
00000230: eab6 753d ce13 6fbd d871 c03d bf97 603c
00000240: 858f 41bd ad33 1d3d 0aac 8ebd cb79 82bd
00000250: 924b e63b 0812 bbbd e89b c53d d34a efbd
00000260: d0d8 313d 19cf 3c3d dc87 3f3d 12a0 ed3b
00000270: 6191 c7bc b090 f1bd 186b 063e 0183 87bd
00000280: 9c57 f73d a0a1 013e 0662 513d b517 eebc
00000290: cc0c f8bd 07ac 5fbc d974 51bc 3ea2 d2bd
000002a0: afc7 d03c 3326 d1bd 7bf6 a33d 9a80 213d
000002b0: aa18 edbd 2ce9 a13d 7551 bd3d a23a c1bc
000002c0: 55e7 76bd 2d09 91bd 2391 74bd 9651 80bd
000002d0: 7ac8 8e3d 5eef 6bbd 0206 31bd c32c 593d
000002e0: 70a7 373d 5181 7f3d 5a40 c2bb cf3a b03d
000002f0: 17f8 78bb f0eb bb3d be24 be3d 2a54 963d
00000300: 0a17 2e3d ee7d 043e 0962 7c3d f846 133e
00000310: f3a2 a6bd 44cc 563a f6d2 a73d 8b04 89bd
00000320: 5dd1 3e3d c99c a03d ec11 823c 8166 543b
00000330: 56d1 98bd d60b 013e 94cf d63c ced6 bbbd
00000340: 6909 8e3d eea1 96bb 691e c43d 4478 ab3d
00000350: bf56 ef3d b054 4cbd 57d7 293d 8fe6 4b3c
00000360: 789f ee3a 422e d83d f0bf 003e 9eda 1b3d
00000370: 9d25 72bd 1f1b 46bd 619f 1dbd b8ed 893d
00000380: 7e37 8ebc b22b 943d 248f d9bc 3c50 083c
00000390: bf94 b53d 6048 b23d 248b e63b eb53 86bd
000003a0: ecb1 e8bc 338c 61bd aa1d a7ba 81f0 39bc
000003b0: 9664 e73d 3b2b afbd 8e93 be3d 19fe 0f3e
000003c0: 8989 b13d c093 b53d d4f1 f53d c9f0 babd
000003d0: 1c73 5d3b 3c49 ed3d ae00 393d f706 c7bc
000003e0: 98d8 113d 3245 683d ca1a 98bd 46b8 08bd
000003f0: 460d 42bd 2ce6 c23d d05a d73d 4e86 103e
