models/ETHUSDT_lstm_20250822_020036.pth (torch, 267815 bytes, 11 tensors)

lstm.weight_ih_l0 f4 [256, 53]
0	0x3d9b5f72	0.07586564
1	0xbcbf58b0	-0.02335772
2	0xbd45020c	-0.048097655
3	0xbdee5268	-0.116368115
4	0x3dcd186c	0.10014424
5	0x3d41b384	0.04729034
6	0x3d931206	0.07181172
7	0x3d768314	0.0601836
8	0xbd804f30	-0.06265104
9	0x3d98fc68	0.07470018
10	0xbd83f1f2	-0.06442632
11	0xbc892a10	-0.01674369
12	0x3ca07088	0.01958491
13	0xbdea48b2	-0.11439647
14	0x3d05d8a0	0.032677293
15	0xbd9575ca	-0.07297857
16	0xbd7aa664	-0.06119384
17	0xbd5dd568	-0.0541586
18	0xbcebb358	-0.028772041
19	0x3d675438	0.0564768
20	0x3dd01598	0.10160369
21	0xbd09e988	-0.03366998
22	0xbd13e308	-0.036105186
23	0x3d8f00a0	0.06982541
24	0xbbf99c60	-0.0076175183
25	0xbd90c490	-0.07068741
26	0xbd7975d4	-0.060903385
27	0xbd9db8a8	-0.07701236
28	0x3dd39286	0.103306815
29	0x3d80a4e4	0.062814504
30	0xbaa70c80	-0.0012744814
31	0xbd0a00b4	-0.033692077
32	0x3d511d78	0.051053494
33	0xbd348728	-0.044074208
34	0x3c080880	0.008302808
35	0xbc82d588	-0.01597096
36	0x3d46e778	0.04856059
37	0x3d333988	0.043756038
38	0xbd492418	-0.049106687
39	0x3d61f988	0.055169612
40	0x3c95aae8	0.018269971
41	0x3ddf6aa8	0.10909015
42	0xbd909364	-0.070593625
43	0x3d34cacc	0.044138715
44	0x3de39972	0.11113252
45	0x3df750c6	0.12075953
46	0x3dd3ee52	0.1034819
47	0xbd37674c	-0.044776246
48	0x3bd44360	0.0064777583
49	0xbdd7f42e	-0.105446205
50	0xbd45c688	-0.048285037
51	0x3b7d5440	0.0038654953
52	0x3cc132f8	0.023583874
53	0xbcc78598	-0.024355695
54	0x3db96980	0.09053326
55	0xbcbb27d8	-0.022846147
56	0xbcb002c8	-0.021485701
57	0xbdae529c	-0.0851185
58	0x3d0d4d30	0.03449744
59	0xbc99cb48	-0.01877369
60	0x3d13177c	0.03591107
61	0xbdcf0564	-0.1010845
62	0xbb5bb4c0	-0.0033524483
63	0x3cd08e98	0.025458619
64	0x3d91c852	0.07118286
65	0x3dd333c4	0.10312608
66	0xbdf1e6c4	-0.11811593
67	0x3db3f9be	0.08787869
68	0xbd84e73c	-0.06489417
69	0xbdc1c06c	-0.0946053
70	0xbdb060ba	-0.08612199
71	0x3da19978	0.078906
72	0x3d015864	0.031578436
73	0x3dafbf8a	0.08581455
74	0xbc6dcfa0	-0.014514834
75	0x3ca34270	0.01992914
76	0x3ca057a8	0.019573048
77	0xbd3390c8	-0.043839246
78	0xbd61c8ec	-0.055123255
79	0x3dbc0df8	0.09182352
80	0x3d375c4c	0.044765756
81	0x3d8a1116	0.0674154
82	0x3cc42938	0.023945436
83	0xbdc83e2c	-0.09777483
84	0x3ce219c8	0.027600184
85	0x3c219360	0.009861797
86	0x3d2a5530	0.041585147
87	0xbcf2d390	-0.029641896
88	0xbdcef2fa	-0.10104938
89	0x3ddaa30e	0.106756315
90	0xbde3b546	-0.111185595
91	0x3d0dec58	0.034649223
92	0x3dfee4ca	0.12445982
93	0x3b5bec00	0.0033557415
94	0xbd828c2a	-0.063743904
95	0xbd43b558	-0.047780365
96	0xbcfb27c0	-0.030658603
97	0xbcaed658	-0.021342441
98	0xbdd91b74	-0.106009394
99	0xbdfae364	-0.122504026
100	0xbda68934	-0.08131638
101	0x3c608420	0.013703376
102	0xbdce32e6	-0.10068302
103	0xbdbeacaa	-0.09310277
104	0x3d5290d0	0.051407635
105	0xbdbb03d0	-0.091315866
106	0xbda20a6a	-0.079121426
107	0xbd6453d4	-0.055744007
108	0x3defef20	0.11715531
109	0xbdc27ae0	-0.09496093
110	0x3d69131c	0.05690299
111	0xbd09d7e4	-0.033653155
112	0x3c4b8250	0.012421206
113	0xbde5d8b6	-0.11222975
114	0x3db92fee	0.09042345
115	0xbd99149e	-0.074746355
116	0xbdd9b7b2	-0.1063074
117	0xbcc5d878	-0.024151072
118	0x3d926abc	0.07149264
119	0xbcc0dda0	-0.023543179
120	0x3dd235c0	0.10264158
121	0xbda6e610	-0.0814935
122	0xbdde8d1c	-0.10866758
123	0xbd07b0b0	-0.033127487
124	0xbdd02c9e	-0.1016476
125	0x3d504d14	0.050854757
126	0x3d8e2a94	0.06941715
127	0x3d259840	0.0404284
128	0xbddb848c	-0.10718641
129	0xbd354fc0	-0.04426551
130	0x3d4fdf98	0.050750345
131	0xbdda22a8	-0.106511414
132	0xbd815542	-0.0631509
133	0xbd8eb4e4	-0.06968096
134	0xbd2ed668	-0.042684942
135	0xbcd2a5d0	-0.025713831
136	0xbcf95458	-0.030435726
137	0x3d85bd68	0.06530267
138	0xbdb41366	-0.087927625
139	0x3dad544c	0.08463344
140	0x3dfc7cb4	0.12328473
141	0x3cd2da60	0.025738895
142	0xbd8a840a	-0.06763466
143	0xbd9a2524	-0.07526615
144	0xbd340f9c	-0.0439602
145	0xbdbe5358	-0.0929324
146	0x3d88bef4	0.066770464
147	0x3d90b086	0.07064919
148	0x3df8ba06	0.12144856
149	0xbdb5bada	-0.0887353
150	0xbcc04738	-0.02347146
151	0xbdd009c0	-0.1015811
152	0x3dd1dd82	0.102473274
153	0xbde27628	-0.11057693
154	0xbc9ab958	-0.018887207
155	0x3d29bb60	0.04143846
156	0x3ce395c8	0.027781382
157	0x3dd84ce2	0.10561539
158	0xbd070cdc	-0.032971248
159	0xbd21cbf0	-0.03950113
160	0xbdccd3dc	-0.100013465
161	0x3d55b388	0.052173167
162	0x3dcec3e2	0.100959554
163	0xbdb47c70	-0.08812797
164	0xbcfe23d0	-0.031022936
165	0xbd7c7680	-0.061636448
166	0x3d85e508	0.06537825
167	0x3de4d83e	0.111740574
168	0xbc4cf3a0	-0.012509257
169	0x3c78fcd0	0.015196994
170	0xbc9c8bd0	-0.019109637
171	0x3db17da0	0.08666539
172	0xbd3dd5c8	-0.046346456
173	0xbde521e4	-0.11188105
174	0x3d13c038	0.036071986
175	0x3df74c6c	0.12075123
176	0xbdd4a82e	-0.1038364
177	0xbd87a2ea	-0.0662287
178	0xbdedac30	-0.11605108
179	0xbdd0873a	-0.101820424
180	0x3da6b726	0.081404015
181	0xbd30023c	-0.04297088
182	0x3ccb1208	0.024788871
183	0xbdc39e5c	-0.09551689
184	0x3c218740	0.009858906
185	0x3d57983c	0.052635416
186	0x3b63e540	0.0034774095
187	0xbd960984	-0.07326034
188	0xbdbca238	-0.09210628
189	0xbdd618a0	-0.104539156
190	0x3d8e2206	0.06940083
191	0xbd3837e0	-0.04497516
192	0xbdd980b2	-0.1062025
193	0x3de9f904	0.11424449
194	0x3d2ef708	0.042716056
195	0x3d96e438	0.07367748
196	0xbd5258f8	-0.05135438
197	0x3dfe18f0	0.124071
198	0xbdf8a084	-0.12139991
199	0x3d6502f0	0.055911005
200	0x3dc13e22	0.09435679
201	0x3d6ee094	0.058319643
202	0x3df764ec	0.12079796
203	0xbd673218	-0.056444257
204	0xbcbd2318	-0.023088023
205	0xbd7a0c78	-0.061047047
206	0xbd90f680	-0.07078266
207	0xbdf453c2	-0.11930038
208	0xbd479fb4	-0.04873629
209	0xb9844c00	-0.00025233626
210	0xbd15b790	-0.036552012
211	0x3de2c2fc	0.110723466
212	0x3cc58da8	0.024115399
213	0x3d87b7e2	0.0662687
214	0xbddbcc74	-0.10732356
215	0x3df40adc	0.11916134
216	0xbd8ded3c	-0.069300145
217	0xbded1306	-0.11575894
218	0x3d351da4	0.04421772
219	0x3dcee1e6	0.101016805
220	0x3db24092	0.08703722
221	0x3d16e574	0.036839917
222	0xbdf27390	-0.11838448
223	0xbd1c2928	-0.038125187
224	0x3dd79e2a	0.10528214
225	0xbd20f6e4	-0.039297953
226	0xbdaf3b7e	-0.08556269
227	0x3dcf7e3a	0.10131498
228	0x3c626a60	0.013819307
229	0xbd053b2c	-0.032527134
230	0x3daaef02	0.08346368
231	0x3c2f87d0	0.010713533
232	0x3d642164	0.055695906
233	0xbddbfcba	-0.10741563
234	0x3dcc52c6	0.09976725
235	0xbd8117cc	-0.06303367
236	0x3d5e6cd0	0.05430299
237	0x3dbc2696	0.09187047
238	0xbde15900	-0.110033035
239	0x3d3eb440	0.04655862
240	0xbdf31c76	-0.11870663
241	0x3dae7028	0.08517486
242	0xbdfe2d64	-0.12411001
243	0x3c44c050	0.0120087415
244	0xba6f5c00	-0.00091308355
245	0xbdf03730	-0.11729276
246	0x3df79e98	0.12090796
247	0x3dfec912	0.12440695
248	0xbd9983c0	-0.074958324
249	0xbd406c1c	-0.0469781
250	0xbd590070	-0.052978933
251	0xbdd9993c	-0.1062493
252	0x3df721fe	0.1206703
253	0xbd2f3214	-0.042772368
254	0x3d96ed88	0.07369524
255	0xbdef5038	-0.116852224

lstm.weight_hh_l0 f4 [256, 64]
0	0xbc79c420	-0.015244514
1	0xbdd85c5a	-0.1056449
2	0xbd888e1c	-0.0666773
3	0x3dce0a28	0.10060531
4	0x3ca8aba0	0.02058965
5	0xbdc48d54	-0.09597269
6	0x3dd0e280	0.101994514
7	0x3cef6e68	0.02922745
8	0xbdddddfc	-0.10833356
9	0x3de3b63a	0.11118741
10	0xbcc8d8e0	-0.024517477
11	0xbd1e3c30	-0.038631618
12	0xbc9c0730	-0.019046396
13	0x3d3de64c	0.046362206
14	0xbce31980	-0.02772212
15	0x3d4048d0	0.04694444
16	0x3dbb154e	0.09134923
17	0x3dd04354	0.10169092
18	0x3de30166	0.11084251
19	0xbd40d304	-0.04707624
20	0x3ca34440	0.019930005
21	0x3d763b9c	0.06011544
22	0xbcac9eb0	-0.021071762
23	0xbd4db1dc	-0.050218448
24	0x3c956978	0.018238768
25	0x3dadd86a	0.08488543
26	0xbb4abc40	-0.003093496
27	0x3c6359b0	0.013876364
28	0x3d949762	0.072554365
29	0xbd9be3a8	-0.07611781
30	0x3d7bf8a8	0.061516434
31	0x3da3f9f6	0.08006661
32	0xbd333844	-0.04375483
33	0xbcb73108	-0.022362247
34	0xbde03b02	-0.10948755
35	0x3de07c6e	0.10961233
36	0x3db6b9a0	0.08922124
37	0x3ca9c998	0.02072601
38	0x3dc96462	0.098335996
39	0xbdc41b6c	-0.09575543
40	0x3d9d2eaa	0.07674916
41	0x3d8326ec	0.06403908
42	0x3de56dc2	0.11202575
43	0x3db9ad76	0.09066288
44	0xbd1bc350	-0.03802806
45	0x3d354da4	0.044263497
46	0xbda8ad7a	-0.08236213
47	0xba50cd00	-0.00079651177
48	0x3df2c324	0.11853626
49	0xbcd004a8	-0.025392845
50	0xbc853678	-0.016261324
51	0xbcf24f48	-0.02957882
52	0x3de41a1e	0.11137794
53	0x3d27b7e8	0.04094687
54	0xbdb1b7ac	-0.08677611
55	0xbd9462c2	-0.07245399
56	0xbdbdde2a	-0.0927089
57	0xbd8215f8	-0.063518465
58	0xbd7f6254	-0.062349632
59	0xbcb03578	-0.02150987
60	0x3db6b4ca	0.089212015
61	0xbd9022e2	-0.07037903
62	0x3dfd1cba	0.12358995
63	0x3d22311c	0.039597616
64	0xbd08dd08	-0.033413917
65	0x3d5e6850	0.0542987
66	0x3b9e1120	0.004823819
67	0x3d16a0bc	0.036774382
68	0x3dca6d26	0.098841
69	0x3d1d844c	0.038456246
70	0xbd0f48d8	-0.03498158
71	0xbc808c68	-0.01569195
72	0x3dd4abec	0.10384354
73	0x3d2337e8	0.03984824
74	0x3d04d3ac	0.03242843
75	0x3da1b6be	0.078961834
76	0x3d994e74	0.07485667
77	0x3d142dfc	0.036176667
78	0x3b4bb740	0.0031084567
79	0xbd5f055c	-0.05444847
80	0xbd997bbe	-0.07494305
81	0x3dd82704	0.10554317
82	0xbd89cef0	-0.06728923
83	0x3da1d92e	0.07902752
84	0x3d03cf00	0.032179832
85	0x3befafe0	0.007314667
86	0xbca38df8	-0.019965157
87	0xbdb934bc	-0.090432614
88	0x3c205690	0.009786263
89	0xbd040fcc	-0.032241628
90	0xbdbb24b0	-0.09137857
91	0xbd397b3c	-0.04528354
92	0xbc808168	-0.015686706
93	0x3dfaf462	0.122536436
94	0xbd9a7596	-0.07541959
95	0x3d909b3e	0.0706086
96	0x3d775d8c	0.060391948
97	0xbc5a2120	-0.013313562
98	0x3d500538	0.050786227
99	0xbcb92a38	-0.02260314
100	0xbddbe226	-0.10736494
101	0xbcfc23e8	-0.03077884
102	0xbc9e9dc8	-0.019362345
103	0x3da6eae8	0.081502736
104	0x3dafa286	0.08575921
105	0xbd972152	-0.07379402
106	0x3d95b22c	0.07309374
107	0xbdd6a82a	-0.104812935
108	0xbd2fc7a8	-0.042915016
109	0x3d7a2e04	0.06107904
110	0x3dccf1de	0.1000707
111	0xbd057028	-0.032577664
112	0xbc732800	-0.01484108
113	0xbd856c4c	-0.065147966
114	0xbc5fd570	-0.013661727
115	0x3913a800	0.00014081597
116	0x3d1fc788	0.039008647
117	0xbd687c58	-0.05675921
118	0xbcfde1b0	-0.030991405
119	0x3d7a0a94	0.061045244
120	0xbd3e7bd8	-0.046504825
121	0xbdc07f76	-0.09399311
122	0x3d9547a6	0.072890565
123	0x3dddfa8a	0.10838802
124	0xbdc4bce0	-0.096063375
125	0x3d94a056	0.07257144
126	0x3deb055c	0.114756316
127	0x3d2df390	0.042468607
128	0x3d4e98c0	0.050438643
129	0x3d350ae0	0.044199824
130	0x3dae08c8	0.08497769
131	0xbd506b0c	-0.050883338
132	0x3d9d2644	0.07673314
133	0x3d59eb48	0.053202897
134	0xbd62d2fc	-0.05537699
135	0xbc4cfdc0	-0.012511671
136	0xbb6c8f80	-0.0036096275
137	0x3d116124	0.03549303
138	0x3def79c0	0.11693144
139	0x3d722bb8	0.059123725
140	0x3ce25978	0.027630553
141	0x3c143e30	0.00904803
142	0xbdad446a	-0.084603146
143	0x3d6ad2c0	0.057329893
144	0xbd99b948	-0.07506043
145	0x3dd946b0	0.10609186
146	0x3d829176	0.06375401
147	0xbdddc0e4	-0.108278066
148	0xbd8010ec	-0.062532276
149	0xbdf55ed4	-0.11980978
150	0x3d6c6ae4	0.057719126
151	0xbc465eb0	-0.012107536
152	0xbd43b9f0	-0.047784746
153	0x3c10fb00	0.008848906
154	0xbdd97d28	-0.10619575
155	0x3d4aef18	0.049544424
156	0x3d51a8cc	0.051186368
157	0x3dea1698	0.11430091
158	0xbbf16ca0	-0.0073676854
159	0xbd404fbc	-0.04695104
160	0x3c97b0c8	0.018516913
161	0x3db91dea	0.09038909
162	0x3ded7bb2	0.11595859
163	0xbdc256ae	-0.09489189
164	0xbc1c25c0	-0.009530485
165	0x3d9ac73a	0.07557531
166	0xbc9ff808	-0.01952745
167	0xbcf25e38	-0.029585943
168	0xbdb5c050	-0.08874571
169	0x3dabcde8	0.08388883
170	0xbdcdb2fa	-0.10043903
171	0xbcf374e8	-0.029718831
172	0xbd3d6054	-0.046234444
173	0x3d32183c	0.043480143
174	0xbdf65502	-0.12027933
175	0x3d9b6bd6	0.075889274
176	0x3d973c7e	0.07384585
177	0x3d04bc8c	0.032406375
178	0xbdf94302	-0.12170984
179	0xbdd3e584	-0.10346511
180	0xbb570900	-0.003281176
181	0xbd88b45c	-0.06675026
182	0x3b0d0140	0.0021515638
183	0xbde71ae2	-0.11284424
184	0xbc907c98	-0.017637536
185	0xbcfb6c70	-0.030691355
186	0xbde42886	-0.11140542
187	0x3db54810	0.088516355
188	0x3da3f592	0.08005823
189	0x3dcb6e4e	0.09933148
190	0xbdd43c72	-0.103630915
191	0xbd4a2f34	-0.049361423
192	0xbdab4072	-0.08361901
193	0x3d9c8564	0.0764263
194	0x3d7316e0	0.059347987
195	0xbccc9fa0	-0.024978459
196	0x3d175e6c	0.036955282
197	0x3d04367c	0.032278523
198	0xbca0ae48	-0.019614354
199	0x3b83f9e0	0.00402759
200	0xbbec0660	-0.0072029084
201	0xbdd705f4	-0.10499182
202	0x3c9bee28	0.01903446
203	0x3d98d6f2	0.074628726
204	0x3d51fb90	0.0512653
205	0x3daf44c6	0.08558039
206	0xbd133730	-0.035941303
207	0xbde5fae8	-0.11229497
208	0xbd010f48	-0.031508714
209	0xbcb70f40	-0.022346139
210	0xbde98b88	-0.114035666
211	0x3cb40fb8	0.021980152
212	0x3c8e2ba8	0.017354801
213	0xbdd1b38e	-0.102393255
214	0xbdb6ca3c	-0.08925292
215	0xbdd6d4c4	-0.104898006
216	0x3d45a1c8	0.04824999
217	0xbd6798b0	-0.0565421
218	0xbdbff29a	-0.093724445
219	0xbda9265c	-0.082592696
220	0x3d5f6284	0.05453731
221	0xbdef13d8	-0.11673707
222	0x3dd77ab2	0.10521449
223	0x3db54fdc	0.088531226
224	0x3d4b20c8	0.04959181
225	0xbdb3519e	-0.087558016
226	0x3cba1f78	0.022720084
227	0x3d1b6380	0.037936687
228	0x3df136cc	0.1177803
229	0xbcc73a08	-0.024319664
230	0x3de95ac6	0.11394267
231	0xbd9f5782	-0.07780363
232	0xbdade584	-0.08491042
233	0xbd597070	-0.053085744
234	0x3c914628	0.017733648
235	0x3a849c80	0.0010117441
236	0x3c12b360	0.008953899
237	0x3d9be73c	0.07612464
238	0x3c0ed5d0	0.008717969
239	0x3ce4f800	0.027950287
240	0x3dbe42e0	0.09290099
241	0xbdc52976	-0.09627049
242	0x3d9e3290	0.07724488
243	0x3c459de0	0.012061566
244	0xbd916e00	-0.07101059
245	0x3c6a2170	0.014290199
246	0xbd895526	-0.06705694
247	0x3d92201a	0.07135029
248	0xbd9e6acc	-0.07735214
249	0xbd94300c	-0.07235727
250	0x3d8e23ea	0.06940444
251	0x3dd2372a	0.10264428
252	0x3deb5254	0.11490312
253	0xbde163e0	-0.11005378
254	0xbdca7944	-0.09886411
255	0xbdada636	-0.08478968

lstm.bias_ih_l0 f4 [256]
0	0x3c291790	0.010320559
1	0xbdd2d52a	-0.10294564
2	0x3db6b108	0.08920485
3	0x3d257294	0.040392473
4	0xbde1a8b6	-0.11018507
5	0x3bda6440	0.0066647828
6	0x3cdc8748	0.026919976
7	0xbc109840	-0.008825362
8	0xbdb9fff8	-0.09082025
9	0x3dd2a2c4	0.10284951
10	0x3d9a4ef6	0.07534592
11	0x3def3698	0.11680335
12	0x3c4b5860	0.012411207
13	0x3dc777ac	0.097396225
14	0xbd87374a	-0.066023424
15	0xbc82af68	-0.01595278
16	0x3d752bfc	0.0598564
17	0x3df9b39e	0.121924624
18	0xbd8ed9e4	-0.06975153
19	0xbd9f98bc	-0.07792804
20	0x3d0cfff4	0.034423783
21	0x3cc2aaa8	0.023763016
22	0x3d951b68	0.07280618
23	0xbca89078	-0.0205767
24	0x3db5594e	0.08854924
25	0x3dbdd53c	0.09269187
26	0xbca38310	-0.019959956
27	0xbd12826c	-0.03576891
28	0x3d6a77ec	0.057243273
29	0xbdffcfb2	-0.124907866
30	0x3dfd393a	0.12364431
31	0x3d70558c	0.058675334
32	0xbc97a018	-0.018508956
33	0x3d1b3648	0.037893564
34	0x3d11ab88	0.035563976
35	0xbd7038dc	-0.058647975
36	0x3c1c2fa0	0.009532839
37	0xbdcc7092	-0.099824086
38	0xbb33be80	-0.002742678
39	0xbd83b876	-0.064316675
40	0x3db2567a	0.087079
41	0xbb899aa0	-0.004199341
42	0x3d3bd81c	0.045860395
43	0x3ce687d8	0.028140947
44	0xbdf3effa	-0.11911006
45	0xbb187b00	-0.0023266673
46	0xbbd5db20	-0.006526366
47	0xbd388004	-0.04504396
48	0x3d20e248	0.0392783
49	0xbca13588	-0.019678846
50	0x3c5a04a0	0.013306767
51	0x3dadd8cc	0.08488616
52	0xbd8c97fe	-0.06864928
53	0xbcf8ac00	-0.030355453
54	0x3de82e9c	0.11337015
55	0xbd8a936a	-0.06766398
56	0xbd530e78	-0.05152747
57	0xbc617f30	-0.013763234
58	0xbdc314ce	-0.095254526
59	0xbcf592c0	-0.029977202
60	0xbd97fb08	-0.07420927
61	0x3d810fcc	0.06301841
62	0xbdc6fbbe	-0.09715985
63	0x3dc7e10c	0.09759721
64	0x3d120810	0.03565222
65	0x3cfe44c0	0.031038642
66	0xbd9be186	-0.076113746
67	0xbda34486	-0.07972054
68	0x3d647f68	0.055785567
69	0xba7b9100	-0.0009596497
70	0xbd5a7254	-0.053331688
71	0xbcf66f58	-0.03008239
72	0x3de070c6	0.1095901
73	0x3d157c48	0.036495477
74	0xbded464a	-0.11585672
75	0xbc82bff0	-0.015960664
76	0x3d87a126	0.066225335
77	0xbdc89192	-0.0979339
78	0x3d48d088	0.049026996
79	0x3d255a18	0.040369123
80	0x3d875946	0.066088244
81	0x3dc089ac	0.09401259
82	0xbd39fdf8	-0.04540822
83	0x3da45686	0.080243155
84	0x3d4eda3c	0.050501093
85	0x3d523e14	0.051328734
86	0xbd502538	-0.050816745
87	0xbc977720	-0.01848942
88	0xbdd0205a	-0.101624206
89	0x3de09fa4	0.10967949
90	0xbdb02000	-0.085998535
91	0xbd3ee414	-0.04660423
92	0xbd36a2d8	-0.044588894
93	0x3a979600	0.0011565089
94	0xbc1a8bd0	-0.009432748
95	0xbde99102	-0.11404611
96	0x3de9e9b2	0.11421527
97	0x3c466480	0.012108922
98	0xbd9e9db2	-0.07744922
99	0xbd50dd60	-0.05099237
100	0x3daaf074	0.08346644
101	0xbd68fc70	-0.05688137
102	0x3dd2aa6e	0.10286413
103	0x3d39de50	0.04537803
104	0xbde3ef88	-0.11129671
105	0xbde230a8	-0.11044437
106	0x3dd83db2	0.105586424
107	0xbd2e0b44	-0.042491212
108	0xbd0f06c4	-0.03491856
109	0xbdcf1e5a	-0.10113211
110	0xbdccd8ba	-0.10002275
111	0x3c7fc470	0.015610799
112	0x3df09d5c	0.11748764
113	0x3bd9cb80	0.0066465735
114	0x3c878268	0.016541675
115	0x3dd99fe8	0.10626203
116	0xbdf93f48	-0.12170273
117	0x3d131cac	0.035916016
118	0x3dece70c	0.11567506
119	0x3d770904	0.060311332
120	0xbd787fec	-0.06066887
121	0x3c583a70	0.013197526
122	0x3cd11938	0.02552472
123	0x3d9d8f24	0.076933175
124	0x3df281b8	0.11841148
125	0xbd81ad94	-0.063319355
126	0xbc879e58	-0.016554996
127	0xbd8c6786	-0.06855683
128	0xbcf64b88	-0.030065313
129	0x3d33c078	0.043884724
130	0x3cfc7968	0.03081961
131	0x3df48c20	0.11940789
132	0x3dd9ba16	0.10631196
133	0xbde909b6	-0.11378805
134	0x3c0a4f70	0.008441791
135	0xbca5eaa0	-0.02025348
136	0xbce958b8	-0.028484687
137	0xbda21f52	-0.0791613
138	0x3cc3d758	0.023906395
139	0xbd58b608	-0.052907974
140	0xbd3cb1e0	-0.046068072
141	0x3b6e4e80	0.0036362708
142	0x3d770d70	0.06031555
143	0x3ce59958	0.028027222
144	0xbd87acce	-0.06624757
145	0x3ca23b68	0.019803718
146	0x3d64320c	0.05571179
147	0x3d4ad3a4	0.049518242
148	0x3d46870c	0.048468634
149	0x3dd554da	0.10416575
150	0xbddbd45c	-0.10733864
151	0xbd3ace3c	-0.045606837
152	0x3df7d776	0.12101643
153	0xbd6d93a0	-0.058002114
154	0x3bcf51e0	0.006326899
155	0x3c6b58d0	0.014364436
156	0xbd2bf8a4	-0.04198517
157	0x3b8009e0	0.003907427
158	0x3cd66648	0.026171818
159	0x3d8385b8	0.06421989
160	0x3dedd486	0.11612801
161	0xbd9cb570	-0.07651794
162	0xbcd12a98	-0.025533006
163	0xbc1595d0	-0.009129956
164	0xbdb537f2	-0.08848561
165	0x3d829dca	0.06377752
166	0xbc869470	-0.016428202
167	0x3d571cb4	0.052517608
168	0xbcec5258	-0.028847858
169	0x3db37216	0.087619945
170	0x3dfd3980	0.12364483
171	0xbd1ad97c	-0.037805066
172	0xbc098700	-0.008394003
173	0xbcb99670	-0.022654742
174	0x3dc8bf9c	0.098021716
175	0xbc9dad88	-0.019247785
176	0xbca59e58	-0.020217106
177	0xbd980dde	-0.0742452
178	0x3dd78922	0.10524203
179	0x3dc45bf8	0.09587854
180	0xbd5a3ff8	-0.05328366
181	0x3d218444	0.03943278
182	0xbd33dbe4	-0.043910876
183	0x3ceed9d8	0.02915661
184	0xbd18ef90	-0.03733784
185	0xbd1815f0	-0.037130296
186	0x3d25e8a8	0.04050508
187	0xbdda1e52	-0.106503144
188	0xbd13a69c	-0.036047563
189	0x3ce1df78	0.027572379
190	0x3bedc960	0.007256672
191	0x3cb1a3a0	0.021684468
192	0xbd77ed74	-0.060529187
193	0x3d81c5d0	0.06336558
194	0xbdabf584	-0.08396438
195	0x3d578f2c	0.052626774
196	0x3dd295c4	0.10282472
197	0x3d25fc40	0.040523767
198	0x3d46b108	0.048508674
199	0xbc2abbe0	-0.010420769
200	0xbdcaa992	-0.09895624
201	0x3ddb1094	0.106965214
202	0xbc9cefc0	-0.01915729
203	0xbd592cac	-0.053021118
204	0x3d9fc8b0	0.0780195
205	0x3dcb61d0	0.09930766
206	0x3c837988	0.016049162
207	0xbd71cf84	-0.059035793
208	0x3d610548	0.054936677
209	0x3d68f580	0.056874752
210	0xbd97fe18	-0.074215114
211	0xbc118500	-0.008881807
212	0x3dd0d4b6	0.101968214
213	0x3df2b3fa	0.11850734
214	0xbd9e5d40	-0.0773263
215	0x3d1a0a5c	0.037607536
216	0x3dcdbfc8	0.10046345
217	0xbd8cbafc	-0.06871602
218	0xbd0a49c0	-0.03376174
219	0xbd802864	-0.06257704
220	0x3b445540	0.002995804
221	0xbd19efe4	-0.037582293
222	0xbd1d477c	-0.03839825
223	0x3dc0d7e2	0.094161764
224	0x3dd1ddbe	0.10247372
225	0xbd607b58	-0.05480513
226	0x3c874bc0	0.016515613
227	0x3deef96a	0.11668666
228	0x3c5d4710	0.013505712
229	0xbdd9fbdc	-0.106437415
230	0xbce2a280	-0.027665377
231	0x3b232940	0.0024896413
232	0x3dd60bf6	0.104515
233	0xbddb9aa0	-0.10722852
234	0xbc87a730	-0.016559213
235	0xbdfaedb0	-0.122523665
236	0x3de9358c	0.113871664
237	0x3d6a565c	0.057211265
238	0xbdffb454	-0.12485567
239	0xbdb9f83a	-0.090805486
240	0xbd246ec0	-0.040144682
241	0xbdc06988	-0.093951285
242	0xbd9b6e2e	-0.075893745
243	0xbd8426f2	-0.06452741
244	0x3d2f48d8	0.04279408
245	0x3daf32b0	0.0855459
246	0x3d88ddda	0.0668294
247	0xbda2f3ae	-0.079566345
248	0x3df1c57a	0.11805244
249	0x3cd24348	0.025666848
250	0x3dc1b666	0.09458618
251	0x3daf5cfa	0.08562656
252	0x3c9a01c0	0.018799663
253	0x3dfadc70	0.12249076
254	0x3dd2289a	0.102616504
255	0xbcf19790	-0.029491216

lstm.bias_hh_l0 f4 [256]
0	0xbde41428	-0.11136657
1	0xbd1f5d90	-0.038907588
2	0x3d032798	0.03202018
3	0xbd8cf500	-0.068826675
4	0x3d4d3b80	0.05010557
5	0x3b98d980	0.0046646
6	0xbb461f80	-0.0030231178
7	0x3c8c5ed8	0.017135069
8	0xbdf75198	-0.1207611
9	0x3d9d81d6	0.0769078
10	0xbdbf3bb6	-0.09337561
11	0xbd90cc90	-0.07070267
12	0x3db285d0	0.08716929
13	0x3dd5d6ea	0.10441382
14	0xbd687b64	-0.0567583
15	0x3d92ea80	0.071736336
16	0x3c21c6c0	0.009874046
17	0x3c24b630	0.0100532025
18	0x3dfe6274	0.12421122
19	0x3da1ef70	0.07906997
20	0x3caa3190	0.020775586
21	0x3d81db84	0.063406974
22	0xbd44e030	-0.048065364
23	0x3d74cea0	0.059767365
24	0xbdf0a3c4	-0.11749986
25	0x3d8f6582	0.07001783
26	0x3d3f0638	0.04663679
27	0x3d4ee840	0.05051446
28	0xbde92bc2	-0.11385299
29	0xbd9415b4	-0.07230702
30	0xbde4d1ac	-0.11172804
31	0x3db417cc	0.087936014
32	0xbda5a0aa	-0.08087285
33	0xbd8d0642	-0.06885959
34	0x3d9ebd12	0.07750906
35	0x3c46b5d0	0.012128308
36	0xbdda8b94	-0.10671154
37	0xbdb108c6	-0.086442515
38	0xbb90f480	-0.004423678
39	0xbdb51224	-0.08841351
40	0x3d9e817c	0.07739541
41	0x3d4fba58	0.05071482
42	0xbdb76964	-0.089556485
43	0x3d51b088	0.051193744
44	0x3dec3724	0.11533955
45	0xbc6b4ca0	-0.014361531
46	0xbc9b90b8	-0.018989906
47	0x3dfdd946	0.12394957
48	0x3cdb0138	0.02673398
49	0xbd155f34	-0.036467746
50	0x3c865a40	0.016400456
51	0xbd0ed1a4	-0.034867898
52	0x3c5e1ad0	0.013556197
53	0xbda88604	-0.082286865
54	0xbdb3a01e	-0.08770774
55	0xbdef6704	-0.116895705
56	0xbdb897a6	-0.090133
57	0x3df9e6ae	0.12202202
58	0x3d607180	0.054795742
59	0xbd26c870	-0.040718496
60	0x3d62386c	0.05522959
61	0xbafce000	-0.0019292831
62	0xbc0ce510	-0.008599535
63	0x3dffda3e	0.12492798
64	0xbd43a480	-0.0477643
65	0x3dc53b1c	0.09630415
66	0x3c826408	0.01591684
67	0x3db8de94	0.090268284
68	0x3ca6f148	0.020378724
69	0xbd2f5228	-0.04280296
70	0xbb3dc2c0	-0.0028955191
71	0xbd8f7864	-0.070053846
72	0x3d721b5c	0.059108123
73	0xbd9010f4	-0.070344836
74	0xbd9dc186	-0.07702927
75	0xbd525758	-0.05135283
76	0xbde49494	-0.111611515
77	0x3d3dbaa0	0.046320558
78	0x3dfe0c9c	0.12404749
79	0xbd8185b4	-0.0632433
80	0xbdc0d49e	-0.094155535
81	0xbbd3ee00	-0.006467581
82	0xbdf2f290	-0.118626714
83	0xbd59181c	-0.053001508
84	0x3ded2c22	0.11580683
85	0x3d965baa	0.07341702
86	0xbd6e68a0	-0.058205247
87	0xbd8d2c04	-0.06893161
88	0xbb3087c0	-0.0026936382
89	0x3b3bcd40	0.0028656274
90	0x3d624414	0.055240706
91	0xbda42f10	-0.08016789
92	0x3dbe8f94	0.09304729
93	0xbdeb2f6e	-0.11483656
94	0x3d9497d8	0.072555244
95	0x3ddf3a88	0.10899836
96	0x3cff8728	0.031192377
97	0x3daafd98	0.083491504
98	0x3de46a92	0.11153139
99	0xbd23c0f4	-0.039978936
100	0xb9d0e400	-0.00039842725
101	0xbdc67d3a	-0.09691854
102	0xbdf18cbc	-0.11794421
103	0x3d9e2a46	0.07722907
104	0xbcb68c50	-0.022283703
105	0xbce20ec8	-0.027594939
106	0x3ded450c	0.11585435
107	0xbdbe60aa	-0.09295781
108	0x3dce4a4a	0.10072763
109	0xbce3a968	-0.02779074
110	0x3dfbb466	0.12290268
111	0x3d7c55a4	0.06160511
112	0x3d98a382	0.07453062
113	0x3d89dae4	0.06731203
114	0xba9cd580	-0.0011965483
115	0xbdb426fc	-0.08796498
116	0x3dd2e872	0.10298242
117	0xbddec69c	-0.108777255
118	0xbd84ca34	-0.0648388
119	0xbd4b8a48	-0.049692422
120	0x3d83fa14	0.06444183
121	0xbde308c8	-0.11085659
122	0xbc6f34d0	-0.014599994
123	0x3dde7a68	0.10863191
124	0xbdf6c46c	-0.12049183
125	0xbd3f58fc	-0.04671572
126	0xbd9defbc	-0.07711741
127	0xbd1f8ea8	-0.038954407
128	0xbd84757c	-0.06467721
129	0x3ce239e0	0.027615488
130	0xbd65f8b8	-0.0561454
131	0x3c1ee3f0	0.009697899
132	0xbdb16c4e	-0.086632356
133	0x3d0313c4	0.03200127
134	0xbdc99542	-0.09842922
135	0xbd433940	-0.04766202
136	0xbc1975e0	-0.0093664825
137	0xbdec6f16	-0.115446255
138	0x3b30a400	0.002695322
139	0xbda751e0	-0.08169913
140	0x3dd8ad48	0.10579926
141	0x3de75d9a	0.1129715
142	0xbd9d6dfe	-0.07686995
143	0xbcfa5378	-0.03055738
144	0xbd95de5a	-0.07317801
145	0xbdea86c0	-0.11451483
146	0x3d1c3ff4	0.038146928
147	0xbded30c8	-0.1158157
148	0x3d53e28c	0.051729724
149	0xbb7e9140	-0.00388439
150	0x3ccdeff8	0.02513884
151	0xbd4d06ac	-0.05005519
152	0xbda845fe	-0.08216475
153	0x3b857f60	0.004074022
154	0xbd2034c4	-0.03911282
155	0x3dbbc55a	0.09168501
156	0xbd772ea8	-0.06034723
157	0x3d48d698	0.049032778
158	0xbddf7632	-0.10911216
159	0xbd2a3e54	-0.041563347
160	0x3d988848	0.074478686
161	0x3c867688	0.016413942
162	0x3dd63afe	0.104604706
163	0xbda4feee	-0.080564365
164	0x3d1a08e0	0.03760612
165	0xbcb6dfc0	-0.02232349
166	0x3db0bccc	0.0862976
167	0x3cc291f0	0.023751229
168	0xbc8d5298	-0.017251298
169	0x3c4e1130	0.01257734
170	0x3d95fa44	0.07323125
171	0x3d1256c0	0.035727262
172	0xbde2a01a	-0.11065693
173	0x3dae5ed6	0.08514182
174	0x3dd870da	0.105684
175	0xbb5c0b40	-0.0033576041
176	0xbd870488	-0.06592661
177	0x3d904478	0.070443094
178	0xbddd00e4	-0.107911855
179	0xbda18206	-0.07886128
180	0xbd342cd8	-0.04398808
181	0xbca46fe0	-0.020072877
182	0x3cfff618	0.031245276
183	0xbc4d01c0	-0.012512624
184	0xbd1ea3dc	-0.038730487
185	0x3ddf157a	0.10892768
186	0xbd5f7760	-0.054557204
187	0xbdb5b782	-0.08872892
188	0x3d7e4f5c	0.0620874
189	0xbd71b164	-0.059007064
190	0x3c24c620	0.010057002
191	0xbdfd815a	-0.123781875
192	0xbdd315e4	-0.1030691
193	0x3dbd4966	0.09242515
194	0x3c5352e0	0.012898177
195	0xbdeb3078	-0.11483854
196	0xbd8e614e	-0.06952153
197	0x3d2a779c	0.041617975
198	0xbd092278	-0.033480138
199	0x3ce0e3d8	0.027452394
200	0x3ddadd20	0.106867075
201	0xbced1ba0	-0.028943837
202	0xbd822086	-0.063538596
203	0x3c520460	0.012818426
204	0xbc8a58c0	-0.016888022
205	0x3dd7567a	0.10514541
206	0x3cbd6408	0.023118988
207	0x3ce83a68	0.028348163
208	0x3dd96436	0.10614817
209	0x3ae45580	0.00174205
210	0x3b94d0c0	0.0045414865
211	0xbda14470	-0.078743815
212	0xbc638920	-0.013887674
213	0xbdd82d94	-0.10555568
214	0x3d627ff4	0.055297807
215	0x3de96042	0.11395313
216	0xbc5d1d30	-0.013495728
217	0x3dc136d8	0.09434289
218	0x3d728f08	0.059218436
219	0xbde19cee	-0.1101626
220	0x3d869a9c	0.06572458
221	0xbce575c8	-0.028010264
222	0x3dedc506	0.11609845
223	0x3dd820a6	0.10553102
224	0xbd404ebc	-0.046950087
225	0x3dc35230	0.095371604
226	0xbdfd57fc	-0.12370297
227	0x3d169604	0.03676416
228	0xbd98d3de	-0.074622855
229	0x3df7554e	0.120768175
230	0xbce56b00	-0.028005123
231	0xbd1b17bc	-0.03786443
232	0x3a930900	0.0011217892
233	0x3cdddd20	0.02708298
234	0xbdd90caa	-0.105981186
235	0xbd8e79b2	-0.06956805
236	0x3deb633a	0.11493535
237	0xbd8f14be	-0.06986378
238	0xbdad9d60	-0.084772825
239	0x3dfbc818	0.12294024
240	0x3dd45004	0.10366824
241	0x3ce9dc20	0.028547347
242	0xbd22daf4	-0.03975959
243	0x3de1fa4c	0.110340685
244	0x3dbc0e00	0.09182358
245	0x3df55dca	0.119807795
246	0x3dbeb410	0.09311688
247	0x3d8d79d2	0.06908001
248	0xbdc6d51a	-0.09708615
249	0xbdf7bed2	-0.12096943
250	0x3de90ce6	0.11379413
251	0xbca949f0	-0.020665139
252	0x3dba1f82	0.09088041
253	0xbd99e5d6	-0.07514541
254	0xbdb6ab04	-0.089193374
255	0x3dd60eca	0.104520395

lstm.weight_ih_l1 f4 [256, 64]
0	0x3d31c1b1	0.04339761
1	0x3c0438f0	0.008070216
2	0xbd04687c	-0.032326207
3	0xbdae5db0	-0.08513963
4	0x3d7e4fbe	0.062087767
5	0x3df1591c	0.117845744
6	0x3d0d797c	0.034539685
7	0x3c8f0510	0.017458469
8	0x3c5b42e4	0.013382647
9	0xbbfc77b1	-0.007704698
10	0x3dbf8ee2	0.093534246
11	0xbc3ffc40	-0.011717856
12	0xbd278a48	-0.04090336
13	0xbde6222c	-0.112369865
14	0xbcaf0590	-0.021364957
15	0xbda547c0	-0.08070326
16	0x3c5d5a40	0.013510287
17	0x3ca9a5b0	0.020708889
18	0x3d9a30fa	0.07528873
19	0x3b9277c0	0.0044698417
20	0x3dca613a	0.09881826
21	0x3de74e96	0.11294286
22	0xbd1ad5b5	-0.037801463
23	0x3d81f914	0.06346336
24	0x3d108e7c	0.035292134
25	0x3df96ce8	0.12178975
26	0x3d883e4e	0.06652509
27	0x3de00782	0.10938932
28	0xbcfe6047	-0.031051768
29	0x3c9b32a8	0.018945053
30	0x3db5a581	0.08869458
31	0x3d7beb74	0.061503842
32	0xbde9175a	-0.11381407
33	0x3ddd9152	0.10818733
34	0x3db66790	0.08906472
35	0xbda785a8	-0.0817979
36	0xbd7aa5cc	-0.061193272
37	0x3de4ab6a	0.11165507
38	0xbd269711	-0.040671412
39	0x3dcd6910	0.10029805
40	0x3d80ad42	0.06283046
41	0x3dd63505	0.104593314
42	0xbd52d24f	-0.051470097
43	0xbd51bdac	-0.051206276
44	0xbaaa7980	-0.001300618
45	0xbdb4394c	-0.08799991
46	0x3d5e1c2c	0.054226086
47	0xbd7a8fc8	-0.061172277
48	0x3dcf90ac	0.10135016
49	0xbdc033dc	-0.093848914
50	0x3d5601b0	0.052247703
51	0xbd64b7c5	-0.05583932
52	0x3d0634e0	0.03276527
53	0xbdc224e0	-0.094796896
54	0xbda340e4	-0.07971361
55	0xbdb409d8	-0.0879094
56	0xbdfa5066	-0.12222366
57	0xbc7dfc00	-0.015501976
58	0x3d30ab04	0.043131843
59	0x3de49170	0.111605525
60	0xbd876534	-0.066111
61	0x3dd3d9f2	0.10344304
62	0x3df606be	0.12013005
63	0x3c74ba60	0.014937013
64	0xbd568e49	-0.052381787
65	0xbdc0f016	-0.09420793
66	0x3d176b24	0.03696741
67	0x3dc45c0e	0.095878705
68	0xbdd61823	-0.104538225
69	0x3d01bc6c	0.031673834
70	0x3defac88	0.117028296
71	0x3df73820	0.12071252
72	0x3de05e78	0.109555185
73	0x3db1b3c7	0.08676868
74	0x3d33c590	0.043889582
75	0x3dd2e7f2	0.10298146
76	0x3d80fde4	0.06298426
77	0x3d944efc	0.072416276
78	0x3d73c4e8	0.059513956
79	0xbd42511c	-0.047440633
80	0xbd552050	-0.05203277
81	0x3d589fa4	0.05288662
82	0x3d719618	0.05898103
83	0xbd20b180	-0.039231777
84	0x3cb9ab08	0.022664562
85	0xbdb4b2e6	-0.08823185
86	0x3ce2eca4	0.02770073
87	0xbdbb2ca4	-0.09139374
88	0x3d080240	0.03320527
89	0xbde2386a	-0.110459164
90	0x3ce266a8	0.027636841
91	0xbc89ce10	-0.016821891
92	0xbdbe3324	-0.09287098
93	0x3db18b8e	0.08669196
94	0xbd88fb49	-0.06688554
95	0xbdfb3552	-0.122660294
96	0x3dc5a92c	0.096514076
97	0xbdea7c2a	-0.11449464
98	0xbdc4af86	-0.09603791
99	0xbde32a4c	-0.11092052
100	0xbd843578	-0.06455511
101	0x3ded5140	0.11587763
102	0xbdeed581	-0.116618164
103	0xbd298128	-0.04138294
104	0xbcd051af	-0.025429575
105	0xbc5a75cb	-0.013333748
106	0xbde04393	-0.10950389
107	0xbded6b68	-0.11592752
108	0xbd903ff0	-0.07043445
109	0xbd3c7de8	-0.04601851
110	0xbda7e054	-0.08197084
111	0x3dca8f56	0.098906204
112	0x3ccefe00	0.025267601
113	0x3b36ad00	0.0027874112
114	0x3d9ae5ba	0.07563348
115	0x3db44976	0.08803074
116	0x3d798994	0.06092222
117	0x3d79c454	0.06097825
118	0xbddb63ec	-0.10712418
119	0x3b69c840	0.0035672337
120	0xbda6317a	-0.08114906
121	0x3d8eea98	0.06978339
122	0xbda60688	-0.081067145
123	0xbc9aa1f0	-0.018876046
124	0x3d7d2715	0.06180485
125	0x3dddcad6	0.108297035
126	0x3ddfbd58	0.10924786
127	0xbdfe9a24	-0.12431744
128	0x3d922122	0.07135226
129	0x3c3b8880	0.011446118
130	0xbddcce78	-0.10781568
131	0x3cbbe288	0.022935167
132	0x3ce08169	0.027405458
133	0x3d85637e	0.06513117
134	0xbcd414c8	-0.025888816
135	0xb987f400	-0.00025931
136	0xbded2bab	-0.11580595
137	0x3dbd6766	0.09248237
138	0xbc9fa168	-0.019486144
139	0xbdf71406	-0.12064366
140	0xbd0103b0	-0.031497657
141	0x3d84e8f0	0.06489742
142	0x3d93779a	0.072005466
143	0x3ddd6d62	0.10811879
144	0x3dc48436	0.0959553
145	0x3de8a51c	0.11359617
146	0xbc9ba670	-0.019000262
147	0x3d89ad1c	0.06722471
148	0xbd4b21d0	-0.049592793
149	0x3ce28940	0.027653337
150	0xbd49e9a3	-0.04929508
151	0x3db87118	0.09005946
152	0xbc1a5300	-0.009419203
153	0x3dee51e6	0.11636715
154	0xbdc47690	-0.095929265
155	0x3d72be60	0.059263587
156	0xbdc48140	-0.09594965
157	0xbc720c60	-0.014773458
158	0x3d5d72df	0.054064628
159	0x3ddf45be	0.10901974
160	0x3dd20a4e	0.10255872
161	0xbd3f7286	-0.046740077
162	0x3d0728ec	0.03299801
163	0x3df35fa4	0.118834764
164	0x3dc57160	0.09640765
165	0x3c4907e0	0.012269944
166	0x3d037517	0.032094087
167	0xbdc969ee	-0.098346576
168	0x3cc1d660	0.023661792
169	0xbd99419b	-0.074832164
170	0xbdb74156	-0.08948009
171	0xbd450ddc	-0.04810892
172	0x3d85748c	0.0651637
173	0x3da309ea	0.07960875
174	0xbd9cad14	-0.076501995
175	0xbdcbf56c	-0.0995892
176	0x3dbda9cc	0.09260902
177	0xbdceb58c	-0.10093221
178	0x3df14f0c	0.11782655
179	0xbddb82fb	-0.10718342
180	0xbdeba31e	-0.115057215
181	0x3cf0f7e0	0.029415071
182	0x3d047690	0.032339633
183	0xbd7b3470	-0.061329305
184	0x3d036538	0.03207895
185	0x3d680144	0.056641832
186	0xbd6b1ffc	-0.05740355
187	0x3da840f8	0.08215517
188	0xb9be8a87	-0.00036342835
189	0xbde9527e	-0.11392687
190	0xbbe6d7c0	-0.0070447624
191	0xbc98d6a0	-0.018657029
192	0x3dbab757	0.091170006
193	0x3d65206c	0.055939123
194	0xbd69c154	-0.057069138
195	0x3dc8eb54	0.0981051
196	0xbe0f2304	-0.13978201
197	0xbdc22396	-0.09479444
198	0xbbf31560	-0.0074183196
199	0x3da1e756	0.07905452
200	0x3d72ab23	0.05924524
201	0x3de15eb5	0.11004392
202	0x3d4129f0	0.047159135
203	0x3d8a7a98	0.06761664
204	0x3d9feabc	0.07808444
205	0xbd3d1b8c	-0.04616885
206	0x3c81c598	0.01584129
207	0x3cd9e8e8	0.026600316
208	0x3c9d33b8	0.0191897
209	0x3dc9ebfe	0.09859465
210	0x3c1c0050	0.009521559
211	0x3dccb25e	0.09994958
212	0x3d54e074	0.051971868
213	0x3d0b0160	0.03393686
214	0xbc36173b	-0.011113937
215	0xbde380aa	-0.11108525
216	0xbda68472	-0.08130731
217	0x39c8341c	0.00038185797
218	0xbdc5cb6a	-0.09657939
219	0xbdd9a116	-0.10626428
220	0xbd5b1367	-0.0534853
221	0x3de232c0	0.11044836
222	0xbc3e40ff	-0.011612176
223	0x3d2af5f4	0.041738465
224	0x3d955478	0.07291502
225	0x3c888e86	0.016669523
226	0xbd30a36c	-0.0431246
227	0x3b75c500	0.0037501454
228	0xbdbbd078	-0.09170622
229	0xbc3d7810	-0.01156427
230	0x3c9ce6f3	0.019153094
231	0x3d8cf28c	0.068822
232	0xbe123423	-0.14277701
233	0x3de26b29	0.110555954
234	0xbd126f11	-0.035750452
235	0xbdd95c54	-0.10613313
236	0xbc04a660	-0.0080963075
237	0x3d0c9464	0.034321204
238	0x3d5243d4	0.051334217
239	0xbd982008	-0.074279845
240	0x3deb1c5c	0.114800185
241	0x3dc4df00	0.096128464
242	0x3d658b48	0.056041032
243	0x3dcd1435	0.1001362
244	0x3d8cf870	0.06883323
245	0xbdcc092a	-0.099626854
246	0x3db852a6	0.09000139
247	0xbd7678d0	-0.06017381
248	0x3db3699e	0.08760379
249	0xbde81bfc	-0.113334626
250	0x3dbeac76	0.09310238
251	0x3ca651a0	0.020302594
252	0x3dba8a29	0.09108383
253	0x3d9d8438	0.07691234
254	0x3cfbdae0	0.030744016
255	0x3d742f3c	0.05961536

lstm.weight_hh_l1 f4 [256, 64]
0	0xb9c2c79c	-0.00037151284
1	0x3d2aa5e6	0.04166212
2	0xbc734a05	-0.014849191
3	0x3dd405de	0.103526816
4	0x3d15f7de	0.036613338
5	0xbd89b7a5	-0.067244805
6	0xbd96aec8	-0.07357556
7	0xbd45aa47	-0.048258092
8	0x3da426f2	0.08015241
9	0x3dfdac70	0.123864055
10	0x3cff87a6	0.031192612
11	0xbe02729d	-0.12739034
12	0x3d8deec2	0.06930305
13	0xbcfc9df0	-0.03083703
14	0xbdca9e63	-0.09893491
15	0xbcbf89b9	-0.023381101
16	0xbd3e8855	-0.046516735
17	0x3be638c6	0.007025811
18	0xbd9498a3	-0.07255676
19	0xbd928023	-0.071533464
20	0x3ded6072	0.11590661
21	0xbda4a95b	-0.080401145
22	0xbdb60bb4	-0.08888951
23	0x3c532ae4	0.012888644
24	0x3c11b154	0.008892376
25	0xbc09cab4	-0.008410145
26	0xbd37a470	-0.044834554
27	0xbdcdc415	-0.10047165
28	0xbd6f8a18	-0.058481306
29	0x3df275d3	0.118388794
30	0xbdd3d82a	-0.103439644
31	0xbd895335	-0.067053236
32	0x3d732bfe	0.059368126
33	0xbdd437cf	-0.10362207
34	0xbc99265d	-0.01869505
35	0x3e103303	0.1408196
36	0xbc56a8b5	-0.013101746
37	0x3d4885bf	0.048955675
38	0xbd8f5024	-0.069977075
39	0x3d483f10	0.048888266
40	0xbe0f71d1	-0.14008261
41	0xbd751bf5	-0.059841115
42	0xbca812fe	-0.020516869
43	0xbc32cc47	-0.010912961
44	0x3db80eff	0.08987235
45	0x3dc98d38	0.098413885
46	0x3e0bf68b	0.13668267
47	0x3de0866c	0.10963139
48	0x3ddebbc2	0.10875656
49	0x3d1779ad	0.036981273
50	0xbdc4cf07	-0.096098
51	0x3d58b9c5	0.05291154
52	0xbd80e5b3	-0.06293812
53	0x3c8d8b0c	0.017278217
54	0x3dbb7743	0.09153607
55	0xbdb6f1d8	-0.08932847
56	0x3d8b17af	0.06791627
57	0xbd830909	-0.06398208
58	0xbcf1f86d	-0.029537404
59	0x3da164fb	0.078805886
60	0x3cd31016	0.025764506
61	0x3d98bcc3	0.074578784
62	0xbca553d0	-0.020181566
63	0x3d0b9eb8	0.034086913
64	0xbd4b132e	-0.049578838
65	0xbd9e6f7e	-0.07736109
66	0x3d976a48	0.073933184
67	0x3de763cc	0.112983316
68	0xbd88858f	-0.06666099
69	0xb9d93b7c	-0.00041433785
70	0xbda48b51	-0.08034385
71	0x3d6b4c5f	0.05744588
72	0xbda3666e	-0.07978521
73	0xbc0db517	-0.008649132
74	0x3d549c2b	0.051906746
75	0xbe0e05a5	-0.1386934
76	0x3d9454cc	0.07242736
77	0xbd49e6b8	-0.049292296
78	0xbd83e069	-0.06439287
79	0x3cfead11	0.031088384
80	0xbd1bc318	-0.038027853
81	0x3bfc2dc6	0.0076958863
82	0x3cc60594	0.024172582
83	0xbd810e91	-0.063016064
84	0xbdcdf306	-0.10056119
85	0xbdd05bae	-0.101737365
86	0xbcb598ae	-0.02216753
87	0xbdc6c574	-0.0970563
88	0x3da7b133	0.08188095
89	0x3d90cd7e	0.070704445
90	0xbd18e732	-0.03732986
91	0x3c86b604	0.016444214
92	0x3d1522b8	0.036410064
93	0xbdd8d7c1	-0.10588027
94	0x3db2223c	0.08697936
95	0x3defa8c0	0.117021084
96	0xbdd1e305	-0.10248379
97	0xbc09686b	-0.008386712
98	0xbd88b2fc	-0.066747636
99	0x3d39e450	0.04538375
100	0x3d1c2eea	0.03813068
101	0x3caf1951	0.021374376
102	0xbd119753	-0.035544705
103	0x3dabba35	0.083851255
104	0xbd9375b6	-0.07200186
105	0x3d124364	0.0357088
106	0x3cc262fa	0.023728836
107	0xbddc29a2	-0.10750128
108	0x3d4d3bf6	0.05010601
109	0xbcd8b7f4	-0.026454903
110	0x3e0f9131	0.1402023
111	0x3d4c2c17	0.049846735
112	0x3ca3f47e	0.020014044
113	0x3e003266	0.12519225
114	0x3dae20b1	0.08502329
115	0xbe0e6ea3	-0.13909392
116	0x3de4de99	0.1117527
117	0xbd5ac853	-0.0534137
118	0x3e15227e	0.14563939
119	0x3e05889a	0.1304039
120	0x3ccc3e96	0.024932187
121	0x3dcdb4b4	0.10044232
122	0xbdd58a0e	-0.104267225
123	0xbd9c01c1	-0.07617522
124	0xbd2a1ec6	-0.041533254
125	0xbd98f8a1	-0.07469297
126	0xbce2b2a5	-0.027673075
127	0xbdbe7273	-0.09299173
128	0xbdc0884b	-0.09400996
129	0x3cbce368	0.023057655
130	0x3db66153	0.08905282
131	0xbd2213dc	-0.03956972
132	0xbdaef7ce	-0.08543359
133	0xbd3816b8	-0.04494354
134	0xbbcb6b5e	-0.0062078675
135	0x3e0b32b9	0.13593568
136	0x3dde20ad	0.10846076
137	0x3cb9b092	0.022667203
138	0x3cc4e93a	0.024036992
139	0x3a32168b	0.00067935203
140	0x3dceab00	0.100912094
141	0xbdb445f5	-0.08802406
142	0xbc79bab9	-0.015242272
143	0xbd35d293	-0.044390272
144	0xbd6ea7aa	-0.058265366
145	0x3d8c7ee2	0.068601385
146	0x3db7f280	0.089818
147	0xbd637455	-0.055530865
148	0x3d143387	0.036181953
149	0xbdc4d6b4	-0.09611264
150	0xbdff7ac2	-0.12474586
151	0x3d86c2c4	0.06580117
152	0xbb729c27	-0.0037019344
153	0x3e17b174	0.14813787
154	0x3d883aeb	0.06651863
155	0xbdedffa2	-0.11621024
156	0x3da9b6b5	0.08286802
157	0x3bb1abcf	0.0054220925
158	0xba8678dc	-0.0010259408
159	0xbd50523d	-0.05085968
160	0xbc804764	-0.015659042
161	0xbdfd5d07	-0.12371259
162	0xbd23bd8e	-0.039975695
163	0x3e08be12	0.13353756
164	0xbd3b29b7	-0.04569408
165	0x3d22792d	0.039666343
166	0xbdb54048	-0.08850151
167	0x3dbb6644	0.09150365
168	0xbe07a73f	-0.13247393
169	0xbc75849d	-0.014985231
170	0xbe0b58dd	-0.13608117
171	0x3d9fb6a0	0.07798505
172	0x3ce082bb	0.027406087
173	0x3d81eb30	0.063436866
174	0xbca30239	-0.01989852
175	0x3d9a0fa5	0.07522515
176	0xbdb0ed36	-0.086389944
177	0xbd5cd6b3	-0.05391569
178	0x3cb1e483	0.021715408
179	0x3d66a551	0.05631
180	0xbda694a6	-0.08133821
181	0xbc923967	-0.017849637
182	0xbd9a5c3c	-0.075371236
183	0x3d455e77	0.04818579
184	0x3db4aa79	0.088215776
185	0xbcffa23e	-0.031205293
186	0xbd488e7a	-0.048964
187	0xbb0a5ab9	-0.0021111204
188	0x3d50607c	0.050873265
189	0xbc650f5f	-0.013980716
190	0x3d30a1d3	0.043123078
191	0x3e00f119	0.12591971
192	0xbe0d89d4	-0.13822109
193	0x3dd0b593	0.101908825
194	0xbe139af2	-0.14414576
195	0xbcb140fc	-0.021637432
196	0xbe10324d	-0.14081688
197	0x3d03b0b7	0.03215095
198	0x3d40e4c2	0.04709316
199	0xbdc031c7	-0.09384494
200	0x3d7ae91c	0.061257467
201	0x3d843971	0.064562686
202	0x3db9f2cd	0.09079514
203	0xbcfe15d5	-0.03101627
204	0xbdbbd491	-0.09171403
205	0xbdd30ea5	-0.103055276
206	0xbd7467f8	-0.059669465
207	0xbd50dc11	-0.05099112
208	0x3d23c257	0.03998026
209	0x3d9706f3	0.07374372
210	0x3da50ce9	0.08059103
211	0x3d1ca02d	0.038238693
212	0xbc27a277	-0.010231606
213	0xbdc35920	-0.095384836
214	0xbdc50082	-0.096192375
215	0x3d0180ca	0.031616963
216	0x3d164617	0.036687937
217	0x3d2901c6	0.041261457
218	0x3e0b5c35	0.13609393
219	0x3d68fba8	0.056880623
220	0xbd0f19b0	-0.034936607
221	0x3de45a34	0.111500174
222	0x3c80b7c9	0.015712636
223	0x3d4d37bb	0.050101977
224	0x3da4dc30	0.0804981
225	0x3d321a2c	0.04348199
226	0xbdbd9d5c	-0.092585295
227	0x3dd0fac7	0.10204082
228	0x3dc006de	0.0937631
229	0xbdea950b	-0.11454209
230	0xbcb1669d	-0.021655375
231	0x3d9947eb	0.074844204
232	0xbccfbedc	-0.025359564
233	0x3c56998a	0.01309813
234	0xbca7e2c9	-0.020493882
235	0x3c1384cd	0.00900383
236	0xbda09c94	-0.07842365
237	0x3d35e770	0.04441017
238	0x3d09a89e	0.03360807
239	0x3ccfafbe	0.025352355
240	0xbd3c0ab2	-0.045908637
241	0xbcf40ccc	-0.029791258
242	0x3e0a22df	0.13489865
243	0x3cfd6ef8	0.030936703
244	0x3d90e611	0.07075132
245	0x3d4105b6	0.047124587
246	0x3d86a04d	0.06573544
247	0x3df3bb32	0.11900939
248	0x3da6dbdd	0.08147404
249	0x3cd22dd4	0.025656618
250	0x3db41e36	0.08794825
251	0xbe117cd9	-0.14207782
252	0xbdc587fe	-0.09645079
253	0xbd43b3f3	-0.047779035
254	0xbd92f709	-0.071760245
255	0xbc6e4e09	-0.014544972

lstm.bias_ih_l1 f4 [256]
0	0xbc72c2af	-0.014816924
1	0x3e0552f3	0.13019924
2	0xbdb86bef	-0.09004962
3	0xbc4307b3	-0.011903691
4	0xbcafe22b	-0.02147015
5	0xbd0ac316	-0.033877455
6	0xbc7a4084	-0.015274171
7	0x3dc13650	0.094341874
8	0xbdc0b4d7	-0.094094925
9	0x3d886db2	0.06661548
10	0x3c8cdd45	0.017195353
11	0xbda6f532	-0.08152236
12	0x3dbc1002	0.09182741
13	0x3ddbedc2	0.10738708
14	0xbd250118	-0.040284246
15	0xbdd01d49	-0.10161836
16	0x3d5de9ce	0.05417805
17	0xbd8c7db5	-0.06859914
18	0xbcc610eb	-0.024177989
19	0x3e022f65	0.12713392
20	0xbda4f682	-0.0805483
21	0x3df56eb2	0.11984004
22	0xbd505b01	-0.050868038
23	0x3d4b49c9	0.049630914
24	0x3df87630	0.121319175
25	0xbde1d681	-0.110272415
26	0x3d5e29cc	0.05423908
27	0x3dc7bf02	0.09753229
28	0x3ce2afeb	0.027671775
29	0x3dde523d	0.108555295
30	0xbdbae5d7	-0.0912587
31	0xbcc6e52e	-0.024279203
32	0xbd505927	-0.050866272
33	0x3d0374d8	0.032093853
34	0x3b686244	0.0035458962
35	0xbdb1a509	-0.08674056
36	0x3c1a7b91	0.009428875
37	0x3d23c534	0.03998299
38	0x3b493639	0.0030702485
39	0xbd665021	-0.05622876
40	0xbd96c3a7	-0.073615365
41	0x3e071dee	0.13195011
42	0x3e0c72f4	0.13715726
43	0x3b2896c6	0.0025724634
44	0x3d7f3c58	0.062313408
45	0x3d49991f	0.049218293
46	0xbda05046	-0.07827811
47	0xbc44ea08	-0.012018688
48	0x3adde0f6	0.0016928005
49	0x3ccd88b3	0.025089597
50	0xbd8dbb30	-0.06920469
51	0xbd730e9d	-0.05934011
52	0x3d941641	0.07230807
53	0x3d82f156	0.063936874
54	0x3dc25b6b	0.09490093
55	0xbdd4e844	-0.10395864
56	0xbcf431e1	-0.02980894
57	0x3e0b25df	0.13588665
58	0xbd5dd7f9	-0.054161046
59	0xbcd4cf6e	-0.025977816
60	0xbdd964d5	-0.10614935
61	0xbdb59d46	-0.08867888
62	0xbdf02d57	-0.11727398
63	0xbd3f919e	-0.04676973
64	0x3e0a0451	0.13478209
65	0x3dc980c1	0.09839011
66	0x3c079a48	0.00827653
67	0x3e012922	0.12613347
68	0x3cba7880	0.022762537
69	0x3d917553	0.07102456
70	0xbb8d18b0	-0.0043059215
71	0xbdba25a1	-0.090892084
72	0x3e148aff	0.14506148
73	0x3d86c081	0.06579686
74	0xbda1b34b	-0.078955255
75	0x3dd69fd0	0.104797006
76	0x3db20b79	0.086935945
77	0xbd2696c0	-0.04067111
78	0x3dc207e1	0.09474159
79	0x3d6ffd24	0.058591023
80	0x3df8c483	0.12146857
81	0xbdc96743	-0.09834149
82	0xbcfd6f40	-0.030936837
83	0x3df8047e	0.12110232
84	0xbcfb779b	-0.03069668
85	0xbdbcd241	-0.0921979
86	0x3d38e7e8	0.045143038
87	0x3de5afec	0.11215195
88	0xbdbd0ec1	-0.0923133
89	0x3d54aa26	0.05192008
90	0xbdb53302	-0.088476196
91	0x3d0d5b11	0.034510676
92	0xbd1a9b0f	-0.03774553
93	0xbac2dc53	-0.0014866687
94	0x3d932f85	0.07186798
95	0x3dea8c30	0.1145252
96	0xbbd6998d	-0.0065490664
97	0xbd1b79df	-0.037958022
98	0x3e13bedd	0.14428277
99	0xbd899974	-0.06718722
100	0xbc8d3e9d	-0.01724177
101	0xbc1f18f1	-0.009710536
102	0xbd828a23	-0.06374004
103	0x3d17ed1f	0.03709137
104	0xbd0a2e8c	-0.033735797
105	0xbb34d08a	-0.002759012
106	0xbdbaed93	-0.09127345
107	0x3b9765ef	0.0046203057
108	0xbb5373a9	-0.0032264984
109	0xbd3fe7ac	-0.0468518
110	0x3caa9fb1	0.0208281
111	0x3d0a37e7	0.03374472
112	0x3c466eba	0.01211136
113	0xbcf00f18	-0.029304072
114	0xbd5ee89d	-0.054421056
115	0xbdac9af3	-0.08427992
116	0xbd876c3c	-0.06612441
117	0x3dd152f1	0.10220898
118	0xbdc1c1e7	-0.09460812
119	0x3c7f1b79	0.015570515
120	0x3dff62ae	0.124699935
121	0xbac4e46b	-0.0015021687
122	0x3dfb0a5b	0.122578345
123	0x3bfc6a6a	0.007703115
124	0x3d75d3dc	0.060016498
125	0x3dbe1c23	0.092827104
126	0xbdf93526	-0.121683404
127	0x3d1f587d	0.03890275
128	0xbcbe19b5	-0.023205617
129	0xbdb51857	-0.08842533
130	0x3dd9c75b	0.10633727
131	0x3cdb8684	0.02679754
132	0x3d906fdf	0.07052588
133	0xbdeebb17	-0.11656778
134	0x3d1f02c1	0.038820986
135	0x3d32d467	0.043659594
136	0x3de2e360	0.110785246
137	0xbc213539	-0.009839349
138	0x3e0e06fc	0.13869852
139	0xbcc2b327	-0.023767067
140	0x3d64d88c	0.055870578
141	0x3cc2869d	0.02374583
142	0xbccb8daf	-0.024847833
143	0xbd3502ec	-0.04419224
144	0x3a9a0ba7	0.001175274
145	0xbd251e84	-0.040312305
146	0x3e01eca0	0.12687922
147	0xbdc90404	-0.09815219
148	0xbd95bd9e	-0.07311557
149	0x3d3fe570	0.046849668
150	0x3d7818c2	0.060570486
151	0xbd709f6a	-0.05874578
152	0x3dd3daea	0.10344489
153	0xbdafab6d	-0.08577619
154	0x3e041532	0.1289871
155	0xbe040485	-0.12892349
156	0xbcc34d4a	-0.023840565
157	0xbcb6782b	-0.022274097
158	0x3ce556c7	0.02799548
159	0x3cec1ee6	0.028823327
160	0xbbc08bdc	-0.0058760475
161	0x3db7d04a	0.08975275
162	0x3ce348e5	0.02774472
163	0xbd2ed169	-0.042680178
164	0x3dfab8bb	0.12242266
165	0x3d3a3fba	0.04547093
166	0xbcae54b1	-0.021280618
167	0x3d8ea4be	0.06965016
168	0x3c4a2b60	0.012339443
169	0xbdb686c1	-0.08912421
170	0x3d7d395a	0.061822273
171	0xbdb1b462	-0.086769834
172	0xbdd1fbe4	-0.102531224
173	0x3d8ecaef	0.069723
174	0xbd52de0a	-0.051481284
175	0xbd86b5f6	-0.06577675
176	0x3cc264f9	0.023729788
177	0x3d5516b5	0.05202361
178	0x3df954d3	0.12174382
179	0xbdf26d25	-0.11837224
180	0xbd124ef2	-0.03571982
181	0x3da0bebf	0.07848882
182	0x3d1f9863	0.038963687
183	0xbd93098c	-0.07179555
184	0x3cc029e6	0.023457479
185	0xbd57e140	-0.05270505
186	0x3d490bc7	0.049083497
187	0xbd9ce0cf	-0.07660066
188	0x3d88512d	0.06656108
189	0xbd0bbb7f	-0.034114357
190	0xbd50da82	-0.050989635
191	0xbc3e0839	-0.01159864
192	0x3d56ff68	0.052489668
193	0x3c98fa48	0.01867403
194	0xbd9b4d5d	-0.07583115
195	0xbbfb2a28	-0.0076649375
196	0x3caeeae6	0.021352243
197	0x3cd1c459	0.025606321
198	0x3e09e4fc	0.13466257
199	0x3dcad4ef	0.09903895
200	0xbc3a6a19	-0.011377835
201	0xbd6571b7	-0.05601665
202	0xbd6d5f8c	-0.05795245
203	0x3c427e75	0.01187097
204	0x3d80488e	0.06263839
205	0xbd5d3c87	-0.0540128
206	0x3cb77d6e	0.022398677
207	0xbd8f8378	-0.070074975
208	0x3e07ec6f	0.13273786
209	0xbd87f728	-0.06638938
210	0x3dda84b4	0.10669842
211	0x3e119854	0.14218265
212	0x3e088ff8	0.1333617
213	0xbdabcd18	-0.08388728
214	0xbda17b9c	-0.07884905
215	0x3cd739b6	0.026272636
216	0x3c01d4c6	0.007924264
217	0x3db3adb4	0.087733656
218	0xbda88804	-0.08229068
219	0x3dca2af2	0.098714724
220	0xbc5a4551	-0.01332219
221	0x3e10fd1c	0.14159054
222	0xbdc3a517	-0.09552973
223	0x3dff137a	0.12454887
224	0xbdab5495	-0.08365742
225	0x3d4ba08b	0.049713653
226	0x3dd88208	0.105716765
227	0x3de153a7	0.110022835
228	0xbda94d96	-0.082667515
229	0x3dfcb59c	0.12339327
230	0x3d5c5bca	0.053798474
231	0x3de48e8d	0.11160002
232	0x3e076d5b	0.1322531
233	0x3dfe69ac	0.12422499
234	0xbb6853b5	-0.0035450284
235	0xbd94f5de	-0.07273458
236	0xbd220370	-0.03955406
237	0x3d878ebe	0.06619023
238	0x3d1206d7	0.035651054
239	0x3dbb63bb	0.091498815
240	0xbb5347a3	-0.0032238744
241	0x3dc440df	0.09582686
242	0xbdaad1b9	-0.08340783
243	0x3b193651	0.0023378322
244	0x3dbc2b9e	0.09188007
245	0xbd55a128	-0.052155644
246	0x3dc261b5	0.094912924
247	0xbdab537d	-0.083655335
248	0x3d484583	0.048894417
249	0x3e20bf0f	0.15697883
250	0x3dfeabce	0.12435113
251	0x3d812ddf	0.06307577
252	0x3dc40cde	0.09572767
253	0xbd4a7da1	-0.049436215
254	0x3b644cc6	0.00348358
255	0x3dedcf85	0.11611847
