models/LINKUSDT_lstm_20250822_212030.pth (torch, 257589 bytes, 11 tensors)

lstm.weight_ih_l0 f4 [256, 43]
5.222993e-05 0.00014180741 -5.0427807e-05 -0.00016322966 -0.0002684592 7.841203e-05 -9.335143e-05 -3.9950396e-07
0.00022932907 -0.0003548712 -5.480938e-05 5.558733e-06 -0.00042678273 -0.00016258415 0.00014316662 -4.096313e-05
0.00014175798 0.00016253244 3.522068e-05 -0.00021953038 1.224489e-05 1.5606913e-06 -0.00038256557 -1.1171001e-05
-3.933611e-05 -6.374164e-05 9.43655e-05 0.00013735231 -1.5437538e-05 -0.0004143295 6.5394066e-05 3.976508e-06
-6.168374e-05 -1.5940943e-06 1.5625352e-05 0.00042748748 0.00013077409 -0.00016289752 -3.1170734e-05 -3.3591245e-05
-0.00022818855 0.00011940214 -4.14864e-06 -0.00034878892 0.000100045545 2.0876103e-05 -3.5421435e-05 3.2277148e-06
-0.00028505502 2.399111e-06 -5.845868e-07 0.00016325072 -0.00011817724 3.9952756e-05 8.12e-05 8.76633e-05
-1.28938755e-05 -5.495963e-06 -0.00042286384 -0.00041480619 3.5410936e-05 -1.0959813e-05 -6.115547e-05 -0.00015285183
3.1531934e-05 7.147206e-06 -0.00014780716 9.392884e-05 -0.00034458627 -8.941952e-05 -1.8844541e-05 3.1448133e-05
8.4116415e-05 -0.00013925771 -3.394833e-05 -1.703417e-05 -0.00014355902 -1.3052679e-06 -0.00025555302 8.573437e-06
-3.1736863e-06 6.54114e-05 -2.640386e-05 7.6097376e-07 -9.357195e-05 -1.48475e-05 7.583796e-05 0.00011702371
3.3512024e-05 0.00023139492 -5.7580946e-06 -1.6316035e-05 -0.0003798415 0.00027629646 5.272092e-05 -1.364747e-05
8.1708095e-05 -9.4389594e-05 0.00024964073 -6.479216e-06 4.0299667e-05 5.9496902e-05 0.00016249089 7.360069e-05
-4.606831e-05 9.369291e-06 0.00013877914 0.00015947105 -0.0001341112 -2.6615167e-05 -7.769009e-05 0.00033788625
0.0003315499 1.7023158e-05 -0.00013010201 -0.00010748051 2.5172054e-05 -0.00023632111 1.5798461e-05 0.000134924
1.12902635e-05 -8.571691e-06 0.00039328827 5.9314443e-05 -5.246862e-05 -0.00018229293 0.00016058143 -0.00016207287
2.7500822e-05 4.3521006e-05 3.577101e-05 -0.00042471764 -0.00029083004 -0.00035321477 -6.358186e-05 0.00039980025
-3.0262561e-05 -6.0856408e-05 1.4254015e-06 0.0003021896 2.5379244e-05 3.5794066e-05 -0.00027944305 -7.0785085e-05
-0.00011838353 5.9493377e-06 4.2515683e-05 2.7866226e-05 4.9733717e-07 2.1599215e-05 -6.5588547e-06 3.4310633e-05
0.00037610918 -9.163004e-05 -4.6369623e-05 1.6735205e-05 -1.2102381e-05 -3.7958467e-05 -7.306472e-06 -1.6514212e-05
-2.5300938e-06 -8.2197184e-05 -0.00015917997 9.525356e-06 0.00042634679 -0.00013569735 2.1551748e-05 -4.7667618e-05
0.00040760043 -4.3444965e-05 -7.017222e-06 -0.000371704 -1.7776916e-05 -4.6121266e-05 -7.8343444e-05 4.6194797e-05
-0.00013757085 0.00016244112 0.0001621983 0.0002975492 1.2089636e-05 0.00012795166 -2.0779558e-05 2.7294032e-05
-5.629957e-06 -2.7197428e-05 0.0004214897 1.5865537e-05 0.00039344144 -0.00011330335 0.00033617392 -1.513995e-05
-2.2451812e-05 3.0134888e-06 0.00027079828 0.00014350336 -3.761167e-05 -3.78835e-05 -4.137381e-05 0.00012790305
-0.00013768836 0.00014369907 -8.636559e-05 1.8005587e-05 7.623729e-05 2.082773e-05 0.00034713643 -8.83151e-06
6.0158654e-05 2.2713699e-05 3.5447712e-05 -8.85674e-05 -2.2664268e-05 4.4005224e-05 0.00010470607 -0.00039749703
1.0542072e-05 0.00042637598 4.0148174e-05 -2.4341034e-05 0.00012422052 0.00033877627 -9.4319585e-05 1.9696032e-05
1.07360365e-05 0.00013773835 8.9425794e-07 -0.00025159426 8.862698e-06 -9.247451e-05 -0.00042625083 -4.4104752e-05
-1.8985233e-05 3.9458396e-06 -1.4764755e-05 5.730528e-05 0.0002432188 -3.811067e-05 -0.000105248706 1.4765646e-06
1.7884504e-05 -6.029647e-05 9.41427e-05 0.00041895208 -1.250291e-05 -1.8120501e-05 -5.0179624e-05 2.3538858e-05
0.00040367575 -0.00034869477 -1.3475661e-05 1.0837407e-05 -9.239673e-06 -0.00012577206 2.237944e-06 4.2102256e-05
00000000: 7611 5b38 23b2 1439 7282 53b8 a128 2bb9
00000010: fcbf 8cb9 2371 a438 abc5 c3b8 687b d6b4
00000020: 0e78 7039 020e bab9 20e3 65b8 2785 ba36
00000030: cfc1 dfb9 5a7b 2ab9 ff1e 1639 d3cf 2bb8
00000040: dea4 1439 786d 2a39 ebb9 1338 bd31 66b9
00000050: 676f 4d37 f278 d135 1593 c8b9 156b 3bb7
00000060: d4fc 24b8 08ad 85b8 18e6 c538 3b06 1039
00000070: dc7f 81b7 5d3a d9b9 2c24 8938 f26d 8536
00000080: 355c 81b8 aaf4 d5b5 3013 8337 6620 e039
00000090: 6720 0939 78cf 2ab9 52bd 02b8 53e4 0cb8
000000a0: e645 6fb9 8967 fa38 8c34 8bb6 a8dd b6b9
000000b0: 8bcf d138 171f af37 7a91 14b8 b89b 5836
000000c0: 7073 95b9 6a00 2136 80ec 1cb5 482e 2b39
000000d0: ecd5 f7b8 f292 2738 eb49 aa38 e0d7 b738
000000e0: c652 58b7 f669 b8b6 d3b3 ddb9 587a d9b9
000000f0: 3486 1438 0ae0 37b7 9840 80b8 da46 20b9
00000100: 2841 0438 08d2 ef36 affc 1ab9 a9fb c438
00000110: 96a9 b4b9 bd86 bbb8 5814 9eb7 2de7 0338
00000120: a867 b038 b505 12b9 be63 0eb8 9ae4 8eb7
00000130: 5588 16b9 aa30 afb5 bffb 85b9 a2d6 0f37
00000140: 84fb 54b6 7a2d 8938 dc7d ddb7 b845 4c35
00000150: 0f3c c4b8 8719 79b7 320b 9f38 a06a f538
00000160: 438f 0c38 9aa2 7239 a835 c1b6 6bde 88b7
00000170: 7725 c7b9 e2db 9039 a820 5d38 70f7 64b7
00000180: b35a ab38 07f3 c5b8 36e2 8239 0b68 d9b6
00000190: 7007 2938 508c 7938 5162 2a39 125a 9a38
000001a0: 7939 41b8 cc30 1d37 3e85 1139 af37 2739
000001b0: 33a0 0cb9 a343 dfb7 8ded a2b8 5326 b139
000001c0: e0d3 ad39 f4cc 8e37 fe6b 08b9 2967 e1b8
000001d0: 9328 d337 f7cc 77b9 f086 8437 637a 0d39
000001e0: 506b 3d37 22cf 0fb7 4232 ce39 66c8 7838
000001f0: c011 5cb8 e325 3fb9 c061 2839 1bf2 29b9
00000200: 91b1 e637 538a 3638 d408 1638 a3ac deb9
00000210: 8c7a 98b9 af2f b9b9 4057 85b8 489c d139
00000220: 5bdc fdb7 1240 7fb8 6c50 bf35 346f 9e39
00000230: 83e5 d437 9621 1638 3682 92b9 7472 94b8
00000240: ac44 f8b8 6ca0 c736 de52 3238 44c2 e937
00000250: c080 0535 f62f b537 2214 dcb6 c3e8 0f38
00000260: 8530 c539 8129 c0b8 017d 42b8 9462 8c37
00000270: 550b 4bb7 9835 1fb8 1e2a f5b6 0088 8ab7
00000280: aeca 29b6 4761 acb8 8ce9 26b9 18cf 1f37
00000290: 4c87 df39 fb49 0eb9 07ca b437 b7ee 47b8
000002a0: 34b3 d539 ad38 36b8 7a75 ebb6 44e1 c2b9
000002b0: a31f 95b7 5572 41b8 514c a4b8 49c1 4138
000002c0: e540 10b9 f554 2a39 c613 2a39 6100 9c39
000002d0: 97d4 4a37 c32a 0639 c34f aeb7 7df5 e437
000002e0: f6e8 bcb6 0826 e4b7 64fb dc39 fb16 8537
000002f0: d146 ce39 469d edb8 8040 b039 9701 7eb7
00000300: e656 bcb7 583b 4a36 eef9 8d39 6479 1639
00000310: 39c1 1db8 19e5 1eb8 ca88 2db8 b71d 0639
00000320: 7060 10b9 edad 1639 2c1f b5b8 b40a 9737
00000330: 95e1 9f38 36b7 ae37 ddff b539 0c2b 14b7
00000340: dd52 7c38 4c89 be37 b1ad 1438 43bd b9b8
00000350: 251f beb7 4092 3838 a595 db38 2667 d0b9
00000360: dbdd 3037 378b df39 c664 2838 f92f ccb7
00000370: 3141 0239 c89d b139 71cd c5b8 e838 a537
00000380: ed1e 3437 db6d 1039 f00c 7035 69e8 83b9
00000390: 00b1 1437 e0ee c1b8 6b7a dfb9 1efd 38b8
000003a0: 7a42 9fb7 8166 8436 24b6 77b7 135b 7038
000003b0: 8d08 7f39 05d9 1fb8 f8b8 dcb8 602e c635
000003c0: ae06 9637 d7e6 7cb8 7a6e c538 cca6 db39
000003d0: 97c3 51b7 7b01 98b7 f677 52b8 5075 c537
000003e0: 71a4 d339 05d1 b6b9 8615 62b7 4fd2 3537
000003f0: 1804 1bb7 aee1 03b9 962f 1636 f496 3038

lstm.weight_hh_l0 f4 [256, 64]
0.00020957734 0.00039317185 -0.00016986167 8.02112e-05 -5.37443e-05 -0.00036062364 -4.0308787e-06 0.00019756082
0.00010493235 -0.00042743274 9.236478e-05 1.2350987e-05 -1.4632782e-05 0.00038798974 -0.00015058817 2.964016e-05
0.0004277184 0.00013622831 2.9929633e-06 -3.376313e-05 -0.0001532852 0.0001632428 -0.00042751746 2.0845862e-05
-0.0004021165 0.00011801085 2.492793e-05 -2.8208182e-05 0.00022710307 1.8353701e-05 0.00039126948 8.9502595e-05
-0.00038719608 2.0802352e-05 1.5041574e-06 -2.0343909e-05 -0.000413567 1.7331866e-05 -3.6187514e-05 -0.00042501953
-5.410774e-06 8.697583e-05 6.923833e-05 2.2124239e-05 0.00011175369 0.00015011431 -1.7190117e-05 0.00038065432
-1.2356698e-05 -1.3369883e-05 -0.00013196218 0.00042639286 0.00021520603 -8.3628074e-05 -0.00040023623 -1.8647923e-05
1.4711532e-07 1.1868976e-05 -7.220947e-05 -0.00012706757 2.741701e-05 -6.3613625e-05 0.00035294332 -4.1718646e-05
-4.3859607e-05 2.2058084e-05 8.8940884e-05 -2.3818931e-05 5.7296125e-05 0.0002758964 -0.00040328532 0.0004016915
-0.00023183743 -3.7166126e-05 -1.9958052e-06 7.681003e-06 -8.7696375e-05 -8.010056e-07 -1.8136174e-05 -5.5257966e-05
-5.8896465e-05 -2.7400887e-05 3.072031e-06 -3.205762e-05 8.486228e-05 -0.00039948596 6.66244e-05 -0.00010614716
-0.00021562958 -1.804416e-05 0.00026279342 -7.556515e-06 1.5339901e-05 -1.046032e-05 -2.1343203e-06 0.00018311897
0.0004065571 0.00030242675 3.4892542e-05 -0.00041227628 -0.00016212254 -0.00013094535 7.02494e-05 0.00021593008
6.2187423e-06 9.1686205e-05 -3.8562153e-05 -5.3402437e-07 -2.6679341e-05 2.2166609e-05 3.8948754e-05 -0.0001446048
-5.128883e-06 2.2439322e-06 1.0475061e-06 5.872028e-06 3.9908664e-05 0.00024015797 -0.00034422043 -1.7949724e-05
0.0001037462 9.439108e-05 -9.196603e-05 8.830766e-05 -3.1370269e-07 -1.2066105e-06 0.00013483458 5.73443e-05
-6.149923e-06 1.6239369e-06 9.8985845e-05 5.8230704e-05 -4.8099566e-05 -0.00033015147 -4.5934485e-05 -0.0001470557
-1.3686315e-06 0.00013379923 -0.00021519295 -0.0002993592 -1.0133574e-05 -4.3525728e-05 -8.473793e-05 -2.4702162e-05
-0.00016295006 7.976354e-05 -4.4835626e-05 9.371066e-05 5.359616e-05 -0.0001627193 1.97162e-06 -1.0967978e-05
1.6218217e-05 0.00042034744 -1.4276317e-05 -9.3082985e-05 2.7176127e-06 -0.00039778335 2.817304e-06 -3.535068e-06
0.000115884 3.842445e-06 -1.43266225e-05 0.00011278944 -9.413989e-05 4.2343545e-06 5.165117e-05 -0.000119101074
-5.927532e-05 -5.6700756e-05 0.00027348392 -0.00016019837 2.3881681e-05 2.1588665e-05 -0.00027829644 0.00010234916
-1.1801202e-05 -0.0001481156 -2.2110748e-05 -4.0863138e-06 -5.4399206e-06 -0.00016262829 5.24764e-07 0.0003208429
-7.16187e-05 -0.00042303107 -3.2821477e-05 -3.2583255e-05 -1.18527805e-05 2.8785053e-05 2.6860695e-05 -3.342711e-05
4.720025e-05 4.3930162e-05 -1.2742901e-05 2.097524e-05 -0.00014056386 8.9885325e-06 -1.4922799e-05 -1.4003961e-05
0.00016464049 -0.00011343122 -3.9962797e-05 -1.8186576e-05 6.2528015e-06 -9.168126e-05 -5.8656115e-05 4.055484e-06
4.4286015e-05 1.9810728e-05 3.776266e-05 4.8049707e-05 -1.0595485e-05 -0.00021142382 0.0004147245 0.00014555242
0.0001574754 0.00038188574 -0.00021117418 0.00014096698 0.00016326545 -0.00014296762 -5.0631013e-05 -2.9859606e-05
3.1787786e-05 0.00016139806 6.847533e-05 0.00013690934 -3.1760537e-05 6.855186e-06 6.305902e-05 2.3028077e-05
0.00014969605 -6.527825e-05 -0.0003380681 8.2966935e-06 -1.4644584e-05 -5.0829594e-06 1.50832375e-05 5.1026527e-05
2.2908844e-05 7.131808e-06 -0.00042518074 6.368946e-05 -9.6310134e-05 2.097787e-05 7.332641e-06 8.964009e-06
-0.00042799095 2.4516712e-05 -0.0002592799 0.00015232286 6.00239e-06 3.9910547e-06 -6.2877334e-05 -3.540736e-05
00000000: fdc1 5b39 a222 ce39 e51c 32b9 0f37 a838
00000010: 816b 61b8 1612 bdb9 fc40 87b6 5428 4f39
00000020: 200f dc38 0d19 e0b9 f7b3 c138 1637 4f37
00000030: 527f 75b7 1a6b cb39 34e7 1db9 c2a3 f837
00000040: 643f e039 82d8 0e39 b8da 4836 e39c 0db8
00000050: 2fbb 20b9 282c 2b39 6c24 e0b9 26de ae37
00000060: 2ad3 d2b9 987c f738 521c d137 9ca0 ecb7
00000070: 8422 6e39 46f6 9937 4d23 cd39 57b3 bb38
00000080: 9400 cbb9 b680 ae37 74e2 c935 36a8 aab7
00000090: 06d4 d8b9 e663 9137 0cc8 17b8 28d5 deb9
000000a0: 328e b5b6 cb66 b638 0c34 9138 7197 b937
000000b0: 4e5d ea38 0168 1d39 7f33 90b7 8f92 c739
000000c0: 9d4f 4fb7 364f 60b7 545f 0ab9 7b8d df39
000000d0: eea8 6139 7b61 afb8 ccd6 d1b9 1c6e 9cb7
000000e0: c0f6 1d34 dd20 4737 2a6f 97b8 713d 05b9
000000f0: 95fd e537 4e68 85b8 400b b939 0efb 2eb8
00000100: e5f5 37b8 6009 b937 c685 ba38 c4ce c7b7
00000110: 3f51 7038 30a6 9039 0a70 d3b9 1f9a d239
00000120: 6319 73b9 d3e2 1bb8 acef 05b6 a8dd 0037
00000130: a2e9 b7b8 b004 57b5 2323 98b7 cac4 67b8
00000140: 9907 77b8 f5da e5b7 1729 4e36 9b75 06b8
00000150: 17f8 b138 1972 d1b9 b4b8 8b38 539b deb8
00000160: a01a 62b9 8a5d 97b7 89c7 8939 f88d fdb6
00000170: 30ae 8037 bb7e 2fb7 583b 0fb6 a003 4039
00000180: 2c27 d539 088f 9e39 9559 1238 c926 d8b9
00000190: 70ff 29b9 604e 09b9 dc52 9338 4a6b 6239
000001a0: 97aa d036 a847 c038 ccbd 21b8 e059 0fb5
000001b0: 73cd dfb7 6ef2 b937 e85c 2338 0ea1 17b9
000001c0: c518 acb6 7696 1636 0998 8c35 5608 c536
000001d0: 9a63 2738 ead2 7b39 7c78 b4b9 bd92 96b7
000001e0: 5192 d938 d3f3 c538 e3dd c0b8 d031 b938
000001f0: f86a a8b4 d2f2 a1b5 6262 0d39 f984 7038
00000200: 705b ceb6 0cf6 d935 9f96 cf38 be3c 7438
00000210: 84be 49b8 2e18 adb9 c7a9 40b8 f732 1ab9
00000220: d2b1 b7b5 754c 0c39 6ba5 61b9 50f3 9cb9
00000230: 5e03 2ab7 658f 36b8 54b5 b1b8 7d37 cfb7
00000240: 93dd 2ab9 b946 a738 e30d 3cb8 8786 c438
00000250: 70cc 6038 a19f 2ab9 2c50 0436 1b03 38b7
00000260: 5b0c 8837 1462 dc39 5184 6fb7 8c35 c3b8
00000270: 3b60 3636 948d d0b9 ea10 3d36 013c 6db6
00000280: c006 f338 5aee 8036 605c 70b7 5f89 ec38
00000290: f86c c5b8 d414 8e36 06a4 5838 e7c5 f9b8
000002a0: 649e 78b8 f9d1 6db8 6462 8f39 ecfa 27b9
000002b0: 8555 c837 4e19 b537 51e8 91b9 49a4 d638
000002c0: c7fd 45b7 7b4f 1bb9 787a b9b7 2b1d 89b6
000002d0: 9088 b6b6 3387 2ab9 82dd 0c35 ce36 a839
000002e0: ff31 96b8 45ca ddb9 cba9 09b8 01aa 08b8
000002f0: 4edb 46b7 6e77 f137 e752 e137 1634 0cb8
00000300: e2f8 4538 a741 3838 58ca 55b7 fcf3 af37
00000310: 5364 13b9 74cd 1637 ef5c 7ab7 8ef2 6ab7
00000320: 58a3 2c39 ece1 edb8 ba9d 27b8 608f 98b7
00000330: 28cf d136 0045 c0b8 8605 76b8 5814 8836
00000340: bfbf 3938 372f a637 5963 1e38 fb88 4938
00000350: 43c3 31b7 a6b1 5db9 616f d939 6e9f 1839
00000360: fb1f 2539 d637 c839 a36e 5db9 89d0 1339
00000370: 3c32 2b39 94e9 15b9 a35c 54b8 047b fab7
00000380: e053 0538 f63c 2939 6a9a 8f38 528f 0f39
00000390: 9e36 05b8 9905 e636 8e3e 8438 6b2c c137
000003a0: baf7 1c39 fee5 88b8 bb3e b1b9 0732 0b37
000003b0: 02b2 75b7 4a8e aab6 030e 7d37 5105 5638
000003c0: 5e2c c037 c44d ef36 cbea deb9 0591 8538
000003d0: 1cfa c9b8 a2f9 af37 e80a f636 2064 1637
000003e0: f963 e0b9 3da9 cd37 f6ef 87b9 dbb8 1f39
000003f0: 2368 c936 e6ea 8536 03dd 83b8 5d82 14b8

lstm.bias_ih_l0 f4 [256]
0.0003978015 4.4985176e-05 -0.00042809534 2.3253015e-05 1.7433895e-06 2.2915396e-05 4.5955036e-05 1.318485e-05
-5.2112217e-05 -7.661883e-05 0.00035458928 -9.333474e-05 5.298328e-06 -5.4932757e-06 1.7494593e-05 7.969442e-06
2.8006429e-05 -5.4937195e-06 -1.5636037e-05 5.4613105e-05 7.481905e-05 -0.000115879026 5.413412e-05 1.2889723e-06
-0.00042044025 3.332543e-06 6.3706524e-05 -0.00012636116 8.643292e-08 2.2075074e-06 1.9496092e-05 5.207234e-05
-0.00013514297 -7.8133875e-05 0.00042711082 0.00041018584 -6.230129e-05 -2.2051898e-05 -0.00024308077 -0.00040692347
0.00012582389 -8.229858e-06 0.00023948711 1.2655085e-05 -4.4229855e-05 7.754497e-05 -1.3018847e-05 -0.0001603954
-6.1916006e-05 -0.00023731643 4.1070532e-05 -1.0706133e-05 -0.00040568717 9.195074e-06 -2.1878535e-05 -6.335982e-05
-3.1885902e-05 0.00015544698 -1.8764247e-05 0.00041576332 -0.00038140154 -4.5653233e-06 -0.00015115917 -7.358955e-05
-0.0003703272 -1.4185559e-05 -0.00011614237 -2.7680408e-05 0.000101321624 1.5590895e-05 -4.3639666e-05 -8.613607e-06
2.9198316e-05 5.689747e-06 -3.9648625e-05 0.00021808068 -7.571948e-06 -0.00011016138 0.00024689062 9.55242e-06
-3.889143e-06 0.0003413348 -1.2679423e-05 -3.3026135e-05 -2.2254659e-05 -4.9459464e-05 3.2312591e-06 -2.277486e-06
-9.395697e-05 0.00042072692 -0.00013801118 0.00014721925 -1.4774768e-05 -0.00042107768 4.9785747e-05 0.0003281688
-0.0003384053 -0.0003701185 7.972305e-05 -7.463298e-05 -5.5457094e-06 3.452211e-07 1.2608497e-05 -8.252831e-06
6.903191e-05 -3.839092e-06 -0.00020209052 1.8712282e-05 0.00016034204 9.345284e-05 2.754159e-07 -0.00015097311
-3.478994e-05 -1.8437095e-05 -0.00015491387 -6.0971615e-06 -0.00021069328 -3.9575654e-05 2.6698468e-05 4.5548913e-06
0.00023544712 1.0906565e-06 6.373876e-05 -0.00038596275 7.4187315e-05 1.81278e-05 5.8536905e-05 -0.0003816838
-1.9161991e-05 0.00020315826 0.0001813585 0.00041318257 0.00037883464 -0.00015828376 5.1549264e-06 4.3094387e-05
-1.8892188e-06 0.00013862093 0.00021035367 -1.3363488e-05 -0.00041177796 6.6926186e-06 -1.1068752e-05 -4.319654e-05
6.0139087e-06 -6.232549e-05 -3.501353e-05 7.700846e-07 -0.00016316278 -7.63458e-06 0.00013939932 4.3175365e-05
0.00017329365 7.507906e-05 -0.00017250239 2.4774716e-05 0.0001225528 -4.8727e-05 4.428212e-05 -8.327497e-07
-6.0077196e-05 0.00010055237 0.00011764823 -2.7780834e-05 -1.8160967e-05 -4.2364267e-05 2.3793447e-05 3.630189e-06
2.2428501e-05 -1.1175306e-05 -0.00016326319 -2.9952818e-05 -2.1028889e-05 1.920592e-05 0.0002617288 5.281205e-05
4.0601222e-05 -3.2262207e-05 5.0347808e-08 -4.597222e-06 -0.00011052253 -0.0002528615 -0.00039702872 -7.3836404e-06
1.0654886e-05 -1.1221625e-06 0.0003447084 -6.4171836e-05 1.7924256e-05 0.00041189342 -0.0002305926 -0.00010212844
-8.213975e-05 -0.0001611151 -3.898961e-05 6.32787e-05 -2.1896733e-05 7.845886e-06 0.00021609891 -6.42738e-05
0.00019906582 -0.00012810943 0.00020270933 0.000343324 2.0890786e-05 0.00036471395 0.00024796659 -1.7798995e-05
0.00016267483 -4.301545e-05 -1.524607e-05 -3.248306e-05 -1.2636051e-06 6.3720654e-05 3.1393768e-06 -2.0417443e-05
0.0004146278 6.3208163e-06 1.2685266e-05 9.3732206e-07 1.72027e-05 -6.4510923e-06 0.00011721634 -3.5286906e-05
8.015177e-05 3.447575e-07 0.0004019094 -3.1967684e-05 -9.79114e-06 -1.746e-05 9.173727e-05 -0.00037861217
-1.9368168e-05 -1.5567162e-05 2.1109237e-05 -7.17936e-05 8.619159e-05 -0.00016256889 -1.5153806e-05 0.0003116042
3.2250584e-05 2.804997e-05 3.487081e-05 -8.979022e-05 -2.221002e-06 -6.2356135e-05 -5.5848053e-05 -2.0462703e-05
5.270471e-05 -4.207348e-06 7.381538e-05 -2.4992272e-05 7.61383e-05 8.5494474e-05 0.00012952728 5.3989424e-06
00000000: 0390 d039 77ae 3c38 fc71 e0b9 780f c337
00000010: 68fe e935 703a c037 d8bf 4038 8034 5d37
00000020: 1193 5ab8 6cae a0b8 2be8 b939 b5bc c3b8
00000030: 4ac8 b136 e152 b8b6 5ac1 9237 7eb4 0537
00000040: 59ef ea37 b156 b8b6 222a 83b7 6010 6538
00000050: 2ce8 9c38 1404 f3b8 120e 6338 c000 ad35
00000060: 896e dcb9 a7a4 5f36 2e9a 8538 d17f 04b9
00000070: 009d b933 b024 1436 8a8b a337 4068 5a38
00000080: 2ab5 0db9 cedb a3b8 d8ed df39 360e d739
00000090: c0a7 82b8 17fc b8b7 7fe3 7eb9 5858 d5b9
000000a0: 98ef 0339 f912 0ab7 d51e 7b39 2d51 5437
000000b0: 7283 39b8 a49f a238 866b 5ab7 d02f 28b9
000000c0: e7d8 81b8 25d8 78b9 2643 2c38 7e9e 33b7
000000d0: 69b2 d4b9 8b44 1a37 cc87 b7b7 0be0 84b8
000000e0: 3abd 05b8 7bff 2239 ea67 9db7 cffa d939
000000f0: d9f6 c7b9 d42f 99b6 7b80 1eb9 1754 9ab8
00000100: 7a28 c2b9 83fe 6db7 7691 f3b8 3933 e8b7
00000110: a27c d438 31c9 8237 bc09 37b8 2983 10b7
00000120: e8ee f437 8eea be36 634c 26b8 96ac 6439
00000130: 8a12 feb6 7106 e7b8 1971 8139 5543 2037
00000140: 7c7f 82b6 2ef5 b239 b5b9 54b7 8b85 0ab8
00000150: 84af bab7 b272 4fb8 9cd8 5836 e9d6 18b6
00000160: c40a c5b8 0395 dc39 18b7 10b9 de5e 1a39
00000170: 25e1 77b7 17c4 dcb9 0ad1 5038 120e ac39
00000180: fe6b b1b9 770c c2b9 fd30 a738 4784 9cb8
00000190: 4815 bab6 d456 b934 1589 5337 a475 0ab7
000001a0: 39c5 9038 8dd1 80b6 43e8 53b9 52f8 9c37
000001b0: 7d21 2839 1dfc c338 e0dc 9334 894e 1eb9
000001c0: 6aeb 11b8 5ca9 9ab7 6070 22b9 3896 ccb6
000001d0: 8ced 5cb9 09fe 25b8 86f6 df37 38d6 9836
000001e0: 5be2 7639 ac62 9235 7cab 8538 0b5b cab9
000001f0: 0395 9b38 2711 9837 8685 7538 bc1c c8b9
00000200: 10be a0b7 e106 5539 0d2b 3e39 6da0 d839
00000210: 539e c639 f9f8 25b9 7bf8 ac36 3fc0 3438
00000220: 1091 fdb5 c65a 1139 6292 5c39 be33 60b7
00000230: e7e3 d7b9 2891 e036 eeb3 39b7 ef2d 35b8
00000240: 15cb c936 beb4 82b8 7edb 12b8 d0b7 4e35
00000250: ad16 2bb9 4516 00b7 b82b 1239 3217 3538
00000260: 29b6 3539 c373 9d38 c2e1 34b9 4cd3 cf37
00000270: 8481 0039 3860 4cb8 90bb 3938 208a 5fb5
00000280: 66fb 7bb8 a5df d238 eab9 f638 e30a e9b7
00000290: 6158 98b7 49b0 31b8 0a98 c737 2c9e 7336
000002a0: d724 bc37 937d 3bb7 a131 2bb9 3043 fbb7
000002b0: 3267 b0b7 661c a137 a538 8939 8282 5d38
000002c0: 3b4b 2a38 4851 07b8 003e 5833 d641 9ab6
000002d0: 55c8 e7b8 7f92 84b9 4b28 d0b9 fdc0 f7b6
000002e0: 63c2 3237 369d 96b5 fab9 b439 fe93 86b8
000002f0: 0c5c 9637 66f3 d739 3bcb 71b9 ca2d d6b8
00000300: 7142 acb8 01f1 28b9 c688 23b8 7eb4 8438
00000310: e0ae b7b7 d3a1 0337 9c98 6239 bcca 86b8
00000320: 53bc 5039 1d55 06b9 5f8e 5439 2b00 b439
00000330: 9f3e af37 1437 bf39 8301 8239 0d4f 95b7
00000340: b193 2a39 7d6b 34b8 5fc9 7fb7 6c3e 08b8
00000350: 2499 a9b5 c4a1 8538 15ae 5236 2046 abb7
00000360: 6762 d939 6617 d436 cdd2 5437 489c 7b35
00000370: 844e 9037 7676 d8b6 0bd2 f538 0701 14b8
00000380: 2717 a838 1c17 b934 5eb7 d239 0a15 06b8
00000390: a044 24b7 1177 92b7 1263 c038 7780 c6b9
000003a0: d378 a2b7 3a96 82b7 be13 b137 e58f 96b8
000003b0: c2c1 b438 4177 2ab9 1a3d 7eb7 cf5e a339
000003c0: cd44 0738 da4c eb37 3f42 1238 c24d bcb8
000003d0: 860c 15b6 32c5 82b8 643e 6ab8 52a7 abb7
000003e0: 400f 5d38 d82c 8db6 55cd 9a38 7fa6 d1b7
000003f0: 70ac 9f38 7f4b b338 b7d1 0739 9028 b536

lstm.bias_hh_l0 f4 [256]
5.2781807e-06 5.9584767e-05 2.043896e-06 -7.476341e-05 -0.00042785075 -0.00039032305 -1.949873e-06 -0.0003815093
8.459701e-05 -1.5129663e-05 3.3023076e-05 -2.43418e-05 9.1755996e-05 -4.1282685e-05 -2.7408282e-06 -8.914277e-05
1.7498527e-05 -2.7524553e-05 0.00039695142 1.0313394e-05 0.00040273942 1.7864213e-05 -2.6697267e-05 -7.134713e-07
2.0194439e-05 -8.10366e-05 -4.5798646e-05 4.9697417e-05 3.8095484e-05 -9.205346e-05 -0.00021215757 -4.1963125e-05
2.9893667e-05 4.1157957e-05 0.00019864642 -2.5671914e-05 2.643067e-05 -3.450418e-05 2.9577645e-06 -6.302246e-05
-1.8365881e-05 -2.4098135e-05 -0.00015278 -6.117688e-05 5.941045e-05 0.00036318382 5.4451837e-05 -0.00042402436
-0.00010764462 -0.00037602434 4.7131093e-06 -2.0081068e-05 6.2650586e-05 -7.186577e-05 -8.238832e-05 -9.098426e-05
-2.5838992e-05 0.00041842682 -0.00016080948 4.368394e-07 -4.5784447e-05 4.8963968e-05 5.1113407e-06 -0.00028213245
1.0058923e-05 -4.643479e-05 -0.00032061795 5.6005756e-05 -3.2243624e-05 0.00015616529 -3.7739916e-05 7.256026e-07
-0.00013677267 -6.7003275e-06 -5.0747316e-05 -8.107379e-07 2.1737565e-06 -0.0001487061 -0.00021246224 0.000162562
-0.00016135297 8.3927596e-05 0.0001542781 -0.00031997572 7.431527e-05 4.4717184e-05 -2.1405656e-05 -8.937377e-05
-2.2899709e-05 1.6867856e-05 3.556497e-05 -5.993991e-05 -5.2196083e-05 -0.00018515093 1.4418567e-05 1.0111344e-05
0.00042080565 0.00011971752 -0.00011017218 8.641412e-05 0.00011414276 -0.00016325945 -3.2542204e-05 -0.00040470908
0.00028923684 1.3767147e-05 -9.768567e-05 -6.2510255e-05 -1.8396751e-05 1.4448425e-05 -3.447334e-06 -0.00010180274
-1.6438087e-05 -6.373611e-05 -1.0530886e-05 -3.545305e-05 -2.6101168e-05 1.09343e-05 -0.00023736883 -0.00010687848
0.000113908834 -6.89188e-05 -2.0354491e-08 -3.240522e-05 0.0003001172 -8.11872e-05 1.7512953e-05 -0.00040708235
0.00012615269 -3.878306e-05 0.00030903943 6.999973e-05 1.9980847e-05 -1.7973978e-05 -0.0004250408 -1.7687418e-05
-1.49461775e-05 -6.271694e-05 9.3519266e-05 5.761647e-06 9.357039e-05 7.331031e-05 -6.332764e-05 7.1500435e-06
-3.3202537e-05 -2.224077e-05 0.00041086605 -2.0328456e-05 0.00014945862 -0.00042724056 0.0002993707 -0.00012229446
-9.694961e-06 6.4118394e-05 -8.976003e-05 -8.3269e-05 0.00020278235 4.1207128e-05 -0.00012913466 -0.0004205198
2.3782404e-06 6.883936e-06 -6.723648e-05 1.2953926e-05 -5.337111e-07 0.00015240346 -0.0004277256 -4.2761894e-07
-0.00026273815 -0.0003521732 -4.178955e-05 -6.0139308e-05 3.1796222e-05 1.41455275e-05 0.00040526985 4.2360123e-05
-0.00036023234 3.1874843e-05 -0.00030767632 0.00040693695 2.2699449e-05 6.225411e-05 -6.8721965e-05 9.195604e-06
1.5434282e-05 5.1112078e-05 2.434136e-05 -0.00042408938 -4.474687e-05 -0.0004257767 1.7335642e-05 -1.0344304e-05
0.00039929381 -0.00042703495 -0.00039288093 -0.0004166522 8.533582e-06 0.0003592001 1.7722674e-05 3.9475988e-05
0.00011304775 -0.00040784985 7.2837705e-05 -7.291247e-05 -9.2403876e-05 3.074946e-05 9.343977e-06 0.00035113902
0.00042509096 -2.3686656e-05 -9.114268e-05 -0.00030742405 9.424447e-05 -1.8353625e-05 6.0696664e-05 -0.00014698211
1.792637e-05 -1.1076409e-05 0.0001259956 6.290625e-06 0.00024732517 0.00019121847 -4.5387296e-05 -1.867389e-05
8.5235646e-05 8.991302e-06 0.00042491205 0.0003658214 9.352548e-07 0.00011651065 -0.0004126892 -0.00041235378
0.00039290765 2.3589546e-05 -2.1854275e-05 -4.056417e-05 -1.8468556e-05 3.1368736e-06 3.4812797e-06 -4.6327594e-05
9.478076e-06 -0.00015800867 0.00036434154 -2.2384293e-05 8.961268e-06 5.4295557e-05 1.1817712e-05 -7.2274976e-05
1.7899225e-05 3.8293612e-05 -4.5536173e-05 2.2330294e-05 0.00018866776 7.5505275e-05 -4.3133874e-05 -5.373903e-05
00000000: 3a1b b136 a8ea 7938 de29 0936 4dca 9cb8
00000010: 2851 e0b9 46a4 ccb9 90da 02b6 5005 c8b9
00000020: ad69 b138 68d5 7db7 4282 0a38 9e31 ccb7
00000030: 206d c038 f226 2db8 12ef 37b6 29f2 bab8
00000040: cdc9 9237 87e4 e6b7 eb1d d039 b107 2d37
00000050: c526 d339 1bdb 9537 f2f3 dfb7 6085 3fb5
00000060: 3a67 a937 31f2 a9b8 ec17 40b8 3272 5038
00000070: b7c8 1f38 d30c c1b8 9d76 5eb9 9001 30b8
00000080: 29c4 fa37 05a1 2c38 be4b 5039 045a d7b7
00000090: 6eb7 dd37 95b8 10b8 027e 4636 ed2a 84b8
000000a0: 6e10 9ab7 5a26 cab7 9233 20b9 164c 80b8
000000b0: 7c2f 7938 b569 be39 3763 6438 964f deb9
000000c0: 44bf e1b8 2225 c5b9 4d25 9e36 c473 a8b7
000000d0: 4763 8338 a4b6 96b8 e4c7 acb8 cdce beb8
000000e0: d0c0 d8b7 4c60 db39 f79e 28b9 c086 ea34
000000f0: ad08 40b8 a95e 4d38 1582 ab36 2deb 93b9
00000100: bfc2 2837 fac2 42b8 9d18 a8b9 b9e7 6a38
00000110: 543d 07b8 4dc0 2339 ed4a 1eb8 08c7 4235
00000120: a26a 0fb9 60d3 e0b6 84d9 54b8 7ca1 59b5
00000130: dae0 1136 fded 1bb9 66c8 5eb9 6875 2a39
00000140: dc30 29b9 4902 b038 b6c5 2139 6ac2 a7b9
00000150: b5d9 9b38 b68e 3b38 4c90 b3b7 2d6e bbb8
00000160: c018 c0b7 727f 8d37 992b 1538 fd67 7bb8
00000170: 1eed 5ab8 1325 42b9 46e7 7137 e4a3 2937
00000180: 949f dc39 db10 fb38 3d0c e7b8 3a39 b538
00000190: ed5f ef38 a030 2bb9 ed7d 08b8 222f d4b9
000001a0: b6a4 9739 72f9 6637 98dc ccb8 f017 83b8
000001b0: b952 9ab7 8367 7237 bf58 67b6 ee7e d5b8
000001c0: 86e4 89b7 10aa 85b8 d0ad 30b7 6cb3 14b8
000001d0: d5f3 dab7 7672 3737 36e6 78b9 f223 e0b8
000001e0: 57e2 ee38 8088 90b8 00d8 aeb2 d7ea 07b8
000001f0: 0c59 9d39 0c43 aab8 c8e8 9237 ab6d d5b9
00000200: db47 0439 feaa 22b8 9206 a239 d2cc 9238
00000210: 8b9c a737 d3c6 96b7 03d8 deb9 715f 94b7
00000220: 58c1 7ab7 e786 83b8 c61f c438 2c54 c136
00000230: 383b c438 2cbe 9938 c5ce 84b8 68ea ef36
00000240: f442 0bb8 b191 bab7 8269 d739 0787 aab7
00000250: feb7 1c39 42ff dfb9 dbf4 9c39 2b3c 00b9
00000260: 8aa7 22b7 4d77 8638 8d3d bcb8 b4a0 aeb8
00000270: f9a1 5439 d1d5 2c38 5268 07b9 3679 dcb9
00000280: dc99 1f36 8ffc e636 4f01 8db8 b054 5937
00000290: 5944 0fb5 7ece 1f39 5c40 e0b9 8093 e5b4
000002a0: 1ec0 89b9 e3a3 b8b9 3047 2fb8 173e 7cb8
000002b0: ef5c 0538 9452 6d37 667a d439 d6ab 3138
000002c0: 91dd bcb9 5ab1 0538 9e4f a1b9 275a d539
000002d0: b26a be37 6c8e 8238 d31e 90b8 d246 1a37
000002e0: de78 8137 2d61 5638 ac30 cc37 5058 deb9
000002f0: 96ae 3bb8 c83a dfb9 026c 9137 738c 2db7
00000300: 4f58 d139 a9e3 dfb9 96fb cdb9 1d72 dab9
00000310: 752b 0f37 0553 bc39 27ab 9437 0593 2538
00000320: 0c14 ed38 aed4 d5b9 72c0 9838 96e8 98b8
00000330: f4c8 c1b8 fbf8 0038 13c4 1c37 1519 b839
00000340: bede de39 b5b2 c6b7 db23 bfb8 c22d a1b9
00000350: 1da5 c538 1cf6 99b7 8c94 7e38 361f 1ab9
00000360: 9660 9637 d0d4 39b7 b01d 0439 0f14 d336
00000370: 6cab 8139 d181 4839 3d5e 3eb8 e0a5 9cb7
00000380: 8ac0 b238 59d9 1637 bbc6 de39 b8cb bf39
00000390: 380e 7b35 2e57 f438 355e d8b9 3031 d8b9
000003a0: 2cff cd39 2ae2 c537 b353 b7b7 7223 2ab8
000003b0: ecec 9ab7 1483 5236 ee9f 6936 e04f 42b8
000003c0: 0704 1f37 21af 25b9 1805 bf39 e7c5 bbb7
000003d0: 5a58 1637 69bb 6338 b044 4637 5592 97b8
000003e0: 4b26 9637 749d 2038 18fe 3eb8 f151 bb37
000003f0: 1ed5 4539 9658 9e38 a5ea 34b8 d865 61b8

lstm.weight_ih_l1 f4 [256, 64]
0.0129557615 -4.4328895e-06 0.010109668 0.0135862995 -0.048817415 0.0056581884 0.029667221 -0.0039653718
0.07405071 0.0076372395 -0.050607674 0.030836586 -0.013676544 0.033012353 0.013480929 -0.002937534
0.02365257 -0.006834862 0.0010035803 -0.008086147 0.016837193 0.0016743871 0.0031786438 0.01897736
0.026543308 0.00016950331 -0.0066263494 0.0035282436 0.016858235 -0.013531127 0.035989273 0.0068426896
-0.019304994 -0.003849302 0.039149407 0.0008925671 -0.011186692 3.289895e-05 -0.017056521 0.020766456
-0.004594862 -0.0032456361 0.008026733 -0.03290306 -0.02641987 0.027225168 -0.009353249 -0.050795577
0.017553832 0.0005744167 -0.013696841 0.026236452 -0.021416588 -0.020632323 0.067554206 0.0074959984
0.04558983 -0.020647703 -0.007628599 0.0010150305 0.03324146 -0.011416762 0.047591314 -0.033605177
-0.03741831 0.00016000304 0.0040782774 0.07864368 -0.042812005 -0.04998082 0.037078485 0.027277606
0.030417515 -0.038817324 0.0049677636 0.01143374 0.0023745697 -0.027135253 -0.016980425 -0.07427381
0.01802035 0.003186389 0.03620396 0.024430215 -0.014100727 -0.05373402 0.08071869 0.013426502
0.06889337 1.7423527e-05 -0.03200307 0.08315113 -0.0052686627 -0.028504817 -0.027561706 -0.074188486
-0.009779146 -0.038048968 -0.01849866 -0.016389102 -0.010533342 -1.1842526e-06 0.04802768 0.02591154
-0.023912596 -0.021780387 0.0046034325 0.006498963 -0.024997741 0.005172827 0.0013286792 -0.022112507
-0.06088279 -0.00033903442 0.022325592 -0.015517258 0.0231842 0.039122026 0.022612382 0.0008855226
-0.06825069 -0.065220535 -0.010900036 -0.004244324 0.0068788514 0.021207009 -0.02442636 0.047553997
-0.0058208075 -2.4258763e-05 0.008673748 -0.04555428 0.06927091 0.010678918 0.008837522 -0.00025250713
0.039033737 -0.050156705 -0.041615404 0.023356097 -0.008117652 -0.04341192 0.0034872475 0.013233838
0.008872206 0.021359237 0.00023533529 0.013793034 -0.0061776517 0.00036662386 0.05445683 -0.011460495
0.0042539495 -4.4531746e-05 -0.006731803 -0.022414587 -0.011283848 0.044823185 -0.0004663801 -0.05967605
0.0011484767 -0.0702157 -0.0151397325 0.009947951 0.0033404331 4.45149e-07 -0.07390881 0.003341288
0.02945416 -0.04596711 -0.011977782 0.008275111 -0.026319074 0.06890408 0.019638723 -0.03279065
0.047706075 -0.006119197 -0.0046499996 -0.009015114 -0.012340759 -0.044867493 -0.00027820913 -0.013931293
-0.011199891 0.036137797 0.008799251 0.0017290923 0.04988788 -0.0026439498 -0.052696567 0.013734833
-0.013598819 2.3477774e-06 0.002177563 -0.0037583618 -0.057554137 -0.06169908 0.008218967 -0.004855985
-0.027920334 -0.004766466 0.0534817 0.004504285 0.013811984 0.07948835 0.015197166 -0.055276215
-0.022697411 0.053368837 -0.010801269 0.021272145 -0.0031838808 0.0077362536 0.033984326 0.021885417
-0.02301883 0.0003539526 -0.0035761667 -0.006312213 0.026355315 -0.032598224 0.014599592 0.01632865
-0.008411088 -0.040542513 0.011365666 -0.0038516966 -0.037305783 0.0001428157 -0.087183304 0.024010433
0.019934617 0.020270238 0.009076275 -0.032714628 -0.03630237 -0.032915346 -0.0704785 -0.0177252
0.004375905 0.0039241887 -0.024658242 0.0019891048 0.03645893 0.0615741 0.045459192 -0.0050318106
-0.038325172 0.021761827 0.02458414 -0.012584736 0.04506917 0.008730552 0.013543434 0.023791755
00000000: 6744 543c 3bbe 94b6 05a3 253c 1299 5e3c
00000010: c5f4 47bd 5368 b93b ac08 f33c f3ef 81bb
00000020: e6a7 973d cf41 fa3b fe49 4fbd 029d fc3c
00000030: 9513 60bc f637 073d 1ddf 5c3c a483 40bb
00000040: 09c3 c13c faf6 dfbb 918a 833a c27b 04bc
00000050: 27ee 893c 1c77 db3a cb50 503b 6976 9b3c
00000060: 5a71 d93c b3bc 3139 d921 d9bb 1b3a 673b
00000070: 481a 8a3c a9b1 5dbc 7d69 133d a438 e03b
00000080: 8225 9ebc 9244 7cbb 215b 203d 2afb 693a
00000090: 6348 37bc fbfc 0938 1eba 8bbc 6a1e aa3c
000000a0: 7f90 96bb bdb4 54bb 8f82 033c 5cc5 06bd
000000b0: 7c6e d8bc 5107 df3c 5f3e 19bc 060f 50bd
000000c0: 0ecd 8f3c 7494 163a b768 60bc d4ed d63c
000000d0: d771 afbc 1e05 a9bc dc59 8a3d fea0 f53b
000000e0: 67bc 3a3d 5f25 a9bc 54f9 f9bb c60a 853a
000000f0: 3228 083d 5f0d 3bbc 1cef 423d 95a5 09bd
00000100: f143 19bd 7dc6 2739 12a3 853b f00f a13d
00000110: a45b 2fbd b0b8 4cbd 9cdf 173d 4975 df3c
00000120: 272e f93c eafe 1ebd 9fc8 a23b 9554 3b3c
00000130: ab9e 1b3b c04a debc 881a 8bbc de1c 98bd
00000140: 6a9f 933c bdd2 503b 9b4a 143d e021 c83c
00000150: bc06 67bc 3418 5cbd d74f a53d d5fa 5b3c
00000160: f817 8d3d bd28 9237 a715 03bd 244b aa3d
00000170: bfa4 acbb ef82 e9bc 16c9 e1bc 22f0 97bd
00000180: b638 20bc 3cd9 1bbd 808a 97bc 7042 86bc
00000190: 0a94 2cbc 9cf2 9eb5 acb8 443d 7044 d43c
000001a0: 59e4 c3bc c86c b2bc 64d8 963b 41f5 d43b
000001b0: 10c8 ccbc d180 a93b 1327 ae3a 4a25 b5bc
000001c0: 3b60 79bd 6ec0 b1b9 29e4 b63c 193c 7ebc
000001d0: cbec bd3c 6b3e 203d 9a3d b93c 6a22 683a
000001e0: 05c7 8bbd 5892 85bd 1196 32bc f813 8bbb
000001f0: fd67 e13b 52ba ad3c ca19 c8bc fbc7 423d
00000200: 79bc bebb 4c7f cbb7 561c 0e3c 2097 3abd
00000210: e8dd 8d3d a1f6 2e3c 41cb 103c ef62 84b9
00000220: d7e1 1f3d 1e71 4dbd ea74 2abd 4955 bf3c
00000230: e6ff 04bc b3d0 31bd 4e8a 643b bdd2 583c
00000240: bb5c 113c 91f9 ae3c 56c4 7639 2dfc 613c
00000250: e66d cabb 6c37 c039 200e 5f3d cdc4 3bbc
00000260: b764 8b3b 99c7 3ab8 7596 dcbb cc9e b7bc
00000270: e4df 38bc 8498 373d 7a84 f4b9 e06e 74bd
00000280: 7c88 963a 40cd 8fbd a40c 78bc bbfc 223c
00000290: 2beb 5a3b d0fc ee34 815d 97bd 83f9 5a3b
000002a0: da49 f13c 0248 3cbd 753e 44bc 5594 073c
000002b0: 199b d7bc 951d 8d3d 63e1 a03c 7d4f 06bd
000002c0: 7267 433d 8b83 c8bb 065f 98bb 21b4 13bc
000002d0: e530 4abc fac6 37bd 99dc 91b9 1440 64bc
000002e0: bf7f 37bc 3a05 143d bc2a 103c b6a2 e23a
000002f0: 3c57 4c3d 1e46 2dbb 5bd8 57bd 1108 613c
00000300: 95cd 5ebc 828e 1d36 72b5 0e3b d94e 76bb
00000310: e3bd 6bbd 2db8 7cbd d9a8 063c f41e 9fbb
00000320: 2fb9 e4bc 0430 9cbb a10f 5b3d ae98 933b
00000330: a94b 623c caca a23d 89fd 783c 5069 62bd
00000340: ecef b9bc 4899 5a3d cef7 30bc ec42 ae3c
00000350: a8a8 50bb 6680 fd3b 2633 0b3d 0c49 b33c
00000360: fc91 bcbc b792 b939 1f5e 6abb aed6 cebb
00000370: 1ae7 d73c b785 05bd 2133 6f3c a9c3 853c
00000380: a9ce 09bc e80f 26bd 0f37 3a3c bf6c 7cbb
00000390: f3cd 18bd ccc0 1539 298d b2bd 87b1 c43c
000003a0: ec4d a33c c50d a63c a8b4 143c c6ff 05bd
000003b0: cbb1 14bd 3ed2 06bd 0857 90bd 7034 91bc
000003c0: c063 8f3b 7b96 803b 1500 cabc a45b 023b
000003d0: f555 153d 2035 7c3d 6b33 3a3d e3e1 a4bb
000003e0: dbfa 1cbd dc45 b23c ae64 c93c 3530 4ebc
000003f0: 739a 383d 970a 0f3c 48e5 5d3c ede6 c23c

lstm.weight_hh_l1 f4 [256, 64]
-0.015415137 -0.0006765927 -0.01342479 -0.017809432 -0.009456721 -0.013944762 0.010230609 0.013445881
0.0092257 -0.004482794 -0.010681377 -0.0028282034 -0.035010822 0.039305247 -0.014020091 -0.0058247885
-0.01408571 -0.0058595277 -0.017886516 0.007015994 -0.0075761457 -0.0006532346 0.009655199 0.02573998
-0.03126856 0.027032223 0.010784379 -0.0052571134 0.004664907 -0.0092881415 0.0064628567 -0.022249728
-0.005000823 -0.016289022 0.020683091 -0.019305896 0.002676444 -0.002535419 0.009611201 0.019685075
-0.004472795 -0.00050957676 -0.019491248 0.025690543 0.018504186 -0.017878586 0.017986057 0.011016028
-0.025219446 0.01245979 0.005905796 0.021326307 -0.018828476 -0.0058853948 0.006811264 -0.00556699
0.007253425 -0.0014974391 -0.0032713758 0.004457101 0.010591744 -0.023265487 -0.017728567 -0.028150208
0.03391966 -0.017612416 -0.008355516 0.02098595 0.0073418994 0.011058862 -0.00093083485 -0.012902477
-0.022147331 -0.0035819605 -0.0014749976 -0.005490607 0.006901628 0.04801861 0.00961075 -0.028299797
-0.01561124 -0.005128513 0.0010855226 -0.02674584 0.0014515177 -0.0033686557 0.036492214 0.013357301
-0.0070712958 -0.0014037427 0.031031441 0.0053539407 0.00016306812 0.013075767 -0.0030452518 0.02609188
0.0053838384 -0.009231182 -0.012308009 -0.018608233 0.00044771517 -0.011284959 0.0023817434 -0.0146876415
-0.017034594 0.0040563615 -0.0045927824 0.012393938 0.029587695 0.012998693 0.0031130002 0.017381083
-0.008461273 0.018666279 -0.019478934 0.008942036 0.0047019087 -0.0051642153 0.012640373 -0.009935653
0.0054027895 -0.0052556726 0.021668108 0.017971711 0.004152288 0.0179266 -0.011167293 0.009131104
0.0007265053 0.018103685 0.008787295 0.013017873 -0.009589092 -0.005315355 -0.0208449 -0.013919317
0.007990158 0.023264375 0.017230693 0.01251292 0.024179224 -0.04309923 -0.0106262835 0.035425674
0.0019557925 -0.028045809 -0.0027932888 0.0033498714 0.0057502636 -0.021156643 0.0016834356 0.0069506303
0.020288002 -0.01672716 -0.0031380912 -0.02014803 -0.044045474 0.0042846426 -0.004374367 0.02347086
0.0016793839 0.021712136 0.00030187357 0.0074923327 0.0021343036 -0.0041598966 -0.0035077005 0.006654367
0.0040853024 -0.001413155 -0.007780543 -0.014753397 -0.0013197486 -0.03366391 0.0007353759 -0.006850025
-0.019804753 0.0006748259 0.043023415 0.01759433 0.0069228793 -0.013167118 -0.0070915106 0.0073125563
0.00090844743 -0.025435947 0.020168303 -0.02324177 -0.0085383775 -0.0031523395 0.017927064 -0.0040492313
-0.0073968903 -0.017385216 0.0047747456 -0.0033992373 -0.0045564836 0.020958012 -0.01109862 0.01589894
0.0076323785 -0.009807705 -0.018929778 -0.0015448318 0.008622403 -0.001210396 -0.008915605 0.0063460465
-0.0014059694 0.0038856964 -0.0044476325 0.01562573 0.0011720713 0.011639171 0.0054269824 0.017218694
-0.0043636216 0.017545909 0.009380193 0.0010560764 0.013796211 -0.0060128686 -0.001402168 -0.018842401
-0.016261911 0.0005076515 0.0056166253 -0.003115808 -0.015455386 0.015992459 0.0057218913 0.005714784
-0.0130043365 0.0011464311 0.00011806283 0.008164376 -0.0073109334 -0.042009283 0.024351034 0.0056665963
0.0039462172 0.0126773985 0.012710634 0.0008545148 -0.021415025 -0.0032362787 0.02139501 0.0061879936
0.0010765949 0.010761435 -0.0010537447 -0.029891232 0.0026773487 -0.0054798187 -0.023960834 -0.026836112
00000000: c58f 7cbc 5e5d 31ba a7f3 5bbc 16e5 91bc
00000010: 5df0 1abc 9278 64bc 499e 273c 1d4c 5c3c
00000020: 6427 173c 67e4 92bb f100 2fbc 6159 39bb
00000030: 8267 0fbd 8afe 203d 86b4 65bc dedd bebb
00000040: c0c7 66bc 4801 c0bb be86 92bc 6ce6 e53b
00000050: 5141 f8bb d53d 2bba d730 1e3c a7dc d23c
00000060: 7613 00bd ae72 dd3c f7b0 303c dd43 acbb
00000070: 14dc 983b 4a2d 18bc 5fc6 d33b 1045 b6bc
00000080: f2dd a3bb 8e70 85bc 966f a93c 6627 9ebc
00000090: 4767 2f3b 4629 26bb 4c78 1d3c 9842 a13c
000000a0: 8690 92bb 1e95 05ba 1cac 9fbc f974 d23c
000000b0: 1796 973c 1d76 92bc 7f57 933c 927c 343c
000000c0: 0399 cebc 2624 4c3c 6885 c13b 82b4 ae3c
000000d0: 2d3e 9abc 45da c0bb 0631 df3b 4c6b b6bb
000000e0: 24ae ed3b b845 c4ba 9464 56bb e00c 923b
000000f0: ff88 2d3c 4397 bebc 803b 91bc 449b e6bc
00000100: 57ef 0a3d ea47 90bc 93e5 08bc baea ab3c
00000110: 5194 f03b 3b30 353c 4503 74ba e964 53bc
00000120: 526e b5bc 53bf 6abb b554 c1ba 8dea b3bb
00000130: 0d27 e23b 29af 443d 6876 1d3c fad4 e7bc
00000140: 49c6 7fbc 160d a8bb 1848 8e3a 181a dbbc
00000150: da40 be3a aac4 5cbb dc78 153d 95d8 5a3c
00000160: 54b6 e7bb cafd b7ba a635 fe3c 1c70 af3b
00000170: 44fd 2a39 be3b 563c d992 47bb a3be d53c
00000180: e96a b03b 623e 17bc 88a7 49bc 4b70 98bc
00000190: 50bb ea39 8ce4 38bc 0617 1c3b 6fa4 70bc
000001a0: 228c 8bbc 3aeb 843b 0d7f 96bb f20f 4b3c
000001b0: e561 f23c 78f8 543c 7a03 4c3b c662 8e3c
000001c0: 27a1 0abc 06ea 983c 4992 9fbc 9e81 123c
000001d0: 7812 9a3b 9438 a9bb 9119 4f3c 26c9 22bc
000001e0: e209 b13b c737 acbb 5181 b13c 6939 933c
000001f0: eb0f 883b ceda 923c 06f7 36bc a09a 153c
00000200: f272 3e3a 2e4e 943c 96f8 0f3c eb48 553c
00000210: 911b 1dbc 6e2c aebb ecc2 aabc d90d 64bc
00000220: 27e9 023c ee94 be3c 6227 8d3c fe02 4d3c
00000230: 8213 c63c d188 30bd dd19 2ebc 831a 113d
00000240: c12c 003b 53c0 e5bc 9c0f 37bb 8489 5b3b
00000250: b56c bc3b b250 adbc baa6 dc3a 1dc2 e33b
00000260: 0633 a63c 6607 89bc 6fa8 4dbb 7b0d a5bc
00000270: 0769 34bd 3066 8c3b da56 8fbb f645 c03c
00000280: c61e dc3a a6dd b13c c944 9e39 3e82 f53b
00000290: acdf 0b3b be4f 88bb 73e1 65bb e00c da3b
000002a0: 00de 853b 9d39 b9ba edf3 febb 3bb8 71bc
000002b0: 6afb acba 2be3 09bd 3ec6 403a 2d76 e0bb
000002c0: 943d a2bc cde6 303a 5239 303d fc21 903c
000002d0: 52d9 e23b e5ba 57bc e75f e8bb 2b9e ef3b
000002e0: e024 6e3a 0c5f d0bc ff37 a53c 8665 bebc
000002f0: 8de4 0bbc 7b97 4ebb c7db 923c 6aaf 84bb
00000300: 9d61 f2bb 716b 8ebc 7875 9c3b bdc5 5ebb
00000310: 8e4e 95bb 23b0 ab3c fcd6 35bc 7e3e 823c
00000320: 0819 fa3b 7fb0 20bc 9f12 9bbc f47b caba
00000330: fb44 0d3c 26a6 9eba c212 12bc 7ff2 cf3b
00000340: 8148 b8ba 2ba7 7e3b 72bd 91bb 8801 803c
00000350: 30a0 993a 39b2 3e3c d4d4 b13b 380e 8d3c
00000360: b6fc 8ebb 70bc 8f3c 62af 193c 0b6c 8a3a
00000370: 8109 623c 9907 c5bb f3c8 b7ba 615b 9abc
00000380: b337 85bc ea13 053a ab0b b83b 9532 4cbb
00000390: 9638 7dbc 9e02 833c b47e bb3b 1543 bb3b
000003a0: 2410 55bc d843 963a 8098 f738 e0c3 053c
000003b0: 8e90 efbb ed11 2cbd d27b c73c dbae b93b
000003c0: 454f 813b ddb4 4f3c 4340 503c 8401 603a
000003d0: 906e afbc bf17 54bb 9744 af3c a7c4 ca3b
000003e0: 881c 8d3a bb50 303c ce1d 8aba 75de f4bc
000003f0: 7576 2f3b 0d90 b3bb 8349 c4bc 68d7 dbbc

lstm.bias_ih_l1 f4 [256]
0.08287328 0.07144446 -0.09253914 0.040272895 -0.038335472 0.022378733 -0.08157773 -0.033238634
-0.029954555 0.063019924 0.08277487 -0.08124466 -0.084815964 -0.022617973 -0.036743697 -0.047293637
0.012775352 -0.040863235 -0.021704912 0.02865868 0.036510956 -0.03046193 0.02109488 -0.015690818
0.027420176 -0.07045845 0.024144549 -0.01888722 0.0403708 -0.09158304 -0.08364777 -0.08838453
0.044419605 -0.046207227 -0.086652815 -0.06630709 0.028781632 0.056662306 0.07715761 0.00669986
0.034771036 -0.047824483 -0.0361271 -0.035529107 -0.002333263 0.02454622 -0.008832844 -0.03747247
0.0040968647 0.047557548 -0.087306045 0.049147986 0.042820502 -0.011194961 -0.07198263 -0.0027102344
0.1455456 -0.07927051 0.040707305 0.0064879786 -0.04024513 -0.064494655 0.018421637 -0.070754424
0.083706304 -0.056819417 0.039086234 0.061741844 0.04504482 -0.09798051 -0.093121186 -0.04314981
0.011622266 0.09280944 -0.06981755 -0.04064625 -0.10037848 0.0059072673 -0.036412105 0.080550395
0.071661055 0.075147845 -0.07389876 -0.0595185 0.0151122855 -0.063613035 0.074533276 0.041272506
0.08407296 -0.0017113993 0.0914269 0.006273817 -0.07415541 0.035718657 -0.059011403 0.042368792
-0.02250305 -0.08992456 -0.08562213 -0.094122276 -0.06934153 0.00856191 -0.032967307 0.026300203
0.07387627 -0.040152326 0.101823956 0.045268703 0.07839615 0.12336653 0.019320708 0.0058581433
0.042100657 0.10016066 0.09933674 0.011884491 -0.08462289 -0.0074705384 0.016400384 -0.029993083
0.04077241 0.07074261 -0.030790852 0.04666715 -0.031195167 0.057785485 -0.060418967 -0.06645061
-0.14256595 -0.13655028 -0.07172552 -0.0613082 0.08535931 -0.015466914 0.026404396 -0.049091816
0.08066997 -0.11759014 0.033264656 0.096011326 -0.09993801 0.08269825 0.032802373 0.106263295
-0.00964017 0.033919245 0.037490316 -0.036952127 -0.03076361 -0.06665301 0.09059523 -0.02288611
-0.030836578 0.06245291 0.06710385 0.018502917 0.09767972 0.08614416 0.0632016 -0.09296655
0.08819516 0.07604061 -0.08665172 -0.0931592 0.08983524 -0.052422177 0.0035942881 0.046096023
0.05760469 0.11645473 0.016306525 0.059400786 0.05114262 0.120275006 0.069996886 0.08379081
-0.046550084 -0.08525943 0.043388713 -0.05396275 -0.12174778 -0.08865666 0.093117416 0.07454732
0.079319224 -0.038137805 0.06632917 0.054900967 0.008211527 0.0014604668 -0.07662798 -0.089589
-0.018922234 -0.060344756 0.0822692 -0.049244337 -0.045720574 -0.042149678 -0.00095009233 -0.060176577
-0.018597057 0.09133691 0.0099269645 -0.07755413 0.000928167 0.079553716 0.07088425 -0.04399362
0.062580965 -0.054719634 0.011342133 0.05712691 -0.0072867 0.0658742 -0.054685995 -0.06319236
-0.10850944 -0.079229325 0.090849355 0.047869444 -0.021667434 0.06298019 0.005761593 -0.0013447144
-0.08993354 -0.09222553 -0.030227683 0.07047273 -0.0010317502 -0.08950078 0.081055716 -0.05075182
-0.02252126 -0.01040737 0.04100298 -0.06953508 -0.08483344 0.114842184 -0.051729884 -0.085563675
0.0027969675 -0.0036632812 0.09353097 -0.06986019 0.04393572 -0.014128735 -0.029779475 0.047245823
-0.01714053 -0.08250412 0.09675283 -0.044283785 -0.062671445 0.04635816 0.0134050045 -0.011153118
00000000: 77b9 a93d 7951 923d 2985 bdbd 31f5 243d
00000010: a805 1dbd 9b53 b73c 3a12 a7bd 3c25 08bd
00000020: 4163 f5bc 9710 813d df85 a93d 9a63 a6bd
00000030: feb3 adbd 5449 b9bc 8f80 16bd f9b6 41bd
00000040: b64f 513c 3560 27bd 80ce b1bc 9cc5 ea3c
00000050: 838c 153d 4c8b f9bc 2bcf ac3c 088a 80bc
00000060: 47a0 e03c 854c 90bd caca c53c 5fb9 9abc
00000070: da5b 253d e48f bbbd 864f abbd f302 b5bd
00000080: 55f1 353d ca43 3dbd 0877 b1bd 03cc 87bd
00000090: 75c7 eb3c bc16 683d cf04 9e3d 808a db3b
000000a0: 136c 0e3d 9be3 43bd 03fa 13bd f886 11bd
000000b0: a8e9 18bb 2815 c93c a2b7 10bc bc7c 19bd
000000c0: fe3e 863b b4cb 423d 83cd b2bd 664f 493d
000000d0: 8d64 2f3d 126b 37bc a16b 93bd 309e 31bb
000000e0: e809 153e 9458 a2bd b4bc 263d 1c99 d43b
000000f0: 14d8 24bd c615 84bd f9e8 963c b2e7 90bd
00000100: 366e ab3d 7abb 68bd e318 203d 04e5 7c3d
00000110: eb80 383d 01aa c8bd 52b6 bebd dbbd 30bd
00000120: 516b 3e3c e012 be3d 81fc 8ebd af7c 26bd
00000130: 3c93 cdbd c091 c13b dc24 15bd 9bf7 a43d
00000140: 08c3 923d 1de7 993d 3c58 97bd acc9 73bd
00000150: 8599 773c 8d47 82bd e7a4 983d 5c0d 293d
00000160: 722e ac3d 0851 e0ba 073e bb3d 9794 cd3b
00000170: cbde 97bd ba4d 123d f1b5 71bd e68a 2d3d
00000180: 5158 b8bc 5e2a b8bd a85a afbd 2ec3 c0bd
00000190: ef02 8ebd 4147 0c3c ba08 07bd 8673 d73c
000001a0: 714c 973d c476 24bd 1489 d03d ad6b 393d
000001b0: 298e a03d 97a7 fc3d 7646 9e3c abf5 bf3b
000001c0: bd71 2c3d 0821 cd3d 1071 cb3d 2bb7 423c
000001d0: c44e adbd 6bcb f4bb 195a 863c 0eb4 f5bc
000001e0: f800 273d 80e1 903d 193d fcbc 0e26 3f3d
000001f0: 028d ffbc 79b0 6c3d e179 77bd 4217 88bd
00000200: cffc 11be d6d3 0bbe d4e4 92bd 4f1e 7bbd
00000210: ddd0 ae3d f068 7dbc 084e d83c 8014 49bd
00000220: 4c36 a53d 19d3 f0bd 8540 083d 96a1 c43d
00000230: 4dac ccbd b35d a93d c85b 063d 92a0 d93d
00000240: cef1 1dbc e8ee 0a3d 728f 193d 1d5b 17bd
00000250: f703 fcbc 6081 88bd fe89 b93d a77b bbbc
00000260: fe9c fcbc 9fce 7f3d be6d 893d 6e93 973c
00000270: 4e0c c83d 596c b03d d76f 813d 3f65 bebd
00000280: aa9f b43d 2ebb 9b3d 7576 b1bd 40ca bebd
00000290: 8afb b73d a3b8 56bd 268e 6b3b 2fcf 3c3d
000002a0: e5f2 6b3d d17f ee3d 4395 853c 3d4e 733d
000002b0: ed7a 513d be52 f63d 875a 8f3d 849a ab3d
000002c0: 4dab 3ebd 7f9c aebd 5db8 313d 0b08 5dbd
000002d0: e656 f9bd 9f91 b5bd 58b4 be3d 44ac 983d
000002e0: 1e72 a23d 6336 1cbd 96d7 873d d6df 603d
000002f0: a489 063c 226d bf3a 21ef 9cbd 707a b7bd
00000300: cd02 9bbc 102c 77bd c17c a83d 6eb4 49bd
00000310: 7f45 3bbd 24a5 2cbd 9e0f 79ba b77b 76bd
00000320: db58 98bc d90e bb3d b5a4 223c b3d4 9ebd
00000330: 3c50 733a 0fed a23d c32b 913d a732 34bd
00000340: 732a 803d b221 60bd 5bd4 393c e8fd 693d
00000350: 45c5 eebb 0de9 863d 6cfe 5fbd ff6a 81bd
00000360: 333a debd fc42 a2bd 3a0f ba3d c012 443d
00000370: e77f b1bc c2fb 803d bfcb bc3b 2141 b0ba
00000380: 132f b8bd bde0 bcbd 0ca0 f7bc 0254 903d
00000390: cb3b 87ba 2f4c b7bd 8a00 a63d 24e1 4fbd
000003a0: 817e b8bc ac83 2abc bef2 273d 6868 8ebd
000003b0: 28bd adbd 6132 eb3d b7e2 53bd 023c afbd
000003c0: 544d 373b a913 70bb 2a8d bf3d dc12 8fbd
000003d0: f1f5 333d 367c 67bc 16f4 f3bc d684 413d
000003e0: 4c6a 8cbc ecf7 a8bd 5926 c63d ea62 35bd
000003f0: e359 80bd 0ee2 3d3d aaa0 5b3c 91bb 36bc
