models/LINKUSDT_lstm_20250822_040106.pth (torch, 244277 bytes, 11 tensors)

lstm.weight_ih_l0 f4 [256, 30]
000000 60 40 8d bc da eb 9b 3d 20 e4 9b bc 04 6f 27 bd
       -0.01724261 0.076133445 -0.019029677 -0.040877357
000010 10 98 cf 3d 40 53 e2 bc 9c a5 02 bd d8 93 a2 3c
       0.101364255 -0.027627587 -0.03189622 0.019845888
000020 d8 5a c4 bc 88 f7 88 3d 00 c7 80 ba 34 97 48 3d
       -0.023969099 0.06687838 -0.0009824932 0.048972324
000030 f0 28 0f 3d 00 7f 6a 3d e4 e3 f4 3d 92 86 8a bd
       0.03495115 0.057250023 0.11957529 -0.067639485
000040 a8 3d 33 bd 32 cc 8e bd 00 bd 42 3c 84 1a b7 3d
       -0.04375997 -0.06972541 0.011885881 0.08940604
000050 ec 5e a8 3d b6 41 9b 3d d4 fd 3e bd 40 db 24 bc
       0.0822123 0.07580893 -0.046628788 -0.010062039
000060 1c d4 99 3d 00 61 0e bd a6 bb 9f 3d 44 7f a3 3d
       0.0751116 -0.034760475 0.07799463 0.07983258
000070 90 a0 cc bd 52 da af bd b0 f5 67 bc 50 61 21 3d
       -0.09991562 -0.08586563 -0.014157698 0.039399445
000080 38 5e 92 3d 70 d8 92 3d e8 06 03 bd 20 b9 8f 3d
       0.07146877 0.071701884 -0.03198901 0.07017732
000090 ea f4 98 3d aa 5f 87 3d 64 a2 13 bd 88 e6 65 3d
       0.07468589 0.06610043 -0.03604354 0.056128055
0000a0 22 67 c2 bd f0 dd f7 3d f6 b5 d1 3d 18 11 b6 bd
       -0.09492327 0.12102878 0.102397844 -0.08889979
0000b0 e4 63 64 3d a0 ab 9a 3b 86 27 e2 3d ac 7e 10 bd
       0.055759326 0.0047201663 0.11042695 -0.035277054
0000c0 80 65 49 3c 48 98 9b bc ca 09 ac bd 46 08 f1 3d
       0.012292266 -0.018993512 -0.084003046 0.11769156
0000d0 4c 29 9f bd 04 34 32 bd 60 57 36 3d 40 c7 ef bd
       -0.07771549 -0.043506637 0.04451692 -0.11707926
0000e0 f8 8e 6c 3d 88 8f c9 bc ec f3 8e bd 60 f2 c7 bb
       0.057753533 -0.024604574 -0.06980118 -0.0061018914
0000f0 40 72 e7 3b c0 87 b4 bd d0 1f ed 3d bc 42 fd bd
       0.00706318 -0.08814955 0.115783334 -0.12366244
000100 48 a9 c3 3d 12 f5 dd bd 6c f0 fc 3d ca 4d ab bd
       0.09553772 -0.10837759 0.12350544 -0.083644465
000110 4c be 2c 3d f0 ad ac 3d 84 60 ed 3d 64 10 7b bd
       0.04217367 0.084316134 0.115906745 -0.06129493
000120 40 e5 cd bd f6 76 d8 3d 7e e2 85 3d 60 63 8b 3b
       -0.100534916 0.10569565 0.065373406 0.00425379
000130 50 40 cc bd d6 0b 81 bd 1a f5 c9 bd c0 e4 5f 3b
       -0.09973204 -0.06301086 -0.098612025 0.0034163445
000140 90 90 00 bc 7a b5 e8 bd 3c aa 45 bd 78 92 cb 3d
       -0.007846966 -0.11362739 -0.04825805 0.09940046
000150 d0 44 e8 3c b4 1f 2f 3d 5a 1d f3 bd 80 6f a5 3d
       0.028353125 0.042754844 -0.11870833 0.080779076
000160 aa f2 e9 3d f0 63 4f bc a6 d7 b4 bd a0 63 a7 bc
       0.114232376 -0.012658104 -0.08830194 -0.020433247
000170 50 58 46 bc d2 d7 86 bd e2 a8 cf 3d 72 9c bc 3d
       -0.012106016 -0.06584133 0.10139634 0.09209527
000180 f0 89 b6 bc dc d6 0a bd c4 f8 a2 3d 40 8d 78 3d
       -0.02228257 -0.033896312 0.079576045 0.06068158
000190 88 57 d1 3c c0 46 7b bc d8 60 cd 3d 00 94 53 3d
       0.025554433 -0.015336692 0.10028237 0.051654816
0001a0 12 39 c6 3d 64 1e 6a 3d 30 b7 2a 3c 66 6c c5 bd
       0.09678854 0.05715789 0.010419652 -0.09639816
0001b0 c8 1c 51 bd 00 f4 7f bd a0 17 a9 3b 96 82 de bd
       -0.05105284 -0.062488556 0.005160287 -0.10864751
0001c0 92 8f c2 bd d8 6a 4c bd 16 1e 9e 3d 78 e6 25 bd
       -0.0950004 -0.04990658 0.07720582 -0.040502995
0001d0 40 5a 67 3d ac 8a 4f bd b2 4e d6 bd 9c 63 b2 bd
       0.056482553 -0.050669357 -0.10464229 -0.08710405
0001e0 6c ef a2 3d 7c 87 16 bd 04 d3 18 bd f8 19 17 3d
       0.07955822 -0.0367503 -0.037310615 0.03689
0001f0 ca 80 ce 3d 00 58 50 bc 10 99 7b 3d 10 e1 a1 3d
       0.10083158 -0.012716293 0.06142527 0.079042554
000200 8c a9 32 3d 5e 9f 8e bd aa 36 f3 3d 60 18 0a bc
       0.043618724 -0.06963991 0.11875661 -0.008428663
000210 da 58 86 3d ac ff 7f bd c0 4b 31 3b 9e 13 eb bd
       0.06559916 -0.062499687 0.0027053207 -0.11478351
000220 e0 75 1c bc d2 14 98 bd 20 39 df 3c 50 ef a9 bc
       -0.009549588 -0.07425846 0.027248919 -0.020743996
000230 12 cd cf bd 1c 27 d0 bd 0e f5 d1 bd 58 00 12 3d
       -0.10146536 -0.101637095 -0.102518186 0.03564486
000240 ea 03 b7 3d 16 ec 84 bd d0 1e a0 3d 9c 32 cb bd
       0.089362934 -0.06490342 0.07818377 -0.09921762
000250 30 36 0a 3c 20 80 32 3c 00 52 10 bb c0 21 58 bb
       0.008435771 0.010894805 -0.0022021532 -0.00329791
000260 54 66 7f bd c8 5d 6d bd 20 ae b8 bc 64 03 c9 3d
       -0.062353447 -0.057950765 -0.022543967 0.098151
000270 6c 31 c8 bd 00 50 02 3d be f3 ec 3d 62 bb 9e bd
       -0.097750515 0.031814575 0.11569928 -0.07750584
000280 e4 45 e0 bd 20 51 d9 bb 70 c4 4f 3d a8 b0 90 3c
       -0.109508306 -0.0066319853 0.050724447 0.017662361
000290 c2 96 c5 3d 0a 4e b5 bd 94 7c db bd 78 ae bb bd
       0.096478954 -0.088527754 -0.10717121 -0.09164137
0002a0 60 a9 e5 bd 50 33 4f 3c f0 46 56 bd dc dc 0a bd
       -0.11213946 0.012646511 -0.052313745 -0.033902034
0002b0 c8 30 1a 3d b0 53 65 bd 88 ae f7 bd e0 19 03 3d
       0.037644178 -0.055988014 -0.12093836 0.0320071
0002c0 c8 17 0b bd 00 52 0a 3d 10 cc 98 bc 94 cb 6b bd
       -0.033958226 0.033769608 -0.018651992 -0.057567194
0002d0 40 6e 0e 3d 80 59 8e 3a 08 38 7c bd 30 85 7d bd
       0.03477311 0.0010860413 -0.061576873 -0.061894596
0002e0 c0 d7 b8 3c dc 80 cf bd 60 c8 5d 3c 70 ea 13 3d
       0.022563815 -0.10132 0.013536543 0.03611225
0002f0 38 76 a1 3d 68 6a e6 bc d2 50 97 3d d0 7c b8 bd
       0.078838766 -0.02812691 0.07388462 -0.09008181
000300 50 49 e2 bd 88 2d 8a bd 64 81 f1 bd c2 77 dd 3d
       -0.110491395 -0.06746966 -0.117922574 0.108138576
000310 10 bd dd bd 40 7d d3 bc 84 ed 3e 3d d0 fb 28 3c
       -0.108270764 -0.02581656 0.04661323 0.010313943
000320 18 51 13 bd 28 15 3c 3d 0e 47 a1 3d 40 33 6d 3c
       -0.03596601 0.045918614 0.07874881 0.014477551
000330 38 d4 fa bd 0e 97 c6 3d 80 c3 98 bd 9c 95 a4 bd
       -0.12247509 0.0969678 -0.07459164 -0.08036348
000340 74 5a 36 bd 92 3b ee bd ca 18 b2 bd a0 90 7b 3c
       -0.044519857 -0.11632456 -0.086961344 0.0153543055
000350 26 68 e2 bd e4 97 22 3d a4 58 c4 3d 38 b8 cb 3c
       -0.11055021 0.039695635 0.09587219 0.024868116
000360 de 27 a5 bd c8 65 11 bd 42 e6 c4 bd 40 ec d8 3c
       -0.08064245 -0.035497457 -0.09614231 0.02647984
000370 a8 2c 01 3d 18 73 70 bd 94 88 0a bd 1e 9d e3 bd
       0.03153673 -0.058703512 -0.033821657 -0.11113952
000380 14 40 e5 bd 40 32 f3 bb 1c 30 f7 bd 6a 3c da bd
       -0.111938626 -0.0074217618 -0.12069723 -0.10656054
000390 7e 09 8e 3d f8 a5 8a 3d 98 94 c9 3d 30 1f 0d 3c
       0.06935404 0.06769937 0.09842795 0.008613393
0003a0 84 1d 63 bd ac c7 80 bd 56 2a b4 3d f4 04 9e bd
       -0.05544807 -0.062880844 0.087971374 -0.077157885
0003b0 c0 90 48 bc 7e a0 b4 3d 80 b6 9a 3b a8 e1 93 3c
       -0.012241542 0.08819674 0.0047214627 0.018051937
0003c0 54 3a c3 bd d8 f4 fd 3c 00 6c ca 3d 74 06 d2 bd
       -0.095326096 0.03100054 0.098838806 -0.10255137
0003d0 8c a3 6a bd 18 05 89 3c 74 06 16 3d d6 46 e7 bd
       -0.057284877 0.016726062 0.036627248 -0.11292808
0003e0 34 c8 02 bd e6 90 ac bd f8 6f cc bc 4c 8a 0f bd
       -0.03192921 -0.08426075 -0.024955735 -0.035044
0003f0 1a bb e9 bd 88 d5 7e bd d0 93 61 3c 34 86 b5 bd
       -0.1141264 -0.062215358 0.013768151 -0.08863488

lstm.weight_hh_l0 f4 [256, 64]
000000 40 63 d7 3b ae 7f 82 3d 46 72 f5 bd 1e f1 9e 3d
       0.006573111 0.06372009 -0.119846866 0.07760833
000010 48 b0 5a bd d8 d8 dc 3c fa 90 b7 3d 80 f3 80 bc
       -0.05339077 0.026958868 0.08963199 -0.01574111
000020 b0 fd 66 3c cc dc 66 bd 68 08 37 3d ec 47 70 3d
       0.01409857 -0.056362912 0.04468575 0.05866234
000030 4c a0 45 bd 36 51 81 bd 16 6f e3 3d 30 ed 97 3c
       -0.048248574 -0.06314318 0.11105172 0.018545717
000040 84 e6 c4 3d 00 0b 20 3d 68 fb c9 bc 68 33 c5 bd
       0.0961428 0.03907299 -0.024656013 -0.096289456
000050 a2 99 a5 3d be fd ac bd 24 43 c6 bd 00 65 c8 3a
       0.08085944 -0.08446835 -0.09680775 0.0015288889
000060 74 3c c4 bd 98 5f e1 3d 58 4c 2f bd 38 66 b9 bd
       -0.09581843 0.11004561 -0.042797416 -0.090527
000070 94 38 e3 bd 5a 7b c0 3d b8 c9 24 bd d8 9e ed 3d
       -0.11094776 0.093985274 -0.040231436 0.11602563
000080 86 89 d2 3d be 80 d6 3d 20 fe b1 bc 56 aa ce 3d
       0.10280137 0.104737744 -0.021727622 0.10091083
000090 e8 fd d5 3c 16 7b f7 bd 6c c9 c7 3d 22 3d a0 3d
       0.026122048 -0.12084024 0.09755215 0.0782416
0000a0 20 4c f0 3b ec 0d 2a bd 2e 23 b1 bd e0 4c 18 bc
       0.0073332936 -0.041517183 -0.08649288 -0.009295672
0000b0 6e 50 ff bd 4c a5 ab 3d 4c f4 b0 bd b8 80 c1 bd
       -0.124665126 0.08381137 -0.08640346 -0.09448379
0000c0 7a f4 a4 bd 70 ba fb 3d a0 54 58 3d c0 63 7a 3d
       -0.08054443 0.122914195 0.05281508 0.061130285
0000d0 74 4b 51 3d b2 44 a9 bd 58 a9 5a 3d 20 d3 d3 3b
       0.05109735 -0.08265056 0.053384155 0.006464377
0000e0 dc be 66 3d be 3d ce 3d d2 cb c4 3d 7e e0 8d 3d
       0.05633436 0.1007037 0.09609188 0.06927584
0000f0 f0 ea d7 bc f4 38 09 bd 3c 6a 3d bd c6 90 e6 3d
       -0.026357144 -0.03350158 -0.04624389 0.11258082
000100 c2 2f f8 bd 98 1a e9 3d f8 68 6f bd bc f4 ad bd
       -0.12118484 0.113820255 -0.058449715 -0.08493945
000110 80 10 43 bc ac d6 d0 3d 86 04 da 3d 00 40 c4 bb
       -0.011905789 0.101971954 0.10645394 -0.0059890747
000120 ac 1c 17 3d ba ec 85 3d ee 22 9f 3d 24 23 40 bd
       0.036892578 0.06539293 0.07770334 -0.046908513
000130 10 a3 75 bc 3c 0f 6c bd 9e fd a5 bd 46 eb d5 3d
       -0.01499249 -0.057631716 -0.08105014 0.104452655
000140 08 f2 94 bd f8 f2 6e 3d 58 f9 1c bd 7c ae d1 3d
       -0.07272726 0.05833718 -0.03832373 0.102383584
000150 ae 55 a7 bd 04 c5 c1 bd d8 c4 0f 3d c0 ae 61 3d
       -0.08170639 -0.09461406 0.035099834 0.055098295
000160 fa c4 b8 bd 1a cf d9 bd 5c 4c 68 3d ca fc ed bd
       -0.09021945 -0.106352046 0.056713447 -0.11620481
000170 b0 28 14 3d 5a 24 ee 3d 20 e4 51 3d 14 45 58 bd
       0.036171615 0.11628027 0.051242948 -0.052800253
000180 28 59 f0 3d 88 a5 d6 bc f0 6a 91 3d 64 96 2d 3d
       0.11735755 -0.026201978 0.07100475 0.04237975
000190 08 5f a2 bd 60 1f a2 3c 5c 88 5f bd 8a 7d f7 3d
       -0.07928282 0.019790351 -0.0545734 0.120844916
0001a0 c0 2d 61 bd 8e c9 e5 3d 40 1d 6e 3b d0 17 06 3c
       -0.05497527 0.11220084 0.0036333352 0.008184388
0001b0 ec 28 5b 3d e6 06 be 3d b0 c8 20 bc ec 1a f0 bd
       0.053505823 0.092786595 -0.009813473 -0.11723885
0001c0 90 ad a7 bc 74 b9 ba bd 2c 54 11 bd d0 4d d4 3d
       -0.020468503 -0.091174036 -0.035480663 0.10366404
0001d0 ac 15 ea bd 90 0f 4d bc ac 82 1a bd 44 ea 99 bd
       -0.11429915 -0.012515917 -0.037722275 -0.07515386
0001e0 00 02 ba 3d b0 ac 87 bd 60 10 db bb c8 fb f5 bd
       0.09082413 -0.066247344 -0.0066853017 -0.12010914
0001f0 e0 24 d2 bd d0 89 34 3d c8 f6 d9 bd 8c 9e 39 bd
       -0.102609396 0.04407674 -0.10642773 -0.045317218
000200 b4 1a e7 bd 70 a8 55 bd 4c 4c 58 3d 90 03 43 3d
       -0.1128439 -0.052162588 0.052807137 0.04761082
000210 e8 2e b3 3c 50 e9 4b bc 98 39 a8 3d 4c ed a0 bd
       0.021872953 -0.012445763 0.0821411 -0.07857761
000220 3c 2a 32 3d ce a8 f8 3d 98 3b 98 bc 1a 6d 9e bd
       0.04349731 0.12141572 -0.018583104 -0.07735653
000230 d4 96 80 bd 2c b3 6e bd 00 8d 96 3b ec b2 ab 3d
       -0.06278768 -0.05827634 0.004594445 0.08383736
000240 82 54 8c 3d c8 09 83 3c ca ff fe bd c4 79 56 bd
       0.06852056 0.015995875 -0.12451132 -0.05236222
000250 80 50 78 bd 3a 1b e7 bd 40 27 f4 bd d8 87 b3 3d
       -0.060623646 -0.1128449 -0.11921549 0.087661445
000260 68 89 97 3d 40 e9 40 bc 60 8d d7 3d 10 d6 02 bd
       0.07399255 -0.011774361 0.10525012 -0.031942427
000270 60 49 d3 bd 88 51 36 bd d0 bc 44 bc 2c a2 0a bd
       -0.103167295 -0.044511348 -0.012007907 -0.033846065
000280 40 59 6a 3d 0c 6c 73 3d cc 4e f6 bd 64 b0 2e 3d
       0.05721402 0.059429213 -0.12026748 0.042648688
000290 bc 47 b6 3d 32 82 95 3d 20 8f 73 3c 78 8a 77 3d
       0.08900401 0.073002234 0.014865667 0.06043479
0002a0 1c 5f 7c 3d 10 ee c1 3d 40 e2 f9 bc b8 c7 b9 3c
       0.06161414 0.09469235 -0.030503392 0.022678241
0002b0 aa 91 b4 3d 70 03 d4 3c 3c 37 77 bd 40 9e 82 3c
       0.08816846 0.025880545 -0.06035541 0.0159446
0002c0 e0 72 68 3c 0e 54 ce 3d 56 e5 da 3d 30 68 81 3c
       0.014187545 0.10074626 0.106882736 0.01579675
0002d0 60 04 77 3d 38 3b 1c bd d0 85 e5 bd f8 3f 6d 3d
       0.060306907 -0.038142413 -0.11207163 0.057922333
0002e0 90 ae f7 3d 80 ac 04 3c 20 76 18 3c b0 83 2e 3d
       0.12093842 0.008097768 0.009305507 0.042606056
0002f0 c0 66 26 3b e0 d9 0c 3d e8 90 1e 3d 56 21 f6 bd
       0.0025390834 0.03438747 0.038712412 -0.12018077
000300 c8 c7 b7 3c 42 5e 8f 3d bc 21 04 bd 84 58 d8 bd
       0.02243413 0.070004 -0.032258734 -0.10563758
000310 30 70 9c 3d a4 5e 52 3d 20 a5 c2 bb ee 54 a9 3d
       0.076385856 0.051359788 -0.0059400946 0.08268152
000320 4c 02 85 3d 84 0e 5f 3d 28 f2 d7 bc f8 e2 80 bd
       0.06494579 0.054457203 -0.026360586 -0.06293291
000330 0c 6b ba 3d 10 00 44 3d 0c 2d bb 3d 48 d4 b7 3d
       0.09102449 0.047851622 0.091394514 0.08976036
000340 9c a3 06 3d 40 aa 6d bc 10 9a 53 bc 5c 9e b8 bd
       0.032870874 -0.014505923 -0.012915149 -0.0901458
000350 80 3f 98 3b 68 0e bf bd 58 fd 57 bd e8 ca 6e 3d
       0.0046462417 -0.0932892 -0.05273184 0.058298975
000360 10 0d e4 3d 80 10 c4 3d a8 65 a3 bc 88 2b ac bc
       0.11135304 0.095734596 -0.019945934 -0.021016851
000370 ba 5d e7 bd f8 1f c7 bd c0 a3 3b bd ee a3 86 3d
       -0.11297174 -0.097228944 -0.04581046 0.06574236
000380 fc b5 4c 3d aa a9 a9 3d a8 16 99 bd 48 37 ad bc
       0.04997824 0.08284314 -0.074750245 -0.021144524
000390 b0 bb 8a bd 00 c5 25 3a 78 01 f9 bc 54 0f ea 3d
       -0.0677408 0.0006323606 -0.030396208 0.11428705
0003a0 d0 06 d9 3d b8 f8 07 bd 58 64 da 3c f4 b8 fe bd
       0.105970025 -0.03319618 0.026659176 -0.12437621
0003b0 20 45 3b 3c b8 8f e5 bd 5c bd 56 3d d6 7c aa bd
       0.011430055 -0.11209053 0.05242668 -0.08324592
0003c0 7c 75 1a bd a4 a7 d9 3d 98 55 8a 3c 58 fa 83 3d
       -0.037709698 0.10627678 0.016886517 0.06444234
0003d0 14 a4 19 3d 1c 8e 62 3d 18 0d f2 bc 58 dc b9 3c
       0.037509993 0.055311307 -0.02954726 0.022688076
0003e0 e0 a6 fb 3b c0 84 32 bd 1c 1f 06 3d 26 44 e9 3d
       0.007679805 -0.04358363 0.032744512 0.113899514
0003f0 ca d8 d4 bd 3e aa df bd a2 b7 cf 3d 14 ce 9e 3d
       -0.10392912 -0.10921143 0.10142447 0.0775415

lstm.bias_ih_l0 f4 [256]
000000 b6 ab 8a 3d a4 86 60 3d 20 9d ed 3c 00 2d 14 bc
       0.067710325 0.054815903 0.029005587 -0.009043932
000010 ec 67 91 bd 40 14 64 bc 04 40 12 bd 6c 35 5e 3d
       -0.070999 -0.013920844 -0.03570558 0.054250166
000020 06 58 d8 3d 66 85 ef 3d ac 0c 08 bd ce 30 e9 3d
       0.10563664 0.116953656 -0.03321521 0.11386262
000030 e4 66 2e 3d 50 f6 5f bc 38 2f bd 3d c6 eb 9e bd
       0.042578593 -0.013669565 0.09237522 -0.07759814
000040 c2 39 80 3d f6 db bc 3d 94 68 a4 bd 40 a4 b8 3d
       0.062610164 0.09221642 -0.08027759 0.09015703
000050 00 c4 b6 3c 80 83 85 3c 92 51 ce bd 88 88 36 3d
       0.022310257 0.016298056 -0.10074152 0.0445638
000060 b8 1a 4b 3d 6c 08 2c 3d f2 60 8c bd 90 73 7e 3d
       0.049586028 0.04200022 -0.06854428 0.062121928
000070 10 79 ec bd e0 b7 c5 3b c8 42 8a 3d b2 ae fd 3d
       -0.11546528 0.0060338825 0.06751019 0.12386836
000080 ac 88 de bd 84 73 03 3d d2 56 de bd a8 ed e4 3d
       -0.10865912 0.032092586 -0.108564034 0.11178142
000090 70 dd c3 bd bc 90 e7 3d 04 8a 39 bd f4 b8 76 bd
       -0.0956372 0.11306903 -0.045297638 -0.06023498
0000a0 fe 99 cf bd 48 d2 9a 3d 3e 7c e4 3d 0e 7f d4 3d
       -0.101367936 0.07559639 0.1115651 0.10375796
0000b0 10 72 f6 3d ca f8 81 bd 74 fa f1 bd c8 a5 1f 3d
       0.120334744 -0.06346281 -0.11815348 0.03897646
0000c0 16 ce a9 3d e8 76 a3 3d c0 27 e8 bb 84 85 4c bd
       0.08291261 0.07981664 -0.0070848167 -0.049932018
0000d0 40 d4 95 3b 1c cd 68 3d 8e d6 8c 3d 86 97 a9 3d
       0.0045724213 0.056836233 0.068768606 0.08280854
0000e0 1a 6f ec 3d fe f6 ae bd f0 30 0d bd 50 03 e1 bc
       0.115446284 -0.08543204 -0.0344705 -0.0274674
0000f0 ca 83 a5 3d 40 ee d8 3b 6a 73 a1 3d f0 51 2a bd
       0.080817774 0.0066201985 0.078833416 -0.041582048
000100 d0 cc d0 3d 40 09 27 bd 08 5e c7 bd 86 d2 c0 bd
       0.10195315 -0.040780306 -0.09734732 -0.09415154
000110 04 ed 03 3d e0 c4 cc bc 70 2b 1e bc 9a c3 a3 bd
       0.032208458 -0.024996221 -0.009653911 -0.079962924
000120 30 35 5d 3d 10 b6 f6 bc 86 5e de bd 70 88 b9 bd
       0.0540058 -0.030116111 -0.10857873 -0.090592265
000130 9e f8 ad bd 30 83 7a bc a8 fd 68 3d bc 8b 5e 3d
       -0.084946856 -0.015290067 0.05688253 0.05433248
000140 a8 84 0b 3d f2 7c c3 bd 54 40 2e 3d a6 52 c7 bd
       0.034062058 -0.09545316 0.042541817 -0.09732561
000150 92 90 b9 bd a8 19 a3 3d 64 64 eb 3d 7e d0 9f bd
       -0.09060778 0.07963878 0.11493757 -0.078034386
000160 d2 d6 ed 3d 94 38 0d 3d a8 06 a6 bd c4 17 a6 bd
       0.11613239 0.034477785 -0.08106738 -0.08110002
000170 82 e9 d4 bd 60 26 d8 3b 92 35 f9 bd b0 17 36 3d
       -0.103961006 0.0065963715 -0.12168421 0.044456184
000180 9c d4 c2 bd 60 39 85 3b f8 04 92 3d 00 62 c2 bd
       -0.09513208 0.0040656775 0.07129854 -0.09491348
000190 d0 57 16 bc 68 eb a9 bd b0 98 c7 bd c6 85 f2 3d
       -0.00917621 -0.08296853 -0.0974592 0.118419215
0001a0 08 71 91 3c fc 6c 00 3d fa c2 bd bd 44 ac 19 3d
       0.017754093 0.031353936 -0.092657045 0.0375178
0001b0 20 b7 db bd 2c 20 6f 3d 22 4c c1 bd a2 00 a8 bd
       -0.10728288 0.05838029 -0.09438349 -0.08203246
0001c0 00 3d 95 bd 22 9c 92 bd 98 17 38 bd f8 94 92 3c
       -0.072870255 -0.07158686 -0.044944376 0.0178933
0001d0 78 a3 5a bd 98 87 38 3d 70 17 87 3d 2a a6 f6 bd
       -0.053378552 0.045051187 0.06596267 -0.12043412
0001e0 d2 2c fc 3d 70 9e 76 3c 00 1b 3b 3d 18 88 ef 3c
       0.12313236 0.015052423 0.045680046 0.0292397
0001f0 3c 77 6a 3d a0 94 15 3d 50 d8 ef 3d 60 19 e1 3c
       0.057242617 0.036518693 0.1171118 0.02747792
000200 50 01 70 3d 1e 8d 83 3d 2c c7 c4 bd a4 14 84 bd
       0.058595 0.064234 -0.096083015 -0.064492494
000210 d8 05 d8 3c a8 b4 b2 bc d4 39 a2 bd 82 e4 ed bd
       0.026369974 -0.02181466 -0.07921186 -0.1161585
000220 68 9c 88 3d 80 44 03 3d 14 06 e2 3d f0 6d d2 3c
       0.06670457 0.03204775 0.110363156 0.025687188
000230 de a2 b3 bd c8 08 02 bd c0 89 28 bb cc 4d 59 3d
       -0.08771299 -0.031746656 -0.002571687 0.05305271
000240 64 5e cc bd 90 05 57 3d fa b6 a0 bd 08 23 21 3d
       -0.09978941 0.05249554 -0.078474 0.03934005
000250 ca 6b ca bd cc a8 63 bd 68 a7 f5 3d 96 63 e2 3d
       -0.098838404 -0.0555809 0.11994821 0.11054151
000260 96 df a1 bd 72 34 ce 3d 04 76 75 bd 34 d2 99 3d
       -0.07903974 0.10068597 -0.059927 0.07510796
000270 d0 79 a5 3d 74 5a f1 3d 18 14 83 3d 50 db 93 3d
       0.080798745 0.11784831 0.06400317 0.07219565
000280 68 0a a5 bc 30 b7 ce 3c 46 a1 fb 3d 0a 86 89 bd
       -0.020146564 0.025233835 0.1228662 -0.06715019
000290 58 81 af 3d e0 fc 90 bd fc e8 8a 3d 80 22 e7 ba
       0.08569592 -0.07079482 0.067827195 -0.0017634183
0002a0 44 04 24 3d 00 11 41 3c f4 af 51 bd 24 34 9b bd
       0.04004313 0.011783838 -0.051193193 -0.075783044
0002b0 60 51 f9 3d 3c f2 40 3d 4c db c4 bd 0c e3 09 bd
       0.12173724 0.047106013 -0.0961214 -0.033663794
0002c0 4e 01 e0 bd 3e ec 8e bd e4 9b ee 3d 28 97 d2 3c
       -0.10937749 -0.06978653 0.116508275 0.025706843
0002d0 2e 0e 89 3d 90 0d e9 bc 5c b2 07 3d 74 d5 14 3d
       0.06692158 -0.02844885 0.03312908 0.036336377
0002e0 64 52 d6 bd 38 88 4a bd 76 55 c9 bd 1e 26 c1 bd
       -0.104649335 -0.049446315 -0.098307535 -0.094310984
0002f0 20 da 7d bd 86 79 a6 bd 44 83 07 3d 9c 1e 2f 3d
       -0.0619756 -0.081286475 0.03308417 0.0427538
000300 f0 c4 16 3c 8e 8c fc bd 30 27 16 bd b0 a2 5a bd
       0.009202227 -0.12331496 -0.036658466 -0.053377807
000310 06 f5 a8 3d 34 85 bc 3d 30 52 93 bc e2 e5 d9 3d
       0.082498595 0.09205094 -0.017983526 0.1063955
000320 3e e0 de 3d fc 36 36 bd 14 f1 4b 3d 78 a7 c2 3d
       0.108826146 -0.04448603 0.049790457 0.095045984
000330 e0 b2 63 3d 2a 70 dd bd b8 f5 d6 bc dc 00 d6 3d
       0.05559051 -0.10812409 -0.026240215 0.10449383
000340 50 49 8f 3d d4 79 ec bd 40 5f 09 3b 60 f5 c0 3d
       0.06996405 -0.11546674 0.0020961314 0.094218016
000350 84 a7 cb bd 98 22 de bc 10 87 e8 bd 1a 81 8c bd
       -0.099440604 -0.027116105 -0.11353886 -0.06860562
000360 c8 2d c0 bd 58 1f 64 bd 96 d9 8c 3d c4 6a 86 bd
       -0.09383732 -0.055693954 0.06877439 -0.06563333
000370 fa e7 87 3d 7c 1e 6d 3d 00 17 03 bd c4 52 db bd
       0.06636043 0.0578904 -0.032004356 -0.10709146
000380 96 28 90 bd a4 c0 5b bd f8 96 0f bd e4 ef bf bd
       -0.07038991 -0.053650513 -0.035056084 -0.093719274
000390 34 7f 13 bd 18 ac 41 bd 00 a9 13 3d 64 a4 8b bd
       -0.036009982 -0.047283262 0.036049843 -0.068184644
0003a0 48 4d ae 3d 40 22 bc 3b 30 05 53 3d 5c cd 2f 3d
       0.08510834 0.0057413876 0.05151862 0.042920455
0003b0 7c be a0 bd 9c 37 c5 bd 7c 7c 42 bd 3a 58 d8 3d
       -0.07848832 -0.09629747 -0.047482 0.10563703
0003c0 98 bf a8 bd 7c 51 42 bd 3a f3 8e bd 20 eb c0 bd
       -0.082396686 -0.04744099 -0.069799855 -0.094198465
0003d0 2c 3f 82 bd 04 91 b7 bd 58 d5 c6 3d 46 c3 8b 3d
       -0.06359705 -0.089632064 0.09708661 0.06824355
0003e0 90 56 58 bc 2a 90 83 bd 96 27 cc 3d e4 16 4f 3d
       -0.013204232 -0.064239815 0.09968488 0.05055894
0003f0 46 20 c8 3d 20 5e c0 bd 8c b3 5f 3d 54 f7 dd 3d
       0.09771781 -0.09392953 0.05461459 0.1083819

lstm.bias_hh_l0 f4 [256]
000000 06 83 97 bd 30 cd 42 3d 00 18 d3 b8 e4 db 4a 3d
       -0.073980376 0.047558963 -0.000100657344 0.04952611
000010 b6 ad ab 3d f8 35 dd bc 58 03 58 3d 40 28 ea bb
       0.08382742 -0.027003273 0.052737564 -0.0071459115
000020 00 d5 aa ba 90 b5 23 3c 80 86 99 bb 4a 8f 96 3d
       -0.001303345 0.009992018 -0.004685223 0.07351549
000030 08 3a 8a bc de a4 f2 3d 3c 66 f0 bd 0c dd b4 bd
       -0.016873375 0.11847852 -0.1173825 -0.08831224
000040 40 ca d3 3b de 7c e6 3d f2 29 92 bd e0 f6 d2 bd
       0.006463319 0.11254285 -0.07136907 -0.10300994
000050 78 96 01 bd 90 e8 8d bd 1c a2 ea bd bc ed a2 3d
       -0.03163764 -0.069291234 -0.11456701 0.079555005
000060 02 7d f1 3d 64 8a fc bd 04 14 68 3d 26 f5 b3 bd
       0.117914215 -0.123310834 0.056659713 -0.08786993
000070 60 e4 e7 3d 68 59 e0 bd e4 62 8d bd 60 d6 5c bc
       0.11322856 -0.10954553 -0.069036275 -0.013478845
000080 6c e0 b7 3d b2 81 ae bd d0 f8 9c bc 34 92 52 3d
       0.08978352 -0.08520831 -0.019161612 0.05140896
000090 a0 5c 50 bd 7e 6b c5 3d 16 80 c1 3d d0 7f a7 3d
       -0.050869584 0.09639643 0.094482586 0.08178675
0000a0 aa df 98 bd 18 a1 b2 bd f4 4e 49 3d 34 95 14 bd
       -0.074645355 -0.087221324 0.04914756 -0.036275104
0000b0 94 44 52 bd fa 2a cb 3d 38 84 c3 bd 80 ae ea 3d
       -0.051334932 0.099203065 -0.09546703 0.114590645
0000c0 d8 72 95 bd 5e 21 de bd a6 72 df 3d 5c 63 9b bd
       -0.07297295 -0.10846208 0.10910539 -0.07587311
0000d0 c8 ab 79 3d 10 03 66 3c 80 03 e2 3c a0 0a 05 bc
       0.06095484 0.014038816 0.02758956 -0.008120209
0000e0 02 3f 8c 3d 6c de 81 bd d0 ac ff 3d e0 ad 99 bc
       0.06847955 -0.06341252 0.12484133 -0.018759668
0000f0 50 ff 66 bd 40 e5 83 bc 90 b3 e6 bd 8c da 0f 3d
       -0.05639583 -0.016100526 -0.112647176 0.035120532
000100 6e 20 bb 3d f2 ea 93 3d a8 0a 2f 3d f0 bd 4b bd
       0.09137045 0.07222547 0.042734772 -0.049741685
000110 24 51 a8 3d f0 f3 1d 3c 98 ae f1 bc 70 06 3e bc
       0.08218601 0.009640679 -0.029502198 -0.0115982145
000120 08 89 45 bd e0 68 c9 3b 2e 62 b5 3d 30 1f bb bd
       -0.048226386 0.0061465353 0.08856617 -0.09136808
000130 68 98 1c 3d 10 ac 05 3d 80 81 72 3c 90 f1 8d bd
       0.038231283 0.032634795 0.014801383 -0.0693084
000140 40 f0 a6 bc 8c d7 fa bd 92 39 83 3d c8 fe e3 3d
       -0.020378232 -0.122481436 0.06407465 0.1113258
000150 80 94 34 3c 20 82 d3 3d 20 a8 e4 bc aa 9f da 3d
       0.011021733 0.10327554 -0.0279122 0.10674985
000160 c0 b4 b1 3c 08 db f8 3c 24 8a ff 3d 3e 2b c8 bd
       0.021692634 0.03037788 0.1247752 -0.09773873
000170 c0 3c cc bb 68 9a 86 bd d6 24 93 3d ac 25 da 3d
       -0.006232828 -0.065724194 0.0718476 0.106517166
000180 e8 7b 8f 3d cc ef ed bd 1e 9e e5 bd f8 03 4d bd
       0.07006055 -0.11618003 -0.11211799 -0.050052613
000190 28 a7 00 bd 2c e5 4e 3d 92 1b c1 bd ac ef b8 3d
       -0.031409413 0.050511524 -0.09429087 0.09030089
0001a0 38 ee 4d bd d4 e1 4e 3d 00 fc 15 39 d4 9d e8 3d
       -0.05027601 0.050508335 0.00014303625 0.11358228
0001b0 0a 0c d5 bd d4 69 51 bd e4 20 d4 bd 4e ba dd bd
       -0.10402687 -0.051126316 -0.10357836 -0.108265504
0001c0 00 4b f9 3c c4 1e f0 bd f4 2b d2 3d a8 67 b9 3d
       0.03043127 -0.11724618 0.1026229 0.09052974
0001d0 10 f2 59 3c 78 bf b3 bc f8 58 b5 bd 34 3b 60 3d
       0.013302341 -0.021941885 -0.0885486 0.05474396
0001e0 0a de ca 3d 06 4d f2 3d 48 76 83 bd 98 de 98 bc
       0.09905632 0.11831097 -0.06419045 -0.018660828
0001f0 f4 4a e9 bd 50 bd f7 3d e0 3b f4 bd 68 07 89 bd
       -0.11391249 0.12096655 -0.11925483 -0.06690866
000200 50 6d 14 bd 10 77 cd bd 24 3f a4 bd 86 e9 99 bd
       -0.03623706 -0.10032475 -0.080198556 -0.07515244
000210 18 fa 52 bd 50 63 0c bd 54 cf 98 bd 00 7f da bd
       -0.05150804 -0.0342744 -0.0746142 -0.106687546
000220 20 28 08 3c 1e 84 a2 bd 30 44 e7 3c 38 16 f2 3c
       0.008310348 -0.079353556 0.028230757 0.02955161
000230 b4 c2 1d bd 9a c3 d2 3d b4 94 cd 3d 80 c5 53 3b
       -0.03851576 0.10291214 0.100381285 0.0032313764
000240 40 73 97 3b 7c 7e 29 3d 1a 24 96 3d 50 ee 24 bc
       0.004621893 0.04138039 0.073311046 -0.010066584
000250 48 c8 f9 bc fe 3b a1 3d 08 1f 6c 3d 00 be 1e bc
       -0.03049101 0.07872771 0.05764678 -0.009688854
000260 e0 6a 69 3d d4 d3 d9 3d c0 4d f6 bd 9c 7d 0c 3d
       0.05698669 0.10636106 -0.120265484 0.034299478
000270 20 2e cb bd 28 50 c4 3d 04 f0 75 bd c4 23 79 3d
       -0.09920907 0.09585601 -0.06004335 0.060825124
000280 00 cc 17 3c c0 96 5e 3b a6 1d bf 3d 7c 81 dd bd
       0.009264946 0.0033964366 0.09331827 -0.10815713
000290 a8 54 5e 3d 66 a5 bd bd 72 1a 8b 3d 50 41 66 3c
       0.054279953 -0.09260063 0.067921534 0.014053658
0002a0 82 36 ef 3d ce 86 f2 3d b8 96 c4 bc e4 60 25 3d
       0.116803184 0.11842118 -0.02399765 0.040375605
0002b0 40 25 43 3b 40 04 5e bd 00 a0 55 bc ee c8 b0 3d
       0.0029776841 -0.054203272 -0.013038635 0.08632074
0002c0 f8 e8 6f bd cc b5 ab 3d 26 cd 9c 3d 08 04 d3 bd
       -0.058571786 0.083842844 0.076563165 -0.10303503
0002d0 d8 02 93 bc 0c e1 3e 3d cc f7 cb 3d a2 a7 91 bd
       -0.017945692 0.04660134 0.09959373 -0.071120515
0002e0 60 90 41 bc 48 84 86 3d 70 35 1a 3d 30 a6 ab 3d
       -0.011814207 0.065681994 0.03764862 0.08381307
0002f0 6c ef cc bd c0 eb 86 bb 14 a0 30 3d 88 2d e5 bd
       -0.100066036 -0.004117459 0.043121412 -0.11190325
000300 f0 75 66 bc b8 52 5e 3d 60 ab 39 3d 46 f2 99 bd
       -0.014066204 0.054278105 0.04532945 -0.07516913
000310 94 6f 17 bd 10 a5 fe 3c e0 6e 3e 3c 48 71 b5 bd
       -0.036971644 0.031084567 0.011623114 -0.08859497
000320 b4 4b 53 3d b6 95 a4 bd 18 c5 9a 3d 68 1e aa bc
       0.051585868 -0.080363676 0.07557124 -0.020766452
000330 60 28 53 3d 24 3a a9 bd d6 bd e4 3d 38 5e 5a bd
       0.051552176 -0.082630426 0.11169021 -0.05331251
000340 70 2a 13 3d ae 61 ec bd e0 bc 9d 3c f8 d3 33 bd
       0.035929143 -0.115420684 0.019255102 -0.04390332
000350 18 e8 c8 bd f0 59 56 3c 04 fd 35 bd 10 9b b7 3d
       -0.09809893 0.013082966 -0.044430748 0.08965123
000360 60 43 88 3c 1e 13 c6 3d f0 62 5e 3d dc de 6a 3d
       0.01663369 0.09671615 0.054293573 0.05734144
000370 24 99 98 bd d0 4e cd 3d 04 30 1a 3d dc a2 46 bd
       -0.07451084 0.10024798 0.037643448 -0.04849516
000380 84 1d 6b 3d 12 f0 db 3d 10 80 89 3d 50 8e 38 3c
       0.057401195 0.10739149 0.06713879 0.011264399
000390 f6 bd e5 3d 38 95 f5 3c 5c 2d 6c 3d 62 79 8b bd
       0.11217873 0.02997838 0.057660446 -0.06810261
0003a0 6a 26 c9 3d 48 b1 c5 bc 9e 2d e2 bd a0 28 29 bd
       0.0982178 -0.024132386 -0.11043857 -0.04129851
0003b0 40 50 8c 3d 56 cf aa 3d 40 f5 e1 bb 30 aa 05 bc
       0.06851244 0.083403274 -0.006895691 -0.008158252
0003c0 88 2d c1 bc f4 5e c6 3d d4 7e 3b 3d a4 9d b5 bd
       -0.023581281 0.096860796 0.04577525 -0.08867958
0003d0 c0 d5 5c bd 30 32 33 3c 56 21 c5 3d a0 86 cb bb
       -0.053914785 0.010937259 0.09625499 -0.006211117
0003e0 e8 1c 33 3d 30 3b bf 3c a0 74 6a 3c 90 0f 31 3c
       0.04372874 0.023343652 0.014310032 0.010806933
0003f0 38 c1 bd 3d 34 6b 34 bd 9a 6d fb 3d 40 33 86 3b
       0.09265369 -0.04404755 0.12276764 0.004095465

lstm.weight_ih_l1 f4 [256, 64]
000000 e6 e8 9b 3d 30 49 4f 3c 34 b9 5b 3d 70 79 37 3c
       0.07612781 0.012651727 0.05364342 0.011198387
000010 7e 88 ce 3d f0 2e 07 3c 05 ce a9 3d a0 53 ca bd
       0.100846276 0.008250937 0.08291248 -0.098792315
000020 88 ad 98 3c 48 96 79 3d 00 e8 06 3d 4e 83 f1 3d
       0.018637434 0.060934335 0.032936096 0.117926225
000030 ca c2 c2 3d e2 74 83 bd 09 c5 65 bc dc 59 ed 3d
       0.09509809 -0.06418778 -0.014024028 0.11589405
000040 88 08 87 3c 4a a4 e3 bd 10 d2 84 3d c0 3f c9 3c
       0.01648356 -0.1111532 0.06485379 0.024566531
000050 07 fa f9 bd fc df 01 3e 4c 72 e4 bd 76 56 e5 3d
       -0.12205892 0.126831 -0.11154613 0.11198132
000060 84 e3 de bd d4 56 e9 3d 42 58 a6 3d b0 29 ea bd
       -0.10883239 0.11393514 0.081223026 -0.114337325
000070 a4 60 52 3d 68 70 60 bd 80 26 30 3d 14 91 52 3d
       0.051361695 -0.0547947 0.043005466 0.05140789
000080 d1 52 b7 3d 8c 90 cd 3d 79 2e 1a bd ac f7 47 3d
       0.08951343 0.10037336 -0.037641976 0.048820183
000090 a8 3a ee bc 00 ad 3f 3a a0 7e 14 bd a8 59 f7 bd
       -0.029080704 0.0007311851 -0.03625357 -0.120776474
0000a0 90 98 8c bc 24 36 65 bd 8f 1c 84 3d 46 c7 92 bd
       -0.017162591 -0.055959836 0.064507596 -0.07166915
0000b0 b6 62 f1 3d f6 82 a4 bd 54 57 66 bd 2f 61 bc 3d
       0.11786406 -0.08032791 -0.056235626 0.09198224
0000c0 c4 58 64 3d 40 bb 5b bd 26 2f cb bd f9 af e5 bc
       0.055748716 -0.053645372 -0.09921102 -0.028038012
0000d0 a8 03 03 3d 7c 60 cf 3d 68 8f b0 3d f0 3e 05 3d
       0.03198591 0.10125825 0.086211026 0.032530725
0000e0 1a 23 c1 3d ea 42 d9 bd e1 8b 61 3d 66 e3 a8 bd
       0.09430523 -0.10608466 0.05506504 -0.08246498
0000f0 b6 b0 95 bd 12 f8 f7 3d 98 cd f1 3d 84 8f 92 bd
       -0.073090956 0.121078625 0.11806792 -0.0715628
000100 e4 4f e4 3d c4 22 75 3d 30 47 3f 3d 9a db d0 bd
       0.111480504 0.05984761 0.04669875 -0.10198136
000110 f8 6f af 3c 84 6d 55 bd 06 49 c9 bb 92 ff 91 3d
       0.021415696 -0.052106395 -0.0061427383 0.07128824
000120 18 7a 09 bd 54 be a1 3d 40 07 72 bb 12 66 9a 3d
       -0.033563703 0.0789763 -0.003693059 0.075389996
000130 9e d9 da bd a8 61 20 bd e0 94 0e bb e8 09 39 bd
       -0.106860384 -0.039155632 -0.0021756217 -0.045175463
000140 f4 df 1d 3d 15 73 07 3e 30 2d 45 3d 44 ee b9 bd
       0.038543656 0.13227494 0.048138797 -0.09078649
000150 be da 66 bd 97 0e c9 3d be 24 b6 bd aa 9b 17 bb
       -0.056360953 0.09817236 -0.08893727 -0.0023133554
000160 ac 4e ae 3d 70 66 e6 bd 8e 9a 9c bd f6 3c 89 3d
       0.08511099 -0.11250007 -0.076466665 0.067010805
000170 a0 4d aa 3d 58 31 db bc 2c f4 5e bd 00 78 16 3c
       0.08315587 -0.026756927 -0.05443208 0.009183884
000180 6f 0b d0 3d a4 03 7b 3d 10 38 2b 3d 80 32 e2 3d
       0.10158431 0.06128277 0.041801512 0.11044788
000190 26 9c 9c bd 8a ca 8d bd 24 ec 95 3d fc 35 48 bd
       -0.076469705 -0.06923397 0.07320431 -0.04887961
0001a0 54 ce 35 3d 08 ed c0 3c 3c 3a 93 3d 38 1f b0 3d
       0.044386223 0.023550525 0.07188842 0.085997045
0001b0 54 e1 ee bd ae 71 90 bc a8 50 1f 3d 25 e2 d5 3d
       -0.11664072 -0.017632332 0.03889528 0.10443524
0001c0 da 3e 83 3d 6c 4c eb 3d 60 2e a7 3c 98 88 6f bc
       0.06408472 0.11489186 0.020407856 -0.014619969
0001d0 94 f4 14 3d 80 d9 88 bc c6 b4 bd 3d b8 5d 86 3c
       0.03636606 -0.016705275 0.092629954 0.01640211
0001e0 74 27 ff 3d a8 29 80 3d b5 c7 99 bc e0 2e 8f 3b
       0.12458697 0.06257945 -0.018771986 0.0043696016
0001f0 e8 3b c9 3c 90 a4 df 3c 70 20 ce bd 89 4b 9a 3d
       0.024564698 0.02730015 -0.10064781 0.075339384
000200 26 ed 8c bd 9e 04 b9 3d e0 8d 9a bd d4 19 d2 3d
       -0.0688117 0.09034084 -0.07546592 0.102588326
000210 14 b5 93 3d de 6b d0 3d cb bd 54 bc ba e1 9d bd
       0.07212272 0.10176824 -0.012984703 -0.077090696
000220 96 61 fe 3d 3c 4c dd 3d 60 d7 81 3b b8 9d 75 3d
       0.12420957 0.10805556 0.0039624423 0.059964865
000230 4e e0 c5 3d c4 95 de bd 0e 72 86 3d 18 c8 68 bd
       0.09661923 -0.10868409 0.06564723 -0.05683145
000240 f8 0a ef bd 51 65 1d 3d 54 ba 1a 3d c0 80 5f 3d
       -0.11672014 0.0384267 0.037775353 0.054566145
000250 78 ca a2 3d 80 79 91 bd 80 6b 7a bd ba 58 d7 bd
       0.07948774 -0.071032524 -0.061137676 -0.1051497
000260 80 fa 2e 3d fa 49 d6 3d d4 dc 03 bd 7c 99 2d bd
       0.042719364 0.10463329 -0.03219302 -0.042382702
000270 70 49 4f bd 50 3b 1c bc 34 4b d0 3d 1c 8f b9 bd
       -0.050607145 -0.009535626 0.10170594 -0.09060499
000280 ab 92 c2 bd 04 71 0a 3d ae 11 03 3d c0 63 e7 3d
       -0.09500631 0.033799186 0.031999283 0.11298323
000290 12 20 be 3d 60 92 93 3c 68 1b e1 3c 08 f0 b1 bd
       0.09283461 0.018014133 0.027478889 -0.086883605
0002a0 7c dd f3 3d 22 ad a3 3d f5 2f 0d 3e 70 b0 87 3d
       0.11907479 0.07992007 0.13787825 0.0662545
0002b0 ae 7a 8a bd 37 c5 c7 bd e4 8a 98 3d 32 27 f5 3c
       -0.067616805 -0.097544126 0.07448366 0.029925916
0002c0 dc 1c dd bd 20 13 ec 3c 70 0f 54 3c a4 24 ff 3d
       -0.1079652 0.028817713 0.012943134 0.124581605
0002d0 58 27 28 3d dc 06 49 3d 20 9b 5f bd 88 9f 20 bd
       0.041053146 0.049078807 -0.054591298 -0.03921464
0002e0 38 19 3a bd 68 ac 64 bd f8 05 3c 3b 9a 98 8c 3d
       -0.045434207 -0.055828482 0.002869008 0.06865044
0002f0 90 d1 f1 3d 92 23 98 3d 68 ad 3a 3d 57 a5 99 bd
       0.11807549 0.074286595 0.04557553 -0.07502239
000300 30 53 62 bc 14 f8 f7 bd b6 a8 e4 bd 5e cc b7 3d
       -0.013813779 -0.12107864 -0.111649916 0.08974527
000310 90 4c 0b 3c 5e e5 c1 3d 69 a0 b8 bd 80 15 9e 3b
       0.008502141 0.094675764 -0.09014971 0.0048243403
000320 32 9d fc 3d ee b7 a7 3d 14 b9 64 3d f4 79 41 3d
       0.1233467 0.08189379 0.055840567 0.047235444
000330 a2 e8 ff 3d 24 5b 09 bd 19 2c 43 bd ec 22 a3 3d
       0.12495543 -0.033534184 -0.047649477 0.07965645
000340 e0 d2 95 3d dc 89 61 ba 90 48 67 3c 12 b7 88 bd
       0.07315612 -0.00086036115 0.014116421 -0.06675543
000350 f9 b9 d6 bd dc 19 02 3e 24 45 dd 3d 28 bb e5 bd
       -0.1048469 0.12705177 0.10804203 -0.11217338
000360 6a a7 b8 bd 1c 5d db bd b0 78 f6 bd 22 40 da bd
       -0.09016307 -0.107111186 -0.12034738 -0.106567636
000370 52 86 8d 3d 54 85 0c 3d 34 a0 cb bd 38 c4 15 bd
       0.06910385 0.03430684 -0.09942666 -0.036564082
000380 37 2a 19 3d e0 73 18 3c fd cb dc bd a8 ff a8 bc
       0.037393775 0.0093049705 -0.10781095 -0.020629719
000390 8c a9 81 3d 70 04 2f bc 6c ec b6 3d c0 f4 e0 bb
       0.063311666 -0.01068221 0.08931813 -0.006865114
0003a0 68 18 d9 3d 9c c9 cb 3d a6 81 b0 3d 30 a9 a7 3d
       0.10600358 0.09950563 0.086184785 0.08186567
0003b0 10 8b a9 3d b7 21 96 3d 4a 86 c9 3d 5a 5a 10 bd
       0.08278477 0.07330649 0.09840067 -0.035242416
0003c0 f4 6d 38 3d 82 b6 f7 3d ba 07 bf 3d 52 29 c2 ba
       0.045026734 0.120953575 0.093276456 -0.001481334
0003d0 58 55 ad bd e0 0e 09 bd 64 17 c1 bd 14 ce 60 bd
       -0.08463544 -0.03346145 -0.094282895 -0.05488403
0003e0 40 85 a9 bd 7c 28 ff bd ee b7 1e 3d 96 eb af bd
       -0.082773685 -0.12458894 0.038749628 -0.08589856
0003f0 80 1e eb bb 64 09 7a 3d 78 76 b9 bd 00 ff 83 bd
       -0.0071752667 0.06104411 -0.09055799 -0.06445122

lstm.weight_hh_l1 f4 [256, 64]
000000 f3 f9 ad bd 53 e6 95 bd f9 11 d0 3c 8d 91 fc bd
       -0.0849494 -0.073193215 0.025399195 -0.12332449
000010 54 b0 d1 bd fa 20 e1 3d d6 6f b3 3d d0 e1 79 3d
       -0.1023871 0.10992618 0.087615654 0.061006367
000020 3a b1 99 bc f2 26 33 3d bc d1 46 bd fd e3 a5 bd
       -0.018761266 0.043738313 -0.048539862 -0.08100126
000030 57 42 3d 3c 23 a5 5e 3c 48 4c 45 bd c3 6c c2 3c
       0.011551461 0.013589176 -0.04816845 0.023733502
000040 7f 80 86 3d 82 92 ae 3d 86 1e a9 3a 8c ff bf 3d
       0.065674774 0.08524038 0.0012902773 0.093749136
000050 c5 5c e3 3b e7 1f cc 3c 6d 85 b2 bd 8b e1 b2 bd
       0.006938549 0.024917556 -0.08716855 -0.08734425
000060 c3 5e 09 3e 6d 85 96 3d ca ad bb 3c 89 0e e9 3c
       0.13415055 0.07349668 0.022910018 0.028449314
000070 01 57 84 bd a4 7d dd bd 52 2e 16 bd 8f cd 4c 3d
       -0.06461907 -0.1081498 -0.03666527 0.050000723
000080 08 d6 09 be 8f c1 89 3a fd fc 16 bd 19 fb bd bd
       -0.13460553 0.0010509955 -0.036862362 -0.09276409
000090 64 9a 29 3c 4b 28 fa 3d e4 3c 05 bd 63 dd f7 bc
       0.010351751 0.122147165 -0.032528773 -0.030256933
0000a0 9e 36 b2 3d 7f 11 4d 3d 57 19 cb bd 89 ac c5 3d
       0.08701824 0.050065514 -0.099169426 0.09652049
0000b0 97 b5 8b 3d 80 d2 52 bd 08 1e e3 bd 78 90 40 bd
       0.06821745 -0.05147028 -0.110897124 -0.047012776
0000c0 ee 0a 49 bd b7 2f cf 3d 2d d4 0c be d4 bd 7c 3d
       -0.04908269 0.10116523 -0.13752814 0.06170447
0000d0 91 f4 b8 3a b5 d5 3e bd 61 66 d0 3d a9 cd cf bd
       0.0014110972 -0.046590526 0.10175777 -0.101466484
0000e0 55 56 1f bd 6e db 06 3e b4 50 c2 3d f3 fe 52 3d
       -0.038900692 0.13169643 0.09488049 0.05151267
0000f0 48 1a 00 3e ba b7 9b 3d f6 2c 1f 3a 52 08 e4 bb
       0.12510026 0.076034024 0.00060720684 -0.0069589997
000100 68 63 ae bd 6d b3 05 be 8d 15 1b bb 79 7f 25 3c
       -0.08515054 -0.13056727 -0.0023663968 0.010101193
000110 d5 76 90 3d a4 21 a1 bc e0 a1 23 bd 46 9e 66 3c
       0.070539154 -0.019669361 -0.039949298 0.014075821
000120 ae bd 32 bd 75 44 e4 bd 88 e3 5a bd 7b 9d c9 bd
       -0.043637924 -0.1114587 -0.053439647 -0.0984449
000130 88 54 3e bd 91 4b 0c 3c 94 1f 8d 3c ae eb c3 bd
       -0.046467334 0.008562938 0.017226972 -0.09566437
000140 f2 57 b1 3d bc 00 a5 bd f1 2c d0 3d 7f 31 a9 3d
       0.08659352 -0.08056781 0.10164822 0.08261394
000150 29 1e b9 3d e4 91 e6 3d 8e c9 4d 3d d8 eb 87 3d
       0.09038956 0.11258295 0.050241046 0.066367805
000160 9b 19 fc b9 0f 52 27 bd be 06 c2 3c 93 19 85 3c
       -0.00048084263 -0.04084974 0.023684856 0.016247546
000170 27 1e c2 3c dd 9f 5f 3d 9a d1 4e bc 28 7b f8 3b
       0.023696018 0.054595817 -0.012623215 0.0075830407
000180 97 f2 bf bc 44 d4 46 bd 45 74 c5 3d 32 f5 aa 3d
       -0.023431106 -0.048542276 0.09641317 0.083475485
000190 68 af a0 bd 77 70 62 3d c3 2b 8d 3c dc 07 dc bb
       -0.07845956 0.055283036 0.017232781 -0.006714804
0001a0 34 ed 52 3d 4c 33 d1 bd 55 82 a1 bb b8 b7 c7 bd
       0.051495746 -0.10214862 -0.004928867 -0.097518384
0001b0 d2 bb 07 3e 33 03 dc 3d da ad a9 3d 5c ab a7 bc
       0.13255242 0.10742798 0.08285113 -0.020467453
0001c0 84 e2 5e 3d 2a b9 d3 bd 36 18 06 bb 79 85 66 3d
       0.05441524 -0.103380516 -0.0020461208 0.056279633
0001d0 41 43 d6 3d 1f 87 5d 3d 4c a9 a4 bb c3 a9 98 bd
       0.104620464 0.05408394 -0.0050250646 -0.074542545
0001e0 31 d0 08 bd f0 47 0d bd 6a 32 c8 3d 01 eb c4 3d
       -0.03340167 -0.034492433 0.09775241 0.09615136
0001f0 a9 8b ee 3d 05 1c a6 bc c4 77 bb bd e3 83 88 bd
       0.11647732 -0.020277033 -0.09153703 -0.066657804
000200 2a a1 96 3b 4d 39 14 be 4c 3f 05 3e ab c8 9c 3d
       0.004596849 -0.14474984 0.13012427 0.07655462
000210 a2 c8 ee 3d ab 38 80 3d 50 e4 b8 3c 60 e9 f7 3d
       0.116593614 0.062608086 0.022569805 0.121050596
000220 c1 f5 30 3d ac 79 cc bd ec 93 f7 3c ed 34 74 3d
       0.04320312 -0.099841446 0.030221902 0.059620786
000230 90 a3 69 bd 2e 27 06 3d cd 49 c4 bc e4 65 cd 3d
       -0.05704075 0.03275221 -0.023960972 0.100292
000240 53 4a 8c bb a5 85 eb 3d f5 fa 17 bd a5 5c 7e 3d
       -0.004281321 0.115001 -0.037104566 0.06210007
000250 6e cf 12 be 3f 6a 3e 3b a2 b5 a2 bd 3b 9e 11 3d
       -0.1433694 0.0029055027 -0.079448 0.03555129
000260 12 5e bd bd 36 d6 39 bd bf f3 91 3d 62 1d 8e bc
       -0.09246458 -0.045370303 0.07126569 -0.017347995
000270 80 3a 02 be 7f d2 53 3b b6 bd be 3d c7 c6 2d bd
       -0.12717628 0.003232151 0.09313528 -0.042425897
000280 31 32 15 be cc 2b cb bd e6 56 18 3d 1b 0c 29 bc
       -0.14569928 -0.09920463 0.037192248 -0.010317828
000290 eb ad a2 3d 4b 02 ad 3d d5 80 ea bd 6d cf 10 be
       0.079433285 0.08447703 -0.11450354 -0.14141627
0002a0 7d 04 48 bc 3b 86 9a bd 5c bb bb 3d bb 49 c1 bd
       -0.012208101 -0.07545134 0.09166595 -0.09437891
0002b0 eb b7 99 bd c3 3b 29 3d 7f 1d 05 be ce e4 58 bc
       -0.07505783 0.04131676 -0.12999533 -0.013238145
0002c0 c9 f3 0b bd 2d 67 84 bd 67 69 8e bc 79 5d 0c be
       -0.03416804 -0.06464992 -0.017384244 -0.13707532
0002d0 cd d5 89 bd 4f 89 fa 3c 2d 8b a0 bd 37 3b 0a be
       -0.067302324 0.030583052 -0.07839046 -0.13499151
0002e0 90 7b d0 3c 04 5b bd bd 36 85 0e 3e 91 8c ad bd
       0.025449544 -0.092458755 0.13918003 -0.084740765
0002f0 67 5a 50 3d cd b6 90 bd 2c 3c 9c 3c 84 77 db 3d
       0.050867464 -0.070661165 0.019071661 0.10716155
000300 fa 39 5b 3b 78 22 c2 bb e6 6b c5 bc 84 ba 5e 3d
       0.0033451305 -0.005924519 -0.024099302 0.054377094
000310 a1 e4 2d bd 5f ea 84 3c 78 73 b4 bc be c4 30 bc
       -0.042454366 0.016225038 -0.022027716 -0.0107890945
000320 48 b5 eb b8 b7 2a 1d bd b3 0c 5e 3c 44 c1 29 bc
       -0.000112394395 -0.038370814 0.013552832 -0.0103610195
000330 b0 f6 8d bd ba d6 1b 3d 61 46 d3 bd e8 ea 04 bd
       -0.069318175 0.038046576 -0.10316158 -0.032450587
000340 25 72 7a 3c 18 5e 03 3c 46 8a 86 ba 9f e6 64 3c
       0.015286003 0.008018039 -0.0010264597 0.013971
000350 f7 81 f2 bc 7a 0b 92 bd 70 ac c4 3d 88 20 12 be
       -0.029602988 -0.07131095 0.09603202 -0.14270222
000360 5e 21 8b 3d 4f 12 49 bd 4f a2 b3 3d 9e 6d 93 3c
       0.06793474 -0.049089726 0.08771192 0.017996605
000370 2b c8 ba bd 2c 61 12 be de 11 54 3d 6f 2e d4 3d
       -0.0912021 -0.1429488 0.051774852 0.10360419
000380 79 db 18 3d 5d 4f 6a 3c e8 1f ad 3b e2 3f 6e 3c
       0.03731868 0.014301148 0.0052833445 0.014541598
000390 ba 24 84 3d ad 7e 39 3d ae 08 21 3d 1b 96 ec bc
       0.064523175 0.045286823 0.03931492 -0.02888017
0003a0 fe 05 f5 3d 10 b7 d2 bb 2c 54 0e be 38 c6 65 3c
       0.119640335 -0.006430514 -0.13899297 0.01402431
0003b0 bd 5a f0 3d 52 9b a8 bd 31 ba f7 bc 65 84 9c 3d
       0.11736057 -0.0823275 -0.03024015 0.0764244
0003c0 a6 f4 67 bc c0 46 06 3e a5 0a d2 3d 0f e0 5b 3d
       -0.01415745 0.13112926 0.102559365 0.053680476
0003d0 a7 ea 39 3c 8b 59 0e bb 0d 8d ce 3d bf 8f c1 3d
       0.011347449 -0.0021720852 0.10085497 0.094512455
0003e0 b6 2a e5 bd d4 10 3e 3d d8 0d 8a bd 9f 22 bb 3d
       -0.11189787 0.046402767 -0.06740922 0.09137463
0003f0 c9 bf dd 3c 7e df c5 bc d7 5a eb 3d 4a 17 13 3e
       0.02706899 -0.024154421 0.11491936 0.14364353

lstm.bias_ih_l1 f4 [256]
000000 32 18 86 3d 30 3f 4b 3d 69 06 b3 bb 41 4a 0c ba
       0.06547584 0.049620807 -0.0054634106 -0.0005351641
000010 f7 bf f2 3d 4e 29 01 3e 52 1b bb bd a5 1d 55 bd
       0.11853021 0.12613413 -0.0913607 -0.052030224
000020 3a 54 0d 3c 96 d9 84 bd 9f d8 af bd 90 dd 0f bc
       0.008626038 -0.06486814 -0.08586239 -0.008780852
000030 60 3b a6 bd f1 8f e7 3c 6e 35 be 3d 71 c1 b4 bc
       -0.08116794 0.028266879 0.09287535 -0.022064896
000040 c7 5d ef 3d d4 7e 00 bd 34 a2 b5 3d 85 67 4d 3d
       0.116878085 -0.031370953 0.088688284 0.050147552
000050 0b ab ae bd 43 e0 02 3d c4 28 a1 bd 28 a8 c4 3d
       -0.085287176 0.031952154 -0.078691036 0.09602386
000060 d6 aa 7d 3d 1f 8e ed bc 02 22 86 bd 83 6b 6a bd
       0.0619305 -0.028998433 -0.06549455 -0.057231437
000070 bb 6c bf 3d 0e e3 1b 3d ba 87 10 3e bf f8 34 3d
       0.093469106 0.038058333 0.14114276 0.044182535
000080 d0 ab 4a bd 62 96 59 bd 29 47 44 3d c5 1f 98 3d
       -0.04948026 -0.05312193 0.047919426 0.074279346
000090 70 aa b7 bd 2e 9e a3 bd f9 81 1b bd 17 bb 84 3b
       -0.08968055 -0.07989155 -0.03796575 0.004050623
0000a0 99 0f 9b bd f7 72 af 3d 21 a9 22 3d e1 62 8f 3c
       -0.075713344 0.0856685 0.039712075 0.017503204
0000b0 47 a6 2b bd 67 e0 c2 3d 5c db c9 3d f8 31 c9 3d
       -0.04190662 0.095154576 0.098562926 0.09823984
0000c0 6a 72 66 bc c3 c4 06 bb ff d2 60 bc 64 65 d8 bc
       -0.014065364 -0.0020564056 -0.01372218 -0.026415534
0000d0 11 62 a1 bd 69 49 41 bd e9 12 56 bd 16 05 8e 3c
       -0.07880033 -0.04718915 -0.052264128 0.01733641
0000e0 84 8a 33 3c 56 ed ba bc 45 c9 c0 bd e8 ac 00 bd
       0.010958318 -0.022818249 -0.09413389 -0.031414896
0000f0 89 a5 d0 3d 0a ae 0a 3c 7f 2e c6 3d 27 e9 58 3c
       0.10187823 0.008464346 0.09676837 0.013239182
000100 f4 96 a3 bd f4 b3 37 3c d3 71 6a 3d b2 2a 6e bd
       -0.079877764 0.011212338 0.057237457 -0.058146186
000110 4b 24 a4 3d 6d 6f 33 3d a8 48 b8 bd b6 f7 41 3d
       0.08014735 0.043807436 -0.08998233 0.047355376
000120 e0 eb b9 bc b6 d1 ba bb a7 e7 b8 3c 8d 14 a6 3d
       -0.022695482 -0.005701269 0.022571398 0.081093885
000130 94 4b 33 bc 4f 21 a4 bd 05 d6 bd 3c 25 74 86 3d
       -0.010943312 -0.080141656 0.023173342 0.065651216
000140 17 2f c2 3d 5f af 6b 3d 97 28 ac bd da 1f 05 3e
       0.09481638 0.057540294 -0.084061794 0.13000432
000150 f0 f0 16 3c 31 1a 83 bb 18 35 93 3b bc 6e cb 3d
       0.009212717 -0.004000925 0.0044924133 0.0993323
000160 ef 33 e7 3d b4 49 11 bd de 38 a3 3d 12 bb c4 bd
       0.112892024 -0.03547068 0.07969831 -0.09605993
000170 bb d6 c9 bc 27 be 77 bd 93 ff 73 3c 3e 58 01 3e
       -0.024638524 -0.060484078 0.014892477 0.12631318
000180 cf 9f 0d 3e 1d 5c 2c 3d 77 aa 0a 3e 0a cc a1 bc
       0.13830493 0.042080034 0.1354159 -0.019750614
000190 37 32 e5 3d 62 d8 9d bd a2 95 af 3d 4d 30 b0 bd
       0.11191218 -0.07707287 0.08573462 -0.08602963
0001a0 d4 17 d9 bd 73 48 80 bc 2b f8 be bd 78 77 21 bd
       -0.10600248 -0.015659546 -0.09324678 -0.039420575
0001b0 45 25 fa 3d 30 f3 70 bd d4 e0 2e bd 6c c8 0b 3e
       0.1221414 -0.05882567 -0.04269488 0.13650674
0001c0 cb be e5 3d 77 92 b4 3d 31 d1 2f bd ce 22 a0 bc
       0.112180315 0.088169985 -0.04292411 -0.019547846
0001d0 4d a3 14 3d 21 ba 84 bd 6a 7b 2b bc a5 05 be bb
       0.03628855 -0.06480814 -0.010466436 -0.0057990127
0001e0 e0 da 81 3d fe 1a 02 bd 8d a7 f1 3d 52 76 d7 3a
       0.06340575 -0.031764023 0.11799536 0.001643846
0001f0 60 dc 75 3d b8 f3 c3 bd 5f 30 2b bd 73 46 c4 3c
       0.06002462 -0.0956797 -0.041794177 0.023959374
000200 ef 96 13 bd 83 1d b0 bd cc 5f af 3d e8 e6 d4 3d
       -0.036032613 -0.08599379 0.08563194 0.10395604
000210 3f 33 83 bc 4a a0 25 bd ae f2 04 3e 03 81 a8 3d
       -0.016015647 -0.040436067 0.129832 0.08227732
000220 1d 80 bd bd 53 0f ea bd 00 ae be 3d cc 29 b6 bd
       -0.09252951 -0.11428704 0.093105316 -0.08894691
000230 a9 fd e7 bd f6 0d ea 3d 75 81 fe 3a f0 63 9c bc
       -0.11327679 0.11428444 0.0019417243 -0.019090623
000240 83 bf 69 bd 24 64 e0 3d 43 a1 ba bd c6 df 9a 3d
       -0.057067405 0.109566 -0.091127895 0.07562213
000250 9e 7c a0 bd f0 57 8f 3d 3d c0 d3 3d 3e 2a a8 3d
       -0.07836269 0.069991946 0.10339401 0.08211182
000260 b5 77 9e bd a4 b6 9f 39 69 02 67 3d a0 74 8f bc
       -0.07737676 0.0003046292 0.056398783 -0.017511666
000270 20 11 3b 3d 28 0b 88 3d 71 60 af bb 44 f1 d8 3d
       0.04567063 0.06642753 -0.005352073 0.10592893
000280 c9 45 76 bc e3 57 01 be 1e b5 ad 3d e3 28 3a bd
       -0.0150312865 -0.12631182 0.08481811 -0.04544915
000290 b5 7e f9 bc 0e 55 b9 bd e2 4e bd bd cb f1 09 be
       -0.030455926 -0.09049426 -0.09243561 -0.13471143
0002a0 57 d9 f5 3d 1d 05 f2 bd fa eb d2 3d f8 0e d6 3b
       0.12004345 -0.118173815 0.10298915 0.006532546
0002b0 ca 71 99 3d 84 8d a1 3d da 2e 9b bd 91 b0 f8 3c
       0.07492407 0.0788832 -0.075772956 0.03035763
0002c0 ef b1 1d 3b 31 28 32 3d 68 e7 14 3d b7 90 dc bd
       0.0024062356 0.04349536 0.0363535 -0.1076979
0002d0 02 da 02 bd bb de 3c bd 68 be 92 bd f1 4a 75 bd
       -0.03194619 -0.04611085 -0.07165223 -0.059885923
0002e0 64 f6 ee bc f7 5d 8c bc fd b4 c1 3d 33 f5 ed 3d
       -0.029170223 -0.01713465 0.09458349 0.11619034
0002f0 55 1b 11 3d 89 51 a5 bd bf 0d 84 bd e9 de 83 3d
       0.035426456 -0.08072192 -0.06447934 0.06439001
000300 f7 38 20 bd c4 48 fb 3d 1a 4f 10 3d e0 5a 22 3d
       -0.039116826 0.12269738 0.035231687 0.039637446
000310 ad 09 c3 3d c3 ae 71 bc 81 c7 ef 3d 76 af 04 3e
       0.0952333 -0.014751139 0.11707974 0.12957558
000320 db be 76 bd 2d 71 a9 3d 6d 33 56 bd f8 5a ec 3d
       -0.060240608 0.0827354 -0.052295137 0.115407884
000330 96 f3 4c 3c 66 51 fd bc c8 92 19 3e 88 f5 0a 3c
       0.012509247 -0.030922603 0.14997399 0.008481391
000340 d2 46 15 3e 03 7e 44 bd 14 54 e5 3d c1 80 fd 3d
       0.14577797 -0.047971737 0.11197677 0.123780735
000350 7a b3 b8 bd 7a a0 0c 3e 3b 87 0f 3e fc 12 9d 3c
       -0.090186074 0.13733092 0.1401643 0.019174092
000360 d2 e7 62 bd b4 47 8a 3d dd b5 95 bd 66 3d 53 3d
       -0.055396862 0.067519575 -0.07310078 0.051572226
000370 ef ee 2d 3d c9 0b e6 3d 65 c4 0b 3c f6 6a 67 bd
       0.042464193 0.112327166 0.008530711 -0.05649849
000380 4b d7 24 bd a2 98 26 3d 7d b6 a7 bd e2 ab 59 bd
       -0.040244382 0.040672906 -0.08189104 -0.053142436
000390 09 b9 0b 3e a1 9e 5b 3d 9d 74 c2 3d 3a c9 fa bc
       0.13644804 0.053618077 0.094948985 -0.03061353
0003a0 62 87 4b 3d 24 01 59 3d e7 cc a3 3d 03 5d ba 3c
       0.049689658 0.052979603 0.079980664 0.02274943
0003b0 3e 4a b7 bd 22 4b 12 bd 56 9f a8 3c df 98 ed 3d
       -0.089497074 -0.035716183 0.02058379 0.116014235
0003c0 83 ae 75 bd 41 86 b9 3d 58 0d c0 bd ec 36 4a 3d
       -0.05998088 0.0905881 -0.09377545 0.049368784
0003d0 27 a1 07 3d 1b 60 89 3a 92 99 50 bc 1d 1a 4d bd
       0.03311267 0.0010480912 -0.0127319265 -0.05007373
0003e0 e0 f0 87 bc 44 17 97 3c 1b 41 93 bd 2f d7 33 bd
       -0.01659435 0.018443711 -0.07190152 -0.043906387
0003f0 10 1b ca 3d 89 a2 cb 3c 17 56 d4 bc 86 9e 56 bd
       0.09868443 0.024857776 -0.025919957 -0.052397273
