models/LINKUSDT_lstm_20250822_165330.pth (torch, 244277 bytes, 11 tensors)

lstm.weight_ih_l0 f4 [256, 30]
0	0xbd6f0e40	-0.0583632
1	0xbdb08f76	-0.08621113
2	0x3deac230	0.114628196
3	0xbce57598	-0.028010175
4	0xbd89ad6e	-0.06722532
5	0xbda0afba	-0.07846017
6	0xbdd95de8	-0.10613614
7	0x3d466998	0.048440546
8	0x3df02c9a	0.11727257
9	0x3c9ca6a8	0.019122437
10	0x3ca27518	0.019831225
11	0x3c182250	0.0092855245
12	0x3d30856c	0.04309599
13	0x3da6bf9e	0.08142017
14	0x3dfcbbb4	0.12340489
15	0x3de189a2	0.110125795
16	0xbc077500	-0.008267641
17	0xbd4e2ab0	-0.05033368
18	0x3d97bd8e	0.074092016
19	0xbd504e70	-0.050856054
20	0x3d41fb7c	0.047358975
21	0xbdc3f784	-0.09568694
22	0x3d30cf1c	0.043166265
23	0xbc714200	-0.014725208
24	0xbdb3434c	-0.0875307
25	0x3cacf188	0.021111265
26	0xbccfbdf8	-0.025359139
27	0x3ca8cda0	0.020605862
28	0xbdd342ba	-0.103154615
29	0xbcc7d1b0	-0.024391979
30	0x3d3992f4	0.04530616
31	0xbc869d48	-0.01643242
32	0x3d7ddd20	0.06197846
33	0x3db20b00	0.08693504
34	0xbdd0715e	-0.10177873
35	0x3da18224	0.078861505
36	0x3dd03bac	0.101676315
37	0x3b3b2100	0.0028553605
38	0xbb3390c0	-0.002739951
39	0xbdba78e2	-0.09105088
40	0xbd7cbb50	-0.061702073
41	0x3c361280	0.011112809
42	0x3d6e4530	0.05817145
43	0xbda1dc50	-0.079033494
44	0x3de8a0ee	0.1135882
45	0xbdecc77c	-0.11561486
46	0xbb848880	-0.0040445924
47	0x3d1a9924	0.037743703
48	0x3dd98656	0.10621326
49	0xbbffdf60	-0.007808611
50	0xbdcecc96	-0.100976154
51	0x3cc55c40	0.02409184
52	0xbd37b14c	-0.044846818
53	0x3cc22778	0.02370046
54	0xbd0b9098	-0.034073442
55	0x3dc5e6e0	0.096631765
56	0x3d6eddf8	0.058317155
57	0x3aba8180	0.0014229268
58	0xbddb912a	-0.10721047
59	0x3d88938a	0.06668766
60	0xbd1d9e80	-0.038481236
61	0xbd0ba22c	-0.034090206
62	0x3dfb465c	0.12269279
63	0x3b075b80	0.0020653903
64	0x3dbaef20	0.09127641
65	0x3d952ed6	0.07284324
66	0x3da15d48	0.0787912
67	0x3db77fa6	0.08959894
68	0xbd01aa04	-0.03165628
69	0x3d61c2fc	0.055117592
70	0xbd21ccf8	-0.039502114
71	0x3ddee800	0.10884094
72	0x3da53e4e	0.08068524
73	0xbdcbb710	-0.09947026
74	0x3d287c6c	0.041134283
75	0x3dcbf59e	0.09958957
76	0x3ddc113a	0.10745473
77	0x3df4df52	0.119566575
78	0x3d749b74	0.059718564
79	0xbdac98ba	-0.08427568
80	0x3dd3e312	0.103460446
81	0xbde17426	-0.11008482
82	0x3cbf5ac8	0.023358718
83	0xbdd63626	-0.10459547
84	0x3ddc06ca	0.107434824
85	0xbdf4ec5a	-0.11959143
86	0xbd979300	-0.07401085
87	0x3dfc3016	0.12313859
88	0x3c890d28	0.016729906
89	0x3d969390	0.07352364
90	0x3d01c53c	0.031682238
91	0x3d9145a6	0.070933625
92	0x3d320f54	0.04347165
93	0xbd9711b0	-0.073764205
94	0xbdc04b5c	-0.09389374
95	0xbdebc044	-0.11511281
96	0x3db58f16	0.08865182
97	0x3d90b05c	0.07064888
98	0x3d9d37c4	0.07676652
99	0xbbf2a720	-0.0074051768
100	0x3cb16990	0.021656781
101	0x3d1fec34	0.03904362
102	0x3de6e8e4	0.11274889
103	0x3b4f2140	0.0031605512
104	0x3caa7228	0.020806387
105	0x3ddeb612	0.10874571
106	0xbdc5031e	-0.09619735
107	0xbd908420	-0.07056451
108	0xbb952b00	-0.004552245
109	0x3dbe627a	0.09296127
110	0x3d4751d4	0.04866202
111	0x3df06070	0.11737144
112	0xbd7b8e6c	-0.06141512
113	0xbdc87922	-0.09788729
114	0xbda7ad88	-0.08187395
115	0xbdf40c64	-0.11916426
116	0x3d53b2f4	0.051684335
117	0x3c1b62a0	0.009483963
118	0x3d2abc74	0.04168363
119	0xbd5a8710	-0.053351462
120	0x3cfdda98	0.030988023
121	0x3d0d13ec	0.034442827
122	0xbdbbef64	-0.091765195
123	0xbd79d244	-0.06099154
124	0xbd700500	-0.05859852
125	0xbd436470	-0.047703207
126	0xbdcec2e0	-0.10095763
127	0x3deecce0	0.116601706
128	0x3d76cbac	0.06025283
129	0x3da5140a	0.08060463
130	0xbdb682f4	-0.08911696
131	0x3d67a154	0.05655034
132	0x3c185310	0.009297147
133	0x3dee14f0	0.11625087
134	0x3b9a2b00	0.004704833
135	0xbd2aa260	-0.04165876
136	0xbdb1e20c	-0.08685693
137	0xbc474410	-0.012162223
138	0x3beb7da0	0.0071866065
139	0x3ceb6de0	0.028738916
140	0xbdb8045a	-0.08985205
141	0x3d501590	0.050801814
142	0xbd2fde38	-0.042936534
143	0xbda5edbc	-0.08101985
144	0xbd21d56c	-0.039510176
145	0x3dc5f32a	0.096655205
146	0x3cec5df0	0.028853387
147	0xbdba44b4	-0.09095135
148	0x3de9367a	0.11387344
149	0xbde6835a	-0.11255522
150	0xbdd0d26e	-0.10196386
151	0xbd73d7fc	-0.05953215
152	0xbdfd3850	-0.123642564
153	0xbda3f988	-0.08006579
154	0x3dce1c1e	0.10063957
155	0x3d344b10	0.044016898
156	0xbd82e55a	-0.063914016
157	0xbd9bd3fe	-0.07608794
158	0x3d818e90	0.0632602
159	0x3c4afad0	0.0123889
160	0xbddb5b08	-0.10710722
161	0xbdb84fd2	-0.089995995
162	0xbdca6bbc	-0.0988383
163	0xbc82bdc8	-0.015959635
164	0xbcbea818	-0.023273513
165	0x3c86dad8	0.016461775
166	0xbdf8f4ec	-0.1215609
167	0x3dfe5928	0.12419349
168	0x3dbca482	0.09211065
169	0x3de961a4	0.113955766
170	0x3dcdbaf0	0.10045421
171	0xbc74e570	-0.01494728
172	0x3df52fd4	0.11972013
173	0x3d45f330	0.048327625
174	0x3dcbdf3e	0.099546894
175	0x3bcec920	0.006310597
176	0x3de12202	0.109928146
177	0xbc5f6f10	-0.013637319
178	0x3b7ab5c0	0.0038255304
179	0xbdec76b6	-0.1154608
180	0x3de0faec	0.109853595
181	0xbdd60596	-0.10450284
182	0x3dd42c3c	0.103599995
183	0x3db2fb76	0.087393686
184	0xbc8a0580	-0.016848326
185	0x3dc2adca	0.09505804
186	0x3c88d0b8	0.016701087
187	0xbdac17fe	-0.08403014
188	0xbd1fe594	-0.039037302
189	0xbdb84e4c	-0.08999309
190	0x3c78fcb0	0.015196964
191	0xbcbf1f50	-0.02333036
192	0xbdca0d60	-0.09865832
193	0x3b493800	0.0030703545
194	0x3d65fdac	0.056150123
195	0x3d878a5e	0.06618188
196	0x3df444ee	0.1192721
197	0xbdac5554	-0.084147125
198	0xbd16b8fc	-0.03679751
199	0x3db1df08	0.08685118
200	0x3dacb656	0.08433215
201	0xba4d9300	-0.0007842034
202	0xbdf74628	-0.12073928
203	0xbd8d04b2	-0.06885661
204	0xbc1e7a00	-0.009672642
205	0xbda728e6	-0.08162098
206	0x3d15feb8	0.03661987
207	0x3d810e58	0.06301564
208	0x3da7bc9e	0.08190273
209	0x3c8c6da8	0.017142132
210	0x3d22bee8	0.039732844
211	0xbcf85158	-0.030312225
212	0x3dd9e9c2	0.10640289
213	0x3de7fea2	0.11327864
214	0x3dbafe38	0.0913052
215	0x3cc2caf0	0.023778409
216	0x3dd23bc6	0.10265307
217	0xbd77c060	-0.060486197
218	0x3dc583ce	0.096442804
219	0x3d6f5af0	0.058436334
220	0x3c2d0cc0	0.010562122
221	0xbd0e09fc	-0.03467749
222	0xbd976530	-0.07392347
223	0xbdd81314	-0.10550514
224	0xbb375640	-0.0027974993
225	0x3ddcd992	0.10783686
226	0xbdafee10	-0.08590329
227	0x3df9a02c	0.121887535
228	0x3dc761ce	0.09735452
229	0x3dd402e6	0.10352115
230	0x3d92bb14	0.071645886
231	0xbb14a280	-0.0022679865
232	0xbbc5f500	-0.006041169
233	0xbdac4e6a	-0.08413394
234	0xbdc37814	-0.095443875
235	0x3dcf2624	0.101146966
236	0xbd990e6e	-0.07473455
237	0xbd80e956	-0.06294505
238	0xbd237b40	-0.039912462
239	0xbda0d85c	-0.07853767
240	0x3d975c1c	0.07390615
241	0xbcd742d8	-0.02627699
242	0x3df4a9c8	0.11946446
243	0x3a568f00	0.0008184761
244	0xbd99640a	-0.07489784
245	0xbd153640	-0.03642869
246	0x3a82be00	0.0009974837
247	0x3dc4da7c	0.09611985
248	0x3d316100	0.043305397
249	0xbd424fc8	-0.047439367
250	0x3dc6532c	0.096838325
251	0x3d9cb988	0.07652575
252	0x3dc28c0c	0.09499368
253	0xbde2a9c8	-0.110675395
254	0x3df7dce4	0.121026784
255	0x3dbf249c	0.093331546

lstm.weight_hh_l0 f4 [256, 64]
0	0x3c8bde30	0.01707372
1	0xb9a51800	-0.00031489134
2	0x3df46bee	0.119346485
3	0x3b9be500	0.0047575235
4	0xbd6ae79c	-0.057349786
5	0xbdce0378	-0.10059255
6	0x3dcbd2ae	0.09952293
7	0xbdb35bc2	-0.08757736
8	0xbded26f2	-0.11579694
9	0x3d36a890	0.044594347
10	0xbde9b9b0	-0.1141237
11	0xbdc377ee	-0.09544359
12	0x3d8440e8	0.064576924
13	0x3dcfa392	0.101386204
14	0xbd2f5698	-0.04280719
15	0x3ddeba6a	0.108753994
16	0xbdd1e47e	-0.102486596
17	0x3dec62da	0.11542292
18	0x3dbc5f94	0.091979176
19	0x3d324b28	0.043528706
20	0x3d836a3e	0.064167485
21	0x3d76f8cc	0.060295865
22	0x3dbc91d0	0.09207499
23	0xbd5f6d60	-0.054547668
24	0xbd75b274	-0.05998464
25	0x3d7741f4	0.060365632
26	0x3c96f518	0.018427417
27	0x3dc861f0	0.09784305
28	0xbd0df64c	-0.034658715
29	0x3d0f70b4	0.03501959
30	0x3de14c08	0.1100083
31	0x3dda4bda	0.10658999
32	0xbd408a9c	-0.04700719
33	0xbdf04220	-0.11731362
34	0x3d26efa4	0.040755883
35	0x3d183460	0.037159324
36	0xbdbf472a	-0.09339745
37	0xbdd97740	-0.10618448
38	0x3da86e8a	0.08224209
39	0x3b2bab00	0.0026194453
40	0xbd436acc	-0.04770927
41	0xbddaa90a	-0.10676773
42	0x3de7cf18	0.11318797
43	0xbdc99e7e	-0.09844683
44	0x3d9f3c4a	0.07775171
45	0xbd2533dc	-0.04033266
46	0x3d830ac6	0.06398539
47	0xbc215570	-0.00984703
48	0x3db66d18	0.08907527
49	0x3beb2d20	0.00717701
50	0x3db93c84	0.090447456
51	0xbc9938c8	-0.018703833
52	0xbd624d94	-0.055249766
53	0x3d8e7a12	0.06956877
54	0x3d002ca0	0.031292558
55	0x3b1eeb40	0.0024249107
56	0x3d8c2d3a	0.06844564
57	0xbd85ab38	-0.06526798
58	0xbd428874	-0.047493413
59	0x3cb84b28	0.022496775
60	0xbcf51c90	-0.029920846
61	0x3dde9c06	0.10869603
62	0x3d78c1b8	0.06073162
63	0xbdf2d284	-0.11856559
64	0xbc759ba0	-0.014990717
65	0xbaa73200	-0.001275599
66	0x3d0d0044	0.03442408
67	0x3d8dc3e8	0.06922132
68	0xbcbf4838	-0.023349866
69	0xbc60d8c0	-0.013723552
70	0x3d5bb540	0.05363965
71	0x3d23b950	0.03997165
72	0xbd533858	-0.051567405
73	0xbd20ecb8	-0.039288253
74	0x3dc0831a	0.09400006
75	0xbceae4b8	-0.028673515
76	0xbca535c0	-0.020167232
77	0x3b25c480	0.0025294125
78	0x3cec5c40	0.028852582
79	0x3da934b0	0.082620025
80	0xbd4ccfe4	-0.050002947
81	0xbccf5840	-0.025310636
82	0xbdea09e0	-0.11427665
83	0x3d3833d0	0.044971287
84	0x3dfab572	0.12241639
85	0x3c097370	0.008389339
86	0xbd2bf7c0	-0.04198432
87	0x3dd0b6d2	0.1019112
88	0xbdcdcdbe	-0.10049008
89	0x3d0d9754	0.034568146
90	0xbd0f43cc	-0.034976766
91	0xbd155f14	-0.036467627
92	0xbd87db86	-0.06633668
93	0x3d94dad6	0.07268302
94	0x3ae70000	0.0017623901
95	0x3dafba6a	0.085804775
96	0x3d4bec08	0.049785644
97	0x3d669aa8	0.056299835
98	0x3d824770	0.06361282
99	0x3c406d60	0.011744827
100	0xbcb8ba90	-0.022549897
101	0x3d99b252	0.07504715
102	0x3d5ac480	0.053410053
103	0xbd9d4baa	-0.076804474
104	0x3dc5af0a	0.09652527
105	0xbcc800d8	-0.024414465
106	0x3d324430	0.04352206
107	0xbdc132ea	-0.09433539
108	0xbda42298	-0.08014411
109	0xbde2581a	-0.1105196
110	0xbb1b4300	-0.0023691058
111	0xbb572b80	-0.0032832325
112	0xbd8253b0	-0.063636184
113	0xbd6b2e04	-0.05741693
114	0x3dea6446	0.11444907
115	0xbd8f34bc	-0.0699248
116	0x3dfa40f2	0.122194186
117	0x3d2a319c	0.041551217
118	0xbdd56898	-0.1042034
119	0x3cd1e048	0.025619641
120	0xbc8a1628	-0.016856268
121	0x3bec0980	0.007203281
122	0xbdda4076	-0.10656826
123	0xbcfcea80	-0.030873537
124	0x3d83347a	0.064064935
125	0x3cf285b0	0.029604763
126	0xbde065ea	-0.109569386
127	0x3cf421f0	0.029801339
128	0x3d93920c	0.072055906
129	0x3bc5c660	0.006035611
130	0xbd469dd8	-0.048490375
131	0xbdb1a7fe	-0.0867462
132	0x3ca40a98	0.020024583
133	0x3d61f098	0.05516109
134	0xbdfd992a	-0.12382729
135	0xbdeecaf8	-0.11659807
136	0xbd1f92cc	-0.038958356
137	0xbd4de4fc	-0.050267205
138	0x3d80d466	0.06290512
139	0x3dcb26ea	0.09919532
140	0x3b68c7c0	0.003551945
141	0x3dc650c4	0.096833736
142	0x3b53e5c0	0.0032332987
143	0xbcb8da58	-0.022565052
144	0xbca6cd68	-0.020361617
145	0x3d9939d8	0.07481736
146	0xbd899c14	-0.06719223
147	0x3ddf381e	0.108993754
148	0xbdc7787a	-0.09739776
149	0xbdf234be	-0.11826466
150	0xbd0d083c	-0.03443168
151	0x3df36748	0.11884934
152	0xbd9981e0	-0.07495475
153	0xbd45affc	-0.048263535
154	0xbdee1efc	-0.116270036
155	0x3d0e0190	0.03466946
156	0x3d205354	0.039141968
157	0xbc308d20	-0.010775834
158	0x3dcecd94	0.10097805
159	0x3d97e3d0	0.07416499
160	0x3da702fe	0.081548676
161	0x3d0a1ae8	0.033717066
162	0x3d101c2c	0.035183117
163	0x3a8be800	0.0010674
164	0x3dc6b24c	0.09701976
165	0xbde2ec32	-0.11080207
166	0xbd95dcf0	-0.07317531
167	0xbd912368	-0.07086831
168	0xbd130c90	-0.035900652
169	0x3d2adf5c	0.04171692
170	0xbd957fce	-0.072997674
171	0xbcf13060	-0.029442012
172	0xbc882ba0	-0.016622365
173	0x3d0e9094	0.03480585
174	0xbd0dc5f4	-0.03461261
175	0x3d1955fc	0.037435517
176	0xbdf9e1f6	-0.12201302
177	0x3dc4f374	0.096167475
178	0x3df5e4c0	0.12006521
179	0x3dbb5ae8	0.09148198
180	0xbdff252e	-0.12458263
181	0xbcea38a0	-0.028591454
182	0xbdb3e83e	-0.08784531
183	0x3d78c1e4	0.060731784
184	0xbde159fe	-0.11003493
185	0x3bc9e0c0	0.0061608255
186	0xbdbe7d46	-0.09301238
187	0x3d6cac14	0.057781294
188	0xbd1314ac	-0.035908386
189	0x3de402ea	0.11133368
190	0xbdf78050	-0.120850205
191	0xbd96e08e	-0.07367049
192	0x3d97df9c	0.07415697
193	0xbd8248b2	-0.06361522
194	0xbd6e7c80	-0.0582242
195	0x3da77128	0.0817588
196	0xbd738500	-0.05945301
197	0x3dd91208	0.10599142
198	0x3d44d9fc	0.04805945
199	0x3d9cdb5c	0.07659027
200	0x3daa6e66	0.08321838
201	0xbc730600	-0.0148329735
202	0x3d3aca14	0.045602873
203	0xbb2d7340	-0.00264664
204	0xbdbc6f0c	-0.09200868
205	0x3d1979f8	0.037469834
206	0xbdeb3d0a	-0.11486252
207	0x3dbf44c0	0.09339285
208	0x3d25248c	0.040318057
209	0x3da85248	0.08218819
210	0x3d7919a8	0.060815483
211	0x3ba25d00	0.004954934
212	0x3d9d1fbe	0.0767207
213	0xbd9efaf6	-0.07762711
214	0xbcc385f8	-0.023867592
215	0xbd8e3cfe	-0.06945227
216	0xbd0eef50	-0.034896195
217	0x3b39de40	0.002836123
218	0x3aab0800	0.0013048649
219	0x3dd2aaf2	0.102865115
220	0xbc88d9b8	-0.016705379
221	0xbdb1ddea	-0.08684905
222	0xbdc26788	-0.09492403
223	0xbdc4d352	-0.09610619
224	0xbd8f43a4	-0.06995323
225	0xbd38622c	-0.0450155
226	0xbd0fa03c	-0.03506492
227	0x3db2f37c	0.08737847
228	0x3d1e8824	0.038704053
229	0x3d023acc	0.031794354
230	0xbd66943c	-0.05629371
231	0xbd8e7ec4	-0.069577724
232	0x3b892e20	0.0041864067
233	0xbdef0174	-0.11670199
234	0x3d0d5f30	0.034514606
235	0x3d938b88	0.07204348
236	0xbd94f254	-0.07272783
237	0x3dffab92	0.12483896
238	0x3cb4b938	0.022060975
239	0xbc210230	-0.009827182
240	0xbdeaa2bc	-0.1145682
241	0x3de9294e	0.11384831
242	0x3df8f326	0.12155752
243	0x3dd17aee	0.10228525
244	0x3dcdbcb4	0.10045758
245	0x3d8504ac	0.06495032
246	0xbd93d07e	-0.07217501
247	0xbcf52370	-0.029924124
248	0x3da70cb0	0.08156717
249	0xbd131924	-0.035912648
250	0x3cfac2a0	0.030610383
251	0xbcdc90c8	-0.026924506
252	0x3da8e266	0.08246307
253	0x3df0c202	0.11755754
254	0xbcf1e4b8	-0.029528007
255	0xbd02b790	-0.03191334

lstm.bias_ih_l0 f4 [256]
0	0x3d3178ac	0.043327972
1	0xbd8b9d24	-0.068170816
2	0x3c503b20	0.012709409
3	0x3d9cadf0	0.076503634
4	0xbdf2fe9c	-0.11864969
5	0x3de74fda	0.11294527
6	0x3d03b498	0.03215465
7	0x3d7ebd38	0.06219217
8	0x3d11bb24	0.03557886
9	0xbd8c7d2a	-0.06859811
10	0x3d8fb8ae	0.07017647
11	0xbd899606	-0.06718068
12	0xbd5c2244	-0.053743616
13	0xbd780438	-0.0605509
14	0x3ce83b30	0.028348535
15	0xbdc768e8	-0.09736806
16	0x3d752ef4	0.05985923
17	0xbd16ad88	-0.036786586
18	0x3dc7cf2e	0.09756313
19	0x3d19c464	0.03754081
20	0x3de2ac78	0.11068052
21	0xbcd69550	-0.026194245
22	0xbdfad9b0	-0.12248552
23	0x3de1bb7c	0.11022088
24	0xbbdd39e0	-0.006751284
25	0xbcf69280	-0.030099154
26	0x3d907dca	0.07055242
27	0x3dc7b208	0.09750754
28	0xbd15c89c	-0.03656827
29	0xbdcb2a5a	-0.09920187
30	0xbcaec090	-0.021332055
31	0xbdc6ae20	-0.097011805
32	0xbd23bc00	-0.039974213
33	0xbb423100	-0.0029631257
34	0x3decc526	0.115610406
35	0x3d50adcc	0.050946996
36	0xbcbc0728	-0.022952631
37	0xbdb03310	-0.086034894
38	0x3d3dca18	0.04633531
39	0x3d0743d4	0.03302367
40	0xbd5ff3f8	-0.054676026
41	0xbdc76c6c	-0.09737477
42	0x3d0a3ec4	0.033751264
43	0xbdea1ba0	-0.1143105
44	0xbc869d70	-0.016432494
45	0x3dcb6c98	0.09932822
46	0xbd31aea0	-0.043379426
47	0x3d8f0cb2	0.06984843
48	0x3db5756e	0.088602886
49	0xbceddc08	-0.029035583
50	0x3d6b4b04	0.057444587
51	0x3d4f0644	0.050543085
52	0x3c94a4a0	0.018144906
53	0x3d57606c	0.05258219
54	0xbd6d1fbc	-0.057891592
55	0xbc552800	-0.013010025
56	0x3deb6b6a	0.11495097
57	0xbdd1a71c	-0.10236952
58	0x3d4d9fd0	0.050201237
59	0xbdb2705c	-0.08712837
60	0xbd985bce	-0.07439385
61	0xbdbb0682	-0.09132101
62	0x3cdb5608	0.026774421
63	0x3d259834	0.040428355
64	0xbddaf43a	-0.10691114
65	0x3dea2096	0.114319965
66	0x3de45cb2	0.11150493
67	0xbdb8e4c0	-0.090280056
68	0xbd390f04	-0.045180336
69	0x3d9b7542	0.075907245
70	0x3d8b1ab8	0.067922056
71	0x3dc03d74	0.09386721
72	0xbdb0834e	-0.086187944
73	0xbb9a0fc0	-0.0047015846
74	0xbdee2c94	-0.11629596
75	0xbdb57708	-0.08860594
76	0x3dc1dfd4	0.0946652
77	0xbdeb1320	-0.11478257
78	0xbd1ea8d8	-0.03873524
79	0x3dd36298	0.1032154
80	0x3cc92130	0.024551958
81	0xbcf34de0	-0.02970022
82	0x3d870332	0.06592406
83	0xbd715460	-0.058918357
84	0x3d39f670	0.045401037
85	0x3db2020c	0.08691797
86	0xbcb1edb8	-0.021719798
87	0x3cf6cac0	0.030125976
88	0x3d88c524	0.066782266
89	0x3d80b398	0.06284255
90	0x3d275580	0.040853024
91	0xbc56ac70	-0.013102636
92	0xbd87b418	-0.06626147
93	0x3d3d1a84	0.046167865
94	0xbde62ec2	-0.11239387
95	0x3d449018	0.04798898
96	0xbd82b58e	-0.06382285
97	0xbd401d8c	-0.046903178
98	0xbd3f8a44	-0.04676272
99	0x3dddd642	0.10831882
100	0xbd469240	-0.04847932
101	0xbd9df40c	-0.07712564
102	0x3df0c3cc	0.11756095
103	0x3da66f0e	0.08126651
104	0x3bd57840	0.006514579
105	0x3b905de0	0.004405722
106	0x3cf659e0	0.030072153
107	0x3d340fbc	0.043960318
108	0xbdd27390	-0.10275948
109	0xbcee02a0	-0.029053986
110	0xbcbb56c8	-0.022868529
111	0x3d227d68	0.039670378
112	0x3cd15858	0.02555482
113	0xbcccfd10	-0.025023013
114	0xbcb972b0	-0.022637695
115	0xbd7d35a8	-0.06181875
116	0xbde76526	-0.112985894
117	0x3dc4acd0	0.09603274
118	0x3d960eb0	0.0732702
119	0x3ddcd232	0.10782279
120	0x3d6647dc	0.056220874
121	0xbd0572f4	-0.03258033
122	0x3d481b74	0.048854306
123	0x3d835286	0.064122245
124	0xbd76a95c	-0.060220107
125	0x3d0987c8	0.033576757
126	0x3d1e92dc	0.038714275
127	0xbd88a9a6	-0.06672983
128	0x3dc30e78	0.09524244
129	0x3d826f7e	0.06368922
130	0xbd3c93e4	-0.046039477
131	0x3d931e86	0.07183556
132	0xbc2dd170	-0.010609016
133	0x3d198f14	0.037489966
134	0x39c90c00	0.00038346648
135	0x3d171e80	0.03689432
136	0xbc78c410	-0.015183464
137	0xbd7998fc	-0.060936913
138	0x3dc6d664	0.097088605
139	0xbdd7d568	-0.10538751
140	0x3cad8208	0.021180168
141	0x3cce41e8	0.02517791
142	0x3d83c8d6	0.06434791
143	0xbc746b60	-0.014918178
144	0xbdd0d5a6	-0.10197
145	0x3b0edfc0	0.0021800846
146	0x3ded194a	0.11577089
147	0xbd262040	-0.0405581
148	0xbc4d3d20	-0.01252678
149	0xbdbb6036	-0.0914921
150	0xbdac8bf8	-0.084251344
151	0x3c7c8660	0.015412897
152	0xbdcd4af6	-0.10024063
153	0x3db88042	0.09008838
154	0x3d8659b8	0.06560081
155	0x3c392980	0.011301398
156	0xbde5917e	-0.11209391
157	0xbdbd9b4c	-0.09258136
158	0x3c8195a0	0.015818417
159	0x3ac0d100	0.0014710724
160	0x3def9f70	0.11700332
161	0x3d5248a0	0.05133879
162	0x3da9b9a4	0.08287361
163	0x3d47f054	0.04881318
164	0x3dcc377a	0.09971519
165	0xbdb681f2	-0.08911504
166	0xbcd21f80	-0.025649786
167	0xbd619668	-0.05507508
168	0x3cab1440	0.02088368
169	0xbd2020dc	-0.039093837
170	0xbd91157a	-0.070841745
171	0xbb456540	-0.0030120164
172	0xbdea9782	-0.11454679
173	0xbddb8300	-0.10718346
174	0x3d7262c4	0.05917622
175	0xbc041540	-0.008061707
176	0xbdb995c2	-0.09061767
177	0x3d7a190c	0.061059043
178	0x3bc07c00	0.005874157
179	0xbc234c90	-0.009966984
180	0xbdcbc1c0	-0.09949064
181	0x3d04a28c	0.03238158
182	0x3d775600	0.06038475
183	0x3c8c8b20	0.017156184
184	0xbdeaebf8	-0.11470789
185	0xbc643710	-0.013929144
186	0xbdfe5332	-0.12418212
187	0x3ddf841e	0.10913871
188	0x3c9fbaf0	0.019498318
189	0x3ad80180	0.0016479939
190	0x3ab35800	0.0013682842
191	0xbd759f00	-0.059966087
192	0x3cb11ad8	0.021619245
193	0xbd3ae040	-0.045624018
194	0x3d7b3838	0.06133291
195	0x3de07860	0.1096046
196	0x3d347194	0.04405363
197	0xbd9f5542	-0.077799335
198	0x3d834c54	0.06411043
199	0x3da4cd7e	0.08047007
200	0xbc90c060	-0.017669857
201	0x3d8bf74a	0.06834276
202	0x3df927ae	0.121657714
203	0x3da6861e	0.081310496
204	0xbcd72dc8	-0.026266947
205	0x3da0f60c	0.0785943
206	0xbcefc348	-0.029267922
207	0xbdd242c8	-0.10266644
208	0xbc967938	-0.018368348
209	0x3c601350	0.013676479
210	0x3d1009cc	0.035165593
211	0xbdbd266e	-0.092358455
212	0xbd8f10c8	-0.06985623
213	0xbdb13bb4	-0.086539656
214	0x3d9b0cf2	0.075708285
215	0x3dd55470	0.10416496
216	0x3aacf800	0.0013196468
217	0xbd8ce9ae	-0.06880508
218	0xbd68e79c	-0.056861505
219	0xbcf6f218	-0.030144736
220	0x3db05cfa	0.08611484
221	0x3dcb3714	0.09922615
222	0xbc022cd0	-0.007945254
223	0xbc080180	-0.008301139
224	0x3d4a5748	0.049399644
225	0x3c8d4120	0.017242968
226	0x3d8da81c	0.0691683
227	0x3df5bfba	0.119994596
228	0xbc7b5b00	-0.01534152
229	0x3bd979c0	0.006636828
230	0xbd239800	-0.03993988
231	0x3dadae32	0.08480491
232	0x3dbfe73a	0.09370275
233	0x3dcb9b88	0.099417746
234	0x3db3304c	0.08749446
235	0xbaf22080	-0.001847282
236	0x3d6dfe30	0.05810374
237	0x3d9230e6	0.07138233
238	0x3dc5c5a6	0.09656839
239	0x3cc5bb58	0.024137184
240	0xbbcfdf00	-0.0063437223
241	0x3d80e654	0.062939316
242	0x3d2bec24	0.041973248
243	0xbc7bb1f0	-0.015362248
244	0x3d00703c	0.031357035
245	0x3ce5b698	0.028041169
246	0x3d5ebb90	0.054378092
247	0xbc3ab280	-0.011395097
248	0x3c6edf30	0.014579579
249	0x3d4da27c	0.050203785
250	0xbc9e4910	-0.019321948
251	0x3c6b79b0	0.014372274
252	0x3df7cb26	0.12099294
253	0x3dcb7854	0.0993506
254	0xbceb4fd8	-0.028724596
255	0xbca49c00	-0.020093918

lstm.bias_hh_l0 f4 [256]
0	0xbdfd1c12	-0.123588696
1	0xbc2c4f90	-0.010517016
2	0xbce77600	-0.028254509
3	0xbde6e6d6	-0.11274497
4	0xbcbe5f78	-0.023238882
5	0xbdd98e38	-0.10622829
6	0xbcba2528	-0.022722796
7	0x3da7e8d2	0.08198704
8	0xbde5429e	-0.11194347
9	0xbc630a70	-0.013857469
10	0x3db95418	0.09049243
11	0x3ddbf472	0.107399836
12	0xbda29f44	-0.07940534
13	0xbd3e8740	-0.046515703
14	0xbd9f10dc	-0.077668875
15	0x3ba50620	0.0050361305
16	0x3da44cc8	0.08022457
17	0xbcd83688	-0.02639319
18	0x3c12a730	0.008950993
19	0x3ca68d30	0.020330995
20	0xbc1c19d0	-0.009527639
21	0x3c553360	0.013012737
22	0xbdc7402e	-0.09729038
23	0x3df1e8b6	0.11811964
24	0x3bf907c0	0.007599801
25	0xbd88d0f2	-0.06680478
26	0xbd919608	-0.07108694
27	0x3da5dd34	0.08098832
28	0xbdbfd9ca	-0.09367712
29	0xbda46560	-0.08027148
30	0xbd6123ac	-0.05496566
31	0xbd080fe8	-0.033218294
32	0x3dad61ac	0.08465895
33	0xbc145860	-0.009054273
34	0xbd1e0b0c	-0.038584754
35	0xbda27e6c	-0.07934269
36	0x3cf64920	0.030064166
37	0x3df95c28	0.121757805
38	0xbdac1ce8	-0.08403951
39	0xbd3f0a3c	-0.04664062
40	0xbced05f8	-0.02893351
41	0x3dbf2408	0.09333044
42	0xbcfee7d8	-0.031116411
43	0xbcac29e8	-0.021016076
44	0x3cabb260	0.02095908
45	0xbc3e0f50	-0.0116003305
46	0x3ded08ba	0.1157393
47	0xbcc56f60	-0.02410096
48	0x3da776c0	0.08176947
49	0x3d45e3c4	0.048312917
50	0x3d93a992	0.07210077
51	0xbdc5a56e	-0.09650694
52	0xbd3f3020	-0.046676755
53	0x3cc15ac8	0.023602858
54	0x3dbc6d64	0.09200552
55	0x3ddcf470	0.1078881
56	0xbdb20e4e	-0.08694135
57	0xbde6a164	-0.112612516
58	0xbcb21f68	-0.021743491
59	0xbda32fec	-0.07968125
60	0xbdeba832	-0.1150669
61	0x3dbdbdfe	0.09264754
62	0xbcd2db20	-0.025739253
63	0xbd90d2ec	-0.0707148
64	0x3d8842f6	0.06653397
65	0xbdaebaf8	-0.08531755
66	0x3ded8806	0.1159821
67	0xbd453740	-0.048148394
68	0xbda5b3e4	-0.08090952
69	0xbd2ae594	-0.04172285
70	0x3c260d10	0.01013495
71	0xbcf120c8	-0.029434577
72	0x3c8a97a0	0.016918004
73	0x3d104440	0.03522134
74	0x3dfcd670	0.12345588
75	0xbdb0c644	-0.08631566
76	0xbdfe0768	-0.124037564
77	0x3c69ddf0	0.014274105
78	0x3dc138ae	0.09434639
79	0x3ddb29ec	0.10701355
80	0x3de209c2	0.110370174
81	0x3c70cea0	0.014697701
82	0xbd9d5256	-0.0768172
83	0xbde0451e	-0.10950683
84	0xbd493714	-0.049124792
85	0x3d969488	0.07352549
86	0x3d4f0770	0.050544202
87	0xbc3dd9f0	-0.011587605
88	0x3d3dc9f4	0.046335176
89	0x3d8fd51e	0.07023071
90	0x3b8c6380	0.0042843223
91	0x3d9825b0	0.07429063
92	0x3dd279c0	0.10277128
93	0xbce341c8	-0.027741328
94	0xbd818c0c	-0.0632554
95	0xbdb26c92	-0.087121144
96	0x3d8e98a4	0.06962708
97	0xbd3e0ef4	-0.04640098
98	0xbdac9a14	-0.084278256
99	0xbd7d8f70	-0.06190437
100	0xbc577fd0	-0.0131530315
101	0x3ce1ea70	0.027577609
102	0x3db34cf8	0.08754915
103	0x3db40230	0.0878948
104	0x3df97608	0.12180716
105	0xbd11c1ac	-0.03558509
106	0x3d6d69f0	0.057962358
107	0xbd5abd44	-0.053403154
108	0xbd224af0	-0.039622247
109	0x3c904478	0.017610773
110	0x3d697588	0.056996852
111	0xbd631514	-0.055440024
112	0xbc6f31d0	-0.014599279
113	0xbdbe6a56	-0.09297626
114	0xbdb35b4a	-0.087576464
115	0xbdff9fce	-0.12481652
116	0xbdf15218	-0.11783236
117	0x3d5539a4	0.052056924
118	0x3df0f6b0	0.11765802
119	0x3aa5f000	0.0012660027
120	0xbdec19f6	-0.11528389
121	0xbbb27200	-0.0054457188
122	0x3cb545f0	0.022128075
123	0xbd3544e8	-0.044255167
124	0x3d88844c	0.066658586
125	0xbd04bb08	-0.03240493
126	0x3d63523c	0.055498347
127	0x3d51e8a0	0.05124724
128	0x3d78c460	0.060734153
129	0x3dc49476	0.09598629
130	0xbd7d8c34	-0.061901286
131	0xbdcae374	-0.099066645
132	0xbce77a40	-0.028256536
133	0xbce12da8	-0.02748759
134	0xbd13e25c	-0.036104545
135	0x3c3fb3c0	0.011700571
136	0x3d9b61a8	0.07586986
137	0x3dbf82ac	0.093510956
138	0x3df34b48	0.11879593
139	0xbdc7c1e4	-0.097537786
140	0xbcbbb278	-0.022912249
141	0x3d983cee	0.074334964
142	0x3dc1893a	0.09450002
143	0xbd1e431c	-0.03863822
144	0xbd792870	-0.06082958
145	0x3cbd6c30	0.023122877
146	0x3dcd19ca	0.100146845
147	0x3d49ee68	0.049299628
148	0xbbf570a0	-0.0074902326
149	0x3d164ae4	0.036692515
150	0x3d66a5f8	0.056310624
151	0x3db66dd2	0.08907665
152	0xbda3bfda	-0.07995577
153	0x3d8a8fc6	0.06765704
154	0x3a2b0a00	0.00065246224
155	0xbcc1ed78	-0.023672804
156	0xbd93042a	-0.071785286
157	0xbdb2322e	-0.08700977
158	0x3d9e3388	0.077246726
159	0xbda4c200	-0.08044815
160	0xbd9ae492	-0.075631276
161	0xbda81f92	-0.082091466
162	0x3cf3ca50	0.029759556
163	0xbde8bb46	-0.113638446
164	0xbc0a6730	-0.008447453
165	0x3df00978	0.11720556
166	0xbd67de94	-0.05660875
167	0xbdd031f8	-0.10165781
168	0xbdcd271e	-0.10017227
169	0x3d2b0e24	0.041761532
170	0x3c1d0300	0.009583235
171	0xbda5f676	-0.08103649
172	0x3d2786ac	0.040899917
173	0x3db8c6f6	0.09022324
174	0xbd382f9c	-0.04496728
175	0xbd1ac72c	-0.0377876
176	0x3dceadb0	0.10091722
177	0x3c92b298	0.017907426
178	0x3dff86de	0.12476896
179	0xbd5e5be4	-0.054286852
180	0x3ddb7aa6	0.10716753
181	0xbc897b60	-0.016782463
182	0xbc6ed880	-0.014577985
183	0xbdfa690a	-0.12227066
184	0xbdb9fd60	-0.090815306
185	0x3c02f0f0	0.007992014
186	0xbd7a2d34	-0.061078265
187	0xbd4f9fa8	-0.05068937
188	0xbd3d9db0	-0.04629296
189	0x3cc2af10	0.023765117
190	0x3ddeb90c	0.10875139
191	0xbc8db4d0	-0.017298132
192	0xbbf01fc0	-0.0073280036
193	0xbdf9877e	-0.12184046
194	0xbc853ba8	-0.016263798
195	0xbdddd96e	-0.10832487
196	0x3dd5af28	0.10433799
197	0xbc485bb0	-0.012228891
198	0xbde90edc	-0.11379787
199	0xbca62de0	-0.020285547
200	0xbdb3ae5a	-0.08773489
201	0xbd8b51a8	-0.06802684
202	0xbd032420	-0.032016873
203	0xba0bed00	-0.0005337745
204	0xbd5dd84c	-0.054161355
205	0xbc0bc100	-0.0085299015
206	0xbde1e09c	-0.11029169
207	0x3ddc4324	0.107549936
208	0x3db918ea	0.09037955
209	0x3cbd3a40	0.023099065
210	0x3d7e85e0	0.062139392
211	0x3ca31538	0.019907579
212	0x3d6f6dc0	0.058454275
213	0xbb297140	-0.0025854856
214	0x3da47e8a	0.08031948
215	0x3d433324	0.047656193
216	0xbddcc6fe	-0.10780142
217	0xbdafd750	-0.085859895
218	0x3ddddda4	0.1083329
219	0xbdd81054	-0.10549989
220	0xbc6bd2d0	-0.014393523
221	0x3cc52bb8	0.024068698
222	0xbc3ea080	-0.011634946
223	0xbd94ff46	-0.07275252
224	0xbd57edcc	-0.052717015
225	0xbd36b754	-0.04460843
226	0xbba6a9a0	-0.005086139
227	0xbce5b148	-0.028038636
228	0x3de3ea26	0.11128645
229	0x3d584f90	0.05281025
230	0x3d35c188	0.04437402
231	0x3d2a7c8c	0.041622683
232	0x3df8a9c2	0.12141754
233	0xbd4418c4	-0.04787518
234	0x3d98b5e4	0.07456568
235	0xbc496600	-0.012292385
236	0xbda90812	-0.082534924
237	0x3dd249ba	0.102679685
238	0xbd1e49f4	-0.038644746
239	0xbda0593e	-0.078295216
240	0xbdc0860c	-0.094005674
241	0xbcd50dd0	-0.026007563
242	0x3d2271d8	0.03965935
243	0xbdaa7e1e	-0.08324836
244	0x3dec3652	0.11533798
245	0xbc6024f0	-0.013680682
246	0xbdd09780	-0.10185146
247	0x3c986810	0.018604308
248	0xbd5efe18	-0.05444154
249	0x3dbd18b8	0.0923323
250	0x3d86d6f0	0.06583965
251	0x3d597264	0.053087607
252	0xbd578b60	-0.052623153
253	0xbdaa2830	-0.083084464
254	0x3df0e8d6	0.1176316
255	0x3d2a2890	0.04154259

lstm.weight_ih_l1 f4 [256, 64]
0	0x3d7e973c	0.062155947
1	0xbd0c3ec4	-0.034239545
2	0x3d680164	0.05664195
3	0xbcbfbb38	-0.023404703
4	0xbd9f20eb	-0.077699505
5	0xbcb5dbd8	-0.022199556
6	0xbdc88464	-0.097908765
7	0xbcf01b48	-0.029309884
8	0xbdcd5d54	-0.100275666
9	0xbd1ba6d0	-0.03800088
10	0xbd92a9f0	-0.07161319
11	0xbdaafc76	-0.08348934
12	0xbcb8ded8	-0.022567198
13	0x3de235f8	0.1104545
14	0xbd51546c	-0.0511059
15	0x3d29710c	0.041367576
16	0xbdf6564c	-0.120281786
17	0x3d93f1ba	0.0722384
18	0x3e019721	0.12655307
19	0x3d9febf1	0.07808674
20	0xbc362af0	-0.011118636
21	0xbd7d6c87	-0.061871078
22	0xbd7012d0	-0.05861169
23	0x3c445490	0.011983052
24	0xbdacaab2	-0.08430995
25	0xbd918fbc	-0.07107493
26	0x3dbcb72e	0.09214626
27	0xbd2f1c90	-0.04275185
28	0x3a809cfb	0.0009812409
29	0x3dccc260	0.099980116
30	0x3ddbf550	0.10740149
31	0xbd00f6bc	-0.031485304
32	0xbdf5bf86	-0.11999421
33	0xbcce5a38	-0.025189504
34	0x3dbf2042	0.093323246
35	0x3daad2f1	0.08341015
36	0x3c6e9fa0	0.014564425
37	0xbbbd9c80	-0.0057864785
38	0x3de478ea	0.11155875
39	0x3dadef58	0.08492917
40	0xbde91c1a	-0.11382313
41	0x3d9a7e60	0.07543635
42	0xbd14b368	-0.036303908
43	0xbd351dd3	-0.044217896
44	0xbd63e288	-0.05563596
45	0x3d5d1066	0.053970717
46	0x3c8529b8	0.016255245
47	0x3df63bc6	0.1202312
48	0xbce35948	-0.027752534
49	0x3dbf3e18	0.09338015
50	0x3be36f00	0.0069407225
51	0xbdc1319a	-0.09433289
52	0x3dceab6c	0.1009129
53	0x3b5f6380	0.0034086406
54	0xbde0acea	-0.10970481
55	0x3e035a42	0.128274
56	0x3d4482b8	0.047976226
57	0xbdd925dc	-0.10602924
58	0x3d9f6860	0.0778358
59	0x3d3cf724	0.04613413
60	0x3dbd1d9e	0.09234165
61	0x3d85a60f	0.06525814
62	0x3df90ae6	0.12160282
63	0x3d899c32	0.06719245
64	0xbd4fa9b4	-0.05069895
65	0xbdf223c0	-0.11823225
66	0x3de5fb0c	0.11229524
67	0xbe090a4c	-0.13382834
68	0x3ccd81cc	0.025086306
69	0x3bb79160	0.005602047
70	0x3df7ce5c	0.12099907
71	0x3d8667ac	0.065627426
72	0x3a9ac688	0.0011808435
73	0xbc99cf58	-0.018775627
74	0x3d9267c2	0.071486965
75	0x3d80869a	0.06275673
76	0x3cdbf368	0.026849464
77	0x3d53ec14	0.051738814
78	0x3c2bd850	0.010488585
79	0xbdaab5f6	-0.083354875
80	0xbc9b5700	-0.018962383
81	0x3ce0d86d	0.02744695
82	0x3e02e423	0.1278234
83	0xbd5592e6	-0.052142046
84	0xbdba1dbc	-0.09087703
85	0x3dc53fdc	0.09631321
86	0x3d07752c	0.03307073
87	0x3d0bf70c	0.03417115
88	0x3cb756b8	0.022380218
89	0xbde15f03	-0.1100445
90	0xbdb0dfb7	-0.0863642
91	0x3dc8c052	0.09802307
92	0x3dbf25af	0.093333595
93	0xbde47bb4	-0.11156407
94	0x3d52202c	0.051300213
95	0x3dd52cae	0.104089126
96	0xbdf39608	-0.118938506
97	0x3dc4263e	0.095776066
98	0xbd168b9c	-0.036754236
99	0x3c1f0518	0.009705804
100	0x3dd9d8ee	0.10637079
101	0x3d9c1596	0.07621305
102	0xbdfe09bc	-0.124042004
103	0x3ce1bf38	0.027557
104	0xbdd1beba	-0.10241456
105	0x3bfcd040	0.007715255
106	0x3d3b5cd8	0.04574284
107	0xbd41aee9	-0.047285948
108	0x3d6623a8	0.05618635
109	0xbe03829c	-0.12842792
110	0xbcacfd80	-0.021116972
111	0x3ce43960	0.02785939
112	0xbc10d800	-0.008840561
113	0xbdc0533a	-0.09390874
114	0xbd1d12ac	-0.038347885
115	0x3c6868e0	0.01418516
116	0x3dd0b4a2	0.10190703
117	0xbcbdb9c0	-0.023159862
118	0x3ddbf33a	0.10739751
119	0x3d86eeb4	0.06588498
120	0xbdac336f	-0.08408248
121	0xbde2bcee	-0.11071192
122	0xbd91f67c	-0.07127091
123	0xbdfeae62	-0.12435605
124	0xbd9ff2b4	-0.07809964
125	0x3e0787a7	0.13235341
126	0xbdccc76a	-0.09998973
127	0x3d040338	0.032229632
128	0x3c417ae0	0.011809081
129	0x3df03fae	0.11730896
130	0x3dd58cd2	0.1042725
131	0xbc674a50	-0.014116839
132	0xbca3d126	-0.01999719
133	0xbdaa3dcc	-0.08312568
134	0xbdd7971c	-0.10526869
135	0x3c97ec18	0.018545195
136	0x3db20b3d	0.0869355
137	0x3d9a2064	0.07525709
138	0xbc14e350	-0.009087399
139	0xbd3cefcc	-0.046127126
140	0x3d22fb0c	0.0397902
141	0x3d380e28	0.044935375
142	0xbc47e000	-0.012199402
143	0xbdc19de8	-0.09453946
144	0xbd9fd69e	-0.07804607
145	0xbd354035	-0.044250686
146	0xbd0e2f15	-0.03471287
147	0x3d89adc4	0.06722596
148	0x3cee9240	0.029122472
149	0x3d9a6ac0	0.07539892
150	0xbd80ba98	-0.0628559
151	0xbc247a30	-0.010038897
152	0xbd6f01bc	-0.058351263
153	0x3ce7f7f8	0.028316483
154	0x3da0a7b5	0.078444876
155	0x3b9623a0	0.0045818835
156	0xbd39619f	-0.045259114
157	0xbcdccd58	-0.026953384
158	0xbdabca9c	-0.08388254
159	0xbd80c722	-0.062879816
160	0xbcbe5698	-0.02323465
161	0x3dc6caa4	0.097066194
162	0x3ba44d60	0.0050141066
163	0x3d77c920	0.060494542
164	0xbd9d6d82	-0.076869026
165	0xbbabeb20	-0.005246535
166	0x3c96b070	0.018394679
167	0xbdff766c	-0.12473759
168	0xbdc4a076	-0.09600918
169	0x3d9d961e	0.07694648
170	0xbde86d90	-0.113490224
171	0xbaa325e9	-0.0012447211
172	0xbc9d61f0	-0.01921174
173	0x3d8620ad	0.06549201
174	0xbd14c2dc	-0.036318645
175	0x3cabb600	0.020960808
176	0xbd74f2e8	-0.059801966
177	0x3d819334	0.06326905
178	0x3df06094	0.11737171
179	0xbddc224c	-0.10748729
180	0x3cb98c08	0.02264978
181	0x3dbcfcac	0.09227881
182	0xbdc7d538	-0.09757465
183	0x3d69c343	0.05707098
184	0x3d85b3ad	0.06528411
185	0x3d99eae2	0.075155035
186	0x3d63d460	0.05562246
187	0x3d60872c	0.05481641
188	0x3dbdf76a	0.09275706
189	0xbc9e91a3	-0.019356554
190	0xbdd4d2f6	-0.103918
191	0x3c933d10	0.017973453
192	0x3d23e4f0	0.040013254
193	0x3d408ed0	0.047011197
194	0xbdeffc64	-0.117180616
195	0xbd29ef45	-0.04148795
196	0xbde9927c	-0.11404893
197	0xbdbb8068	-0.09155351
198	0xbd72ef00	-0.05930996
199	0xbc3b4d60	-0.011432022
200	0x3c6d63ab	0.014489095
201	0xbdd737c0	-0.1050868
202	0x3c8538f8	0.016262516
203	0x3c9c3370	0.019067496
204	0xbd2d29ec	-0.042276308
205	0xbc0d34e0	-0.008618563
206	0xbd194704	-0.03742124
207	0xbc1340e0	-0.008987635
208	0xbdcb22e2	-0.09918763
209	0xbd423c7c	-0.047420964
210	0x3d9128d0	0.070878625
211	0x3da489b3	0.080340765
212	0xbdd11670	-0.10209358
213	0xbc4dc08f	-0.012558117
214	0xbd8ea2b6	-0.069646284
215	0xbd422328	-0.04739681
216	0xbc2d7c20	-0.010588676
217	0x3cbb4cd7	0.022863789
218	0x3e14a517	0.14516102
219	0xbd0703fc	-0.032962784
220	0xbd7a5c7d	-0.06112336
221	0x3d9430c8	0.07235867
222	0xbd67870c	-0.056525275
223	0xbd9843ae	-0.07434784
224	0x3dee4b2a	0.1163543
225	0xbd7fe90c	-0.06247811
226	0x3dc3196a	0.09526332
227	0x3e0783ce	0.13233873
228	0x3c191d20	0.009345323
229	0xbdefa62e	-0.11701618
230	0xbc4ca150	-0.012489632
231	0x3d552f94	0.052047327
232	0x3dc29a1a	0.09502049
233	0x3d82d252	0.06387772
234	0x3dc1938e	0.09451972
235	0xbdb2dd4b	-0.087336145
236	0x3de76544	0.11298612
237	0xbca2ac58	-0.01985757
238	0x3d9a69da	0.07539721
239	0x3ce6f898	0.02819471
240	0x3d816f6e	0.06320082
241	0xbde0cb86	-0.10976319
242	0x3d91b8c6	0.07115321
243	0x3d32d60c	0.043661162
244	0x3dbb0fea	0.09133895
245	0x3dc2d7f8	0.09513849
246	0xbdefb5d0	-0.117046
247	0xbd2f94ad	-0.042866398
248	0xbc91e8cc	-0.017811202
249	0xbb1e6c40	-0.0024173409
250	0x3c1b4c50	0.009478644
251	0xbc780fd0	-0.015140489
252	0x3dbc3d2e	0.091913566
253	0x3e0cbd85	0.13744171
254	0x3cf4f060	0.029899776
255	0x3d33651c	0.043797597

lstm.weight_hh_l1 f4 [256, 64]
0	0xbd84b757	-0.06480282
1	0xbb27b466	-0.0025589704
2	0xbdcd06d9	-0.10011072
3	0xbe0d58c5	-0.13803394
4	0x3dbc7406	0.09201817
5	0xbd6f6a9b	-0.058451276
6	0xbd4553ad	-0.048175503
7	0xbda328dd	-0.079667784
8	0x3d3f84fe	0.04675769
9	0xbe12a869	-0.14322056
10	0x3c14f408	0.009091385
11	0xbc273076	-0.010204425
12	0xbdbfe3ec	-0.093696445
13	0x3dde5beb	0.10857376
14	0x3dbc6984	0.09199813
15	0xbe03d6bc	-0.12874883
16	0xbd884360	-0.06653476
17	0xbd3aa70e	-0.045569472
18	0xbdcd0ab0	-0.10011804
19	0xbc140fc3	-0.009036961
20	0x3d6d9ba9	0.058009777
21	0x3dca0d6b	0.098658405
22	0xbcd79260	-0.026314914
23	0xbda4b508	-0.080423415
24	0xbd42f3e5	-0.047595877
25	0x3dda0361	0.10645176
26	0x3d828efb	0.063749276
27	0xbaea2032	-0.0017862378
28	0x3de896f1	0.11356915
29	0x3d5f8e29	0.054578934
30	0xbda3d9ee	-0.08000551
31	0x3c181e95	0.009284635
32	0x3d7de586	0.06198647
33	0xbd2a78b4	-0.041619018
34	0xbce9ca6b	-0.028538903
35	0x3d82525c	0.06363365
36	0xbd4bd2c0	-0.049761534
37	0xbd9fc0a7	-0.078004174
38	0xbcd09304	-0.025460728
39	0xbdda8420	-0.10669732
40	0xbd382e5b	-0.044966083
41	0x3c974620	0.018466055
42	0xbe0d6663	-0.13808589
43	0x3dad3797	0.084578685
44	0xbd790a69	-0.060800944
45	0x3c048f99	0.008090877
46	0x3e09a439	0.13441552
47	0x3de7999f	0.11308598
48	0xbdad5e43	-0.084652446
49	0xbc785243	-0.0151563315
50	0xbdcbff92	-0.099608555
51	0x3c702474	0.014657129
52	0xbd60b2d5	-0.054858048
53	0x3da3ca78	0.07997602
54	0xbd91a7fe	-0.0711212
55	0xbdc3b1eb	-0.095554195
56	0x3da5854c	0.08082065
57	0xbdb719b1	-0.08940447
58	0x3d29cbf1	0.04145426
59	0x3c8e9f14	0.017409839
60	0x3d8ad247	0.067783885
61	0xbcab5c9e	-0.020918187
62	0x3e158279	0.14600553
63	0xbce4c3d6	-0.027925413
64	0x3d953e80	0.072873116
65	0x3d56ff01	0.052489284
66	0xbd9f4232	-0.07776298
67	0x3d4e7ffa	0.050415017
68	0x3cbd88ce	0.023136523
69	0xbdaa1718	-0.08305186
70	0xbccf6159	-0.025314974
71	0x3d56226b	0.052278917
72	0xbd6db9e1	-0.058038596
73	0xbdb9199c	-0.09038088
74	0x3b399510	0.0028317608
75	0x3d2d314b	0.042283338
76	0x3c8f177f	0.017467258
77	0x3e128e02	0.14311984
78	0xbd5e6362	-0.054293998
79	0xbdcbd968	-0.09953576
80	0x3db10f86	0.08645539
81	0x3ce32273	0.027726388
82	0x3d1e7b01	0.038691524
83	0x3d0c4780	0.034247875
84	0xbd17a76c	-0.0370249
85	0x3d96657b	0.073435746
86	0xbdccb678	-0.09995741
87	0x3da7055a	0.081553176
88	0xbdadb13f	-0.08481073
89	0xbd9a17b6	-0.07524054
90	0x3c6b18ff	0.014349221
91	0x3c41035f	0.011780589
92	0x3d4a930f	0.049456652
93	0xbd995fab	-0.0748895
94	0xbca6f155	-0.020378748
95	0xbddfdcea	-0.10930808
96	0x3e11f14c	0.14252204
97	0xbde032ca	-0.10947187
98	0xbd44c202	-0.048036583
99	0x3dd9e048	0.106384814
100	0xbd9d442e	-0.0767902
101	0xbc36786f	-0.011137112
102	0xbd8edadb	-0.06975337
103	0x3dcccb97	0.09999769
104	0x3d8ac10e	0.067751035
105	0x3dfca810	0.12336743
106	0x3d487bb4	0.048946097
107	0xbc55a2c6	-0.0130392965
108	0xbd4803d7	-0.048831787
109	0xbdb067b5	-0.086135305
110	0xbdbec55f	-0.09314989
111	0x3d93d787	0.07218843
112	0x3d7434ea	0.059620775
113	0x3db5c72c	0.0887588
114	0x3df9bb09	0.12193877
115	0xbd9be125	-0.07611302
116	0xbe01ef6a	-0.12688985
117	0x3e09c50b	0.13454072
118	0xbd5ef337	-0.054431166
119	0xbc0cb683	-0.008588436
120	0xbe10aac2	-0.14127639
121	0x3cd6a6e1	0.026202621
122	0xbd6262c3	-0.055269968
123	0xbdb3c090	-0.08776963
124	0xbdc91309	-0.09818084
125	0x3c1d4a39	0.009600216
126	0xbc8c1f71	-0.017104836
127	0xbc803c80	-0.015653849
128	0xbddfb8dc	-0.10923931
129	0xbd2e52e9	-0.042559538
130	0xbcea9cbd	-0.028639192
131	0xbd5db3c2	-0.05412651
132	0xbd94416a	-0.07239039
133	0x3e11cbc7	0.14237891
134	0x3e09d9d4	0.13462001
135	0xbd32f610	-0.043691695
136	0x3d52504b	0.051346105
137	0xbe0bb5a5	-0.1364351
138	0xbdff8302	-0.1247616
139	0x3e09b41f	0.13447617
140	0xbe01eadb	-0.12687247
141	0x3e12e4fc	0.14345163
142	0x3c8ff46b	0.017572602
143	0xbc246cda	-0.010035718
144	0x3d5accb3	0.053417873
145	0x3d355642	0.044271715
146	0xbd0c30e6	-0.03422632
147	0xbcf1a5e1	-0.029498043
148	0xbcf04bfa	-0.029333103
149	0xbca7b4f4	-0.020472027
150	0xbbab384c	-0.005225217
151	0x3bddace2	0.006764994
152	0xbdbd8a92	-0.09254946
153	0x3db0c958	0.08632153
154	0xbd1a9fc2	-0.037750013
155	0xbd97890d	-0.07399187
156	0x3dccc7b8	0.09999031
157	0x3d999174	0.07498446
158	0xbdd02b91	-0.1016456
159	0xbda0772a	-0.07835229
160	0x3df392ca	0.11893232
161	0xba92c99b	-0.0011198999
162	0x3e09c583	0.13454251
163	0x3e1275c1	0.14302732
164	0xbd011545	-0.031514425
165	0x3e0665d6	0.13124785
166	0xbd73b053	-0.059494328
167	0x3d9bd87e	0.07609652
168	0xbc059bf2	-0.008154856
169	0x3b96dc7e	0.0046039214
170	0x3dbcbc9a	0.092156604
171	0xbd130ff8	-0.0359039
172	0x3d3b042b	0.04565827
173	0xbd4b9aef	-0.049708303
174	0x3db724b6	0.08942549
175	0xbd1122ac	-0.035433456
176	0xbd3a5e89	-0.045500312
177	0x3db662f9	0.08905596
178	0xbbe29eba	-0.0069158943
179	0x3dc1862e	0.09449421
180	0xbd6ee391	-0.058322493
181	0xbd66a0ee	-0.05630582
182	0x3d067be0	0.03283298
183	0xbd84c14e	-0.064821824
184	0xbdeb88e6	-0.11500721
185	0xbda31834	-0.07963601
186	0xbdc301d6	-0.095218346
187	0x3d8b23c2	0.0679393
188	0x3d158b4e	0.036509804
189	0x3d712efb	0.058882695
190	0x3da54ede	0.08071683
191	0x3d0b1d83	0.03396369
192	0x3dbd4817	0.09242266
193	0x3cbe7036	0.023246866
194	0xbdf2ab1a	-0.11849041
195	0x3b84d182	0.0040532956
196	0x3c3a0339	0.011353307
197	0xbdc937d0	-0.098250985
198	0x3dbf145c	0.09330055
199	0x3dcddc01	0.10051728
200	0x3c65b87c	0.014021035
201	0x3dc5bf76	0.09655659
202	0xbdde1f73	-0.10845842
203	0x3d4dbeb5	0.0502307
204	0x3d93c409	0.07215125
205	0x3c8ef14c	0.017449044
206	0x3cab930e	0.020944145
207	0x3d0dcae5	0.034617323
208	0x3da04f97	0.078276806
209	0xbd8ddf5b	-0.06927367
210	0xbd079261	-0.033098582
211	0xbcf7cc58	-0.030248806
212	0xbd917b34	-0.07103577
213	0xbb4b6cba	-0.0031040148
214	0x3e033479	0.12812985
215	0xbdce9379	-0.10086722
216	0x3d220297	0.03955325
217	0xbdebe834	-0.115188986
218	0x3b981523	0.0046411916
219	0xbe0d74a5	-0.13814028
220	0x3de72728	0.11286765
221	0x3cbf6d45	0.023367533
222	0x3d4ab2a3	0.049486768
223	0xbdb1ca78	-0.08681196
224	0xbd4e1a1e	-0.050317876
225	0xbc0c86e4	-0.008577082
226	0xbda815d0	-0.082072854
227	0x3de49fe4	0.11163309
228	0x3c23de31	0.010001705
229	0x3dea649d	0.11444972
230	0x3da4f8fd	0.08055303
231	0xbdeaadb5	-0.11458913
232	0xbd67babd	-0.056574572
233	0x3b799a2c	0.0038086278
234	0x3db9f816	0.09080522
235	0x3e127c6e	0.14305279
236	0x3d61a62c	0.055090114
237	0xbe0983b1	-0.13429143
238	0x3d45908a	0.048233546
239	0x3c27925d	0.010227767
240	0xbbe1eb83	-0.0068945303
241	0xbe056bb6	-0.1302937
242	0xbc8d4666	-0.017245483
243	0xbd85b01b	-0.0652773
244	0xbdfc5a0d	-0.12321863
245	0x3df7c217	0.120975666
246	0xbb2a8a9e	-0.0026022564
247	0xbd43b9ed	-0.047784735
248	0xbdbedbc7	-0.09319263
249	0xbcb92e14	-0.02260498
250	0xbe13fd7e	-0.14452168
251	0x3e09410c	0.1340372
252	0x3dcb5a6c	0.09929356
253	0xbe063298	-0.13105237
254	0x3da5ce8a	0.08096035
255	0x3d5e337d	0.05424832

lstm.bias_ih_l1 f4 [256]
0	0x3e01bf33	0.12670593
1	0xbdaac3e4	-0.083381444
2	0x3d0794c9	0.033100877
3	0x3d4085b8	0.047002524
4	0x3b212f3f	0.0024594811
5	0xbdd4abe9	-0.10384352
6	0xbd27c84f	-0.040962514
7	0x3c302239	0.010750347
8	0x3dc3abf5	0.095542826
9	0xbda58f04	-0.08083919
10	0xbdc629d9	-0.096759506
11	0xbd80be7e	-0.062863335
12	0xbd27b45d	-0.040943492
13	0xbdca8c86	-0.09890084
14	0xbd06fda2	-0.032956727
15	0x3cebacd9	0.028768944
16	0xbc91f0c7	-0.017815007
17	0x3d871cdf	0.065973036
18	0xbd8bb731	-0.0682205
19	0xbd613b01	-0.05498791
20	0x3db9cd3d	0.09072349
21	0x3c92fd1e	0.017942961
22	0xbd6c51fe	-0.05769538
23	0x3e06650a	0.13124481
24	0xbabff538	-0.0014645224
25	0x3dd80f47	0.10549789
26	0xbc00e18b	-0.007866274
27	0x3e0a893e	0.13528916
28	0xbca9584a	-0.020671982
29	0x3c52744c	0.01284511
30	0xbd8cf065	-0.06881789
31	0x39c9fdb6	0.00038526737
32	0xbd39ac2c	-0.04533021
33	0x3c0096a4	0.0078484155
34	0xbcae00ef	-0.02124068
35	0x3e04e7d0	0.12979054
36	0xbd668694	-0.056280687
37	0xbb63e0df	-0.0034771485
38	0xbd8e8f01	-0.069608696
39	0xbde42d58	-0.11141461
40	0x3d94cf9e	0.07266162
41	0x3c970ae3	0.018437808
42	0x3e0e44d2	0.1389344
43	0x3d091f55	0.033477146
44	0x3d0975cd	0.03355961
45	0x3e047e92	0.12938908
46	0x3cd66e5a	0.026175667
47	0xbdb4e657	-0.08832996
48	0x39983bc0	0.00029036216
49	0x3b5ce7c1	0.0033707472
50	0x3d514f6d	0.051101137
51	0x3df426d4	0.119214684
52	0x3cf2aaea	0.029622514
53	0xbd2db3dd	-0.04240786
54	0xbcd1dab7	-0.025616987
55	0xbade70d1	-0.0016970878
56	0xbd763e6a	-0.060118116
57	0x3d9d9c1d	0.07695792
58	0xbdb07430	-0.08615911
59	0x3db8a525	0.09015874
60	0x3d514238	0.05108854
61	0x3d273d01	0.040829662
62	0xbc864de6	-0.016394567
63	0x3df28b8f	0.11843025
64	0x3e0d6da2	0.13811353
65	0x3d912b5b	0.070883475
66	0x3d56609a	0.05233822
67	0xbced2577	-0.028948529
68	0xbd7264c1	-0.059178118
69	0xb7a67d9d	-1.9847235e-05
70	0x3defe418	0.11713427
71	0xbd0374c3	-0.032093775
72	0xbc96b579	-0.01839708
73	0xbcefc394	-0.029268064
74	0x3da79682	0.08183004
75	0x3d057543	0.032582533
76	0x3da8ccb6	0.082421705
77	0x3d6223c9	0.05520991
78	0xbd8b639b	-0.068061076
79	0x3de2a414	0.11066452
80	0xbc972a40	-0.018452764
81	0x3dda77e9	0.10667402
82	0xbdff321b	-0.12460729
83	0xbd9c71c8	-0.076388896
84	0xbd0ff1ee	-0.03514283
85	0x39a2b0e7	0.0003103085
86	0x3ddeb4b0	0.10874307
87	0x3e0af25b	0.13569014
88	0x3dcc6adf	0.099813215
89	0xbd9d142b	-0.07669862
90	0xbdaf326b	-0.08554538
91	0x3d0fb940	0.035088778
92	0x3d4f2113	0.05056865
93	0x3e0b033c	0.13575453
94	0xbbd382a4	-0.0064547826
95	0x3de029ee	0.109454975
96	0x3d9b6fb0	0.07589662
97	0xbd8f6777	-0.07002156
98	0xbd1aca7d	-0.037790764
99	0xbdaed98f	-0.0853759
100	0x3e03991a	0.12851372
101	0x3d8fdfca	0.07025106
102	0x3c288787	0.0102862185
103	0x3de4651c	0.111520976
104	0x3ddf0aab	0.10890707
105	0x3ddc21b0	0.10748613
106	0xbc8aab18	-0.016927287
107	0x3d5a093b	0.05323146
108	0x3d82ff87	0.06396394
109	0x3daf3f29	0.08556969
110	0x3dad3b9e	0.08458637
111	0xbdd73731	-0.10508574
112	0x3d2e7d49	0.04259995
113	0x3cd6f87b	0.026241532
114	0xbd8cf59d	-0.068827845
115	0x3db0f246	0.0863996
116	0x3de363da	0.111030295
117	0xbd9f5e3e	-0.07781647
118	0xbcea4f13	-0.028602159
119	0x3d6256c0	0.055258512
120	0x3cd4dd12	0.02598432
121	0x3bc7c3e3	0.0060963496
122	0x3cb24b62	0.021764461
123	0xbd9559eb	-0.07292541
124	0xbd338781	-0.0438304
125	0xbc9cdf03	-0.019149309
126	0xbc755c83	-0.01497567
127	0x3dfc0f35	0.12307588
128	0xbc515209	-0.012775906
129	0x3d9f8717	0.07789438
130	0xbdafb2d9	-0.08579034
131	0x3c2e4a75	0.010637869
132	0x3d2c84ec	0.04211895
133	0x3dff72f4	0.124730974
134	0x3bca44c5	0.0061727487
135	0x3d0fcaca	0.035105504
136	0xbd012e0f	-0.031538066
137	0xbcdc0ecc	-0.026862524
138	0x3ca45038	0.020057783
139	0xbde6a4a4	-0.112618715
140	0xbb739500	-0.0037167668
141	0xbd94c2ec	-0.07263741
142	0x3d963c27	0.07335692
143	0xbc952bb1	-0.01820931
144	0xbdc5dd5d	-0.09661362
145	0x3cb60abe	0.02222192
146	0x3db95468	0.09049302
147	0x3d66151c	0.056172475
148	0x3dadc341	0.08484507
149	0x3ccc84d3	0.02496568
150	0x3dadd50f	0.08487903
151	0xbd4b44b0	-0.049626052
152	0xbd6a499e	-0.057199113
153	0x3d3fbb06	0.04680922
154	0x3aeefb3d	0.0018232834
155	0xbcbae453	-0.022813952
156	0x3dae0ade	0.084981665
157	0x3c100987	0.008791334
158	0x3d40ac1d	0.04703914
159	0x3dab512b	0.08365091
160	0x3bc4b508	0.006003026
161	0xbdd0d9ad	-0.10197768
162	0x3c97e67b	0.018542519
163	0x3d017865	0.031608958
164	0xbdc13c67	-0.09435349
165	0x3df10693	0.11768832
166	0x3c024305	0.007950549
167	0xbd3000a5	-0.042969365
168	0xbd1a7af3	-0.03771491
169	0x3d841997	0.064501934
170	0xbdb99d0e	-0.09063159
171	0x3dbed698	0.09318274
172	0xbe0a19b6	-0.1348637
173	0x3cac496b	0.021031102
174	0x3d8da7a1	0.06916738
175	0x3b9abdfb	0.0047223545
176	0x3d00b795	0.031425077
177	0xbda513c7	-0.08060413
178	0xbd83dbbb	-0.06438395
179	0x3d454350	0.048159897
180	0xbdebf846	-0.11521964
181	0xbc468425	-0.012116467
182	0xbdd46c59	-0.10372228
183	0xbd3df516	-0.04637631
184	0x3d02d2af	0.031939205
185	0x3dc09ef8	0.09405321
186	0x3dd4bb51	0.1038729
187	0x3c45b367	0.012066699
188	0x3c1878b0	0.009306118
189	0x3c0ebfc4	0.008712713
190	0xbd47e7bb	-0.04880498
191	0xbdcb83a9	-0.099372216
192	0x3dd22c1a	0.10262318
193	0x3d97fe54	0.07421556
194	0xbda8392d	-0.082140304
195	0x3da72e83	0.08163168
196	0x3e13116f	0.14362119
197	0x3dfee06e	0.1244515
198	0xbdb4187f	-0.08793735
199	0x3dd03692	0.101666585
200	0x3e13bba0	0.14427042
201	0x3bb93244	0.005651744
202	0x3c9b4ba9	0.018956976
203	0xbdc24362	-0.094855085
204	0x3e17b5dd	0.14815469
205	0x3dbfd9c6	0.09367709
206	0xbc9eff13	-0.019408738
207	0x3d4a858c	0.049443766
208	0xbd8d6991	-0.06904901
209	0x3e15e8c2	0.14639571
210	0xbdb8393a	-0.0899529
211	0x3dff1da8	0.12456828
212	0x3cbe5b69	0.023236947
213	0xbd7b15ef	-0.061300214
214	0xbd59b547	-0.053151395
215	0x3d032c92	0.032024927
216	0x3d2fcf48	0.04292229
217	0xbd85b47a	-0.06528564
218	0x3dd77d3a	0.10521932
219	0xbc812928	-0.015766695
220	0xbd9eedae	-0.077601776
221	0xbda9306d	-0.082611896
222	0x3d3378e5	0.043816466
223	0x3cd0dcdd	0.02549594
224	0xbd54610f	-0.051850375
225	0x3d33dbf6	0.043910943
226	0xbd3d99dc	-0.04628931
227	0xbd08a30b	-0.033358615
228	0x3de03e19	0.10949344
229	0x3dd815e9	0.10551054
230	0x3e0ac5d0	0.13552022
231	0xbcdde487	-0.02708651
232	0x3da7654f	0.0817362
233	0xbc959e03	-0.018263822
234	0x3d819594	0.06327358
235	0x3c90d4c4	0.01767958
236	0xbda5cee5	-0.080961026
237	0x3d23fffd	0.04003905
238	0xbd0ef05f	-0.034897204
239	0x3d6f1b0c	0.058375403
240	0xbda95ffa	-0.08270259
241	0x3d7b0852	0.06128723
242	0xbc3bb532	-0.011456775
243	0x3de00fae	0.10940491
244	0x3dc3b508	0.09556013
245	0x3e145f8e	0.14489576
246	0xbd1bb296	-0.03801211
247	0x3dd1ed97	0.10250395
248	0xbdc2a582	-0.09504224
249	0x3d8c41cb	0.068484865
250	0x3d37a1c6	0.044832014
251	0xbd0cea78	-0.034403294
252	0xbd9846f0	-0.07435405
253	0xbd339d2f	-0.043851074
254	0x3cb7565c	0.022380047
255	0xbc1f9d30	-0.009742066
