models/LINKUSDT_lstm_20250822_024902.pth (torch, 267829 bytes, 11 tensors)

lstm.weight_ih_l0 f4 [256, 53]
0.11185688 -0.03026028 -0.03688863 -0.069461286 0.08118759 0.07836935 0.03324066 0.11399114
-0.030381456 -0.09467098 0.0954289 -0.11318034 0.018781647 -0.008620247 -0.09718996 -0.018294185
0.123390436 0.044286728 0.10246977 -0.05814174 -0.10012433 0.037858114 0.083078176 -0.04326193
0.05060409 -0.07756892 0.010934606 -0.017874688 -0.11282836 0.07726492 -0.114708066 -0.09645197
0.109433725 0.11333004 -0.116407305 0.0069206357 -0.030664533 0.021682173 0.08249256 0.022261053
-0.032794595 -0.090896726 0.0051890463 -0.06686266 0.03969778 -0.057311416 -0.058939487 -0.10027698
-0.061057553 0.011236921 -0.015053198 -0.109504595 0.0997217 -0.093922704 -0.11987269 0.017919034
9.085238e-05 -0.0643453 -0.044482663 -0.07537402 0.029514432 0.025764436 -0.08480655 -0.020749554
-0.047045484 -0.09427005 -0.10749884 0.07645367 0.03121896 0.079929575 0.094635814 0.0494695
0.065632164 0.10255849 0.08354208 0.10625629 -0.12152928 0.029239863 -0.099692985 0.07879287
-0.026887953 0.04663992 -0.09944686 0.014274508 0.05351518 0.04516132 0.037726417 0.0925238
0.056233168 0.12059915 -0.0043821335 0.080171034 -0.06930961 0.01882863 -0.07327308 0.06542492
0.07764585 0.05379601 -0.09098104 -0.041478455 -0.045255423 0.10201475 -0.115733 0.121657595
-0.06570381 -0.06917207 -0.103146404 0.10913873 -0.030636802 -0.04540524 0.07854481 0.1203721
-0.12075415 0.035567075 0.048078313 0.07376908 -0.017064258 -0.019779697 -0.086889565 -0.047363847
0.12034924 -0.08779384 -0.010939732 0.03551893 -0.04124637 0.053959846 0.008163378 -0.03539595
-0.12125166 0.030458376 0.04351236 -0.03641805 0.0065722167 0.1026949 -0.052032232 0.0865808
0.0034671724 -0.08406474 0.123703435 0.03484966 -0.057999402 0.041373968 0.01424858 0.05782783
-0.026784554 0.10841352 0.10168491 -0.10271996 0.0055422187 0.105778575 -0.052086964 -0.027083352
-0.030642569 -0.012337089 0.05271843 0.048322007 0.1123174 -0.022626743 0.014293835 0.019176885
-0.08418138 -0.07918428 0.024700135 0.02279903 0.0065645576 0.08771202 0.030948162 -0.089065194
-0.022590846 0.0108308345 -0.024563238 -0.11351241 -0.11327021 -0.036959797 -0.012363508 -0.09784876
0.06191361 -0.029657587 -0.07901354 0.021904662 0.04185146 0.108788386 -0.10263099 0.11638266
0.06766705 -0.102312 0.03637232 -0.0028138012 -0.060563967 0.009011075 0.07797222 -0.006923273
0.075130254 0.0044677705 0.031579062 0.07074681 0.021216482 -0.094784096 0.031903744 0.0611936
-0.0070407093 -0.050722286 0.06876902 0.027164534 0.04961063 0.011612222 -0.07312733 -0.049590185
-0.10107687 -0.08980022 0.09195763 0.032633826 -0.0020406097 0.06595574 0.08984804 -0.10765353
-0.08275299 0.06555861 -0.056608096 -0.08145203 -0.051787183 -0.051638037 0.040556535 0.089617
0.084535584 0.096092924 0.014861986 0.025884062 -0.028496698 0.0016616285 0.03222935 0.1022625
0.027443439 0.029439986 0.11651836 -0.05051972 0.05806607 0.071704164 0.06186354 -0.099223584
-0.0041817278 -0.077537626 0.121629655 -0.102088645 0.002877891 0.09736402 -0.028509974 0.12199193
-0.0595956 -0.06283365 0.0056329817 -0.0819623 0.03400986 0.07274008 -0.08513774 -0.0068445206
00000000: 3815 e53d 68e4 f7bc 8818 17bd b841 8ebd
00000010: ae45 a63d 1c80 a03d 5c27 083d 3074 e93d
00000020: 88e2 f8bc dce2 c1bd 3a70 c33d 18cb e7bd
00000030: f8db 993c f03b 0dbc 880b c7bd b0dd 95bc
00000040: 20b4 fc3d 0066 353d acdb d13d 0826 6ebd
00000050: fc0d cdbd 1c11 1b3d e424 aa3d 6c33 31bd
00000060: 3c46 4f3d 74dc 9ebd 1027 333c f06d 92bc
00000070: 8e12 e7bd 123d 9e3d 10ec eabd 9c88 c5bd
00000080: ca1e e03d 9419 e83d f466 eebd 80c6 e23b
00000090: 3034 fbbc d09e b13c dcf1 a83d d05c b63c
000000a0: a053 06bd 1028 babd e008 aa3b 4aef 88bd
000000b0: 249a 223d 60bf 6abd 886a 71bd 045e cdbd
000000c0: 7c17 7abd 101b 383c b0a1 76bc f243 e0bd
000000d0: e43a cc3d 8c5a c0bd d07f f5bd f0ca 923c
000000e0: 0088 be38 78c7 83bd 7433 36bd b25d 9abd
000000f0: 40c8 f13c f00f d33c 0eaf adbd f8fa a9bc
00000100: c4b2 40bd a810 c1bd 5a28 dcbd be93 9c3d
00000110: e8be ff3c 1eb2 a33d 6cd0 c13d 88a0 4a3d
00000120: 286a 863d 300a d23d 1c18 ab3d e69c d93d
00000130: 58e4 f8bd 7088 ef3c d62b ccbd 285e a13d
00000140: 2044 dcbc 8009 3f3d ccaa cbbd a0df 693c
00000150: bc32 5b3d 14fb 383d 0487 1a3d 1e7d bd3d
00000160: c054 663d b0fc f63d 0098 8fbb b630 a43d
00000170: 32f2 8dbd 803e 9a3c 3210 96bd 80fd 853d
00000180: ca04 9f3d 3459 5c3d 4454 babd 50e5 29bd
00000190: c05d 39bd 1ced d03d 6c05 edbd 9e27 f93d
000001a0: b88f 86bd 16aa 8dbd 6c3e d3bd 2084 df3d
000001b0: 08fa fabc d8fa 39bd 1adc a03d a685 f63d
000001c0: f44d f7bd c8ae 113d c4ed 443d 3e14 973d
000001d0: 58ca 8bbc 0809 a2bc 28f3 b1bd 9800 42bd
000001e0: aa79 f63d 42cd b3bd 903c 33bc 4c7c 113d
000001f0: f4f1 28bd 0005 5d3d b0bf 053c 58fb 10bd
00000200: ca52 f8bd d883 f93c 043a 323d 182b 15bd
00000210: c05b d73b b451 d23d c01f 55bd 4651 b13d
00000220: 8039 633b 222a acbd 3a58 fd3d 84be 0e3d
00000230: c890 6dbd c077 293d e072 693c e0dc 6c3d
00000240: 486b dbbc e807 de3d 2e40 d03d d85e d2bd
00000250: 809b b53b 70a2 d83d 2459 55bd e8dd ddbc
00000260: 2006 fbbc 8021 4abc 48ef 573d 4ced 453d
00000270: aa06 e63d b85b b9bc b030 6a3c d818 9d3c
00000280: 4a67 acbd 5e2b a2bd f057 ca3c 08c5 ba3c
00000290: 801b d73b 5ca2 b33d 0087 fd3c d067 b6bd
000002a0: 7010 b9bc d073 313c d838 c9bc 3279 e8bd
000002b0: 36fa e7bd 2863 17bd 5090 4abc ee64 c8bd
000002c0: 2099 7d3d 78f4 f2bc dad1 a1bd 6871 b33c
000002d0: 706c 2b3d 72cc de3d 3230 d2bd 085a ee3d
000002e0: 0695 8a3d f488 d1bd 24fb 143d c067 38bb
000002f0: ec11 78bd 30a3 133c e6af 9f3d a0dc e2bb
00000300: e4dd 993d 6066 923b 0c59 013d b4e3 903d
00000310: 30ce ad3c 2a1e c2bd 80ad 023d 24a6 7a3d
00000320: c0b5 e6bb 2cc2 4fbd c6d6 8c3d 2888 de3c
00000330: 8434 4b3d 3041 3e3c c8c3 95bd 141f 4bbd
00000340: 6401 cfbd 2ee9 b7bd 4854 bc3d 0cab 053d
00000350: c0bb 05bb ce13 873d 4002 b83d 7479 dcbd
00000360: 667a a9bd 9843 863d e4dd 67bd 52d0 a6bd
00000370: cc1e 54bd 6882 53bd 9c1e 263d 1e89 b73d
00000380: fe20 ad3d 5ecc c43d b07f 733c d00a d43c
00000390: e871 e9bc 00cb d93a ec02 043d 006f d13d
000003a0: 10d1 e03c 202c f13c 2ea1 ee3d c4ed 4ebd
000003b0: b0d6 6d3d a2d9 923d a064 7d3d bc35 cbbd
000003c0: e006 89bb 0ccc 9ebd f818 f93d da13 d1bd
000003d0: 009b 3c3b ca66 c73d c08d e9bc e8d6 f93d
000003e0: 841a 74bd eeae 80bd e094 b83b dadb a7bd
000003f0: ec4d 0b3d c0f8 943d b25c aebd 0048 e0bb

lstm.weight_hh_l0 f4 [256, 64]
-0.092081204 -0.040347576 -0.042360753 -0.069813415 0.05719188 0.11293435 0.00212349 -0.10592735
0.118365064 -0.017742097 0.047062024 0.101928055 0.10548252 0.04636708 0.12466703 -0.008820251
0.09098098 -0.09056552 0.0042701364 -0.06834659 -0.07581784 -0.055941135 -0.03583929 0.06454384
0.080177575 -0.11059423 0.10528554 -0.043279245 0.08850144 0.022773594 0.10527341 0.026796922
0.054924637 0.10178989 -0.008046716 -0.08333656 -0.032036096 0.09695345 -0.065223575 0.005282268
-0.115163416 0.090365544 -0.12174502 0.05429943 0.0011453927 0.12180817 -0.058183283 -0.11811891
0.12278387 -0.10022454 0.044222206 -0.111236125 -0.050309956 -0.016313747 -0.040792942 -0.07119307
0.07353532 -0.114018366 -0.048780367 0.068954065 0.017617717 0.009002253 0.09434949 0.082910344
-0.033867806 -0.075576186 0.09752409 0.07659125 0.05580373 -0.07968943 -0.115540534 -0.114127755
0.117954016 0.123527825 -0.11024706 0.010687843 -0.09069568 -0.008289799 -0.004772797 0.012118071
0.043301135 0.050477564 0.07952048 0.07538894 -0.03214325 0.10582566 0.104791045 -0.08084802
-0.035423324 0.058408305 -0.10774587 0.09422848 0.05290571 -0.048842758 0.084580734 -0.017193615
-0.014841139 0.04367602 0.015280217 -0.027919114 0.04040298 0.1148265 0.11389232 -0.0020538718
-0.10391013 0.118375406 0.10078065 -0.111168444 0.075136274 0.07591829 0.056783378 -0.11917558
0.097514465 0.08185494 -0.08731881 0.027427763 0.11131376 -0.013089612 0.042612374 -0.031012848
0.10599746 -0.12055218 -0.030385435 0.022436917 0.11484146 0.11456081 0.10484411 -0.074261576
-0.019592658 -0.026035607 0.050820798 -0.025554448 -0.015762836 -0.052675024 0.09632459 -0.122880355
-0.03600344 -0.040385768 0.014844865 -0.05940041 -0.08756603 0.11908029 0.045536324 -0.05421324
0.036698088 0.0708527 -0.005093038 -0.015946224 0.087167785 -0.10877791 0.032027394 -0.06280565
-0.10124302 0.09858464 -0.052670404 -0.108568415 0.086699486 0.013936177 0.05727862 -0.044106275
0.06799777 -0.078289405 -0.018793762 0.08911757 -0.012058571 0.10797696 0.028159052 -0.003940344
0.10018559 -0.07360989 -0.0070893317 -0.010878339 -0.0681417 -0.103730544 -0.10102838 -0.04807876
-0.041204244 -0.018791243 -0.09301461 0.09486368 -0.029224068 -0.10483286 0.09674719 -0.06326084
0.014568359 -0.0722481 0.06547341 0.049207106 0.075463414 0.11143735 0.09141855 -0.000842914
-0.021802664 -0.08259083 -0.10889971 0.10440357 -0.02715537 -0.07728869 0.057659447 0.043244824
-0.10120945 -0.05786875 0.04620385 0.018099234 -0.11271271 0.02776675 0.0038588643 -0.088315696
0.102454334 -0.123404324 -0.11174968 0.021801248 0.0076328516 -0.034755424 -0.07486841 -0.104978666
0.0042106807 0.034625635 -0.04463151 -0.10681607 0.08682318 0.083965674 0.090260655 -0.003478244
-0.08438556 -0.11370033 -0.04266642 -0.08476487 -0.080609694 -0.032374278 -0.048854813 0.039659902
0.084478036 0.07821043 0.033388495 0.049552485 -0.090174645 -0.056951344 0.10532376 0.11067599
-0.10286845 0.042851433 0.061233327 0.016365632 0.10566659 0.0889744 0.12298463 -0.01096037
0.023325115 -0.01456432 -0.015293539 -0.07191178 -0.021163225 0.039561212 0.008734375 0.06798129
00000000: 1295 bcbd 8043 25bd 7882 2dbd 56fa 8ebd
00000010: 0842 6a3d 204a e73d 402a 0b3b 70f0 d8bd
00000020: 6269 f23d e057 91bc 1cc4 403d a8bf d03d
00000030: 3807 d83d 68eb 3d3d 6e51 ff3d d082 10bc
00000040: 3c54 ba3d 6a7a b9bd 80ec 8b3b 4cf9 8bbd
00000050: 6246 9bbd 8822 65bd 38cc 12bd 902f 843d
00000060: 2434 a43d 3a7f e2bd f29f d73d 9445 31bd
00000070: 3e40 b53d b08f ba3c 9699 d73d 3885 db3c
00000080: a8f8 603d 3877 d03d 60d6 03bc 5cac aabd
00000090: 4838 03bd 888f c63d f093 85bd e016 ad3b
000000a0: ccda ebbd 9211 b93d 7455 f9bd 1469 5e3d
000000b0: 0021 963a 9076 f93d 9851 6ebd 54e8 f1bd
000000c0: 1c76 fb3d 8642 cdbd 5822 353d c4cf e3bd
000000d0: d011 4ebd 68a4 85bc 8016 27bd accd 91bd
000000e0: b099 963d 7682 e9bd eccd 47bd ca37 8d3d
000000f0: 0853 903c 307e 133c 4e3a c13d e6cc a93d
00000100: f8b8 0abd b0c7 9abd b6ba c73d e0db 9c3d
00000110: 7492 643d 3634 a3bd 84a0 ecbd d0bb e9bd
00000120: e091 f13d 28fc fc3d 36c9 e1bd 101c 2f3c
00000130: a8be b9bd f0d1 07bc 2065 9cbb e08a 463c
00000140: 885c 313d 90c1 4e3d a2db a23d 8465 9a3d
00000150: a4a8 03bd 20bb d83d b09c d63d a693 a5bd
00000160: 0c18 11bd 8c3d 6f3d dea9 dcbd dcfa c03d
00000170: a8b3 583d 580f 48bd aa38 ad3d a0d9 8cbc
00000180: 4028 73bc a0e5 323d e059 7a3c a0b6 e4bc
00000190: 987d 253d 282a eb3d 6040 e93d 409a 06bb
000001a0: d6ce d4bd ce6e f23d 1666 ce3d 48ac e3bd
000001b0: 0ce1 993d 0c7b 9b3d b095 683d 5412 f4bd
000001c0: aab5 c73d 90a3 a73d 34d4 b2bd 30b0 e03c
000001d0: 78f8 e33d d075 56bc 508a 2e3d a80e febc
000001e0: 3215 d93d 10e4 f6bd e0ea f8bc a0cd b73c
000001f0: 0032 eb3d dc9e ea3d 82b8 d63d 7416 98bd
00000200: c880 a0bc a048 d5bc 7829 503d 9057 d1bc
00000210: 1021 81bc c4c1 57bd d445 c53d b2a8 fbbd
00000220: 5878 13bd 8c6b 25bd e037 733c d84d 73bd
00000230: d255 b3bd 5ee0 f33d 4c84 3a3d b40e 5ebd
00000240: bc50 163d 381b 913d 80e3 a6bb a8a1 82bc
00000250: 0685 b23d f4c6 debd 282f 033d 40a0 80bd
00000260: 8058 cfbd bee6 c93d ecbc 57bd 1e59 debd
00000270: 808f b13d 9054 643c fc9c 6a3d c8a8 34bd
00000280: 6a42 8b3d 3256 a0bd 60f5 99bc 4683 b63d
00000290: 5091 45bc 0623 dd3d d0ad e63c 001e 81bb
000002a0: 1a2e cd3d c8c0 96bd a04d e8bb 103b 32bc
000002b0: e08d 8bbd ae70 d4bd f8e7 cebd 3cee 44bd
000002c0: c8c5 28bd 18f0 99bc 727e bebd e447 c23d
000002d0: 5067 efbc 9cb2 d6bd 6423 c63d e68e 81bd
000002e0: 20b0 6e3c d0f6 93bd ec16 863d 648d 493d
000002f0: 908c 9a3d 4439 e43d a639 bb3d 00f7 5cba
00000300: 809b b2bc 6225 a9bd d006 dfbd 8ad1 d53d
00000310: f074 debc 8849 9ebd 502c 6c3d 7c21 313d
00000320: e646 cfbd c807 6dbd 4040 3d3d d844 943c
00000330: ecd5 e6bd 1877 e33c 00e5 7c3b dcde b4bd
00000340: 94d3 d13d 68bb fcbd 04dd e4bd 8898 b23c
00000350: 001d fa3b b45b 0ebd 9c54 99bd 0eff d6bd
00000360: c0f9 893b 9cd3 0d3d 88cf 36bd 62c2 dabd
00000370: 5ad0 b13d 32f6 ab3d 94da b83d 40f3 63bb
00000380: 56d2 acbd b8db e8bd fcc2 2ebd 3499 adbd
00000390: b216 a5bd e49a 04bd fc1b 48bd 6c72 223d
000003a0: d202 ad3d ca2c a03d 60c2 083d 8cf7 4a3d
000003b0: 7cad b8bd d045 69bd fcb3 d73d 18aa e23d
000003c0: b2ac d2bd fc84 2f3d cccf 7a3d 3811 863c
000003d0: ba67 d83d 3638 b63d 5edf fb3d 2093 33bc
000003e0: 5014 bf3c 309f 6ebc c091 7abc 7c46 93bd
000003f0: 805e adbc f00a 223d a01a 0f3c c639 8b3d

lstm.bias_ih_l0 f4 [256]
-0.08160727 0.121866 -0.108191356 -0.007338956 0.10485013 -0.027681679 -0.00075013936 0.08360024
-0.08193247 -0.00884147 0.12171057 0.10953802 -0.08389643 -0.12130925 0.1091672 0.04911077
-0.041062623 0.056892723 -0.05187033 -0.0059387833 0.11883156 -0.1130822 -0.10096611 -0.06370725
-0.061143234 -0.068642184 -0.064321354 0.08455123 0.06807916 -0.09643832 -0.059003964 -0.00061802566
-0.11301185 -0.027522653 -0.10595259 0.09085214 -0.015995353 0.088187784 0.014082238 0.018502384
0.0862609 -0.06959185 0.09064706 0.06689857 -0.083148465 0.022933379 -0.118179426 -0.008459762
-0.02805978 -0.08991262 -0.054704368 0.110592574 0.09859133 -0.03407161 0.086113155 0.056794345
0.02380246 0.014632463 0.029219702 0.07619241 -0.055904567 0.09318189 0.07672189 0.0702707
0.047687963 0.01424782 0.10954498 0.06116575 -0.035621494 0.1192006 -0.04666683 -0.04375939
-0.055680826 0.10626477 0.055071294 -0.103711516 0.101447 0.008126259 0.054326966 0.09065412
0.059030667 -0.014370769 -0.055945337 0.062401637 -0.07537831 0.04259576 -0.06300607 0.09750056
0.09932454 0.03527282 0.013878316 0.075574026 0.019546077 -0.04994829 0.0049698055 0.07966374
-0.124078035 -0.0365379 0.06678301 0.114427194 -0.018272221 0.04208806 0.10834235 -0.06513712
0.08680716 -0.11793412 -0.07706815 -0.09757748 0.017151251 -0.09645662 0.08252466 0.025615439
-0.020253986 -0.047922835 0.09917517 -0.09739885 -0.104669854 -0.035075113 -0.104854375 -0.067398936
-0.027778357 -0.06124799 -0.060031593 0.07490547 0.057883456 -0.034500048 0.07655077 -0.103796184
-0.10006027 -0.0030677617 -0.049948603 0.08326118 0.062161222 -0.010626927 0.09108755 0.05828093
-0.0059711635 -0.04591529 0.04520774 -0.05705169 -0.008113742 0.06689884 -0.005227864 -0.051136002
0.055139825 -0.0900341 0.0017365515 0.059692144 -0.013833031 0.07360388 -0.053395316 -0.073858336
0.023633108 -0.015656546 -0.1142658 0.120379984 0.05920966 -0.022032678 -0.020065904 0.04283586
-0.082479134 0.10073005 0.037654907 0.05317965 0.035989076 -0.05417475 -0.09926361 0.08899857
-0.05656512 -0.08164795 0.11055818 -0.03616096 0.011508435 0.003887996 -0.05004193 0.010804668
-0.015038565 0.060815156 0.052070826 -0.08756353 0.09175977 -0.10233176 -0.10044947 -0.11599842
0.013578847 -0.0402468 -0.118082985 0.0049629807 0.09971315 -0.09120658 -0.057197332 -0.0991074
-0.024757162 -0.114090964 0.121138975 0.015464559 -0.112618536 -0.024933413 0.015170902 0.052876607
-0.07938485 -0.029803514 0.12425856 -0.12220529 0.029886961 0.12096712 0.05446805 0.050480723
-0.027883857 -0.032704204 0.1177011 0.05361122 -0.010136023 -0.050045133 -0.10166526 0.11842942
-0.034342185 -0.116403 -0.0675794 -0.09021893 -0.057314724 -0.08450718 0.12168656 -0.007892206
-0.020952418 -0.0713173 0.039717957 0.0998247 -0.020992726 -0.021928295 -0.0011442602 -0.09695159
0.10504548 -0.09989253 -0.017438382 -0.06890224 0.12173849 0.12449895 0.024550438 0.087876365
-0.12241095 0.0047311783 -0.04603684 -0.05499497 -0.06531252 0.09609288 -0.12413427 0.03812991
-0.114384726 -0.11040482 0.009984672 0.07549487 0.106447056 -0.099870816 0.09980744 -0.120896146
00000000: b621 a7bd e294 f93d 6e93 ddbd a07b f0bb
00000010: aabb d63d b0c4 e2bc 00a5 44ba 9a36 ab3d
00000020: 36cc a7bd d0db 10bc 6443 f93d 7855 e03d
00000030: e4d1 abbd fc70 f8bd 0e93 df3d 6028 493d
00000040: 4831 28bd 5808 693d fc75 54bd 209a c2bb
00000050: f65d f33d a497 e7bd 52c7 cebd f278 82bd
00000060: 5471 7abd 4694 8cbd eaba 83bd 3229 ad3d
00000070: 166d 8b3d 7481 c5bd 24ae 71bd 0003 22ba
00000080: c272 e7bd 3077 e1bc acfd d8bd b010 ba3d
00000090: b008 83bc cc9b b43d 30b9 663c 5092 973c
000000a0: 8ea9 b03d 2c86 8ebd 2aa5 b93d 1e02 893d
000000b0: be49 aabd c8de bb3c 0e08 f2bd d09a 0abc
000000c0: a0dd e5bc 1c24 b8bd b011 60bd 5c7e e23d
000000d0: 40ea c93d ac8e 0bbd 185c b03d 30a1 683d
000000e0: 60fd c23c 00bd 6f3c 285e ef3c c40a 9c3d
000000f0: 30fc 64bd 26d6 be3d 5e20 9d3d 16ea 8f3d
00000100: 7454 433d b06f 693c 1e59 e03d f088 7a3d
00000110: d8e7 11bd 721f f43d b825 3fbd 0c3d 33bd
00000120: 9411 64bd 58a1 d93d 7092 613d b466 d4bd
00000130: 72c3 cf3d 0024 053c f485 5e3d dea8 b93d
00000140: 24ca 713d 6073 6bbc f026 65bd dc98 7f3d
00000150: f25f 9abd e478 2e3d 5409 81bd 60ae c73d
00000160: aa6a cb3d 3c7a 103d e061 633c 8ec6 9a3d
00000170: 181f a03c 9496 4cbd c0d9 a23b be26 a33d
00000180: a01c febd c4a8 15bd 88c5 883d ce58 ea3d
00000190: a0af 95bc 8864 2c3d 98e2 dd3d 9c66 85bd
000001a0: f4c7 b13d 7287 f1bd e8d5 9dbd b4d6 c7bd
000001b0: c880 8c3c 0c8b c5bd b002 a93d 78d7 d13c
000001c0: b0eb a5bc bc4a 44bd 5a1c cb3d 0c79 c7bd
000001d0: 265d d6bd ecaa 0fbd e4bd d6bd 7408 8abd
000001e0: 708f e3bc 2cdf 7abd b0e3 75bd 0a68 993d
000001f0: 3417 6d3d ec4f 0dbd a6c6 9c3d 1893 d4bd
00000200: 66ec ccbd 800c 49bb e896 4cbd d684 aa3d
00000210: c49c 7e3d 901c 2ebc 1c8c ba3d fcb7 6e3d
00000220: c0a9 c3bb ac11 3cbd c02b 393d 08af 69bd
00000230: 80ef 04bc 4202 893d 804e abbb fc73 51bd
00000240: 4cda 613d cc63 b8bd 009d e33a c07f 743d
00000250: f0a3 62bc a2bd 963d 0cb5 5abd 0a43 97bd
00000260: 389a c13c 2842 80bc 3004 eabd c889 f63d
00000270: d485 723d e07d b4bc 4061 a4bc a874 2f3d
00000280: d2ea a8bd 8e4b ce3d 083c 1a3d e8d2 593d
00000290: 4869 133d 58e6 5dbd b84a cbbd e244 b63d
000002a0: d4b0 67bd 0a37 a7bd 546c e23d 841d 14bd
000002b0: e08d 3c3c c0cd 7e3b c4f8 4cbd 1006 313c
000002c0: 5064 76bc 5019 793d 3848 553d 8254 b3bd
000002d0: 8cec bb3d 5093 d1bd 74b8 cdbd 9490 edbd
000002e0: d079 5e3c d4d9 24bd 7ed5 f1bd 80a0 a23b
000002f0: 6836 cc3d 84ca babd c047 6abd d2f8 cabd
00000300: 88cf cabc 86a8 e9bd b617 f83d 105f 7d3c
00000310: 8ca4 e6bd 2841 ccbc 608f 783c 2495 583d
00000320: 8694 a2bd 8026 f4bc 467b fe3d c446 fabd
00000330: 80d5 f43c 9cbd f73d e419 5f3d e0c4 4e3d
00000340: b06c e4bc d8f4 05bd 460d f13d 7097 5b3d
00000350: 9011 26bc 20fc 4cbd e035 d0bd 208b f23d
00000360: 64aa 0cbd b264 eebd 1267 8abd b4c4 b8bd
00000370: d8c2 6abd 1a12 adbd ce36 f93d 504e 01bc
00000380: 68a4 abbc ce0e 92bd 4caf 223d e470 cc3d
00000390: f0f8 abbc f8a2 b3bc 00fb 95ba 8e8e c6bd
000003a0: 1622 d73d 7494 ccbd f0da 8ebc 9e1c 8dbd
000003b0: 0852 f93d 4ef9 fe3d 001e c93c 86f8 b33d
000003c0: 98b2 fabd 0008 9b3b 2091 3cbd 6842 61bd
000003d0: 92c2 85bd 58cc c43d 1c3a febd 1c2e 1c3d
000003e0: 8a42 eabd ec1b e2bd c096 233c 0e9d 9a3d
000003f0: ea00 da3d 1289 ccbd d867 cc3d 6698 f7bd

lstm.bias_hh_l0 f4 [256]
-0.06571755 0.015453741 0.10293774 -0.049653903 0.023893356 -0.094160005 0.049898505 -0.11946142
0.024214417 0.062066242 0.072316036 0.11508727 -0.09276445 0.055360556 0.08202535 -0.07369441
0.041152254 0.03131178 -0.0048440993 0.028444171 -0.0152564645 -0.082948655 0.050599635 -0.081002295
0.09398611 0.12129742 0.05941555 -0.0380335 0.088040054 0.011000797 -0.08489977 -0.03902687
0.03393045 -0.028037697 0.07840294 -0.100272626 0.07828173 0.04915981 0.043781757 0.10790075
-0.010686874 -0.022159338 -0.05865957 0.00908272 0.105639085 0.08314507 0.041869998 -0.11871311
-0.05594884 -0.028547615 0.059626028 -0.07295416 0.06658925 -0.040817887 0.08212267 -0.10691336
0.103001624 -0.09344618 -0.07910387 -0.04092121 0.0701026 0.11999136 -0.097942114 -0.075963244
-0.01659277 0.0535485 -0.073265135 -0.009408951 0.04802127 -0.12019998 0.115144 0.06522694
0.010136887 -0.089665726 -0.06322199 0.04476632 -0.061452717 -0.058453947 -0.07922283 0.076755226
-0.09051032 -0.10919592 -0.096846804 0.042799905 -0.06668168 0.07310818 0.109479934 -0.0026453584
0.10279554 0.09498793 -0.046331167 -0.124802485 0.12285724 0.12303619 0.030466989 -0.020261168
-0.0669056 -0.084774345 0.059129953 0.03913845 -0.043295667 -0.03056097 0.06879249 -0.032287374
-0.105410084 -0.010493949 0.10733637 -0.09108512 -0.06066306 -0.059718296 -0.06820887 -0.018116653
-0.08156456 0.01175949 0.12318699 -0.12323642 -0.068629876 0.099208966 0.07698354 -0.091957
-0.091041505 -0.066321105 0.04714203 0.102754414 0.07114965 -0.037801698 0.03762561 -0.012384638
-0.08096267 -0.051718116 -0.096015915 0.08372015 0.07452209 0.10671784 -0.118534476 -0.036862627
-0.11511752 0.11570196 -0.09129554 -0.05904062 -0.061491847 0.062206313 -0.123637185 -0.11861712
-0.007579401 0.06771748 0.049169973 0.02246444 -0.011199892 -0.004963726 0.124198586 0.10274978
-0.013734221 -0.07175559 -0.010625288 0.10168147 -0.07626273 0.021961823 -0.09218341 -0.02886653
-0.036848962 -0.036706388 -0.04195842 -0.038119674 0.06318635 0.057138234 0.05877261 -0.11073239
-0.04895909 -0.048666835 -0.07378933 -0.0047226995 -0.09057972 -0.0325159 -0.022788465 -0.09057665
0.05535485 0.0018010885 -0.09740582 -0.030896753 0.057917565 -0.0923368 -0.03775455 -0.028826356
0.05643852 0.021426663 0.10626915 -0.017192379 -0.039493963 0.03769633 0.1216993 0.11777896
0.109345764 0.05548629 -0.07205419 0.114925146 -0.036465794 -0.007467672 0.016795352 0.04519151
0.0892106 0.030421019 0.02149424 0.08758703 0.031740308 0.044193074 -0.047503293 -0.0791782
-0.01063697 -0.0074245483 0.11250287 0.12237941 0.056733355 0.000625208 0.044198558 0.10662344
0.029988661 0.049290717 -0.0034007728 0.012345538 0.015988767 -0.04245685 0.11684711 0.11047615
0.026898101 -0.012416914 0.09278265 -0.088760406 0.110673994 -0.031830892 -0.045842603 -0.023247704
-0.10608502 0.020032406 -0.12342319 -0.046607092 0.08602722 -0.04021892 0.03447999 -0.029959172
0.084709674 0.10830881 0.073421046 -0.02624932 0.05525446 0.027368814 -0.075085 -0.04427828
0.018066362 -0.06567454 -0.023220316 -0.0025741458 0.109693125 -0.016659394 -0.064103395 -0.0744113
00000000: ec96 86bd b031 7d3c 06d1 d23d e461 4bbd
00000010: 00bc c33c f6d6 c0bd 6062 4c3d 30a8 f4bd
00000020: 505d c63c 2c39 7e3d 6e1a 943d e0b2 eb3d
00000030: 4afb bdbd c0c1 623d e8fc a73d 18ed 96bd
00000040: 448f 283d c840 003d 40bb 9ebb c003 e93c
00000050: 40f6 79bc fce0 a9bd 9041 4f3d 88e4 a5bd
00000060: ca7b c03d c86a f83d b85d 733d 04c9 1bbd
00000070: 584e b43d b03c 343c eedf adbd a4da 1fbd
00000080: a8fa 0a3d 50af e5bc b891 a03d bc5b cdbd
00000090: 2c52 a03d cc5b 493d 8054 333d 12fb dc3d
000000a0: 0018 2fbc 8087 b5bc 0445 70bd b0cf 143c
000000b0: 4e59 d83d f647 aa3d e07f 2b3d dc1f f3bd
000000c0: 9c2a 65bd b0dc e9bc 6c3a 743d fe68 95bd
000000d0: f25f 883d a830 27bd ee2f a83d 64f5 dabd
000000e0: 84f2 d23d b660 bfbd 3601 a2bd 009d 27bd
000000f0: f491 8f3d 08be f53d e095 c8bd 9e92 9bbd
00000100: 90ed 87bc ac55 5b3d 080c 96bd 0028 1abc
00000110: f4b1 443d 682b f6bd 9ed0 eb3d b495 853d
00000120: 3015 263c aaa2 b7bd 887a 81bd e45c 373d
00000130: d8b5 7bbd 686d 6fbd 943f a2bd d831 9d3d
00000140: 7a5d b9bd 1ca2 dfbd 9e57 c6bd f44e 2f3d
00000150: 6890 88bd beb9 953d 0437 e03d c05d 2dbb
00000160: 7886 d23d 0889 c23d c0c5 3dbd 7298 ffbd
00000170: 949c fb3d 66fa fb3d e895 f93c c0fa a5bc
00000180: ce05 89bd 2c9e adbd 4032 723d a44f 203d
00000190: cc56 31bd 005b fabc 14e3 8c3d c43f 04bd
000001a0: 3ee1 d7bd d0ee 2bbc 2cd3 db3d d68a babd
000001b0: d479 78bd 2c9b 74bd 18b1 8bbd 6069 94bc
000001c0: 520b a7bd e0aa 403c 7649 fc3d 6063 fcbd
000001d0: d28d 8cbd 122e cb3d 8ca9 9d3d f453 bcbd
000001e0: f873 babd 5cd3 87bd 0018 413d e870 d23d
000001f0: e8b6 913d f4d5 1abd 501d 1a3d f0e8 4abc
00000200: c2cf a5bd 60d6 53bd fea3 c4bd 7875 ab3d
00000210: 0a9f 983d e28e da3d 34c2 f2bd 44fd 16bd
00000220: bcc2 ebbd 26f5 ec3d 28f9 babd 94d4 71bd
00000230: e0de 7bbd 0ccc 7e3d 7e35 fdbd 88ed f2bd
00000240: a05c f8bb 76af 8a3d 7466 493d 5807 b83c
00000250: c07f 37bc c0a6 a2bb d45b fe3d 7a6e d23d
00000260: 8005 61bc 98f4 92bd b015 2ebc 603e d03d
00000270: a22f 9cbd 48e9 b33c a8ca bcbd 8079 ecbc
00000280: f0ee 16bd 7059 16bd 98dc 2bbd 6023 1cbd
00000290: d867 813d c809 6a3d 8cbb 703d aac7 e2bd
000002a0: 5489 48bd e056 47bd dc1e 97bd e0c0 9abb
000002b0: dc81 b9bd 642f 05bd e0ae babc 4080 b9bd
000002c0: c4bb 623d 8012 ec3a b47c c7bd 301b fdbc
000002d0: f83a 6d3d 141b bdbd 84a4 1abd 4025 ecbc
000002e0: 142c 673d f886 af3c a4a3 d93d 08d7 8cbc
000002f0: 6cc4 21bd 7867 1a3d 7c3d f93d 1836 f13d
00000300: acf0 df3d 9845 633d 2691 93bd e05d eb3d
00000310: 285d 15bd 60b3 f4bb 6896 893c bc1a 393d
00000320: 0cb4 b63d 8035 f93c b014 b03c d460 b33d
00000330: 2002 023d cc03 353d d092 42bd 2e28 a2bd
00000340: b046 2ebc a049 f3bb e867 e63d 0ea2 fa3d
00000350: 3c61 683d 00e5 233a 8c09 353d 645d da3d
00000360: c8aa f53c 10e5 493d 80df 5ebb f044 4a3c
00000370: e0fa 823c 3ce7 2dbd 8a4d ef3d 5241 e23d
00000380: 6859 dc3c 5070 4bbc d404 be3d 04c8 b5bd
00000390: 0ca9 e23d 1c61 02bd 74c5 3bbd f871 bebc
000003a0: 1a43 d9bd 001b a43c 4cc5 fcbd 14e7 3ebd
000003b0: 0a2f b03d 98bc 24bd e43a 0d3d f06c f5bc
000003c0: 447c ad3d 02d1 dd3d c65d 963d d008 d7bc
000003d0: 8052 623d 9034 e03c 2ac6 99bd 245d 35bd
000003e0: e8ff 933c 6080 86bd 8838 bebc 00b3 28bb
000003f0: caa6 e03d 4879 88bc a448 83bd f464 98bd

lstm.weight_ih_l1 f4 [256, 64]
0.044042576 0.115619645 -0.079556465 -0.06832335 -0.04695642 0.09716207 -0.035977855 0.07816452
0.113295004 -0.05268413 0.04016103 -0.07493262 0.13945028 0.0879537 0.0013360232 -0.10775754
-0.058462024 0.06645578 0.089426234 -0.076905444 0.14484264 0.095513195 0.0028056651 -0.06401563
0.019942075 -0.08696614 0.025049806 -0.07943423 -0.043256797 -0.11201027 0.10698688 0.11446607
0.11779888 -0.052390203 -0.06855391 -0.054255985 -0.0053732246 -0.0062474906 0.003578052 0.13355608
0.032288 0.1145767 -0.09482087 -0.081882834 0.09544429 -0.027972937 0.10974306 -0.118353754
-0.07703917 0.030707836 0.0067431857 -0.031429082 -0.036323532 -0.09939577 -0.07733101 0.08963968
-0.055096105 0.059110045 0.010811741 -0.06183192 0.05606793 -0.03872526 -0.0750979 0.027798235
-0.121737525 -0.0019901544 0.05319597 -0.0055670426 0.11366281 -0.005278975 -0.08066322 -0.0012847781
-0.11252481 0.0509464 -0.06594813 -0.026716903 -0.07908391 0.036214832 -0.06677793 -0.026437774
0.021985978 -0.072913796 0.095186114 0.012757018 -0.087485656 0.05950698 0.017325252 0.048309416
0.05171676 -0.07633026 -0.029159158 -0.01189658 0.045524925 -0.11735159 -0.08589953 0.042409122
0.024388507 0.02364849 -0.013209134 -0.019683808 0.0879886 -0.036819488 -0.031746477 0.06156341
0.05323328 -0.106695876 0.005294025 0.03441888 0.036495656 0.06678288 0.09744714 -0.10583159
-0.07865034 -0.110051915 0.047304545 -0.050139412 -0.09294231 -0.073465854 -0.056590408 0.011817992
0.0170134 0.0023181885 -0.10743201 -0.05242376 0.122329816 -0.10101433 0.0034350306 -0.04420134
-0.031374585 0.08844511 0.11994001 0.047003087 -0.05559461 0.1199429 0.08623941 -0.081649154
0.103802904 0.0058008134 0.12205793 -0.05332674 -0.027627844 -0.07491682 -0.08891679 0.030920893
0.00063693523 0.021094874 -0.06691754 0.008929804 0.0031363717 0.08498014 -0.021430746 0.08899924
-0.066700295 0.06774534 0.06335029 0.11409049 -0.016921533 0.08977513 0.059490383 0.11853653
-0.040294796 -0.025401026 0.095348984 0.07397531 -0.011841834 0.009646744 0.069755614 -0.01384047
-0.045454174 -0.11716242 0.10089858 0.104853034 0.123213574 0.08444941 -0.029606335 -0.026534066
0.11343922 0.11599329 -0.12296956 -0.007899359 -0.0041657537 0.05451797 -0.04545282 0.07514617
0.013687193 0.03626144 0.025386129 0.098729715 -0.09725669 -0.11886945 -0.042473957 0.0069226297
0.013337218 -0.021548152 0.031787172 0.13366978 -0.057336956 -0.030117035 0.10052791 -0.073054194
0.09756392 -0.079260185 -0.071838304 0.0055217147 0.061982084 -0.12501329 -0.041924864 0.11110303
-0.036860526 -0.0018975139 0.08394244 -0.08842389 0.014633384 -0.060674552 0.07674578 -0.041459605
0.110624835 -0.113094136 -0.022126198 -0.0393202 -0.1031046 0.02024816 -0.111760065 -0.021747425
0.0018083602 0.07565589 0.038351357 -0.026064882 -0.10337713 -0.006539449 -0.07199274 0.07211835
0.07305974 -0.020373568 -0.049822196 -0.0019001812 0.0234112 0.08992368 0.02694284 -0.10431872
0.08888222 -0.08825134 0.017179566 0.07502706 0.026742324 0.04363592 -0.036261067 -0.021894827
0.10133827 0.019383252 0.106722444 -0.11770551 0.075493366 -0.033195984 0.09619367 -0.015328774
00000000: fd65 343d fec9 ec3d 80ee a2bd 1ded 8bbd
00000010: 6055 40bd e8fc c63d 845d 13bd b814 a03d
00000020: 3607 e83d 50cb 57bd e47f 243d 4676 99bd
00000030: 0ecc 0e3e 1221 b43d 801d af3a fcaf dcbd
00000040: e075 6fbd f819 883d 1a25 b73d 9a80 9dbd
00000050: a151 143e 6c9c c33d 40df 373b a01a 83bd
00000060: 905d a33c 4e1b b2bd 4035 cd3c 6aae a2bd
00000070: 0a2e 31bd a465 e5bd f01b db3d 306d ea3d
00000080: 8a40 f13d 1c97 56bd fe65 8cbd 863b 5ebd
00000090: e011 b0bb c0b7 ccbb c07d 6a3b edc2 083e
000000a0: 6c40 043d 30a7 ea3d 7231 c2bd 30b2 a7bd
000000b0: 4c78 c33d 8027 e5bc f8c0 e03d 7463 f2bd
000000c0: b6c6 9dbd 008f fb3c f1f5 dc3b c8bb 00bd
000000d0: fcc7 14bd 0290 cbbd b85f 9ebd 0295 b73d
000000e0: 74ac 61bd 601d 723d bb23 313c 7843 7dbd
000000f0: 7ca7 653d 619e 1ebd eecc 99bd 20b9 e33c
00000100: 8651 f9bd 406d 02bb 04e4 593d bd6b b6bb
00000110: 0cc8 e83d 40fb acbb c232 a5bd 0066 a8ba
00000120: 6873 e6bd 2cad 503d d00f 87bd 68dd dabc
00000130: bff6 a1bd 0156 143d dec2 88bd 0894 d8bc
00000140: f01b b43c d453 95bd f0f0 c23d d002 513c
00000150: ae2b b3bd 97bd 733d b0ed 8d3c 18e0 453d
00000160: f4d4 533d 0a53 9cbd 30df eebc e0e9 42bc
00000170: 5878 3a3d 0856 f0bd 18ec afbd 30b5 2d3d
00000180: 68ca c73c 7aba c13c 206b 58bc f03f a1bc
00000190: 5e33 b43d 08d0 16bd 9808 02bd ea29 7c3d
000001a0: 240b 5a3d 5e83 dabd 8079 ad3b d0fa 0c3d
000001b0: 787c 153d 76c5 883d 5e92 c73d 3cbe d8bd
000001c0: 6e13 a1bd e662 e1bd 69c2 413d fc5e 4dbd
000001d0: 8a58 bebd 4475 96bd 58cb 67bd 40a0 413c
000001e0: b05f 8b3c c0ec 173b 5005 dcbd 4cba 56bd
000001f0: 0e88 fa3d 9ae0 cebd 401e 613b 770c 35bd
00000200: a382 00bd b622 b53d 1ca3 f53d 4f86 403d
00000210: 2cb7 63bd a0a4 f53d 4a9e b03d ac37 a7bd
00000220: 9e96 d43d c014 be3b 82f9 f93d 246d 5abd
00000230: ca53 e2bc fd6d 99bd 021a b6bd d04d fd3c
00000240: 00f8 263a 28cf ac3c 100c 89bd 504e 123c
00000250: 968b 4d3b 110a ae3d 888f afbc 3c45 b63d
00000260: 2a9a 88bd 12be 8a3d ccbd 813d 46a8 e93d
00000270: 079f 8abc 06dc b73d 30ac 733d 48c3 f23d
00000280: 280c 25bd d015 d0bc 5446 c33d 5e80 973d
00000290: 4004 42bc 600d 1e3c 08dc 8e3d 24c3 62bc
000002a0: 282e 3abd daf2 efbd eaa3 ce3d 30bd d63d
000002b0: 6657 fc3d d0f3 ac3d fc88 f2bc f85d d9bc
000002c0: d252 e83d e48d ed3d 77d7 fbbd 506c 01bc
000002d0: e080 88bb 3c4e 5f3d bc2c 3abd 3ce6 993d
000002e0: 4040 603c e086 143d 92f6 cf3c ce32 ca3d
000002f0: 842e c7bd d471 f3bd 2cf9 2dbd 3ad7 e23b
00000300: 5984 5a3c c085 b0bc 4433 023d bbe0 083e
00000310: 28da 6abd 00b8 f6bc 94e1 cd3d 709d 95bd
00000320: 98cf c73d 2a53 a2bd f61f 93bd 80ef b43b
00000330: ede0 7d3d 7c03 00be 68b9 2bbd fc89 e33d
00000340: 10fb 16bd 00b6 f8ba 04ea ab3d 9617 b5bd
00000350: dcc0 6f3c e185 78bd e42c 9d3d 8cd1 29bd
00000360: 468f e23d e69d e7bd 0042 b5bc 380e 21bd
00000370: 8128 d3bd 78df a53c 76e2 e4bd a827 b2bc
00000380: 8006 ed3a 7af1 9a3d 5016 1d3d 0586 d5bc
00000390: 64b7 d3bd e048 d6bb ee70 93bd c9b2 933d
000003a0: 58a0 953d 78e6 a6bc 5c12 4cbd 800f f9ba
000003b0: d8c8 bf3c e829 b83d 3bb7 dc3c 0ea5 d5bd
000003c0: e207 b63d 1ebd b4bd 29bc 8c3c caa7 993d
000003d0: b812 db3c 94bb 323d 7c86 14bd c85c b3bc
000003e0: 708a cf3d a0c9 9e3c 4c91 da3d 960f f1bd
000003f0: 449c 9a3d 83f8 07bd 3001 c53d 8a25 7bbc

lstm.weight_hh_l1 f4 [256, 64]
0.09286563 0.009519631 0.043214485 0.098830506 -0.028480368 -0.017589116 0.15306449 0.050727688
0.07318866 0.060220234 0.1259742 -0.024170803 0.09015438 -0.0812007 -0.05440337 0.06465317
-0.07765104 0.13867374 -0.01753298 0.12169781 0.031347565 0.056845166 -0.0121963695 0.06674364
-0.015500774 -0.008104384 -0.07822512 0.04375369 0.08079519 0.0064173318 0.049700428 -0.02225715
0.017807644 0.13450356 -0.05359783 0.086073175 -0.00033350094 0.14379832 0.0022225028 0.1510258
-0.051023033 0.07132094 0.06716965 0.054859646 0.018922191 -0.04034282 0.035710614 -0.071382225
-0.014314025 -0.03603545 0.10743706 -0.04585538 -0.02438875 0.0017678513 0.065083615 0.049443536
-0.010932206 0.034697637 -0.108474106 0.0038133021 -0.06341584 0.072256915 -0.03226103 0.0545753
-0.0069358293 -0.04694665 0.13524544 0.12874986 0.08961039 -0.1364254 0.08357151 -0.0049000527
0.010161825 -0.06923923 0.035248633 -0.047528185 0.022556948 0.09998388 0.12535326 0.045525797
0.03345029 -0.042513758 0.07395713 0.08314211 0.0840452 -0.0022673805 0.031847704 -0.07029666
-0.051816925 -0.081272885 0.024244236 -0.043369155 -0.09680427 -0.043286268 0.047098264 -0.06716598
-0.022850145 0.0680259 -0.01847009 0.026371233 0.06075545 -0.09279267 -0.0009243661 -0.053800758
0.056168996 0.055495594 -0.0073687676 0.0390317 0.033109475 0.034942463 -0.036011234 0.045728482
0.018895365 -0.10495106 0.13549927 0.03147284 -0.08375235 0.028231986 0.06601702 0.05910188
-0.017737867 -0.021674171 -0.029956626 0.019375117 0.034851514 0.09996725 -0.037152153 -0.06345836
0.079129785 0.027675292 -0.055912606 -0.013647278 0.09510367 0.093321435 0.101083234 0.11673575
0.05121286 -0.008201529 -0.05963431 -0.118575186 0.06797295 0.05992133 0.11081688 -0.117615536
0.11175543 0.036508806 -0.09975935 0.014712641 0.09194162 -0.06204242 0.09139796 0.07292946
0.09402119 0.11841923 0.11719381 -0.040629577 0.059466396 -0.054863323 0.02535646 -0.049944937
0.012850348 -0.03306425 -0.05489312 -0.062308665 -0.08480693 -0.08958293 -0.005583413 0.07372016
-0.00081490463 0.020103276 -0.03443892 -0.099553265 -0.027801996 0.009513681 -0.10654751 0.035334136
-0.113975406 -0.004894247 0.029539546 -0.09943968 0.035943072 -0.14063546 0.048965406 -0.016525205
0.014038773 -0.13698882 -0.07443917 -0.060138084 -0.0041230065 0.030608147 -0.08393671 -0.12495963
-0.099569395 0.07498268 -0.027519386 0.017046802 0.0848882 -0.09918908 -0.004252305 0.1472093
-0.072462745 -0.0947375 0.026947135 -0.0022921036 -0.061617654 -0.037899792 0.098026805 -0.003426719
0.029301716 -0.10599766 0.02996264 0.05308234 -0.09781922 -0.021238513 0.079581894 -0.016600462
-0.095290795 0.06347171 0.035730235 -0.012146333 0.0060088267 0.08926661 0.1356202 0.090278715
0.054524895 -0.0189947 0.06560523 -0.056772895 0.11561954 0.115583025 -0.076443285 0.08566575
-0.119223855 0.13729341 0.03396031 0.055630267 -0.08983333 0.095361575 0.010996122 0.11130718
-0.058344167 0.019664276 -0.052050434 0.05497946 0.09311766 -0.048881598 0.0037556242 -0.14403896
-0.014361634 -0.086348295 0.057597525 0.10630735 -0.069555156 -0.056806274 0.03079355 0.05553058
00000000: 5630 be3d 3af8 1b3c ac01 313d a667 ca3d
00000010: a94f e9bc 0d17 90bc f0bc 1c3e d6c7 4f3d
00000020: f0e3 953d 7ea9 763d 61ff 003e d901 c6bc
00000030: dca2 b83d 8d4c a6bd 11d6 5ebd e268 843d
00000040: 8207 9fbd 7d00 0e3e 53a1 8fbc b43c f93d
00000050: 4e66 003d 7ad6 683d 48d3 47bc e4b0 883d
00000060: f5f6 7dbc 40c8 04bc 7e34 a0bd 1237 333d
00000070: f377 a53d 7b48 d23b ad92 4b3d a054 b6bc
00000080: 56e1 913c 4dbb 093e 6689 5bbd 2247 b03d
00000090: bdd9 aeb9 de3f 133e 69a7 113b 82a6 1a3e
000000a0: 87fd 50bd b710 923d 3e90 893d 82b4 603d
000000b0: b602 9b3c 833e 25bd 4b45 123d d830 92bd
000000c0: 5f85 6abc e899 13bd f607 dc3d dad2 3bbd
000000d0: eaca c7bc 3fb7 e73a 8f4a 853d 4e85 4a3d
000000e0: ff1c 33bc 1c1f 0e3d ac27 debd 98e8 793b
000000f0: 2ae0 81bd 6ffb 933d 2424 04bd 5a8a 5f3d
00000100: f445 e3bb 214b 40bd c87d 0a3e 01d7 033e
00000110: a785 b73d 1ab3 0bbe 8a27 ab3d 9f90 a0bb
00000120: c97d 263c 4ccd 8dbd df60 103d eaac 42bd
00000130: 59c9 b83c 59c4 cc3d 9b5c 003e 4279 3a3d
00000140: 2c03 093d e822 2ebd d676 973d 6946 aa3d
00000150: e41f ac3d 5598 14bb bd72 023d b2f7 8fbd
00000160: fc3d 54bd 6672 a6bd d99b c63c dba3 31bd
00000170: 5141 c6bd f14c 31bd 1cea 403d 518e 89bd
00000180: 3a30 bbbc 2a51 8b3d 964e 97bc 7c08 d83c
00000190: b5da 783d 150a bebd 2951 72ba 2f5e 5cbd
000001a0: 7611 663d 594f 633d b475 f1bb b4df 1f3d
000001b0: cd9d 073d d41f 0f3d 8480 13bd ca4d 3b3d
000001c0: 74ca 9a3c 95f0 d6bd 52c0 0a3e aae9 003d
000001d0: 5a86 abbd c446 e73c ee33 873d d014 723d
000001e0: 014f 91bc 088e b1bc 9967 f5bc 91b8 9e3c
000001f0: 76c0 0e3d a1bb cc3d db2c 18bd 75f6 81bd
00000200: cc0e a23d 4bb7 e23c 9e04 65bd d598 5fbc
00000210: b7c5 c23d 4f1f bf3d ba04 cf3d 2713 ef3d
00000220: 93c4 513d b55f 06bc 1b43 74bd 8cd7 f2bd
00000230: 6735 8b3d 1270 753d f6f3 e23d 6ae0 f0bd
00000240: 08e0 e43d 428a 153d a14e ccbd 4a0d 713c
00000250: e34b bc3d 3120 7ebd db2e bb3d 0a5c 953d
00000260: 2f8e c03d c885 f23d 4f03 f03d 336b 26bd
00000270: 0993 733d 5db8 60bd 5ab8 cf3c 1093 4cbd
00000280: 448a 523c 616e 07bd 9cd7 60bd 5f37 7fbd
00000290: 41af adbd 4177 b7bd 10f5 b6bb 98fa 963d
000002a0: 539f 55ba a0af a43c d30f 0dbd 95e2 cbbd
000002b0: 03c1 e3bc 45df 1b3c 9535 dabd 87ba 103d
000002c0: f06b e9bd eb5f a0bb ebfc f13c 08a7 cbbd
000002d0: 0b39 133d be02 10be f38f 483d de5f 87bc
000002e0: e202 663c cc46 0cbe 9073 98bd 5a53 76bd
000002f0: 491a 87bb f0bd fa3c 03e7 abbd d6ea ffbd
00000300: 0aeb cbbd 8590 993d 5670 e1bc bca5 8b3c
00000310: ddd9 ad3d a523 cbbd eb56 8bbb 09be 163e
00000320: 5967 94bd bc05 c2bd 3dc0 dc3c 1e37 16bb
00000330: cb62 7cbd d03c 1bbd 47c2 c83d ce92 60bb
00000340: 270a f03c 4d15 d9bd 3674 f53c de6c 593d
00000350: 7155 c8bd 64fc adbc d5fb a23d b1fd 87bc
00000360: d227 c3bd 75fd 813d de59 123d 6a01 47bc
00000370: b1e5 c43b 6ad1 b63d 06e0 0a3e 0ce4 b83d
00000380: 7f55 5f3d c69a 9bbc 095c 863d b28a 68bd
00000390: f0c9 ec3d cbb6 ec3d 4c8e 9cbd 8671 af3d
000003a0: a32b f4bd a596 0c3e f719 0b3d 90dc 633d
000003b0: 89fa b7bd ee4c c33d 1429 343c 05f5 e33d
000003c0: 4bfa 6ebd fa16 a13c d632 55bd 2432 613d
000003d0: 79b4 be3d 1238 48bd eb20 763b f37e 13be
000003e0: 0f4d 6bbc 60d7 b0bd 62eb 6b3d abb7 d93d
000003f0: ef72 8ebd b2ad 68bd c142 fc3c 0974 633d

lstm.bias_ih_l1 f4 [256]
0.11598111 -0.048751015 -0.018020738 -0.03810637 0.107198514 0.024835795 -0.06349742 0.09548101
0.09283972 -0.036406014 -0.09584484 0.03225738 0.13885121 -0.089972645 -0.07473602 0.12259824
-0.012908412 -0.013338667 0.11406295 0.0033935406 0.05851163 -0.095987275 0.040439576 -0.0070315707
0.060909707 -0.032915153 0.08917503 -0.026217513 -0.068365835 -0.10306902 0.024066003 -0.038440764
0.012579365 0.12299791 -0.08561783 0.105914965 -0.039907716 -0.054392096 -0.08933432 0.114757836
0.11164013 0.019630935 -0.09831898 -0.018440401 0.11186237 0.029011607 0.08108636 -0.08539313
0.1003262 -0.018812759 0.092330724 -0.03288538 -0.11560603 0.08377668 0.0069334577 -0.01772834
0.080371425 -0.06981167 0.09810745 -0.021573344 -0.04705121 0.13737276 -0.03056595 0.08342087
-0.05792843 -0.09906759 0.13203438 0.090067156 0.09112852 0.036915813 0.1405974 0.12855726
0.1188401 0.104761675 -0.0468034 0.0040586777 0.007770801 -0.0075578964 0.043070093 0.13647197
0.12222678 -0.027481947 -0.08356573 -0.045710485 0.0889486 0.0532103 -0.07707809 -0.11524318
-0.09055112 0.02993485 -0.035149965 -0.07192337 0.09408947 -0.0952938 -0.07223157 0.0656145
0.0048237145 0.08198412 -0.100533724 0.03997014 0.111346155 -0.09814684 -0.01990667 0.11176421
-0.0069496846 -0.08469894 0.06760063 -0.03973751 -0.010606257 -0.028435487 -0.09948663 0.029590404
-0.07714378 -0.085801125 -0.030500103 -0.04985961 -0.08654316 -0.0029310524 -0.021206407 -0.060952034
0.0063024703 -0.051682033 0.032529082 0.076621205 0.10986467 -0.05239389 0.09156318 0.07171995
-0.07849203 -0.050294742 0.12424692 -0.013946783 -0.008058499 -0.053634297 -0.08550257 -0.08630623
0.043308645 0.035288885 -0.016422495 -0.02963499 0.056301925 0.0071895304 0.11938629 -0.026677242
0.0033664287 0.1270741 0.070588686 0.08276117 -0.032131806 0.08328059 0.070523925 0.07091199
0.046066176 0.11725886 0.07475595 0.0167637 0.09504751 0.037741836 0.08942189 0.0047805
-0.08891857 0.04139086 0.020577474 -0.10383557 -0.030362427 0.13167204 0.107653014 -0.042258486
-0.07312873 -0.041873228 0.06895463 -0.095145255 0.14585638 -0.060661227 0.093007706 0.060433004
0.07968996 0.09932452 0.026613439 0.08596289 0.060548957 -0.13266177 -0.06314902 -0.00645229
-0.10811664 0.1038915 0.0084961755 0.018750856 -0.07460399 -0.08662419 0.117043905 -0.11125133
0.019487217 0.12383435 0.08322883 0.03135058 0.11266876 0.10992284 -0.03929836 -0.04281617
0.15125307 -0.036104895 0.0198649 0.047183357 0.10306329 -0.08648919 0.11297696 -0.062044144
-0.07969105 -0.022626964 -0.012457187 0.08632928 0.11370794 0.06411926 -0.06736725 0.010486191
-0.053766306 -0.0019210492 0.14509778 -0.052232973 -0.06366597 -0.04100844 -0.02329122 0.04713616
0.12712286 -0.114377595 -0.10824732 0.029526861 -0.117060415 0.14331213 0.09122718 0.08908849
0.056544557 0.08987038 0.1204548 -0.0065912968 0.073083855 -0.020535544 0.1457876 -0.031829957
0.094722554 0.11044408 -0.05082087 0.07643299 0.052853398 0.03158126 -0.03135784 0.07815393
-0.070958205 0.037430618 -0.07712153 0.15614499 0.006750505 0.15205237 -0.0571795 0.06371547
00000000: 8187 ed3d 25af 47bd 3aa0 93bc 6d15 1cbd
00000010: e58a db3d 7074 cb3c ef0a 82bd 8c8b c33d
00000020: c022 be3d 791e 15bd 4d4a c4bd 5120 043d
00000030: 032f 0e3e 9443 b8bd 330f 99bd c914 fb3d
00000040: ce7d 53bc 6d8a 5abc d699 e93d 2a66 5e3b
00000050: e4a9 6f3d fa94 c4bd f8a3 253d 1769 e6bb
00000060: 757c 793d 0ad2 06bd 66a1 b63d 1cc6 d6bc
00000070: 6303 8cbd da15 d3bd 1126 c53c 1074 1dbd
00000080: ae19 4e3c 54e6 fb3d 6758 afbd f2e9 d83d
00000090: 4676 23bd 3fca 5ebd e9f4 b6bd 2806 eb3d
000000a0: 95a3 e43d 0ed1 a03c 765b c9bd 5310 97bc
000000b0: 1918 e53d c0a9 ed3c 9b10 a63d 98e2 aebd
000000c0: d377 cd3d 371d 9abc e417 bd3d d2b2 06bd
000000d0: dbc2 ecbd 1c93 ab3d 0f32 e33b 063b 91bc
000000e0: c699 a43d 6cf9 8ebd 8fec c83d 95ba b0bc
000000f0: c5b8 40bd 72ab 0c3e 7165 fabc 90d8 aa3d
00000100: 5d46 6dbd f3e3 cabd 0534 073e 2175 b83d
00000110: 97a1 ba3d 0935 173d c4f8 0f3e 84a4 033e
00000120: 7062 f33d 4a8d d63d ecb4 3fbd a8fe 843b
00000130: 34a2 fe3b 3ba8 f7bb 446a 303d 4fbf 0b3e
00000140: 0952 fa3d d221 e1bc 8224 abbd eb3a 3bbd
00000150: af2a b63d 0bf3 593d 1edb 9dbd 9e04 ecbd
00000160: de72 b9bd ee39 f53c 69f9 0fbd 8f4c 93bd
00000170: fbb1 c03d 6529 c3bd 25ee 93bd e560 863d
00000180: 4010 9e3b 4ae7 a73d a0e4 cdbd bbb7 233d
00000190: 7409 e43d 3601 c9bd 5013 a3bc a2e4 e43d
000001a0: 2eba e3bb a376 adbd 3372 8a3d cdc3 22bd
000001b0: dec5 2dbc 8af1 e8bc a5bf cbbd 9367 f23c
000001c0: 8ffd 9dbd 80b8 afbd 5adb f9bc 9739 4cbd
000001d0: 8a3d b1bd e616 40bb 0fb9 adbc d7a8 79bd
000001e0: f484 ce3b 8ab0 53bd 373d 053d 94eb 9c3d
000001f0: ba00 e13d fa9a 56bd 7a85 bb3d e9e1 923d
00000200: 6ec0 a0bd dc01 4ebd 2b75 fe3d 0c81 64bc
00000210: cb07 04bc a3af 5bbd f91b afbd 52c1 b0bd
00000220: 6864 313d 148b 103d 7888 86bc 14c5 f2bc
00000230: d99c 663d 2796 eb3b cd80 f43d 3b8a dabc
00000240: 4d9f 5c3b b61f 023e cd90 903d b07e a93d
00000250: a49c 03bd 048f aa3d d96e 903d 4e3a 913d
00000260: e3af 3c3d 6a25 f03d a619 993d 0754 893c
00000270: 45a8 c23d 2f97 1a3d d322 b73d bea5 9c3b
00000280: f01a b6bd 7689 293d 1792 a83c bea7 d4bd
00000290: a0ba f8bc 09d5 063e 2f79 dc3d 3c17 2dbd
000002a0: 84c4 95bd 4383 2bbd 1638 8d3d 84db c2bd
000002b0: 605b 153e e877 78bd d37a be3d 9988 773d
000002c0: 7d34 a33d a76a cb3d 6d04 da3c 500d b03d
000002d0: 2f02 783d 7dd8 07be 4654 81bd bb6d d3bb
000002e0: 426c ddbd 11c5 d43d 8b33 0b3c 659b 993c
000002f0: fac9 98bd 0668 b1bd b7b4 ef3d bdd7 e3bd
00000300: a8a3 9f3c dd9c fd3d e073 aa3d 7769 003d
00000310: e1be e63d 3a1f e13d 51f7 20bd 0260 2fbd
00000320: 16e2 1a3e bae2 13bd b7bb a23c 5643 413d
00000330: d912 d33d 3f21 b1bd 7760 e73d 0022 7ebd
00000340: 1035 a3bd 2f5c b9bc 3b19 4cbc 68cd b03d
00000350: b5df e83d f550 833d d7f7 89bd 46ce 2b3c
00000360: 0f3a 5cbd b7cb fbba 8394 143e 3ef2 55bd
00000370: 4e63 82bd 77f8 27bd 3bcd bebc d911 413d
00000380: 7f2c 023e cd3e eabd c5b0 ddbd 51e2 f13c
00000390: 5fbd efbd 6ac0 123e 51d5 ba3d 0774 b63d
000003a0: 449b 673d f60d b83d 02b1 f63d cefb d7bb
000003b0: fdac 953d 283a a8bc 5849 153e 2160 02bd
000003c0: e6fd c13d 8130 e23d 8b29 50bd e688 9c3d
000003d0: ce7c 583d 5a5b 013d 1471 00bd 2b0f a03d
000003e0: 8952 91bd d950 193d e5f1 9dbd 79e4 1f3e
000003f0: 5733 dd3b 9eb3 1b3e 0d35 6abd 427d 823d
