models/LINKUSDT_lstm_20250822_023233.pth (torch, 267829 bytes, 11 tensors)

lstm.weight_ih_l0 f4 [256, 53]
00000000: e032 71bc 406c 463d 606b c13b 5c63 e2bd
00000010: e013 983c c0df 393c 60b2 99bc f06b 28bc
00000020: 7cfc bd3d 6ade 9b3d 0ced 283d 9c6b aa3d
00000030: 0267 ad3d 54f2 5abd 9ca3 5d3d 5440 9cbd
00000040: 8e04 9b3d d477 363d 54ee 64bd 5c9b 313d
00000050: b02e 973c f032 953d c08c fa3d 889d 86bd
00000060: 34d6 fe3d 98b0 54bd c42f c53d 665c c3bd
00000070: b234 aabd 1613 b0bd 48e4 f1bc a05b ff3d
00000080: 50fc fb3d 383b eabc e0fc 8dbd f873 853c
00000090: d683 a0bd 3875 133d 903a e53d 406e f7bb
000000a0: e090 733c 00bd d03b 28e0 e33c a874 c53d
000000b0: 1cfa e43d 945a 0c3d ae82 b8bd 0618 c6bd
000000c0: d00d eebd 38ec bd3d 1cd6 23bd 5841 5ebd
000000d0: 48cf f6bc 20f0 b0bb 487a 033d 024a 823d
000000e0: 4c08 3cbd ba39 82bd 1ad5 f2bd 08fa aebc
000000f0: fc4b 65bd 1466 d13d dc8c 533d bc6c 8b3d
00000100: b896 ffbd d01a 6fbd e07f af3c 5c6d 4fbd
00000110: 68f4 b5bd 520f f2bd d411 48bd 14df 0c3d
00000120: a431 a1bd 10f8 e6bc fcc6 2dbd 1494 d63d
00000130: f077 c6bc 506d 83bc e4fa 80bd 5800 cdbc
00000140: ec4c 9d3d e8af d23d 80b7 973d b01d 2cbd
00000150: 8421 41bd 30ee 78bc f8e2 84bd 6092 043d
00000160: 00c4 dabc 7a62 b63d 5a06 febd d8aa dc3d
00000170: 2a04 d23d 6006 2a3d a04c 723d 60fc 4cbd
00000180: 26b6 d23d ca3c 993d 0031 1abd a086 4e3d
00000190: a021 a1bb c2bd bbbd f868 e9bd c016 a13d
000001a0: 0c23 6cbd a04f c03b a622 b9bd 889b 1e3d
000001b0: e430 dbbd 74b9 fbbd 682a 97bc 80bf 613d
000001c0: 90c3 7fbc 36c5 9dbd 0e22 eebd c008 2f3d
000001d0: 54bb 983d 182c 853c d0e5 d8bd b848 593d
000001e0: 401d 42bc 48d1 703d a872 c0bc 9290 f3bd
000001f0: 084c ab3d 36cd c63d b83c acbd f8d1 28bd
00000200: 620a 93bd de8b b63d dcef b7bd 4454 283d
00000210: d0fd 463c 402f de3c 6861 8f3d ea06 d1bd
00000220: 5c5e 79bd 204d e1bb d67e ba3d 4085 f3bc
00000230: a0fb d33b 7cbf 79bd 0aed 8bbd 40e6 bc3b
00000240: f06e e3bd de9a adbd 22b0 bc3d c40e ef3d
00000250: aacc c13d f425 40bd 54f5 ac3d 24dd 103d
00000260: 7c03 d33d 6c0b 2fbd e00a e03d e037 803c
00000270: 3218 c83d 4016 423b d05d b8bd 645e b9bd
00000280: 8ce5 f43d a4fe 5a3d 96f8 9f3d e4aa d43d
00000290: a22b bbbd 700c b73d d87f cbbc c8a2 a7bd
000002a0: 9699 e23d 0475 013d 2ced 1e3d 8071 073c
000002b0: 58a5 abbc 8496 f23d 9086 f6bd 8c1e 59bd
000002c0: 2892 f7bc c6f5 c6bd b80b 51bd 2014 bb3d
000002d0: 762b a5bd 9e60 b53d 2c7f 903d 5049 eebc
000002e0: a6d2 f53d b051 e83d e010 6e3c 00d6 e03b
000002f0: 24be 933d 02a3 843d 68cb b6bd 18af 393d
00000300: 82fb ecbd a4de 313d 86a3 d4bd f246 fc3d
00000310: 8403 f3bd cca6 783d e000 c13b 208d 183c
00000320: 404e 35bc 3c8d 7cbd a0dd 113d 28ab ddbc
00000330: b099 df3c cc52 82bd 48c9 0fbd f891 96bd
00000340: 282c b3bd 4891 cdbc c893 d13d b48e 31bd
00000350: fefa c53d e409 e03d e012 783c 886b cf3c
00000360: 0013 62bb 500e c4bc 80bb f73c 3ee2 e63d
00000370: 920a dcbd c0dd 45bc 5480 63bd ecc1 973d
00000380: 20a5 943c 04b6 b13d 088e bfbd 7a79 9b3d
00000390: 289e a13d 8877 eabc 90a4 1e3c 4085 fe3c
000003a0: 50d0 63bd b06a 0bbd d4d5 c03d b25b dabd
000003b0: 387f cf3d 581a 01bd 24bf 40bd f4d6 f9bd
000003c0: 801d 4c3d cc47 6e3d 6c37 7abd c8bf 5d3d
000003d0: dc1c 11bd 48dd bf3c 244b a33d 809b b0bc
000003e0: baeb f2bd bcfc 73bd 7880 c43d dc5b cdbd
000003f0: 84ac 06bd c0ef 67bd 241f 0f3d c229 8f3d
-0.014721602 0.04844308 0.0059026927 -0.110541075 0.018564165 0.01134485 -0.018761814 -0.010279641
0.09276673 0.076107815 0.04124169 0.08321306 0.08466913 -0.05345376 0.05411111 -0.07629457
0.07569228 0.04454787 -0.05589135 0.043361053 0.01845488 0.07285106 0.12233877 -0.065730155
0.124432 -0.051926225 0.09628251 -0.09539108 -0.08310832 -0.0859739 -0.029527798 0.12468648
0.12303984 -0.02859269 -0.06932998 0.01629065 -0.07837646 0.03600046 0.111928105 -0.0075509846
0.014866084 0.006370187 0.027816847 0.09641391 0.11180517 0.03426607 -0.090093 -0.09672551
-0.11623728 0.09273571 -0.039999112 -0.054261535 -0.030128136 -0.005399719 0.03209904 0.06361772
-0.04590635 -0.06358667 -0.11857052 -0.021359459 -0.055980667 0.10224548 0.051648006 0.06807849
-0.12479919 -0.05837518 0.02142328 -0.050641403 -0.088845074 -0.11819328 -0.048845127 0.03439243
-0.07870796 -0.028194457 -0.042426094 0.104774624 -0.024227113 -0.016043335 -0.062978536 -0.025024578
0.07680687 0.10287458 0.07408047 -0.0420205 -0.047151104 -0.015193507 -0.06488603 0.032366157
-0.026704788 0.08905502 -0.12403555 0.10774773 0.102547005 0.041509986 0.059155107 -0.05004537
0.10288648 0.07482298 -0.037644386 0.050421357 -0.0049173385 -0.09167053 -0.11396974 0.07865667
-0.05765061 0.005868867 -0.09039812 0.038722545 -0.107026845 -0.12291232 -0.018452838 0.05511427
-0.015610591 -0.077036306 -0.11627589 0.042732954 0.07457605 0.016256377 -0.10590708 0.053047866
-0.011847794 0.058793336 -0.023492172 -0.11892809 0.08364111 0.0970711 -0.08410019 -0.041215867
-0.07179715 0.08913396 -0.089812964 0.041095987 0.012145475 0.02712214 0.07001001 -0.10206397
-0.060881004 -0.006875649 0.09106223 -0.029726624 0.006469205 -0.06097363 -0.06832321 0.0057647526
-0.11105144 -0.08476804 0.09213282 0.11672738 0.09462865 -0.046911195 0.0844523 0.035367146
0.10303399 -0.042735502 0.10939574 0.015651643 0.0977024 0.0029615313 -0.09002268 -0.09051207
0.11957845 0.0534655 0.07811086 0.10384157 -0.09139182 0.08937919 -0.024841234 -0.08185345
0.110644504 0.031605735 0.038800403 0.008266807 -0.020952865 0.11845115 -0.120373845 -0.053007647
-0.03022106 -0.09714846 -0.051036566 0.09134698 -0.0806493 0.08856319 0.07055506 -0.029087692
0.120030686 0.11343706 0.0145303905 0.0068614483 0.07214001 0.06476404 -0.089255154 0.045332998
-0.11571409 0.043425217 -0.10382752 0.12318219 -0.11865905 0.060705945 0.005889997 0.009310991
-0.01106602 -0.06165813 0.03561175 -0.027059153 0.027294964 -0.063634485 -0.035104066 -0.0735206
-0.087486565 -0.02509369 0.10233265 -0.043348983 0.096670136 0.109393865 0.015141219 0.02531983
-0.0034496188 -0.023932606 0.030240774 0.11273621 -0.107442036 -0.012076795 -0.055542305 0.074100345
0.018145144 0.08677295 -0.09353262 0.07591529 0.07891494 -0.02862145 0.009682789 0.031069398
-0.055618584 -0.034037292 0.094157845 -0.10662021 0.10131687 -0.031519264 -0.047057286 -0.12199202
0.04983282 0.05817394 -0.06108801 0.054137975 -0.035427913 0.023420945 0.07973316 -0.021558523
-0.118613675 -0.0595672 0.09594816 -0.100272864 -0.032879367 -0.056625128 0.034941807 0.069903865

lstm.weight_hh_l0 f4 [256, 64]
00000000: a042 de3b 283b 633d e853 8e3c 2c45 ba3d
00000010: 8046 efba 2812 903d 0aaa ebbd 24b5 c3bd
00000020: d034 62bc b003 813d 80c2 e73b 88c2 8cbd
00000030: fad3 88bd 8031 91bd 7e45 a8bd 0694 cd3d
00000040: e4f6 193d 5026 a43c 080b 403d 2077 dbbd
00000050: 0035 9b3b 5089 16bc 2894 86bd e037 10bc
00000060: 86af c43d 784b b5bd c058 48bd 1056 28bd
00000070: f0db 1abc b820 e23c 0037 02bb 5028 9d3d
00000080: 44f4 453d 508e 7e3c daad b9bd 00a9 e53a
00000090: 0029 d33a 5a28 cfbd 0070 3e38 c040 a03d
000000a0: c493 c43d 00b6 95b9 742c 413d 087a c83d
000000b0: 44ec 9c3d ca6c adbd 28d4 00bd 101f 843d
000000c0: 34bc 4fbd feb8 8e3d c01d 4a3d 8e70 943d
000000d0: fc49 4cbd 2816 a9bc dcbe 10bd 76dc db3d
000000e0: 88c6 babc bc16 a63d 6e7e c53d 70e5 f5bc
000000f0: 7061 513c 4490 59bd 1880 6b3d 60e8 c23b
00000100: c0fd 143c 0437 5b3d 92f7 993d be93 a4bd
00000110: 6240 823d 60a0 a83b 989c e13d a08c 123c
00000120: 70b5 cfbc 4e59 8cbd e09e f2bd 00f8 ecb9
00000130: e003 653c 885f acbc 800f b63c 745c 1c3d
00000140: 5207 853d 80bd fb3b 6830 de3c b821 d9bd
00000150: cc15 043d ea86 9dbd 5425 2cbd 4253 cabd
00000160: cebd c73d 406e 79bb 5a69 e33d d0e4 d3bc
00000170: 8851 033d e4fd 80bd a2a7 e0bd 888b 023d
00000180: 00a0 37bc 0c1f 393d f0ed 07bc 80a8 0cbb
00000190: ec40 fdbd 109c d6bc 84b0 073d 68d4 6bbd
000001a0: 3cd1 c73d 5add c43d aa09 8d3d e0db 153d
000001b0: 24cc ab3d 24f4 f7bd 1cbf a23d 68dc c8bd
000001c0: 8417 2dbd 04d0 42bd 1047 fabd fc5f c5bd
000001d0: 7615 f7bd 20b5 483d 00d9 4bba 5efc b23d
000001e0: 98cf c33c e2f0 cbbd 0aff e0bd 60bf fabc
000001f0: 10bb e8bd 1c11 1abd 4afb 8d3d 9e2b 8bbd
00000200: fcde 103d fc16 8abd f85e a0bc a8cd 9ebd
00000210: f899 673d b869 9c3c de2d 94bd a258 e93d
00000220: e0a8 cb3b 1cbd 16bd c0de 2c3d 408b 5dbc
00000230: 5876 aabd d05e 8ebd c098 adbd 5e26 dbbd
00000240: cef9 a0bd a02e b13d 48b4 e9bd bea7 843d
00000250: a843 0f3d a65a e93d e443 883d a631 f3bd
00000260: 982c 303d b88f a83d 7afb cdbd 34c4 563d
00000270: 2cd5 433d a626 c5bd 50a6 7fbc 8851 663d
00000280: 0017 69ba 600d 97bb 1a07 f8bd c091 10bd
00000290: e004 603d 82c6 c5bd c4f7 3c3d d4ee d53d
000002a0: 781d b23c d070 323d 484f af3c 2061 a7bd
000002b0: a8b8 963c c6e0 f03d 6083 543c 5840 163d
000002c0: 8070 7bbb 2a81 e23d 5452 973d 10d9 c83d
000002d0: f850 d2bd 36c6 853d ec9c 77bd 7e77 ddbd
000002e0: c48c b9bd ca76 b63d 8458 f5bd 0894 dbbd
000002f0: f087 babc 1087 62bd 68da de3c f8eb 0dbd
00000300: 14eb 14bd 4e7c a6bd 4cff 6bbd 0894 efbd
00000310: 50db 1abc 6efb e3bd 90e9 bb3c 584d 353d
00000320: c04d f9bb 6044 f7bb f8ee b93c 34bf cfbd
00000330: 60ca 8bbd 7ce7 2f3d 8258 ce3d 32f0 f1bd
00000340: 008f 03bd 10ea 4bbc a40a cabd 806f 363b
00000350: f00f 513d b849 9cbc e4ff 5cbd 8065 073d
00000360: 9068 943c 20dc efbb 701f 513c f854 2f3d
00000370: c0cf 6e3c a8af 04bd 9c17 0b3d 9c2b 40bd
00000380: 6049 dd3d 80a5 b0bd e290 eebd 5444 82bd
00000390: 02f5 c53d 48f6 e73c f0c7 223c c8a2 ab3c
000003a0: 18ea 9e3c c83f d3bc 0065 77bd 2c36 d8bd
000003b0: a49d e23d 5e81 9fbd d055 2f3c c0c7 26bb
000003c0: 04d0 3fbd 5a85 d1bd 40ea f5bc e296 dcbd
000003d0: 7045 b23c d039 90bc 709f f9bd 601a aa3d
000003e0: a035 97bb 747f 4f3d f030 ccbc 445e 87bd
000003f0: ccec b5bd e89d 4dbd b6b4 86bd 320d c63d
0.0067828447 0.055476338 0.017373994 0.09095225 -0.0018255264 0.07034713 -0.11507042 -0.09556034
-0.013806537 0.062995315 0.0070727468 -0.068730414 -0.06681056 -0.070895195 -0.082163796 0.10037999
0.03758897 0.0200378 0.04688552 -0.10716081 0.0047365427 -0.009188011 -0.06571227 -0.008802384
0.09603791 -0.08852285 -0.048912764 -0.0410977 -0.009451851 0.027603492 -0.0019869208 0.076737046
0.048328653 0.01553686 -0.09066363 0.0017521679 0.0016110241 -0.10115118 4.5403838e-05 0.0782485
0.095984966 -0.00028555095 0.047161534 0.097889006 0.076622516 -0.084680155 -0.031452328 0.06451237
-0.050716594 0.06968878 0.049344778 0.072480306 -0.049875244 -0.020640448 -0.035338268 0.10735409
-0.022799745 0.08109805 0.09643255 -0.03001663 0.012779579 -0.053116098 0.057495207 0.0059481114
0.009093702 0.053519264 0.075179234 -0.08035992 0.06359936 0.0051460713 0.11016196 0.00894466
-0.02535507 -0.06852971 -0.11846709 -0.00045198202 0.013977975 -0.021041647 0.022224188 0.038174108
0.06495537 0.0076825023 0.027122691 -0.106021345 0.03224735 -0.076917484 -0.042027786 -0.098791614
0.09752999 -0.00380601 0.111040786 -0.025865942 0.032060176 -0.06298426 -0.109694734 0.03187135
-0.011207581 0.045195624 -0.008296475 -0.0021462739 -0.123658985 -0.026197463 0.033127323 -0.057575613
0.09756705 0.09612532 0.06886609 0.036586642 0.08388546 -0.12107113 0.079466075 -0.09807664
-0.042258754 -0.04756166 -0.12220585 -0.09637448 -0.1206464 0.04900086 -0.0007776171 0.087395415
0.0239027 -0.09958054 -0.10986145 -0.030608833 -0.11363804 -0.037613973 0.06932695 -0.06795429
0.035368904 -0.06742665 -0.019576535 -0.077540696 0.05654332 0.01909338 -0.07235311 0.113938585
0.0062152 -0.036801443 0.04220462 -0.013521969 -0.083233535 -0.06951678 -0.084764004 -0.10700677
-0.078601465 0.08651471 -0.11411339 0.06477307 0.03497663 0.11394243 0.06653574 -0.11874704
0.043011278 0.08230537 -0.10057731 0.052433208 0.04781072 -0.09626512 -0.015603617 0.056230098
-0.0008891672 -0.0046097487 -0.121107295 -0.035295248 0.05469215 -0.09657003 0.046134725 0.104459435
0.021742567 0.043564618 0.021400109 -0.08172822 0.018398598 0.11761622 0.012970775 0.036682457
-0.0038366616 0.11059792 0.0738875 0.098070264 -0.1026935 0.06531946 -0.060452387 -0.10813807
-0.09060052 0.08909376 -0.11979774 -0.10721594 -0.022769898 -0.055304587 0.027203754 -0.034648865
-0.036357 -0.08129178 -0.057616517 -0.116981566 -0.009451702 -0.11131941 0.02293852 0.044263214
-0.0076081455 -0.0075459927 0.022696957 -0.10143891 -0.06825709 0.04294537 0.10075475 -0.11813392
-0.032118797 -0.012445942 -0.09865311 0.0027837455 0.05104059 -0.01907812 -0.053954974 0.033055782
0.018116266 -0.007319942 0.012763843 0.042805642 0.014575899 -0.03239408 0.033958063 -0.04691659
0.10805011 -0.086253166 -0.11648728 -0.06360689 0.09665872 0.028315678 0.009935364 0.020951644
0.019398734 -0.02578725 -0.060399055 -0.105572075 0.11065224 -0.07788347 0.010701612 -0.002544865
-0.04682924 -0.10230513 -0.030018926 -0.10770966 0.021761626 -0.017605692 -0.121886134 0.08305812
-0.004614547 0.05065866 -0.024925679 -0.066097766 -0.08883056 -0.05019942 -0.065774366 0.096704856

lstm.bias_ih_l0 f4 [256]
00000000: c04a df3d d005 783d c60f b2bd ec56 d13d
00000010: 4472 96bd acb5 b0bd f06e ce3d d0ba f6bd
00000020: 6667 c2bd 001c f6b9 709c e83d f07c c03c
00000030: 5e2a 8ebd b461 2cbd e641 8fbd 38d2 4c3d
00000040: 2c87 2d3d f060 39bc 5817 033d 8087 abbd
00000050: 7680 80bd b075 3cbc 9212 b1bd 2cee c23d
00000060: 5a63 ecbd 725f ccbd 4ae5 983d 48e2 b83d
00000070: c6c9 863d 88bd ca3c 2871 033d 7c8d 1abd
00000080: c84a 8abd a898 2bbd 2233 f33d 0ce4 1bbd
00000090: 00a2 42bb 48c3 4b3d a0ab 34bc 14d8 353d
000000a0: 5025 56bc 0861 193d 98d3 7abd a2a7 dcbd
000000b0: 0835 77bd c0f5 8f3d ce88 8bbd a07d 4c3d
000000c0: ec1e 8c3d 66f5 d53d 189f 81bd 80c1 243c
000000d0: cc03 4bbd 5c63 e23d 30fe 7e3c 4c6a ec3d
000000e0: 8e20 ad3d 2858 61bd 3c84 3ebd e855 46bd
000000f0: 5027 fb3d 88f5 57bd 30df a9bc 88fb dc3c
00000100: a0b6 d6bb c034 413c a8fc 8d3d 989c 863d
00000110: 98a4 983c 28e2 a63d 28d2 42bd 7206 bcbd
00000120: 486f 65bd 749d 713d f8ab f3bd f4f3 15bd
00000130: ec8e 4abd 1003 5f3c 58e6 a83c a84e 5bbd
00000140: 587f cfbc f421 56bd 00fb d63b 3ca2 d2bd
00000150: f050 c7bd c0af a8bb 1cd1 8f3d f48b e1bd
00000160: 46e1 e2bd 18f4 82bd 949d e0bd 603a 58bc
00000170: f06e 473d 386b f3bd 1c0a c13d a808 603d
00000180: 381a a63d 4070 d1bb 30d0 d23c 8cf0 ac3d
00000190: b4c2 b9bd 987c 30bd 8e49 e63d c0bb 7e3b
000001a0: c2b2 f13d 308c a6bd f8ee 6f3d ce6c cc3d
000001b0: e8eb e9bc a081 4f3d bcf1 823d 0c2c b43d
000001c0: ec99 fb3d 448f a13d d404 b4bd 0038 72bc
000001d0: 1c79 a13d 305f 413c 5470 103d 00c5 1f3b
000001e0: ac23 8f3d d40e 27bd 80a8 e03a 2890 a0bd
000001f0: 708a 25bc 0a8c e8bd 5097 62bd e47d a3bd
00000200: 28e0 483d dc95 443d e876 dd3c 205f 833c
00000210: 001c 0d39 ce7f a63d 00de 233b 08ac 843c
00000220: 80a7 cdbd c869 d13d 887c 023d 606a 5f3c
00000230: 086f 5a3d d25a c23d 481b 683d 541d 2ebd
00000240: 902d 433d be09 d43d 9881 a23c 685a 19bd
00000250: 0c92 433d e4d5 d73d 0049 a33a e436 75bd
00000260: 4847 9c3d 6aa5 93bd 2ea2 f33d 4a78 b83d
00000270: 384b 083d ee8f e9bd 0479 b6bd a458 b03d
00000280: 3cd6 0dbd ba11 fabd 3418 7cbd 7c95 3c3d
00000290: be78 c93d b027 643d 0818 163d dc1c 4c3d
000002a0: 6a8b 95bd 8c4b 713d 8655 c93d f80d 07bd
000002b0: f8b3 8bbd a8e9 97bc 304d 393c 36e4 e53d
000002c0: 58c7 163d b6a9 c93d 2817 f63c bc54 c53d
000002d0: 62de a3bd 807f a5bc 90d4 243d ccf5 373d
000002e0: 7021 33bc 64ae d9bd da09 acbd 0002 63bc
000002f0: 60ca 8fbb 2208 e8bd 00d2 e7ba 2888 a1bc
00000300: d601 f63d 06f0 e13d 9435 fb3d 80ca f43b
00000310: 545f 0bbd 5c7c c23d 60df 35bc f870 66bd
00000320: 7c44 76bd e011 75bc 30fe 20bc f091 263c
00000330: c4ba a0bd 9460 80bd 081b c03d 7c9c 5c3d
00000340: f2ed f1bd 662a c83d 50a6 debd 8848 68bd
00000350: 0209 ae3d 1c32 4ebd fae0 be3d 800d cfbd
00000360: d879 8e3c 00ba eebb 98dd e3bc 001b 98bc
00000370: f8b2 a4bd 72c9 adbd a820 98bc 98ff 49bd
00000380: a493 69bd 40d1 be3d e8dd 3cbd a444 e5bd
00000390: e039 34bc b859 80bd fe51 963d e8c6 11bd
000003a0: 4e09 cd3d 38bd 4bbd 64dc ccbd 9066 cfbd
000003b0: d0cd f23d d28e 9c3d 8e42 d63d 74e4 f9bd
000003c0: a089 e33c 7077 073c e816 06bd d894 4dbd
000003d0: 0032 ab3d a24d 9bbd 9045 f0bd 8ce2 953d
000003e0: 94dd 34bd f8d1 053d ccd1 13bd 602b 7b3c
000003f0: a444 733d 207d a1bd 806b 63bb d0cf 1a3c
0.10902929 0.06055242 -0.08694415 0.10221657 -0.07346013 -0.08628401 0.100797534 -0.120473504
-0.09492378 -0.00046941638 0.11357963 0.023497075 -0.06941675 -0.042085364 -0.06994991 0.050005168
0.042365238 -0.011314616 0.032004684 -0.08375454 -0.06274502 -0.011502668 -0.0864612 0.09518084
-0.11542387 -0.09979142 0.074656084 0.09027535 0.06581454 0.024748579 0.032090336 -0.037732586
-0.06752545 -0.04189363 0.11874987 -0.03805928 -0.002969861 0.04974678 -0.011027247 0.04439552
-0.013070419 0.03744605 -0.061236948 -0.10774161 -0.06035331 0.07029295 -0.06813203 0.049924493
0.068418354 0.10447197 -0.06329173 0.0100559 -0.049564168 0.110541075 0.015563533 0.11543712
0.08453475 -0.055015713 -0.046512827 -0.04842177 0.12263358 -0.05272439 -0.020736307 0.026975408
-0.0065525323 0.011792362 0.06932956 0.06572837 0.018633172 0.08148605 -0.047563702 -0.09180917
-0.05601433 0.05898805 -0.11898035 -0.036609605 -0.049452707 0.01361157 0.020617649 -0.05354181
-0.025329277 -0.052278474 0.0065606833 -0.1028485 -0.097322345 -0.005147904 0.07022306 -0.11013022
-0.11078124 -0.063942134 -0.10967556 -0.013197511 0.048689783 -0.11885685 0.09425756 0.054695755
0.081104696 -0.006391555 0.025734037 0.08444318 -0.0907034 -0.04308757 0.11244498 0.0038869232
0.118016735 -0.081322074 0.058577508 0.0998169 -0.028554872 0.05066073 0.063937634 0.08797464
0.12285218 0.07888654 -0.087899834 -0.014783859 0.07884428 0.01180248 0.035263374 0.0024378896
0.06989226 -0.040785626 0.0017140061 -0.078399956 -0.010103807 -0.11354835 -0.055320084 -0.07982996
0.049041897 0.04799448 0.027034238 0.01603657 0.00013457239 0.081298456 0.0025004148 0.016195312
-0.10041714 0.10225254 0.031857044 0.013636202 0.053328544 0.09489979 0.056666642 -0.04250844
0.047650874 0.10353421 0.019837186 -0.037439734 0.047746703 0.10538843 0.0012457669 -0.0598668
0.07630783 -0.072092846 0.11896168 0.09007318 0.03327486 -0.114044055 -0.08909801 0.08610657
-0.034628138 -0.12210412 -0.06154652 0.046040997 0.09837483 0.05570191 0.03664401 0.04983221
-0.07301982 0.058909938 0.098307654 -0.032972306 -0.06821436 -0.018544033 0.011309907 0.112251684
0.036811203 0.09846823 0.030040339 0.096353024 -0.080014005 -0.020202398 0.040241778 0.044912145
-0.010933265 -0.106289655 -0.084003165 -0.013855457 -0.0043881387 -0.11329676 -0.0017686486 -0.019718245
0.12012069 0.11032109 0.122660786 0.007470429 -0.03402646 0.09496376 -0.01110062 -0.05626008
-0.060123906 -0.014957875 -0.009826228 0.01016663 -0.07848123 -0.06268421 0.09380156 0.053860173
-0.118129626 0.09773712 -0.10871565 -0.056709796 0.08497812 -0.050340757 0.093202546 -0.10109997
0.017392084 -0.0072853565 -0.027815625 -0.018567562 -0.08041948 -0.08485688 -0.01857026 -0.04931602
-0.057025567 0.09317255 -0.046110064 -0.11194733 -0.011000127 -0.062671125 0.073398575 -0.035590082
0.1001154 -0.049741 -0.10002974 -0.10126984 0.11855662 0.07644428 0.10461913 -0.12201777
0.027775586 0.008268222 -0.03273669 -0.050190777 0.08359146 -0.07583167 -0.11732018 0.07318601
-0.044156626 0.032670945 -0.03608875 0.015330166 0.059391633 -0.07885194 -0.0034701526 0.00944896

lstm.bias_hh_l0 f4 [256]
00000000: 62c0 e13d 5049 bf3d 0c30 6a3d 8888 90bd
00000010: 52bf 9bbd 0c6d c0bd 0cb7 9fbd e0d5 9ebb
00000020: 00f4 313b 9878 de3c 3858 46bd ce3a c9bd
00000030: f474 633d 406c 153d 94be e3bd 807f a33c
00000040: 40b5 72bb 8225 ecbd 4c86 793d 908d 0fbd
00000050: 28aa 7abd babe b33d e84e c53c 80d6 ee3c
00000060: 7e1a d43d e6f9 d43d fc14 b03d a0c4 1b3c
00000070: 467f ccbd 7c39 363d a0c4 623c 408d 6b3c
00000080: 4875 c33d 9219 8c3d b0e2 c8bd b0d6 da3c
00000090: f4e9 673d 7af6 b73d 2c6d 6abd 9838 463d
000000a0: d8be fcbd a818 a3bc 8c5b 653d ee93 9dbd
000000b0: e463 ad3d fed5 f2bd 1013 db3d f468 fb3d
000000c0: ac66 103d b876 e93c 02d1 a03d e0a5 01bc
000000d0: 00a2 783d 6805 9d3c 14ca a6bd c0ef e7bc
000000e0: 74e9 10bd 08c7 243d 50c7 5b3c 7894 d13d
000000f0: 70c3 4cbd 109b b0bc 8069 313d 6eff 8fbd
00000100: 1cfb c83d 4c3a cbbd 5a47 febd a82c 96bd
00000110: 4ad0 d1bd 942a e2bd b47c adbd d847 473d
00000120: d8dd 7fbd f8b2 f83c 6082 4ebd 00e2 8c3a
00000130: 08b5 8bbc 142e 2fbd e84d 87bc c83a fabd
00000140: b479 bb3d 1463 1bbd 8072 32bc b0a9 b9bc
00000150: ec96 8a3d 2087 bd3d 04d0 ad3d e05a b5bc
00000160: dc87 e3bd 5e23 8e3d 10ff 753d fc59 983d
00000170: b065 353d 0028 a13b acd5 f3bd 6ce9 89bd
00000180: d4a7 a9bd 58d8 ac3c bcac 273d 9a9d a4bd
00000190: 126b f0bd 5024 d7bd cccc f83d 001e ecbd
000001a0: eac3 e83d 806a febd 3868 e23c 0868 f2bd
000001b0: a868 d3bd 7659 d23d 46bb adbd a058 c4bc
000001c0: 1453 b9bd 409a 6ebd 4038 b33d 3848 f93d
000001d0: 5079 823c 841b 09bd 5821 e23c 30d8 eabc
000001e0: 1c67 ccbd 0031 6fbc 7eb7 87bd f05e 49bd
000001f0: 28fa 7c3d 4876 6b3d e8e0 b93d b0e4 853c
00000200: 40d9 04bd 3a44 a73d 7ee5 e6bd 1afb d33d
00000210: cc3a 0b3d e259 edbd 4216 ff3d 4e72 d03d
00000220: 606f a13c c415 dbbd 0cc2 16bd 142d 883d
00000230: ee6d c43d 0820 abbc 9070 c03c 70de ebbd
00000240: e454 c03d f456 5b3d ac98 d0bd 08fb e0bc
00000250: 04a6 c7bd 08ba 273d 4e6d ea3d 30cb 413d
00000260: d8c7 ddbd c0ba 0c3c 4067 0f3d c49d 51bd
00000270: 78d1 52bd d6bd cdbd 286e 363d 80de ebbb
00000280: c618 b43d 7cca a3bd eee6 b13d bee6 87bd
00000290: 0832 50bd 143a 17bd 1c72 cf3d 3095 80bd
000002a0: b8ea b73c 8080 f9bb c09e a0bb 8053 72bb
000002b0: 7e76 8ebd 7839 d2bd 34b4 a4bd 6e65 c8bd
000002c0: ac0b 04bd e260 83bd 187c c1bc 7859 fcbd
000002d0: 7897 ffbd 566c cdbd 64d9 b43d 04a7 353d
000002e0: aee1 853d 2418 91bd dcc1 c7bd 8296 b7bd
000002f0: 7065 73bc 3c5d 723d f071 26bc 0282 cb3d
00000300: f0a0 5abc aa57 90bd f6e6 a83d 8060 1fbb
00000310: 2605 db3d 0aa2 f5bd 3cb0 943d f4ec fa3d
00000320: 60ee e2bc 68c9 e9bc 0029 ddbb b8ee a83c
00000330: 6054 3b3d 7297 e43d 5699 ca3d 1c10 e8bd
00000340: 70d1 b9bc c0ca 663d 60b5 5a3c 4668 eebd
00000350: c074 c13c 2067 31bd 88e1 01bd 741b fe3d
00000360: 62bf 9d3d 7ca5 18bd b68b c63d e0bd db3d
00000370: c0a9 69bc cad6 b4bd 24a3 36bd 506c 553c
00000380: 0407 983d 1e46 b73d 289c 3d3d a02b ca3c
00000390: eeff fabd e853 89bc 6864 e9bd 3ee5 f8bd
000003a0: e0a7 3abc 9893 3b3d 8859 9b3d c009 6f3c
000003b0: 483d 8cbc a00a 7e3d be72 8cbd f0c8 7dbc
000003c0: acdd c43d 28f9 b13d ce73 babd c0fc a5bd
000003d0: a867 a13c fa07 9e3d c088 8cbd 86c1 ccbd
000003e0: 1049 5bbd 1896 f4bc b6cb d2bd 4a60 843d
000003f0: 12d5 9d3d 703a 73bd dced 69bd 4872 0bbd
0.11023022 0.09340155 0.057174727 -0.07057291 -0.07604851 -0.09395799 -0.07798585 -0.004847273
0.0027153492 0.027157113 -0.048423976 -0.09825669 0.055531457 0.03648019 -0.11120334 0.019958258
-0.0037034303 -0.115305915 0.06091909 -0.035047114 -0.06119743 0.087766126 0.024085477 0.029155016
0.103566155 0.10399227 0.085977525 0.009507328 -0.09985213 0.044488415 0.013840824 0.014376938
0.09543854 0.06840815 -0.09808862 0.0267137 0.0566196 0.089825585 -0.05723302 0.048393816
-0.12341088 -0.019909218 0.05599551 -0.07694231 0.08466318 -0.11857222 0.10696995 0.122758776
0.035254166 0.028498992 0.07852365 -0.007913083 0.06070137 0.019167617 -0.08144012 -0.028312564
-0.03537889 0.040228873 0.013414219 0.10233396 -0.04999107 -0.021558315 0.043313503 -0.07031141
0.0981352 -0.099232286 -0.12415953 -0.07332736 -0.10244806 -0.110432774 -0.08471051 0.0486525
-0.062467426 0.030358776 -0.050417304 0.0010748506 -0.017054096 -0.042768553 -0.01651664 -0.12218243
0.091540724 -0.037936285 -0.010891557 -0.022663921 0.06767067 0.09254289 0.084869415 -0.02213806
-0.111098975 0.069403395 0.0600577 0.07439038 0.04428643 0.0049180984 -0.11905989 -0.06733975
-0.08283964 0.021099254 0.040936217 -0.080378726 -0.11739172 -0.10504973 0.12148437 -0.115291595
0.11365493 -0.12422657 0.027637586 -0.11836249 -0.10322696 0.102709696 -0.08482985 -0.023968041
-0.09049049 -0.058252573 0.08750963 0.12171978 0.015926987 -0.033473507 0.02760379 -0.02866754
-0.09980604 -0.014599085 -0.06626795 -0.049162805 0.061762005 0.05748585 0.090761006 0.016344398
-0.03243375 0.0816731 -0.11274241 0.10350628 0.03399162 -0.115894094 0.12455417 0.10178052
0.019706428 -0.10697511 -0.03680615 0.06649223 0.0959128 -0.020889297 0.023491174 -0.11517036
0.093911916 0.05354972 -0.1018537 -0.027463451 -0.09748462 0.040948898 0.114466295 0.047312915
-0.10829133 0.008589447 0.035010576 -0.051175848 -0.051469296 -0.10045974 0.044538647 -0.007198155
0.08793788 -0.07997605 0.086866245 -0.066358075 -0.050828964 -0.036920622 0.101291865 -0.06278455
0.02245079 -0.0076141953 -0.004901737 -0.003697604 -0.06956194 -0.102648675 -0.080421835 -0.09784971
-0.032237694 -0.06414963 -0.023618743 -0.12321752 -0.12480062 -0.10030429 0.088305265 0.04434873
0.065371856 -0.070846826 -0.097537726 -0.08964254 -0.014855728 0.059170946 -0.010159001 0.099369064
-0.013344035 -0.070479706 0.08247177 -0.0024318993 0.10694341 -0.11993797 0.072601765 0.122522265
-0.027701557 -0.02853842 -0.0067492723 0.020621642 0.045734763 0.111616984 0.09892528 -0.113311976
-0.022682875 0.0563457 0.013348907 -0.11640982 0.023615241 -0.04331124 -0.031709224 0.1240758
0.07702519 -0.037267193 0.096946165 0.10729575 -0.014261663 -0.0883003 -0.044589177 0.013026312
0.07423213 0.08948921 0.0462915 0.024679005 -0.12255846 -0.016763642 -0.11396104 -0.121530995
-0.011392564 0.045795053 0.07585436 0.014589727 -0.017119065 0.06202185 -0.06857823 -0.015489802
0.09612593 0.08690101 -0.09104119 -0.08104849 0.019702747 0.07716365 -0.068620205 -0.09997849
-0.053536475 -0.029856727 -0.10292761 0.06463678 0.077066556 -0.059381902 -0.057111606 -0.034044534

lstm.weight_ih_l1 f4 [256, 64]
00000000: 00fd f9bd 08af cf3c 8012 aaba aada a8bd
00000010: 10bf b83c 06df c9bd 5580 44bc 885b c43d
00000020: 3cd6 8e3d 424c ce3d bc94 25bd 080c 913c
00000030: 585f 8cbd c818 1d3d 798f 8ebc 0294 efbd
00000040: 38b1 e1bd 6573 ef3c a47b 41bd 7cd7 bc3c
00000050: fae2 4ebd aa9d bfbc a256 ba3d 409f 5ebc
00000060: 8ae1 cc3d 20eb fc3c e5b9 2e3d 049c b3bc
00000070: b2be ac3d 50fa 633c ea0f cebd 5431 233d
00000080: b07f cdbd 6e2c b23c 08b4 e4bd 5364 dcbb
00000090: d6e3 b3bd 6425 05bd 8258 a1bd 8a0a ed3d
000000a0: 5b6c 77bb 60a8 a03d bf64 ea3d 4a7b 123d
000000b0: a092 05bd 2617 8c3d f0db e23d d63b 8a3d
000000c0: d807 d53c 74b4 703d 4403 d93d eac2 a93d
000000d0: a0c9 a6bc 2c93 853d 2077 e43b 3d6c a93d
000000e0: 47f3 09bd 30b4 7bbc a0c5 f2bb f0fa 11bc
000000f0: c014 383d e225 9d3c 7880 db3c 9c3a 6d3d
00000100: 101b 30bd 1665 afbd 80ac e2bc 34b0 ef3d
00000110: 40cf f2bd bd1c babd 89d0 eabd b841 72bd
00000120: 7bb4 51bd d0d3 1abd 84e9 debd 0c02 3ebd
00000130: bc3d 8cbd 826f c33d 8542 c0bd 4035 ecbd
00000140: d693 a3bd d2c1 a4bd 7079 bb3c 9e02 01be
00000150: 51e8 5cbd afa4 35bd e294 85bd 0474 783d
00000160: f8b3 863c 8eff ee3d e252 b03d a695 ee3d
00000170: a885 1d3d 9cec af3d 5669 60bc c6b0 ed3d
00000180: 68e9 5a3d 9113 b6bd 0030 ca3d 19ae ccbd
00000190: a0a0 f3bd dc47 0f3d 5202 ac3d 4e46 d93d
000001a0: fea2 cabd 7ca2 0ebd 6270 ebbc eab0 1ebd
000001b0: 6ec2 cb3d 6f2a 5f3c f6c5 823d 40c6 b0bc
000001c0: 7c11 b33d b015 04be 6acc ce3d 207e 393d
000001d0: 40ab d7bc 20cb b0bc 7cd6 e03d 2370 49bd
000001e0: 5db2 0dbe 6495 063d ead9 72bd 8efc 8b3d
000001f0: 1496 19bd 9200 cb3d f453 b43d 3255 c6bd
00000200: 1c1e 373d dcae d5bd 4837 a4bd ece8 363d
00000210: 5ae3 cbbd 38bb f8bd 97a5 e23c e02d e93d
00000220: d46c 26bd a0da d9bb 241a 693d 804d ae3a
00000230: 2089 87bb f00a 2fbc b960 7dbd 9077 4ebd
00000240: 248a 06bd 250b a5bd 609e acbb ce23 973b
00000250: d886 95bd 6343 a7bd 0477 d8bd 441f ec3d
00000260: 008c 9039 2099 e93b 3f50 be3d 77af 643c
00000270: 1448 75bd e428 71bd 451c d43d 60b9 76bc
00000280: 807b 61bb 3ec7 fabd 9811 12bd b40f a4bd
00000290: 3c8d 1a3d 4075 ce3c 1b58 cb3d e4c0 15bd
000002a0: d4de ff3d d047 b23d d759 f73d 3d1d a63d
000002b0: b819 1bbd 250e 7c3d c4ed c4bd 205d 2e3c
000002c0: e4ca 2abd b693 893c e26d fa3d d02e 18bd
000002d0: e007 bf3d d09a 4e3c 500c 823d ff95 51bd
000002e0: a0e7 ef3d 0053 00bb fc91 fcbc f853 91bd
000002f0: 60d5 1bbd 86ed 41bb aed1 f03d 80df 0cbd
00000300: d27d ddbd 682d 4b3d 602f 34bd 94e9 b2bd
00000310: 6c66 59bd a49a 7b3b 1d1e dbbd f85c 9e3d
00000320: 287b eabd 905b 98bd b46d 8c3d 9e71 81bd
00000330: 9495 b2bd 6878 8e3d 79c0 a9bc d4f2 5e3d
00000340: 069e e6bd f7fe a43d 880e 95bc 15ac a9bd
00000350: a65e 5bbc 981b bbbd 1818 d13c 84ef babd
00000360: ce1d cdbd 3881 d43d 7ca2 b2bb fa07 0f3d
00000370: ac73 4e3d c0b3 623d f0a7 b5bd 604f 7f3d
00000380: 881a 933d eac7 0cbe cc5b 40bd 633b b0bd
00000390: 509c 3cbc f06c 9c3c 4cbe f23d c81c 823c
000003a0: 41a5 6cbc 0c7f 0bbd 2d98 6fbd 8b1c 5cbd
000003b0: 3e1b 923d 3335 913d b06d 87bd a27e c8bd
000003c0: 7823 063d 2278 c23d c839 acbc 7c28 383d
000003d0: c899 493d e851 debd 76ac ac3d 6322 f1bd
000003e0: 41bc 60bd 348d ca3d afb9 bebd 30e8 f2bc
000003f0: 7212 dd3d 25d0 d33d 0ccd c5bd 767e dcbd
-0.12206459 0.025352016 -0.0012975484 -0.08244832 0.022552043 -0.098569915 -0.011993487 0.09587771
0.06974456 0.10073139 -0.040425047 0.017705932 -0.06854123 0.03835371 -0.017402397 -0.11698152
-0.1102013 0.02922983 -0.047237054 0.02305197 -0.05050943 -0.02339061 0.09098555 -0.013587773
0.10003956 0.030873835 0.04265775 -0.02192498 0.0843481 0.01391466 -0.10061629 0.039841965
-0.1003412 0.021749701 -0.11167151 -0.0067258268 -0.08783691 -0.03250636 -0.0787821 0.11574276
-0.0037753794 0.07844615 0.11444997 0.03576211 -0.032610536 0.06840353 0.11077106 0.06749694
0.026004717 0.058765844 0.10596326 0.0828913 -0.020359814 0.065222114 0.0069722086 0.08272598
-0.033679273 -0.015362784 -0.0074088126 -0.008909926 0.044941664 0.019183103 0.026794657 0.057917222
-0.04299456 -0.085642025 -0.027670145 0.1170353 -0.11855936 -0.09087513 -0.11465556 -0.059144706
-0.05119751 -0.037799656 -0.10884383 -0.04638867 -0.068477124 0.09542753 -0.093876876 -0.11533594
-0.07987182 -0.08044781 0.022885054 -0.12598655 -0.05393249 -0.044346508 -0.06522538 0.060657516
0.016443238 0.11669837 0.08609559 0.11649637 0.038457543 0.085900515 -0.013696989 0.116059825
0.05344525 -0.08890451 0.098724365 -0.09994144 -0.11895871 0.03498064 0.0839888 0.10609113
-0.098943695 -0.034822926 -0.028740112 -0.038742937 0.09949194 0.013620957 0.06385414 -0.021578908
0.08743569 -0.12898898 0.10097583 0.045286298 -0.026326776 -0.021581233 0.1097841 -0.049179208
-0.13837571 0.032857314 -0.05928985 0.0683528 -0.03749664 0.09912218 0.08805075 -0.096842185
0.04470645 -0.104337424 -0.080183566 0.044655725 -0.09955473 -0.12145084 0.02766685 0.11385703
-0.04063113 -0.0066483766 0.056909695 0.0013298243 -0.0041362196 -0.01068376 -0.06185982 -0.050406992
-0.032846585 -0.08058766 -0.005267903 0.0046124225 -0.0730111 -0.0816715 -0.105695754 0.11529401
0.00027570128 0.0071288496 0.092926495 0.01395785 -0.059883192 -0.058876887 0.103569545 -0.015058845
-0.0034405887 -0.12245034 -0.03566131 -0.08010808 0.037732348 0.025202394 0.09928914 -0.036560908
0.12493673 0.087051034 0.120776825 0.081110455 -0.037866324 0.061536927 -0.09615663 0.01064232
-0.041697398 0.016794067 0.1222799 -0.03715402 0.09327674 0.012610152 0.06350005 -0.051168438
0.11714101 -0.0019580722 -0.03083133 -0.07096094 -0.038045287 -0.0029591038 0.11758743 -0.034392834
-0.10815014 0.04960385 -0.043990493 -0.08735958 -0.053076193 0.0038391734 -0.10699103 0.07732576
-0.114492714 -0.07439339 0.06856862 -0.06320499 -0.08719936 0.069565594 -0.02072166 0.054430798
-0.11260609 0.08056443 -0.018195406 -0.08284775 -0.013389265 -0.091361225 0.025524184 -0.09127715
-0.100154504 0.10376209 -0.0054514986 0.034919716 0.050403282 0.055347204 -0.08869922 0.062331557
0.07182795 -0.13748136 -0.046962544 -0.08605077 -0.011511877 0.019094914 0.118527025 0.015882865
-0.0144436965 -0.03405671 -0.058494736 -0.05373816 0.07134102 0.07090225 -0.06612718 -0.09789778
0.03274867 0.0949557 -0.021023646 0.044960484 0.049218923 -0.10855466 0.08431332 -0.11774137
-0.054867033 0.098902136 -0.0931276 -0.029651731 0.10794534 0.10342435 -0.0965825 -0.10766308

lstm.weight_hh_l1 f4 [256, 64]
00000000: d9ad afbd 4f3c 313d 77f1 753c 8306 463d
00000010: f841 023d 8faa 853d cb18 1f3d a0e4 673c
00000020: add6 73bd 1a3a cb3b caa6 65bd e4a6 8d3d
00000030: cf78 e83c f529 9ebd eb81 fdbd 687f 0abd
00000040: 78f9 0a3d 3b85 abbc 57ca 5e3d 6f5c 90bd
00000050: 4c50 3cbd 2ff6 97bd 8032 ad3d cb85 88b8
00000060: 295f cb3d acb1 583d c25e 80bd 927c ecbb
00000070: ac8f cdbc cc0a 063d 4140 80bb 9e5d a73d
00000080: 42c1 e7bc cedc 94bd 76cb f33d f682 003e
00000090: f6fe cd3d 7454 023e b7d1 f7bc f18d 98bc
000000a0: c77c 633c 8a7f 133d 3df7 c8bd bd2b 243d
000000b0: 6698 d4bb f46a cb3c f63e dfbd 5ab1 bd3b
000000c0: 9b3e 363d 19d8 483d ecb9 6a3d a5b7 0abe
000000d0: 8062 e6bd a276 43bd b824 b23d de6e 043e
000000e0: be55 1ebd b947 cebc 6548 b2bd 9001 debc
000000f0: 6254 3b3c 936c 053e 451b e3bd 378e c0bd
00000100: e143 97bd 5e76 ffbd 9e26 d83b 7186 10be
00000110: e655 833d 1e16 bdbd c2e3 cfbd 43cc 10bd
00000120: 742d 3bbd 55aa 24bd 9602 94bd bb8b 273d
00000130: 258f babd 13b3 9a3d 143c babd 75b4 03be
00000140: 3242 293d fcda cebd 7ebd 53bb e8bc 673d
00000150: b0fe fd3a bf2b 8e3c 8be0 f8bc c43a 1d3c
00000160: 9ca8 ef3c ed2c 453d 06ce c2bd e347 d13d
00000170: 89ca 7dbc 9a8c b73d 2084 593c 1c72 06bd
00000180: 3278 d2bd 62f4 dc3c 2766 2dbd f100 06bd
00000190: 0dc3 debd 6cb5 abbd 1b97 0abe f851 e5bc
000001a0: 2985 43bc c4cd ce3d 4024 6c3d bb67 873d
000001b0: ba8c b4bd f7cc 8cbd 3aa4 2bbb bc85 6dbd
000001c0: 28fb 95bd c3de 5f3d e845 70bd 6688 0bbd
000001d0: 21f9 9d3d e67f c53d fa81 07be a097 363c
000001e0: c83b 89bd 19d1 dabd 82f8 523d f802 9e3d
000001f0: 6d77 973d 0814 a03d 050b 38bc c57f 94bd
00000200: a326 aebd 2d23 d1bc ad7c 793d 4e54 d33d
00000210: de4e 9b3d 99b3 cd3b b4f6 35bd 7a54 12be
00000220: 488d cb3d 327c f13d b73d a73d 583a 79bc
00000230: d4a4 a83b 005e bbbc 229b 1b3d c0b2 04be
00000240: 525e cd3d 4b75 8b3d 2bba 563d 3dd6 f3bd
00000250: cd6d ba3c 136d e63d 857d 94bc 44c7 9f3a
00000260: ebba 933b 0bf4 b43d aa65 28bc f311 8e3d
00000270: e2d1 9c3d c890 1dbc bb48 073e 7f39 08be
00000280: bcc9 453d a403 8d3d 91ec c73d 916c a2bc
00000290: 29f3 103d 6590 413d a2bb 4ebd 91f2 61bd
000002a0: 2277 9d3d f2e2 dd3d b6a3 683d ed2c 92bd
000002b0: 3863 7a3d c417 3abd dd1e cebc 8679 40bc
000002c0: 2661 da3d 35d5 773d 07e8 b6bd 2157 113d
000002d0: 1fcc 0ebc 4139 b93d c3e9 c8bd 6692 8ebd
000002e0: aad1 4fbd 5e7b 223b b1fb 94bd b92d 0abd
000002f0: 53a9 683c 565e ca3d 4f26 453d c15f 043e
00000300: f47f f7bc ede3 bf3d 70f5 9d3d c87e a33b
00000310: 62c7 883a 0b32 cbbc 8242 8dbd 399e b03d
00000320: 7378 a23d 6776 72bd 6f4b 6cbd a92b 1cbd
00000330: 3d9c f9bd 373b c53d 8fe5 8e3d 8c78 a53c
00000340: 10df 863d 1e17 643d 0ec6 d23d 7736 6e3d
00000350: a6d4 fa3c 113c 003e 95c9 26bc 09c0 b9bd
00000360: 933c c13d 9b16 a4bc b298 1bbb 07c9 353d
00000370: 4f8d 28bd abf2 ea3d 5df9 433d 8c95 d9bd
00000380: 86a3 cbbc 2908 313d f8dc f33d 1621 a73d
00000390: a8fa 8a3a 9504 a4bd f163 b73d 8283 71bc
000003a0: 1e6c 78bd 9b9e a3bc c425 dfbd 9078 0e3d
000003b0: 2953 273d 6b8b c83d 64f7 06be b35e 6ebd
000003c0: c4ef 173d acdd 64bc fdf7 603b 6ae5 53bc
000003d0: 65f6 313d db4f 7c3d fd68 a93b 0850 323d
000003e0: 85a7 4abd df18 633d 941c 663d 5771 673c
000003f0: b48f 8fbc 05a5 ab3c 76bc a6bb 0052 e8bc
-0.08578081 0.043270405 0.015011183 0.048346054 0.031801194 0.06526672 0.038842004 0.01415363
-0.059530903 0.0062019946 -0.056067266 0.069165975 0.028377919 -0.077228464 -0.123782955 -0.03381291
0.03392932 -0.020937553 0.054392185 -0.0704888 -0.045975015 -0.07420003 0.08456898 -6.509906e-05
0.0993026 0.052903816 -0.062680736 -0.0072169984 -0.025092922 0.03272514 -0.0039139097 0.08172153
-0.028290395 -0.07268678 0.119040415 0.12549958 0.100583956 0.12727529 -0.030251367 -0.01862237
0.01388473 0.036010303 -0.09812782 0.040080775 -0.006487894 0.024831273 -0.10900681 0.005788964
0.0444933 0.04903421 0.057306215 -0.13546617 -0.11249256 -0.04772056 0.0869841 0.12932917
-0.03865599 -0.025180684 -0.087052144 -0.027100354 0.011433693 0.13029699 -0.110891856 -0.09402125
-0.07385994 -0.124737486 0.0065964004 -0.14113785 0.06412868 -0.09232734 -0.10150863 -0.03535105
-0.045697644 -0.040201504 -0.07227056 0.04090474 -0.09109334 0.07553687 -0.0909349 -0.12861808
0.041322894 -0.10100362 -0.003230899 0.05657664 0.0019378271 0.017354844 -0.030380508 0.00959653
0.029255204 0.048138548 -0.09511952 0.102187894 -0.015490183 0.089623645 0.01327613 -0.032823667
-0.10276832 0.026972 -0.04233375 -0.03271574 -0.10877047 -0.08384213 -0.13534205 -0.027993187
-0.011933603 0.100978404 0.05765176 0.06611582 -0.08815904 -0.068750314 -0.0026190416 -0.057988867
-0.07323295 0.0546558 -0.058660418 -0.034065627 0.07713533 0.09643535 -0.13233176 0.011144549
-0.067008555 -0.106844135 0.051506527 0.0771541 0.073958255 0.07816321 -0.011233096 -0.072509326
-0.08503463 -0.025529468 0.060909916 0.10318814 0.07583402 0.006277513 -0.044424728 -0.14290038
0.09939057 0.117912665 0.08166068 -0.015211664 0.005146602 -0.022871971 0.037989743 -0.12958813
0.10027756 0.06809481 0.052423637 -0.11906097 0.022757435 0.11251273 -0.018126259 0.0012190123
0.0045083663 0.0883561 -0.010278145 0.06937017 0.076572195 -0.009617038 0.13211338 -0.13303183
0.048288092 0.0688546 0.09761918 -0.01982716 0.035388146 0.047256846 -0.05047191 -0.05516297
0.076887384 0.10834302 0.056796752 -0.07137475 0.06112978 -0.04543282 -0.025161201 -0.011747723
0.10663061 0.060506064 -0.089309745 0.035483483 -0.008715658 0.090441234 -0.098102115 -0.06961517
-0.05073706 0.002479277 -0.07274569 -0.03373501 0.014200526 0.098812744 0.048132237 0.12927152
-0.03021238 0.09369645 0.07712829 0.0049894787 0.0010435397 -0.024804136 -0.06897451 0.086239286
0.0793313 -0.05919495 -0.057689127 -0.038127575 -0.12188003 0.09630435 0.069773786 0.020199083
0.065855145 0.05568611 0.10291682 0.05815741 0.030618977 0.12522914 -0.010179897 -0.09069831
0.09435382 -0.02003031 -0.0023742137 0.044381168 -0.041150387 0.114720665 0.047845233 -0.10624227
-0.024858247 0.043220673 0.11907381 0.081606075 0.0010603266 -0.080086865 0.08954609 -0.014740827
-0.060649984 -0.01997309 -0.10895875 0.034782946 0.040850792 0.09792217 -0.1318031 -0.05819578
0.037093893 -0.013968866 0.00343275 -0.012933115 0.04344787 0.061599594 0.0051699863 0.043533355
-0.049476165 0.05544364 0.056179598 0.014126143 -0.017524578 0.02095271 -0.0050883843 -0.028359413

lstm.bias_ih_l1 f4 [256]
00000000: 14f0 1d3d 2cf0 d53d cfca 2abb 632b f33d
00000010: bd75 d23d 124b e23d cd3e a13d 409b 38bd
00000020: 3f03 b93d e39b d13d bc2e eabd 37bf 0ebd
00000030: 810f d23d 7873 5a3d b3df 283d e6ac 123d
00000040: 61b8 f63c c0d6 b53d 4fbe d5bd 1bb6 bb3c
00000050: 29c4 e33c 9c6e 9cbd a4ea 803c 88a9 cebd
00000060: 2a75 9cbd 1246 a5bc 7d25 1fbd c8ec ac3d
00000070: 7225 b3bd 8e13 c1bd 9366 89bd 8384 553d
00000080: 6633 ef3d a2af 7c3d df63 14bd ae05 75bc
00000090: 331d 2a3d d1ae bcbc 2167 9f3d d8af 0d3e
000000a0: d639 803d fa3e be3c e291 8b3d 71f8 68bd
000000b0: d37f 033e 28a1 e53d 7125 4c3d 4638 f43d
000000c0: 9c8f 05bd e00a 04bd 427c d3bd 756a da3d
000000d0: bc3a d8bc 15b0 9ebd 0f74 9c3d f0ea 583d
000000e0: 0d86 c9bd ddeb 0e3c 5e3e bfbd ec84 d1bd
000000f0: c604 c93c 3a72 373d 0626 5ebd b36f b6bd
00000100: 4f52 69bd 372b 133e 6395 843d 7740 c0bc
00000110: b662 153e c080 87bd 89bd b13d 2d65 ae3d
00000120: 9c9c 583d 0e1e 86bc 9cb6 2dbd 831e 653d
00000130: 1dbe 92bd 24e8 b8bc 752d c6bd ca4a 1c3c
00000140: 41a0 06bd 3c2e 2bbd 0f15 debd edf9 f33d
00000150: 575e 893d 30cd fe3c be84 b7bc 5533 3cbd
00000160: 048e ce3d 342c b8bd a84e a83d cb49 cf3b
00000170: e757 b4bc 55d0 e53d fa0a 7a3c 4bc6 d33d
00000180: 4bbc 82bd 4477 4d3d a060 9d3d fbcf 9bbd
00000190: 1633 9fbd 281e 5dbc ef9a fa3c f2e2 afbd
000001a0: 10ef c9bd a94f ef3c c1c9 bfbd ca8e 583d
000001b0: f7ff b63c 63f2 a83d 0100 a5bd b22e a2bb
000001c0: df5b f5bc a7e7 b23d a856 82bd 63d5 92bd
000001d0: 0fe5 ddbc fdc2 f13b b29f fdba 723d 043e
000001e0: b363 b8bd 09fa 43bd 38bd ba3d 1af8 113e
000001f0: 198c 9a3d b01f 80bd 1116 b93d 108b 0c3d
00000200: 3afa 363d b14d 693d 899c cfbd bea8 c8bd
00000210: c821 d03d a779 a6bd 43d7 debc 4da7 e7bd
00000220: bd2e bc3d 0dc5 a23d e313 3dbc e4c8 63bc
00000230: 467c bdbd d196 6cbc b3a8 643d 938d 6a3d
00000240: c307 0cbd e20c ecbd 02a2 a33d dc34 efbd
00000250: 8ddb fcbd 0f71 17bd fb2e 1dbb d516 a8bd
00000260: 9a62 82bd edf5 143d 5791 a0bd 6bbc 543d
00000270: e4e4 bbbd b42b 9abd 6bd3 ffbc 315a 5c3d
00000280: 2318 233d 454d dc3d ce25 d03c e335 163d
00000290: 9f0f aa39 02b0 82bd c421 563d e6c8 8cbd
000002a0: 2796 d5bd d3dc 8f3d 6cf3 1f3d 3986 d6bd
000002b0: 788c 08be 4a7b e1bc 48ba aebd 7705 583d
000002c0: b9f0 e73d 0a38 e6bd 0c3f c5bd 139b 3bbc
000002d0: 2ba6 d23d a281 c8bd a1bf 0cbe 8ce3 903c
000002e0: 928e 64bd b10d c33c 5028 fdbd 03b8 b03d
000002f0: 7aa4 0fbd d5b8 76bc 83bf 653d 10a9 493d
00000300: 186f 133e 8db0 303c 7f96 423d 42b0 17bc
00000310: 8ab0 8ebd d890 4d3d 82cc 023e 2a30 aebd
00000320: e200 f9bc 7e8d bbbb de3d b73d 2109 2fbd
00000330: 9430 d2bc 322a b33d 0984 eebb 516d 423d
00000340: d77a 12bd 52a9 033e 386d 2dbd 74e8 95bd
00000350: c303 4c3c c886 d03d 897e f73d 1a51 a1bd
00000360: 24a9 da3c 2474 be3c 06f1 043e 7e3e 68bd
00000370: 73d0 013e 1794 7b3c e43d bdbd 52e9 f23d
00000380: 87a4 073e bc05 7ebd b3c5 c53d 0cfa a53d
00000390: 20ba 903c 6449 b6bd 4aa3 2d3d 259a cb38
000003a0: ae34 9b3d 5bad 70bd 6f43 0a3d d73d 29bd
000003b0: dac1 babc 4b62 0d3e 2386 f23d 49d9 f5bc
000003c0: de70 3e3d 0cc0 c23d b483 8dbd 9fe5 043e
000003d0: ba41 313d 57d4 78bd 75b9 20bd 8d78 b4bb
000003e0: 35ec 193d 501d 263a 9298 b43b 50f9 6a3d
000003f0: bded b63d f1c3 223c 9117 89ba 4666 25bd
0.038559034 0.104462 -0.0026060825 0.1187351 0.10276363 0.11049475 0.078733064 -0.045069933
0.09033822 0.10234811 -0.11434695 -0.034850325 0.102568634 0.053332776 0.04122896 0.03580942
0.030117216 0.08878851 -0.10436689 0.022913983 0.027803497 -0.076382846 0.015736885 -0.10090929
-0.07639535 -0.020175014 -0.03885411 0.084436 -0.087473765 -0.09427558 -0.067090176 0.052128326
0.11679725 0.061690934 -0.036228057 -0.014954967 0.041531753 -0.023032578 0.07783342 0.1383661
0.06261031 0.023223389 0.06814934 -0.056877557 0.1284173 0.11212379 0.049840394 0.11924796
-0.03260766 -0.032236934 -0.10326435 0.10664836 -0.026395194 -0.07748429 0.07639324 0.05295843
-0.09840021 0.008723226 -0.093380675 -0.10230431 0.024538409 0.04478667 -0.05423548 -0.08908024
-0.05696326 0.14371954 0.06473806 -0.02346824 0.14588436 -0.06616354 0.08678729 0.085153915
0.05288373 -0.016371753 -0.042410478 0.0559373 -0.071651675 -0.02257163 -0.09676639 0.0095393155
-0.032867674 -0.04179214 -0.1084386 0.11912904 0.06707447 0.0311037 -0.022402164 -0.04594739
0.10085681 -0.08992806 0.082181275 0.0063259355 -0.022014571 0.11221377 0.015261406 0.10340556
-0.0638357 0.05016257 0.076844454 -0.076080285 -0.07773416 -0.013495959 0.030591456 -0.08588208
-0.09860051 0.02921279 -0.093646534 0.05287055 0.02233885 0.082493566 -0.08056641 -0.004949414
-0.029951034 0.087355904 -0.063641846 -0.071696065 -0.027086763 0.0073779807 -0.0019349961 0.12914065
-0.09003391 -0.047845874 0.09118122 0.142548 0.07546253 -0.06256044 0.09037412 0.034312308
0.04467223 0.056958858 -0.101372786 -0.0979781 0.10162693 -0.08128672 -0.027202254 -0.11311207
0.09188602 0.07947741 -0.011540386 -0.0139028765 -0.09252219 -0.014440254 0.055824947 0.057263922
-0.03418709 -0.11525895 0.07989885 -0.11680004 -0.123465635 -0.036973055 -0.0023984301 -0.0820748
-0.06366463 0.036367346 -0.078402214 0.051937502 -0.09174517 -0.07527867 -0.031228742 0.05379695
0.03981794 0.107569255 0.025408652 0.036672484 0.00032436565 -0.06381227 0.052278295 -0.06874256
-0.1042903 0.07024541 0.039050505 -0.1047482 -0.13334835 -0.02752461 -0.08531624 0.052739587
0.11325211 -0.11241157 -0.09631166 -0.011450547 0.102856 -0.097903505 -0.13744976 0.017686628
-0.05580003 0.02381024 -0.123612046 0.086288475 -0.035068966 -0.015058716 0.056090843 0.049233496
0.14397848 0.0107842805 0.047506806 -0.009258332 -0.06967266 0.050186962 0.12773326 -0.0850528
-0.030395929 -0.0057236543 0.08947347 -0.042733315 -0.02565793 0.087482825 -0.0072789234 0.047467533
-0.03576168 0.1285756 -0.042340487 -0.073197275 0.012452069 0.101819575 0.120846815 -0.07876797
0.02669198 0.02324874 0.12982568 -0.056700222 0.12677173 0.015355132 -0.0924032 0.118609086
0.13246356 -0.062017187 0.09656849 0.08104333 0.017666876 -0.08900717 0.042392053 9.708506e-05
0.07578407 -0.058759075 0.033755716 -0.04131874 -0.022797514 0.13807027 0.11841991 -0.030010836
0.046494357 0.09509286 -0.06909886 0.12978218 0.043275572 -0.060749378 -0.039239366 -0.005507535
0.03757878 0.00063367654 0.005511352 0.05736667 0.08932064 0.009934411 -0.0010459294 -0.04038074
