models/SUIUSDT_lstm_20250822_024902.pth (torch, 267815 bytes, 11 tensors)

lstm.weight_ih_l0 f4 [256, 53]
0	0x3d4e91b4	0.050431922
1	0xbd99e288	-0.075139105
2	0x3d802890	0.06257737
3	0xbd9f5d2c	-0.07781443
4	0xbdfcc930	-0.12343061
5	0x3dffcbce	0.124900445
6	0xbce063f8	-0.027391419
7	0xbd7f12e0	-0.06227386
8	0x3da91fdc	0.0825803
9	0x3db62f9a	0.08895798
10	0x3deab3a4	0.11460045
11	0x3d4adea0	0.049528718
12	0x3c9e5670	0.019328326
13	0xbc0d1ad0	-0.00861235
14	0x3cc90d88	0.024542585
15	0x3dc9f210	0.09860623
16	0x3df69312	0.1203977
17	0xbd87cb4a	-0.06630571
18	0xbdd88052	-0.1057135
19	0xbcbfa398	-0.023393437
20	0xbc85c790	-0.01633051
21	0xbd4df988	-0.0502868
22	0x3d75c278	0.059999913
23	0x3d866820	0.06562829
24	0xbd987ae0	-0.074453115
25	0xbd47eec8	-0.048811704
26	0x3dfc8644	0.12330297
27	0xbd9f9a22	-0.077930704
28	0xbdd9d9c4	-0.106372386
29	0xbc0f03f0	-0.008728966
30	0xbc069550	-0.00821431
31	0xbd8cd07e	-0.06875704
32	0xbdf74216	-0.12073152
33	0x3d3d3394	0.046191767
34	0xbd3fbe90	-0.046812594
35	0xbd8a2204	-0.06744769
36	0x3df3ef10	0.11910832
37	0x3d14f588	0.03636697
38	0xbd47ce64	-0.048780814
39	0xbdd2695a	-0.102740005
40	0xbc80b630	-0.015711874
41	0xbdaca12a	-0.08429177
42	0xbdafae48	-0.085781634
43	0x3c1583d0	0.009125665
44	0x3d89ed74	0.06734744
45	0xbbfe3360	-0.007757589
46	0xbde9c320	-0.1141417
47	0xbdb5121c	-0.08841345
48	0xbc0a6520	-0.008446962
49	0x3df5ea0e	0.12007533
50	0xbc86b550	-0.016443878
51	0xbac84900	-0.0015280545
52	0xbc10eeb0	-0.00884597
53	0xbdc91502	-0.0981846
54	0x3d8ac94c	0.067766756
55	0xbd5bc958	-0.053658813
56	0x3d7bbd18	0.06145963
57	0x3de6f67c	0.11277482
58	0x3d631a3c	0.05544494
59	0x3dad2e98	0.08456153
60	0x3dfef278	0.12448591
61	0xbdc8c83e	-0.09803818
62	0xbd4e2bac	-0.050334617
63	0xbdd6a27a	-0.10480209
64	0x3d425640	0.047445536
65	0xbd73e83c	-0.059547648
66	0xbcbe26b0	-0.023211807
67	0xbb2e0000	-0.0026550293
68	0x3c078380	0.008271098
69	0x3d81f096	0.06344716
70	0xbdf9e876	-0.122025415
71	0xbdf8648c	-0.12128553
72	0xbc422050	-0.011848524
73	0x3dd34a2c	0.103168815
74	0x3d376504	0.04477407
75	0xbc0a2de0	-0.008433789
76	0x3d9c9c46	0.07646994
77	0x3d3ed42c	0.04658906
78	0x3dc29b22	0.095022455
79	0x3de7496a	0.112932995
80	0x3cbb0ae8	0.022832349
81	0xbcb17cd8	-0.021665975
82	0x3d98f5ee	0.07468782
83	0x3d414080	0.047180653
84	0xbddca698	-0.10773963
85	0xbd017c60	-0.031612754
86	0x3c85ad70	0.016318053
87	0x3d1aec1c	0.037822828
88	0xbca0d050	-0.019630581
89	0x3d45ae28	0.04826179
90	0xbd17a2a4	-0.03702034
91	0xbdc34252	-0.09534134
92	0x3daf25f0	0.08552158
93	0x3d1b6b10	0.0379439
94	0x3d3204bc	0.043461546
95	0xbd2cdb84	-0.042201534
96	0x3dfefdcc	0.12450752
97	0x3d6c3d00	0.05767536
98	0x3df8cdea	0.1214865
99	0xbc6d63c0	-0.014489114
100	0x3d252f94	0.040328577
101	0xbd7f9e48	-0.06240681
102	0xbcdde748	-0.027087823
103	0xbd95fc5e	-0.07323526
104	0xbd2b8060	-0.041870475
105	0xbd92d520	-0.071695566
106	0xbdb3f754	-0.087874085
107	0xbd864e3e	-0.06557892
108	0xbdf395ca	-0.11893804
109	0xbda2464e	-0.07923566
110	0xbd6ada08	-0.057336837
111	0x3c92e4f8	0.017931446
112	0xbd26204c	-0.040558144
113	0x3dd7ee2c	0.105434746
114	0xbd89e2fe	-0.067327484
115	0xbd96a11c	-0.07354948
116	0x3dc05aba	0.09392305
117	0xbb89bc40	-0.0042033494
118	0xbd91087e	-0.07081698
119	0xbdf1cb9e	-0.11806415
120	0x3cf96df8	0.030447945
121	0xbc02a670	-0.007974252
122	0xbd0519f4	-0.032495454
123	0xbdd4371e	-0.10362075
124	0xbdbfbbae	-0.09361969
125	0xbd918b52	-0.07106651
126	0xbd116db0	-0.035504997
127	0xbcb63d10	-0.022245914
128	0x3dbd800a	0.09252937
129	0xbda64c1e	-0.08119987
130	0xbdc3b8e2	-0.09556748
131	0x3d2db5ec	0.042409822
132	0x3c9a1d10	0.018812686
133	0x3c962820	0.01832968
134	0x3da4730c	0.08029756
135	0xbdb4ee54	-0.0883452
136	0xbcd1ec98	-0.025625512
137	0xbc4e1f70	-0.0125807375
138	0x3dddf1cc	0.10837135
139	0xbdba6536	-0.09101336
140	0x3dce6b3e	0.100790486
141	0x3cb11940	0.021618485
142	0x3dd3f80e	0.10350047
143	0x3c714de0	0.0147280395
144	0xbd5f61d0	-0.05453664
145	0x3da631d0	0.0811497
146	0xbdcf30e0	-0.10116744
147	0x3debeb8c	0.115195364
148	0x3dcde45e	0.10053323
149	0xbcd2fee8	-0.025756314
150	0x3d85f45a	0.06540747
151	0xbd64846c	-0.05579035
152	0x3db46b02	0.088094726
153	0xbc4b1640	-0.0123954415
154	0x3bd81400	0.006594181
155	0x3db81f0c	0.08990297
156	0x3d80cb4a	0.06288774
157	0xbc720940	-0.014772713
158	0xbc4488d0	-0.011995509
159	0x3dc670c6	0.096894786
160	0x3d776f78	0.06040904
161	0x3ba2a180	0.0049631
162	0x3c024670	0.007951364
163	0xbcb38148	-0.021912232
164	0x3d9a1392	0.07523264
165	0xbdc6917c	-0.09695718
166	0xbdcecb52	-0.10097374
167	0xbd567270	-0.05235523
168	0xbdc74de2	-0.09731652
169	0xbd27c008	-0.04095462
170	0x3c8212d8	0.015878126
171	0x3dfee746	0.12446456
172	0x3c071c70	0.008246526
173	0xba949c80	-0.0011338145
174	0x3d91d6b8	0.071210325
175	0x3d356f2c	0.044295475
176	0x3d61eafc	0.05515574
177	0x3d85f36c	0.0654057
178	0xbd0f48e0	-0.03498161
179	0xbd061cd4	-0.032742336
180	0x3da0a4e8	0.07843953
181	0x3d030bb8	0.031993598
182	0x3d94b9da	0.07262011
183	0xbd710530	-0.058842838
184	0xbddb6010	-0.10711682
185	0xbd5651ac	-0.052323982
186	0x3d45c348	0.048281938
187	0xbdff3a24	-0.12462261
188	0xbd885918	-0.06657618
189	0xbd133c20	-0.03594601
190	0xbde48b0c	-0.111593336
191	0xbd0f2164	-0.034943953
192	0x3cc0dd68	0.023543075
193	0x39513400	0.00019951165
194	0x3d5a068c	0.0532289
195	0x3ddb15ee	0.10697542
196	0x3dc83dd8	0.09777421
197	0x3d0c3550	0.03423053
198	0xbd975c88	-0.07390696
199	0xbd3274e8	-0.04356852
200	0xbdc4f9ea	-0.0961798
201	0x3df3ab9a	0.11897965
202	0xbcffc9f8	-0.031224236
203	0x3d13b75c	0.036063537
204	0x3ddbe95e	0.10737871
205	0x3db5452e	0.088510856
206	0x3db6678e	0.0890647
207	0x3de40528	0.11133796
208	0x3d506330	0.050875843
209	0x3daae31c	0.08344099
210	0xbc857ca0	-0.016294777
211	0xbd410b8c	-0.047130153
212	0x3cbbf550	0.022944123
213	0xbcc0e808	-0.023548141
214	0xbdf09c3c	-0.11748549
215	0x3db58416	0.08863084
216	0xbde7dcd4	-0.113214165
217	0x3da295e6	0.07938747
218	0xbda14f18	-0.07876414
219	0x3dfe2006	0.12408452
220	0x3c146420	0.009057075
221	0xbc934a68	-0.017979816
222	0xbb9abfe0	-0.0047225803
223	0x3ded9b52	0.116018906
224	0xbde997e8	-0.11405927
225	0xbc43ed80	-0.01195848
226	0xbdff429e	-0.12463878
227	0x3db2d50e	0.08732043
228	0xbd59b438	-0.053150386
229	0xbc8d95a8	-0.017283276
230	0x3cbb84b0	0.022890419
231	0x3deacb08	0.114645064
232	0xbdb4a868	-0.088211834
233	0xbd353954	-0.044244125
234	0x3c650bf0	0.013979897
235	0x3d60df74	0.0549006
236	0xbdce460c	-0.10071954
237	0xbdba4772	-0.09095658
238	0x3a0fc900	0.00054849684
239	0x3cc3a2b8	0.023881301
240	0xbde4a246	-0.11163764
241	0xbd8e2966	-0.0694149
242	0xbda856ce	-0.08219682
243	0x3d876336	0.0661072
244	0x3d09b034	0.033615306
245	0xbd26ade0	-0.040693164
246	0xbd45ad7c	-0.04826115
247	0xbd9846a4	-0.07435349
248	0xbde3c87e	-0.11122225
249	0xbd8fcdde	-0.07021688
250	0x3d48cf0c	0.04902558
251	0x3db690d8	0.089143455
252	0xbcaba3d0	-0.020952135
253	0xbc967030	-0.018364042
254	0xbd73dbec	-0.059535906
255	0x3dbf2902	0.093339935

lstm.weight_hh_l0 f4 [256, 64]
0	0x3dfd0a5a	0.1235549
1	0x3d14c220	0.036317945
2	0x3dd34c06	0.10317235
3	0xbcfdda68	-0.030987933
4	0xbd75d744	-0.060019746
5	0x3cda2fb8	0.026634082
6	0x3de35788	0.1110068
7	0x3b333000	0.0027341843
8	0xbd6d1e34	-0.057890132
9	0x3d0e66c0	0.03476596
10	0x3c6d91b0	0.014500067
11	0xbc296c00	-0.010340691
12	0x3df505f6	0.119640276
13	0xbdbf5232	-0.093418494
14	0xbd1e63dc	-0.038669452
15	0x3da75316	0.08170144
16	0xbceac828	-0.028659895
17	0x3ab5a280	0.0013857633
18	0x3da23996	0.0792114
19	0x3c5d6990	0.013513938
20	0x3d9fb298	0.07797736
21	0xbdb10958	-0.0864436
22	0xbcc44c60	-0.0239622
23	0xbd4d1b50	-0.050074875
24	0x3cfdc450	0.030977398
25	0xbcc51778	-0.024059042
26	0xbdde3266	-0.108494565
27	0x3d16f634	0.03685589
28	0x3c3dfb40	0.011595547
29	0xbdf3fd22	-0.119135156
30	0xbdf9c23a	-0.12195249
31	0xbcde8c38	-0.02716647
32	0xbd56593c	-0.052331194
33	0x3d4fee08	0.050764114
34	0x3c87baf8	0.016568646
35	0x3d849702	0.06474115
36	0x3d343910	0.04399973
37	0xbd40dac0	-0.047083616
38	0xbda35f30	-0.0797714
39	0x3bda1420	0.006655231
40	0xbc135c00	-0.0089941025
41	0xbd97d2d8	-0.07413262
42	0xbd94a876	-0.07258694
43	0x3d41cf50	0.04731685
44	0xbd2ade7c	-0.041716084
45	0x3d5771b4	0.05259867
46	0xbdcd1bd4	-0.100150734
47	0xbdd40638	-0.10352749
48	0xbd7364e8	-0.059422404
49	0xbd0f7d70	-0.035031736
50	0xbc53c5e0	-0.012925595
51	0x3de1fb80	0.11034298
52	0x3bdb8e40	0.006700307
53	0x3bcb86c0	0.006211132
54	0xbd90f852	-0.07078613
55	0xbd86ff3c	-0.06591651
56	0xbdfa1922	-0.12211825
57	0xbdbce75c	-0.09223816
58	0xbde550d2	-0.11197056
59	0xbdaf84b2	-0.085702315
60	0x3d7e1714	0.062033728
61	0x3da376fa	0.07981677
62	0xbd5078c8	-0.050896436
63	0xbd477244	-0.048692957
64	0x3d5044fc	0.05084704
65	0xbdb214b2	-0.086953536
66	0xbbc50ca0	-0.006013468
67	0x3d3d9430	0.0462839
68	0xbcbb5138	-0.022865877
69	0xbcdce7d0	-0.026966006
70	0x3d6628dc	0.05619131
71	0x3cb047d0	0.021518618
72	0xbdcfda16	-0.101490185
73	0x3dc26fc6	0.09493975
74	0xbd0714a8	-0.032978684
75	0xbca715e0	-0.020396173
76	0x3da589aa	0.08082898
77	0x3dd008b2	0.101579085
78	0x3cb92290	0.022599488
79	0x3d6bc39c	0.057559595
80	0x3dea881e	0.114517435
81	0x3d20266c	0.039099142
82	0xbd2478d4	-0.040154293
83	0xbd530a48	-0.051523477
84	0xbddafae2	-0.10692383
85	0xbdc6fcd6	-0.097161934
86	0x3d828572	0.06373109
87	0xbca6efb8	-0.020377979
88	0xbca0ca98	-0.019627854
89	0x3de2ad60	0.11068225
90	0x3de90fde	0.113799796
91	0x3d0fe7e8	0.035133272
92	0xbdcfeb7c	-0.10152337
93	0x3d6a48dc	0.05719839
94	0x3dd28b9c	0.102805346
95	0xbcfc50b8	-0.030800208
96	0xbdd84b54	-0.10561243
97	0x3dbeb02a	0.093109444
98	0xbc81df90	-0.015853673
99	0xbdf3c17c	-0.119021386
100	0xbd558504	-0.052128807
101	0x3cb00c98	0.02149038
102	0xbdb004e2	-0.08594681
103	0xbd059cf4	-0.032620385
104	0xbd3fabdc	-0.046794757
105	0xbd4b5490	-0.049641192
106	0xbd82acd2	-0.06380619
107	0x3df8e7ea	0.12153609
108	0xbc95dae8	-0.01829286
109	0x3d2eed28	0.04270664
110	0xbdd8448a	-0.10559948
111	0x3d2f9714	0.04286869
112	0x3d441c04	0.04787828
113	0x3db7dac6	0.089772746
114	0x3d9b352a	0.075784996
115	0x3dbb68f0	0.091508746
116	0x3dbad616	0.09122865
117	0x3da21458	0.079140365
118	0xbdb159fc	-0.08659741
119	0x3dacc280	0.084355354
120	0xbd23d61c	-0.039999112
121	0xbdc7b0c8	-0.09750515
122	0x3c62eb60	0.013850063
123	0x3d96ff9e	0.07372974
124	0xbc1b55b0	-0.009480879
125	0xbd3f4534	-0.046696857
126	0xbc9aa018	-0.018875167
127	0x3d3a5b90	0.045497477
128	0x3d85fe42	0.065426365
129	0x3ca24d88	0.01981236
130	0xbaad2a80	-0.0013211519
131	0xbdb70794	-0.08936992
132	0xbd710248	-0.058840066
133	0xbc8c8650	-0.017153889
134	0x3d048a98	0.032358736
135	0x3dc1c400	0.09461212
136	0x3d80ecbe	0.06295155
137	0x3ce9eb28	0.028554514
138	0x3dde8586	0.10865311
139	0xbddd6538	-0.108103216
140	0xbdbdfbb8	-0.09276527
141	0xbd832f3a	-0.06405492
142	0xbd4034e0	-0.046925426
143	0xbc565ef0	-0.013084158
144	0xbd86291c	-0.0655081
145	0x3d84fbc0	0.0649333
146	0xbdbf19b0	-0.093310714
147	0x3d9041ba	0.07043786
148	0x3ddec368	0.108771145
149	0xbd904154	-0.0704371
150	0x3de11a7a	0.10991378
151	0xbdbded30	-0.092737556
152	0x3ce93a28	0.028470114
153	0x3ccdd688	0.02512671
154	0xbcfade28	-0.03062351
155	0x3df966ac	0.12177786
156	0x3d84239e	0.06452106
157	0x3d2187c0	0.039436102
158	0x3db31580	0.08744335
159	0x3d745a10	0.059656203
160	0x3d63bfa0	0.05560267
161	0xbd0f6048	-0.03500393
162	0x3d9bb01e	0.07601951
163	0xbddcad82	-0.107752815
164	0xbdf9acc6	-0.12191157
165	0x3d9c64f0	0.0763644
166	0xbda7be3c	-0.08190581
167	0x3de7501c	0.112945765
168	0xbd077a54	-0.033075646
169	0x3c2854c0	0.010274112
170	0x3db650bc	0.089021176
171	0xbdcf1d8c	-0.101130575
172	0x3c44d180	0.012012839
173	0x3d5ca080	0.053864002
174	0x3cc5f148	0.024162903
175	0xbc5f5870	-0.013631925
176	0xbd84ffb4	-0.06494084
177	0x3da81da2	0.08208777
178	0x3cd5cae0	0.026097715
179	0xbdf94334	-0.12171021
180	0x3ca04b20	0.019567072
181	0xbd548318	-0.051882833
182	0x3d8d2ae8	0.06892949
183	0x3c3a43c0	0.011368692
184	0xbd126df4	-0.03574939
185	0x3dfa8046	0.122314975
186	0x3d786c70	0.06065029
187	0xbd758df8	-0.059949845
188	0xbd5164d8	-0.051121563
189	0x3d4bb42c	0.049732372
190	0x3d00cc84	0.03144504
191	0xbd0e82e4	-0.034792796
192	0x3c79e270	0.015251741
193	0x3de7d468	0.1131981
194	0x3dc13eac	0.09435782
195	0x3da55b78	0.08074087
196	0x3b5e4840	0.0033917576
197	0x3d16e114	0.036835745
198	0xbdaeaa4a	-0.08528574
199	0xbdaedba2	-0.085379854
200	0x3dcd6d3c	0.100306004
201	0x3d2edcb0	0.042690933
202	0x3de08d5a	0.10964461
203	0x3dd6643c	0.10468337
204	0xbd2fc378	-0.042911023
205	0xbd78a658	-0.060705513
206	0xbd530598	-0.051519006
207	0xbdb6cec6	-0.08926158
208	0xbdf621b0	-0.12018144
209	0xbd8c6f44	-0.0685716
210	0xbda0198e	-0.07817374
211	0xbc82c080	-0.015960932
212	0xbd9f3424	-0.07773617
213	0x3d9d88d8	0.076921165
214	0x3d9d1146	0.0766931
215	0xbdc4d0c6	-0.09610133
216	0xbdc76d00	-0.09737587
217	0x3c52d980	0.012869239
218	0xbdacf71c	-0.0844557
219	0x3df47312	0.119360104
220	0x3db93cc6	0.09044795
221	0x3d8c7ea8	0.06860095
222	0xbdb1cef6	-0.08682053
223	0xbc984760	-0.018588722
224	0xbc436550	-0.01192601
225	0xbd36561c	-0.044515714
226	0x3de37206	0.111057326
227	0x3d89077c	0.06690881
228	0xbd2e46c4	-0.042547956
229	0x3dee37d4	0.11631742
230	0x3d3fa650	0.046789467
231	0x3ca550a8	0.020180061
232	0x3d27a58c	0.040929362
233	0x3d0d13d8	0.034442753
234	0x3ddd7722	0.108137384
235	0xbca4a3c8	-0.020097628
236	0xbdcc6b44	-0.09981397
237	0x3dc2a16a	0.095034435
238	0xba7a3f00	-0.0009546131
239	0xbd1d8a58	-0.038462013
240	0x3d605f8c	0.05477862
241	0x3d2cee18	0.04221925
242	0x3d741e44	0.059599176
243	0x3dbd9b92	0.09258188
244	0x3da7acce	0.08187257
245	0x3d807e92	0.06274141
246	0x3b3f35c0	0.0029176325
247	0x3cb58ee0	0.022162855
248	0x3c01d690	0.007924691
249	0x3dd281be	0.102786526
250	0xbd0767a8	-0.03305784
251	0x3d07363c	0.033010706
252	0x3d720124	0.05908312
253	0x3de302aa	0.110844925
254	0x3dfaa264	0.12238005
255	0x3dc12876	0.094315454

lstm.bias_ih_l0 f4 [256]
0	0xbcf32b20	-0.02968365
1	0x3d7aa3c4	0.061191335
2	0x3c8f2fa8	0.017478779
3	0x3d4f1b50	0.050563157
4	0x3dd25d1c	0.102716655
5	0x3de392e8	0.111120045
6	0xbdc3cd20	-0.09560609
7	0xbcae6830	-0.021289915
8	0xbdf2bb0c	-0.118520826
9	0xbda62982	-0.08113386
10	0x3da5a504	0.08088115
11	0xbcea6228	-0.028611258
12	0x3cc8efb8	0.02452837
13	0x3d8b5218	0.068027675
14	0xbc4fded0	-0.0126874
15	0xbc83ac30	-0.016073316
16	0xbd0a6a90	-0.033793032
17	0x3dda7484	0.10666755
18	0x3dd1ea9a	0.10249825
19	0x3dd5171e	0.104048
20	0x3afbbb80	0.001920566
21	0x3da86eda	0.08224268
22	0x3d9f3e40	0.07775545
23	0xbd8b4736	-0.06800692
24	0xbde37c4e	-0.111076936
25	0x3de5bbd8	0.11217469
26	0x3de5b70e	0.112165555
27	0x3decf702	0.115705505
28	0x3d79b55c	0.060963973
29	0xbde660d6	-0.11248939
30	0x3d10be50	0.035337746
31	0xbcac8870	-0.021061152
32	0xbda0588e	-0.078293905
33	0x3ca5b2a0	0.020226777
34	0x3d8b35e0	0.06797385
35	0x3d9bbc68	0.07604295
36	0xbd403df0	-0.04693407
37	0x3d2493b0	0.04017991
38	0xbdd3a240	-0.10333681
39	0xbdce07b4	-0.10060063
40	0xbdfd962a	-0.12382157
41	0x3d263550	0.040578187
42	0x3cf74768	0.030185416
43	0x3dfd2208	0.123600066
44	0xbd1099dc	-0.03530298
45	0x3bf77600	0.0075519085
46	0x3d1f2a34	0.038858607
47	0x3d1d2f98	0.038375467
48	0x3c524ef0	0.012836203
49	0xbcc9e478	-0.024645075
50	0xbdffa440	-0.124825
51	0xbc81ad38	-0.015829667
52	0xbd81c60e	-0.06336604
53	0xbd68a38c	-0.056796595
54	0x3d57c2c4	0.052675977
55	0xbbbce500	-0.0057646036
56	0x3d088f80	0.033339977
57	0x3dad5ea2	0.084653154
58	0xbdf16edc	-0.11788723
59	0x3bc18960	0.005906269
60	0x3b4a8640	0.0030902773
61	0x3ca6ca80	0.020360231
62	0x3c4bc3e0	0.012436837
63	0x3d3f5b64	0.046718016
64	0xbd55bd1c	-0.052182302
65	0xbc1b2af0	-0.009470686
66	0xbd92a97e	-0.07161234
67	0x3dd172cc	0.10226974
68	0xbd07ece0	-0.033184886
69	0xbd28c024	-0.041198865
70	0xbdc0c1fc	-0.094119996
71	0xbbeaafa0	-0.0071620494
72	0xbd31d548	-0.04341629
73	0x3dd0bb2a	0.10191949
74	0xbb056600	-0.0020354986
75	0xbdc3a764	-0.095534116
76	0x3de9b8d8	0.11412209
77	0x3d424a78	0.0474343
78	0xbd429998	-0.04750976
79	0x3d9c3c7a	0.076287225
80	0xbd5f1bcc	-0.05446987
81	0xbd0cc094	-0.034363344
82	0x3ba59b20	0.0050538927
83	0x3da2e6a2	0.07954146
84	0xbd449264	-0.04799117
85	0x3d2c7310	0.04210192
86	0xbd960378	-0.0732488
87	0x3deca710	0.11555302
88	0xbd10d558	-0.03535971
89	0x3cadef18	0.021232173
90	0x3df3c008	0.119018614
91	0xbd22cce4	-0.03974618
92	0x3d10082c	0.035164043
93	0xbdd3b7b4	-0.10337773
94	0x3db3f252	0.08786453
95	0x3ce38ec8	0.027778044
96	0x3d812178	0.06305212
97	0x3dce32c0	0.100682735
98	0xbdb63c70	-0.08898246
99	0xbd9bd5a6	-0.076091096
100	0xbdb095da	-0.08622332
101	0xbdf90a2c	-0.12160143
102	0x3daaad80	0.08333874
103	0x3df4e852	0.11958374
104	0x3db1f00c	0.086883634
105	0x3da9df24	0.08294514
106	0xbdd1be24	-0.102413446
107	0x3decb69e	0.11558269
108	0x3cf40fd8	0.029792711
109	0xbd38639c	-0.04501687
110	0xbdf2bcdc	-0.11852428
111	0xbd6482b0	-0.055788696
112	0x3dd93358	0.10605496
113	0xbc967920	-0.018368304
114	0x3d1c4fb8	0.038161963
115	0x3de34b08	0.110982955
116	0xbd525db0	-0.05135888
117	0xbd8da91c	-0.06917021
118	0x3b5b63c0	0.0033476204
119	0x3ac43f00	0.0014972389
120	0xbd99b9f6	-0.07506172
121	0xbde743a2	-0.11292197
122	0x3d14b060	0.036301017
123	0xbdb21fa4	-0.08697441
124	0x3dc7b496	0.09751241
125	0xbd5209f4	-0.051279023
126	0x3cf2eff0	0.029655427
127	0xbd33ba40	-0.043878794
128	0xbda2262c	-0.07917437
129	0x3ddaa724	0.10676411
130	0xbdba99a4	-0.09111336
131	0x3deca61a	0.11555119
132	0xbd6d8534	-0.05798836
133	0x3ce71178	0.028206572
134	0xbdef9a9c	-0.11699411
135	0xbdb60368	-0.088873684
136	0xbd92ca50	-0.07167494
137	0x3c9440a8	0.018097237
138	0xbddef14a	-0.10885866
139	0xbd5d2ef4	-0.053999856
140	0xbdf1c5fa	-0.11805339
141	0x3cac9190	0.021065503
142	0xbce6d6e0	-0.028178632
143	0x3d8b51b2	0.068026915
144	0xbdb631a0	-0.08896184
145	0x3de4c4e0	0.111703634
146	0x3cd52320	0.026017725
147	0x3d13bd98	0.036069483
148	0x3dc5b346	0.09653334
149	0x3ced0408	0.028932586
150	0x3d038f8c	0.03211932
151	0xbddbc84c	-0.10731563
152	0x3cdadd08	0.026716724
153	0x3ce06208	0.027390495
154	0x3ad97580	0.0016590804
155	0x3d566738	0.05234453
156	0xbd8a002c	-0.06738314
157	0x3df1451c	0.1178076
158	0x3df52f9c	0.119719714
159	0x3d916f86	0.071013495
160	0x3dc7dc96	0.0975887
161	0xbdd45c54	-0.10369173
162	0xbdaa840e	-0.08325969
163	0xbb149e80	-0.0022677481
164	0x3c4d6990	0.012537375
165	0xbdebf8e2	-0.1152208
166	0xbdbeff1c	-0.09326002
167	0xbd83caca	-0.06435163
168	0xbd9b25d2	-0.07575573
169	0xbd7a46d0	-0.06110269
170	0x3d06e3dc	0.032932147
171	0xbd87fb78	-0.06639761
172	0xbd3c7328	-0.04600826
173	0x3d220d34	0.039563373
174	0x3d6027cc	0.054725453
175	0x3da40500	0.08008766
176	0xbde51e08	-0.11187369
177	0x3db584e8	0.088632405
178	0xbd98d040	-0.074615955
179	0xbdbeff6a	-0.0932606
180	0xbddc9aca	-0.10771711
181	0xbda4665e	-0.080273375
182	0xbd85faf2	-0.06542005
183	0xbd66eb04	-0.056376472
184	0x3dd27892	0.10276903
185	0x3db56f60	0.08859134
186	0x3df4733e	0.11936043
187	0x3dd6b7fa	0.104843095
188	0x3d8bf890	0.06834519
189	0xbde54e3c	-0.11196563
190	0xbdcba08a	-0.0994273
191	0xbb110840	-0.0022130162
192	0x3dfae5b2	0.12250842
193	0x3da0f3a0	0.07858968
194	0x3cd65030	0.026161283
195	0xbd0785a8	-0.03308645
196	0x3ce68020	0.028137267
197	0x3d500dc0	0.050794363
198	0x3ddff130	0.10934675
199	0x3c56c050	0.013107374
200	0xbce6ac40	-0.028158307
201	0x3c48b9c0	0.0122513175
202	0x3d224cd8	0.039624065
203	0x3c040b60	0.008059353
204	0x3be52d80	0.0069939494
205	0x3dfc02f8	0.12305254
206	0x3de50930	0.11183393
207	0xbd835958	-0.06413525
208	0x3d18af30	0.037276447
209	0xbce5b5b8	-0.028040752
210	0x3cd13e28	0.025542334
211	0xbc25ca50	-0.010119036
212	0x3d0286d0	0.03186685
213	0xbd24425c	-0.040102348
214	0x3d78e2dc	0.060763225
215	0x3da229a6	0.079181
216	0xbc88f160	-0.01671666
217	0x3dfcf35e	0.12351106
218	0x39f16800	0.00046044588
219	0xbd3d4130	-0.046204746
220	0xbde540e0	-0.111940145
221	0xbde848e4	-0.11342028
222	0x3d1c9e2c	0.038236782
223	0x3d38e1c0	0.045137167
224	0xbd0846f8	-0.033270806
225	0x3d38eea8	0.045149475
226	0x3cee3640	0.029078603
227	0x3db43bbc	0.08800456
228	0xbbc7a840	-0.006093055
229	0xbd78be08	-0.060728103
230	0xbdda4212	-0.10657133
231	0xbd118724	-0.03552927
232	0x3df231ac	0.118258804
233	0xbdca2022	-0.0986941
234	0x3d834774	0.06410113
235	0xbd2aa8e4	-0.041664973
236	0x3cd53dc8	0.026030436
237	0xbd80a28a	-0.06281002
238	0x3de30d22	0.11086489
239	0xbd8052a8	-0.062657654
240	0x3d727c9c	0.059200868
241	0x3dcd9f5a	0.100401595
242	0xbd5e4df4	-0.05427356
243	0x3d5b68b4	0.05356665
244	0x3dd4a264	0.10382536
245	0xbd03905c	-0.032120094
246	0x3d5ff220	0.054674268
247	0x3dcf2baa	0.1011575
248	0xbdfe9380	-0.12430477
249	0x39f6c000	0.00047063828
250	0xbdd98d84	-0.10622695
251	0x3dfeb60a	0.12437065
252	0x3ddb2ce6	0.10701923
253	0x3d85f582	0.065409675
254	0x3d6b3a28	0.05742851
255	0xbdd7e49c	-0.10541651

lstm.bias_hh_l0 f4 [256]
0	0x3de3331e	0.11093734
1	0xbdaaf4f6	-0.08347504
2	0x3dae24ae	0.0850309
3	0xbd5319b8	-0.0515382
4	0xbdad3aa0	-0.084584475
5	0xbc574430	-0.013138816
6	0xbd83b4b8	-0.06430954
7	0xbc747ee0	-0.0149228275
8	0x3d24c50c	0.04022698
9	0xbd776a30	-0.060404003
10	0x3ce18620	0.027529776
11	0xbc5c8960	-0.013460487
12	0xbd2ca0bc	-0.042145476
13	0x3deb8f2e	0.11501919
14	0x3d93814a	0.07202394
15	0x3dcd2a3e	0.10017823
16	0x3dd83f2a	0.105589226
17	0x3dee6a9e	0.11641429
18	0x3dab7122	0.08371188
19	0xbd77552c	-0.06038396
20	0x3dabd3d8	0.08390015
21	0xbdd1fe38	-0.102535665
22	0xbdd9b870	-0.10630882
23	0x3b621e80	0.0034503043
24	0xbd850272	-0.06494607
25	0x3c1ff360	0.009762615
26	0x3ddcbf42	0.10778667
27	0x3dace7f8	0.08442682
28	0xbd0a5a10	-0.033777297
29	0x3dcbbd9a	0.09948273
30	0xbd8e9790	-0.06962502
31	0x3de94004	0.11389163
32	0x3d5617c4	0.05226876
33	0x3cc1ab68	0.023641303
34	0xbdb8797a	-0.09007545
35	0xbd68f0c8	-0.056870252
36	0xbda4e056	-0.08050601
37	0xbd1ce51c	-0.038304433
38	0xbd12ac0c	-0.035808608
39	0xbd992bc0	-0.07479048
40	0x3bb87f40	0.0056304038
41	0x3de580b6	0.1120619
42	0x3de17662	0.11008908
43	0xbd375368	-0.044757277
44	0x3da58b00	0.08083153
45	0x3a824780	0.0009939522
46	0xbdb8ebe6	-0.09029369
47	0xbd939766	-0.07206611
48	0x3cf233a8	0.029565647
49	0x3d0ad2c8	0.033892423
50	0x3d817e94	0.06322971
51	0xbc7e4540	-0.01551944
52	0xbdaeb464	-0.085305005
53	0x3cde5c78	0.027143702
54	0xbdb6cc40	-0.08925676
55	0x3db33f2e	0.08752285
56	0xbd976d6e	-0.07393919
57	0xbd998bda	-0.07497378
58	0xbc01c7e0	-0.007921189
59	0xbda89196	-0.08230893
60	0x3d025f38	0.03182909
61	0x3d99567e	0.074872
62	0x3d9099b4	0.070605665
63	0x3dbfc9b0	0.09364641
64	0xbdbb8f60	-0.09158206
65	0x3d5a5ef0	0.053313196
66	0x3de1b3ce	0.11020623
67	0xbd849510	-0.06473744
68	0xbcc4f0c8	-0.024040595
69	0xbd004ccc	-0.03132324
70	0x3d998d46	0.07497649
71	0x3d82907a	0.06375213
72	0x3ccd2508	0.025042072
73	0xbd388d28	-0.045056492
74	0xbcd3bde0	-0.025847375
75	0xbc1144c0	-0.008866489
76	0x3d6a92c0	0.057268858
77	0xbdf5aebe	-0.1199622
78	0x3d7f7940	0.062371492
79	0x3a89e600	0.0010520816
80	0xbd545298	-0.05183658
81	0xbded532a	-0.11588128
82	0x3d488644	0.04895617
83	0xbd931e44	-0.07183507
84	0xbdf704fc	-0.120614976
85	0x3cc25068	0.023719981
86	0x3da9fe34	0.083004385
87	0x3d551fc0	0.052032232
88	0xbdd1036e	-0.10205732
89	0xbceda468	-0.02900906
90	0xbdc149c0	-0.09437895
91	0xbd55efcc	-0.05223064
92	0x3d6ee990	0.05832821
93	0x3d11f94c	0.03563814
94	0xbd232768	-0.039832503
95	0xbceac9a8	-0.02866061
96	0xbdb63352	-0.08896507
97	0x3dde1646	0.10844092
98	0xbce3a870	-0.027790278
99	0xbd98bcae	-0.07457863
100	0xbc1c1df0	-0.009528622
101	0xbcd9e428	-0.026598051
102	0xbc4a8890	-0.012361661
103	0xbd8c248e	-0.0684291
104	0xbdf31270	-0.11868751
105	0xbdb32cfe	-0.08748816
106	0xbdfa2c26	-0.12215452
107	0xbd8df2da	-0.06931086
108	0xbd99e840	-0.07515001
109	0x3d90b52a	0.07065804
110	0xbd42d134	-0.047562793
111	0x3d337c50	0.043819726
112	0x3d24215c	0.040070876
113	0x3c12ad30	0.008952424
114	0x3d7eb60c	0.062185332
115	0xbd9bc808	-0.07606512
116	0xbaad5b80	-0.0013226122
117	0x3c316070	0.010826215
118	0x3dd7a714	0.105299145
119	0xbd845b14	-0.06462684
120	0x3d8c7e84	0.068600684
121	0xbd909396	-0.070594
122	0xbc122670	-0.008920297
123	0x3dca6236	0.098820135
124	0x3d265bd8	0.040614933
125	0xbda7057c	-0.08155343
126	0x3dc63aca	0.09679182
127	0xbdfad7e4	-0.12248209
128	0x3d99f10c	0.07516679
129	0xb92c5800	-0.00016435981
130	0x3dbb7150	0.09152472
131	0x3d6b83a4	0.05749859
132	0x3d84877e	0.064711556
133	0x3d34194c	0.043969437
134	0x3cc68e00	0.024237633
135	0x3de92ac2	0.113851085
136	0x3dc55068	0.09634477
137	0x3dc1f2d6	0.094701454
138	0xbc9c1f58	-0.019057915
139	0x3dd9f60c	0.10642633
140	0x3d61b4b0	0.055103958
141	0x3db9f9d4	0.09080854
142	0xbdf7dfe4	-0.121032506
143	0xbdf36928	-0.11885291
144	0x3d8865e4	0.06660059
145	0x3d0334c0	0.03203273
146	0xbdc94d4c	-0.09829196
147	0xbd96cd1c	-0.0736334
148	0xbddb34a0	-0.10703397
149	0x3df60e76	0.12014477
150	0xbc199af0	-0.009375319
151	0xbdd24da0	-0.10268712
152	0xbc558fd0	-0.013034776
153	0xbdb0fa68	-0.08641511
154	0xbd5091e8	-0.050920397
155	0x3cfd8b30	0.030950159
156	0xbd1ad418	-0.037799925
157	0xbd8347f0	-0.06410205
158	0x3dd46b58	0.10372037
159	0x3db20bbc	0.086936444
160	0x3dbd8bf8	0.092552125
161	0x3dd4258c	0.10358724
162	0xbc99fe40	-0.018797994
163	0xbdb66bae	-0.08907257
164	0x3d882912	0.066484585
165	0xbda0f7da	-0.07859774
166	0x3d1b6d28	0.037945896
167	0x3d234168	0.039857298
168	0x3d5b54f0	0.0535478
169	0xbd5a270c	-0.053259894
170	0x3d45a6a4	0.048254624
171	0xbaa17180	-0.0012317151
172	0x3ca79e20	0.020461142
173	0x3cf44a80	0.02982068
174	0x3dcc43f6	0.099739
175	0xbdacfac0	-0.08446264
176	0x3db03ea6	0.08605699
177	0x3d103cec	0.03521435
178	0xbc484d00	-0.0122253895
179	0x3d9bc65c	0.076061934
180	0x3bb79860	0.0056028813
181	0x3b86d040	0.004114181
182	0x3c04d570	0.008107528
183	0xbdf517d6	-0.11967437
184	0xbdb33754	-0.087507874
185	0x3db3de1a	0.08782597
186	0x3c29a2f0	0.010353789
187	0x3c44f740	0.01202184
188	0x3d97ee5e	0.07418512
189	0x3d42304c	0.04740934
190	0x3dbba306	0.09161954
191	0x3a7e3d00	0.0009698421
192	0x3dbe33cc	0.09287223
193	0xbd6ad6fc	-0.05733393
194	0xbca1f300	-0.019769192
195	0x3d170fd0	0.036880314
196	0xbdecdb92	-0.11565317
197	0xbdefe0d6	-0.11712806
198	0x3dfe184c	0.12406978
199	0x3d7b1438	0.06129858
200	0x3da3d5e4	0.07999781
201	0x3df22fd4	0.11825529
202	0xbd3caa38	-0.04606077
203	0x3db8468c	0.08997831
204	0x3ce85e08	0.02836515
205	0x3cb00410	0.021486312
206	0xbcd5ab78	-0.02608274
207	0x3d89469a	0.06702919
208	0xbd54bb14	-0.051936224
209	0x3c0b6d30	0.008509919
210	0xbdb262aa	-0.08710225
211	0x3de79fb6	0.11309759
212	0x3ccc9228	0.024972036
213	0x3cede450	0.029039532
214	0xbdbbd27a	-0.091710046
215	0x3c641dc0	0.013923109
216	0xbdc3c352	-0.09558739
217	0x3ca41678	0.020030245
218	0x3d6802d0	0.056643307
219	0x3dcbabc4	0.09944871
220	0x3d9a8f70	0.0754689
221	0x3aa4d980	0.0012577027
222	0x3ba73fa0	0.0051040202
223	0xbcdf5498	-0.027262017
224	0x3da65880	0.08122349
225	0xbde182ce	-0.11011277
226	0x3d92b0f0	0.071626544
227	0x3ddca98e	0.107745275
228	0x3ca9dec0	0.020736098
229	0xbddc4312	-0.1075498
230	0xbdbfbe68	-0.09362489
231	0x3df6dd14	0.12053886
232	0xbdbd8d10	-0.09255421
233	0xbc997238	-0.018731222
234	0xbdfbe81a	-0.12300129
235	0x3db0e9ce	0.08638345
236	0xbd026fc0	-0.031844854
237	0x3d06419c	0.032777414
238	0xbc48a2d0	-0.012245849
239	0xbdafaf24	-0.08578327
240	0x3b83c240	0.004020959
241	0x3b31a000	0.0027103424
242	0x3df5e7b8	0.120070875
243	0x3d667c8c	0.05627112
244	0x3d9f091c	0.07765409
245	0x3c6886f0	0.014192328
246	0x3dd21a8c	0.1025897
247	0xbce4b930	-0.027920336
248	0x3d6d8abc	0.057993636
249	0xbdb154b6	-0.086587355
250	0x3d7fdab4	0.06246443
251	0x3c261950	0.010137871
252	0xbde8c680	-0.11365986
253	0x3dec8374	0.1154851
254	0xbb54cec0	-0.0032471865
255	0xbdbb47f8	-0.09144586

lstm.weight_ih_l1 f4 [256, 64]
0	0x3dccac8e	0.0999385
1	0xbdca027e	-0.098637566
2	0xbdd2867e	-0.102795586
3	0x3da4f989	0.080554076
4	0xbdd70730	-0.10499418
5	0x3dc2ce5a	0.09512015
6	0x3d869be4	0.065727025
7	0xbc58b860	-0.013227552
8	0xbddf9252	-0.1091658
9	0x3dd0e8ae	0.1020063
10	0xbdb79884	-0.08964637
11	0xbc3237a0	-0.01087752
12	0x3d8c4ac0	0.06850195
13	0xbcba8a98	-0.022771165
14	0x3d1027d4	0.035194233
15	0xbd05d444	-0.032673135
16	0xbc56bdc0	-0.013106763
17	0xbd110ca0	-0.03541243
18	0x3d17cc14	0.03705986
19	0x3dc56c20	0.09639764
20	0x3c30b6a0	0.010785729
21	0x3d0ee1b0	0.0348832
22	0xbd5d7418	-0.054065794
23	0x3d4bc0e0	0.049744487
24	0x3db148e3	0.0865648
25	0x3dfc6c18	0.12325305
26	0x3d70c034	0.05877705
27	0xbcb4b680	-0.022059679
28	0x3d365004	0.044509903
29	0xbd2b8538	-0.041875094
30	0x3da06b76	0.078329965
31	0x3b7ec42d	0.0038874254
32	0x3c99ecff	0.018789766
33	0xbd4290cc	-0.04750137
34	0xbdb56ea4	-0.08858994
35	0x3dd9c88a	0.10633953
36	0x3ce1ca88	0.027562395
37	0x3dcd50fc	0.10025212
38	0xbc8fc070	-0.017547816
39	0x3d8222ea	0.063543156
40	0xbdf00db8	-0.11721367
41	0xbdb85aca	-0.09001692
42	0x3d82c2e6	0.0638483
43	0xbd2ea33c	-0.04263614
44	0x3c82f500	0.015985966
45	0x3e07fcf9	0.13280095
46	0xbd983eb6	-0.07433836
47	0xbd684381	-0.056705
48	0xbd1e8b5c	-0.038707122
49	0x3dc2fbf2	0.09520711
50	0x3d940aee	0.07228647
51	0xbdb6b0c0	-0.08920431
52	0x3d3ce620	0.0461179
53	0xbcc467e8	-0.023975328
54	0xbc9a3998	-0.018826291
55	0x3daac0b4	0.083375365
56	0x3d96cac2	0.07362892
57	0x3dc83336	0.09775393
58	0x3df22966	0.118243024
59	0xbd4a73c4	-0.04942681
60	0x3dcdd798	0.10050887
61	0xbd26f8d0	-0.04076463
62	0xbc8bed38	-0.017080888
63	0x3d7a598c	0.061120555
64	0x3ca2d1fa	0.019875515
65	0xbddeedf6	-0.10885231
66	0x3c2946d0	0.010331824
67	0xbc8049ad	-0.015660131
68	0xbde4a078	-0.111634195
69	0xbb885c60	-0.0041614026
70	0x3c463900	0.012098551
71	0x3dbb7d46	0.091547534
72	0x3dd6b04a	0.10482843
73	0x3d96c40a	0.0736161
74	0xbdf91a80	-0.121632576
75	0xbd98a4a8	-0.07453281
76	0xbda03752	-0.078230515
77	0xbda3a3c8	-0.07990223
78	0x3d1e58f8	0.038659066
79	0x3cffc338	0.031221017
80	0xbdcf38d8	-0.10118264
81	0x3d0eaa84	0.034830585
82	0x3def1e52	0.11675705
83	0x3b4899c0	0.003060922
84	0x3d357e9c	0.044310197
85	0xbdcf5478	-0.10123533
86	0x3d7f155c	0.06227623
87	0xbd187224	-0.037218228
88	0x3d56c1b5	0.052430827
89	0x3d7204f0	0.05908674
90	0xbd563a98	-0.052301973
91	0x3d079fb4	0.03311129
92	0xbd7f9428	-0.062397152
93	0xbc96de10	-0.018416435
94	0x3da6252c	0.08112559
95	0x3d4d2e22	0.050092824
96	0xbd8d59d1	-0.06901897
97	0x3db27408	0.087135375
98	0x3dbf07e8	0.0932768
99	0xbd9f3dd0	-0.07775462
100	0x3de8fff6	0.11376946
101	0x3dbe9790	0.09306252
102	0x3d279de4	0.04092206
103	0xbdc4d518	-0.09610957
104	0xbd964f54	-0.073393494
105	0x3d943413	0.07236495
106	0x3de0e436	0.10981028
107	0xbd053203	-0.032518398
108	0x3d99986c	0.07499775
109	0x3dc7d398	0.09757155
110	0x3dd7048c	0.10498914
111	0xbdaf7336	-0.085668966
112	0x3de67c0e	0.1125413
113	0x3da18966	0.07887535
114	0xbce024b8	-0.027361259
115	0xbdcf1bd4	-0.1011273
116	0xbcaf37d0	-0.021388918
117	0x3dc9bfee	0.09851061
118	0xbdb77de2	-0.08959557
119	0x3d917ba4	0.07103661
120	0x3dd4dc4a	0.10393579
121	0x3d9f6f1a	0.07784863
122	0xbd76230c	-0.060092017
123	0xbde089c6	-0.10963778
124	0xbcf6bbb7	-0.030118806
125	0xbda9078e	-0.08253394
126	0xbdab618a	-0.083682135
127	0x3d2888a8	0.04114595
128	0xbccfdad7	-0.025372906
129	0x3da98862	0.08277966
130	0xbdcdd818	-0.10050982
131	0xbbb81a8b	-0.0056183985
132	0xbde37e9a	-0.11108132
133	0xba3aeb00	-0.00071303546
134	0xbd2e41dc	-0.042543277
135	0x3d6324c8	0.055455
136	0x3da56788	0.08076388
137	0x3d38a870	0.04508251
138	0xbca71b18	-0.020398661
139	0xbd416e08	-0.047224075
140	0x3c997ec0	0.018737197
141	0x3db71908	0.08940321
142	0x3dfc9c40	0.1233449
143	0x3dd5d796	0.104415104
144	0x3db1b7f2	0.08677663
145	0xbdc94526	-0.09827642
146	0x3ca08360	0.019593894
147	0xbdda8fac	-0.106719345
148	0xbde85dda	-0.11346026
149	0x3da2e7d4	0.07954374
150	0x3dac69a2	0.08418585
151	0xbd038880	-0.0321126
152	0x3cc49966	0.023998927
153	0xbdba179e	-0.09086536
154	0xbdd84478	-0.105599344
155	0xbd2cb46c	-0.04216425
156	0x3cf3dba0	0.029767811
157	0xbd3786d4	-0.044806316
158	0x3c16f9b0	0.009214804
159	0xbdb9c4e6	-0.090707585
160	0xbdd678fd	-0.104722954
161	0xbd7fee8c	-0.062483355
162	0xbcea8998	-0.028630063
163	0xbd9085b2	-0.0705675
164	0x3da92206	0.082584426
165	0xbda832d2	-0.08212818
166	0xbcb19ae0	-0.021680295
167	0x3db1444e	0.08655606
168	0x3ddfe0ee	0.10931574
169	0xbd859865	-0.065232076
170	0x3d01e2d4	0.03171046
171	0x3c970d0e	0.018438842
172	0xbdd71fea	-0.10504134
173	0xbd7d4460	-0.061832786
174	0x3da0a86a	0.078446224
175	0x3d9227f0	0.07136524
176	0x3c46b020	0.012126952
177	0x3dda87aa	0.10670407
178	0x3d61e454	0.05514939
179	0xbd8e89b0	-0.069598556
180	0xbd6813a0	-0.05665934
181	0xbdcbfb74	-0.0996007
182	0x3dbac9ee	0.09120546
183	0xbbc286e0	-0.0059364885
184	0xbdae8860	-0.08522105
185	0xbbc64240	-0.006050378
186	0xbdd93542	-0.10605861
187	0x3ddf1514	0.10892692
188	0x3b663417	0.0035126263
189	0x3cec70c8	0.028862372
190	0xbd0fa978	-0.035073727
191	0x3d068214	0.032838896
192	0xbdd837d1	-0.10557521
193	0xbc632240	-0.013863146
194	0x3d5f692c	0.05454366
195	0x3d9a78c4	0.075425655
196	0x3c9cd848	0.0191461
197	0x3dbdbe60	0.09264827
198	0xbd90147c	-0.07035157
199	0xbde0acc0	-0.109704494
200	0xbdd40588	-0.103526175
201	0xbdf5099e	-0.11964725
202	0x3d05ecf0	0.032696664
203	0x3c14d630	0.009084269
204	0x3c7a3044	0.0152702965
205	0x3c3b87e0	0.011445969
206	0xbd258d38	-0.04041788
207	0x3d6f5c98	0.058437914
208	0xbd314b88	-0.043284923
209	0x3df2b962	0.11851765
210	0x3d7a65c8	0.061132222
211	0xbd598850	-0.053108513
212	0xbc30f9f0	-0.010801777
213	0x3cea25f8	0.028582558
214	0x3d4ed428	0.050495297
215	0x3c057ee0	0.008147925
216	0x3d7b6617	0.061376657
217	0x3cba5f28	0.022750452
218	0xbd6696d8	-0.0562962
219	0xbd4c4eac	-0.049879715
220	0x3d4c503c	0.049881205
221	0xbc948838	-0.01813136
222	0xbdefa3d2	-0.11701168
223	0xbdd52ca2	-0.10408904
224	0xbddd09e5	-0.10792903
225	0xbd6775e0	-0.0565089
226	0x3dd2fdc6	0.1030231
227	0x3d3f694c	0.04673128
228	0x3d65c7dc	0.056098804
229	0xbdb3688c	-0.08760175
230	0xbd92ce10	-0.071682096
231	0xbdeb91bc	-0.11502406
232	0xbc1f1c20	-0.009711295
233	0x3c9ca663	0.019122308
234	0xbdfb4ad6	-0.12270133
235	0x3d595485	0.05305912
236	0xbd0f6694	-0.035009935
237	0x3d878e0d	0.06618891
238	0x3d9763e4	0.073920995
239	0x3d86a943	0.06575253
240	0x3d1105a8	0.035405785
241	0xbd2e5298	-0.042559236
242	0xbdd788a8	-0.10524112
243	0x3c0c22b0	0.008553192
244	0xbdc040e6	-0.093873784
245	0xbd8f511a	-0.06997891
246	0xbd47a8c0	-0.048744917
247	0xbd9aec72	-0.075646296
248	0x3df6ae56	0.12044971
249	0xbdcf3930	-0.101183295
250	0xbde57694	-0.112042576
251	0xbdd2e04a	-0.10296686
252	0xbc71d4be	-0.014760194
253	0x3d147570	0.03624481
254	0x3c67ff40	0.014159977
255	0xbdb82b44	-0.08992627

lstm.weight_hh_l1 f4 [256, 64]
0	0x3d2deceb	0.04246227
1	0xbcd9f2ec	-0.026605092
2	0x3d83fe29	0.064449616
3	0x3c24b341	0.010052503
4	0x3dabdbf5	0.08391563
5	0xbc1a3548	-0.009412117
6	0x3e0f0187	0.13965426
7	0xbc89d217	-0.016823811
8	0x3d938deb	0.07204803
9	0xbc5c5aab	-0.013449351
10	0x3d553554	0.05205281
11	0xbd356d16	-0.044293486
12	0xbd09c4c8	-0.03363493
13	0x3dbf00c3	0.09326317
14	0xbd6e2e75	-0.058149774
15	0xbdb0d0be	-0.086335644
16	0x3dc169c5	0.09444002
17	0x3c4b1b21	0.012396605
18	0xbdc72389	-0.09723575
19	0x3c4ff5dd	0.012692896
20	0x3b7fbc0d	0.0039022
21	0x3d87119a	0.06595154
22	0xba7a28ee	-0.0009542842
23	0xbc86f70a	-0.01647522
24	0x3d8bcf2d	0.06826625
25	0xbdb4448a	-0.08802135
26	0x3d7fd113	0.062455248
27	0xbe114ee7	-0.14190255
28	0xbd0df8c7	-0.03466108
29	0xbc6b36f2	-0.014356362
30	0x3da88a1e	0.08229469
31	0x3da81a5d	0.082081534
32	0xbdfe21ac	-0.12408766
33	0xbde08d61	-0.10964466
34	0xbd734c13	-0.059398722
35	0x3caefa99	0.021359729
36	0x3d2d419f	0.04229891
37	0xbd2cc5eb	-0.042180937
38	0x3d23c9f2	0.039987512
39	0xbe0df85b	-0.13864271
40	0xbde0b5ca	-0.109721735
41	0x3ce253e1	0.027627887
42	0x3d861935	0.065477766
43	0xbdbe26e5	-0.09284762
44	0x3da76534	0.081736
45	0x3da11d6f	0.07866942
46	0x3ceeac5d	0.029134924
47	0xbdabb21e	-0.083835825
48	0xbddc9742	-0.10771038
49	0xbd376e87	-0.04478314
50	0xbd5bc5fd	-0.053655613
51	0xbd364fbd	-0.044509638
52	0xbd7e7254	-0.06212075
53	0x3d97c58c	0.07410726
54	0x3e040347	0.12891875
55	0xbdeb35ee	-0.11484896
56	0x3cb1acec	0.0216889
57	0x3dafcc9c	0.08583948
58	0x3d7756fa	0.06038568
59	0xbd5de23f	-0.054170843
60	0xbd598e8a	-0.05311445
61	0xbd35774e	-0.04430323
62	0xbdc98d01	-0.098413475
63	0xbdc6bd2d	-0.09704051
64	0x3d9e66ef	0.07734477
65	0xbb764359	-0.0037576763
66	0xbda033cc	-0.078223795
67	0x3d465d22	0.048428662
68	0x3c4af6fb	0.012387986
69	0x3e10730f	0.14106391
70	0xbd7052de	-0.05867278
71	0x3d0262a1	0.03183234
72	0xbe0691b0	-0.13141513
73	0xbdd1aeaf	-0.102383964
74	0xbdbe007c	-0.09277436
75	0xbdd1543e	-0.10221146
76	0xbb10d248	-0.0022097994
77	0x3e00daeb	0.1258351
78	0x3e0402d1	0.128917
79	0xbc2bc4ab	-0.010483901
80	0xbc49ebd6	-0.012324294
81	0x3d3f92c3	0.046770822
82	0xbd2d7b15	-0.04235371
83	0x3dc40f28	0.09573203
84	0x3d46d364	0.04854144
85	0x3a1fc06a	0.00060940406
86	0x3de431d4	0.111423165
87	0x3da1de82	0.07903768
88	0x3da03881	0.07823277
89	0x3dcf1665	0.10111693
90	0x3d51afba	0.051192977
91	0xbd6d555d	-0.057942737
92	0x3d880d62	0.066431776
93	0x3d78e9f1	0.06076998
94	0xbe0a5e68	-0.13512576
95	0xbd3bfcae	-0.04589527
96	0x3d38579b	0.045005422
97	0xbd42461b	-0.04743014
98	0xbd32b56e	-0.043630056
99	0xbd604b86	-0.054759525
100	0xbdcdcebe	-0.100491986
101	0x3cd882fe	0.02642965
102	0x3dcb0f1d	0.09914992
103	0x3bb8fc5d	0.0056453184
104	0x3dafb698	0.08579749
105	0xbd13ff43	-0.03613211
106	0x3db2bbd3	0.08727231
107	0xbd0bc042	-0.0341189
108	0xbd586206	-0.052827857
109	0x3c8c9816	0.017162364
110	0x3cc10b36	0.023564916
111	0x3c9cde02	0.01914883
112	0xbdc16d51	-0.094446786
113	0x3dfd4d86	0.12368302
114	0xbd69d60c	-0.057088897
115	0xbcd9cc30	-0.026586622
116	0x3de4c4cf	0.11170351
117	0x3d1acde8	0.037794024
118	0x3c80f4e1	0.015741767
119	0x3c8298c6	0.015941989
120	0x3d9c0d65	0.07619742
121	0xbde3ea13	-0.111286305
122	0xbdaf8558	-0.08570355
123	0xbd1f67c5	-0.03891732
124	0xbdbe04a1	-0.09278227
125	0x3d7b1a72	0.061304517
126	0xbd17ad24	-0.037030354
127	0x3d7d489f	0.061836835
128	0x3d07f800	0.033195496
129	0x3d69bd13	0.05706508
130	0x3dc114bb	0.09427782
131	0xbba1dc06	-0.004939559
132	0x3dbc8fcc	0.092071146
133	0x3b362de6	0.0027798354
134	0x3ddac883	0.10682776
135	0xbd17ca88	-0.037058383
136	0xbd92b982	-0.07164289
137	0xbc1643b8	-0.009171419
138	0xbda16243	-0.0788007
139	0xbd8d4475	-0.06897823
140	0xbc951c06	-0.01820184
141	0xbd7e3140	-0.062058687
142	0xbc9f8be1	-0.01947588
143	0x3d2a1aab	0.04152934
144	0xbd8792ba	-0.06619783
145	0xbd1965e4	-0.037450686
146	0x3d80376d	0.06260572
147	0x3dd3b1bc	0.103366345
148	0x3c3bf3cb	0.011471699
149	0x3d720313	0.059084963
150	0x3e10de95	0.14147408
151	0x3d730bec	0.05933754
152	0x3d3369f2	0.04380221
153	0xbe031700	-0.12801743
154	0x3e0615ec	0.130943
155	0x3d103f1d	0.03521644
156	0x3af6e3ce	0.0018836202
157	0x3d2943ff	0.04132461
158	0xbd43d67e	-0.047811978
159	0xbdb38029	-0.08764679
160	0xbc7e2ea2	-0.015514048
161	0xbd6acc9e	-0.057324044
162	0xbd5bd230	-0.053667247
163	0x3d52bfc0	0.0514524
164	0x3d0678c7	0.032830026
165	0x3d3b7ba6	0.045772217
166	0x3cc1f6ff	0.023677347
167	0xbd72cf7c	-0.059279904
168	0xbd10579c	-0.0352398
169	0x3ade2b8c	0.0016950234
170	0xbd726a0b	-0.05918316
171	0xbd6b0e72	-0.057386823
172	0xbdebf461	-0.11521221
173	0x3d90a28c	0.07062253
174	0x3d15ef0c	0.036604926
175	0xbdb50368	-0.0883854
176	0x3c4b09e7	0.012392498
177	0xbc26550b	-0.010152112
178	0xbd13080c	-0.035896346
179	0xbdde5a80	-0.10857105
180	0x3d02001b	0.03173838
181	0x3d8503d1	0.064948685
182	0x3d55e70f	0.052222308
183	0xbd9d4110	-0.07678425
184	0xbd4fa044	-0.05068995
185	0x3dbc0567	0.09180718
186	0xbbd8ac24	-0.0066123176
187	0x3c91c763	0.01779527
188	0xbd3b72c7	-0.045763757
189	0x3d19b28e	0.0375238
190	0xbd8d5c04	-0.06902316
191	0x3dc0ed9e	0.09420322
192	0xbdca0589	-0.09864337
193	0xbda15a90	-0.078786016
194	0x3db23482	0.08701421
195	0xbd260a73	-0.04053731
196	0x3d71c0d9	0.059021804
197	0x3d5723fd	0.052524555
198	0x3cc742f9	0.024323927
199	0x3def5ed9	0.11688013
200	0x3da2ae94	0.079434544
201	0xbd9b5d11	-0.075861104
202	0xbdea460d	-0.114391424
203	0xbdae8fb4	-0.08523503
204	0x3e0726d0	0.131984
205	0x3d1c17e0	0.038108706
206	0xbd148358	-0.03625807
207	0x3cc06cd8	0.0234894
208	0x3dda8a0a	0.1067086
209	0x3d3dcd5f	0.046338435
210	0x3d8c1a03	0.06840899
211	0xbdd93379	-0.10605521
212	0x3deefbea	0.116691425
213	0xbdb6731c	-0.08908674
214	0x3d18091d	0.037118066
215	0xbddb3cd9	-0.10704965
216	0x3c64f9ff	0.013975619
217	0xbdc7716c	-0.097384304
218	0xbdc4d8bd	-0.09611652
219	0x3d1d2413	0.03836448
220	0x3bf80151	0.0075685163
221	0xbda9ef73	-0.082976244
222	0xbd9532b3	-0.07285061
223	0xbd894a80	-0.06703663
224	0x3d33ad2c	0.04386632
225	0x3d9f4857	0.077774696
226	0x3d8d2d1b	0.06893369
227	0x3dd17308	0.102270186
228	0x3dc3d62e	0.09562336
229	0xbdbfa408	-0.09357458
230	0xbd19cc11	-0.03754813
231	0xbd8cc65b	-0.06873771
232	0xbd416a7b	-0.04722069
233	0x3e1a5518	0.15071523
234	0xbc7c1933	-0.015386867
235	0x3c3419dd	0.010992494
236	0xbd503552	-0.0508321
237	0x3de0a5d0	0.10969126
238	0x3d89581d	0.067062594
239	0xbdb9bbf5	-0.09069053
240	0xbc3cf4a9	-0.011532941
241	0x3d63bb50	0.055598557
242	0x3d670440	0.056400537
243	0xbc1ba711	-0.009500281
244	0x3dcd91b5	0.10037557
245	0xbcd5bc9c	-0.026090913
246	0x3ca2e6f2	0.019885514
247	0xbe073291	-0.13202883
248	0xbd98bf6f	-0.07458388
249	0xbda6a293	-0.08136477
250	0x3d49f188	0.049302608
251	0xbb758224	-0.0037461603
252	0x3d15fe1b	0.036619287
253	0x3c522663	0.012826535
254	0x3d803dcc	0.06261787
255	0xbdb3ac6c	-0.08773121

lstm.bias_ih_l1 f4 [256]
0	0x3d604290	0.05475098
1	0xbddee206	-0.10882954
2	0x3d83d428	0.0643695
3	0xbd6951d4	-0.056962803
4	0x3c7919fa	0.015203947
5	0x3deaed65	0.11471061
6	0x3c7b1798	0.015325449
7	0x3bf6ea46	0.007535252
8	0x3d2df547	0.042470243
9	0xbd453ea5	-0.048155446
10	0xbdb5ca89	-0.08876521
11	0x3c75b1dc	0.014996018
12	0x3df5b465	0.11997298
13	0xbd1741ec	-0.036928102
14	0x3de036e2	0.10947968
15	0x3d3d425b	0.04620586
16	0xbcd0a7fd	-0.025470728
17	0xbc87e9af	-0.016590921
18	0x3cdae76d	0.02672168
19	0xbd358e8e	-0.044325404
20	0xbc0274fc	-0.007962462
21	0x3cfc83ef	0.03082463
22	0x3b08752f	0.00208218
23	0xbd582498	-0.052769274
24	0x3b85358a	0.0040652202
25	0x3deb0886	0.11476235
26	0xbd87892f	-0.066179626
27	0x3bca7e9a	0.006179643
28	0x3d37c325	0.04486384
29	0xbb3a3a96	-0.0028416268
30	0xbc4f814d	-0.012665105
31	0x3dfe55ce	0.1241871
32	0x3d4d4237	0.050111976
33	0xbd9b422e	-0.07580982
34	0x3e0a7f51	0.1352513
35	0xbd90db40	-0.070730686
36	0x3d1ddc4c	0.03854017
37	0xbd247cc0	-0.040158033
38	0xbd93d00f	-0.072174184
39	0x3d121c25	0.035671372
40	0x3b94cc3c	0.004540948
41	0x3d90e811	0.07075513
42	0x3dc21af6	0.09477799
43	0x3d17f4ff	0.03709888
44	0xbdb0b212	-0.08627714
45	0x3d8b5e52	0.068050995
46	0x3e013a8f	0.12619995
47	0x3c3dac5d	0.011576739
48	0xbddc042e	-0.10742985
49	0xbd60cdab	-0.05488364
50	0xbd5d64fb	-0.05405138
51	0x3cb5ae4d	0.02217784
52	0x3d04cdc5	0.0324228
53	0x3d25a668	0.0404419
54	0x3db04795	0.08607403
55	0x3d0c1912	0.034203596
56	0xbd975a71	-0.07390297
57	0x3e0551eb	0.1301953
58	0x3e0a9b40	0.13535786
59	0x3cdda0a2	0.027054135
60	0x3cd47ed7	0.025939388
61	0xbcea16cc	-0.028575324
62	0x3d4aaa3e	0.04947876
63	0xbd1da185	-0.038484115
64	0xbd683394	-0.056689814
65	0x3daaec19	0.08345813
66	0x3da3d80a	0.080001906
67	0xbdc65ff2	-0.09686269
68	0x3e01a77a	0.12661543
69	0xbdc41203	-0.09573748
70	0xbdae14c2	-0.08500053
71	0xb7ea148b	-2.790454e-05
72	0x3d8144d6	0.063119575
73	0xbdae01ca	-0.08496435
74	0x3c816613	0.015795743
75	0x3d8c5e80	0.06853962
76	0xbbdcdda1	-0.0067402874
77	0x3cb3facf	0.02197018
78	0xbdb6b608	-0.089214385
79	0x3d62761c	0.05528842
80	0xbd9d223e	-0.07672547
81	0x3e11b4ee	0.14229175
82	0xbd4bfdca	-0.04980258
83	0x3ca37515	0.01995329
84	0x3d002730	0.031287372
85	0x3dc5011f	0.096193545
86	0xbc2da85d	-0.010599223
87	0x3da3a96e	0.079913005
88	0x3c854cde	0.016272005
89	0xbd418724	-0.04724802
90	0xbce689d0	-0.028141886
91	0xbdddaf0a	-0.10824402
92	0x3bf93098	0.00760467
93	0xbdc263ff	-0.09491729
94	0xbbc05eeb	-0.00587069
95	0x3e0a3736	0.13497624
96	0x3dbdc249	0.092655726
97	0xbda5a327	-0.080877595
98	0x3d2eb048	0.042648584
99	0xbdb64a21	-0.08900858
100	0xbd930f42	-0.071806446
101	0x3dd001ba	0.10156579
102	0xbdc5b652	-0.096539155
103	0xbb86aa79	-0.0041096774
104	0xbd80f90f	-0.06297504
105	0x3d16de75	0.036833245
106	0xbdb267dc	-0.08711216
107	0x3daeaa49	0.08528573
108	0x3d49664d	0.049169827
109	0x3bb27678	0.0054462515
110	0xbc843d3c	-0.01614248
111	0xbc5dacbd	-0.013529954
112	0x3c284ccc	0.010272216
113	0x3d7bcdec	0.06147568
114	0x3d32df07	0.043669727
115	0xbc3d2514	-0.011544485
116	0xbdde3e87	-0.1085177
117	0xbd48b303	-0.048998844
118	0x3c2a93cf	0.010411217
119	0xba3bb48d	-0.0007160388
120	0xbd98cb5b	-0.07460662
121	0xbd278c6a	-0.040905394
122	0x3aade99a	0.0013268471
123	0xbd628c1f	-0.05530941
124	0x3ddacd0b	0.1068364
125	0x3b71ca27	0.0036894174
126	0x3d52e18a	0.051484622
127	0x3d8cda3f	0.06877565
128	0x3d953a17	0.072864704
129	0x3a9523b3	0.0011378437
130	0x3dcf7b17	0.101308994
131	0x3dcddb5c	0.10051605
132	0xbcdc1dee	-0.02686974
133	0x3d5d3718	0.05400762
134	0x3df2a2ac	0.118474334
135	0x3d92685a	0.0714881
136	0xbd4458d5	-0.04793628
137	0x3c9d6c54	0.019216694
138	0xbe018b0d	-0.126507
139	0x3da01cf2	0.07818021
140	0x3db16c1c	0.08663198
141	0xbd59c20c	-0.053163573
142	0xbd4ef438	-0.050525874
143	0x3ccd8231	0.025086494
144	0xbe082e3b	-0.13298886
145	0x3d6c2ff1	0.057662908
146	0x3df3e9a3	0.11909797
147	0xbcbee6f2	-0.023303483
148	0xbdcb5903	-0.09929087
149	0x3da1b6b7	0.07896178
150	0xbdbc3cab	-0.09191259
151	0xbd871efd	-0.065977074
152	0xbdb6b531	-0.08921278
153	0xbd72fa3b	-0.05932067
154	0x3d88c7db	0.066787444
155	0xbdacf3c6	-0.084449336
156	0x3d8842b7	0.0665335
157	0x3de87b7b	0.11351677
158	0xbdc9555b	-0.098307334
159	0xbc52181a	-0.012823129
160	0xbdba0f12	-0.09084906
161	0x3cbf6d8b	0.023367664
162	0xbd8c814b	-0.06860598
163	0x3d6ebe9b	0.058287244
164	0x3d454dfe	0.048170082
165	0xbd39c905	-0.045357723
166	0x3d1f6e69	0.038923655
167	0x3c935d96	0.017988961
168	0xbe0e5f36	-0.13903508
169	0x3ce77285	0.02825285
170	0xbdabff9f	-0.08398365
171	0xbd9c97bf	-0.07646131
172	0x3badfa11	0.0053093513
173	0xbd5304ff	-0.051518437
174	0x3ce08ae4	0.027409978
175	0x3d6467fb	0.055763226
176	0xbcb461a0	-0.022019207
177	0xb918ea83	-0.00014583212
178	0xbd5d0b2c	-0.053965732
179	0x3d88662c	0.06660113
180	0xbc1091c5	-0.008823817
181	0x3ca74066	0.02041645
182	0xbda4af69	-0.08041269
183	0x3c82ed56	0.015982311
184	0x3df2efd5	0.118621506
185	0x3c13180c	0.008977901
186	0x3d63ca31	0.055612747
187	0xbd886a9d	-0.0666096
188	0x3cdb66e1	0.026782455
189	0xba839883	-0.0010039959
190	0x3d7b35a6	0.06133046
191	0x3d7877cc	0.060661122
192	0xbdbff1b6	-0.093722746
193	0x3e1b27f1	0.15151955
194	0x3dd3b135	0.10336534
195	0x3d15d3f1	0.036579076
196	0x3d166019	0.03671274
197	0x3d5ed497	0.05440196
198	0x3dd4e558	0.10395306
199	0x3d272653	0.040808033
200	0x3d5fcad9	0.05463681
201	0xbba9d023	-0.0051822825
202	0x3d01995b	0.03164039
203	0xba8fffbe	-0.0010986251
204	0x3cd73b5b	0.02627342
205	0xbc9a4388	-0.01883103
206	0x3da37051	0.07980407
207	0xbcc2e67c	-0.023791544
208	0x3d9e33da	0.07724734
209	0x3c9f5034	0.019447424
210	0xbcce6227	-0.025193287
211	0x3d633415	0.05546959
212	0xbd7be44d	-0.06149702
213	0x3dc9654b	0.09833773
214	0x3d152aa2	0.03641761
215	0xbd5ce087	-0.053925063
216	0x3c6bf01c	0.014400508
217	0xbd5e3077	-0.05424544
218	0x3d5f84c0	0.05456996
219	0x3d9f9562	0.077921644
220	0x3e0b198a	0.13583961
221	0x3d832f82	0.06405546
222	0x3daedd3d	0.085382916
223	0x3d3469c3	0.044046175
224	0x3d9a4f1f	0.075346224
225	0x3b0acb51	0.0021178315
226	0xbd81fbcc	-0.063468546
227	0x3de68895	0.1125652
228	0xbc454f67	-0.012042857
229	0x3ddd83c3	0.10816147
230	0x3e178530	0.14796901
231	0x3da7f0bb	0.082002126
232	0x3dce80a4	0.1008313
233	0xbc19205b	-0.009346093
234	0x3c98c607	0.018649114
235	0xbd01fb4c	-0.031733796
236	0x3cd82670	0.026385516
237	0x3dcb58af	0.099290244
238	0x3e159917	0.1460918
239	0x3beee292	0.007290193
240	0x3c93e17c	0.018051855
241	0x3d438102	0.047730453
242	0xbd270b57	-0.0407823
243	0xbd8361d4	-0.064151436
244	0xbdbe3d5e	-0.092890486
245	0x3e0111f9	0.12604512
246	0xbd3ba2d6	-0.04580959
247	0x3e064ed8	0.13116014
248	0xbd383f89	-0.044982467
249	0x3c3b5acb	0.011435221
250	0xbd774808	-0.06037143
251	0x3d9f242b	0.0777057
252	0x3daffaef	0.08592784
253	0xbc4a2df8	-0.012340061
254	0xbd1bdc67	-0.03805199
255	0xbd090b1b	-0.033457857
