models/SUIUSDT_lstm_20250822_033426.pth (torch, 244263 bytes, 11 tensors)

lstm.weight_ih_l0 f4 [256, 30]
0	0xbdd58d74	-0.10427371
1	0x3d416ac4	0.04722096
2	0x3d9b2efa	0.075773194
3	0x3ce06940	0.027393937
4	0xbd9e8522	-0.07740237
5	0xbd8b366c	-0.067974895
6	0xbd0b8e6c	-0.03407137
7	0x3cf40b30	0.02979049
8	0x3d15e310	0.036593497
9	0x3dd1feba	0.10253663
10	0x3d51c228	0.051210552
11	0x3d50d37c	0.050982937
12	0x3d8080c8	0.06274563
13	0x3d2fe564	0.042943373
14	0x3d54dda8	0.0519692
15	0xbd80a448	-0.06281334
16	0xbdb0cbca	-0.0863262
17	0xbd0612ec	-0.03273289
18	0x3caf4638	0.021395788
19	0xbd194f8c	-0.037429377
20	0xbdcbd7a0	-0.099532366
21	0xbdef54fa	-0.1168613
22	0xbcd70b30	-0.026250452
23	0x3d89132e	0.06693111
24	0xbd217078	-0.0394139
25	0xbdbf8d28	-0.09353095
26	0x3da46a8a	0.08028133
27	0x3de1125c	0.1098983
28	0xbd95aabe	-0.07307957
29	0x3d855102	0.06509592
30	0xbddaf5e0	-0.10691428
31	0xbdfd1d92	-0.12359156
32	0xbd2cfbb0	-0.042232215
33	0xbda023bc	-0.07819316
34	0x3d82976c	0.06376538
35	0x3d7fb908	0.06243232
36	0x3c20c900	0.009813547
37	0xbd8e4450	-0.06946623
38	0xbc6c1d60	-0.0144113
39	0xbd3d6628	-0.046240002
40	0xbddc94f6	-0.107705995
41	0x3bc9f8e0	0.0061637014
42	0xbce6e628	-0.028185919
43	0xbdb9dd9c	-0.09075472
44	0x3d8167d2	0.0631863
45	0xbdb00d0a	-0.08596237
46	0xbd958184	-0.07300094
47	0xbd0531a0	-0.03251803
48	0xbdc79fae	-0.09747253
49	0xbd6fb5b0	-0.05852288
50	0x3dc72408	0.09723669
51	0xbd2a232c	-0.04153745
52	0xbce858b0	-0.028362602
53	0x3d4e3904	0.050347343
54	0x3dff3948	0.124620974
55	0xbd87272c	-0.06599268
56	0xbdcdc3e8	-0.10047132
57	0xbda1b476	-0.07895748
58	0x3d30be00	0.043149948
59	0xbc9300b0	-0.017944664
60	0xbd8d5888	-0.069016516
61	0xbb491f80	-0.0030688941
62	0xbd8f8414	-0.07007614
63	0xbdf6f120	-0.1205771
64	0x3c016510	0.00789763
65	0x3ce31450	0.027719647
66	0x3d18f36c	0.03734152
67	0x3d995c80	0.07488346
68	0xbc901780	-0.01758933
69	0x3dd52d4c	0.1040903
70	0xbdb4c768	-0.08827096
71	0x3d6cf0a8	0.057846695
72	0xbd8c8106	-0.06860547
73	0x3ddda44e	0.10822354
74	0xbd664ef8	-0.056227654
75	0xbd24565c	-0.04012142
76	0x3dfbe74a	0.12299974
77	0x3cdb2ac8	0.026753798
78	0xbb8b5e60	-0.0042531937
79	0x3d334418	0.04376611
80	0xbd92b2be	-0.071629986
81	0x3c31aff0	0.010845169
82	0xbdc21be8	-0.09477979
83	0xbc827e68	-0.015929416
84	0xbd60e0b0	-0.05490178
85	0x3de4ab48	0.11165482
86	0xbd01d330	-0.031695545
87	0x3d767e74	0.06017919
88	0x3dee34b4	0.11631146
89	0x3d77098c	0.06031184
90	0x3b6ace40	0.00358285
91	0xbddd1b96	-0.10796277
92	0x3de524ae	0.11188637
93	0xbbf7c0e0	-0.0075608343
94	0x3ba9c820	0.0051813275
95	0xbda52b3c	-0.08064887
96	0xbcfdf370	-0.03099987
97	0x3daf1dba	0.08550592
98	0x3c0b4900	0.008501291
99	0x3d6ce224	0.057832852
100	0x3dd71550	0.10502112
101	0xbc40fd80	-0.011779189
102	0xbd8bd6ae	-0.06828056
103	0x3dd259a8	0.10271007
104	0x3dc174ee	0.09446131
105	0x3d937b06	0.07201199
106	0xbd2ea65c	-0.04263912
107	0x3df3c4b0	0.119027495
108	0xbd07df64	-0.033172026
109	0x3df704a2	0.120614305
110	0x3b585ec0	0.003301546
111	0xbde6fd78	-0.11278814
112	0xbd010b14	-0.031504706
113	0xbb22c900	-0.0024839044
114	0xbd1f1580	-0.038838863
115	0xbdc1f9fc	-0.09471509
116	0xbdc2b292	-0.09506716
117	0xbd59fd78	-0.053220242
118	0xbdb15490	-0.08658707
119	0xbde53d50	-0.11193335
120	0x3ddf9e38	0.1091885
121	0xbd3990a8	-0.04530397
122	0x3de3ed2c	0.11129221
123	0xbd69d04c	-0.057083413
124	0xbc9a4830	-0.01883325
125	0x3d976424	0.07392147
126	0x3ce7e9b0	0.028309673
127	0x3d9c51e4	0.07632807
128	0x3dff189a	0.12455864
129	0x3de3f27c	0.111302346
130	0x3d8a0224	0.067386895
131	0xbdbd17fa	-0.09233089
132	0xbd1ef570	-0.038808286
133	0x3dc7fb92	0.0976478
134	0xbda15b46	-0.07878737
135	0xbd6f26ac	-0.05838649
136	0xbd0ab680	-0.03386545
137	0xbc1ead30	-0.009684846
138	0x3d4c0d64	0.049817458
139	0x3dbade40	0.09124422
140	0xbc193d00	-0.009352922
141	0x3d53afb8	0.05168125
142	0xbd06d41c	-0.032917127
143	0x3d8be918	0.068315685
144	0xbdded816	-0.10881059
145	0x3dbe0e04	0.09280017
146	0x3d57575c	0.052573547
147	0xbd0c9c80	-0.034328938
148	0x3c8f7438	0.017511472
149	0x3cc547e0	0.024082124
150	0x3db96a2a	0.09053452
151	0xbcdb0fa0	-0.026740849
152	0xbda01d52	-0.078180924
153	0x3dfddf5c	0.12396118
154	0xbd875d42	-0.066095844
155	0xbc522920	-0.012827188
156	0xbd194ae4	-0.037424937
157	0xbdb062b4	-0.08612576
158	0xbde36338	-0.11102909
159	0x3c790280	0.01519835
160	0x3d808264	0.0627487
161	0xbdeb5212	-0.11490263
162	0x3da6e87e	0.08149813
163	0xbdcd01c4	-0.100101024
164	0xbd802658	-0.062573135
165	0xbc97ef08	-0.018546596
166	0xbc425200	-0.011860371
167	0x3ca3dde0	0.02000326
168	0x3ddb09ba	0.106952146
169	0xbd550780	-0.052009106
170	0x3bd47fe0	0.0064849705
171	0xbdf2baba	-0.118520215
172	0xbdc3b030	-0.095550895
173	0xbd9ef5b0	-0.07761705
174	0xbc847b30	-0.016172022
175	0x3dddabc4	0.10823777
176	0xbd312b84	-0.04325439
177	0xbd8d6e14	-0.06905761
178	0xbd237480	-0.039906025
179	0xbb6212c0	-0.003449604
180	0x3cc33500	0.023828983
181	0xbd46bb10	-0.04851824
182	0xbd8ca5d4	-0.06867567
183	0x3ddcdf18	0.10784739
184	0x3b67bb80	0.0035359561
185	0x3d3779d8	0.044793934
186	0xbdb37728	-0.087629616
187	0x3c2f2fa0	0.010692507
188	0x3dae31e2	0.08505608
189	0xbd885978	-0.0665769
190	0xbd8f159c	-0.069865435
191	0x3d15991c	0.03652297
192	0x3db31102	0.08743478
193	0xbc869330	-0.016427606
194	0xbc6dee60	-0.014522165
195	0x3c30d0f0	0.010792002
196	0xbd697fa4	-0.057006493
197	0xbdf8bed6	-0.12145774
198	0x3d9a5406	0.075355574
199	0x3c8dc618	0.017306373
200	0xbdd372c0	-0.10324621
201	0x3db8d146	0.09024291
202	0x3d307ef0	0.043089807
203	0xbdac61cc	-0.08417091
204	0x3daa4564	0.083140165
205	0xbcc06a00	-0.023488045
206	0xb9b0d200	-0.00033725798
207	0xbd5901a0	-0.052980065
208	0x3dfc0dce	0.123073205
209	0x3d0af3d4	0.03392394
210	0x3cd85df8	0.026411995
211	0x3ddb5528	0.10709602
212	0xbdae9a98	-0.0852558
213	0x3dca4a06	0.098774
214	0x3d4d1cf4	0.05007644
215	0xbdf7c2bc	-0.120976895
216	0xbc6194c0	-0.013768375
217	0xbdaa649e	-0.083199725
218	0xbd85af44	-0.0652757
219	0x3daa454e	0.08314
220	0x3d8254fe	0.06363867
221	0x3dc7e558	0.09760541
222	0xbd519fe8	-0.05117789
223	0x3d6f5d68	0.05843869
224	0x3c200ae0	0.009768218
225	0xbd8b4952	-0.06801094
226	0x3c656000	0.013999939
227	0xbdf7cb82	-0.12099363
228	0x3d23edec	0.04002182
229	0xbd927c62	-0.071526304
230	0xbd2fb46c	-0.042896673
231	0xbba204a0	-0.004944399
232	0x3d6708e8	0.056404978
233	0x3db5748a	0.08860119
234	0xbdfc3394	-0.12314525
235	0xbdb385ac	-0.0876573
236	0xbd711e3c	-0.058866724
237	0x3d979b1a	0.0740263
238	0x3d9ca0c0	0.07647848
239	0xbd9afa08	-0.07567221
240	0xbd739b1c	-0.059474096
241	0xbda99aa0	-0.082814455
242	0x3dd53db4	0.104121596
243	0x3df16af4	0.11787978
244	0xbd5ea1f0	-0.054353654
245	0x3dd8dfbc	0.10589549
246	0xbde64f76	-0.11245625
247	0xbdc9114a	-0.09817751
248	0x3de31e68	0.11089784
249	0x3d765680	0.060141087
250	0x3d84a1e2	0.06476189
251	0x3d9f326a	0.077732876
252	0xbdfa454e	-0.1222025
253	0xbdf89d12	-0.12139334
254	0x3db6ab02	0.08919336
255	0xbccad6f8	-0.024760708

lstm.weight_hh_l0 f4 [256, 64]
0	0xbcfe2508	-0.031023517
1	0xbb2b8a80	-0.0026175082
2	0x3d09d598	0.033650964
3	0xbdbb1a5e	-0.091358885
4	0x3df25220	0.1183207
5	0x3de5b6ee	0.11216532
6	0x3d0a2490	0.033726275
7	0xbd8d63ca	-0.06903799
8	0xbdad9fc8	-0.084777415
9	0xbd68d8c8	-0.056847364
10	0x3dc5ca86	0.09657769
11	0xbc425f50	-0.011863545
12	0xbd1ebbf8	-0.03875348
13	0xbdc128a0	-0.09431577
14	0x3dd8a69e	0.10578655
15	0xbdf22026	-0.11822538
16	0xbc602d10	-0.013682619
17	0x3cc8dd60	0.024519622
18	0xbde69cae	-0.11260353
19	0xbddd17c2	-0.10795547
20	0xbcb0c878	-0.021579966
21	0xbd9e9178	-0.0774259
22	0xbd903024	-0.07040432
23	0xbd236320	-0.039889455
24	0x3d29470c	0.04132752
25	0x3d51a09c	0.05117856
26	0xbd966c52	-0.07344879
27	0x3da1b70e	0.07896243
28	0xbdfd818e	-0.12378226
29	0xbcca1a08	-0.024670616
30	0x3c9822c8	0.018571272
31	0x3da9fb14	0.082998425
32	0xbd81695c	-0.06318924
33	0x3d1e2ca0	0.038616776
34	0xbd00bca4	-0.0314299
35	0xbdf26370	-0.118353724
36	0xbd31e598	-0.04343185
37	0xbdf20dca	-0.11819036
38	0x3dd9aea6	0.10629015
39	0xbdf1a9ee	-0.1179999
40	0xbd70de44	-0.05880572
41	0xbdbd5246	-0.09244208
42	0x3d4d6f64	0.05015506
43	0xbdc2fda6	-0.09521036
44	0x3d8442fe	0.0645809
45	0x3d9c4fca	0.07632406
46	0x3dda6656	0.1066405
47	0xbd2a7194	-0.041612223
48	0xbd891716	-0.066938564
49	0xbbc7b220	-0.006094232
50	0x39368000	0.00017404556
51	0xbdf06b30	-0.117391944
52	0xbbc94e20	-0.0061433464
53	0x3d923386	0.071387336
54	0xbdbd5aaa	-0.092458084
55	0x3cfdcf30	0.030982584
56	0x3d74e0a0	0.05978453
57	0x3dfbead6	0.12300651
58	0x3dea7dd0	0.11449778
59	0xbd9e4b74	-0.07729235
60	0x3de8fa3a	0.11375852
61	0xbd1a1174	-0.0376143
62	0xbd49d730	-0.049277484
63	0xbde9ff62	-0.114256635
64	0xbca788e8	-0.020451024
65	0xbc8decf0	-0.017324895
66	0x3df85b1e	0.12126754
67	0xbd81fd9a	-0.06347199
68	0x3d4288e0	0.047493815
69	0x3c8ca658	0.017169163
70	0x3d57ee38	0.052717417
71	0x3d907956	0.07054393
72	0x3df91d4c	0.12163791
73	0xbd8cb78a	-0.06870945
74	0x3ddc688e	0.1076213
75	0x3d186820	0.037208676
76	0x3d623810	0.055229247
77	0x3c7f10a0	0.015567929
78	0xbde9a834	-0.11409035
79	0x3dc0411c	0.09387419
80	0x3d0edc5c	0.03487812
81	0x3b981160	0.004640743
82	0x3d237450	0.039905846
83	0x3d864196	0.06555478
84	0xbdd7d2c0	-0.10538244
85	0xbdcec20a	-0.10095604
86	0x3ccb1620	0.024790823
87	0xbd98058e	-0.074229345
88	0x3c91c680	0.017794847
89	0x3d028a64	0.03187026
90	0x3ccd0b90	0.025029927
91	0x3d56e0a0	0.052460313
92	0x3d97a41a	0.07404347
93	0x3a853200	0.0010161996
94	0xbd54b6cc	-0.05193214
95	0xbd6794cc	-0.056538388
96	0xbccff6c0	-0.025386214
97	0x3da96e5c	0.082730025
98	0x3d7b5f10	0.061369956
99	0x3da6cd22	0.08144595
100	0x3d85127e	0.06497668
101	0x3df412f6	0.11917679
102	0x3cb37288	0.021905199
103	0xbcbf4ec0	-0.02335298
104	0xbd9748f0	-0.073869586
105	0xb93c6000	-0.0001796484
106	0xbddb1312	-0.10696997
107	0xbd50353c	-0.05083202
108	0x3da2d4ae	0.07950722
109	0xbdeea61a	-0.11652775
110	0xbde1388e	-0.10997115
111	0x3d6f1a7c	0.058374867
112	0x3dc19eec	0.0945414
113	0xbcb8d738	-0.022563562
114	0xbdaf46cc	-0.08558425
115	0x3dee7b66	0.1164463
116	0xbdf8dbea	-0.1215132
117	0xbc826978	-0.015919432
118	0xbd354ca8	-0.04426256
119	0xbbec5f40	-0.007213503
120	0xbbf81180	-0.0075704455
121	0x3dd4e63e	0.10395478
122	0xbd48dfc4	-0.049041525
123	0xbcabb418	-0.020959899
124	0xbd707b64	-0.058711424
125	0xbc7fa470	-0.01560317
126	0xbd9a2fba	-0.07528634
127	0xbd911580	-0.07084179
128	0x3cb499d0	0.022046
129	0xbd84768c	-0.064679235
130	0x3d618094	0.055054262
131	0x3b229700	0.0024809241
132	0x3dd7f20e	0.10544215
133	0xbceaf088	-0.028679147
134	0x3db9f95e	0.09080766
135	0xbc3abee0	-0.011398047
136	0x3de97e98	0.11401099
137	0xbc6b8550	-0.014375046
138	0xbd9a530a	-0.0753537
139	0xbdf7b542	-0.12095119
140	0xbd880bba	-0.06642862
141	0xbca442c8	-0.020051375
142	0xbc8cf758	-0.017207786
143	0xbda1da44	-0.07902959
144	0x3d85836a	0.06519206
145	0x3d168318	0.036746114
146	0xbcd80768	-0.02637072
147	0x3c99c0b8	0.018768653
148	0x3df4157e	0.11918162
149	0xbd9f6e34	-0.077846915
150	0xbd4ef948	-0.050530702
151	0x3d36d0ac	0.0446326
152	0x3d84f8d4	0.06492773
153	0x3db50d2c	0.08840403
154	0x3ddeaa8c	0.10872373
155	0xbd955500	-0.07291603
156	0xbd9af876	-0.075669214
157	0xbd823336	-0.06357424
158	0xbd268a34	-0.040659145
159	0x3de488aa	0.11158879
160	0xbd30d13c	-0.04316829
161	0xbccadc90	-0.024763376
162	0x3de196d4	0.11015096
163	0xbd700e2c	-0.058607265
164	0xbdc22cec	-0.094812244
165	0x3dac202e	0.08404575
166	0xbdc00c34	-0.093773276
167	0xbd9b0cee	-0.075708255
168	0x3dcf0dcc	0.101100534
169	0xbce2ea48	-0.027699605
170	0xbdc2009a	-0.09472771
171	0x3defb7c6	0.11704974
172	0x3d9df2c6	0.07712321
173	0x3d82fb1e	0.06395553
174	0xbdbdb560	-0.0926311
175	0xbd3ab35c	-0.045581207
176	0x3de5d6a0	0.11222577
177	0xbbe7cd60	-0.007074043
178	0x3cb6d9f8	0.022320732
179	0x3bd55900	0.006510854
180	0xbd8a606a	-0.06756671
181	0x3dab516c	0.08365139
182	0xbd836a54	-0.06416765
183	0xbc744ab0	-0.014910385
184	0x3dd7dd06	0.10540204
185	0xbdcbc7d2	-0.09950222
186	0x3da0d4ce	0.07853089
187	0x3d2b7fc4	0.041869894
188	0x3d0d98e4	0.034569636
189	0xbd114c78	-0.035473317
190	0xbcf61518	-0.030039355
191	0xbdd402b4	-0.10352078
192	0xbd0cfe10	-0.03442198
193	0xbc7a4660	-0.015275568
194	0xbd9d5552	-0.07682289
195	0x3c8091b8	0.015694484
196	0x3d7dece0	0.06199348
197	0x3cb82338	0.022477731
198	0xbdccf5fe	-0.10007857
199	0xbdb5849e	-0.08863185
200	0xbd664514	-0.05621822
201	0xbcae20b0	-0.021255821
202	0xbd8c9e84	-0.06866172
203	0xbd89e97a	-0.06733985
204	0xbdeb9bf8	-0.11504358
205	0x3d1b1004	0.03785707
206	0xbd2e86f0	-0.042609155
207	0x3db8e0d2	0.09027256
208	0xbdd4fb56	-0.10399501
209	0xbd10c0f0	-0.03534025
210	0xbddf48d2	-0.10902561
211	0x3dd7546a	0.105141476
212	0x3cb50a00	0.022099495
213	0xbdef1b50	-0.11675131
214	0x3dca0eb0	0.09866083
215	0x3de0bbd8	0.10973328
216	0xbd13d9bc	-0.03609632
217	0x3d1d5800	0.038414
218	0xbdd77f46	-0.10522322
219	0xbd722510	-0.059117377
220	0xbd2f753c	-0.042836413
221	0x3de86e32	0.11349143
222	0xbb2ee640	-0.0026687533
223	0xbdfb0c7c	-0.122582406
224	0x3d91abb8	0.07112831
225	0xbd86e3ae	-0.06586395
226	0xbd82e204	-0.06390765
227	0x3c479490	0.012181416
228	0x3db3dcd8	0.08782357
229	0xbdbd8868	-0.09254533
230	0x3cd9e4b8	0.02659832
231	0xbd190028	-0.037353665
232	0xbdce4d98	-0.100733936
233	0xbca0c408	-0.019624725
234	0xbda9f762	-0.08299138
235	0x3db4febe	0.08837651
236	0xbdc136ec	-0.09434304
237	0x3d787850	0.060661614
238	0xbd046efc	-0.032332405
239	0xbc0fac10	-0.00876905
240	0x3de33002	0.11093141
241	0xbdda1e16	-0.1065027
242	0x3cb4a078	0.022049174
243	0xbcd06878	-0.02544044
244	0x3d49a0dc	0.049225673
245	0x3d443014	0.047897413
246	0x3dcedc6a	0.101006344
247	0x3d07f6bc	0.03319429
248	0xbbc10c00	-0.005891323
249	0x3cdd9c18	0.02705197
250	0xbdfdd248	-0.123936236
251	0xbdc9d41c	-0.0985491
252	0x3bef0100	0.0072938204
253	0xbcb11f88	-0.02162148
254	0xbc14b1a0	-0.009075552
255	0x3d580a84	0.052744403

lstm.bias_ih_l0 f4 [256]
0	0x3dcf5fda	0.10125704
1	0xbdf59cee	-0.119928226
2	0x3d67855c	0.056523666
3	0x3b96ae80	0.0045984387
4	0x3bb86640	0.0056274235
5	0x3d9784d8	0.07398385
6	0xbdfdd06a	-0.123932675
7	0x3df49ea4	0.11944321
8	0x3cb2e8d0	0.02183953
9	0x3d3f8858	0.046760887
10	0xbd021990	-0.03176266
11	0xbce488e8	-0.027897313
12	0xbdd8f03c	-0.10592696
13	0xbc055d80	-0.008139968
14	0xbbd41aa0	-0.0064729005
15	0x3df24228	0.118290246
16	0x3d87564a	0.06608255
17	0xbd857b36	-0.06517641
18	0x3d4e65e4	0.05039014
19	0xbde7fac6	-0.11327128
20	0xbdef4abc	-0.11684176
21	0xbdfbd158	-0.122957885
22	0xbde0e74e	-0.10981618
23	0x3d1395a4	0.03603138
24	0x3ca50c48	0.020147458
25	0xbd682b58	-0.05668196
26	0x3cc68428	0.024232939
27	0xbdeab00e	-0.11459361
28	0xbdddae52	-0.108242646
29	0x3c116f30	0.008876607
30	0x3dcab3ba	0.09897561
31	0xbd570f0c	-0.052504584
32	0x3da0b938	0.07847828
33	0x3db90f2e	0.090360984
34	0x3c85e108	0.016342655
35	0xbd8c0ddc	-0.06838581
36	0x3cbdc310	0.023164302
37	0xbdbe7b40	-0.09300852
38	0xbd9ad098	-0.07559317
39	0xbdab9274	-0.08377543
40	0xbd8828de	-0.0664842
41	0xbd7166fc	-0.058936104
42	0x3dfafcbe	0.12255238
43	0xbdb51afc	-0.088430375
44	0xbd0fd334	-0.03511353
45	0xbd85f3d4	-0.06540647
46	0xbdbdc88a	-0.092667654
47	0x3dc9bdfe	0.09850691
48	0x3ddb7404	0.107154876
49	0x3d21843c	0.03943275
50	0xbd7c3848	-0.06157711
51	0x3d8b7292	0.06808962
52	0xbd8e698e	-0.06953727
53	0xbd1f00bc	-0.03881906
54	0x3d9a370a	0.07530029
55	0xbdeed44e	-0.11661588
56	0x3c3bd620	0.011464626
57	0xbdd98d06	-0.10622601
58	0x3d164ebc	0.03669618
59	0xbddc7b84	-0.10765746
60	0xbd7c0a30	-0.061533153
61	0x3d414be8	0.04719153
62	0xbd21652c	-0.039403126
63	0xbdbb0db6	-0.091334745
64	0x3df099e6	0.11748104
65	0x3dd5d5b6	0.10441153
66	0x3cd16078	0.025558695
67	0xbd60066c	-0.054693624
68	0x3d46b818	0.04851541
69	0x3d5c8138	0.05383417
70	0x3d774460	0.06036794
71	0x3d535e00	0.051603317
72	0xbd886cf8	-0.06661409
73	0xbde8ee58	-0.113735855
74	0x3df2dcc4	0.11858514
75	0xbd7ad97c	-0.061242566
76	0x3de18c86	0.11013131
77	0x3dd716be	0.105023846
78	0x3bf30860	0.00741677
79	0x3d4d8468	0.0501751
80	0x3db3c652	0.08778061
81	0x3db66066	0.08905105
82	0x3ddb02ec	0.10693917
83	0x3d4f53dc	0.050617084
84	0xbcc5eaf8	-0.024159893
85	0xbde80186	-0.113284156
86	0x3b676a00	0.0035310984
87	0xbce10278	-0.027466998
88	0x3d95f47c	0.07322022
89	0x3d9f9cfe	0.07793616
90	0x3dba27da	0.09089632
91	0xbdbd8e0a	-0.092556074
92	0xbc8d6fb0	-0.01726517
93	0x3db196b4	0.086713225
94	0xbda5c594	-0.08094326
95	0x3df7890e	0.12086688
96	0x3d8bde32	0.0682949
97	0x3d427ef0	0.04748434
98	0x3d93f62e	0.072246894
99	0x3ca00298	0.019532487
100	0xbdc662da	-0.09686823
101	0xbd61ca2c	-0.055124447
102	0x3d220d08	0.03956321
103	0xbd53b950	-0.0516904
104	0xbdd0a71e	-0.10188125
105	0x3c86ba78	0.016446337
106	0xbd35f2d8	-0.044421047
107	0xbdd0f28e	-0.10202514
108	0xbd00499c	-0.0313202
109	0xbd0ec4ec	-0.034855768
110	0x3b588780	0.0033039749
111	0xbdd5c7ea	-0.10438521
112	0x3daeb824	0.08531216
113	0xbca2fda0	-0.019896328
114	0xbdca9728	-0.09892112
115	0x3d1c0530	0.038090885
116	0xbd026704	-0.031836525
117	0xbdcfd792	-0.10148539
118	0xbd3476b0	-0.0440585
119	0x3cf74728	0.030185297
120	0x3d3a420c	0.045473143
121	0x3dc54f6e	0.09634291
122	0x3ccad860	0.024761379
123	0xbdb21686	-0.08695702
124	0x3de76394	0.1129829
125	0xbd9da006	-0.07696538
126	0x3daee54c	0.08539829
127	0xbd97ad10	-0.07406056
128	0xbdaebca4	-0.08532074
129	0xbd857f1a	-0.06518383
130	0xbc7b6b80	-0.015345454
131	0x3dca35a2	0.09873511
132	0x3d5385dc	0.05164133
133	0xbcae83f8	-0.021303162
134	0x3ca1d190	0.019753247
135	0x3d1c2798	0.038123697
136	0xbdd39b94	-0.103324085
137	0x3dd7a25c	0.105290145
138	0x3dc39d8c	0.09551534
139	0xbd95a7f2	-0.07307424
140	0x3da9e950	0.08296454
141	0xbd84b1b8	-0.0647921
142	0xbdf7adae	-0.12093674
143	0xbd6edd9c	-0.058316812
144	0x3d89b280	0.06723499
145	0xbdad57ca	-0.0846401
146	0x3d10f054	0.035385445
147	0x3cebe3f8	0.028795227
148	0xbd43990c	-0.04775338
149	0xbd89ed88	-0.067347586
150	0x3dac2fbe	0.084075436
151	0x3d61f830	0.05516833
152	0x3cdb0700	0.026736736
153	0x3a951700	0.0011374652
154	0xbd20f7c0	-0.039298773
155	0x3dbfc85a	0.09364386
156	0x3c69d820	0.01427272
157	0x3d661704	0.056174293
158	0xbd578598	-0.05261764
159	0x3d356214	0.044282988
160	0xbd8716d4	-0.06596151
161	0x3ce2e720	0.0276981
162	0x3d3a87d4	0.045539692
163	0xbd03c258	-0.032167763
164	0xbdc42b94	-0.09578624
165	0x3c109560	0.008824676
166	0xba856700	-0.0010177791
167	0xbda51e6c	-0.08062443
168	0x3dbdf73c	0.09275672
169	0x3de452ce	0.11148606
170	0xbdff8b00	-0.12477684
171	0xbdda8f92	-0.10671915
172	0xbd8535d0	-0.065044045
173	0x3dd50ffc	0.104034394
174	0xbdab973a	-0.083784536
175	0x3ccf8aa0	0.025334656
176	0xbd032974	-0.032021955
177	0x3df1e9d8	0.1181218
178	0x3c2774d0	0.010220721
179	0xbc7abd10	-0.015303865
180	0xbdfac03c	-0.12243697
181	0x3d09db00	0.03365612
182	0x3da96ff0	0.082733035
183	0x3d074f34	0.03303452
184	0x3df5519a	0.11978455
185	0x3defbfde	0.11706518
186	0x3d286298	0.04110965
187	0x3dbe74ea	0.09299643
188	0xbdbdb016	-0.09262101
189	0x3ce453d0	0.027871996
190	0xba91d080	-0.001112476
191	0xbd4634e4	-0.048390284
192	0x3d7d94a4	0.061909333
193	0x3d195f54	0.037444428
194	0xbd9524d4	-0.07282415
195	0xbd43ae78	-0.04777381
196	0xbcab7828	-0.020931318
197	0xbd61e044	-0.055145517
198	0xbbc94ae0	-0.006142959
199	0x3cb0b090	0.021568567
200	0xbddabcf8	-0.10680574
201	0x3dd85288	0.105626166
202	0xbd0cba34	-0.034357265
203	0x3d8b4412	0.06800093
204	0xbd9a35fa	-0.075298265
205	0x3b43b540	0.0029862672
206	0x3d410ff4	0.047134355
207	0x3dc93638	0.098247945
208	0x3dadd92a	0.084886864
209	0x3da0f926	0.07860021
210	0x3dc08490	0.09400284
211	0xbca1ffa0	-0.019775212
212	0x3db9eb68	0.09078103
213	0x3d5d6780	0.054053783
214	0xbdfa31d2	-0.12216534
215	0x3d647b44	0.055781618
216	0xbc97e418	-0.01854138
217	0xbd4cc264	-0.049990073
218	0x3dcd984c	0.10038814
219	0xbc2b9fb0	-0.010475084
220	0x3d496260	0.049166083
221	0xbdec3a44	-0.11534551
222	0xbd4c2a38	-0.04984495
223	0xbd35efc0	-0.044418097
224	0xbced2260	-0.028947055
225	0xbd58438c	-0.052798793
226	0xbdce6eaa	-0.10079701
227	0xbdce4f44	-0.100737125
228	0x3d60e050	0.05490142
229	0xbde3d5ae	-0.111247405
230	0xbdcc0706	-0.09962277
231	0xbdedd576	-0.1161298
232	0x3da229a2	0.07918097
233	0xbdca7866	-0.098862454
234	0xbdac6c70	-0.0841912
235	0xbde45d2c	-0.111505836
236	0xbdde36f2	-0.10850324
237	0xbdfac51c	-0.12244627
238	0x3d588238	0.05285856
239	0x3d72e75c	0.059302673
240	0x3d8f65aa	0.07001813
241	0xbd967c26	-0.07347898
242	0xbcea8008	-0.028625503
243	0x3da9a0b4	0.08282605
244	0x3df55c0c	0.11980447
245	0x3cde8e38	0.027167425
246	0xbc859de8	-0.016310647
247	0x3d8bc9c8	0.06825596
248	0xbbe8d8e0	-0.0071059316
249	0x3d5c6be4	0.05381383
250	0xbd96da1c	-0.0736582
251	0xbd7dd1fc	-0.061967835
252	0xbd83b8ba	-0.06431718
253	0x3d8c57ca	0.06852682
254	0x3dbb74c4	0.09153131
255	0xbddc2d86	-0.107508704

lstm.bias_hh_l0 f4 [256]
0	0x3d423f40	0.0474236
1	0xbc722730	-0.014779851
2	0xbdd2a9c8	-0.102862895
3	0x3ca0d6a8	0.019633606
4	0x3d5fdbdc	0.054653034
5	0x3d7dd214	0.061967924
6	0x3dd17886	0.10228066
7	0xbd149e70	-0.03628391
8	0x3c74bff0	0.01493834
9	0xbca32f20	-0.019919932
10	0xbd4925c0	-0.049108267
11	0xbd61e1b4	-0.055146888
12	0x3d845472	0.06461419
13	0xbdf9aa08	-0.12190634
14	0x3d79a89c	0.060951814
15	0x3c835198	0.016030118
16	0x3cdb7dc0	0.02679336
17	0x3d0524b4	0.032505706
18	0x3d6bb9d8	0.05755028
19	0x3df272a6	0.11838274
20	0xbdd55acc	-0.10417709
21	0x3da8109e	0.082062945
22	0xbdb0474a	-0.08607347
23	0x3d1db868	0.03850594
24	0x3bde6580	0.006787002
25	0xbd4e3db8	-0.05035183
26	0xbd7b4d2c	-0.061352894
27	0x3afe8e80	0.001942113
28	0x3c958d08	0.018255726
29	0x3dc647c8	0.0968166
30	0x3df7229a	0.120671466
31	0x3d785dec	0.060636446
32	0x3da0f204	0.07858661
33	0x3bca5320	0.00617446
34	0xbd0dfed8	-0.034666866
35	0x3caa0950	0.020756394
36	0xbd1c10f8	-0.03810212
37	0xbcd17c68	-0.025572017
38	0x3ce6df60	0.028182685
39	0x3d818d3e	0.06325768
40	0xbae54200	-0.0017490983
41	0x3da38d8e	0.07985984
42	0xbd867266	-0.065647885
43	0xbda4bfd0	-0.08044398
44	0x3d221340	0.03956914
45	0x3dc2bcd8	0.09508675
46	0x3cc293e8	0.023752168
47	0x3d3f61c0	0.04672408
48	0xbc7ef910	-0.015562311
49	0x3cbf4368	0.023347571
50	0x3c10f0b0	0.008846447
51	0xbddcc8ec	-0.1078051
52	0xbdcae528	-0.09906989
53	0xbd3c11d8	-0.045915455
54	0x3d796338	0.060885638
55	0xbd50e5a4	-0.051000252
56	0xbdcb9146	-0.09939818
57	0x3c2c06a0	0.010499626
58	0x3c279110	0.010227457
59	0x3d81706e	0.063202724
60	0x3dcd7b24	0.10033253
61	0xbd93f86e	-0.072251186
62	0x3dbc5492	0.09195818
63	0xbd87d8da	-0.06633158
64	0x3d9d2f30	0.07675016
65	0x3d418228	0.047243267
66	0x3db9c700	0.09071159
67	0xbd9d4748	-0.076796114
68	0xbde33fbc	-0.11096141
69	0xbcb85850	-0.022503048
70	0xbdfd296e	-0.12361418
71	0x3d846350	0.06464255
72	0xbd2ac824	-0.041694775
73	0xbc721af0	-0.01477693
74	0x3dc88098	0.09790152
75	0x3d66f08c	0.056381747
76	0x3da6f862	0.08152844
77	0x3d8e85ec	0.06959137
78	0x3c08eda0	0.008357435
79	0xbd119d24	-0.03555025
80	0x3b4add00	0.003095448
81	0x3ddd4884	0.10804847
82	0x3dd15212	0.10220732
83	0xbc9b52d8	-0.018960401
84	0x3d773820	0.06035626
85	0xbdee823c	-0.11645934
86	0x3de54a30	0.11195791
87	0x3d40b1f8	0.047044724
88	0xbc900fc0	-0.017585635
89	0x3de8f868	0.11375505
90	0xbdd8f71a	-0.10594006
91	0xbd810ae6	-0.06300907
92	0xbdfcca8c	-0.1234332
93	0xbbc5bbc0	-0.0060343444
94	0xbd101418	-0.035175413
95	0x3d9c87aa	0.07643063
96	0x3dd0d97c	0.10197732
97	0xbdd9136c	-0.105994076
98	0xbcafc838	-0.021457776
99	0x3c6dcb60	0.01451382
100	0x3c3677b0	0.011136934
101	0x3d058f30	0.032607257
102	0xbddb3f5c	-0.10705444
103	0x3dae7f60	0.085203886
104	0xbdd334e6	-0.10312824
105	0x3d058338	0.032595843
106	0x3d9581be	0.07300137
107	0x3c9d8788	0.019229665
108	0xbc45eba0	-0.012080103
109	0xbd6a9184	-0.05726768
110	0x3d004714	0.031317785
111	0xbb9754e0	-0.004618272
112	0xbdbe41c4	-0.092898875
113	0x3d5ac84c	0.053413674
114	0x3d857580	0.06516552
115	0xbd9101ae	-0.070803985
116	0xbdb1ad60	-0.08675647
117	0xbd925dc8	-0.071467936
118	0xbda2beee	-0.07946573
119	0x3dbfa616	0.0935785
120	0x3d95d90c	0.07316789
121	0xbd5b2458	-0.053501457
122	0xbdefa348	-0.11701065
123	0xbdd33fbe	-0.10314892
124	0xbda53a7c	-0.08067796
125	0x3d1dafe0	0.038497806
126	0xbd28959c	-0.041158304
127	0xbd7898b8	-0.06069252
128	0x3d1a8174	0.037721112
129	0xbbed3d00	-0.007239938
130	0xbd740178	-0.059571713
131	0xbbf5ff80	-0.0075072646
132	0x3dd4e53c	0.103952855
133	0xbd27cbbc	-0.04096578
134	0xbd6aeacc	-0.057352826
135	0x3def258e	0.11677085
136	0x3dc3063c	0.095226735
137	0xbdf1f5b6	-0.11814444
138	0xbc1ff590	-0.0097631365
139	0x3db0d990	0.08635247
140	0x3d172324	0.036898747
141	0x3dcd7ade	0.10033201
142	0x3ddd5876	0.10807888
143	0x3dcd18f8	0.10014528
144	0x3df79fc2	0.12091018
145	0x3dc55086	0.09634499
146	0x3d4332f4	0.047656015
147	0xbdeb0302	-0.11475183
148	0x3d6a759c	0.057241067
149	0xbdc4ece8	-0.09615499
150	0xbd234e28	-0.039869457
151	0x3d20ebe0	0.039287448
152	0xbcb63640	-0.022242665
153	0x3d2a6430	0.041599452
154	0xbd3a5350	-0.04548961
155	0x3cea4950	0.028599411
156	0xbdfa172c	-0.12211451
157	0x3c8bfec8	0.017089263
158	0x3c5ead20	0.013591081
159	0x3dfa20d8	0.12213296
160	0xbd1f1ce8	-0.038845927
161	0xbdc76efa	-0.09737964
162	0x3d430328	0.047610432
163	0x3da003c2	0.07813217
164	0xbde547d4	-0.11195341
165	0x3dd8012a	0.10547097
166	0xbd1523cc	-0.03641109
167	0x3cd53f68	0.026031211
168	0xbdad88bc	-0.08473346
169	0xbd8ce7b2	-0.0688013
170	0x3dedac3c	0.11605117
171	0xbd3c5068	-0.04597512
172	0x3dceb0dc	0.10092327
173	0x3d7f08d8	0.062264293
174	0xbdaa270a	-0.08308227
175	0xbdfe453e	-0.12415551
176	0x3dcb395a	0.09923048
177	0x3dc31746	0.095259234
178	0xbd235c78	-0.039883107
179	0xbd4f6b0c	-0.050639197
180	0x3ded7c52	0.11595978
181	0x3d5ee3fc	0.05441664
182	0xbcbe6128	-0.023239687
183	0xbc623d40	-0.013808548
184	0xbc8f7770	-0.017513007
185	0xbd2e00bc	-0.04248117
186	0xbd411fa4	-0.047149315
187	0xbd6b0bc4	-0.057384267
188	0xbceb0c70	-0.028692454
189	0xbdf02ce4	-0.11727312
190	0x3d61f05c	0.055160865
191	0x3d5e3ebc	0.054259047
192	0xbd156b50	-0.036479294
193	0xbdb08238	-0.08618587
194	0xbd8a1cde	-0.06743787
195	0x3d973076	0.0738229
196	0x3d26a1dc	0.040681705
197	0x3cb11600	0.021616936
198	0xbd9d517a	-0.07681556
199	0xbd15f6b4	-0.036612228
200	0xbbb3f760	-0.005492136
201	0x3d947d0e	0.07250415
202	0x3c12b670	0.008954629
203	0x3dab63fc	0.0836868
204	0xbd75aefc	-0.05998133
205	0xbd8856ec	-0.06657204
206	0xbdcd2e8a	-0.10018642
207	0xbddd920e	-0.10818873
208	0xbdb88866	-0.09010391
209	0x3d9504e4	0.072763234
210	0xbbec7c80	-0.00721699
211	0xbdbc1a48	-0.091847
212	0xbdc06d98	-0.09395903
213	0x3acbd080	0.0015549809
214	0x3ddcc454	0.10779634
215	0x3de6abfc	0.11263272
216	0xbbd43820	-0.006476417
217	0xbc484470	-0.012223348
218	0x3dac8aee	0.08424936
219	0xbdf93f92	-0.12170328
220	0x3bc10200	0.005890131
221	0x3dc7ee32	0.09762229
222	0x3d71d1c4	0.05903794
223	0xbd431aac	-0.04763286
224	0xbd98090a	-0.07423599
225	0xbc8036b0	-0.015651077
226	0x3de4f926	0.11180334
227	0xbd8de158	-0.069277465
228	0xbb938e60	-0.0045030564
229	0xbdae1e62	-0.08501889
230	0xbdfab688	-0.12241846
231	0xbdfbb028	-0.122894585
232	0x3d8a7834	0.06761208
233	0x3de73dd2	0.11291088
234	0x3c7de170	0.015495643
235	0xbc1ad570	-0.0094503015
236	0x3da3e34c	0.08002338
237	0x3d940644	0.072277576
238	0xbd0acfc4	-0.033889547
239	0x3dcec0f2	0.10095395
240	0x3dc79730	0.097456336
241	0xbb82c5a0	-0.003990844
242	0x3dbd3b06	0.092397735
243	0xbdd4d15a	-0.10391493
244	0xbdf5d758	-0.12003964
245	0xbd9e43b4	-0.07727757
246	0x3dba162e	0.09086262
247	0xbd3199fc	-0.04335974
248	0xbd584644	-0.052801386
249	0x3d41775c	0.04723297
250	0x3c35b990	0.011091605
251	0x3c6088e0	0.013704509
252	0x3d855702	0.06510736
253	0xbc8255c8	-0.015910044
254	0x3d3b0538	0.045659274
255	0xbd8eab66	-0.069662854

lstm.weight_ih_l1 f4 [256, 64]
0	0xbc81f568	-0.01586409
1	0xbce6b7e0	-0.02816385
2	0x3d8539ae	0.06505142
3	0x3dcf1d84	0.101130515
4	0xbd27b5dc	-0.04094492
5	0xbd87b8da	-0.066270545
6	0x3dac2874	0.08406153
7	0x3d87ced2	0.06631245
8	0xbdfc6790	-0.123244405
9	0xbdb102e0	-0.086431265
10	0x3de76698	0.11298865
11	0xbc0dede0	-0.008662671
12	0xbdde0720	-0.10841203
13	0x3dc66358	0.09686917
14	0x3a095a00	0.00052395463
15	0x3c9eed58	0.019400284
16	0x3c4cd900	0.012502909
17	0xbdf11948	-0.117724
18	0xbd9b9d17	-0.07598322
19	0x3cf231c0	0.029564738
20	0xbd92fc4a	-0.071770266
21	0x3da9538e	0.0826789
22	0xbd30f3a4	-0.043201104
23	0xbd8ed4b8	-0.06974167
24	0x3dc4caa8	0.09608966
25	0xbd1611e0	-0.03663814
26	0x3cb22b0d	0.021749044
27	0xbdef4c3a	-0.11684461
28	0xbde60a82	-0.11232473
29	0x3c76c340	0.0150612
30	0xbd8f7845	-0.070053615
31	0xbdf7ceae	-0.12099968
32	0x3d659698	0.05605182
33	0x3dced804	0.100997955
34	0x3d9dd0ac	0.077058166
35	0xbcc184c0	-0.02362287
36	0x3dcf8fec	0.10134873
37	0xbcd45b48	-0.025922433
38	0xbd8adcde	-0.06780408
39	0xbd8225ba	-0.06354852
40	0x3d9fe368	0.07807046
41	0x3dde5d3a	0.10857625
42	0xbd8cd8d0	-0.06877291
43	0xbcf929b8	-0.0304154
44	0x3ce01500	0.027353764
45	0xbd8cc502	-0.06873514
46	0xbd58bc48	-0.052913934
47	0x3da6aab6	0.08138029
48	0xbda194c4	-0.07889703
49	0x3d738038	0.05944845
50	0x3d0be2b7	0.03415176
51	0xbd73eb03	-0.059550297
52	0xbd95ed1c	-0.07320616
53	0xbd865cd8	-0.06560677
54	0x3dc2cc14	0.09511581
55	0x3d663f98	0.05621299
56	0x3deed581	0.116618164
57	0xbd862ed4	-0.065519005
58	0x3dda46ab	0.1065801
59	0x3da582be	0.08081578
60	0xbdd6b3d0	-0.10483515
61	0x3de316bc	0.110883206
62	0xbdc32b70	-0.095297694
63	0xbd23817c	-0.039918408
64	0xbdb62458	-0.08893651
65	0xbdf8fb0e	-0.1215726
66	0x3decfb60	0.115713835
67	0x3dbfb2c8	0.09360272
68	0xbdb82c54	-0.0899283
69	0xbcf990b8	-0.030464515
70	0x3d46d294	0.048540667
71	0x3b8a2c40	0.004216701
72	0xba34e200	-0.00069001317
73	0xbd142db0	-0.036176383
74	0x3d268168	0.040650755
75	0x3db7a938	0.08967823
76	0xbc0832a0	-0.008312851
77	0xbdb7dfe0	-0.08978248
78	0x3de54a70	0.111958385
79	0x3de30e10	0.110866666
80	0xbd447adc	-0.04796873
81	0xbd9b41e8	-0.0758093
82	0x3d57185a	0.052513458
83	0x3cd6d028	0.026222304
84	0x3c901388	0.017587438
85	0xbdb46f7c	-0.088103265
86	0xbd89dd72	-0.067316905
87	0x3dcd26fe	0.10017203
88	0x3d6f67f0	0.058448732
89	0x3d6d6f14	0.05796726
90	0xbe05caee	-0.13065693
91	0x3d7edda4	0.06222309
92	0x3dee5fd6	0.11639373
93	0xba349400	-0.0006888509
94	0x3dc12a31	0.094318755
95	0xbdb066a0	-0.08613324
96	0x3c972718	0.018451259
97	0x3ddb53d0	0.10709345
98	0xbc9f19e8	-0.019421533
99	0x3d8a33a4	0.06748131
100	0xbdf78230	-0.12085378
101	0xbdcbb4ee	-0.09946619
102	0x3d78f687	0.06078198
103	0xbd3fcfc0	-0.046828985
104	0xbd0834ec	-0.033253595
105	0x3c32fdc0	0.0109247565
106	0xbd01ddbc	-0.031705603
107	0xbda8b6f8	-0.082380235
108	0xbc6ee280	-0.014580369
109	0x3dcec1c0	0.10095549
110	0x3d50e674	0.051001027
111	0x3dc9ea74	0.098591715
112	0x3d979092	0.074006215
113	0x3d6cb5bb	0.0577905
114	0x3cd921c9	0.026505368
115	0xbc9c79bd	-0.019101018
116	0xbc34d271	-0.011036501
117	0x3dff1844	0.124558
118	0xbcdc7070	-0.026909083
119	0xbddd718a	-0.108126715
120	0xbba4ddba	-0.0050313147
121	0xbc8f84b1	-0.017519327
122	0x3b9fd548	0.00487772
123	0xbdfc1c1e	-0.123100504
124	0x3c3c0d70	0.011477813
125	0x3dd1f5f0	0.10251987
126	0x3c40ad20	0.011760026
127	0x3d97b576	0.07407658
128	0x3d8456a2	0.064618364
129	0x3db2bb1a	0.08727093
130	0x3d7890cc	0.060684964
131	0xbd4f11b4	-0.050553992
132	0xbdf411b4	-0.11917439
133	0xbd45343c	-0.048145518
134	0x3c060570	0.008180007
135	0x3d836474	0.06415644
136	0xbde51c8e	-0.11187087
137	0xbb512ac0	-0.003191635
138	0xbd6649c8	-0.056222707
139	0xbd1fc108	-0.03900245
140	0x3dfdf6ee	0.12400614
141	0xbdeaa84c	-0.11457881
142	0xbd9d6840	-0.076859
143	0xbd8a9d78	-0.06768316
144	0xbb851120	-0.0040608793
145	0x3dfc280a	0.12312324
146	0x3d10790c	0.03527169
147	0x3d913398	0.07089919
148	0x3db8c8e2	0.0902269
149	0x3dffbbfa	0.124870256
150	0x3da0e978	0.07857031
151	0x3b843340	0.00403443
152	0xbd8009c8	-0.062518656
153	0x3c4a4f20	0.012347966
154	0xbe02ab5f	-0.12760685
155	0xbc6d3b90	-0.014479533
156	0x3d9265e6	0.07148342
157	0x3d3ab6fc	0.045584664
158	0xbcfa5091	-0.030555995
159	0xbd94fbdc	-0.07274601
160	0xbd4bcf64	-0.04975833
161	0xbd5d838c	-0.05408053
162	0x3ddd24d8	0.10798043
163	0x3d0764a4	0.033054963
164	0x3dea4274	0.11438456
165	0xbdf2a528	-0.11847907
166	0xbc1f09f1	-0.00970696
167	0xbd6ee850	-0.05832702
168	0x3d3931ec	0.045213625
169	0xbdfa3168	-0.12216455
170	0x3c1b5730	0.009481236
171	0xbc331630	-0.010930583
172	0x3dfa2242	0.122135654
173	0xbd852dbb	-0.06502863
174	0xbcfc08a0	-0.030765831
175	0x3d5ec6e8	0.05438891
176	0xbd2dc8fc	-0.042428
177	0x3dc7c826	0.09754972
178	0xbd914b46	-0.070944354
179	0xbd582972	-0.0527739
180	0xbc9a090a	-0.018803138
181	0xbc4a77b0	-0.012357637
182	0x3db1d828	0.08683807
183	0xbd5fc4f0	-0.054631174
184	0xbc7b1642	-0.015325131
185	0x3d28c9f8	0.041208237
186	0x3daf772e	0.085676536
187	0x3dc8640e	0.09784709
188	0xbdabfe58	-0.083981216
189	0xbcfd2ff0	-0.030906647
190	0x3bf941a0	0.0076067
191	0xbdafbd06	-0.08580975
192	0x3b367280	0.0027839243
193	0x3dcc2350	0.09967673
194	0xbbeeb560	-0.007284805
195	0x3d31c800	0.043403625
196	0xbdde533a	-0.10855718
197	0xbd870066	-0.06591873
198	0x3c942350	0.018083245
199	0x3b2a5700	0.0025991797
200	0x3d9c46a0	0.07630658
201	0xbdcf8852	-0.10133423
202	0x3da2da50	0.07951796
203	0x3d980ce0	0.07424331
204	0xbda67870	-0.081284404
205	0xbd870c76	-0.065941736
206	0x3cee0c78	0.02905868
207	0xbd991dac	-0.074763626
208	0x3d7927dc	0.06082903
209	0x3bae2c40	0.0053153336
210	0x3ca11fdf	0.019668518
211	0x3d9aed60	0.07564807
212	0xbc4ed3d0	-0.012623742
213	0x3cc60130	0.024170488
214	0x3d8a21f0	0.06744754
215	0x3d0e5a1c	0.034753904
216	0xbdda894a	-0.10670717
217	0xbdd94dea	-0.10610564
218	0x3d9355f4	0.07194129
219	0x3cab96f8	0.020946011
220	0x3ddf4780	0.109023094
221	0x3d1796b4	0.037008956
222	0x3d96de62	0.07366635
223	0xbd611c98	-0.05495891
224	0x3d55de68	0.052214056
225	0xbc613340	-0.013745129
226	0x3df0061e	0.11719917
227	0xbd17b158	-0.037034363
228	0x3de23b30	0.11046445
229	0x3d986b7a	0.074423745
230	0xbd00d48e	-0.031452708
231	0x3d05cf80	0.03266859
232	0xbdf37d8c	-0.118891805
233	0x3dda0710	0.10645878
234	0x3de009ec	0.109393924
235	0xbd9ead74	-0.07747927
236	0xbdc8eab2	-0.098103896
237	0x3de77915	0.113023914
238	0x3dab1872	0.08354272
239	0x3cfd1b08	0.030896679
240	0xbd630238	-0.055422038
241	0xbd83cd9c	-0.06435701
242	0x3e00a09a	0.12561265
243	0x3d9ba8ab	0.0760053
244	0x3dd7d764	0.105391294
245	0xbda83504	-0.08213237
246	0xbd8d35c2	-0.06895019
247	0x3dc7b96e	0.09752165
248	0x3d3384a2	0.04382766
249	0x3d8baaa3	0.06819656
250	0x3e151532	0.14558867
251	0xbdd1c4f2	-0.102426425
252	0x3c89bb30	0.01681289
253	0x3d659ff0	0.05606073
254	0x3cbf4848	0.023349896
255	0xbcd4c460	-0.025972545

lstm.weight_hh_l1 f4 [256, 64]
0	0x3e0db4cf	0.13838504
1	0xbaf36597	-0.0018569705
2	0x3d1663c1	0.036716226
3	0x3d797ac7	0.060908105
4	0xbc9e99fe	-0.019360539
5	0xbd9d22be	-0.07672642
6	0x3d8cfe67	0.06884461
7	0xbd4dee8f	-0.050276335
8	0x3e0369e0	0.12833357
9	0x3e0f8c1d	0.14018293
10	0xbdbc5fcd	-0.0919796
11	0xbc23d035	-0.009998371
12	0xbc29ef76	-0.010372033
13	0x3b35e5ac	0.0027755303
14	0xbd2249f2	-0.0396213
15	0x3d3c45ad	0.045964886
16	0x3db9b2f6	0.09067337
17	0x3deb4f64	0.11489752
18	0x3b665542	0.0035146032
19	0x3dd09161	0.10183979
20	0xbb3bcff7	-0.0028657892
21	0xbe06d6c3	-0.13167863
22	0x3db1edae	0.08687912
23	0xbcce855b	-0.025210073
24	0x3dd774a6	0.10520296
25	0xbe073783	-0.1320477
26	0x3db5b283	0.08871939
27	0x3da3aa6f	0.07991492
28	0x3e092683	0.13393597
29	0x3d8a2ce7	0.06746846
30	0xbdb7cf48	-0.08975083
31	0x3ca742f1	0.020417662
32	0x3d9468d8	0.0724656
33	0xbdd06835	-0.10176126
34	0xbd5529c8	-0.0520418
35	0xbd9e8c37	-0.077415876
36	0xbd8c4d88	-0.068507254
37	0x3dc7068b	0.09718045
38	0x3e052706	0.13003168
39	0xbdc2dbf5	-0.0951461
40	0x3d428f49	0.04749993
41	0xbd5393fe	-0.05165481
42	0xbde44635	-0.111462034
43	0x3da2b3df	0.07944464
44	0x3dc948e4	0.09828356
45	0xbdd96b3e	-0.10616158
46	0x3e081e0f	0.13292716
47	0xbe086f70	-0.1332376
48	0xbceeda89	-0.02915694
49	0xbe13431b	-0.14381067
50	0xbce74d99	-0.028235244
51	0xbdf0b90b	-0.11754044
52	0x3db539bd	0.08848903
53	0x3ac4cbb7	0.0015014325
54	0x3db2faf1	0.087392695
55	0x3dc5998f	0.096484296
56	0x3d54d79b	0.05196343
57	0xbd12f37d	-0.03587674
58	0x3da486d3	0.08033528
59	0xbde5c4dd	-0.11219189
60	0x3ce156d6	0.027507227
61	0x3bf77c25	0.007552641
62	0x3da1915e	0.07889055
63	0x3dd65e70	0.10467231
64	0x3d6bbe25	0.057554383
65	0xbe175889	-0.14779867
66	0xba3556f7	-0.0006917561
67	0x3dd8e3a5	0.10590295
68	0x3dcb53a7	0.09928065
69	0x3af3e3d1	0.0018607323
70	0x3d1088f7	0.03528687
71	0xbc4ca58d	-0.012490642
72	0x3dca72b2	0.09885158
73	0x3e189aa2	0.14902738
74	0x3c65737a	0.014004583
75	0x3dc053b4	0.09390965
76	0xbd128866	-0.03577461
77	0xbd924889	-0.07142741
78	0x3d9d8ce2	0.07692887
79	0x3d9fe694	0.07807651
80	0x3da2bcfc	0.07946202
81	0xbc3458b5	-0.0110074775
82	0x3b5aea91	0.0033403973
83	0xbd38bda4	-0.04510273
84	0xbc1997f4	-0.009374607
85	0xbd16bfe0	-0.03680408
86	0xbd310613	-0.043218683
87	0x3df5d120	0.12002778
88	0x3d53d529	0.051716957
89	0xbdbfa40c	-0.09357461
90	0x3c10952d	0.008824629
91	0x3cacb4ad	0.021082247
92	0xba9096ba	-0.0011031248
93	0xbd860cf5	-0.0654544
94	0x3e1143f3	0.14186077
95	0x3d398815	0.045295794
96	0x3cf8b7d3	0.030361092
97	0x3c509a73	0.012732136
98	0xbd7f09e1	-0.06226528
99	0x3d932443	0.07184651
100	0xbdb8f092	-0.0903026
101	0x3dc8a0d3	0.097963
102	0x3d426fa0	0.047469735
103	0x3df40611	0.119152196
104	0x3d0b214d	0.033967305
105	0xbd14a062	-0.036285765
106	0xbdcadea0	-0.099057436
107	0xbdb7fb75	-0.089835085
108	0xbc6d2f4b	-0.014476608
109	0xbd42f4ff	-0.047596928
110	0x3d991a0b	0.074756704
111	0x3d416796	0.047217928
112	0x3dcbe44c	0.099556535
113	0x3da4ca82	0.08046438
114	0x3c85fe12	0.016356502
115	0xbdc7e8a7	-0.09761172
116	0xbdaf8cda	-0.08571787
117	0xbd3aa47f	-0.045567032
118	0x3db02c6b	0.08602222
119	0xbd3dafb8	-0.046310157
120	0x3d98b696	0.074567005
121	0xbde450d4	-0.11148229
122	0x3da41a83	0.08012869
123	0xbcfe4936	-0.03104077
124	0x3d88d0b9	0.06680436
125	0x3c99613e	0.018723127
126	0x3dd1fa48	0.102528155
127	0xbdff38cc	-0.12462005
128	0x3b26a8c5	0.0025430184
129	0x3db6cd9b	0.08925935
130	0x3df847db	0.1212308
131	0x3db37679	0.08762831
132	0xbd948565	-0.072520055
133	0xbdbd62c5	-0.092473544
134	0x3dbf7f6c	0.09350476
135	0xbd985775	-0.07438556
136	0x3dc3ba99	0.09557075
137	0xbd4420e3	-0.047882926
138	0xbdc3208f	-0.095276944
139	0x3b093d76	0.0020941175
140	0x3d8ce009	0.06878669
141	0xbb3be84f	-0.0028672402
142	0x3ceeb96e	0.029141154
143	0x3c66fdef	0.014098628
144	0x3c09016e	0.008362157
145	0x3d9504d6	0.07276313
146	0x3df67051	0.120331414
147	0xbdbb5dba	-0.09148736
148	0x3e0c0733	0.13674621
149	0xbe09c657	-0.13454567
150	0x3dd544fc	0.10413548
151	0x3d97521c	0.07388708
152	0xbd888474	-0.066658884
153	0xbbe75a68	-0.007060338
154	0xbcad80b4	-0.021179534
155	0xbdb3bd6a	-0.08776362
156	0x3dabf9e4	0.08397272
157	0x3c8f11fa	0.017464627
158	0xbd1ad562	-0.037801154
159	0x3c47b085	0.012188082
160	0x3dc7a55f	0.09748339
161	0xbcf0e08a	-0.029403944
162	0xbd3b2fca	-0.045699872
163	0xbd5a3fa1	-0.053283338
164	0x3d9eb497	0.077492885
165	0x3cd9130b	0.026498338
166	0x3de19bc2	0.110160366
167	0x3a2663fc	0.00063472963
168	0x3d51bda9	0.051206265
169	0x3d04a6b9	0.03238556
170	0x3d380f8a	0.044936694
171	0xbac21f0f	-0.0014810282
172	0x3dba066a	0.09083255
173	0x3c932b39	0.017964946
174	0xbd57464b	-0.05255727
175	0x3da6e4af	0.08149087
176	0xbda146a3	-0.07874801
177	0xbda5fe4e	-0.081051454
178	0x3e0ff813	0.14059477
179	0xbc6d1a9a	-0.014471674
180	0xbd6a3d37	-0.057187285
181	0x3d0ee54f	0.034886654
182	0xbd824a69	-0.06361849
183	0xbd89b4f0	-0.06723964
184	0xbd3d28b8	-0.04618141
185	0xbdc1f77d	-0.09471033
186	0x3d1a964a	0.037740983
187	0xbd0c3dc4	-0.03423859
188	0xbda9fc1b	-0.083000384
189	0xbd9eb97c	-0.07750222
190	0x3d201ce1	0.03909004
191	0xbdccb73d	-0.099958874
192	0xbd6cc33f	-0.05780339
193	0xbc4e31b5	-0.012585093
194	0xbd18e8dd	-0.03733145
195	0x3e0f33ff	0.13984679
196	0xbe061a33	-0.13095932
197	0xbd866536	-0.06562273
198	0xbd8bd10b	-0.06826981
199	0xbda4eadc	-0.08052608
200	0x3d8b87c7	0.06813007
201	0xbda71d71	-0.081599124
202	0x3e1612a6	0.14655551
203	0x3d8e0196	0.06933896
204	0x3d8b5f3e	0.068052754
205	0xbdb0c38a	-0.08631046
206	0x3bb93a5a	0.005652708
207	0x3cf2e304	0.029649265
208	0x3c045ef5	0.00807928
209	0x3d81155a	0.063029006
210	0xbca1e9a6	-0.019764733
211	0xbda9297a	-0.08259864
212	0x3c6555da	0.013997519
213	0xbdbeb911	-0.09312642
214	0xbd8417a7	-0.06449824
215	0xbcf0079c	-0.029300503
216	0x3d2a7ccd	0.041622926
217	0x398eeccc	0.00027260778
218	0x3d0dcad0	0.034617245
219	0x3d4691a7	0.04847875
220	0x3de53ee5	0.11193637
221	0xbbd82bb0	-0.006597005
222	0x3d113980	0.035455227
223	0x3d443b51	0.04790813
224	0xbd92d768	-0.07169992
225	0x3c22f10c	0.009945165
226	0xbd5c8fe8	-0.053848177
227	0x3d83db54	0.06438318
228	0x3d885a43	0.06657841
229	0xbd817de4	-0.0632284
230	0x3d752313	0.059847903
231	0x3dae6083	0.08514502
232	0xbd72c781	-0.059272293
233	0xbd5753de	-0.052570216
234	0xbdb5a6a7	-0.08869677
235	0xbd928dc1	-0.07155944
236	0xbc8ef13e	-0.017449018
237	0x3dcf56ca	0.101239756
238	0xbd97ac2d	-0.07405887
239	0xbd7333b0	-0.059375465
240	0xbdb71010	-0.089386106
241	0xbd416fd8	-0.047225803
242	0x3dc984cd	0.09839783
243	0x3d3bb7a4	0.04582943
244	0x3c08344c	0.00831325
245	0x3e0320c1	0.12805463
246	0xbdb11025	-0.086456574
247	0x3dc950c5	0.09829859
248	0x38a9f97b	8.105017e-05
249	0x3d46faf3	0.048579168
250	0x3cb559ab	0.022137484
251	0xbd1f8b22	-0.038951047
252	0xbdaf49f9	-0.08559031
253	0x3db85161	0.08999897
254	0x3dc8763b	0.09788176
255	0x3d8c6bf2	0.068565264

lstm.bias_ih_l1 f4 [256]
0	0x3daa3832	0.083115
1	0x3d0d6b7d	0.034526337
2	0x3c3f5196	0.011677166
3	0xbd3a21da	-0.04544244
4	0x3c8a3a83	0.016873604
5	0xbd897c7c	-0.06713197
6	0xbcd8cee5	-0.026465843
7	0x3c375182	0.011188867
8	0xbc59a21f	-0.013283282
9	0xbd7f47d9	-0.06232438
10	0xbd99de4b	-0.07513102
11	0x3dbb0e12	0.09133543
12	0x3d490bab	0.049083393
13	0xbd892f96	-0.066985294
14	0xbd440854	-0.047859505
15	0xba29c538	-0.0006476226
16	0x3d9a4f0a	0.07534607
17	0xbc80e1f3	-0.015732741
18	0x3ce86325	0.028367588
19	0xbbce7cb1	-0.0063014855
20	0xbda36585	-0.07978348
21	0xbd548f00	-0.051894188
22	0xbc9d18a5	-0.01917679
23	0x3dc2bd64	0.0950878
24	0x3dc96992	0.09834589
25	0x3de13035	0.10995523
26	0x3d71abbe	0.059001677
27	0x3da6072d	0.081068374
28	0x3ca47d42	0.020079259
29	0x3a3cde1d	0.00072047283
30	0xbd66a469	-0.056309137
31	0xbd593920	-0.053032994
32	0x3c52b3e6	0.012860274
33	0x3d91a2f8	0.07111162
34	0xbd9dd5f5	-0.07706825
35	0x3d93d65b	0.072186194
36	0xbd9e5f18	-0.077329814
37	0x3d69304f	0.056930836
38	0x3cd8c057	0.026458902
39	0x3d1412f3	0.036150884
40	0x3e0b4b46	0.13602933
41	0x3ca32c41	0.019918563
42	0xbc0df0f5	-0.008663406
43	0x3bc0717f	0.005872905
44	0x3de5051a	0.11182614
45	0xbd9a2239	-0.07526059
46	0x3e037b2c	0.12839955
47	0x3d18bfe3	0.037292372
48	0xbda24425	-0.07923154
49	0xbca7a1f8	-0.020462975
50	0xbd80cd59	-0.06289167
51	0xbd5765c2	-0.05258728
52	0x3e0dc36c	0.13844079
53	0xbdc4e6b2	-0.09614314
54	0xbce75f00	-0.028243542
55	0x3d986b93	0.07442393
56	0x3d0802d0	0.033205807
57	0xbd3f693d	-0.046731222
58	0xbdb16f68	-0.08663827
59	0x3decbb31	0.115591414
60	0xbd19d5a1	-0.037557248
61	0xbd92a5b1	-0.071605094
62	0x3cf45788	0.029826894
63	0xbcc3d971	-0.023907395
64	0xbd425b34	-0.04745026
65	0x3e01260a	0.12612167
66	0xbc954fcf	-0.018226532
67	0x3d9a1c70	0.07524955
68	0x3e13765f	0.14400624
69	0xbd4899a6	-0.048974656
70	0xbd3a58fb	-0.045495015
71	0xbd7fe9e2	-0.062478907
72	0xbdca28a5	-0.098710336
73	0x3e091ef9	0.13390721
74	0xbd4d5a20	-0.050134778
75	0x3da0b09a	0.07846184
76	0x3c10032d	0.00878982
77	0xbdc0391d	-0.093858935
78	0xbda8089d	-0.08204768
79	0x3d5c7f81	0.053832535
80	0x3d96dffd	0.07366941
81	0x3d04016f	0.03222793
82	0xbd17afee	-0.037033014
83	0xbb51f5b4	-0.003203732
84	0xbd459f2f	-0.048247512
85	0xbdacd235	-0.08438531
86	0x3dd14274	0.10217753
87	0xbdb974c1	-0.09055472
88	0x3d8ec60d	0.06971369
89	0xbd387f4c	-0.045043275
90	0x3d0dc231	0.034609023
91	0xbd9e6674	-0.07734385
92	0x3d80e56f	0.06293761
93	0xbde899ff	-0.113574974
94	0x3d8f227b	0.069889985
95	0xbd050cc9	-0.032482896
96	0xbcfd4c60	-0.030920208
97	0x3dbde16a	0.0927151
98	0x3d0ef400	0.034900665
99	0x3dc30bf3	0.095237635
100	0x3de5dd28	0.11223823
101	0x3dd0d8fe	0.10197638
102	0xbd9973b1	-0.074927695
103	0xbdd1f655	-0.10252062
104	0x3e10e5cb	0.14150159
105	0xbc7cdc27	-0.015433348
106	0x3dda38ed	0.10655389
107	0xbda1a9fa	-0.078937486
108	0x3cace1e6	0.02110381
109	0xbd4d9694	-0.05019243
110	0xbdd56c6d	-0.10421071
111	0x3ce812d1	0.028329285
112	0xbdaa349c	-0.08310816
113	0xbda0b9bd	-0.07847927
114	0xbdaedc46	-0.085381076
115	0x3d17ba59	0.03704295
116	0x3e1423f1	0.14466836
117	0x3d1f2137	0.038850036
118	0xbbf2122d	-0.0073874206
119	0xbdab3fce	-0.08361779
120	0x3db61725	0.08891133
121	0xbd08144d	-0.033222485
122	0x3d279fe4	0.040923968
123	0x3d7a6642	0.061132677
124	0x3de74783	0.11292937
125	0x3d8715f2	0.065959826
126	0xbb20d8e3	-0.0024543337
127	0xbd524dcb	-0.05134372
128	0xbd83714a	-0.064180925
129	0xbdbe4da7	-0.09292155
130	0xbc330804	-0.010927204
131	0xbc0d6136	-0.008629134
132	0xbd13aa8d	-0.03605132
133	0x3de35e19	0.11101932
134	0x3e073ec3	0.13207535
135	0xbdf20324	-0.11817005
136	0x3d721d69	0.05911008
137	0x3d442ac2	0.04789234
138	0x3d5c38e4	0.053765193
139	0x3d62df2a	0.055388607
140	0x3d561cb6	0.052273475
141	0x3e01073b	0.12600414
142	0x3d321ce3	0.04348458
143	0xbd378f06	-0.044814132
144	0x3d96bc21	0.073601015
145	0xbda8e735	-0.08247224
146	0x3e10a42d	0.14125128
147	0x3dbc2bcf	0.09188043
148	0xbd8823f7	-0.06647485
149	0xbddb3a04	-0.10704425
150	0xbdb4429b	-0.088017665
151	0x3d19e294	0.037569597
152	0xbd05cc57	-0.032665577
153	0x3dd813d3	0.10550656
154	0x3dbecda7	0.09316569
155	0xb9b8d055	-0.00035250434
156	0x3da5374a	0.08067186
157	0x3dad943b	0.08475538
158	0x3dea219f	0.11432194
159	0xbde29b25	-0.11064748
160	0x3b900f1c	0.0043963324
161	0x3d83df40	0.06439066
162	0x3dc9fed0	0.09863055
163	0xbdfbbd81	-0.122920044
164	0x3cea4948	0.028599396
165	0x3c75d81f	0.015005141
166	0x3da4538a	0.08023746
167	0xbd35b336	-0.044360362
168	0xbd45c9d4	-0.04828818
169	0x3dd395f1	0.103313334
170	0x3d8d0704	0.06886104
171	0xbd6e8771	-0.058234636
172	0x3da0094f	0.078142755
173	0xbdd95bb0	-0.10613191
174	0x3d773a68	0.060358435
175	0xbd82660a	-0.06367119
176	0xbcdef9bc	-0.027218692
177	0xbdfe3920	-0.124132395
178	0x3d913f35	0.07092134
179	0x3d9f4488	0.07776743
180	0x3c070d76	0.008242955
181	0x3ccf2fce	0.02529135
182	0x3d4a09f5	0.049325902
183	0x3d846432	0.06464423
184	0xbd6c045d	-0.05762135
185	0xbd8da1bc	-0.06915614
186	0x3e043c1a	0.12913552
187	0xbd33e6dd	-0.04392134
188	0x3e0f185b	0.13974135
189	0xbd898c59	-0.06716222
190	0x3da99d81	0.082819946
191	0xbe01fdf3	-0.1269453
192	0x3bf065c2	0.007336349
193	0x3da9dca5	0.08294038
194	0xbd0ff0e7	-0.03514185
195	0x3da6308a	0.08114727
196	0xbd9e1ccc	-0.07720336
197	0x3dc4d2be	0.096105084
198	0x3daab9a0	0.083361864
199	0xbdc92b8b	-0.09822758
200	0xbde9a294	-0.114079624
201	0xbd957db9	-0.0729937
202	0xbd1eef5b	-0.038802486
203	0xbcc05f52	-0.023482952
204	0x3c26a23f	0.010170518
205	0xbbb07114	-0.0053845737
206	0x3dd002ce	0.10156785
207	0x3d09dff2	0.033660837
208	0x3cac8d2e	0.021063413
209	0x3d6c5b4a	0.057704248
210	0xbd0034a8	-0.031300217
211	0xbce30ebd	-0.027716989
212	0xbd913d80	-0.07091808
213	0x3dbe8f49	0.09304673
214	0xbdbb0863	-0.09132459
215	0x3a99f744	0.0011746665
216	0x3e044427	0.12916623
217	0xbcc985b4	-0.024599887
218	0x3d5450fd	0.05183505
219	0x3b8c23fa	0.0042767497
220	0x3db8bafe	0.09020041
221	0x3d9a58ca	0.075364664
222	0x3d1d24e9	0.03836528
223	0x3da3e05a	0.08001776
224	0x3e03bd3c	0.12865156
225	0xbd9a50e3	-0.07534959
226	0xbce79785	-0.028270492
227	0x3d0cd411	0.03438193
228	0x3dd93093	0.10604968
229	0xbc3295aa	-0.0108999405
230	0x3e00d489	0.12581076
231	0x3b9b5846	0.0047407476
232	0xbd0235da	-0.031789638
233	0x3c1ec5eb	0.009690742
234	0xbab2146c	-0.0013586408
235	0x3d5d0de2	0.053968318
236	0x3d5df5c6	0.054189466
237	0x3df055d0	0.117351174
238	0xbd79d782	-0.06099654
239	0xbd730e6a	-0.05933992
240	0x3d8f4ed8	0.0699746
241	0xbdb69dda	-0.089168265
242	0x3baa75e9	0.0052020443
243	0x3d84fa80	0.064930916
244	0xbdcd6a33	-0.100300215
245	0x3d10f157	0.03538641
246	0x3d3040bd	0.04303049
247	0x3df621dc	0.12018177
248	0x3d20ce31	0.03925914
249	0x3e07c9c6	0.13260564
250	0x3d95fd02	0.07323648
251	0x3cf2e948	0.029652253
252	0x3ca39615	0.019969026
253	0x3dd5c893	0.10438647
254	0x3d2b3d0c	0.041806266
255	0xbd3fdf4e	-0.04684382
