models/SUIUSDT_lstm_20250822_023233.pth (torch, 267815 bytes, 11 tensors)

lstm.weight_ih_l0 f4 [256, 53]
00000000: 18d5 bc3d 88e4 c6bc 80ee f2ba e00f a7bc
00000010: 989a 42bd 1e18 85bd 643a 08bd bca6 8dbd
00000020: 602f 133c dab8 823d 3a99 c23d a0a4 6cbc
00000030: e837 99bc 4091 49bc 6a46 d93d 2624 ffbd
00000040: 869d d23d 72c9 b43d f485 26bd 983a 6e3d
00000050: d098 cfbd dc31 0fbd d087 4abd 509d 07bc
00000060: b002 03bc 000c f83c 98d0 c33d 600b 783c
00000070: 9004 03bd 8807 c4bc f84d 6d3d f012 f33c
00000080: b0ab 303c c0fd b3bb 3447 7f3d 206b d23b
00000090: 840e d33d 8080 cfbc 86d1 cd3d 1434 bd3d
000000a0: 90f8 64bc f83f 8bbc f030 70bd 68ef bdbc
000000b0: f4ef 72bd b077 97bd eafb 98bd 54aa 103d
000000c0: 4e0d 95bd b088 9ebc 1e0b d03d 50af 883c
000000d0: d22b fd3d c40b 0bbd ca53 b4bd d296 e53d
000000e0: c0fe 423c 38cd f1bd 9c51 373d 785f ac3d
000000f0: e8e2 cbbc e007 d03d 808b 0cbb 3a97 f0bd
00000100: 6ed2 92bd 005c adb9 643f 28bd d4d0 d33d
00000110: 008f e73b 40dd d4bb 800c 2e3d 6804 413d
00000120: 7897 a7bc e24b fe3d 78b7 ed3d c2fc 91bd
00000130: 3653 9ebd ecc6 4e3d 6a13 b53d d06b 863d
00000140: 8018 d33b 122e a0bd 6c49 4e3d 2c73 cb3d
00000150: c0fd e8bd 2ce3 fe3d 8615 f9bd 7e67 8a3d
00000160: c865 74bd dcde b8bd 7025 34bc 2c02 043d
00000170: a6ae 98bd 5094 063d 4065 9ebd 4223 b1bd
00000180: 988a ba3d 4485 2ebd f00c 14bd 100f 0a3c
00000190: 6434 1abd 70f6 243c 38f5 1cbd b040 2dbd
000001a0: fc34 25bd 8ec4 a2bd 804d b4bc be17 e7bd
000001b0: 84d3 49bd 64b7 c2bd 5856 ccbc c218 d4bd
000001c0: 20d6 e6bc 4897 cdbc 18d7 5c3d a20e c23d
000001d0: 8c5f 723d ece1 2dbd dc77 713d a07b c0bd
000001e0: 5487 163d 3c2d 1abd d48d 83bd 7cc0 f5bd
000001f0: f055 413d f8e5 fa3c 08ca 733d 0c78 3e3d
00000200: a817 5fbd 96af 82bd 60f4 1bbd a4b5 573d
00000210: 6022 a5bc e808 33bd 908d 0dbd e8e4 fabc
00000220: c08a c5bc 105e 03bd 2461 72bd f050 9e3d
00000230: 402a ad3c 68ee 5f3d a046 17bc 50b9 fe3c
00000240: 3c74 53bd e8a8 8bbc 785c de3d 6ccc 933d
00000250: 8a11 86bd b0f6 fb3d e8c4 c9bd c811 cc3d
00000260: 50a8 4dbd 483b 953d 64d3 febd 38c1 5bbd
00000270: a075 31bc d0c5 e8bd 7ca1 7d3d 08cd 283d
00000280: 248b c33d 98f4 403d 2ccf 2dbd 7ea5 d53d
00000290: 1e8e b2bd e020 c2bd 8069 b33a ece7 783d
000002a0: 5c5e cf3d 7469 f73d f88c afbc 626e d23d
000002b0: 886b f23c b08b 4ebd 5062 663c 9416 103d
000002c0: 60ce 213c 5007 9c3d c6f8 e3bd 74ae 523d
000002d0: debd d03d 787a 83bd 082d cf3c 7e7e f1bd
000002e0: 92b2 e0bd aaa6 d93d 6021 afbc b8f8 f1bc
000002f0: a812 a0bc 7086 22bc a61f e63d feee efbd
00000300: b6d5 91bd 52ff e53d 487b 883d 60f3 413c
00000310: dca2 1dbd 085f b93c 209e 593c 8e7d b7bd
00000320: 7828 1c3d 6ea7 f8bd 3062 333c 1c14 ec3d
00000330: 365e f1bd e213 fb3d 46b0 e93d 5084 a8bd
00000340: d022 1fbc 64c5 b53d 2293 eebd b40c a1bd
00000350: 1aa3 fc3d a6e8 8c3d e073 41bd 90de e5bc
00000360: e02d 313d 8cef 3cbd 20ea f8bc 6007 febd
00000370: 1069 003c e832 f23d f420 723d aa2e ce3d
00000380: 1e5a d5bd a036 e13b 9854 1e3d f8ee abbc
00000390: 68a4 b4bc fcae 6f3d 90ff 8ebc ca19 96bd
000003a0: 86a3 d2bd 0c70 63bd 281d 77bd d493 5a3d
000003b0: 8c2b 9abd 6690 d5bd 383a f33d 30b4 5e3d
000003c0: 3a9e b9bd 00ff e2bb 76f5 8fbd 4c97 8a3d
000003d0: cc44 99bd 925a b2bd 701c 00bc a27b 89bd
000003e0: 84c2 bdbd 7407 f3bd 50cc b83c 5056 b93c
000003f0: 84c5 083d 58e5 a93c e0e9 12bc d80b f43d
0.09220332 -0.024278894 -0.0018534213 -0.020393312 -0.047510713 -0.064987406 -0.03325881 -0.06916568
0.008983463 0.06382914 0.09501882 -0.0144435465 -0.018703416 -0.012302697 0.106091335 -0.12458067
0.102839515 0.08827485 -0.04065509 0.058161348 -0.101365685 -0.03495966 -0.049445927 -0.008277252
-0.007996246 0.03027916 0.095612705 0.015139431 -0.031986773 -0.023929372 0.057935685 0.029672116
0.010783121 -0.005492896 0.062323764 0.0064214617 0.10305503 -0.025329828 0.10049729 0.09238449
-0.013975278 -0.016998276 -0.05864042 -0.023185447 -0.05931087 -0.073958755 -0.07469924 0.035318688
-0.07277928 -0.019352287 0.101583704 0.016685158 0.12361874 -0.033946767 -0.08805044 0.11210407
0.011901557 -0.118067205 0.044755563 0.08416647 -0.02488847 0.10157752 -0.0021445453 -0.11747594
-0.071690425 -0.00033065677 -0.04107608 0.10342565 0.0070666075 -0.0064961016 0.04249239 0.047123343
-0.020457968 0.12416817 0.116072595 -0.07128288 -0.07730715 0.050482675 0.088415936 0.06563532
0.0064421296 -0.07821287 0.05036299 0.09934077 -0.11376524 0.12445673 -0.121623084 0.06758021
-0.05966738 -0.09026882 -0.010995254 0.032228634 -0.074551865 0.032856286 -0.07734156 -0.08649303
0.09108466 -0.04260756 -0.03614515 0.008426443 -0.03764762 0.010068521 -0.038319796 -0.04229802
-0.040333733 -0.07947646 -0.022009611 -0.11283825 -0.049273983 -0.09507635 -0.024943516 -0.10356285
-0.028178275 -0.02509655 0.053916067 0.09475447 0.05917315 -0.042451784 0.058952197 -0.093985796
0.036750153 -0.037640795 -0.06423536 -0.11999604 0.047201097 0.030627236 0.059518844 0.046501204
-0.05446592 -0.063811466 -0.03807485 0.05266346 -0.020157993 -0.043709666 -0.034558833 -0.03062673
-0.024114013 -0.032072127 -0.05917467 0.07730281 0.02113831 0.05467072 -0.009233147 0.031094223
-0.05162452 -0.017048314 0.10857481 0.07216725 -0.06546314 0.12302911 -0.0985201 0.09964329
-0.050209343 0.072866976 -0.12442663 -0.053651065 -0.010831267 -0.11365855 0.06192158 0.041211158
0.09548023 0.047108263 -0.042433903 0.10431956 -0.08718513 -0.09478927 0.0013688058 0.060768053
0.101254195 0.120806605 -0.021429524 0.1027496 0.02959229 -0.050426185 0.014061525 0.035177782
0.009875864 0.07618582 -0.11131434 0.051435903 0.10192464 -0.064198434 0.025290027 -0.117917046
-0.109715596 0.10627492 -0.02137822 -0.029537544 -0.019540146 -0.009919748 0.11236505 -0.11715506
-0.0712084 0.11230339 0.06664139 0.01183781 -0.038485393 0.022628322 0.013282329 -0.089594945
0.03812453 -0.1214131 0.010948703 0.11527273 -0.117855474 0.12259652 0.114105746 -0.082283616
-0.00971289 0.0887554 -0.11649157 -0.07863751 0.12335797 0.06880312 -0.047229648 -0.028060228
0.04325664 -0.046126887 -0.030385077 -0.124037504 0.007837549 0.11826116 0.059113458 0.10067494
-0.10417579 0.006872967 0.038654894 -0.020987973 -0.022051051 0.058516487 -0.017455846 -0.073291376
-0.10285096 -0.055526778 -0.06033054 0.053363636 -0.07527837 -0.104279324 0.11876339 0.05437106
-0.090633824 -0.006927371 -0.0702924 0.06767139 -0.07483825 -0.08708681 -0.00781928 -0.06713034
-0.092656165 -0.11866656 0.022558361 0.022624165 0.03339149 0.020739242 -0.008966893 0.119163215

lstm.weight_hh_l0 f4 [256, 64]
00000000: 9028 adbc 20cd 343c a8ca 243d 245b b03d
00000010: 3c5d 1ebd 1808 f93d f4f3 58bd 94c2 a43d
00000020: 50ee 153d c231 fcbd dc61 b13d 1483 2b3d
00000030: e0e7 f7bb 821f cbbd 803b 553b 021c 87bd
00000040: 50c7 0b3d a6b5 c13d 7c55 5b3d 2c84 61bd
00000050: c4b6 9c3d 60a0 f13c 1813 d83c f84f c03c
00000060: 68c9 623d d841 e7bd d4ef 96bd 989b d03c
00000070: 680e 8fbd 3011 083c 7049 a0bd 90bd 61bd
00000080: 0001 e93b c00f 783d 3c12 3c3d 8c5c f93d
00000090: c02b 5b3b 1049 2b3d f8b8 cc3d 242f 803d
000000a0: 20a2 eebd e093 123c d41a 80bd 04d3 f2bd
000000b0: 3868 f13c 2c0b d33d 2887 96bd dc85 ea3d
000000c0: b4d1 dc3d c099 b8bc b0d8 34bd 5618 883d
000000d0: b002 76bc a067 69bc b814 4bbd 7c81 f23d
000000e0: 0c81 94bd 58a1 4bbd f81a 08bd 7a63 94bd
000000f0: ac80 7b3d e67b e43d d039 4cbc fe24 8d3d
00000100: 1a72 9bbd e4a1 29bd 7e39 98bd f860 f2bc
00000110: cad3 e6bd 6064 e2bd 7abf 9e3d 34ee fcbd
00000120: e046 973b cc6e 083d e8bb 91bc 1063 45bc
00000130: 4865 bdbd e6db f2bd c0df 183d d88b 363d
00000140: e083 93bc 6a88 81bd 9c37 2b3d 74a0 f53d
00000150: fe0f f2bd 70a0 973d 70b5 443c b0b1 07bd
00000160: 9cc3 e9bd e084 ffbb a4a5 babd 68c1 ae3d
00000170: d06d 00bd 40be 3ebc e0d3 8e3b de2c e03d
00000180: 847b ee3d 8e06 e33d 3066 a7bc 806f 9e3d
00000190: 2e14 86bd 7881 aebd 1c30 ec3d 20b2 30bc
000001a0: 783f dabc b0a6 f9bc 60e1 663c 2274 fc3d
000001b0: c21d ad3d 2e30 a6bd fae1 da3d 18d1 c7bc
000001c0: 400a 5bbd 36a4 ee3d c0b2 413b 36f3 eb3d
000001d0: f83d b4bd 340f 97bd 0aa9 c1bd 8040 08bd
000001e0: 70cf c33c 70e4 8fbd 18d1 a43c 222f ba3d
000001f0: a80a 5a3d 80ea fcbb a89c dc3d c0de 81bc
00000200: 7851 d83d 762e 89bd 6088 d93b 407f c63c
00000210: 583a 603d 8c30 ba3d 3cd3 8bbd b457 993d
00000220: 8463 c7bd f40c 443d aa8e 8abd 503d 73bd
00000230: c8d0 f2bd 3415 fbbd 541d 353d 601a b73b
00000240: 6aff af3d ba42 c6bd d0da 8f3d 84c7 423d
00000250: 1082 df3d e831 6f3d 14ba f9bd 00a2 dfbc
00000260: d49d f2bd e059 fbbb 6ef9 cc3d a86c 013d
00000270: a0a3 cfbb dc3b d63d 80d3 1a3d 704e 32bd
00000280: 54de f63d a00b 343c d06d acbc d0bc efbc
00000290: 5e82 f13d 804d af3a 44e6 48bd f419 31bd
000002a0: 687a cdbd 264e 8d3d fa00 d83d 60f8 d7bc
000002b0: 50d5 79bd ec29 163d ec9a a0bd 6882 8ebc
000002c0: 2027 503c c8e8 723d 00f0 36bd c2b7 883d
000002d0: f00b aabc 4c35 86bd 0076 433c 7085 90bc
000002e0: 60bf d1bc 6025 b6bc f01c 533d 405f 0dbc
000002f0: 74a6 78bd 3c91 80bd 48d0 edbc 8a13 8bbd
00000300: 089a dd3c 70a7 023d 5cfd 09bd 74d7 5b3d
00000310: 00ad 7ebd 9c91 053d 5a73 8fbd d2f3 ec3d
00000320: 4006 853c 583d e2bd 168d ffbd e010 26bd
00000330: 28b4 be3c bcaa 77bd e07c e6bc 9a3d eebd
00000340: 04e6 fd3d 10f8 4fbc 6ea7 84bd 007e 9d3a
00000350: f088 2f3c 487e f93c 3c19 a53d f8d4 be3d
00000360: bedc f6bd d03f 383d 0848 083d 3400 37bd
00000370: 3611 dbbd f2da b73d 5833 ae3d 3298 be3d
00000380: e8b9 cb3c 8238 b0bd e23d ef3d 1c3d f1bd
00000390: e04c a23b 4cfc b5bd 208a 853b e0ac 623c
000003a0: 4063 aabd f6c2 e73d 2cb5 003d 988e 903d
000003b0: 9c12 dfbd b854 4b3d 463d 893d 9289 e7bd
000003c0: b8b6 3abd 004b e03d f8d9 ef3d 1443 45bd
000003d0: 604c 793c 6262 fa3d 165f 983d 7412 e33d
000003e0: 9eac 93bd 0c83 e0bd 6862 95bc e044 45bd
000003f0: bcbd 9cbd a8b1 603d 72ee 913d d2b2 c2bd
-0.021137506 0.011035234 0.04023233 0.08611134 -0.038663134 0.12159747 -0.052967027 0.08044925
0.036604226 -0.12314178 0.08661243 0.041873053 -0.0075654835 -0.09918119 0.0032536685 -0.06597139
0.034125626 0.09458475 0.05354832 -0.05505769 0.07652047 0.029495418 0.026376292 0.023475632
0.055367857 -0.112918556 -0.07369962 0.025464818 -0.0698517 0.008304879 -0.07826507 -0.05511242
0.007110715 0.060561895 0.045915827 0.12175855 0.0033442825 0.041817725 0.099962175 0.06258991
-0.11652017 0.008946389 -0.06255117 -0.11856654 0.02946864 0.10304865 -0.07349998 0.11451313
0.10782185 -0.022534251 -0.04415196 0.06645267 -0.015015289 -0.0142458975 -0.049580306 0.118411034
-0.07251176 -0.049714416 -0.033228844 -0.07245536 0.061402008 0.11156444 -0.012464955 0.06891821
-0.075901225 -0.041414157 -0.07432841 -0.029587254 -0.11270864 -0.11054301 0.07751365 -0.12350121
0.0046166033 0.03330879 -0.017789796 -0.012047544 -0.092478335 -0.118583485 0.03732276 0.04456696
-0.018007219 -0.06324847 0.04180108 0.11993495 -0.118194565 0.07403648 0.012006149 -0.03312844
-0.11414263 -0.0077978224 -0.09113625 0.08532983 -0.031354725 -0.011642039 0.0043587536 0.10946058
0.116446525 0.110852346 -0.020434469 0.07736111 -0.06546818 -0.08520788 0.11532614 -0.010784656
-0.026641592 -0.03047499 0.0140918195 0.12326838 0.084529415 -0.08114658 0.10687633 -0.024391696
-0.053476572 0.116524145 0.0029556006 0.11520998 -0.08800882 -0.07375947 -0.0945607 -0.033264637
0.023902625 -0.07025993 0.020119235 0.09091021 0.05323282 -0.0077183843 0.10772067 -0.015853286
0.10562414 -0.06698315 0.0066385716 0.0242306 0.05474314 0.09091291 -0.06827399 0.07487431
-0.09735778 0.047863916 -0.06765492 -0.059384644 -0.11856228 -0.122599036 0.044217423 0.005587861
0.08593638 -0.09680696 0.07024157 0.047553554 0.10913479 0.058397204 -0.12193695 -0.027298927
-0.118465096 -0.007670626 0.100085124 0.031597763 -0.0063366443 0.10460636 0.03779936 -0.043531835
0.120541245 0.0109891 -0.021048456 -0.029264838 0.11792444 0.0013374537 -0.049047723 -0.04323764
-0.10033113 0.06899671 0.10547061 -0.026363552 -0.060994446 0.036661074 -0.07842049 -0.017396167
0.012704641 0.05930403 -0.044662476 0.06675674 -0.020757645 -0.06553134 0.011929989 -0.017641753
-0.02560395 -0.022234619 0.05154127 -0.008628666 -0.060705617 -0.06277701 -0.02902998 -0.06790836
0.027050987 0.031897962 -0.033688888 0.05367227 -0.062176704 0.032609567 -0.070044234 0.115699425
0.016238332 -0.11046857 -0.12478082 -0.040543437 0.023279265 -0.06046556 -0.028135717 -0.11632843
0.123973876 -0.01269342 -0.06477247 0.00120157 0.010713801 0.030455723 0.08061454 0.09317964
-0.12053822 0.04498273 0.03327182 -0.044677928 -0.10696642 0.089773074 0.08505887 0.09306373
0.02486892 -0.08604528 0.11681725 -0.11779234 0.004953012 -0.088860124 0.0040753037 0.013835162
-0.08319712 0.11316483 0.03142278 0.070584476 -0.10892221 0.04964134 0.0670114 -0.11305536
-0.04558441 0.10951805 0.11711496 -0.048159674 0.015215963 0.12225796 0.07440011 0.11087504
-0.072106585 -0.10962495 -0.0182354 -0.048161387 -0.076533765 0.054856926 0.07125558 -0.095067635

lstm.bias_ih_l0 f4 [256]
00000000: d472 93bd b005 8b3d 506e 7abc 4eaf 983d
00000010: ce7e b7bd d83b 073d aaad 9f3d 1c59 91bd
00000020: 201f 2d3d 002e 59ba 9cc4 763d 4a1c f8bd
00000030: a87d a5bd 1a10 cd3d 4c99 46bd 14f8 913d
00000040: 4659 93bd 7094 b93c 2e3b a53d f0d5 37bd
00000050: 4c09 ffbd f8da 593d c6eb c8bd 94b3 a93d
00000060: 1c89 26bd 4040 eabb 86d9 d33d 16ee e7bd
00000070: 14df ed3d 00f9 6b3c c83b df3c 3a63 c23d
00000080: a0cf 56bd 3231 dd3d 74c4 b93d 0ca6 393d
00000090: e83a a4bd c2ec da3d 4c96 babd a0dc 92bc
000000a0: 84e7 4fbd 5c01 183d e833 abbc 981a e2bd
000000b0: 7a88 efbd a4f0 ce3d d09e ae3d d01a 13bd
000000c0: a88c 2ebd bc68 bd3d 24cb 6bbd 806b e7bb
000000d0: 1cda 17bd b670 a0bd 6047 d4bb 701c afbd
000000e0: 7e34 bfbd 067d 94bd 9296 c63d d862 ca3d
000000f0: fa4a a63d 4e16 e4bd 0044 183a e0d9 7abd
00000100: 3071 7fbc a832 ce3d 242e 033d 6c0b 77bd
00000110: 800d 4ebd 2833 de3d a06b acbb 1ae5 bdbd
00000120: 9857 93bc 880e 5fbd 94b7 2abd 1eb0 8ebd
00000130: 0869 933c 3813 94bd 1aeb 953d 6c70 aebd
00000140: 8ca5 bcbd f40b 27bd 6828 3a3d c8c8 a6bc
00000150: dc0b e2bd 0a06 c5bd 543d 22bd 92f9 f93d
00000160: f48c 133d a450 c9bd c4cf b13d 3eed f3bd
00000170: a6e1 d63d 8e1d ea3d c004 703b 6c55 993d
00000180: 6804 f43d 9686 adbd c0b7 e2bd 50de 4b3d
00000190: d0e7 1dbc 688c 0c3d 4c94 afbd 4cd1 c8bd
000001a0: 443f 1ebd 608a 6c3d 348b 2f3d f4a9 fbbd
000001b0: 7a9a a53d 8857 903d 68d2 e33c ecc1 5c3d
000001c0: b6e5 e33d 6ca6 183d fc47 8bbd b862 9f3d
000001d0: a80f ef3c 98a7 2a3d 886c fc3c 0050 b9bc
000001e0: 58dd 90bc fa38 f8bd c019 763c 1056 70bd
000001f0: 66fe d43d e007 b1bd 64cd dbbd e492 c4bd
00000200: c86a aa3d 64dc 19bd 02c9 89bd 009c dabd
00000210: d6d3 97bd 5032 6abd c043 0dbc fc93 3ebd
00000220: ac3d 14bd 104c 2abc 069b fbbd 4cfd 8b3d
00000230: 0094 e7bc 1000 0e3c 5cfe 663d d019 093d
00000240: d404 d83d 4adc d63d e6d5 83bd b0aa ea3d
00000250: 302a 0f3c 8c52 253d f86b fe3c 483f 7f3d
00000260: c0c8 afbd 364b c7bd fa94 c43d b808 5dbd
00000270: ce41 b33d 1cf2 f83d 1c96 9fbd 28bb 32bd
00000280: 7047 bebd 48ce e8bd fa9f 943d e2ab bb3d
00000290: f046 e5bd 26fe f13d 408a 153d 5c41 bf3d
000002a0: 00f7 783a 6014 993d aa20 dfbd 48dc 58bd
000002b0: eacf e9bd d05a 173d f067 383d 2492 a93d
000002c0: 1eaf 99bd d6c7 cfbd a010 543c 60f4 bfbd
000002d0: dcb3 32bd 301d 85bd 2a2b 97bd f628 cdbd
000002e0: 08db dc3c 7a10 9a3d 2e52 e9bd 041c 21bd
000002f0: 889f ee3c 4882 cabd 702d 783d 10e0 c5bc
00000300: 28e8 b43c dc5d adbd 58c7 a63d c2fb 9c3d
00000310: 5abd bebd 5ec7 cebd e05b b63b e09e a43b
00000320: a818 25bd b6ba 92bd e6ea dabd c03d 3abd
00000330: 1633 ed3d 4879 8a3d 244d d1bd 0483 c3bd
00000340: 18d0 d7bd 500f cb3c 9aff 8f3d 800d 783d
00000350: 44ea 343d 504d 293c 18ba d4bc f06f f3bd
00000360: 96a3 823d 1c86 d23d 8490 343d e249 96bd
00000370: f89e a6bd 4e8f e83d a821 c13c 8604 d7bd
00000380: 2c83 f2bd 507f bbbd d0d4 febc 0edb f73d
00000390: 4072 4bbd 9853 df3c d840 9fbc 34d7 71bd
000003a0: d0cf 1fbc cc66 2cbd 68c7 ffbd 4848 abbd
000003b0: 7adb 9a3d e61f 823d a2a0 88bd aabb 8d3d
000003c0: 00e0 863d f449 26bd cca5 e7bd a867 9b3c
000003d0: 4c85 373d b80d c3bd 667b aa3d f491 21bd
000003e0: 4e45 d13d 964d b6bd c047 54bd 5ae5 99bd
000003f0: dcf0 293d 689b 673d 40b4 933d bc96 a83d
-0.07199636 0.06788194 -0.01528509 0.07455312 -0.08959733 0.033016056 0.07796796 -0.070970744
0.04226601 -0.00082847476 0.060246095 -0.12114771 -0.08080608 0.10012837 -0.04848604 0.07127395
-0.07194762 0.022653788 0.08067928 -0.04488176 -0.12452945 0.05318734 -0.09810595 0.08286205
-0.0406581 -0.0071487725 0.10344224 -0.11324708 0.116148144 0.014402628 0.027250186 0.09491582
-0.0524441 0.10800399 0.090706736 0.04532437 -0.08019048 0.10689689 -0.09110698 -0.017927468
-0.0507579 0.03711067 -0.020898774 -0.110402286 -0.11695953 0.10104492 0.08526385 -0.035914242
-0.04261461 0.09248492 -0.057566777 -0.0070623755 -0.03707324 -0.07833998 -0.006478235 -0.08550346
-0.09336184 -0.07250409 0.09696688 0.09882134 0.081197694 -0.11137067 0.00058084726 -0.061242938
-0.015590951 0.10068256 0.032026425 -0.060313627 -0.050305843 0.10849601 -0.0052618533 -0.09272213
-0.017986104 -0.054457217 -0.04167898 -0.069671854 0.017994419 -0.07230228 0.07320233 -0.085175365
-0.09211263 -0.040782884 0.04544869 -0.020359412 -0.11037418 -0.096202925 -0.03960927 0.12205805
0.036023095 -0.09829834 0.08682206 -0.11910485 0.10492258 0.11431418 0.0036623925 0.07486996
0.11914903 -0.08472936 -0.11070204 0.04977256 -0.009637788 0.03431359 -0.08573207 -0.09805545
-0.038634554 0.057749152 0.042857364 -0.12288275 0.08086105 0.07047945 0.02781029 0.053895876
0.11127798 0.037268087 -0.06800839 0.07782501 0.02918227 0.041663736 0.03081347 -0.022621155
-0.01768367 -0.121202424 0.015020788 -0.058675826 0.10400085 -0.0864408 -0.107325345 -0.0959833
0.08321148 -0.037563697 -0.06727792 -0.10674286 -0.074134514 -0.057176888 -0.00862211 -0.046527848
-0.036191627 -0.010394111 -0.12285428 0.06835422 -0.028268814 0.008667007 0.05639492 0.033471882
0.10547796 0.104912356 -0.06437282 0.11458337 0.008738086 0.040361926 0.031057343 0.06231621
-0.08583212 -0.09731142 0.095987275 -0.053963393 0.087527856 0.12155554 -0.07792303 -0.043635517
-0.09290969 -0.1136747 0.072570756 0.091636434 -0.11195171 0.11816053 0.0365088 0.09338638
0.0009497255 0.07474589 -0.10894902 -0.05294445 -0.114166096 0.03695184 0.045020998 0.08279827
-0.07504104 -0.101455376 0.012943417 -0.09372783 -0.04362856 -0.06499708 -0.0738128 -0.10017578
0.026959911 0.07522674 -0.11392628 -0.03933336 0.029128805 -0.098881304 0.060590208 -0.024154693
0.022083357 -0.08465168 0.081434906 0.076652065 -0.0931346 -0.1009662 0.0055651516 0.005023822
-0.040306717 -0.071645185 -0.106893346 -0.045469046 0.115820095 0.06761414 -0.102197915 -0.095464736
-0.105377376 0.024787575 0.07031174 0.06055975 0.044168726 0.010333374 -0.025967643 -0.11886585
0.06378858 0.102794856 0.044083133 -0.07338311 -0.0813579 0.11355458 0.023575619 -0.1049891
-0.11841425 -0.09155142 -0.031107336 0.12102328 -0.049669504 0.02726154 -0.0194401 -0.059043124
-0.009754136 -0.042090222 -0.124892056 -0.08363396 0.07561393 0.063537404 -0.06671263 0.0692056
0.06585693 -0.04059787 -0.1131092 0.018970326 0.044804856 -0.09524101 0.08324318 -0.039445832
0.10218297 -0.08901517 -0.05182624 -0.075144485 0.041489467 0.05654469 0.07212114 0.08231875

lstm.bias_hh_l0 f4 [256]
00000000: 9aa4 c8bd d81d 91bd 8e05 f53d 80e3 d0bd
00000010: d823 933d 5cc0 543d b04f 8fbd e830 bfbd
00000020: 4266 c93d e239 b43d 7a0c 983d 62e1 ecbd
00000030: acb2 063d fee0 a2bd 525c a93d 16f9 b13d
00000040: b463 853d e291 ddbd 78a8 733d a45a ddbd
00000050: 940c bebd ace1 fa3d 88bc df3d ac9f 28bd
00000060: 06ae da3d f86a 3a3d 2883 b2bd dc9a d6bd
00000070: 1643 b33d 18cf 0a3d b0c8 573d 50e6 913d
00000080: c029 5a3b 0080 ed3c ac24 cbbd d07e 7cbd
00000090: a0db b7bc ca2b f6bd 88dd 8d3d bce1 173d
000000a0: b4b9 26bd 24e7 fe3d 9e94 ca3d 7c53 883d
000000b0: 20b9 cbbd 0c98 563d b2b6 ab3d 8c83 42bd
000000c0: 001e c2ba 02f9 bc3d 00d8 803b 5a85 e13d
000000d0: 6846 aebd 0084 593a 00ba 883b d087 273c
000000e0: 9e20 cb3d a0b7 6b3d 2edf e0bd 005c 7339
000000f0: 4011 74bb 007b ef3c 82c9 8c3d e8f1 8dbc
00000100: 3424 0ebd 0020 7eb8 1097 033d 9803 e03c
00000110: 2810 893c 0457 86bd 82a0 e5bd dc3c c23d
00000120: 105e cf3d e03b b63c 7e46 fcbd b450 923d
00000130: 00ce 293b f2cd b63d da7b f5bd 849a cfbd
00000140: 4438 b0bd 9c1b 493d b065 95bd ecdc e0bd
00000150: b880 9a3c 94ee af3d 6860 ddbd d07f 9dbd
00000160: e205 ac3d 5829 683d 4010 f9bd 7681 c93d
00000170: 4e8f 893d ec6e 1ebd 68ef 983d 9658 ffbd
00000180: ccee 1cbd 501f 06bd 2807 e03c 2817 f0bd
00000190: 3066 76bd 1e23 813d 3084 963c fce6 ab3d
000001a0: dc7e 06bd 2ed8 843d 18ba 043d b47b 483d
000001b0: 4246 8abd 4a80 efbd c04b 973c e646 a73d
000001c0: a047 463c f0a3 73bc c017 6b3c 1c78 f13d
000001d0: f09b 58bd da0f 8ebd 0098 3c3a 58e6 5b3d
000001e0: bef4 d6bd e423 973d 108e f7bd a014 b2bd
000001f0: 087b 7dbd b68a ac3d 0009 84ba 460f 8abd
00000200: ec67 08bd 2656 d33d c8b5 ca3c b4e7 bc3d
00000210: b0fb 1e3d 60d2 563d 6075 35bd de5b cebd
00000220: 46e8 d0bd ae5a 85bd 2820 313d c826 afbc
00000230: c440 3bbd 8080 b03a 92b0 b83d be1c a4bd
00000240: 606c 093d f6ca 89bd 3096 7c3c f8b9 b63d
00000250: a46e 1cbd d628 ffbd 6432 673d 4a8e 9d3d
00000260: d8d5 5abd 0038 c2b8 601f 90bb 6cd2 67bd
00000270: 4a86 b8bd 248e b63d 941c 0d3d 3838 0e3d
00000280: 74ad 32bd 8819 5b3d ca6c a43d ba31 fcbd
00000290: e886 cc3d b2ff d5bd 88b5 093d 704a 873d
000002a0: a6c0 ad3d 1452 a53d 7027 0cbc d438 583d
000002b0: 0858 62bd 14d3 ffbd 0e6c 8cbd 9211 be3d
000002c0: 16f4 8ebd 943a e5bd 1406 3e3d b0a8 b1bc
000002d0: 78d9 be3c 14ef 283d 38df a8bc a648 f2bd
000002e0: 44be 223d 3885 e93d 00e2 f1b9 4427 d83d
000002f0: 52e2 eabd 1038 adbc 705e 36bd f665 e9bd
00000300: d6ea f93d 481f df3d f4bb 1d3d e076 e43d
00000310: f2db f03d 9855 fd3d d047 3bbd 58da d8bc
00000320: 86d3 d03d 181e debd 1c30 91bd 1689 e43d
00000330: 12bb a0bd 10d9 58bd e071 bf3c b8a9 e7bc
00000340: e0f8 d73c f8fa 033d 9c6f e9bd c025 59bc
00000350: 2009 94bd 204f d4bc 80d1 3d3c 6887 f13d
00000360: de1f 89bd 9435 69bd ae54 fbbd e4ff a63d
00000370: 1c96 6d3d 287c 1fbd 080e a6bd 18ee cd3d
00000380: 986c fabd fcf9 45bd 3888 99bd 4094 1b3c
00000390: 4a53 87bd c8f7 bebd 5c12 9bbd a887 a1bd
000003a0: 0e6f cd3d 7076 853d 46e8 a8bd f015 013c
000003b0: e0d1 5e3c d0e0 fbbd b419 43bd f02a 35bd
000003c0: 46c7 d7bd e8b5 f3bd a81c 94bd 2e41 8fbd
000003d0: 22e1 d9bd 7c4f 673d 721e b2bd c8c5 be3d
000003e0: 5a31 c63d 5cd0 e73d 24ad 3b3d daef f33d
000003f0: de12 bc3d 602f e5bb be4e ffbd 0cac f8bd
-0.0979702 -0.0708577 0.1196395 -0.10199642 0.07184571 0.05194126 -0.06997621 -0.093355
0.09833957 0.08800103 0.07424255 -0.11566426 0.03288524 -0.0795307 0.08269562 0.086900875
0.065131575 -0.108188406 0.059486836 -0.10808304 -0.09279743 0.12250075 0.10924631 -0.0411679
0.106777236 0.04551217 -0.08716422 -0.10478756 0.0875303 0.033888906 0.052681625 0.07124007
0.0033289045 0.0289917 -0.09919104 -0.061644375 -0.022443593 -0.12020071 0.06927019 0.03708051
-0.040704444 0.1244643 0.09891628 0.066565484 -0.09947419 0.052391097 0.08384456 -0.047488734
-0.0014809966 0.09227182 0.003931999 0.11011763 -0.08509523 0.00082975626 0.0041725636 0.010225251
0.099183306 0.057548165 -0.10980068 0.00023208559 -0.0037241727 0.029233456 0.06874372 -0.017327264
-0.034702495 -6.058812e-05 0.032126486 0.027345464 0.016731337 -0.06559566 -0.11212255 0.09484264
0.10125363 0.022245347 -0.12318133 0.07144299 0.002591014 0.08926 -0.119865134 -0.101368934
-0.08604482 0.049098596 -0.07294786 -0.109796375 0.018860206 0.08590427 -0.10809404 -0.07690394
0.083995596 0.056680053 -0.121613026 0.09839146 0.06716786 -0.038680002 0.07467538 -0.12468068
-0.038313672 -0.032744706 0.027347162 -0.11723167 -0.060156047 0.06305526 0.018373579 0.08393666
-0.032835826 0.064865455 0.032404035 0.048946097 -0.06751682 -0.11694391 0.018468738 0.0816782
0.012102038 -0.014870629 0.014348924 0.11790487 -0.05288309 -0.06936617 0.00071942806 0.05368647
-0.104958996 0.073798925 -0.12087643 -0.0869534 -0.06188491 0.084248945 -0.0010073483 -0.067411944
-0.033302233 0.10319166 0.024744883 0.09223881 0.038814247 0.052446723 -0.04430139 -0.10076116
-0.10200553 -0.065114364 0.043243557 -0.021380797 -0.045716062 0.001346603 0.09018053 -0.08013295
0.03355062 -0.06728165 0.015416667 0.089221895 -0.038191453 -0.12458961 0.05644454 0.07693155
-0.053426594 -9.261072e-05 -0.0043982714 -0.05659716 -0.090099886 0.0891383 0.034451082 0.034721583
-0.04362245 0.053491145 0.08028562 -0.12314172 0.09986669 -0.10449161 0.033620387 0.06605995
0.084840104 0.08072296 -0.0085543245 0.05278857 -0.055259734 -0.12491432 -0.06856547 0.09280695
-0.069801494 -0.111928135 0.046392515 -0.021686882 0.023297057 0.041243628 -0.020614251 -0.11830263
0.039732233 0.114023626 -0.00046135485 0.10554364 -0.114689484 -0.021144897 -0.044523656 -0.11396401
0.122029945 0.10894638 0.038509324 0.11155486 0.11760701 0.12369841 -0.045722783 -0.026471302
0.10196595 -0.10845584 -0.07089254 0.111589596 -0.07848181 -0.052941382 0.02336973 -0.02827917
0.02636379 0.032221764 -0.11398241 -0.013253629 -0.07228303 -0.025916636 0.011585593 0.11793405
-0.06695531 -0.05693586 -0.12272011 0.08154276 0.058004484 -0.038936764 -0.08108145 0.100551784
-0.12227744 -0.048334107 -0.07496685 0.009495795 -0.06607683 -0.09324604 -0.07571861 -0.078872025
0.100309476 0.06516731 -0.08247428 0.007878765 0.013599843 -0.12298739 -0.047631934 -0.0442304
-0.10536055 -0.1189993 -0.07232028 -0.06994854 -0.10638644 0.056472287 -0.08697213 0.093150675
0.09677382 0.11319038 0.045819417 0.119109824 0.09183286 -0.006994173 -0.12466191 -0.1214219

lstm.weight_ih_l1 f4 [256, 64]
00000000: de39 43bd 401f f23b c0e0 2abd 54ab cdbd
00000010: f2d0 a33d 4c6e 0ebd 80d3 ab3a 37e2 6b3c
00000020: 50d5 143c e4b8 a1bd 3e20 bf3d 0cfe 263d
00000030: 9c9b 3cbd 50bd 7fbd 1073 d0bd bd5e 083e
00000040: 82d3 e73d 7830 113e ca69 963d 34da a53d
00000050: 829e a4bd 602e 633d 04a7 1a3d a80f 863c
00000060: 0afd 9fbd 60bd e83b 2e1e d63d c011 f3bb
00000070: 78aa d7bc 5618 06bd 84b1 b2bd 7720 67bd
00000080: 6c08 e83d 0ca0 bbbd 0354 a83d 7044 1dbc
00000090: 304f b7bc fcb3 cf3d c42a 89bd d85a d5bc
000000a0: ccec ae3d a809 f33c deab bdbd f8e6 8abc
000000b0: e41a 44bd 68c3 0f3d 3c37 2abd a21f c43d
000000c0: 60fe a23c 5af2 e03d 5076 0fbc 28b5 e1bc
000000d0: 3431 1abd ecd3 5f3d b69d e83d 8007 ba3b
000000e0: 42b9 cebd 5e98 ce3d 5d4e 3ebd 0212 583d
000000f0: dbf7 493d 98d6 f0bc f87a 27bd 2771 f5bd
00000100: 3b58 7bbd 3642 fd3d 0089 833d c4b6 123d
00000110: b0c0 de3d e8fa 1c3d 1449 3d3d 5847 d13d
00000120: f6ff d23d 51d1 0dbe 20f6 9b3d 9c6f 45bd
00000130: eed6 acbd 9e05 c93d 1cb2 613d 6093 62bb
00000140: 8687 d1bd d956 80bd 64ec 653d 944a 32bd
00000150: 7ba8 9e3d f84b 5e3d 781a 5c3d 5468 8a3d
00000160: 9b4b 6fbd a0a3 f2bc d8bf fa3c e045 8fbb
00000170: 9ea6 c73d d704 533d 404b 103b ccae 59bd
00000180: a035 f9bb bc37 c1bd d127 113e 2095 f9bc
00000190: c8f9 e9bd 88a7 1dbd 6cbc 8d3d e4fa dfbd
000001a0: 0645 d33d a011 c8bb 18c6 e7bd e82c 42bd
000001b0: 8872 063d e40e 153d 10be 9e3d 50cb 413c
000001c0: 3a0a 9c3d 4c7b c1bd 2e24 f63d 8268 8cbd
000001d0: bef6 d2bd ecdd 053d 58a0 213d e4db 0abd
000001e0: a006 e53c 9c20 ea3d ffd3 8f3d ece9 dc3c
000001f0: 8f34 5abd 104b 123d bed1 b3bd ddc6 383c
00000200: a6c3 06bc e015 003c 8c7d 5a3d 160d cabd
00000210: 6844 a8bd 60af 603c c696 f2bd eab7 033e
00000220: e04a e9bd 1520 a3bd c2ca ebbd 44f3 5cbd
00000230: 3ce4 19bd 788a 7ebd 2281 943d 5843 7f3d
00000240: 685e a1bd 3281 a2bc 006b e4bd 5414 4bbd
00000250: 7d48 d8bd a6dc a53d 266b 80bd 00ac 693a
00000260: 53af 03be 1c67 18bd f88c 2dbd 8cf7 f6bd
00000270: 8aa8 8e3d 67d0 59bc 92c6 e0bd 28b2 1abd
00000280: e88e 963c e6a1 c7bd c062 a33b a69d 8abd
00000290: a0dc 1b3d d816 e03d 4af9 2d3d 1c41 48bd
000002a0: b45f 69bd 289c b43c f8d3 e9bd 8edc 93bd
000002b0: d8e3 ecbc 509f 9dbc b0b6 e6bc b83b b7bd
000002c0: ec47 2b3d 7824 af3d b834 f13d 043d 23bd
000002d0: 682c 97bd 6884 e9bd 8020 d73b 42d8 bc3d
000002e0: 3461 77bd 82ca e43d fa89 153d faa3 6dbd
000002f0: 2c77 e73d 4015 203c 6e52 c53d 6b28 84bd
00000300: 0db9 64bd 385f 3ebd 70f2 d33d 8006 803b
00000310: 14e2 0bbd d41d a43d 00bd 123a b596 eb3d
00000320: b42e 553d da21 6b3d dbe2 883b 6407 d9bd
00000330: 484c c73d e212 b8bd 10c3 be3d 9243 813d
00000340: ee50 cc3d 12f2 9cbd 3aa4 80bd 4214 b43d
00000350: 82b3 1f3d 80f5 b4bd 847f 0b3d e4c3 6d3d
00000360: efe6 3ebb d8f4 c13c b0ff 2a3c 0ef8 f4bd
00000370: 346f 4abd 5d75 f63c f468 5dbd 846e a8bc
00000380: ea20 bb3d 7458 f7bd 85a5 8abd aa66 d6bd
00000390: 5ee0 933d 44fb 68bd 1d94 79bb 2270 98bd
000003a0: 5064 7f3d 5020 fcbd 2cae 40bd 78cd 67bd
000003b0: bc38 da3d b046 6f3d f438 a1bd a47a a3bd
000003c0: 86a9 c33d 68c0 fcbd be1e 823d c8e9 e03d
000003d0: d0c7 fb3d f0a4 d9bc a49f 49bd 2eca dcbd
000003e0: be96 c43d 0ccb d1bd 350a 953d bd3c 6d3d
000003f0: 9ba9 b7bd 8008 d33a 689a df3c 5b8a 01be
-0.04766261 0.007388979 -0.041718245 -0.10042444 0.079988375 -0.034773156 0.0013109297 0.014397196
0.009084061 -0.07896593 0.093323216 0.04076962 -0.04604684 -0.0624364 -0.101781964 0.1331739
0.11319639 0.14178646 0.073443964 0.080982596 -0.080380455 0.05546415 0.037756935 0.016364887
-0.07811935 0.0071026534 0.10454975 -0.0074178874 -0.026326403 -0.032738052 -0.08725265 -0.056427445
0.11329731 -0.09161386 0.08219149 -0.009598836 -0.022376627 0.10141751 -0.0669761 -0.026044294
0.08541259 0.02966769 -0.09261297 -0.016955838 -0.047877207 0.035098463 -0.04155658 0.09576346
0.019896686 0.10983725 -0.008756235 -0.027552202 -0.03764458 0.054645464 0.11358206 0.0056771636
-0.10093929 0.100876555 -0.04646145 0.05275155 0.04930864 -0.029399201 -0.040888757 -0.11984473
-0.06136344 0.12366144 0.06422615 0.03581883 0.10876596 0.03832522 0.04621227 0.10218686
0.10302727 -0.13849379 0.07615304 -0.048202142 -0.08439432 0.098155245 0.0551015 -0.0034572706
-0.10230927 -0.06266565 0.056133643 -0.043528154 0.07746979 0.05427167 0.05373618 0.0675818
-0.058421712 -0.029619038 0.030609056 -0.0043723434 0.097485766 0.051518288 0.0022017509 -0.053145215
-0.0076052696 -0.094344586 0.14175345 -0.030466616 -0.11424595 -0.03848985 0.06920704 -0.109365255
0.103158996 -0.0061056167 -0.1131708 -0.047406107 0.03282407 0.036391154 0.07751095 0.011828259
0.07619138 -0.09447345 0.120186195 -0.06855871 -0.103009686 0.032682344 0.039459556 -0.03390111
0.02795726 0.11432001 0.07022857 0.026967011 -0.05327278 0.035716116 -0.087802395 0.011277881
-0.008225357 0.007817715 0.053342387 -0.09865777 -0.082161725 0.013713688 -0.11845164 0.12863126
-0.113912344 -0.079651035 -0.11513282 -0.053942934 -0.037571177 -0.062143773 0.07251193 0.062320083
-0.07879335 -0.019836996 -0.11153221 -0.049579933 -0.10560701 0.08098726 -0.06270437 0.00089138746
-0.1285985 -0.037207708 -0.042370766 -0.120589346 0.0696574 -0.013294316 -0.10975374 -0.03776756
0.01837869 -0.097476766 0.004986137 -0.0676835 0.0380522 0.10941857 0.04247407 -0.04889022
-0.056976035 0.022047117 -0.11417383 -0.07219802 -0.028917238 -0.019241005 -0.028163284 -0.08946937
0.041816637 0.08551878 0.117776334 -0.03985311 -0.07381517 -0.114022076 0.0065651536 0.092209354
-0.060395434 0.11171438 0.036508538 -0.05801771 0.11302027 0.009770691 0.09634863 -0.064530216
-0.05584054 -0.046477526 0.10348976 0.003907025 -0.03415115 0.08013502 0.0005597621 0.115033545
0.052046493 0.05740533 0.004177434 -0.10597113 0.09731346 -0.089879766 0.09314549 0.06311716
0.099763736 -0.07663359 -0.06281324 0.08792926 0.03898955 -0.08835888 0.034057155 0.058048144
-0.0029129346 0.02367632 0.010436937 -0.11961375 -0.049422458 0.03008526 -0.05405517 -0.02056051
0.09137137 -0.12077418 -0.067698516 -0.104688 0.07220529 -0.05688025 -0.0038082667 -0.07443263
0.062351525 -0.123108506 -0.047041103 -0.056592435 0.106553525 0.058417022 -0.07872191 -0.07982376
0.095538184 -0.12341386 0.0635352 0.1098209 0.122939706 -0.026567906 -0.04922451 -0.1078075
0.09599064 -0.10243806 0.072773375 0.057919253 -0.089678966 0.0016100556 0.027295306 -0.12650435

lstm.weight_hh_l1 f4 [256, 64]
00000000: 4bcd 7cbd ba6d 0dbe 27fe 96bd ff78 c6bc
00000010: f2bd b7bd e0b7 4f3d 9813 8abc ac8b 9e3d
00000020: a756 ccbd 5050 9ebd 4ce4 06bd 5125 8abc
00000030: c108 09be 41d1 cabd d0f2 a8bd 0dfb a83d
00000040: 73ea c23d 9ecd 413d d53f a0bd 0437 283c
00000050: 88ee ecbc 52cc debc 846b 4bbd b47f b73d
00000060: b8bf 543d d517 183d 87ff f83c b853 c4bd
00000070: d4ed 833d 042f d13d 356d c03c 8e94 243d
00000080: 8dbe 533d f317 44bd 8903 16be 48c5 983d
00000090: 655c ce3d c9a9 793d 4561 ecbd 3e3a bebc
000000a0: f76a 6cbd 36fd 0fbc ab33 b73c 4e20 2abd
000000b0: 2f95 c93d 57e2 b63d 4f2f a4bd e98b ac3d
000000c0: 2de1 de3c ff55 53bd 5f74 b83d e0e0 a63d
000000d0: 7e35 e33d 4b97 ad3d d919 d3bd f7f2 053e
000000e0: 47bf 073d ade7 93bd f2de 81bd 67fe cbbd
000000f0: 327a aabb 9096 f43c f668 813d 6b23 813d
00000100: 611a cebd e94b e5bc bf0f 463c a0ce 933b
00000110: 732a cabd cc03 bbbd 4b51 e33d 9214 80bd
00000120: 771d 403d 89e2 e4bd 7ba5 ba3c 5681 cfbd
00000130: 1152 ea3c c3b8 5e3d b8cc a2bd 7ffe fa3d
00000140: b03c d9bd e6c0 8b3d d752 793c fa64 4cbc
00000150: 4a75 96bc 1c5d a83d d19c 01bc 2a74 5cbd
00000160: 7974 843d 0796 d4bd 9578 d63d 16f0 cd3c
00000170: 8fd2 833d b5a1 d6bd d90d a23d 752a 183d
00000180: 403e 79bd 6da3 ad3c 79b6 413c b5ef 04be
00000190: 5f9e 8bbd b806 12be ccc9 f03b cc08 13be
000001a0: 22c8 8bbd 687f 93bd de40 19be 59ae df3d
000001b0: 3eb9 a0bd 0dad fabd 1f6c 0bbc 23bb 3a3d
000001c0: 42b5 e2bd dc9f 39bd 2321 adbd 01a3 553d
000001d0: 747e c83c fca9 52bd ce8c b73d 9347 c23d
000001e0: 33d2 ae3d debb 873d 19ba c93d dc78 82bc
000001f0: a492 d7bc 584e 033d a8af 72bd a8af c23a
00000200: 9ba4 a03d 6fb6 233c 0819 b23d 17c8 fd3d
00000210: f376 dfbd 3c4f 34bd 9734 8f3d a62f 063e
00000220: 21dc 57bd 301c 9cbd fccb e0bb e75e cc3d
00000230: 3e9b 4a3d 7a93 a53d b6a8 e7bd 8f5c e2bc
00000240: 6a86 763d 4541 9ebd cb10 7c3d 73da 59bd
00000250: dc6b 71bd e5c1 803d a619 393d 169a ddbd
00000260: fe31 c1bd 28c1 9b3d 3b64 4dbd 87ce 863d
00000270: 69db f93d d89e 0f3d 27c7 0c3d 53fa adbc
00000280: cd86 c43d 6457 c6bd 9e1d 66bc 1a35 b33c
00000290: 8ee5 58bd 52e0 b63d 616a 9c3c f31c a3bb
000002a0: 8361 a13d ea43 f73d 8b15 9abd 613b ba3d
000002b0: b1e8 93bc c4b4 47bc b83d b53d b163 b33d
000002c0: c5e2 61bd ca3c 173e 27b2 123e b245 7c3d
000002d0: 596e c9bd c3f6 7b3d 2c2a 08be 3e9d 2e3d
000002e0: f04b a8bd b36b c5bd c13c 013d 4a06 91bd
000002f0: 82ef 9d3a ed0f 143d ca3b 03bd e9d6 a4bc
00000300: 9000 d13d 0e34 a33c a3b3 1b3c 5277 0f3c
00000310: f74f 923c 4367 723d 34fa 2fbd 4554 833d
00000320: c6fc 9b3d 988b 2ebd d4a7 e13d c60a b339
00000330: 6363 08be e1f7 97bd d6b1 053d 8faa aebd
00000340: 0160 7f3d 369c b33b a11e 01bd f898 e8bd
00000350: 4bc2 e7bd 3c4c 9bbc ff42 983d 2f31 d03d
00000360: 1678 81bd 94af bb3c 7cdf fc3d c92e 0ebe
00000370: 28ac b8bc b438 8cbd b544 08bd 8334 063e
00000380: 524e 7cbd 118b d13d c585 dbbd 036b 0abe
00000390: def4 55bd 4888 bebd 8aea f9bc 726c c03d
000003a0: 558a 903b 1d37 9ebd 2dc2 70bd d2d7 883d
000003b0: 9f54 183d 701a 00bb e04d c43c 745d 5f3c
000003c0: 40a1 353d faf0 e23d 7b49 29bb 7ab9 1fbd
000003d0: 4b38 013e 3730 30bd c2f2 9e3d cbdd 19bc
000003e0: fdc2 37bd e8df 0e3e 1f4b c7bd 87cd 9f3d
000003f0: 047c 27bd ccbb dbbc 3d75 93bb c5a2 7cbd
-0.06171922 -0.13811389 -0.073726945 -0.024227617 -0.08971776 0.050712466 -0.016855046 0.07741484
-0.09977465 -0.07730162 -0.032932565 -0.016863497 -0.13382246 -0.09903193 -0.08249438 0.08251009
0.09517374 0.047315232 -0.07824675 0.010267023 -0.028922334 -0.027197037 -0.04966308 0.08959904
0.05194065 0.037132103 0.030395282 -0.095862806 0.064418465 0.10214046 0.023489574 0.040180735
0.051695395 -0.047874402 -0.14649786 0.074595034 0.100762166 0.060952935 -0.1154199 -0.023221131
-0.057719197 -0.008788398 0.022363504 -0.041534714 0.09842908 0.0892989 -0.08016836 0.08425123
0.027206982 -0.051595684 0.09006571 0.0814836 0.11094187 0.084761225 -0.103076644 0.13080965
0.0331414 -0.07221923 -0.063413516 -0.09960633 -0.005202555 0.02985695 0.06318848 0.063055836
-0.10063625 -0.027990298 0.012088715 0.0045107156 -0.09871378 -0.091315836 0.1109949 -0.062539235
0.0469031 -0.11176021 0.022783985 -0.10132091 0.028603585 0.05437542 -0.07949203 0.122555725
-0.10607278 0.06823902 0.015217504 -0.012475247 -0.018366475 0.08220884 -0.007910923 -0.05382172
0.06467528 -0.10380178 0.10472218 0.025138896 0.06436645 -0.10480062 0.079127975 0.037149865
-0.06085038 0.021196092 0.01182329 -0.12982066 -0.06817316 -0.14260375 0.007348275 -0.14358824
-0.06825282 -0.07202035 -0.14966151 0.10921926 -0.07847832 -0.12240038 -0.008509665 0.045588624
-0.110697284 -0.04531847 -0.08453586 0.052157406 0.02447436 -0.05143164 0.08962403 0.09486308
0.08536186 0.0662763 0.098499484 -0.01592677 -0.02631504 0.032057136 -0.05924955 0.0014853375
0.07843896 0.009992226 0.086961806 0.1239168 -0.1091136 -0.044020876 0.069924526 0.13104114
-0.052700166 -0.07622564 -0.0068602543 0.09979039 0.049464457 0.080847695 -0.11311476 -0.027632026
0.06018678 -0.07727293 0.061539453 -0.053186845 -0.058940753 0.062869824 0.045190476 -0.10820405
-0.094333634 0.07605201 -0.050144415 0.06582361 0.12200052 0.035063595 0.034369614 -0.021237528
0.09596024 -0.09684637 -0.014045147 0.021875907 -0.052953295 0.089295045 0.019093694 -0.0049778163
0.07879927 0.120735005 -0.0752364 0.09093357 -0.018055292 -0.012189094 0.088496625 0.08759249
-0.055147905 0.14769283 0.14325772 0.061589904 -0.098355 0.061514627 -0.13297337 0.042630427
-0.08217609 -0.096396826 0.03155208 -0.07081278 0.0012049528 0.036148 -0.03203944 -0.020122008
0.102051854 0.019922283 0.009503278 0.0087564755 0.017860396 0.05918051 -0.04296322 0.064125575
0.07616572 -0.042613596 0.11018339 0.00034149567 -0.13319163 -0.07420326 0.0326403 -0.08528625
0.062347416 0.0054812683 -0.03152335 -0.113573015 -0.11316355 -0.01895725 0.074346535 0.10165631
-0.06321733 0.02291087 0.12347314 -0.13885035 -0.022543028 -0.06846753 -0.03326865 0.13105969
-0.06159813 0.10231603 -0.10718874 -0.13517384 -0.052235477 -0.09303337 -0.030507345 0.09395684
0.0044110217 -0.07725356 -0.05877893 0.066817895 0.037190076 -0.0019547008 0.023962915 0.013633121
0.044343233 0.11081119 -0.0025831151 -0.038995244 0.1261913 -0.04301473 0.07761146 -0.0093912585
-0.04486369 0.13952601 -0.09731125 0.07802873 -0.040889755 -0.026822947 -0.00450006 -0.061678667

lstm.bias_ih_l1 f4 [256]
00000000: f854 e0bc e47b ae3d 5167 0bbd 847e 83bd
00000010: 4148 18ba 9918 ba3d 2c81 0abd 8386 9e3d
00000020: 0948 c0bd 7f8d bebd cf21 76bd 2752 79bd
00000030: c98c d3bd f789 b23d c3e6 373d 0d26 8d3d
00000040: c1cf 53bc 5d9b c53d 459f 103c 834b 14bd
00000050: 982c fa3d fcfa d3bc 3cc0 fabc 5f4b e93d
00000060: 6362 20bb 13cd 9cbc 6fda 9c3c 7d63 b03d
00000070: 7ecc cfbd ad48 b93c d95b 91bd 88d5 343a
00000080: 757d 88bd b368 73bc b2cb a63d ca7f 97bd
00000090: 4219 80bd 36c6 f23d 6391 983d f7b1 7a3b
000000a0: f9e7 0b3e 5c9b c3bd 839f 3fbd ad3d c23d
000000b0: f876 863d 63e3 d33d 65fb 12bd 50aa 3cbc
000000c0: a10b b13b f6e8 38bd 0b40 a83c 8827 b1bd
000000d0: 4109 cc3d 0671 543d 0a58 103e 11d5 8dbd
000000e0: 78c9 323d 1754 053d b754 c23d 66c0 8d3d
000000f0: c3a9 673d cf6e c13d b459 8d3b a364 ef3d
00000100: 6912 0e3e d397 68bd 6a8f 3cbd d68d 493d
00000110: 3656 1dbd 612e 1d3d 8793 4bbb 06b2 f53c
00000120: 2a72 893d 6458 a33d 0b53 b33c 37f2 a33d
00000130: 4e56 223c 7d02 b5bd b2d4 073e 10cd 113c
00000140: c2a9 8ebd c5da 0bbd 168f a5bd 2a8a 853b
00000150: aad9 073e b8ea df3c 5b53 0c3e 5d6d a7bd
00000160: 7fd3 a3bc a4be 083d 8cd6 75ba 8d13 8e3a
00000170: 6c06 c0bc 8fed c9bb fa92 3dbd dd61 c9bd
00000180: f0c9 353d 4a24 8ebd fce9 fd3c 4b82 61bd
00000190: 10ef a5bd 0513 cabd 3b61 b63a 471a be3d
000001a0: 201c c5bc a7ac e6bc 28ec d83c d59c a23d
000001b0: 78c7 e33d 1405 fe3d 78ab b8bd ac84 6dbd
000001c0: 10ce a3bd 95a2 d53c 19bd fb3d 303f b7bd
000001d0: 5e88 19bc 3e24 aa3d 3230 bb3c 38a5 1b3c
000001e0: 2da0 d2bc f043 b73c 926d b53d 063e f8bc
000001f0: 3394 f53d 025c 9cbd 904c 38bc aa74 513c
00000200: 7b9d a83d 737b dfbd 245b 723b 979a de3d
00000210: fc08 00be d315 7a3c 3838 963d c2da fe3c
00000220: 43cb 39bd dd56 693c d8dd 073e 5117 e13d
00000230: 8a69 a0bd 72c8 963d ad1f 1f3d befb 5d3d
00000240: ff2c b5bb f786 e5bd b814 c6bd ecc2 7f3d
00000250: b4e3 a2bd 488b bf3d e2f2 ef3d f193 d23d
00000260: d921 d03c 2c5e 993d a07f e23d 5a2e 03ba
00000270: f526 99bd bf67 4d3d 6cef a8bd 56ec 063c
00000280: 8c45 a4bd d740 00bd 778d 3c3c ce30 78bc
00000290: dd00 f53d d12c 5a3d 1b36 b63d bf61 a1bd
000002a0: 7f98 0dbd 07fb c33c b6ea df3c 2407 d2bc
000002b0: 4fbe a33d e5d7 c03b e956 8f3a f3e6 e3bd
000002c0: ede8 b93d f840 fb3d dce1 0c3e 8cab a6bd
000002d0: 53d8 bdbd dc00 f1bd ff82 bbbd 740f a9bd
000002e0: 9288 97bd 1836 e63c f8e0 b63c 2092 9e3c
000002f0: 2e81 fe3d 987a ecbc 0a03 433d ab97 12bd
00000300: 4292 893c b2a1 f43d 8b16 743d 026f 69bd
00000310: 15aa b23d 69eb a13d 7c77 29bc aaba 2b3d
00000320: 8efb 01bd 7d80 003e f528 df3d ac71 0e3e
00000330: 4838 ef3d 0b04 a73d 0031 67bd f0c2 323c
00000340: 2bf0 543d baa2 963d eeb9 0d3e 9c16 c4bc
00000350: b616 353d 182d 003e 2233 9abd 59e9 9bbc
00000360: a220 563d 7572 723a a44d fe3d f1a4 b0bd
00000370: 6586 6abd 76d6 4fbd 6a91 113e 5340 e13d
00000380: 3528 a83d 58f8 d23a a3ee 7abd 4653 d83d
00000390: a16e 01bd 7e00 21bd b4f5 27bd 90b4 a53d
000003a0: a8bd 693d d488 b73c 0769 7c3c fb5e ccbc
000003b0: 5d57 c2bd 176d bc3d 448e 8d3d f59b afbb
000003c0: 9633 8bbd d232 273d aa0d f33d 2344 26bc
000003d0: fe52 a8bd aee1 95bd d8f2 003e 029c 90bd
000003e0: b9e1 183e b71e fe3d 801d 0c3e d71d f7bc
000003f0: fa77 283c d897 f63d 13d1 db3d 0eff 7cbd
-0.027384266 0.08519724 -0.034034077 -0.06420615 -0.00058091065 0.09086723 -0.033814594 0.077405
-0.093887396 -0.09304332 -0.060090836 -0.060869362 -0.10329587 0.08717721 0.044897806 0.06892023
-0.01292795 0.09648774 0.008827035 -0.036204826 0.12215537 -0.025876515 -0.030609243 0.11391329
-0.0024472706 -0.019140756 0.019147126 0.08612726 -0.10146426 0.022617662 -0.07097597 0.0006898274
-0.06664554 -0.014856505 0.081443205 -0.07397421 -0.062548175 0.11854212 0.07449605 0.0038253048
0.1366271 -0.09551117 -0.04678298 0.0948442 0.0656566 0.10346105 -0.03588428 -0.011515215
0.0054029976 -0.045144044 0.02053835 -0.08650118 0.099627025 0.0518656 0.14096084 -0.06925405
0.043649167 0.032550897 0.09488814 0.06921463 0.05655838 0.09444963 0.004313672 0.11689117
0.1387421 -0.056785416 -0.046035208 0.04920753 -0.038412295 0.03837431 -0.0031063275 0.029992115
0.06711228 0.079758435 0.021890184 0.08005183 0.009908272 -0.08838365 0.1326473 0.008898988
-0.069659725 -0.03414418 -0.08083932 0.0040753083 0.13266626 0.027333602 0.13703673 -0.08175156
-0.01999831 0.033384934 -0.0009377978 0.0010839567 -0.023440562 -0.0061623524 -0.046282746 -0.09833119
0.044382036 -0.06940515 0.030995362 -0.055055898 -0.08102238 -0.09866909 0.0013914475 0.09282356
-0.024061263 -0.028158499 0.026479796 0.079400696 0.1112203 0.12403312 -0.0901708 -0.057987854
-0.07998288 0.026078502 0.12291927 -0.08947599 -0.009370891 0.08307694 0.02285013 0.00949984
-0.025711143 0.022371262 0.088587895 -0.030303013 0.119911574 -0.076347366 -0.011248723 0.012784163
0.08233162 -0.10912218 0.0036980594 0.108693294 -0.12503427 0.015263992 0.073349416 0.031110171
-0.04535986 0.014241901 0.1326822 0.109907754 -0.0783263 0.07362451 0.038848568 0.05419516
-0.0055290456 -0.11207383 -0.096719205 0.06244175 -0.07953587 0.09352738 0.11716248 0.10282124
0.025406765 0.07488665 0.11059499 -0.00050041603 -0.074781336 0.050147768 -0.08248791 0.008235058
-0.080210775 -0.031311836 0.011508337 -0.015148355 0.11963055 0.053265397 0.088970385 -0.07879972
-0.03456926 0.02392341 0.027333599 -0.02563817 0.07995283 0.0058851116 0.0010935935 -0.111280344
0.0907763 0.12268251 0.13758034 -0.08138189 -0.09269776 -0.11767742 -0.09155845 -0.082549006
-0.073990956 0.028101966 0.02232407 0.019356787 0.12426983 -0.028867051 0.04761032 -0.035789173
0.016793374 0.119449034 0.05959181 -0.05699063 0.08723847 0.07906229 -0.010343429 0.041926064
-0.031734042 0.12549014 0.10896484 0.1391055 0.11680657 0.08155068 -0.056443214 0.0109107345
0.051986855 0.073552564 0.13840458 -0.023936562 0.044211112 0.12517202 -0.07529284 -0.019032167
0.052277215 0.0009248623 0.124171525 -0.0862521 -0.057257075 -0.050741635 0.14215627 0.10998597
0.08210794 0.0016095741 -0.061262738 0.10562758 -0.031599645 -0.03930711 -0.041005805 0.0809108
0.057065636 0.022404112 0.0154059 -0.024947634 -0.094893195 0.09200495 0.06911901 -0.0053591677
-0.067969486 0.04081995 0.118678406 -0.010148081 -0.082189545 -0.073184356 0.12592638 -0.07061006
0.14929856 0.12408202 0.13683128 -0.030165596 0.010282511 0.12040681 0.10733237 -0.061766677
