models/SUIUSDT_lstm_20250822_020528.pth (torch, 267815 bytes, 11 tensors)

lstm.weight_ih_l0 f4 [256, 53]
0	0xbdee8eaa	-0.11648305
1	0xbbdd9400	-0.0067620277
2	0xbd0b1aa4	-0.033960953
3	0xbd024eb4	-0.03181334
4	0x3d9651e8	0.07339841
5	0xb8de2000	-0.000105917454
6	0xbc0cda50	-0.008596972
7	0xbddd9594	-0.108195454
8	0xbdf0f92c	-0.11766276
9	0x3cb16be0	0.021657884
10	0xbd803d1a	-0.06261654
11	0x3db3dd86	0.087824866
12	0x3d3bdf28	0.045867115
13	0xbcbd6570	-0.023119658
14	0x3a95ad80	0.0011419505
15	0xbc9f85a0	-0.019472897
16	0x3d905f32	0.07049407
17	0xbcd0f4f8	-0.025507435
18	0x3de5a130	0.11212385
19	0x3d78a638	0.060705394
20	0xbddce828	-0.10786468
21	0xbdcbb0aa	-0.09945805
22	0xbbccd580	-0.006251037
23	0x3dbf7b4c	0.09349689
24	0xbdb60cfe	-0.08889197
25	0x3df02818	0.11726397
26	0xbd63fc10	-0.055660307
27	0xbdbc0cc0	-0.09182119
28	0x3da80668	0.08204347
29	0xbdbfd778	-0.09367269
30	0xbc61e300	-0.013787031
31	0xbb18ecc0	-0.0023334473
32	0xbde30672	-0.11085214
33	0x3d6b2b8c	0.057414576
34	0xbc8973b8	-0.016778812
35	0xbd093934	-0.03350182
36	0x3df7521a	0.120762065
37	0x3d114b38	0.035472125
38	0xba828600	-0.0009958148
39	0xbdc3b694	-0.095563084
40	0x3d656b2c	0.05601041
41	0xbd2be9a0	-0.04197085
42	0xbd1fdcd4	-0.039028957
43	0xbdcaec5a	-0.09908362
44	0x3bef0b00	0.0072950125
45	0xbd97c7e2	-0.074111715
46	0x3cd1d778	0.025615439
47	0xbda2c11a	-0.079469875
48	0x3de5e74e	0.112257585
49	0x3d98bee2	0.07458283
50	0x3cb4a748	0.022052422
51	0xbcbb77b0	-0.02288422
52	0x3af61500	0.0018774569
53	0x3c9848c0	0.018589377
54	0x3d82e93c	0.06392142
55	0x3d8cbe3a	0.0687222
56	0xbac7ea00	-0.0015252233
57	0x3dbefb6c	0.09325299
58	0xbd08daac	-0.033411667
59	0xbdac9a20	-0.084278345
60	0x3d57feb0	0.052733123
61	0x3dc52bd6	0.09627502
62	0xbcc2d098	-0.023781106
63	0xbdbac0da	-0.09118815
64	0x3de64474	0.11243525
65	0x3de099ac	0.109668106
66	0x3cdba450	0.026811749
67	0x3db91086	0.09036355
68	0xbdd4bf94	-0.10388103
69	0x3dcca65a	0.099926665
70	0xbdb1d6c8	-0.086835444
71	0x3d5415ac	0.05177848
72	0xbd7f2ea4	-0.06230034
73	0xbdb90a6c	-0.09035191
74	0xbdc9a75c	-0.098463744
75	0x3df64db2	0.12026538
76	0xbbb661a0	-0.005565837
77	0x3dfe14f0	0.12406337
78	0xbcf87420	-0.03032881
79	0xbd3b128c	-0.045671985
80	0xbd3a02d0	-0.04541284
81	0xbd93900c	-0.07205209
82	0xbd8302c8	-0.06397015
83	0xbd696ee8	-0.056990534
84	0xbd2257e0	-0.039634585
85	0xbdd6186a	-0.10453875
86	0xbded3878	-0.11583036
87	0xbd1e497c	-0.0386443
88	0x3dbd5a60	0.09245753
89	0x3d8e6284	0.06952384
90	0xbddde650	-0.10834944
91	0xbbebdde0	-0.0071980804
92	0xbdced40c	-0.100990385
93	0x3d9716dc	0.07377407
94	0x3dbd37f8	0.09239191
95	0x3db6a6d6	0.0891854
96	0xbd8c71e4	-0.068576604
97	0x3df93fa8	0.121703446
98	0xbd64cd8c	-0.055860087
99	0xbdd73b4a	-0.10509355
100	0x3df5fe70	0.12011421
101	0xbdd3db50	-0.10344565
102	0x3df58bee	0.1198958
103	0x3d87e650	0.066357255
104	0xbd68055c	-0.056645736
105	0x3d94a7e2	0.072585836
106	0x3d90f056	0.070770904
107	0x3d694664	0.056951895
108	0x3d900326	0.070318505
109	0x3d4f534c	0.050616547
110	0xbdd77932	-0.10521163
111	0x3db7ff92	0.08984293
112	0x3d9ea7be	0.07746838
113	0xbdc0040a	-0.093757704
114	0x3da3d630	0.079998374
115	0x3c4df780	0.012571216
116	0xbc820928	-0.015873507
117	0xbda86e84	-0.08224204
118	0xbd9a131e	-0.075231776
119	0xbdac3844	-0.08409169
120	0xbc54aaf0	-0.012980208
121	0x3d4fc8c8	0.05072859
122	0x3bf72c80	0.0075431466
123	0xbde5b9e4	-0.112170964
124	0x3de0b138	0.10971302
125	0x3d8fe97a	0.07026954
126	0x3d5f5420	0.054523587
127	0x3d00327c	0.031298146
128	0x3dbeef56	0.093229935
129	0x3dc60746	0.09669356
130	0x3ba722e0	0.005100593
131	0xbd13c2b0	-0.03607434
132	0x3d83237c	0.064032525
133	0x3d835540	0.064127445
134	0xbd195c2c	-0.037441418
135	0xbd2d1f84	-0.042266384
136	0x3d970604	0.07374194
137	0xbdc129de	-0.09431814
138	0x3be6df20	0.0070456415
139	0x3da5aa28	0.08089095
140	0x3d96b7fa	0.073593095
141	0x3da7de58	0.081967056
142	0xbdeb669c	-0.114941806
143	0x3d4baf54	0.049727753
144	0x3c150140	0.009094536
145	0x3cb2c990	0.021824628
146	0xbddac132	-0.1068138
147	0xbd1c0b74	-0.03809686
148	0x3c320d80	0.010867476
149	0x3de9d96e	0.114184245
150	0xbc0bd6e0	-0.008535117
151	0x3de51eb2	0.11187495
152	0x3d13b044	0.036056772
153	0x3df69614	0.12040344
154	0xbdc20854	-0.09474245
155	0x3db7a9ec	0.08967957
156	0x3d7065bc	0.05869077
157	0xbc536360	-0.012902111
158	0xbdee0572	-0.11622132
159	0x3c89d518	0.016825244
160	0xbd8c2154	-0.06842294
161	0x3d25d6a8	0.040487915
162	0x3ddd055a	0.10792036
163	0xbda03e74	-0.07824412
164	0xbdf072b2	-0.117406264
165	0xbdd75736	-0.10514681
166	0xbc1ab910	-0.009443536
167	0x3d4f0fbc	0.050552115
168	0x3d560970	0.052255094
169	0xbdcfe564	-0.10151175
170	0x3c9f5c88	0.019453302
171	0xbdd326f0	-0.10310161
172	0x3db00882	0.08595373
173	0xbc5c4fe0	-0.013446778
174	0xbc242500	-0.010018587
175	0xbd8ff5b8	-0.07029289
176	0x3d319130	0.043351352
177	0xbcc66e08	-0.024222389
178	0xbda67e50	-0.08129561
179	0x3b87a5e0	0.004139647
180	0x3d0b903c	0.0340731
181	0xbd42b56c	-0.0475363
182	0xbdbc7f8a	-0.09204014
183	0x3d6cf8d0	0.057854474
184	0xbce797a8	-0.028270558
185	0x3d1cb504	0.038258567
186	0xbdde20d6	-0.10846107
187	0x3d1de810	0.03855139
188	0xbdfaa5ca	-0.12238653
189	0x3cabb040	0.020958066
190	0xbb246fc0	-0.0025091022
191	0x3dcbb7ee	0.09947191
192	0xbd756e9c	-0.05991994
193	0x3d71dccc	0.05904846
194	0xbddf3d50	-0.10900366
195	0x3d89d3fc	0.06729886
196	0x3c370120	0.011169702
197	0xbd9713bc	-0.07376811
198	0xbd79e424	-0.061008587
199	0xbd0ba678	-0.034094304
200	0xbd8326bc	-0.06403872
201	0xbca776d0	-0.020442396
202	0xbde7fe74	-0.1132783
203	0x3da89584	0.08231643
204	0xbdab3372	-0.08359422
205	0x3c583740	0.013196766
206	0xb96a1000	-0.0002232194
207	0xbddc7622	-0.107647195
208	0xbde6d4fe	-0.11271094
209	0x3d91c9cc	0.07118568
210	0xbcf8e3b0	-0.030382007
211	0x3cd59ec0	0.026076674
212	0xbc3c4a70	-0.011492357
213	0x3d86454c	0.06556186
214	0x3dbfaae8	0.0935877
215	0xbd3be9c8	-0.045877248
216	0xbd8a0e72	-0.067410365
217	0x3d9c500c	0.07632455
218	0xbdf62c6c	-0.120201916
219	0xbda57bfa	-0.08080287
220	0x3ddf6ee6	0.10909824
221	0xbd84aa3c	-0.06477782
222	0xbdf77452	-0.12082733
223	0xbd4ed5f0	-0.050496995
224	0xbcba03d8	-0.022706911
225	0x3c8d2b78	0.017232642
226	0xbd913ee8	-0.070920765
227	0x3de8f9ae	0.113757476
228	0xbca94010	-0.02066043
229	0x3ce62f08	0.028098598
230	0x3d8b518c	0.06802663
231	0x3da798ee	0.08183466
232	0xbd5de6e4	-0.054175273
233	0xbd9151d2	-0.07095684
234	0x3ca730b8	0.020408973
235	0x3dbf5a18	0.09343356
236	0x3dcc1c2a	0.09966309
237	0xbdf90d7c	-0.12160775
238	0xbd2bbeb8	-0.04192993
239	0x3dbdbd98	0.09264678
240	0xbd516b68	-0.05112782
241	0x3dcbd016	0.099517986
242	0x3ddd5d76	0.10808842
243	0xbd0af774	-0.033927396
244	0xbccd9fc8	-0.025100604
245	0x3d307914	0.04308422
246	0x3c8ceac0	0.017201781
247	0xbdad0dba	-0.08449884
248	0xbb05a200	-0.002039075
249	0xbd431a80	-0.047632694
250	0x3c83f878	0.01610969
251	0x3dc79f0c	0.09747133
252	0xbdd55094	-0.1041576
253	0xbd9a7e0e	-0.07543574
254	0xbca58a00	-0.020207405
255	0x3c9fa370	0.019487113

lstm.weight_hh_l0 f4 [256, 64]
0	0xbcc067c0	-0.023486972
1	0x3d3fed88	0.046857387
2	0x3c713eb0	0.0147244185
3	0xbbd7bb00	-0.0065835714
4	0x3c8b2420	0.016985
5	0x3d90aa9a	0.0706379
6	0xbdbe2c86	-0.09285836
7	0xbd45f57c	-0.048329815
8	0xbbea1120	-0.0071431547
9	0x3d749498	0.059712023
10	0xbc1187a0	-0.008882433
11	0x3dde959c	0.108683795
12	0x3ccef5f8	0.025263771
13	0x3dce6786	0.10078339
14	0xbdaafa40	-0.08348513
15	0xbd1f6fe4	-0.038925067
16	0xbd0ec324	-0.03485407
17	0xbd6e3ca8	-0.058163315
18	0x3db0f4b6	0.08640425
19	0xbdcd25b4	-0.10016957
20	0xbcbd5598	-0.023112103
21	0xbd318ea0	-0.04334891
22	0x3df27286	0.1183825
23	0x3df34a00	0.11879349
24	0x3dfe3f18	0.12414378
25	0xbdfbdcb0	-0.12297952
26	0x3df11ff6	0.11773674
27	0x3b579ec0	0.003290102
28	0x3ddc8c64	0.10768965
29	0x3df5b710	0.11997807
30	0xbdffcece	-0.12490617
31	0x3da605c8	0.081065714
32	0xbd408540	-0.047002077
33	0x3d22f6d8	0.03978619
34	0xbdf50930	-0.11964643
35	0x3d41c708	0.04730895
36	0xbb952440	-0.0045514405
37	0x3d1a12b8	0.037615508
38	0x3dafe996	0.08589475
39	0x3d438908	0.047738105
40	0x3dc3b5d6	0.09556167
41	0xbdde4420	-0.108528376
42	0xbca47920	-0.020077288
43	0xbdfa6d48	-0.12227875
44	0xbdbccef8	-0.09219164
45	0x3da4b1ac	0.08041701
46	0x3d620ff0	0.05519098
47	0xbd3df280	-0.046373844
48	0x3dd330d0	0.103120446
49	0x3d58a344	0.052890077
50	0xbc220070	-0.0098878
51	0x3cf8def0	0.030379742
52	0x3c3c8cf0	0.0115082115
53	0x3de8e20e	0.113712415
54	0x3d710724	0.0588447
55	0xbbb8b3c0	-0.0056366622
56	0xbb03d480	-0.0020115674
57	0x3d8fe822	0.07026698
58	0x3d4cfd38	0.050046176
59	0x3d743420	0.059620023
60	0x3da51d3e	0.08062218
61	0xbdf803da	-0.121101096
62	0x3db5781e	0.08860801
63	0xbc571520	-0.013127595
64	0xbdf59d22	-0.11992861
65	0xbcd96e70	-0.026541919
66	0x3dfe4bc0	0.12416792
67	0x3dbf4342	0.09339
68	0xbdac0586	-0.08399491
69	0xbdac07d6	-0.08399932
70	0x3dcaa728	0.09895164
71	0x3d5ddf74	0.05416818
72	0xbdebd9aa	-0.115161255
73	0x3dbef50a	0.09324081
74	0x3c995568	0.018717483
75	0xbbca3ec0	-0.006172031
76	0xbdf55b0e	-0.11980258
77	0xbce3e200	-0.027817726
78	0xbc7b14a0	-0.015324742
79	0xbc4bffc0	-0.012451112
80	0xbcec79c0	-0.028866649
81	0xbdfa0d16	-0.12209527
82	0x3cca7ea8	0.024718598
83	0x3dc18386	0.09448914
84	0x3c0bc650	0.008531168
85	0xbdecc060	-0.1156013
86	0xbd3acaf8	-0.045603722
87	0x3ddcff2e	0.10790859
88	0xbdd9ed66	-0.10640983
89	0xbcb69e08	-0.022292152
90	0x3d5b3274	0.053514913
91	0xbdbbb058	-0.09164494
92	0xbdf7dd98	-0.121028125
93	0xbdf44614	-0.11927429
94	0xbddb094a	-0.10695131
95	0x3d828096	0.06372182
96	0xbde87674	-0.11350718
97	0xbcf63b60	-0.03005761
98	0x3ced12d8	0.02893965
99	0x3bcfc1e0	0.0063402504
100	0x3db1f81c	0.08689901
101	0x3d54509c	0.051834688
102	0xbdf3a678	-0.11896986
103	0x3ccf52f8	0.025308117
104	0x3cc2c618	0.0237761
105	0x3df0e640	0.11762667
106	0xbd36e3c0	-0.044650793
107	0x3df283bc	0.118415326
108	0xbc7a93a0	-0.015293986
109	0x3d0be1ac	0.034150764
110	0x3d143ff8	0.036193818
111	0x3dcea666	0.10090332
112	0xbd04f56c	-0.032460615
113	0xbd366178	-0.044526547
114	0xbda379f6	-0.079822466
115	0x3cf6b830	0.030117124
116	0xbd64e5d4	-0.055883244
117	0xbdb561b2	-0.088565245
118	0xbcd79fe8	-0.026321366
119	0xbdcacb60	-0.09902072
120	0xbccc7358	-0.024957344
121	0x3d54c924	0.051949635
122	0x3d6804c8	0.056645185
123	0xbd93daba	-0.07219453
124	0x3df9d712	0.121992245
125	0xbd85fefc	-0.06542775
126	0xbd2243c0	-0.039615393
127	0xbd7c3278	-0.06157157
128	0x3d11dbd4	0.035610035
129	0xbdbe7658	-0.09299916
130	0x3d273330	0.0408203
131	0xbbbcd7e0	-0.005763039
132	0xbd46f7dc	-0.04857622
133	0x3ce102a8	0.027467087
134	0xba383900	-0.00070275366
135	0x3d527038	0.05137655
136	0xbd16c71c	-0.03681098
137	0xbca800b8	-0.020508155
138	0xbdbeb3da	-0.09311648
139	0x3ce11308	0.027474895
140	0x3ddf8284	0.10913566
141	0xbdd92d98	-0.106043994
142	0x3dd015f0	0.10160434
143	0xbba959a0	-0.005168155
144	0x3d95f766	0.07322578
145	0xbd4b5db8	-0.049649924
146	0x3db588c0	0.088639736
147	0xbd467678	-0.048452824
148	0x3de9505c	0.113922805
149	0x3c9cd578	0.019144759
150	0x3d577d34	0.052609637
151	0x3df910f8	0.1216144
152	0xbd2165b4	-0.039403632
153	0x3d8599fc	0.06523511
154	0x3d3ab114	0.04557903
155	0xbd81e998	-0.063433826
156	0x3dd44b50	0.10365927
157	0x3d52e220	0.05148518
158	0xbc06e870	-0.008234128
159	0xbb463ec0	-0.0030249804
160	0xbd1d4778	-0.038398236
161	0xbdd05170	-0.10171783
162	0xbdbbe78a	-0.09175022
163	0x3d9ebb58	0.07750577
164	0xbd1d159c	-0.038350686
165	0xbdd72c72	-0.10506524
166	0x3da47046	0.08029227
167	0xbd47b804	-0.048759475
168	0x3d0d8bb8	0.034557074
169	0x3dd911aa	0.10599072
170	0x3b938f80	0.0045031905
171	0x3c212990	0.009836569
172	0x3d7ab8dc	0.061211452
173	0x3d83657c	0.06415841
174	0xbd1f3bec	-0.038875505
175	0x3d5d7eb8	0.054075927
176	0xbdc4fcc8	-0.09618527
177	0x3d42ac8c	0.047527835
178	0x3dde10c4	0.108430415
179	0x3c146480	0.009057164
180	0xbd81236e	-0.06305586
181	0x3d2cd13c	0.04219173
182	0x3d19de90	0.037565768
183	0xbdd63f40	-0.10461283
184	0xbcefe5d0	-0.029284388
185	0x3cf636a0	0.030055344
186	0xbde6a58a	-0.11262043
187	0x3a8bce80	0.00106664
188	0xbcf0add8	-0.02937977
189	0x3d8526ec	0.065015644
190	0xbc0dc2a0	-0.008652359
191	0xbd3cf4f8	-0.046132058
192	0xbd24a93c	-0.040200457
193	0x3dced90c	0.10099992
194	0xbd97223e	-0.07379578
195	0xbdde6c9c	-0.10860559
196	0xbcb1f320	-0.021722376
197	0xbd571604	-0.05251123
198	0x3ddfcf8a	0.10928257
199	0x3b963640	0.004584104
200	0x3d392318	0.045199484
201	0x3d4215a8	0.047383934
202	0x3da83850	0.08213866
203	0x3ca41fa0	0.020034611
204	0x3c38ff40	0.011291325
205	0xbdccc4e4	-0.099984914
206	0x3dba32a4	0.0909169
207	0x3dc512c4	0.0962272
208	0x3d9d5146	0.07681517
209	0xbcd6fba8	-0.026243046
210	0xbcce1578	-0.025156721
211	0xbd007160	-0.031358123
212	0x3ca37368	0.01995249
213	0x3d81fc94	0.063470036
214	0xbaaa7300	-0.0013004243
215	0xbdd23b90	-0.10265267
216	0x3d187184	0.037217632
217	0x3d9e2af6	0.07723038
218	0xbdacb8f0	-0.084337115
219	0xbdbbb752	-0.09165825
220	0xbdfe9800	-0.124313354
221	0x3d848864	0.06471327
222	0x3d024bdc	0.031810626
223	0xbcf8f5e0	-0.03039068
224	0xbc8e3a58	-0.017361805
225	0xbdf63d26	-0.12023382
226	0x3c417f00	0.011810064
227	0x3db3c1a2	0.08777167
228	0xbd6d72c0	-0.057970762
229	0x3dfa83f0	0.12232196
230	0x3de4f9f8	0.1118049
231	0xbdf342de	-0.11877988
232	0xbdcab19a	-0.09897156
233	0xbd73b8d8	-0.059502453
234	0x3d7c0c80	0.06153536
235	0x3daf043c	0.085457295
236	0x3df52f26	0.119718835
237	0x3cba7958	0.02276294
238	0xbd88fbee	-0.06688677
239	0x3ca75368	0.020425513
240	0x3bae8080	0.005325377
241	0x3cbee008	0.023300186
242	0xbb17c940	-0.0023160726
243	0x3dcfe0ac	0.10150275
244	0x3cd4e178	0.025986418
245	0x3d3c84fc	0.04602526
246	0x3ae2c300	0.0017300546
247	0xb950cc00	-0.00019912422
248	0xbd7a585c	-0.061119422
249	0x3d97bbbe	0.07408856
250	0x3c9eec18	0.019399688
251	0xbdbb0f5c	-0.09133789
252	0x3d9be856	0.07612674
253	0x3d503f5c	0.050841674
254	0x3d9ac654	0.07557359
255	0x3ce5f7e0	0.028072298

lstm.bias_ih_l0 f4 [256]
0	0x3bb66ec0	0.0055674016
1	0x3d843888	0.06456095
2	0xbdb2e5e2	-0.08735253
3	0x3d9becca	0.07613523
4	0x3dd95756	0.10612361
5	0x3df796ea	0.120893314
6	0xbcdbad90	-0.02681616
7	0xbbc642c0	-0.0060504377
8	0xbcea00d8	-0.028564855
9	0xbdcdf4b2	-0.100564376
10	0x3be7dbe0	0.0070757717
11	0xbd878e8e	-0.06618987
12	0x3c72a0f0	0.014808878
13	0x3d2a99e8	0.041650683
14	0x3d521694	0.051291063
15	0xbdc971c4	-0.09836152
16	0xbdd31af8	-0.10307878
17	0x3d97359e	0.073832735
18	0xbdff76ae	-0.12473808
19	0x3ba0a960	0.0049030036
20	0xbdbbbd1a	-0.09166928
21	0xbaba0600	-0.0014192462
22	0xbcebeec0	-0.028800368
23	0x3dec92a8	0.1155141
24	0x3d3041ac	0.04303138
25	0x3d56fc60	0.052486777
26	0xbdc3a024	-0.09552029
27	0x3cb1ebf8	0.021718964
28	0x3c2aa3d0	0.0104150325
29	0x3dbc9b72	0.09209336
30	0x3d751c90	0.059841692
31	0x3d511d64	0.05105342
32	0xbd31f9d8	-0.04345116
33	0xbd33719c	-0.04380952
34	0x3dfc253a	0.12311788
35	0x3da0413c	0.078249425
36	0x3dd86fa8	0.10568172
37	0x3db53618	0.08848208
38	0x3cccf1f8	0.025017723
39	0x3de36068	0.111023724
40	0x3ca6a4f8	0.020342335
41	0xbd9feb58	-0.0780856
42	0x3d809b18	0.06279582
43	0xbc03c160	-0.00804171
44	0xbdd034f4	-0.1016635
45	0x39fdd600	0.00048415363
46	0x3da1c27e	0.078984246
47	0x3d02ce94	0.03193529
48	0xbc2e3370	-0.010632381
49	0x3d31a368	0.043368727
50	0x3b6e10c0	0.0036325902
51	0xbd6cb170	-0.057786405
52	0x3df6e7ec	0.12055954
53	0xbde3939c	-0.11112139
54	0xbd3c0d94	-0.045911387
55	0xbdd92d74	-0.106043726
56	0xbdf9c1fa	-0.12195201
57	0x3de7edec	0.11324677
58	0x3c88f768	0.016719535
59	0xbdf09b90	-0.11748421
60	0xbcf330d8	-0.029686376
61	0x3b959f80	0.004566133
62	0x3a265700	0.00063453615
63	0x3d35ec84	0.044415012
64	0xbc9a7720	-0.018855631
65	0x3be646a0	0.007027462
66	0x3db7f4fe	0.089822754
67	0xbcde35a0	-0.02712518
68	0x3db6595e	0.08903764
69	0x3dac7424	0.084205896
70	0x3dbe3dba	0.09289117
71	0xbd321a84	-0.04348232
72	0xbddb7da6	-0.10717325
73	0x3cf82428	0.030290678
74	0x3d3315c4	0.04372193
75	0xbdeb0982	-0.11476423
76	0x3cd7fdb8	0.0263661
77	0xbddf1d20	-0.10894227
78	0xbdf9cdb6	-0.121974394
79	0x3de8fbb2	0.11376132
80	0x3d04fadc	0.0324658
81	0xbd484aa4	-0.048899308
82	0xbdacaea6	-0.08431749
83	0x3d0dbf50	0.034606278
84	0x3db623b8	0.088935316
85	0x3cc42ca0	0.02394706
86	0x3d2de15c	0.042451248
87	0x3dea42c2	0.11438514
88	0x3d4f8238	0.050661296
89	0xbda1f3a4	-0.07907799
90	0x3d52b710	0.051444113
91	0x3d402088	0.046906024
92	0x3d935706	0.07194333
93	0x3dd57c7a	0.10424133
94	0xbccad680	-0.024760485
95	0xbd75ef90	-0.060042918
96	0x3c314c70	0.010821447
97	0xbdb9de74	-0.09075633
98	0xbdabe4a4	-0.08393219
99	0xbdadb7a8	-0.08482295
100	0xbc7ba370	-0.015358791
101	0xbd3b1cac	-0.04568164
102	0x3db49c4a	0.08818872
103	0xbd2f5e78	-0.0428147
104	0x3d9ab208	0.07553488
105	0xbdade098	-0.084901035
106	0xbd37f3cc	-0.044910237
107	0x3d19f9e0	0.037591815
108	0x3bfe7240	0.0077650845
109	0x3ddb07be	0.10694836
110	0xba0b8a00	-0.0005322993
111	0x3dd7f054	0.10543886
112	0x3d809dca	0.06280096
113	0xbcedd208	-0.029030815
114	0x3df25a78	0.11833662
115	0x3cd4afb8	0.025962695
116	0x3df2776e	0.11839186
117	0x3dd568ae	0.10420357
118	0xbd21a038	-0.039459437
119	0x3dfd64ba	0.12372728
120	0xbd9e2190	-0.07721245
121	0xbdd7a61e	-0.10529731
122	0xbd99dbac	-0.07512602
123	0xbc9d4ee8	-0.019202664
124	0x3dec91f8	0.11551279
125	0x3d29ef74	0.041488126
126	0x3a763b00	0.0009392947
127	0xbd404c00	-0.04694748
128	0x3d8b2482	0.06794073
129	0xbd833800	-0.064071655
130	0x3cd03358	0.025415108
131	0x3de68d38	0.11257404
132	0x3d3e3e98	0.046446413
133	0xbda9c0c8	-0.08288723
134	0x3c99a248	0.01875414
135	0xbdbaba9a	-0.09117623
136	0x3c9814f8	0.018564686
137	0xbd25f4a8	-0.040516526
138	0x3dd56ff0	0.10421741
139	0xbcdd1d78	-0.02699159
140	0x3d0fc474	0.03509946
141	0xbd9bde66	-0.076107785
142	0xbdc0fb90	-0.09422982
143	0xbc6a39a0	-0.014295965
144	0xbcc93308	-0.024560466
145	0xbd809c26	-0.06279783
146	0xbad40000	-0.0016174316
147	0xbd9d9528	-0.07694465
148	0xbcbf7e90	-0.02337578
149	0x3ddf77e4	0.10911539
150	0xbd4e9b3c	-0.05044101
151	0x3d95428e	0.07288085
152	0xbcd068d8	-0.025440618
153	0xbdd0de7c	-0.101986855
154	0x3c642e70	0.013927087
155	0x3cfcfa10	0.030880958
156	0x3dd8c5f8	0.105846345
157	0x3d870238	0.0659222
158	0x3ce04908	0.027378574
159	0x3d7b8ec4	0.06141545
160	0x3d9d3e5a	0.07677908
161	0x3d9df060	0.077118635
162	0xbd24fb18	-0.040278524
163	0x3d59b5a8	0.053151757
164	0xbdf148f2	-0.11781491
165	0x3d8c6f58	0.06857175
166	0xbbf80a80	-0.007569611
167	0xbd624cfc	-0.0552492
168	0xbcc0d180	-0.023537397
169	0x3d281a5c	0.041040763
170	0x3df0fb36	0.11766665
171	0xbc17cfc0	-0.00926584
172	0x3dfcd3e4	0.123451024
173	0x3bfc63a0	0.007702306
174	0xbc838468	-0.016054347
175	0x3d51ec1c	0.051250562
176	0x3c921420	0.017831862
177	0xbd6408a4	-0.055672303
178	0x3d9e7f64	0.077391416
179	0xbd31dc10	-0.04342276
180	0x3d4ede40	0.050504923
181	0x3c9357f8	0.017986283
182	0x3d3c358c	0.045949504
183	0x3d30ab28	0.043131977
184	0xbd9af788	-0.07566744
185	0xbdb43dce	-0.08800851
186	0xbcad10b0	-0.021126121
187	0xbcba0910	-0.0227094
188	0xbde39ace	-0.11113511
189	0x3dd17d62	0.10228993
190	0xbddbd878	-0.107346475
191	0xbd93c4de	-0.07215284
192	0xbdcc2ca6	-0.099694535
193	0xbdd14872	-0.10218896
194	0xbd919ae8	-0.07109624
195	0x3ccfe3c0	0.025377154
196	0xbd82a9e6	-0.06380062
197	0xbcf05ae0	-0.029340208
198	0xbdd4f894	-0.10398975
199	0xbc449370	-0.011998042
200	0x3dcd4c74	0.10024348
201	0x3db659d0	0.08903849
202	0xbda7d052	-0.08194031
203	0x3dd8ca0e	0.10585414
204	0xbde8055a	-0.11329146
205	0x3dfd77ae	0.12376343
206	0x3d5d1084	0.05397083
207	0x3dcdfd80	0.10058117
208	0xbdc9ccba	-0.098535016
209	0xbd364bc8	-0.044505864
210	0xbdc7e674	-0.09760752
211	0xbcf04f10	-0.029334575
212	0x3de3e334	0.1112732
213	0x3d875b6c	0.06609234
214	0x3d8cec18	0.06880969
215	0xbdeef67a	-0.116681054
216	0x3cabc048	0.02096571
217	0xbd949bf4	-0.07256308
218	0xbb024080	-0.001987487
219	0x3da792d4	0.08182302
220	0x3db134c6	0.08652644
221	0xbd9fd6bc	-0.07804629
222	0x3cc477a8	0.023982838
223	0x3dc1f08e	0.0946971
224	0xbdd35cd0	-0.10320437
225	0x3da18e30	0.07888448
226	0xbbb010a0	-0.0053730756
227	0xbdff1e04	-0.12456897
228	0xbd09b518	-0.03361997
229	0x3d990d00	0.07473183
230	0x3cbe68a8	0.023243263
231	0xbdc7da8e	-0.09758483
232	0x3d20ba84	0.039240375
233	0x3df036d6	0.11729209
234	0x3d0ae950	0.03391391
235	0x3b2a1240	0.002595082
236	0xbdd89988	-0.10576159
237	0xbd90f948	-0.070787966
238	0xbd9e12dc	-0.07718441
239	0xbd26eb50	-0.040751755
240	0x3cec44e8	0.02884145
241	0x3c078110	0.008270517
242	0xbd85db90	-0.06536019
243	0xbd8c3966	-0.068468854
244	0xbdd0f520	-0.10203004
245	0xbc9b3e28	-0.018950537
246	0xbc797b30	-0.015227124
247	0x3c2c65e0	0.010522336
248	0x3d048fd4	0.032363728
249	0xbdddeb66	-0.10835914
250	0x3d7b4960	0.061349273
251	0x3dc1a934	0.09456101
252	0xbcb1c648	-0.021700993
253	0x3c2c1ef0	0.010505423
254	0x3dbbf412	0.09177412
255	0xbcd0bcf0	-0.025480717

lstm.bias_hh_l0 f4 [256]
0	0xbcb23420	-0.02175337
1	0x3dbb90e0	0.09158492
2	0xbdbbb416	-0.09165208
3	0xbd282f94	-0.041061
4	0xbd2d5974	-0.042321637
5	0x3de10be6	0.109885976
6	0xbdcbb430	-0.099464774
7	0x3dad350c	0.084573835
8	0xbde17004	-0.110076934
9	0xbd1cdac8	-0.038294584
10	0xbdc7ac5e	-0.09749673
11	0x3cff3778	0.03115438
12	0xbde512d2	-0.1118523
13	0xbdda585c	-0.106613845
14	0x3dc791fc	0.09744641
15	0x3c2130e0	0.009838313
16	0x3d49df84	0.049285427
17	0xbd07eb2c	-0.03318326
18	0xbd89be5c	-0.06725761
19	0xbdabc74c	-0.08387622
20	0x3dd9dea0	0.106381655
21	0xbdb3e28a	-0.08783443
22	0x3cd40ff8	0.02588652
23	0xbd9aef6c	-0.07565197
24	0xbba13380	-0.0049194694
25	0x3d838c9e	0.06423305
26	0x3dbd09a6	0.09230356
27	0x3db0b434	0.08628121
28	0x3dc8f5d2	0.098125115
29	0xbdd00b5a	-0.10158415
30	0xbda60ea6	-0.08108263
31	0x3de9330a	0.11386688
32	0xbde2162e	-0.11039387
33	0xbd709c18	-0.058742613
34	0x3d3b9eec	0.045805857
35	0xbd619c34	-0.055080608
36	0xbd707178	-0.058701962
37	0xbdef9cc4	-0.116998225
38	0xbdbe59d8	-0.0929448
39	0xbd48b5c0	-0.049001455
40	0x3db9a84a	0.09065302
41	0xbdbf6fb8	-0.093474805
42	0xbd790ab4	-0.060801223
43	0x3d90c1c4	0.07068208
44	0x3d5b917c	0.05360554
45	0x3da8ba38	0.082386434
46	0xbcfbe9b8	-0.030751094
47	0xbdf140ba	-0.11779924
48	0xbbd202c0	-0.006409019
49	0x3de3a276	0.11114971
50	0x3df912d6	0.12161796
51	0xbc96b280	-0.018395662
52	0x3cb568a8	0.02214463
53	0x3d6bf634	0.057607844
54	0xbc1c6a60	-0.009546846
55	0x3da3c454	0.07996431
56	0xbdfea3f2	-0.12433614
57	0x3d2bf0d0	0.041977704
58	0x3dd17b9c	0.10228655
59	0x3d4bcc54	0.04975541
60	0xbdffa280	-0.12482166
61	0x3ddd341e	0.10800956
62	0x3d847664	0.06467894
63	0xbd838eec	-0.064237446
64	0x3c810da8	0.015753582
65	0xbdd40352	-0.10352196
66	0xbcd06550	-0.025438935
67	0x3d55a348	0.05215767
68	0xbd97cdfc	-0.07412335
69	0xbd922024	-0.071350366
70	0x3d733140	0.05937314
71	0x3bff5440	0.007792026
72	0x3cedcce0	0.029028356
73	0x3dba85e6	0.0910757
74	0x3df779a8	0.12083751
75	0x3dff6d1e	0.12471984
76	0x3d1f5bd0	0.03890592
77	0xbd25db18	-0.040492147
78	0xbbd35dc0	-0.006450385
79	0x3dce9cc2	0.10088493
80	0x3de87ff0	0.11352527
81	0xbbc27820	-0.00593473
82	0xbdf62026	-0.120178506
83	0x3d82ba08	0.06383139
84	0x3dc86258	0.097843826
85	0x3d08e81c	0.03342448
86	0x3dd64e48	0.1046415
87	0x3ceb32d8	0.028710768
88	0x3d28e0fc	0.041230187
89	0xbc53cfb0	-0.0129279345
90	0xbd24e678	-0.040258855
91	0x3dc36492	0.09540667
92	0x3c10dc40	0.008841574
93	0xbd69689c	-0.05698453
94	0xbc93e098	-0.01805143
95	0xbddbb8ea	-0.10728629
96	0x3dc3cbc6	0.09560351
97	0x3dfda3dc	0.12384769
98	0x3ddb4b6a	0.107077435
99	0x3cb05dc8	0.021529093
100	0xbd7c4ea8	-0.06159845
101	0xbd840736	-0.06446688
102	0xbcc6b3e0	-0.024255693
103	0x3c9972b8	0.01873146
104	0xbd26a7e0	-0.04068744
105	0x3d7e7604	0.062124267
106	0xbd5a67f8	-0.05332181
107	0x3d4b8d1c	0.04969512
108	0xbce8aba8	-0.028402165
109	0xbcdebf68	-0.027190879
110	0x3c393a70	0.0113054365
111	0xbdae0e56	-0.08498828
112	0xbcf9b290	-0.030480653
113	0xbde0f462	-0.10984112
114	0xbdf5ddce	-0.120051965
115	0x3dc82644	0.097729236
116	0xbddb67ac	-0.10713133
117	0x3ce782e0	0.028260648
118	0xbc9f7e20	-0.01946932
119	0x3d29d184	0.041459575
120	0x3d036a8c	0.032084033
121	0x3d29284c	0.041298196
122	0xbd2cdb30	-0.04220122
123	0xbd2fd4ac	-0.04292743
124	0xbcd7b9f0	-0.02633378
125	0x3d017b90	0.03161198
126	0xbd4b5db4	-0.04964991
127	0xbce670e8	-0.02813001
128	0x3d2b3560	0.04179895
129	0x3dc00be0	0.09377265
130	0x3cf7a860	0.030231655
131	0x3dbbfff0	0.091796756
132	0x3c9efcc8	0.019407645
133	0x3b93cbc0	0.004510373
134	0xbd06cacc	-0.032908246
135	0xbd401bac	-0.04690139
136	0xbd2eef94	-0.04270895
137	0xbded20c6	-0.11578517
138	0xbd9d8712	-0.07691778
139	0x3dbd528a	0.09244259
140	0xbdb3ec6a	-0.08785327
141	0xbda135a4	-0.07871559
142	0x3d8d978a	0.069136694
143	0xbceab3d0	-0.028650194
144	0x3d5cef44	0.05393912
145	0xbce4c168	-0.027924255
146	0x3df2c2e4	0.11853579
147	0xbd0dddac	-0.03463523
148	0xbd4cd648	-0.050009042
149	0xbd45d40c	-0.048297927
150	0xbc451060	-0.01202783
151	0xbdbaf1aa	-0.09128125
152	0x3ce4f210	0.027947456
153	0x3cf09328	0.029367045
154	0x3dbaa320	0.09113145
155	0x3d4fe914	0.05075939
156	0x3d60da94	0.054895952
157	0x3dc575ca	0.09641607
158	0xbd05c6f0	-0.032660425
159	0xbd8681f6	-0.06567757
160	0xbdfc25ea	-0.12311919
161	0xbda3753e	-0.079813465
162	0x3d8ff21c	0.070286006
163	0xbd6dd09c	-0.058060274
164	0x3d60ae80	0.054853916
165	0xbd97dfe6	-0.07415752
166	0xbda6f804	-0.08152774
167	0x3db4f7f2	0.08836354
168	0xbc94ced0	-0.018165022
169	0xbdf165c2	-0.11786987
170	0x3d81f62e	0.06345783
171	0xbd8b025a	-0.06787558
172	0x3dffacda	0.12484141
173	0xbdcbe77e	-0.09956263
174	0xbdc3364e	-0.09531842
175	0xbde05a28	-0.10954696
176	0xbb731880	-0.003709346
177	0xbce92388	-0.028459325
178	0x3df40d88	0.119166434
179	0x3d929d6e	0.071589336
180	0x3daf84fc	0.08570287
181	0x3d7fa50c	0.06241326
182	0xbbfb0a40	-0.007661134
183	0xbd3d4c68	-0.046215445
184	0xbcc42b60	-0.023946464
185	0x3da4844a	0.08033045
186	0xbd4781ac	-0.04870765
187	0xbb4334c0	-0.002978608
188	0x3d1d9808	0.038475066
189	0x3d59c340	0.05316472
190	0x3b341000	0.0027475357
191	0x3de6e438	0.11273998
192	0xbc313450	-0.010815695
193	0x3d6a0550	0.057133973
194	0xbddfbfe2	-0.109252706
195	0x3d988598	0.07447356
196	0x3df632a4	0.12021378
197	0xbdef6774	-0.11689654
198	0x3cbf4948	0.023350373
199	0xbdf40d54	-0.11916605
200	0xbc0e13a0	-0.008671671
201	0xbdb706ea	-0.08936866
202	0xbdc031d4	-0.09384504
203	0xbdda208a	-0.106507376
204	0xbd43eca0	-0.047833085
205	0xbd81e7dc	-0.06343052
206	0xbd60917c	-0.054826245
207	0x3d9c17f2	0.07621755
208	0xbdf788c0	-0.1208663
209	0x3c9e13a0	0.019296467
210	0xbda59f46	-0.080870196
211	0x3db9c5c6	0.090709254
212	0xbbab9c20	-0.0052371174
213	0x3d7323f0	0.059360445
214	0x3dc5bf0a	0.096555784
215	0xbde939fa	-0.11388011
216	0x3dc41240	0.095737934
217	0xbdcb1456	-0.09915988
218	0xbd89a5c2	-0.06721069
219	0xbd42d3cc	-0.047565266
220	0x3d1d92a0	0.03846991
221	0x3ddf5fa4	0.10906914
222	0x3c031ea0	0.008002907
223	0x3bbf1180	0.0058309436
224	0xbdb59744	-0.08866742
225	0x3dabdd22	0.08391787
226	0x3dae1a8e	0.08501159
227	0xbcf49b60	-0.029859245
228	0x3d20ec24	0.0392877
229	0x3d349744	0.04408957
230	0xbca59310	-0.020211726
231	0xbdacdbe4	-0.08440378
232	0x3df952aa	0.1217397
233	0x3dc4577e	0.09587
234	0xbdd31bfa	-0.103080705
235	0x3d8cafcc	0.06869468
236	0xbda3d734	-0.08000031
237	0x3ba108a0	0.0049143583
238	0x3de9f126	0.114229485
239	0xbdbf998c	-0.093554586
240	0xbde99d1a	-0.11406918
241	0x3dd49bbc	0.103812665
242	0xbb9f6020	-0.004863754
243	0x3cd2a788	0.02571465
244	0x3db8fcf8	0.09032625
245	0x3dbfcec8	0.09365612
246	0xbae24b80	-0.0017264932
247	0x3dad8dd4	0.08474317
248	0xbd010b94	-0.031505182
249	0xbde8661c	-0.11347601
250	0xbddb6c4a	-0.10714014
251	0x3d2ca294	0.042147234
252	0xbd5e7210	-0.054307997
253	0xbc50c3b0	-0.012741968
254	0xbd75bb58	-0.059993118
255	0xbdafc25e	-0.085819945

lstm.weight_ih_l1 f4 [256, 64]
0	0xbca7fea8	-0.020507172
1	0x3d5e1008	0.054214507
2	0xbd6c19d0	-0.057641804
3	0x3d2ebfca	0.042663373
4	0x3dd9a9a8	0.106280625
5	0x3c598c00	0.0132780075
6	0xbd8b3924	-0.06798008
7	0xbd9b23e2	-0.075752035
8	0x3c5cb593	0.013471025
9	0xbd6c6d60	-0.057721496
10	0xbd627a6c	-0.05529253
11	0x3d014688	0.031561404
12	0x3d3a9368	0.045550734
13	0xbd93a1c8	-0.07208592
14	0x3d305d4f	0.043057736
15	0xbd1dd5d0	-0.038533986
16	0x3dffdb9c	0.12493059
17	0xbdb43b10	-0.08800328
18	0xbe0fc934	-0.14041597
19	0xbd24f36c	-0.040271208
20	0x3c9c0718	0.019046351
21	0x3ca77fb8	0.020446643
22	0x3dbdd496	0.09269063
23	0xbdb9f8fb	-0.090806924
24	0x3d8b41fa	0.067996934
25	0xbd0f1988	-0.034936458
26	0xbd82f0b8	-0.0639357
27	0xbda0eb46	-0.07857375
28	0x3d0b7d28	0.034054905
29	0xbbd20861	-0.0064096902
30	0x3e0f635b	0.14002745
31	0xbc393658	-0.0113044605
32	0xbcc5c118	-0.024139926
33	0xbdb9c21a	-0.09070225
34	0x3c31e310	0.010857359
35	0x3dc3f5ac	0.095683426
36	0x3c17dea0	0.0092693865
37	0x3d3ca5d4	0.046056584
38	0x3da5c56c	0.08094296
39	0x3d42cc38	0.04755804
40	0x3c7b5e60	0.015342325
41	0x3d4b7628	0.04967323
42	0x3db729f4	0.08943549
43	0xbd458f76	-0.048232518
44	0x3d202d44	0.03910567
45	0x3c0deee0	0.008662909
46	0x3d27308b	0.04081778
47	0xbcded0c8	-0.027199164
48	0x3c5dd1c0	0.013538778
49	0x3dde8ef0	0.10867107
50	0xbd6eb308	-0.058276206
51	0x3e0ccc5d	0.13749833
52	0xbdfe8654	-0.12427965
53	0x3d818b52	0.06325401
54	0xbd1d60d4	-0.03842242
55	0xbdb5756e	-0.088602886
56	0x3d9928c8	0.074784815
57	0x3dc4f2a3	0.09616592
58	0xbde9892e	-0.11403118
59	0x3c79a930	0.015238091
60	0xbd721b74	-0.059108213
61	0xbcfd9378	-0.030954108
62	0x3d7e7d58	0.062131256
63	0x3d451ef0	0.048125207
64	0x3d7d62fc	0.061861977
65	0x3bd54ef1	0.0065096547
66	0xbd001b98	-0.031276315
67	0x3b87f87a	0.0041494938
68	0xbd05fe68	-0.032713324
69	0x3d5c6f84	0.053817287
70	0x3ddb56c0	0.107099056
71	0x3cf03db8	0.029326305
72	0xbbf4c8c2	-0.0074702213
73	0x3db4ac60	0.088219404
74	0xbc9dc3a0	-0.01925832
75	0xbd71fe12	-0.05908019
76	0x3dbf570c	0.09342775
77	0x3ddb2758	0.107008636
78	0xbca6d37e	-0.02036452
79	0x3daca4b8	0.08429855
80	0xbdb4b57c	-0.08823678
81	0xbd985036	-0.07437174
82	0xbda58c80	-0.08083439
83	0xbd5cd518	-0.05391416
84	0x3d9b3ff3	0.07580557
85	0xbd8ad9b6	-0.06779806
86	0x3da57ca2	0.080804124
87	0xbd051126	-0.032487057
88	0xbd3d5b10	-0.046229422
89	0x3cb1de90	0.021712571
90	0x3db140ce	0.08654939
91	0xbda7ff4c	-0.08202991
92	0xbd875066	-0.06607132
93	0xbdf6bbed	-0.12047563
94	0xbcc4910b	-0.023994943
95	0xbbbde071	-0.0057945778
96	0xbc736c30	-0.014857337
97	0x3cde5508	0.027140155
98	0x3d7fce84	0.062452808
99	0xbb74c723	-0.003735014
100	0x3d8979ca	0.067126825
101	0xbdf76952	-0.12080635
102	0xbd9e78d8	-0.07737893
103	0x3d281348	0.041034013
104	0xbdf0bd32	-0.11754836
105	0xbdde5da2	-0.10857703
106	0xbdbc0d0e	-0.091821775
107	0xbd15723c	-0.036485896
108	0xbd343d80	-0.044003963
109	0xbdd542b0	-0.1041311
110	0xbde6e891	-0.11274827
111	0xbd875a62	-0.06609036
112	0x3ddd7a1a	0.10814305
113	0xbdf25e14	-0.1183435
114	0x3df61c56	0.120171234
115	0x3dc5c626	0.096569344
116	0x3dc6b4fe	0.0970249
117	0xbddcd9ac	-0.10783705
118	0x3dc9fcf3	0.09862699
119	0x3d81cc66	0.06337814
120	0x3def2f94	0.11678997
121	0x3d9a7101	0.07541085
122	0xbcdf4bc0	-0.0272578
123	0xbd365864	-0.04451789
124	0xbd5cbdbc	-0.053891882
125	0x3c0fda80	0.008780122
126	0x3d7f2c0c	0.062297866
127	0x3d338ca4	0.043835297
128	0xbd8b61a6	-0.06805734
129	0x3d55fb0a	0.052241363
130	0x3d789cc0	0.060696363
131	0xbd89a751	-0.06721366
132	0x3dd25dca	0.10271795
133	0x3dd54c7a	0.10414977
134	0xbde46d42	-0.11153652
135	0x3dcc96ae	0.09989677
136	0x3db1da6f	0.08684241
137	0xbdb774fe	-0.08957861
138	0x3d9131b2	0.07089557
139	0x3b866185	0.0041009807
140	0x3a8bbc80	0.0010661036
141	0xbb8ba160	-0.0042611808
142	0x3dd54304	0.10413173
143	0x3b7b306d	0.0038328425
144	0xbde5516a	-0.11197169
145	0xbdddc42a	-0.10828431
146	0x3d13db94	0.036098078
147	0xbd328d78	-0.043591946
148	0x3d82d8db	0.06389018
149	0xbdd5468c	-0.104138464
150	0xbdc86cb2	-0.09786357
151	0x3d8f6e17	0.0700342
152	0x3c44c4a0	0.01200977
153	0x3d222034	0.039581493
154	0x3d063720	0.032767415
155	0xbd865a3a	-0.06560178
156	0xb9d63c00	-0.00040861964
157	0xbd9ac9e8	-0.07558042
158	0xbd9b18c3	-0.07573082
159	0xbe0c8c09	-0.13725294
160	0xbd0e5d38	-0.03475687
161	0x3d645d7c	0.055753216
162	0xbd4731dc	-0.048631534
163	0x3d0967d5	0.033546288
164	0xbdb822ac	-0.08990988
165	0xba8a6300	-0.0010558069
166	0x3cad52d8	0.021157667
167	0x3cd6d958	0.026226684
168	0x3c3df830	0.011594817
169	0xba2da900	-0.0006624609
170	0xbdc08df6	-0.09402077
171	0x3b65d1fd	0.003506779
172	0xbc12e680	-0.008966088
173	0xbdcac228	-0.099003136
174	0x3ca7a459	0.02046411
175	0xbdd42838	-0.103592336
176	0xbd07a5dc	-0.03311716
177	0xbd8fba0c	-0.070179075
178	0x3de9fce8	0.11425191
179	0x3dc9d08b	0.098542295
180	0x3bc5e560	0.0060393065
181	0xbdeebf7e	-0.11657618
182	0xbd89d7c7	-0.067306094
183	0xbd71d16c	-0.05903761
184	0x3c174000	0.009231567
185	0xbba0d6f3	-0.0049084364
186	0xbda28ec6	-0.07937388
187	0xbdc63304	-0.09677699
188	0x3c72c6a0	0.014817864
189	0x3bc18960	0.005906269
190	0x3d19b994	0.037530497
191	0x3c96d750	0.018413216
192	0x3dbbda2a	0.09172471
193	0x3dc1ddbc	0.094661206
194	0x3df6859a	0.12037201
195	0x3c6d368b	0.014478336
196	0x3dc067d8	0.093948066
197	0xbdf4eee6	-0.11959629
198	0xbdd6b232	-0.10483207
199	0x3ca2a6f0	0.019854993
200	0x3d2d27b4	0.042274192
201	0x3d13b440	0.03606057
202	0x3d15b78c	0.036551997
203	0x3d3b12ee	0.04567235
204	0x3de731e2	0.11288811
205	0x3d4ae65c	0.049536094
206	0x3d6c53aa	0.057696976
207	0x3d65d490	0.05611092
208	0xbd5e1820	-0.054222226
209	0x3db5a354	0.08869043
210	0x3dc97b5d	0.09837983
211	0x3c8c91b0	0.017159313
212	0x3d79aaf4	0.06095405
213	0x3d9f2c64	0.07772139
214	0xbcd5bd58	-0.026091263
215	0xbc90a8b7	-0.017658575
216	0xbdacfae2	-0.084462896
217	0xbd243268	-0.040087134
218	0xbd9cd10a	-0.076570585
219	0xbc801bc8	-0.015638247
220	0xbc9c9d38	-0.019117936
221	0x3cfd5763	0.030925458
222	0xbbd4a1a3	-0.006488995
223	0x3d1e2f52	0.038619347
224	0xbdeafa30	-0.11473501
225	0x3de8f7cc	0.113753885
226	0xbcb795b8	-0.022410259
227	0x3cbb5210	0.022866279
228	0xbd95cd72	-0.07314576
229	0x3c3d7e50	0.01156576
230	0x3d7ab128	0.061204106
231	0x3da851d2	0.08218731
232	0x3d4330d4	0.047653988
233	0x3db1190a	0.08647354
234	0xbddb2f4a	-0.10702379
235	0xbd1cc738	-0.038275927
236	0xbd535c9c	-0.05160199
237	0xbcf736f8	-0.030177578
238	0x3e0dd52d	0.13850851
239	0xbd1ef104	-0.03880407
240	0xbc03ffe0	-0.008056611
241	0x3dc2fdd8	0.09521073
242	0xbdc7faa4	-0.09764603
243	0x3d48872e	0.048957042
244	0xbcf8aaa8	-0.030354813
245	0xbca74448	-0.020418301
246	0xbd8576cc	-0.06516799
247	0x3d35f178	0.044419736
248	0x3da4c01c	0.080444545
249	0x3c478f18	0.012180112
250	0xbdc4ffae	-0.096190795
251	0x3d3b8dd0	0.04578954
252	0x3dbe63bc	0.092963666
253	0xbcf01cd8	-0.029310629
254	0x3df61e6a	0.1201752
255	0x3dfe452e	0.12415539

lstm.weight_hh_l1 f4 [256, 64]
0	0x3d1034c3	0.035206567
1	0x3db8294a	0.0899225
2	0xbde23086	-0.11044411
3	0x3df2130c	0.11820039
4	0xbc21b407	-0.009869582
5	0xbd3620a8	-0.044464737
6	0x3d5b1f4d	0.053496648
7	0xbd9145f8	-0.070934236
8	0xbe088ff7	-0.13336168
9	0xbdfdd864	-0.12394789
10	0xbd5fde3d	-0.054655302
11	0x3d93294d	0.07185612
12	0xbe0bbaa5	-0.13645418
13	0x3dc712b6	0.09720366
14	0xbbdb2c7c	-0.0066886526
15	0xbd9f22af	-0.07770287
16	0x3deda138	0.11603016
17	0xbdd3eceb	-0.10347923
18	0x3d8c2cbc	0.0684447
19	0xbdd57273	-0.1042222
20	0x3ab6e1bf	0.0013952776
21	0xbc815aee	-0.015790429
22	0x3cc373c4	0.023858912
23	0xbc37456d	-0.011185986
24	0xbe0cefbe	-0.1376333
25	0xbc9680c6	-0.01837195
26	0x3c37f81d	0.011228588
27	0x3cd13bd9	0.025541233
28	0xbcd951ff	-0.026528357
29	0x3dbd80de	0.09253095
30	0xbdcc82ce	-0.099858865
31	0x3c3a2493	0.011361259
32	0xbd76bde1	-0.060239676
33	0x3db6b82e	0.08921848
34	0xbd95d94c	-0.07316837
35	0x3d04033b	0.032229643
36	0xbd5a7596	-0.053334795
37	0xbce8e75f	-0.028430639
38	0x3d66ed4e	0.056378655
39	0xbdb3e0d7	-0.08783119
40	0xbdde1ce0	-0.10845351
41	0x3ddbdd34	0.107355505
42	0x3d3adbcc	0.04561977
43	0x3dcc1949	0.0996576
44	0xbe0d28e4	-0.1378513
45	0x3deb6ab6	0.11494963
46	0xbdaf7cd8	-0.08568734
47	0x3daca243	0.084293865
48	0x3db40a27	0.08790999
49	0xbcbabde1	-0.02279562
50	0x3cb3e9a2	0.02196199
51	0x3db3e498	0.08783835
52	0xbd9e9e29	-0.077450104
53	0xbc3de3ff	-0.011590003
54	0xbd99f39d	-0.07517169
55	0x3d298e31	0.04139537
56	0x3d7a2840	0.06107354
57	0xbcf9444e	-0.030428078
58	0xbd8e0fcc	-0.06936607
59	0xbd419892	-0.047264643
60	0x3d8406b6	0.064465925
61	0x3d8e7eaf	0.06957757
62	0x3d96368b	0.07334622
63	0x3d94fd63	0.07274892
64	0x3d9eb65e	0.077496275
65	0x3e09ff43	0.13476281
66	0xbe0157bf	-0.12631129
67	0xbd866640	-0.065624714
68	0x3d5917ed	0.053001333
69	0xbce7a4e9	-0.028276877
70	0x3b2a50c9	0.0025988093
71	0xbd6c8ab6	-0.057749473
72	0xbe06eb24	-0.13175637
73	0x3a73162f	0.000927302
74	0x3d2d4416	0.04230126
75	0xbe09121e	-0.13385817
76	0x3d0c8794	0.034308985
77	0xbdb53900	-0.088487625
78	0x3d858c61	0.06520916
79	0x3c8a6ab1	0.016896578
80	0xbd795828	-0.060875088
81	0xbd708ea2	-0.058729775
82	0xbdca19d6	-0.09868209
83	0x3db3bf24	0.087766916
84	0x3d08ac11	0.03336722
85	0x3e0a443d	0.13502593
86	0xbd85e48f	-0.06537735
87	0x3dc7163c	0.09721038
88	0xbd1db20e	-0.038499884
89	0xbc6f92df	-0.014622419
90	0x3c3be4c4	0.011468116
91	0xbd2f6182	-0.0428176
92	0x3dba3e24	0.09093884
93	0x3daf1b3c	0.085501164
94	0xbcea7de0	-0.028624475
95	0xbdbe5296	-0.09293096
96	0x3e049804	0.12948614
97	0xbdcd83fc	-0.1003494
98	0xbdc6d833	-0.097092055
99	0x3de1ff79	0.11035056
100	0x3cdbaf6c	0.026817046
101	0x3cb3b2ed	0.021935904
102	0xbd6dd94e	-0.058068566
103	0x3dd4f694	0.103985935
104	0xbe0752f0	-0.13215232
105	0xbc3c0688	-0.011476167
106	0xbdb6eb6a	-0.089316204
107	0xbd0f3d28	-0.034970433
108	0xbd825fd8	-0.06365937
109	0x3db1a1c3	0.08673432
110	0x3ab2cd75	0.0013641553
111	0x3d08240a	0.033237495
112	0xbe07f27e	-0.13276097
113	0x3cd07bc5	0.025449643
114	0xbca04d84	-0.019568212
115	0xbdfca666	-0.123364255
116	0xbca82537	-0.020525558
117	0xbd99b3a7	-0.07504969
118	0xbd2b6889	-0.04184774
119	0xbc532944	-0.012888256
120	0xbd2ed2d8	-0.042681545
121	0x3daf9005	0.085723914
122	0x3cdcb8fb	0.026943674
123	0x3d00b607	0.031423595
124	0xbbcca51d	-0.006245269
125	0x3ca6b618	0.020350501
126	0xbdcd75e0	-0.100322485
127	0x3d76edae	0.060285263
128	0xbe0acfab	-0.13555782
129	0xbc8c2ca2	-0.017111126
130	0xbd2ca4d0	-0.042149365
131	0x3db8e94d	0.090288736
132	0x3d73a78e	0.059485964
133	0xbcbc82a1	-0.023011507
134	0xbc48ac02	-0.012248041
135	0x3c943bdd	0.018094951
136	0x3d70f136	0.058823787
137	0x3bc14840	0.0058985054
138	0xbd92f900	-0.07176399
139	0xbd61aec7	-0.05509832
140	0xbdddf918	-0.108385265
141	0xbd73ff6d	-0.059569765
142	0xbdb51b01	-0.08843041
143	0xbd871b7a	-0.065970376
144	0xbdc0ff50	-0.09423697
145	0x3d2232f4	0.039599374
146	0x3d7687d8	0.060188144
147	0xbc340d93	-0.0109895645
148	0x3d211109	0.039322887
149	0x3d3eb123	0.04655565
150	0xbc38581b	-0.011251475
151	0xbc94071d	-0.018069798
152	0x3d9756e3	0.07389619
153	0xbd2f7b55	-0.042842228
154	0x3d3f8656	0.046758972
155	0x3ccec233	0.025239086
156	0x3d43081d	0.04761516
157	0x3d82b385	0.06381897
158	0x3c3ef8ce	0.011655999
159	0x3dcf39cb	0.10118445
160	0xbd07aaa1	-0.03312171
161	0xbdb938c5	-0.09044031
162	0x3d4b5127	0.04963794
163	0xbd3c33f1	-0.045947973
164	0xbd921bab	-0.071341835
165	0x3d35c4c9	0.044377122
166	0x3d4048d4	0.046944454
167	0xbbda314f	-0.00665871
168	0xbcb34729	-0.021884518
169	0xbd87264e	-0.06599103
170	0x3dd03a51	0.10167373
171	0x3d25b9e9	0.0404605
172	0xbc628c39	-0.013827377
173	0x3e083d4c	0.13304633
174	0x3e0c8fb5	0.13726695
175	0xbbb306e9	-0.0054634702
176	0x3d37f186	0.04490807
177	0x3cb99e60	0.022658527
178	0xbd218da4	-0.03944172
179	0xbde16d55	-0.110071816
180	0xbdaffc1f	-0.0859301
181	0xbda5e48e	-0.08100234
182	0x3d77e417	0.060520258
183	0xbcf7f965	-0.030270288
184	0xbe09055b	-0.13380949
185	0xbd004969	-0.03132001
186	0xbd4e155a	-0.05031333
187	0x3c83975e	0.016063388
188	0x3dabd08a	0.08389385
189	0x3d8f99b4	0.070117384
190	0x3dcba5ab	0.09943708
191	0xbdec727b	-0.11545273
192	0xbe042228	-0.12903655
193	0xbbdc4367	-0.006721902
194	0xbe031726	-0.12801799
195	0x3cf62687	0.030047668
196	0x3da99ea3	0.08282211
197	0x3e05818f	0.13037704
198	0x3d67b0d9	0.05656514
199	0x3ddf841b	0.10913869
200	0xbd584615	-0.05280121
201	0xbca93c44	-0.02065862
202	0xbdfada52	-0.122486725
203	0x3dc0aceb	0.094079815
204	0x3d25ce65	0.040480036
205	0xbd885553	-0.06656899
206	0xbcc94d77	-0.02457307
207	0x3c872eef	0.016501872
208	0xbd9b0482	-0.07569219
209	0x3d8feb05	0.07027248
210	0xbe075ead	-0.1321971
211	0xbbe4566a	-0.006968309
212	0x3d13aa72	0.03605122
213	0x3deb110c	0.11477861
214	0xbca4db1b	-0.020124009
215	0x3dd8931a	0.105749324
216	0x3cfb717c	0.030693762
217	0xbd4b7a00	-0.049676895
218	0x3dc58115	0.09643761
219	0x3dea3dce	0.114375696
220	0xbd1232fb	-0.03569315
221	0xbca3bba7	-0.01998694
222	0x3d612ddb	0.05497537
223	0xbc08d400	-0.008351326
224	0xbc5bad6e	-0.013408048
225	0x3dc6c8cf	0.0970627
226	0x3d0cc347	0.03436592
227	0x3c7ef3a4	0.015561018
228	0x3e0bb870	0.13644576
229	0x3d03d6ea	0.03218738
230	0xbde15d75	-0.11004154
231	0x3d422e9a	0.047407724
232	0xbda734fc	-0.08164403
233	0x3ddb30f6	0.10702698
234	0xbd0d68b2	-0.034523673
235	0xbcb2ef13	-0.021842515
236	0x3d912d43	0.07088711
237	0xbd4ce077	-0.050018754
238	0x3e02c00a	0.1276857
239	0xbd78b1f2	-0.060716577
240	0xbd958259	-0.073002525
241	0xbd990ddf	-0.07473349
242	0xbd5bcc88	-0.053661853
243	0xbd79ae88	-0.06095746
244	0xbcde41f1	-0.027131053
245	0x3e0fa7a3	0.14028792
246	0x3da26d9e	0.07931064
247	0xbd045609	-0.032308612
248	0x3cf61f91	0.030044349
249	0x3d4f37b5	0.050590236
250	0x3dc3e2c8	0.095647395
251	0xbb8d8324	-0.0043186117
252	0xbd5e550b	-0.054280322
253	0x3e00c660	0.12575674
254	0x3deaa980	0.11458111
255	0x3c803318	0.015649363

lstm.bias_ih_l1 f4 [256]
0	0x3de9fe29	0.1142543
1	0xbd922c6b	-0.07137378
2	0xbd40d7c9	-0.04708079
3	0x3c3920ce	0.011299325
4	0x3d94536d	0.07242475
5	0x3d88d746	0.06681685
6	0x3e073ef0	0.13207603
7	0xbda8e245	-0.082462825
8	0xbd1c324d	-0.038133908
9	0x3dcaca8f	0.09901916
10	0x3d8ad190	0.06778252
11	0xbd51d952	-0.051232643
12	0x3cbedccc	0.023298644
13	0x3b8e9121	0.004350797
14	0x3db1b1d0	0.08676493
15	0x3d344c4a	0.044018067
16	0x3dc902ac	0.09814963
17	0xbdf38d03	-0.1189213
18	0x3dead9ee	0.11467348
19	0xbd3f63ca	-0.046726026
20	0x3d98aa4c	0.074543566
21	0x3d3d6669	0.046240244
22	0xbc628bfa	-0.013827318
23	0x3e011625	0.12606104
24	0x3d79d0ff	0.06099033
25	0x3bc6765f	0.0060565914
26	0xbc1a0604	-0.009400848
27	0x3ce51460	0.027963817
28	0x3c6c725a	0.01443156
29	0x3d482c86	0.048870586
30	0xbc166e72	-0.009181606
31	0xbd084af5	-0.03327461
32	0x3e098cc9	0.13432612
33	0x3d9d3dea	0.07677825
34	0xbb335d72	-0.002736893
35	0xbdadf64f	-0.08494245
36	0x3d713e4e	0.05889731
37	0x3d25e2a4	0.040499344
38	0x3a88fd69	0.0010451499
39	0xbcc42e08	-0.02394773
40	0x3d63270d	0.055457164
41	0xbd6ce09f	-0.057831403
42	0x3d905296	0.07047002
43	0xbde64257	-0.11243122
44	0xbd9c4c08	-0.07631689
45	0x3db68346	0.08911757
46	0xbd310c92	-0.04322488
47	0xbd5c09cf	-0.05372029
48	0xbd778de9	-0.06043807
49	0x3d9b765c	0.07590935
50	0x3d8c1930	0.06840742
51	0xbce9d1ac	-0.028542362
52	0x3ddb5ea4	0.10711411
53	0xbdaaf4b7	-0.08347457
54	0xbdd2c819	-0.10292072
55	0x3d6df961	0.058099154
56	0xbdb69ef5	-0.089170374
57	0xbce95ef3	-0.028487658
58	0x3d9e0be4	0.07717112
59	0xb9f8bb05	-0.00047441587
60	0xbdaebe2c	-0.08532366
61	0x3c4c6feb	0.012477855
62	0x3d9d122e	0.07669483
63	0xbd85f58c	-0.06540975
64	0xbd2fc281	-0.042910103
65	0x3c50db76	0.012747636
66	0xbc9c9c2a	-0.019117434
67	0x3c0bd3e3	0.008534404
68	0x3de3dc5b	0.11126014
69	0x3dba8dcf	0.09109079
70	0x3dd2bfd8	0.102904975
71	0x3d897bf4	0.06713095
72	0x3de74ab2	0.11293544
73	0x3de89080	0.11355686
74	0xbc6cba1e	-0.014448671
75	0xbde015e7	-0.109416775
76	0x3d30d58b	0.0431724
77	0xbd5a0f4f	-0.053237256
78	0x3e11bd9d	0.14232488
79	0x3d0d7c28	0.034542233
80	0x3d2a27ca	0.041541852
81	0x3d95bd65	0.07311515
82	0xbd7acd78	-0.061231107
83	0xbcf42a57	-0.029805345
84	0x3cfcfe2f	0.030882923
85	0x3df8b88d	0.12144575
86	0x3d1fa918	0.03897962
87	0xbc2f6719	-0.010705733
88	0x3dd9f409	0.10642249
89	0x3d7b9546	0.061421655
90	0x3d4cba60	0.04998243
91	0xbc899739	-0.016795741
92	0xbc73bd6d	-0.014876706
93	0x3cce1e79	0.025161015
94	0x3d0db3c7	0.034595277
95	0x3ddb3a97	0.107045345
96	0x3d273cd5	0.0408295
97	0x3dc84e68	0.0978058
98	0xbd6dcc90	-0.058056414
99	0xbdc64281	-0.09680653
100	0xbcfda2c4	-0.030961402
101	0x3db135f0	0.08652866
102	0xbb568b50	-0.0032736845
103	0xbd82bcf1	-0.06383694
104	0x3d6e1493	0.05812509
105	0xbd798c47	-0.060924795
106	0xbcbe5b17	-0.023236794
107	0xbdd6773b	-0.1047196
108	0x3cd4c737	0.0259739
109	0x3d8364ee	0.06415735
110	0xbbcee3f0	-0.0063137934
111	0xbddab042	-0.1067815
112	0x3d71276f	0.058875497
113	0x3d7e1c9c	0.062039003
114	0xbdc86efc	-0.097867936
115	0xbd8636ac	-0.065533966
116	0x3cd52884	0.026020296
117	0x3cc87df4	0.024474122
118	0x3dfc9b49	0.12334306
119	0x3dcec5a3	0.1009629
120	0x3d45571e	0.048178785
121	0x3c46e5d2	0.012139754
122	0x3cadbd37	0.021208389
123	0x3d32e91e	0.04367935
124	0x3d9935da	0.074809745
125	0xbdb6e655	-0.08930651
126	0xbd24e30e	-0.0402556
127	0xbd114b89	-0.035472427
128	0x3c1d3390	0.009594813
129	0x3dcfd05f	0.101471655
130	0xbd67324d	-0.056444455
131	0xbd9efd00	-0.077631
132	0x3d49c1ed	0.049257208
133	0x3d0e4773	0.034736108
134	0x3da715fb	0.08158489
135	0x3da8c486	0.08240609
136	0xbc0f5374	-0.008747924
137	0x3d829268	0.06375581
138	0x3ce3582d	0.027752006
139	0x3df4a165	0.11944846
140	0xbdbd0adc	-0.09230587
141	0xbd8d5c97	-0.06902426
142	0x3dc4343e	0.09580277
143	0x3c802698	0.015643403
144	0x3db44b7d	0.08803461
145	0x3caac187	0.020844234
146	0xbcf88759	-0.030337976
147	0x3c6950a8	0.014240421
148	0x3d992d0b	0.074792944
149	0x3be3985c	0.006945653
150	0xbc4e98cf	-0.012609675
151	0x3dbd5230	0.09244192
152	0xbdc760a1	-0.097352274
153	0xbd678bc9	-0.056529794
154	0x3df0b57d	0.11753366
155	0xbd7a64a4	-0.061131135
156	0x3dc2c500	0.09510231
157	0x3b6746c5	0.0035289985
158	0xbdfb70e4	-0.122773916
159	0x3e117788	0.14205754
160	0x3c70699b	0.014673616
161	0xbd1400a1	-0.036133412
162	0xbd896602	-0.067089096
163	0xbd13debe	-0.036101095
164	0x3dd8aa2a	0.10579331
165	0x3dafaf0d	0.0857831
166	0x3d30b900	0.04314518
167	0x3d860e46	0.06545691
168	0xbd8d0241	-0.068851955
169	0xbb82d2fd	-0.003992437
170	0xbc73be27	-0.014876879
171	0x3da15c75	0.07878963
172	0xbd16814c	-0.0367444
173	0x3de7cabd	0.11317966
174	0x3cedaf52	0.029014263
175	0x3d31c3b5	0.04339953
176	0xbd9d1614	-0.07670227
177	0x3daa278b	0.083083235
178	0x3d9aeedb	0.07565089
179	0xbdfecfa8	-0.12441951
180	0x3c7e7efa	0.015533203
181	0xbda68c7b	-0.08132263
182	0x3d9db090	0.07699692
183	0xbd771b57	-0.060328808
184	0xbd7675f1	-0.06017107
185	0xbd9453b0	-0.072425246
186	0xbda0f783	-0.07859709
187	0xbdc86a39	-0.09785885
188	0xbd493f8a	-0.04913286
189	0xbcb8bd2e	-0.022551145
190	0x3de74f33	0.11294403
191	0xbd9a2fdf	-0.07528662
192	0x3d255284	0.040361896
193	0x3d083654	0.033254936
194	0xbd884240	-0.06653261
195	0x3d9288ee	0.071550235
196	0x3d94970e	0.07255374
197	0xbdbf4598	-0.09339446
198	0xbd3d4282	-0.046206005
199	0x3de128b5	0.109940924
200	0xbd963c68	-0.0733574
201	0x3cbb1cc5	0.022840867
202	0x3cb8c8b2	0.022556636
203	0x3e125093	0.14288549
204	0xbdb1713b	-0.08664175
205	0xbb86faf2	-0.0041192705
206	0x3d6ee285	0.058321495
207	0x3d2a3a36	0.04155942
208	0xbd820d42	-0.06350185
209	0x3e0c790c	0.1371805
210	0xbcefea7c	-0.029286616
211	0x3da5db37	0.080984525
212	0xbdc1ed0c	-0.09469041
213	0x3d981c13	0.0742723
214	0xbc5069b8	-0.012720518
215	0x3d5d3f85	0.054015655
216	0xbd09b4b9	-0.033619616
217	0xbdac16c2	-0.08402778
218	0x3e0d37bb	0.1379079
219	0x3e0d3bc8	0.13792336
220	0x3df91cfe	0.12163733
221	0xbdc23678	-0.09483045
222	0x3d55c3c4	0.05218865
223	0x3dc1ce7a	0.094632104
224	0x3cfe3cd0	0.031034857
225	0xbc72f67c	-0.014829274
226	0x3d85bcd7	0.06530159
227	0xbd792d46	-0.06083419
228	0xbcfe9962	-0.031078998
229	0x3e00d1b6	0.12579998
230	0x3ded0ec9	0.11575086
231	0xbd1a8966	-0.03772869
232	0x3e167309	0.1469232
233	0xbda19988	-0.07890612
234	0xbd24c9f2	-0.040231653
235	0xbd74b013	-0.05973823
236	0x3ba3289a	0.0049792053
237	0x3d57a94c	0.05265169
238	0x3ab45b47	0.0013760113
239	0x3d618d51	0.05506641
240	0x3e16b8d2	0.14718941
241	0x3db0188c	0.08598432
242	0x3d8ee85d	0.069779135
243	0x3d0171e0	0.03160274
244	0x3d01251b	0.031529527
245	0x3d5fead3	0.054667305
246	0xbcb61637	-0.02222739
247	0x3d1298b4	0.03579016
248	0x3d89f9f1	0.06737126
249	0xbda8697c	-0.082232445
250	0xbd82060a	-0.06348808
251	0x3d830727	0.063978486
252	0xbd9f8780	-0.077895164
253	0xbcd254e6	-0.025675248
254	0x3da9cfb4	0.08291569
255	0x3daac64e	0.08338605
