models/XRPUSDT_lstm_20250822_035916.pth (torch, 244263 bytes, 11 tensors)

lstm.weight_ih_l0 f4 [256, 30]
00000000: 601f 833c 2e23 da3d 2047 e93d ccc8 babd
00000010: 76d3 c93d 5a39 c1bd bc30 fe3d cc57 e23d
00000020: 00bc 2f3b 6600 bcbd 20c4 bdbc 5889 8d3d
00000030: 66a2 aebd 90eb d4bd 402e 563d 5cd6 08bd
00000040: c8f7 ae3d c251 833d f270 e7bd 80f6 aa3d
00000050: 98d8 9dbc c8d7 e2bd dc52 5cbd f00c d1bd
00000060: bced 7dbd 0cd3 573d 2089 eabd 0058 84bd
00000070: 886b de3d d0c9 59bc e842 f0bc 60e8 97bd
00000080: 0003 e7bc b8e8 b13c c82f f6bd 2c3d 543d
00000090: f26c d23d e4aa 1d3d 208d 073c 2298 cebd
000000a0: bef6 febd a4df 223d 50fc 7c3c 4a04 94bd
000000b0: f0d7 70bd 782e e6bc 845e 7d3d 6004 ea3c
000000c0: a0d3 5fbc f010 74bc b489 31bd 9ee8 dabd
000000d0: dc99 e4bd e874 883c e0ed 64bc a2f7 b9bd
000000e0: 6eb1 83bd 3019 e8bd a8ae 013d 02fd c0bd
000000f0: 58b8 f33c a4c2 7ebd 22a7 b73d 80e4 b93b
00000100: a243 a63d 187b abbc 5c84 cc3d 0cb9 523d
00000110: 98df 483d 28b1 c33d 341d fdbd 307f 833d
00000120: eeaa d33d 4c43 653d 4c24 6c3d 107f 413d
00000130: 02bc ea3d 2cb1 a3bd 0e05 debd 40bb 35bc
00000140: 8cc7 823d de8c 9f3d 2081 a4bb 2cd1 16bd
00000150: 3ee9 80bd d433 d43d c06d e43b 50ca 063d
00000160: 88e0 54bd b065 a3bc 30d5 22bc 7a4c 8ebd
00000170: 1c27 2dbd 2049 aebd 7ce0 2a3d 08f9 753d
00000180: 38fd c9bc 60da fa3d 80ff 3cbd c41f 7cbd
00000190: f8aa bb3d 7c00 f3bd 4efc e4bd 2cce 093d
000001a0: 801d afbc e085 063c ba68 bd3d 0087 acba
000001b0: a866 8f3c dc15 abbd 380b 5bbd 60cd 6e3d
000001c0: 6405 a1bd 94aa 1e3d d6df a6bd 0865 c7bd
000001d0: c84e a13c d0e9 da3d 2a55 e13d 02e2 a13d
000001e0: 16c6 eebd a868 f13c d035 7dbd d062 f0bd
000001f0: 3e37 d3bd a467 ef3d c2e3 bb3d 8eb7 fe3d
00000200: 4053 593b c231 aabd 6043 4dbc 6881 edbc
00000210: ea28 a13d 88c7 dabc a418 7bbd c07b 3b3c
00000220: 30f8 4b3c fc41 893d 00bc dc39 7664 f7bd
00000230: 34e9 52bd 549a a13d f8c2 663d deaa f2bd
00000240: 3c60 1a3d c8df 623d 0062 193b c820 b9bd
00000250: 28d7 633d 08b0 d0bd 84c7 67bd b4c5 c1bd
00000260: f000 d53c 487f c9bc 6066 eabc 14f8 f5bd
00000270: 2ef7 adbd 80ee 69bd 44f4 37bd a086 b5bb
00000280: b004 3c3d 1a24 f8bd a008 80bb a663 b8bd
00000290: b062 afbc 1678 a33d c0c1 7fbc 380a 30bd
000002a0: 5c04 e43d f0e4 dabc 62a4 e8bd 808a 51bd
000002b0: a0ce 273c 0039 0dbb c092 003b a03e bc3d
000002c0: 948b 233d 3298 fabd 98a4 ee3c 0a4a 853d
000002d0: 8077 69bc 2071 dbbb 60a4 acbc 90c7 92bd
000002e0: 78ba a43d 54bd d13d 0867 97bc 4016 403b
000002f0: 5828 1ebd 448e a9bd 6897 993d 68bc 1f3d
00000300: 8a7c 97bd ccb4 ab3d a071 2ebc 9e2b e13d
00000310: e042 b83b 5c2e a73d c84c 0bbd 340b 79bd
00000320: 0298 cbbd 240a 8dbd 6e39 a33d 24c4 57bd
00000330: 8040 7bbb d833 80bc 3a9f eabd 0e2f aa3d
00000340: 68d8 eebc e4da a63d 38e1 59bd d877 83bc
00000350: e24e a6bd 202f 883b 201d 4b3d 8011 aeba
00000360: 0e46 f6bd 80d3 223d 9424 57bd 9651 87bd
00000370: f8e0 d03c c802 d73c e0d2 70bd ee80 f8bd
00000380: 8a9f 8b3d 9ee5 e7bd 4418 25bd 3000 7bbd
00000390: 288f 77bd 7080 69bd 2419 bbbd 4a9c b03d
000003a0: 82dc 91bd 0004 36bd 28e9 d73c a6c4 a93d
000003b0: be16 8abd b496 033d 8026 843c eecc d23d
000003c0: 009c dc3b 10db a6bd b6fd c3bd 20b7 e33b
000003d0: 1600 f13d 00b4 dfbd ccf6 efbd 9867 a2bd
000003e0: 604e df3d 4e0b 873d 343d 0e3d c643 e63d
000003f0: bc2c d6bd acc5 8dbd 9c88 ac3d 38fc 02bd
0.016006172 0.10651241 0.11390519 -0.0912033 0.09854786 -0.09434767 0.12411639 0.11051902
0.0026814938 -0.091797635 -0.023164809 0.06910962 -0.08527069 -0.103964925 0.0522902 -0.033407554
0.08543354 0.064120784 -0.113008395 0.083477974 -0.019268319 -0.11076313 -0.05378996 -0.10207546
-0.0619943 0.052691504 -0.11451936 -0.06462097 0.10860354 -0.013292745 -0.029328778 -0.07417369
-0.028199673 0.021717414 -0.12020832 0.05181615 0.10274686 0.038493052 0.008273393 -0.10087611
-0.12449406 0.03976406 0.015441015 -0.072273806 -0.058799684 -0.02809833 0.061857715 0.02856654
-0.013661295 -0.014896616 -0.043344215 -0.106888995 -0.11162159 0.016657308 -0.013972729 -0.09080435
-0.064303264 -0.11332929 0.031660706 -0.094232574 0.029750988 -0.062197343 0.08967425 0.0056729913
0.08118369 -0.02093272 0.09986183 0.051446006 0.04904136 0.09555274 -0.12359086 0.064207435
0.103353366 0.055972382 0.057651803 0.047240317 0.11461641 -0.07992777 -0.10840808 -0.011092007
0.06385717 0.0779054 -0.0050202757 -0.036820576 -0.062944874 0.10361448 0.006971091 0.032907784
-0.051971942 -0.01994595 -0.009938523 -0.069481805 -0.042273626 -0.08510041 0.04171799 0.060051948
-0.024656877 0.12248683 -0.0461421 -0.06155373 0.09163469 -0.11865327 -0.11180936 0.033643886
-0.021376371 0.008210629 0.09248491 -0.0013162792 0.017505005 -0.08353779 -0.053477496 0.05830133
-0.07862356 0.038736895 -0.08148162 -0.09736067 0.019690886 0.106891274 0.11002572 0.07904436
-0.11658876 0.02946885 -0.061818898 -0.11737597 -0.10313271 0.1168969 0.09174301 0.12437354
0.0033161193 -0.08310272 -0.0125282705 -0.02899237 0.07869132 -0.026706472 -0.061302796 0.0114430785
0.012449309 0.06702039 0.0004210174 -0.12079708 -0.05149193 0.07890764 0.05633828 -0.118489966
0.037689433 0.055389196 0.002340436 -0.09039456 0.05562511 -0.10189825 -0.056586757 -0.09461537
0.026001424 -0.024596825 -0.02861327 -0.12010208 -0.084944114 -0.057112217 -0.044910684 -0.00553973
0.045902908 -0.12116261 -0.003907278 -0.090033814 -0.021409363 0.07981889 -0.015610158 -0.042978495
0.11133644 -0.026720494 -0.113594785 -0.051157475 0.010242134 -0.0021548867 0.001961872 0.09191632
0.039928034 -0.1223606 0.029131219 0.065082625 -0.014249682 -0.006696835 -0.021074474 -0.0716697
0.080433786 0.102411896 -0.018481746 0.0029310137 -0.038612694 -0.08279088 0.074995816 0.038998038
-0.07396801 0.08384094 -0.0106472075 0.109946474 0.0056232065 0.08163139 -0.03400877 -0.0608017
-0.099411026 -0.068867 0.07969938 -0.05267729 -0.0038338006 -0.015649721 -0.11456151 0.08309756
-0.029155925 0.08147219 -0.0531933 -0.016048357 -0.081205145 0.0041560084 0.049588323 -0.0013280362
-0.120250806 0.039752483 -0.052525118 -0.06607358 0.025497898 0.026246443 -0.058794856 -0.121339664
0.06817539 -0.11323093 -0.040306345 -0.061279476 -0.06043926 -0.057007253 -0.091356546 0.0862356
-0.07122137 -0.04443741 0.026356295 0.08289461 -0.06742619 0.032126144 0.01613164 0.102929935
0.006732464 -0.081472516 -0.09569876 0.0069493204 0.117675945 -0.10923004 -0.11716995 -0.07929915
0.10903621 0.06593953 0.034726337 0.112433955 -0.10457751 -0.069224685 0.08424494 -0.031978816

lstm.weight_hh_l0 f4 [256, 64]
00000000: d04e e43c 18a0 84bd 1a1c c7bd 78eb eb3d
00000010: c470 c23d 3010 3c3c b0d1 a53c 50b2 693d
00000020: 801b 2bbb 5eac 86bd 88ef 37bd 6c59 1c3d
00000030: d24b f33d f6b9 933d 602d a8bb 8090 e83b
00000040: 8c52 70bd f2a7 9e3d a0b7 993b 207f ccbd
00000050: 90a9 eabd 7c2b f9bd 2692 ef3d 40ff f43c
00000060: 9836 c63c 6c8b c8bd ca82 eabd c2c3 b6bd
00000070: dc05 6bbd 3230 e93d e88a 19bd 80c7 c4bc
00000080: 703a 733c 4459 de3d 144b 36bd c058 493d
00000090: 5ce1 7cbd 0227 bbbd 605d e73b 061b eabd
000000a0: e4dd 943d 9463 dabd c8ec e63d 90ea 2b3d
000000b0: 60dd e93d 0cfb 1d3d 5496 3ebd 5cab c9bd
000000c0: 78d9 d5bc c468 76bd a8dd a43c e00a 5a3c
000000d0: 9ec3 ad3d ce0a d2bd f4a7 6bbd acef 3c3d
000000e0: ac05 aebd 94ec bfbd 304b 63bd 10a7 5ebd
000000f0: 0887 c7bc 10e8 eebd b6d9 933d 60b9 4c3c
00000100: d8da 21bd 68c0 40bd 9047 e83d 80f0 81bb
00000110: 3431 0f3d a4f1 613d ba0f aa3d 90b2 06bc
00000120: 0057 adbc 087b 9e3d 9a4c 843d a85f c43c
00000130: b0e1 96bc 9c68 d83d 66ae d7bd a007 0ebc
00000140: 2029 92bc 0e9d e63d b643 f63d 80ed 173c
00000150: d005 4cbc 001b 143b 486d 54bd 1e0b 973d
00000160: 4cfe df3d bcb4 75bd 58c6 a43c 1cad cf3d
00000170: e47f c93d 0038 a038 0852 19bd cc9f 893d
00000180: a8d6 f63c 38e7 9fbc 0071 2a3c 6063 663c
00000190: 2878 f2bd 34af 263d a626 a23d 7e5c b7bd
000001a0: 88c6 1f3d 6e85 c6bd daa6 b8bd d482 293d
000001b0: d4a2 393d d089 21bc a887 aa3d e0c9 edbd
000001c0: a221 eabd 24b2 283d fc77 953d aa52 9e3d
000001d0: 40c2 53bc a0d0 dfbb 9c2e 7b3d 501d bb3c
000001e0: e0a0 c8bb 48a0 c53d 00aa 223b e004 ad3c
000001f0: f83d e2bd b819 d63d a2bc a43d b03c 113d
00000200: a6ad cdbd 00c4 30bc d8a6 f0bc 2068 88bb
00000210: b048 27bd c2b4 b8bd 58dd cbbd e0dc ed3b
00000220: 84f6 c63d a0cb 623c 1450 7a3d 46d0 a5bd
00000230: 986a ed3c 5c9d 5ebd a4cd 123d 38cb 393d
00000240: e0d3 12bd 28a3 cabd f43d d8bd 0ab3 90bd
00000250: 3c03 9e3d 5e1b f53d baac ee3d 9a5d ae3d
00000260: e803 46bd 506e 91bd feab 823d 38b0 f13c
00000270: a8d6 af3d 4a65 e03d 9072 af3d 585f d7bd
00000280: 6883 a93c fcae 7ebd 50be c23d 04ad b43d
00000290: 541c 4d3d 4094 17bb 88d0 a6bc 00ab 6d3b
000002a0: 34cf d3bd 701c 1fbd 7e6f eb3d a453 1dbd
000002b0: 38ce bb3c 5c22 83bd 2ca8 ff3d 3cd3 2d3d
000002c0: b055 973d b06f f6bc 2c8b 94bd 7639 8cbd
000002d0: 8e87 eb3d fc57 d7bd 401b 1a3c e874 d3bd
000002e0: b60d b03d f858 8fbc 581d 02bd 2aa7 ea3d
000002f0: e017 183c 54e9 193d 0cfd 66bd 2c8c 73bd
00000300: 4420 bf3d 60cb 12bc a0a3 c3bb bac9 bdbd
00000310: c00d b63c b44a 94bd a025 6d3d 2867 283d
00000320: c8e5 15bd d471 a63d 1013 753d 101a cabd
00000330: 0cf5 e33d 1eb1 fbbd 749a f83d d029 703d
00000340: b210 883d 4a62 b5bd 367c 9f3d bc76 20bd
00000350: 6c03 213d e061 6d3c 0a15 9fbd 0815 873d
00000360: c232 d7bd f0cd dabc 9cbd 7bbd 8cdf b53d
00000370: c8ad bbbc d43c 58bd 04a5 7b3d 0047 af3d
00000380: d82e f23d 2ac7 f8bd b2ad efbd 40f3 e33d
00000390: 08ba 10bd ac2b 613d 80ef 1a3c 0ea6 90bd
000003a0: 4843 97bd e443 b33d 903f d13d 60dc aebd
000003b0: 4a2f a3bd 721d a3bd e4bc 5c3d 7273 8cbd
000003c0: 60cf bdbc 3876 f43d bc6b f93d e0c7 f0bd
000003d0: 106b 5bbc 6837 8cbc 2c26 e7bd 76cf f43d
000003e0: 6492 b0bd 20fe eabd 70ac 79bd a8ce 873d
000003f0: b4f8 38bd c4df b4bd 60a1 3cbc ec1c c0bd
0.027869612 -0.06475848 -0.09722157 0.115195215 0.094941646 0.011478469 0.020241588 0.057054818
-0.002610892 -0.06575845 -0.04490617 0.038171217 0.11879696 0.072132036 -0.0051323622 0.007097304
-0.058672473 0.07746877 0.0046910793 -0.09985185 -0.11458123 -0.12166497 0.116977975 0.029906869
0.024195954 -0.097922176 -0.11450727 -0.089240566 -0.057378635 0.11386146 -0.037485987 -0.02402091
0.014845476 0.1085687 -0.044505194 0.049156904 -0.061738357 -0.091382995 0.0070606917 -0.114309356
0.07268885 -0.10663524 0.11275631 0.041971743 0.11419177 0.038569495 -0.046530083 -0.09847137
-0.026104674 -0.060158506 0.020125225 0.013308257 0.08484577 -0.10255967 -0.05753322 0.046127006
-0.084971756 -0.093712956 -0.055491626 -0.054358542 -0.02435638 -0.11665356 0.072192594 0.012495369
-0.039515346 -0.047058493 0.113417745 -0.0039654374 0.034959033 0.055162087 0.08303781 -0.008221284
-0.021159649 0.0773831 0.06459923 0.023971394 -0.018418163 0.10566828 -0.10531311 -0.00866881
-0.017841876 0.112604246 0.120246336 0.009272933 -0.012452558 0.00225991 -0.05186203 0.07375167
0.10937175 -0.059986815 0.020114109 0.1014044 0.09838846 7.639825e-05 -0.037431747 0.06719932
0.030131653 -0.019519433 0.010402918 0.014061779 -0.11839324 0.04069443 0.07917528 -0.08953188
0.039007694 -0.096934184 -0.090161994 0.041384533 0.0453213 -0.009859517 0.083266556 -0.1161077
-0.11432196 0.041185513 0.07298276 0.07730611 -0.012924731 -0.00683029 0.061323747 0.022841126
-0.0061226934 0.09649712 0.0024820566 0.021120489 -0.11046976 0.10454124 0.08043791 0.035458267
-0.100428864 -0.010788918 -0.029376432 -0.0041628033 -0.040840805 -0.09018852 -0.09954327 0.0072589964
0.09714988 0.013842493 0.061111525 -0.08096366 0.028981492 -0.05434929 0.035840645 0.04535982
-0.03584659 -0.09894401 -0.105586916 -0.07065399 0.07715461 0.119681105 0.11654039 0.08513947
-0.04834357 -0.071011186 0.06380461 0.029502973 0.08585864 0.10956819 0.08566773 -0.10516232
0.020692542 -0.062178597 0.095089555 0.088220626 0.050075844 -0.0023129135 -0.020363107 0.0036265254
-0.10342255 -0.03884548 0.11495875 -0.038409844 0.022925481 -0.06403038 0.12483248 0.042437777
0.073893905 -0.030082554 -0.072531074 -0.06846897 0.115004644 -0.105148286 0.009405911 -0.103250325
0.08596365 -0.017498478 -0.031766266 0.11457665 0.009283036 0.037576035 -0.056393668 -0.05945985
0.09332326 -0.008959621 -0.0059704334 -0.09266992 0.022223353 -0.07240811 0.05789721 0.041114002
-0.03659609 0.0812718 0.059832633 -0.09868252 0.11130723 -0.12289642 0.121388346 0.058633626
0.066438094 -0.08856638 0.07787363 -0.039175734 0.039309904 0.014488667 -0.07767685 0.06595808
-0.10507728 -0.026709527 -0.061460122 0.08880529 -0.022910014 -0.052792385 0.061436668 0.08558464
0.11825341 -0.121473625 -0.117030516 0.11130381 -0.035333663 0.05497329 0.009456515 -0.070629224
-0.0738588 0.087531835 0.10217202 -0.08538127 -0.07968004 -0.079646006 0.053891078 -0.06857957
-0.023170173 0.11936611 0.12178752 -0.11756873 -0.013392225 -0.017116264 -0.112865776 0.119536325
-0.08621672 -0.11474252 -0.060955465 0.066312134 -0.045159057 -0.088317424 -0.011513084 -0.093805164

lstm.bias_ih_l0 f4 [256]
00000000: 1880 dfbc 84a2 703d 8096 b1bb 04ff bb3d
00000010: 107d cebd 5a80 e73d 7c1d d7bd e2b2 dd3d
00000020: 805d 6abd 380d ce3c 7e2a efbd 6081 86bd
00000030: 0054 133d 4055 043c f06c 3bbc 7036 733c
00000040: 1484 0bbd 8814 3c3d f0d8 d7bc 8076 68bb
00000050: 2010 c5bb f087 c4bd 140b a9bd a839 723d
00000060: 64c3 813d f0f7 1e3c b05c 96bd ac79 8ebd
00000070: b85a dc3c 28f3 963d f8ed 0d3d e019 7e3c
00000080: 7630 8bbd 8830 4a3d e006 853c 0035 e53b
00000090: 2821 2abd 0224 c5bd ec72 5bbd bc30 7d3d
000000a0: 0ad7 d7bd 40b1 273d 1e0c 84bd 885f 893d
000000b0: 74b5 2f3d 2c5f bdbd 7841 303d 184b a43d
000000c0: 0002 43bd 8af2 bd3d 3858 fdbc fc86 70bd
000000d0: 946c 64bd b087 f2bd 4073 77bb f0cd 6abc
000000e0: 643f a23d 466c cd3d 4804 a63d 9c35 e43d
000000f0: b811 f5bc 98e2 a6bc 30d0 5fbd 20c7 863c
00000100: 7c4e ebbd 901e 563c 689a 44bd d872 d03d
00000110: 3675 91bd d09d c43c 00bd 7e3c 30d8 e6bc
00000120: 94fe 593d 884f 63bd 5828 48bd d047 dabc
00000130: b814 9e3d f0a5 e43d 1076 b2bc 1c3c d5bd
00000140: 309a 593d 9e7c 9fbd 205f 0a3c 70aa b5bc
00000150: d05f 773d b444 36bd 9c4c 2f3d 4861 ee3c
00000160: 30b3 72bd 442d e9bd 52f4 c4bd cc22 b73d
00000170: 940d e8bd 9e82 81bd 1844 5c3d 7032 c93c
00000180: c27d ae3d eaf6 83bd c802 f53d 3e08 e1bd
00000190: 80ca 55bd 9237 d6bd 248f f73d a4b6 4ebd
000001a0: 08fe 113d 30a1 aabd 22a7 e83d ca44 b4bd
000001b0: b8d6 61bd 40a7 533d 547c cdbd 1842 8f3c
000001c0: 000a c7b9 b4f2 c8bd 7823 143d c0fd bbbb
000001d0: 54c9 193d f82c a3bc b082 fdbd 482f 5abd
000001e0: d6a7 a9bd a07d cd3b 2824 653d 2a1f d93d
000001f0: b8ce e0bc 2003 89bd 8054 d63b 84fe fe3d
00000200: aa96 873d 80ab 7f3c 107d cb3c b09b 88bc
00000210: 92d9 a13d d08c 8ebd f0ea 8ebc cc29 d33d
00000220: 60c0 563d 0839 673d 36a0 a43d a4a0 693d
00000230: c24a 963d 0cdd 75bd 543a 353d 3297 bfbd
00000240: 0051 2ebb 209c 06bd b662 debd 40c5 6a3c
00000250: 043d 37bd e498 9a3d 5039 af3c 404d fd3c
00000260: a031 783c 3cb7 42bd aaf8 ccbd f808 a53d
00000270: 20e2 d3bc 4070 143b 78b8 693d 8c76 e33d
00000280: 2a80 8fbd 6c00 edbd d07c a6bd fed7 d43d
00000290: a06b f3bc b845 dc3d a491 413d b058 383c
000002a0: a846 313d 80a3 203c 2075 b0bd e4da 6d3d
000002b0: f884 fa3d 9e66 b9bd 3601 eb3d cc33 8ebd
000002c0: d86a 76bd b052 d0bc 440e a23d c056 aebb
000002d0: 8c67 a33d 9852 81bd 6404 033d 5c1a ca3d
000002e0: 3032 e03c b025 f5bd d0f0 34bc 880f c13c
000002f0: 6049 873d b4a2 da3d 78eb f53d 34ae d5bd
00000300: acf4 623d 7034 d4bc e0ab 163c 48cf 98bc
00000310: 505e a1bc 0428 8ebd 0cda fcbd 1073 d83c
00000320: 82d5 d03d 0a37 983d 8a19 8e3d 1040 e9bc
00000330: 40fb 5fbc 0cd8 683d 1c37 4dbd 4817 e83d
00000340: 98d5 c93c 6c44 dcbd f0f6 edbc d82e 9f3c
00000350: 8050 c9bb 5841 ed3d 68c4 84bc 00da 20bd
00000360: 266b adbd 1ea3 eebd b85f c93d 2238 c2bd
00000370: 0899 aa3d f487 f13d d87a 92bc f229 f53d
00000380: 1019 303c 0062 d8bc 6afe e83d 14e0 2ebd
00000390: 50d2 bd3d 42b2 91bd d8cf bf3d a2a6 ac3d
000003a0: ca70 d23d 666a d4bd e860 f83d c0cc 1abb
000003b0: 506d 923c 14f8 a93d c41a 01bd 38bf bbbc
000003c0: 0407 3a3d 3696 92bd d648 8a3d b252 e23d
000003d0: a046 16bd fa38 f9bd f21d cf3d 9eff c6bd
000003e0: 20e6 f83d 5c24 023d c8d0 c13c b201 dc3d
000003f0: 4071 15bb 2e07 873d bc44 5c3d 3839 6c3d
-0.02728276 0.058748737 -0.0054195523 0.091795 -0.100824475 0.11303778 -0.105036706 0.10825135
-0.057218075 0.025152788 -0.116780266 -0.06567645 0.03596878 0.008076966 -0.011439547 0.014844522
-0.034061506 0.045918018 -0.026348561 -0.0035471022 -0.006013885 -0.095962405 -0.08254066 0.059137017
0.06336096 0.009702668 -0.073418975 -0.06956801 0.026898727 0.07370597 0.034650773 0.015509099
-0.067963526 0.04936269 0.01623863 0.0069948435 -0.041535527 -0.096260086 -0.053576395 0.061814055
-0.10539062 0.040940523 -0.06447624 0.06707674 0.042897657 -0.09246668 0.043031186 0.080221355
-0.04760933 0.09274776 -0.030925855 -0.05872248 -0.05576761 -0.118422866 -0.0037757903 -0.014331326
0.07922247 0.10030417 0.08106285 0.11143038 -0.029915676 -0.02037172 -0.054641902 0.016452372
-0.11489579 0.01306881 -0.047998816 0.10178155 -0.07102434 0.024001032 0.015547991 -0.028179258
0.0532213 -0.05549577 -0.0488666 -0.026645571 0.077187955 0.111644626 -0.021784812 -0.104118556
0.05312556 -0.07787441 0.008445531 -0.022175997 0.06039411 -0.044499114 0.04279767 0.029099122
-0.059252918 -0.11385587 -0.09616913 0.08942184 -0.11330715 -0.063237414 0.053775877 0.024560183
0.0852008 -0.064435795 0.11963421 -0.109879 -0.052195072 -0.10459818 0.12087849 -0.05046715
0.035642654 -0.08331525 0.11360003 -0.08802183 -0.055136412 0.051673174 -0.10033479 0.01748757
-0.00037963688 -0.09811917 0.036166638 -0.0057370365 0.037545517 -0.019918904 -0.12378442 -0.053267747
-0.08283965 0.006271079 0.055942684 0.10601647 -0.027442321 -0.06690049 0.006540835 0.12450889
0.06620534 0.015604854 0.024839908 -0.0166758 0.07902826 -0.069604516 -0.017446011 0.103107065
0.052429557 0.056450874 0.0803837 0.057037964 0.07338478 -0.06002526 0.04424508 -0.0935501
-0.0026598573 -0.032863736 -0.10858671 0.014329255 -0.044735923 0.07548693 0.021389633 0.030920625
0.01514855 -0.047538027 -0.100083664 0.08058351 -0.02586466 0.0022649914 0.05706069 0.111065954
-0.07006867 -0.11572346 -0.08129275 0.1039276 -0.029714406 0.10755485 0.047258034 0.0112516135
0.043280274 0.009804606 -0.0861609 0.05807008 0.12232393 -0.09052776 0.1147484 -0.06943473
-0.060160488 -0.025430053 0.07912877 -0.0053204 0.079787344 -0.06314582 0.03198661 0.09868309
0.027367681 -0.11970079 -0.011043742 0.023566976 0.06605792 0.106755644 0.12007803 -0.10433617
0.05540912 -0.02590391 0.009196252 -0.018653527 -0.019698292 -0.06941226 -0.12346277 0.026422054
0.101969734 0.07432373 0.06938465 -0.02847293 -0.0136707425 0.056846663 -0.050101385 0.113325655
0.024637982 -0.10755238 -0.029048413 0.019431517 -0.0061436296 0.11584729 -0.016206935 -0.0392704
-0.084677026 -0.11652206 0.0983271 -0.09483363 0.0832997 0.11793509 -0.017880842 0.11970891
0.010748163 -0.026413918 0.11376651 -0.042694166 0.092686296 -0.07114078 0.09365815 0.0843022
0.10275419 -0.103718564 0.121278584 -0.0023620576 0.01787439 0.0829927 -0.031519666 -0.022918329
0.045416847 -0.07157557 0.067521736 0.11050929 -0.036688447 -0.121690705 0.101131335 -0.09716724
0.12153268 0.031772956 0.023659125 0.10742511 -0.0022803098 0.06593166 0.053776488 0.057671756

lstm.bias_hh_l0 f4 [256]
00000000: 9019 89bc d0f4 e4bd 503b 0fbd 74b8 5fbd
00000010: b0c1 97bc a834 8abc cc1d 53bd 808f f83b
00000020: 8469 273d 9867 da3d 507e c23d 103a 473d
00000030: 46ad a4bd 8ad1 c2bd 903d c7bc 80ec cebb
00000040: 9c27 ee3d 3861 c1bc d8c4 babc 905f 893c
00000050: 1897 f3bc 40d1 c4bb e494 e2bd b8f2 f6bd
00000060: 48b2 bf3c f08a b0bd 8070 7cbb caef 8cbd
00000070: 704c 7dbd 2681 febd f05b eb3d 6859 b4bd
00000080: 0c80 cd3d 10af 293c bce6 a3bd ce8a e53d
00000090: c2c3 e73d 7836 a13d fcc1 78bd 926f a0bd
000000a0: d8b7 8c3c 4085 27bb 8856 e9bc 52ee cc3d
000000b0: 1c49 653d 6c82 ebbd 704c b8bd fc22 ef3d
000000c0: 580e 05bd 94a7 2cbd 604e d5bd 4650 d5bd
000000d0: 4265 da3d be62 d7bd 9c9e 43bd 6018 713c
000000e0: 8464 aebd 92ee 90bd 64f0 a23d 08c4 55bd
000000f0: 04c8 84bd 9a10 b4bd ca79 e83d 96e8 b8bd
00000100: 6257 f0bd 90da 0fbd 9054 bebd 0056 7abd
00000110: 9070 3bbd c26f bd3d 969b c93d 7407 cbbd
00000120: 0686 bc3d 889b bf3c 8677 ebbd 3015 c3bd
00000130: 62cf c23d b8a7 8bbd 38e3 033d 289e cdbd
00000140: 144b 73bd ca3b 99bd 48a7 45bd 309d b33d
00000150: cce9 25bd f0da 2ebd 5692 d93d 3e2d b9bd
00000160: 80bf aabb dada 89bd a8a8 b0bd b60b fdbd
00000170: d236 8e3d e69e ed3d 526f 91bd 5098 5dbc
00000180: c4d9 bf3d e40d 983d b6fa cbbd a8ad dfbc
00000190: e022 853c 4ca7 f1bd a4f3 80bd a83c 6cbd
000001a0: 7c66 bd3d 9a42 91bd 6819 76bd bc1a 223d
000001b0: 0080 ccb8 bced 2ebd 88ce cd3c 5a13 9d3d
000001c0: 70e3 333d 1cea 013d bac0 e0bd 6c52 1c3d
000001d0: acdf 873d 7863 a03c d420 02bd c684 d13d
000001e0: 40d2 923b 30bd 113d 3880 583d 3086 143c
000001f0: 6828 71bd 02cc 96bd c0e2 1e3c fcde ddbd
00000200: d82b cc3c e0e9 1abd f4fe 5dbd a2b8 bbbd
00000210: 98eb b0bc 466e f13d 68cd e3bd b2aa 81bd
00000220: 2aae d9bd 4c7a 2abd 6e55 b53d 1045 8cbd
00000230: e6a6 823d 98c0 eabc 62fe d43d 809b dc3b
00000240: 2a01 b9bd 70e4 a6bd 886f 9bbd d070 183d
00000250: 50a9 193d 403c ca3c 7cd1 e53d 441d bebd
00000260: 90f7 3ebc 0c33 943d da7a c03d f404 ac3d
00000270: c8ea bfbd 6cb6 0b3d b0ea b03d 0850 ad3c
00000280: 6cff 5abd 704e 4cbc a0a1 023c 7830 493d
00000290: c090 bc3d 4e9b a53d 8e5a 81bd f8c6 fa3d
000002a0: d46e 073d 1a17 b23d b07f 133d a4e2 b7bd
000002b0: a46a dfbd 5c60 a5bd bcc0 9e3d 565d 8e3d
000002c0: 2ea0 bcbd 80a0 e63a a0f3 eabc f4fb dfbd
000002d0: 20ef bcbb a09f acbd b085 303c f01c e7bc
000002e0: b4fb 94bd a0f2 f7bd 101e abbc 043a 3e3d
000002f0: 9842 5b3d 1018 a83d 9e78 a83d 78c9 893d
00000300: e0e0 da3b 8c8e 383d 9a94 a0bd cea3 bdbd
00000310: 3cb8 2a3d 88b4 a33c 68b9 983c e8a8 ca3d
00000320: 6054 5abd 5641 c83d e899 803c f025 fd3d
00000330: 30b7 793d 828f d73d 6c6c 3f3d 8801 843c
00000340: 408f b83d 0825 793d 1e3a fd3d a43c 533d
00000350: 349d a9bd 282d b43d 8014 52bc 407d 81bc
00000360: 06da f53d 1af4 d53d a2b2 febd 5ebf a43d
00000370: 002b 6d3b 581e 083d c4d3 cb3d 608a 433c
00000380: 34ca cabd 802d 13bd 10f1 ce3d 72b5 ba3d
00000390: b449 943d 3cb1 7c3d 685a 553d 8007 d03d
000003a0: 08d8 93bd c0b1 1fbc f8e1 8d3d 026a b6bd
000003b0: be21 8e3d 685a f63c ac61 30bd 6010 2fbc
000003c0: e6e4 f4bd 4048 01bd e80b 2a3d e024 6abd
000003d0: 4c38 dfbd d636 edbd 3056 933c a0d6 ee3d
000003e0: fe85 89bd dea2 a7bd 6296 fcbd 60d3 803d
000003f0: 501e d9bd a650 82bd b00e 1bbc a8aa d63d
-0.016735822 -0.11179507 -0.034968674 -0.054619268 -0.018524975 -0.016870812 -0.05154209 0.007585466
0.040872112 0.1066429 0.094967484 0.048639357 -0.08040862 -0.09512623 -0.024321347 -0.006314814
0.11628649 -0.023605928 -0.02279894 0.0167692 -0.029735133 -0.00600639 -0.11063555 -0.12058014
0.02340044 -0.0862025 -0.0038519204 -0.06881674 -0.061840475 -0.12426977 0.11492145 -0.088061154
0.10034189 0.01035668 -0.080029935 0.112081155 0.11316635 0.07871717 -0.060731873 -0.0783378
0.017177507 -0.00255616 -0.028483644 0.100063935 0.055977926 -0.114994854 -0.08998954 0.116765946
-0.032484382 -0.042152002 -0.104153395 -0.104157016 0.10663845 -0.105168805 -0.047758684 0.014715284
-0.085152656 -0.07076754 0.07956007 -0.052188903 -0.064834625 -0.08792229 0.113513544 -0.09028737
-0.11735417 -0.035120547 -0.09293473 -0.061117172 -0.045761645 0.09249832 0.09844129 -0.09913531
0.092052504 0.023389593 -0.11497407 -0.095255256 0.095122114 -0.06819099 0.032199115 -0.100399315
-0.059397772 -0.07482107 -0.048255235 0.087702155 -0.04050617 -0.042689264 0.106236145 -0.090418324
-0.005210817 -0.06731196 -0.086259186 -0.12355749 0.0694405 0.11602573 -0.07101311 -0.013525084
0.09367707 0.074245244 -0.09959929 -0.027304485 0.016251981 -0.117994875 -0.06296471 -0.057675034
0.09248063 -0.07092781 -0.060082823 0.039576277 -9.75132e-05 -0.04270719 0.025122896 0.07669707
0.043918073 0.031717405 -0.1097426 0.03816454 0.06634459 0.01957868 -0.03176959 0.10230403
0.00448063 0.035580814 0.052856654 0.009065196 -0.058876425 -0.0736313 0.009697616 -0.108335465
0.02492325 -0.037820697 -0.05419822 -0.09166075 -0.021596715 0.11788611 -0.111231625 -0.06331386
-0.10628922 -0.041620538 0.08854185 -0.0684911 0.063794896 -0.028656289 0.10400082 0.006732404
-0.09033425 -0.0814904 -0.07589632 0.03721696 0.037514985 0.024686933 0.112215966 -0.09282926
-0.011655703 0.07236299 0.09398432 0.08399382 -0.09370953 0.034109518 0.08638513 0.021156326
-0.053466246 -0.012469873 0.007973105 0.04911849 0.09207296 0.08086263 -0.063161 0.122449815
0.03306468 0.086958125 0.036010444 -0.08978775 -0.10909012 -0.0807502 0.07751605 0.06951396
-0.09210239 0.001759544 -0.028680623 -0.10936728 -0.0057658106 -0.084288836 0.010774061 -0.02821204
-0.07274571 -0.12106824 -0.020888358 0.046442047 0.053530306 0.082077146 0.08226131 0.0672788
0.006679639 0.04505782 -0.078408435 -0.09259759 0.041679606 0.019983545 0.018643096 0.098954976
-0.053303123 0.09778087 0.015698388 0.12360752 0.060965717 0.10525419 0.04673426 0.016114011
0.09011698 0.06082633 0.123646006 0.051571503 -0.08281937 0.08797675 -0.01282227 -0.015806794
0.12004475 0.10446949 -0.12436415 0.08044313 0.003618896 0.033232063 0.099525005 0.011934847
-0.099018484 -0.035932064 0.10104573 0.09116639 0.0724062 0.06169246 0.05208817 0.101576805
-0.07218939 -0.009746969 0.06927866 -0.08906938 0.069400296 0.030072406 -0.043061897 -0.010685056
-0.119577214 -0.031563044 0.04151526 -0.057164073 -0.1089941 -0.11582725 0.017985433 0.1166203
-0.0671501 -0.08185361 -0.12333371 0.062903166 -0.10601485 -0.06363039 -0.009463951 0.10481769

lstm.weight_ih_l1 f4 [256, 64]
00000000: 8c78 8c3d 4047 9b3b ac77 0ebd d43d 14bd
00000010: 8a3e 853d f24c b03d 3c52 4dbd 6c5b 06bd
00000020: d76d febc 769a c73d 3020 29bd 74e7 423d
00000030: 9874 3b3d 224f 94bc 280d c03d 7d01 dc3c
00000040: 98e4 6d3d 00ac 26bd ac0a fabd a09a 273d
00000050: 8ce4 b5bd 0002 95ba 8653 c6bc c0fb b83c
00000060: a6d4 d8bd 6612 f43d 3d72 373d 387c aabc
00000070: d209 d23d 80f0 c4bc 424c afbd d8b3 cbbc
00000080: e08a 59bd 1ab9 443d ed52 af3d 6cc7 d3bd
00000090: a26b aa3d dee9 fe3d a606 ffbd 0055 4abd
000000a0: c062 20bc c80b 9bbc 005e 563c 1bec bd3d
000000b0: 012b 92bd a89f ff3c acc6 903d 133f b9bc
000000c0: 5c6e b6bd 41c1 ae3d 4408 ff3d aee9 a7bd
000000d0: 65f2 b13d 2a7a cfbd 0844 263d 8073 9c3a
000000e0: 2e50 cb3d b0b5 c73c d6ff 443d eb9d b33c
000000f0: dc6e fcbd 5c67 c93c 84ad 873d 75a1 e1bd
00000100: 54b1 37bd c045 89bb 88ee e1bd b8c4 8c3c
00000110: 3e45 ccbd 745a 70bd 5ca4 71bd 60c2 bfbc
00000120: bff9 9cbc 4084 4d3d 00e4 353c 429a fdbd
00000130: 37ff 533d 9c75 d23d a08d 823c 2900 1cbd
00000140: f88d 80bc 604d 29bd cc96 fdbd c036 663d
00000150: 42ea 96bd d867 f33c fa0a 08be f40f 533d
00000160: e057 b0bc bc2d e0bd 9bbe 873c 4863 ce3d
00000170: ecd1 4c3d 6423 533d bad7 7e3d 3a3f bcbd
00000180: 70a4 d03c 0085 5a3d 5e6b 813d 383b c3bc
00000190: 4c49 723d c460 84bd 685c 6abd 388d 953d
000001a0: 1084 363c 4a10 d73d 2c21 07bd db3b 743d
000001b0: 2087 80bd 1615 f1bd 4437 a23d a050 c1bb
000001c0: cc86 16bd f6e4 863d 00a8 15ba 2c71 fc3b
000001d0: 4474 d2bc 4cd3 0dbd 88c5 ddbd 3683 b1bd
000001e0: 3ce3 1fbd fc25 f2bd 48b0 f13d 08d1 36bd
000001f0: 4abb 073e af95 033e 3610 babd 3aa7 17bb
00000200: a08a 84bc e044 ca3c 06ce 9bbd 640d e43d
00000210: a6c7 c9bd 204e 6b3d a852 95bc 806b c5ba
00000220: 8195 e3bd 2e0b 97bd ca1c a03d 406b 1abb
00000230: d748 8a3d cea9 143d 0814 ed3d 0b3c 23bd
00000240: 1285 b1bd 52a1 82bd 1639 e9bd dc77 f23d
00000250: 6417 533d 9663 adbd 7ff9 95bc 6a89 dabd
00000260: 582f a53c bcb4 8e3d 3739 183d f8a4 d53c
00000270: 0cb5 3bbd 54a8 b8bd a823 b6ba 0c4a 1cbd
00000280: 2e9b 9a3d 0076 9d3d 2ea5 d73d 40e9 92bc
00000290: 9612 fabd 4047 d43c f0a9 c6bd 50a5 a43c
000002a0: 963c 99bd c091 64bd c834 40bd 31f6 dcbb
000002b0: 20ba b03c 244a 3dbd 38b0 adbd fa01 1e3d
000002c0: fc4e 15bd bcde d73b 58fd 0e3d dc4f afbc
000002d0: c84f 7f3d 3871 54bd d4eb fa3d 38c8 41bd
000002e0: be09 dabd 50e2 cb3d c2bc b5bd 48d3 ba3d
000002f0: 3234 95bd a4c4 98bd 40ca 153b fcc2 22bd
00000300: e254 85bd f0f1 803c 5265 81bd 482a 823c
00000310: 12d1 edbd d07d 413c 30ce 09bc 10d9 da3d
00000320: eea5 b5bd c049 ff3c b0a2 8c3c f839 86bd
00000330: 9e61 ddbd fedf 893d 1882 61bd a6cc 953c
00000340: a00e 093c 38be 813d a038 cebd 5832 12bd
00000350: d87e 063d feff 873d 0aee 90bd 3819 af3c
00000360: a4e2 66bd 58e5 0dbd 61bb d83c b4f1 a53d
00000370: 24ce fd3d 7efb 82bd 3c4a 013e fe92 84bd
00000380: a0e2 d93c eb5f 083e d38d 98bd 3273 c4bd
00000390: 365a a13d c272 f63d 3278 d23d 8cc0 ffbd
000003a0: aef4 fbbd 1cda edbd 3647 bd3d bc27 f13d
000003b0: 6b21 f5bd 285f 163d fa1b db3d 7b3c c43d
000003c0: 006a 90bc e9e1 093d 30be 8abd 0c6b e93d
000003d0: c1dd 02be c48f bcbd a08a e43d f2f5 813d
000003e0: a0c7 d73b d2d3 fb3d 6546 703d ff7c a6bd
000003f0: bb5a dfbc 1d25 753d 80ff cd3b d199 babd
0.0685893 0.0047387183 -0.034782097 -0.036191776 0.06506069 0.08608426 -0.050127253 -0.03280203
-0.031058235 0.09746258 -0.041290462 0.047584012 0.04576549 -0.01810414 0.09377509 0.026856178
0.058079332 -0.040691376 -0.12209067 0.040918946 -0.088814825 -0.0011368394 -0.024209749 0.022580981
-0.105874345 0.11917572 0.04478668 -0.020811185 0.10255779 -0.02404046 -0.08559467 -0.02486603
-0.053110957 0.04802809 0.08560739 -0.10340771 0.083213106 0.124469504 -0.1245244 -0.04939747
-0.009789169 -0.018926516 0.013083935 0.09273549 -0.071371086 0.03120406 0.07069144 -0.022613084
-0.08907768 0.08532954 0.124527484 -0.08198868 0.08688811 -0.10130723 0.040592223 0.0011936277
0.099274024 0.024378628 0.048095547 0.021925887 -0.12325832 0.024585418 0.06624892 -0.110171236
-0.044846848 -0.004189223 -0.11031824 0.017183647 -0.099741444 -0.058680013 -0.058994636 -0.023408115
-0.019162057 0.05017495 0.011101723 -0.12382938 0.051757064 0.102763385 0.015936673 -0.03808609
-0.015692696 -0.041333556 -0.12382278 0.056204557 -0.073689 0.029712602 -0.13285437 0.051528886
-0.021526277 -0.10946223 0.01657038 0.1007753 0.050004885 0.051547423 0.06221745 -0.09191747
0.025469035 0.053349495 0.06319307 -0.023831949 0.059151933 -0.06463769 -0.05721703 0.07302326
0.011139885 0.10501154 -0.03299062 0.059627395 -0.06275773 -0.117716 0.07920697 -0.005899504
-0.036749646 0.065866396 -0.0005708933 0.007703921 -0.025690205 -0.034625337 -0.10828692 -0.086676046
-0.039035067 -0.11823651 0.11801201 -0.04463294 0.13255039 0.12850069 -0.09085123 -0.0023140446
-0.016179383 0.024691045 -0.07607655 0.111353666 -0.09852533 0.057447553 -0.01822789 -0.0015061945
-0.111125 -0.07375179 0.07817991 -0.002356246 0.06752174 0.03629475 0.11576086 -0.039852183
-0.08667959 -0.06378426 -0.113878414 0.118392676 0.05153598 -0.0846626 -0.018307446 -0.10670741
0.020164177 0.06968066 0.03716394 0.02607964 -0.045826957 -0.09016481 -0.0013896124 -0.038156554
0.075491294 0.07688522 0.105295524 -0.017933488 -0.12210576 0.02591288 -0.09700382 0.020098358
-0.07482259 -0.05580306 -0.046925336 -0.0067432155 0.021573126 -0.046213284 -0.08480877 0.038576104
-0.03645228 0.0065878313 0.034909576 -0.021400385 0.062331945 -0.051865786 0.12252012 -0.047310084
-0.106463894 0.09955275 -0.08873893 0.0912233 -0.07285346 -0.07459381 0.0022856146 -0.039736733
-0.06510331 0.015740365 -0.063181534 0.015889302 -0.116121426 0.011809781 -0.008410975 0.10685933
-0.08869539 0.031163096 0.01716742 -0.065540254 -0.108096346 0.06732176 -0.055055708 0.01828606
0.008365303 0.063351095 -0.10069394 -0.035692543 0.03283581 0.066406235 -0.07076652 0.02137433
-0.056368485 -0.034642547 0.026456537 0.08102742 0.12392834 -0.063956246 0.12625974 -0.06473349
0.026597321 0.1331784 -0.07448926 -0.09592284 0.078785345 0.12033607 0.10276832 -0.12487897
-0.12302528 -0.11613867 0.09242098 0.11775157 -0.119692646 0.03671184 0.106986955 0.09581848
-0.01762867 0.03366271 -0.06774557 0.11397371 -0.12779905 -0.092071086 0.11159253 0.063457385
0.0065850765 0.12296261 0.058660883 -0.0812931 -0.027264943 0.059849847 0.0062865615 -0.091113694

lstm.weight_hh_l1 f4 [256, 64]
00000000: 01da b43d 85b8 efbc 2b03 c23d 3261 873d
00000010: 0f59 7b3d a798 d03c e3f9 53bd 5233 3f3c
00000020: aa6f eb3d 06be db3d 5cc6 1a3d 5bd4 bc3d
00000030: 0029 d7bd f363 2c3d 226f 07be c02b 34bb
00000040: d7c0 71bd cdcf 673d 4a98 783c e1a8 f7bd
00000050: 90d4 5e3d 515a d63d 0dd5 413d 0866 133e
00000060: a3f3 21bd e91c 8a3c 60a8 0c3e 038f 0e3b
00000070: f69d 07be 725c 2dbc 99b5 8cbd e6c9 2dbd
00000080: cd95 dc3d cbb3 d0bd bd22 9e3c 696e 113c
00000090: 392e 813d 3b7d 783d ddbb f7bd 1a98 69bd
000000a0: 2a28 82bd 8722 abbd 72cb c0bd 43a7 93bd
000000b0: d870 b4bd 9c07 37bd 76fc 04bd 6245 183d
000000c0: e47c 053b 4f71 4e3c 3abd 8d3d b006 29bb
000000d0: ef4e 9c3c faa8 e93d 1456 b1bd 3fef 6abd
000000e0: e882 64bc 2b9a 793d c440 d73b a851 8fbd
000000f0: 4801 2bbd 0efe 78bd 0697 623b c7b7 c33d
00000100: 7558 e13d 19a9 a33d 9426 d4bd 453e 15be
00000110: 6358 20bd 1c5b 143e ca81 433c 443f cc3d
00000120: 50b9 9bbd cbfb 873c bea5 38bd 9d22 f0bc
00000130: 6e5f 963c 9e66 8f3c a5a3 03bd d3c6 c8bc
00000140: 1d51 edbc becc a8bd 505e e2bd f007 4dbd
00000150: b1e2 533c 1ff2 a03d f9ae 013e 999f d43d
00000160: 0f67 50bd 29d0 913d 6d58 ad3d 07aa 943d
00000170: 2e9f bc3d e4eb 91bd 24a3 c53c baa6 633d
00000180: a769 f93d 6c88 babd 02ab 4e3d 4372 b63c
00000190: a185 293d e287 07be 2129 a7bd b4ec f9bd
000001a0: 55fa 373d e864 533c 5ad1 a9bd 661a 053e
000001b0: 182b 73bd 02dd a0bd fe2a 2abd 74d2 2f3c
000001c0: 07a3 083e b20a 11bc af9e 533c 73c6 85bc
000001d0: 662a 09bd e031 af3d 00de 2f3c 4a7a 4e3d
000001e0: be88 a7bd fdb1 a8bd 3754 1abd 4cf8 963d
000001f0: 66fe e63d 1e00 5f3d e8c0 5ebd 18d2 63bd
00000200: 8c71 4cbc c25f a7bd 3875 e03c 389d 9a3d
00000210: c6df fb3c 0693 313d 1497 56bd 4979 d63d
00000220: 62f2 eb3d 5af8 14bd 1d79 70bd 1c60 1c3d
00000230: d97e f63d 50c7 2cbd 9d76 a13d 28c8 45bd
00000240: aa22 323d 8bc7 da3c 3dd4 2cbd 9746 05be
00000250: ebf8 ffbd eaa9 663c 8c00 993d e490 99bd
00000260: 3042 913d a2a2 763d 6618 44bd b87b 9dbd
00000270: 9a51 94bb 8a7b 023e c8f6 1abd ebd5 f7bc
00000280: c6dc dfbd 0853 063d 01dc a6bd 4f64 abbd
00000290: e367 473d 8e99 4fbb 8e74 cebd 0656 953b
000002a0: ec3b e83c 3235 1e3e ac8b c6bd c202 e6bd
000002b0: 2f85 afbd c40a 4ebd b639 96bc 8a7f f33d
000002c0: 4bde 233d 505d 573d b17f 553d dc92 e73d
000002d0: 11c0 a9bd 8548 a2bd 0e0a 2bbd 3ae7 72bd
000002e0: 2d93 423d 77be 0a3e 18d8 cdbd 0214 52bb
000002f0: f162 063d 92d3 9c3c 5e41 8abd abe1 133e
00000300: 54fc ccbd 4675 e9bd 97b6 fd3c 6bed 343d
00000310: 0c66 01bd 46f5 6c3d 6536 0abe 80fb 87bc
00000320: e6a3 89bc 637f 993c 9c04 a93b e8c7 c53d
00000330: 71f1 10bd 0a88 913c d677 e8bc 729e debd
00000340: 61c0 d9bd 4f1c abbd 5378 c93d 6f79 a5bd
00000350: 1a01 cf3d 6027 dc3d aa2c 92bd 0d88 b93d
00000360: b92c 73bd 34ae b5bb bfaa 813c 3715 8339
00000370: aca4 153d 585e 023d 10dc f6bd 8984 d23d
00000380: d469 a73d 93f9 3f3d ff11 033d 5393 40bd
00000390: 2c06 c13d d810 fabd 428b 09bd e84e f0bd
000003a0: 0e7f d1bd ab71 59bd 9785 bb3d 9191 623d
000003b0: 6aae 99bd bf31 70bd a366 cc3d 97fa 21bd
000003c0: 3d00 93bd 738b bcbd 4992 c2bd 72a0 d6bc
000003d0: c727 fabc b51d 9d3d 65ab f0bd e64f 2fbd
000003e0: dda7 08be bb53 a73d 2122 3f3b 7e11 81bd
000003f0: f161 0d3c b99b 0f3e f20c 333d d375 883d
0.088306434 -0.02926279 0.094732605 0.066103354 0.06136423 0.025463415 -0.051751982 0.011669951
0.114959076 0.107296035 0.037786826 0.09220191 -0.10505867 0.042087507 -0.13225988 -0.0027491897
-0.059021797 0.05659466 0.015173027 -0.12092758 0.054401934 0.10466445 0.04732232 0.1439439
-0.03953899 0.016859489 0.13736105 0.0021752722 -0.13243851 -0.010581123 -0.068705745 -0.042428873
0.1077076 -0.10190543 0.019303674 0.0088764215 0.063076444 0.060666304 -0.12096379 -0.05702982
-0.06355317 -0.08356195 -0.09413804 -0.07209637 -0.08810586 -0.04468499 -0.032467328 0.037175544
0.002036863 0.012600257 0.06920858 -0.002579134 0.019080607 0.11409183 -0.08658996 -0.05735707
-0.013947226 0.06093804 0.006569 -0.069979966 -0.04174927 -0.06078916 0.003457488 0.09556537
0.110032 0.07991237 -0.10358921 -0.14574535 -0.039146792 0.1448788 0.0119328 0.099730045
-0.07603705 0.016599556 -0.04507994 -0.02931338 0.018356051 0.017504986 -0.032138485 -0.02450887
-0.028969342 -0.082421765 -0.11053145 -0.050056398 0.012932465 0.07858681 0.12664403 0.10382003
-0.050879534 0.071197815 0.084641315 0.07258993 0.092100486 -0.07125071 0.024125643 0.055578925
0.12178355 -0.09108052 0.050456055 0.022271281 0.041387204 -0.13235429 -0.081621416 -0.12203351
0.04491647 0.012902476 -0.08291884 0.12998351 -0.05936727 -0.07854654 -0.041544907 0.010731328
0.1334344 -0.008852648 0.012916251 -0.01632998 -0.0334877 0.08554435 0.010734081 0.050409593
-0.081803784 -0.082370736 -0.03767797 0.073715776 0.112789914 0.05444347 -0.05438319 -0.055620283
-0.012478244 -0.08172561 0.027399644 0.07549518 0.030746352 0.043353103 -0.052390173 0.10472352
0.1152084 -0.03636966 -0.058709253 0.038177595 0.12035913 -0.042182267 0.07883952 -0.048286587
0.04349009 0.026706478 -0.042194594 -0.13015209 -0.12498649 0.014078597 0.074708074 -0.07498339
0.070927024 0.060213692 -0.04787483 -0.07689613 -0.004526329 0.12742439 -0.037833005 -0.030253371
-0.10930781 0.03279403 -0.08147431 -0.08368742 0.04868306 -0.003167722 -0.10080825 0.004557374
0.028348885 0.1544998 -0.09694609 -0.11230995 -0.08570325 -0.050303236 -0.018338066 0.118895605
0.040006917 0.052579224 0.05212373 0.11307308 -0.08288587 -0.07923988 -0.041757636 -0.059302546
0.04750364 0.13549219 -0.10050982 -0.0032055383 0.0328092 0.019143853 -0.06750749 0.14441554
-0.10009065 -0.11399321 0.030970855 0.044171732 -0.03159146 0.0578511 -0.13497312 -0.016599417
-0.016801786 0.0187375 0.00515802 0.0965727 -0.035386506 0.017765064 -0.028377455 -0.10870065
-0.106323965 -0.08355009 0.09837403 -0.08079802 0.10107632 0.10749698 -0.07137425 0.09059153
-0.059368823 -0.0055444483 0.015828488 0.00025002073 0.036533996 0.031828254 -0.12053692 0.10279185
0.08174482 0.046868872 0.031999584 -0.0470155 0.09425005 -0.12210244 -0.033580072 -0.117338
-0.10229312 -0.053086918 0.091563396 0.055314604 -0.0750397 -0.05864119 0.09980514 -0.03954562
-0.0717778 -0.09206285 -0.09500558 -0.026199553 -0.030536545 0.07671682 -0.11751441 -0.042800806
-0.13345285 0.08170267 0.002916463 -0.063021645 0.008629308 0.14024247 0.043713517 0.06663098

lstm.bias_ih_l1 f4 [256]
00000000: 6beb d43c 259a a8bd c8cf 25bd dece 093d
00000010: 8ab9 a0bd ee82 7dbc 98ba 40bd 436e 8abc
00000020: 8264 023d 3145 603c 3cf5 243d fd7d 583b
00000030: efe9 2abb cded b5bd cd4c 20bd 2de4 ba3d
00000040: bdfa efbd d066 84bd e021 453d 089c 08bd
00000050: d9e0 8b3d 2a02 cb3c 0938 e7ba f72e e53d
00000060: 2068 383d e126 dfbb 064e 233c 71f3 9d3d
00000070: df51 8e3d bcca aabd 69e7 2fbd 5588 853c
00000080: bd00 95ba d36d a93d 7051 afbd af58 073e
00000090: 6788 eb3c 4ac2 adbd 0bd5 e33d 54d9 103e
000000a0: 7f6b 44bd 9e8d a6bd 3ce3 a5bd 460f 95bd
000000b0: 311e adbc 5a38 f63d 7397 4bbd 5006 1a3d
000000c0: bc54 65bd 21e0 d33d 8b8b b53d 9cc5 03bb
000000d0: 4e9a 3ebd 39c8 0d3d 47ae e53d 0b58 88bc
000000e0: 2109 32bd e6d0 523d 3f04 9abd 2bab 4bbd
000000f0: ad3e 893b 0181 6e3d 9c44 b23d 3bbb ef3d
00000100: adb9 f73d d90b f2bc 2c69 89bc 11ce 043e
00000110: af90 8e3d fd56 533d 352e a23c 5d18 9abd
00000120: 5d6b febc 3e3c 803d 7ce2 5bbc 84d4 e93c
00000130: 14ce 6d3d 074d 9a3a 072b ab3d cfa8 b5bc
00000140: 4bec 2b3d 25d8 6c3b 2de6 953d 503b 093e
00000150: d230 8cbc 13cd b93c e39f ac3d 7a01 cf3d
00000160: 2972 98bc 227a e03d de62 70bd 7100 b33c
00000170: bea4 053e 4344 d73d e265 333d 6bf8 db3b
00000180: a247 91bb 5015 113d 8f47 4d3d 0c49 9ebd
00000190: 02f6 583c 914a 4abd ec33 b63d 1d63 4b3c
000001a0: 578f b1bd 8c17 a83d 41f3 6ebd 6492 8ebd
000001b0: 93bf f03d 92de 6cbd 444b aa3d ca8a fbbc
000001c0: 8b35 c23d 9486 c03d 6c00 2fbd bee4 4abd
000001d0: 67cb 70bd 93f1 4abd e3d1 02be 1868 a5bd
000001e0: 055f 063c b1a8 88bd 743d 023e adee 25bd
000001f0: 3f96 35bc 0a96 02bc edee d83d 278b a0bd
00000200: 5685 633d beaa 4a3d a644 67bc 5fa3 efbd
00000210: db42 eebd 75e4 c2bd 41f5 c33d 6dad 533d
00000220: 503b 31bc 9e28 43bd 216b 00be 3911 5bbd
00000230: 0c44 c33d 863d b83c 9c4f f23c 5350 f5bd
00000240: ed97 20bd b83a 063d 8570 06be 2bf0 913d
00000250: db58 d6bd f328 843d a829 833d c2b4 fa3d
00000260: 012c 873c e2e4 e2bd 18cd e3b6 977d bfbd
00000270: 3812 ac3d 63b4 dfbc 387f 63bd 6844 c83d
00000280: 7047 99bd 7593 d0bd 3eab d43d e09f 893d
00000290: 3deb 8dbd 63e1 fcbd 0be9 503d d9a8 693d
000002a0: da22 b93d 1932 28bd 394d 31bd e436 013e
000002b0: 375d 04bd 44c4 913d cd9c 343c ce54 f43d
000002c0: 9455 bc3a b5bd c13d 3b47 fb3b c0ed c43d
000002d0: 68f8 cbbd 77e9 f7bb f1eb 80bd 75d9 a3bd
000002e0: a143 71bd 0a84 a1bd feb2 d0bd 7988 d23d
000002f0: c941 8d3c decc 3c3d 6177 e8bd ceae b53d
00000300: 23a5 f53d 4e20 52bc 83b3 0b3e acdd dc3d
00000310: 8440 043e 281a 773c 543b 5a3d 3dba a43d
00000320: cc88 4cbd 8d97 c1bd f86d 5bbc 9212 9dbd
00000330: 56da 93bb 2c6e 3dbc b261 0e3e 32dd 99bd
00000340: 1658 7b3d 4880 833d 3841 a83d 01d2 b73d
00000350: 09e2 cbbd 1d24 4dbd 4c4b 1c3a b8ca e03d
00000360: 1070 5ebd 380c 5cbc 0a97 733c 0bca dc3c
00000370: 8d2e 723d f41c d93c a613 f23d 1f6a b8bc
00000380: 1438 013e 6994 4ebd 343e 6d3d dc39 8b3d
00000390: 845d 963c 88a3 a0bd f938 ab3d 98af a33d
000003a0: 1a42 1dbd 7977 cc3d 01d3 713c 2713 113e
000003b0: 2a8b 513d 91e5 39bd 3733 7abd a5bb 33bd
000003c0: ef96 47bd 88ff 063e d3fc 84bd 33e7 0a3d
000003d0: 903d 053d f751 6c37 3b93 47bd c270 6ebd
000003e0: 2530 963d df69 39bc 85ac ed3d eb16 92bd
000003f0: b968 173e 67c5 353d 50b2 ca3d 446a 9e3b
0.025991162 -0.08232526 -0.04048136 0.03364455 -0.07847889 -0.015473111 -0.04705295 -0.01689828
0.031834133 0.0136883715 0.040272936 0.003303408 -0.0026079377 -0.088832475 -0.039135743 0.09125552
-0.117177464 -0.064649224 0.04812801 -0.033351928 0.06829996 0.024781305 -0.0017640601 0.111905985
0.045021176 -0.0068100546 0.009967333 0.077124484 0.069492094 -0.0833945 -0.0429453 0.01630036
-0.0011368018 0.082729004 -0.08560455 0.13217424 0.028751565 -0.08484323 0.11124619 0.14145404
-0.04795408 -0.0813248 -0.08099982 -0.07278304 -0.02113256 0.12022467 -0.04970498 0.037603676
-0.055989012 0.103454836 0.08864506 -0.0020106798 -0.046533875 0.034614775 0.112148814 -0.016643545
-0.043465737 0.051468752 -0.07520341 -0.049723785 0.0041883797 0.058228496 0.087044924 0.11705633
0.12095962 -0.029546665 -0.016773783 0.12969233 0.0696119 0.05159663 0.019797424 -0.07524178
-0.031057054 0.0626149 -0.013420697 0.028543718 0.05805786 0.0011772224 0.08357816 -0.02217522
0.041973393 0.0036139574 0.07319293 0.13401532 -0.017113123 0.022680795 0.084289335 0.101077035
-0.018609123 0.10960795 -0.058688037 0.021850796 0.13051125 0.10511067 0.043798335 0.0067129633
-0.004433588 0.035420716 0.05011707 -0.07728776 0.013242247 -0.04938752 0.08896622 0.012413767
-0.08669918 0.08207616 -0.058337454 -0.069615155 0.1175529 -0.057829447 0.08315137 -0.030705828
0.09482869 0.09400669 -0.04272501 -0.04953455 -0.05878773 -0.04954679 -0.12775378 -0.08076495
0.008201365 -0.066728 0.12718755 -0.040510822 -0.011083185 -0.007970342 0.105924465 -0.07839041
0.05554708 0.04947924 -0.014115488 -0.117010824 -0.116338454 -0.09516231 0.09568263 0.051679064
-0.010817364 -0.047646157 -0.12540866 -0.05348322 0.09534463 0.022490274 0.029578976 -0.11978211
-0.039207388 0.032770842 -0.1312886 0.071258865 -0.104661666 0.06453123 0.0640443 0.12241508
0.016500475 -0.11078812 -6.7890032e-06 -0.09350126 0.084019125 -0.027307695 -0.055541247 0.097786725
-0.07484329 -0.10184375 0.10384224 0.06719947 -0.06929634 -0.123476766 0.051003497 0.05704579
0.090398505 -0.0410634 -0.043286536 0.12618595 -0.03231546 0.07117513 0.011023712 0.11930238
0.0014368766 0.09460012 0.0076684034 0.0961566 -0.09959489 -0.007565673 -0.06295002 -0.08000461
-0.058902387 -0.078865126 -0.1019039 0.10279936 0.017243283 0.046093814 -0.11350895 0.08871232
0.11994388 -0.012825085 0.13642697 0.10784468 0.12915236 0.01508192 0.053279236 0.08043335
-0.049935147 -0.09452734 -0.013392918 -0.07669558 -0.0045121117 -0.011561912 0.13904455 -0.07512893
0.061363302 0.06420952 0.082155645 0.08975602 -0.09955222 -0.05008327 0.0005962148 0.109761655
-0.05430609 -0.013430648 0.0148675535 0.02695181 0.059126426 0.026503064 0.11820154 -0.02251154
0.12619048 -0.050434504 0.05792065 0.06798145 0.018355139 -0.07843691 0.08360476 0.07992476
-0.038393117 0.09983725 0.01475978 0.14167462 0.051158108 -0.045384947 -0.061084 -0.043880124
-0.048727926 0.13183415 -0.06493535 0.033911895 0.032529414 1.408578e-05 -0.048724394 -0.058213003
0.073334016 -0.011316746 0.11605171 -0.071332775 0.14786042 0.04437771 0.09897292 0.004834445
